models_weight_enc_dec_lstm/enc-dec-lstm_9.pt (torch, 111561 bytes, 9 tensors)

encoder_layer.lstm.weight_ih_l0 f4 [200, 16]
0	0x3b95e49b	0.004574371
1	0x3b960c0d	0.0045790733
2	0x3b95f213	0.0045759766
3	0x38e20776	0.000107779095
4	0x3a8feef6	0.001098125
5	0xb8b4a203	-8.613246e-05
6	0xb91e589f	-0.00015101068
7	0xbae85ea8	-0.0017728405
8	0x3a1ae776	0.0005909124
9	0x3b6f38ee	0.0036502439
10	0x3a51f1c2	0.0008008742
11	0x3a32d707	0.00068222027
12	0xbb63eef2	-0.0034779874
13	0x38a6036b	7.9161335e-05
14	0x3b950d64	0.0045487154
15	0x3b94c37f	0.0045399065
16	0x3b966f8d	0.0045909346
17	0x3b960474	0.0045781676
18	0x3b920556	0.0044562025
19	0xb8a1ac9b	-7.7092285e-05
20	0x3aa22fbc	0.0012373845
21	0x3a26b48c	0.0006359301
22	0x389ae4c2	7.385902e-05
23	0xbaece2e0	-0.0018072985
24	0x3a9869ef	0.001162825
25	0x3b702733	0.0036644458
26	0xb9066bb7	-0.00012819363
27	0xb99ff4c6	-0.00030509214
28	0xbb7c1df2	-0.0038469997
29	0xb9e15dd4	-0.00042985252
30	0x3b965d77	0.0045887786
31	0x3b938515	0.0045019486
32	0x3b901a70	0.004397683
33	0x3b9494ce	0.0045343405
34	0x3b96d62a	0.004603167
35	0x3a394991	0.0007068152
36	0xb877271d	-5.8925816e-05
37	0x3a22f05b	0.00062156253
38	0xba2e6272	-0.0006652243
39	0xbadad6dc	-0.0016696113
40	0x3a5d9bb4	0.00084536825
41	0x3b6e84b8	0.0036395025
42	0x383920c0	4.4137938e-05
43	0x3a33c0b9	0.0006857026
44	0xbb687155	-0.0035467942
45	0xb9fc644c	-0.00048139913
46	0x3b9691f8	0.0045950375
47	0x3b95c6ee	0.0045708334
48	0x3b94f408	0.0045456924
49	0x3b94b678	0.0045383535
50	0x3b975375	0.004618103
51	0xb95a96db	-0.00020846298
52	0x3a191f51	0.00058411533
53	0x3931eb73	0.00016967747
54	0xb9dbc9e4	-0.00041921355
55	0xba9121fd	-0.0011072751
56	0x3a82584d	0.0009944529
57	0x3b7e3167	0.003878677
58	0xb94c7d5b	-0.00019501655
59	0x3a3b21a3	0.0007138496
60	0xbb7ff8a2	-0.0039058109
61	0x39d264b8	0.00040129363
62	0x3b900381	0.004394949
63	0x3b94878d	0.0045327605
64	0x3b921f03	0.0044592633
65	0x3b8f8369	0.004379679
66	0x3b967678	0.0045917593
67	0x399fcd81	0.00030479956
68	0x3a9e9338	0.0012098318
69	0xb850441a	-4.965449e-05
70	0xb92afcf8	-0.00016306702
71	0xba92482a	-0.0011160423
72	0xb8bf97a5	-9.135836e-05
73	0x3b829c74	0.003985936
74	0x3a111ad3	0.0005535308
75	0xb9caefd3	-0.00038707125
76	0xbb76ba86	-0.0037647798
77	0x3a1bd1dc	0.0005944052
78	0x3b8ffd7f	0.0043942328
79	0x3b95a269	0.00456648
80	0x3b965aa6	0.004588443
81	0x3b90c654	0.004418174
82	0x3b957b70	0.004561834
83	0x3a1cae36	0.0005976887
84	0x3a3e08c5	0.00072492316
85	0x3a385f93	0.00070332846
86	0xba8f7c88	-0.0010947147
87	0xba8a62e7	-0.001055804
88	0x37a1b1cd	1.927549e-05
89	0x3b6bd93f	0.0035987643
90	0x39748da3	0.00023322417
91	0x378540e9	1.5885062e-05
92	0xbb6d51a7	-0.0036211999
93	0x3a218ff3	0.00061631127
94	0x3b9009a6	0.0043956814
95	0x3b8df572	0.004332238
96	0x3b96c94a	0.0046016322
97	0x3b958641	0.0045631235
98	0x3b93e049	0.004512821
99	0x3a3a34a6	0.0007103182
100	0x3a9d9208	0.001202167
101	0x3a30b7cd	0.00067412556
102	0xb994d294	-0.00028385653
103	0xbaae6d0e	-0.0013307647
104	0xb94c45e9	-0.00019481
105	0x3b857308	0.0040725507
106	0xb942b8fc	-0.00018570194
107	0x39ab3293	0.00032653342
108	0xbb667591	-0.003516529
109	0x3a1c60fa	0.00059653784
110	0x3b9516b7	0.004549827
111	0x3b94f3d8	0.00454567
112	0x3b92a348	0.004475031
113	0x3b937614	0.00450016
114	0x3b96da67	0.0046036723
115	0x3a306dc0	0.0006730221
116	0xb9012bef	-0.00012318765
117	0x3a2ccd13	0.0006591838
118	0x38325780	4.2519998e-05
119	0xbadda944	-0.0016911407
120	0x3a90eacf	0.0011056307
121	0x3b804cbe	0.0039153984
122	0x3a4cef7d	0.0007817669
123	0xb9d74e89	-0.0004106651
124	0xbb74b7d7	-0.0037341022
125	0xb939d27c	-0.00017721386
126	0x3b9629bd	0.0045826123
127	0x3b8db088	0.0043240227
128	0x3b9557e2	0.0045575956
129	0x3b9691a0	0.0045949966
130	0x3b929a98	0.0044739954
131	0x37e5b63a	2.7383783e-05
132	0x390379cb	0.00012538505
133	0x3a32dc38	0.0006822976
134	0xba01748a	-0.0004938325
135	0xba8b7a7c	-0.0010641362
136	0x39bf0f3e	0.00036441715
137	0x3b7aeaca	0.0038286918
138	0xb93d83ff	-0.00018073617
139	0x3a01f050	0.0004956769
140	0xbb7ca14c	-0.003854829
141	0x3993be11	0.00028179635
142	0x3b96b7f1	0.0045995642
143	0x3b92321b	0.0044615394
144	0x3b939981	0.004504383
145	0x3b913a90	0.00443203
146	0x3b96a918	0.0045977943
147	0xb9a5822b	-0.00031568235
148	0x3aa1d3d9	0.0012346461
149	0x3a2daf57	0.0006625554
150	0xba3743d9	-0.0006991006
151	0xba84c46b	-0.0010129338
152	0x3a8cf545	0.0010754248
153	0x3b71f07c	0.0036917021
154	0x3a24719f	0.00062730344
155	0xb964cc5b	-0.00021819903
156	0xbb6b5eaa	-0.0035914578
157	0xb994b312	-0.00028362178
158	0x3b8f7f67	0.004379201
159	0x3b9594b8	0.004564848
160	0x3b966f89	0.0045909327
161	0x3b96407c	0.004585324
162	0x3b943f3e	0.0045241406
163	0x39bd2444	0.0003607591
164	0x3a2cda30	0.0006593792
165	0x3a2fdc6e	0.0006708567
166	0xba5744f4	-0.0008211874
167	0xbab1082d	-0.0013506465
168	0x3a96acac	0.0011495552
169	0x3b7ee85e	0.0038895826
170	0xb93a5d92	-0.000177732
171	0x3870ddcb	5.742702e-05
172	0xbb6751a4	-0.0035296464
173	0xb86cef73	-5.648979e-05
174	0x3b9528e5	0.004551994
175	0x3b8e0a6c	0.0043347385
176	0x3b9378b9	0.0045004752
177	0x3b936e2c	0.0044992175
178	0x3b90f86e	0.0044241464
179	0x37acb543	2.0588404e-05
180	0x3a9ad7c4	0.0011813571
181	0x3a097e98	0.0005244999
182	0xb92503a8	-0.00015736988
183	0xba946f44	-0.0011324664
184	0x3a25c178	0.00063230796
185	0x3b856c63	0.0040717586
186	0x3a51ec3e	0.000800792
187	0xba0f748d	-0.00054723845
188	0xbb7851fa	-0.0037890659
189	0x389be6f7	7.4339965e-05
190	0x3b9699eb	0.004595985
191	0x3b944002	0.004524232
192	0x3b9683f2	0.004593366
193	0x3b9479de	0.0045311293
194	0x3b972e32	0.004613661
195	0x3a3768e7	0.00069965277
196	0xb8bfee56	-9.151983e-05
197	0xb87ccb6c	-6.0270933e-05
198	0x38c39f9c	9.328054e-05
199	0xbae1693c	-0.00171975
200	0x3a7c5a16	0.0009626461
201	0x3b87e45b	0.004147095
202	0x39d765bb	0.0004108379
203	0x3a12f209	0.0005605524
204	0xbb5f772b	-0.003409813
205	0xb9efae00	-0.00045715272
206	0x3b969379	0.004595217
207	0x3b933c44	0.004493268
208	0x3b934fa1	0.0044955765
209	0x3b964f07	0.0045870575
210	0x3b970c5d	0.004609628
211	0xb99e8092	-0.000302319
212	0x3a9aed15	0.0011819924
213	0x37be55c6	2.2689706e-05
214	0xb8e52af1	-0.000109275694
215	0xbaed2b48	-0.0018094564
216	0xb8eedab7	-0.00011389463
217	0x3b6b65fa	0.0035918937
218	0xb9352ff9	-0.00017279376
219	0x3a322dcd	0.0006796986
220	0xbb7cd1f7	-0.0038577297
221	0x3964a246	0.00021804226
222	0x3b94f1d7	0.004545431
223	0x3b93501b	0.0044956333
224	0x3b96378e	0.0045842594
225	0x3b9288b3	0.004471862
226	0x3b900a82	0.004395784
227	0xb99dcf15	-0.00030099662
228	0x3a3bf513	0.0007170003
229	0x3a2c7a77	0.0006579528
230	0xb9d646c1	-0.00040869977
231	0xba95a090	-0.0011415649
232	0xb8b8c53c	-8.8105415e-05
233	0x3b7c2ad2	0.0038477671
234	0x3a51087f	0.00079739833
235	0x3850696b	4.9689243e-05
236	0xbb76a8fd	-0.0037637346
237	0x3a1b6a3e	0.0005928612
238	0x3b922f6c	0.0044612195
239	0x3b955355	0.004557053
240	0x3b9641b1	0.0045854677
241	0x3b94da49	0.004542623
242	0x3b9589af	0.0045635323
243	0x3a0e35b7	0.0005424874
244	0x399c2a7c	0.00029786292
245	0x3a2cf2d6	0.00065974647
246	0xba41f7d7	-0.0007399297
247	0xba8fc8fe	-0.0010969935
248	0x3a9aad6d	0.0011800952
249	0x3b85f913	0.00408853
250	0x39553470	0.00020332797
251	0x3a2d4e47	0.00066110905
252	0xbb752ee5	-0.0037411985
253	0xb9ebe1ab	-0.0004499083
254	0x3b95b9a5	0.0045692497
255	0x3b93a5af	0.004505835

encoder_layer.lstm.weight_hh_l0 f4 [200, 50]
0	0xba1c4aed	-0.00059620925
1	0x3a4bf566	0.00077804027
2	0x3aae823a	0.0013313957
3	0xba42ba7c	-0.0007428301
4	0xbaa5dd3f	-0.0012654437
5	0x3a4ac096	0.0007734386
6	0x3a28a9eb	0.0006434011
7	0xbab06930	-0.0013459083
8	0xbaa622a9	-0.0012675124
9	0xb9ecac70	-0.00045141904
10	0x3a0ee0a9	0.0005450347
11	0x39f5a405	0.00046852246
12	0x3a1132b4	0.00055388664
13	0xba92ab86	-0.0011190034
14	0x3abb515b	0.0014291214
15	0xba005c35	-0.00048965524
16	0xb9ece4b6	-0.0004518383
17	0xba303459	-0.00067216676
18	0xba18ddab	-0.0005831371
19	0x3a9dac63	0.0012029525
20	0x3a08d0be	0.00052190933
21	0xbabd3bec	-0.0014437414
22	0x3a2b22f5	0.00065283413
23	0xba09be39	-0.00052544806
24	0x39f767c6	0.00047188828
25	0xb9f25622	-0.0004622201
26	0xb9fe7b31	-0.0004853844
27	0xba291a95	-0.00064507994
28	0xba1fc9b4	-0.0006095425
29	0xb9f559ea	-0.00046797033
30	0x3a03cb48	0.00050275447
31	0x39eb6fcd	0.0004490599
32	0x3a21b1bc	0.0006168147
33	0xbab1138f	-0.0013509857
34	0xb9fc567c	-0.0004812962
35	0x3a144d5f	0.0005657281
36	0x3a3bc6d7	0.00071631133
37	0x3a27515e	0.0006382669
38	0x39f022b4	0.00045802223
39	0xb9fb1c3a	-0.0004789548
40	0x3a27070a	0.00063715933
41	0xba5e20cb	-0.00084735145
42	0x3a0171df	0.00049379276
43	0x3a41637f	0.0007377192
44	0xb9f4a26c	-0.0004666032
45	0xba599dcc	-0.00083014066
46	0x3a0210c3	0.0004961604
47	0x39f9311d	0.00047529573
48	0xba000d70	-0.0004884815
49	0x3a9ae506	0.0011817522
50	0xb9f268fd	-0.0004623606
51	0x39ecdbd6	0.00045177218
52	0x39f29908	0.00046271854
53	0xba078be4	-0.00051706866
54	0xba308a75	-0.0006734499
55	0x3abd520c	0.0014444008
56	0x3a0cf030	0.0005376367
57	0xb9fc4830	-0.0004811897
58	0xb9fc940b	-0.00048175486
59	0xb9fdf54a	-0.00048438675
60	0x3a051588	0.0005076756
61	0x3a0034c5	0.0004890676
62	0x3a55f176	0.00081612857
63	0xba559f3f	-0.00081490347
64	0x39f0b601	0.0004591197
65	0xba09fd0b	-0.00052638416
66	0xba3548c1	-0.0006915443
67	0xb9fa175a	-0.00047701114
68	0xb9f98d8a	-0.00047598436
69	0x3abcd371	0.0014406276
70	0x3a270b61	0.000637224
71	0xba37a4c8	-0.00070054503
72	0x3a16cdd5	0.0005752717
73	0xba3ef407	-0.0007284288
74	0x39fbcda6	0.0004802767
75	0xba5a5370	-0.0008328473
76	0xb9eb0ec8	-0.00044833706
77	0xbabaf467	-0.0014263511
78	0xbab1ccae	-0.0013565028
79	0xb9fb3706	-0.00047915446
80	0x39f0e12b	0.0004594413
81	0x3a26724f	0.0006349431
82	0x39ef5b78	0.00045653782
83	0xb9f2c0ef	-0.00046301584
84	0xba4a5c33	-0.0007719427
85	0x39fb94b3	0.0004798524
86	0x39f0aaf9	0.00045903752
87	0x39fd6927	0.00048334265
88	0x39f52e5d	0.00046764585
89	0xba27e084	-0.0006404
90	0x3a57f34b	0.00082378526
91	0xba518412	-0.00079923973
92	0x3a763433	0.00093919336
93	0x3a41df55	0.0007395645
94	0xb9f35a8a	-0.0004641603
95	0xba7c9985	-0.00096359133
96	0x3a890174	0.0010452704
97	0x3a035010	0.00050091837
98	0xb9ece0f6	-0.00045181037
99	0x39f1007a	0.00045967457
100	0xba28b372	-0.0006435431
101	0x3a3677c7	0.0006960597
102	0x3a243a87	0.0006264825
103	0xba169bc1	-0.0005745255
104	0xbaa4f566	-0.0012585341
105	0x3a1cda5b	0.0005983465
106	0x3a400c0d	0.00073260145
107	0xba02fb9e	-0.00049966003
108	0xbaa921b9	-0.0012903727
109	0xb9f03b55	-0.00045820573
110	0x39ec721a	0.0004509844
111	0x3a0eaa77	0.00054422714
112	0x39f445d5	0.00046591336
113	0xb9ed1564	-0.000452201
114	0x39eef943	0.00045580612
115	0xbaa36149	-0.0012464906
116	0xbaba5afc	-0.0014217789
117	0xb9f6b078	-0.00047052256
118	0xba061c16	-0.00051158795
119	0x39ef082a	0.00045591715
120	0x3a29d070	0.0006477898
121	0xba006304	-0.0004897567
122	0x3a3ab3c2	0.0007122123
123	0xba10d3c2	-0.00055247184
124	0x39f58b03	0.00046833613
125	0xba311a3f	-0.0006755925
126	0xba230acb	-0.0006219565
127	0xba53b8cb	-0.00080765475
128	0xba824d39	-0.0009941227
129	0xba91d7ea	-0.001112697
130	0x3a0a0123	0.00052644516
131	0x3a286edf	0.00064252125
132	0x3ab70f38	0.0013966328
133	0xba3493f5	-0.00068885024
134	0xba3e0801	-0.00072491175
135	0x3a8f2fcb	0.0010924278
136	0x39f63e6b	0.0004696728
137	0x3a00668e	0.00048980943
138	0x3a37f5a9	0.0007017502
139	0xba14ba1b	-0.0005673484
140	0x39f21f74	0.0004618127
141	0xba918419	-0.001110199
142	0x39f20a21	0.00046165384
143	0x3a3d4208	0.0007219617
144	0xba39a31b	-0.00070814946
145	0xb9f0a0fb	-0.00045896307
146	0x39f159e9	0.0004603409
147	0x39f7f718	0.0004729561
148	0xba8b0cda	-0.0010608688
149	0x3a2aaf7a	0.00065111334
150	0xba7a0350	-0.0009537237
151	0x3a21c324	0.0006170741
152	0x3a85f1dc	0.0010219174
153	0xba032008	-0.00050020264
154	0xba2ca877	-0.00065863825
155	0x39f5c720	0.000468784
156	0x39fc7951	0.00048155573
157	0xb9ee7a6b	-0.00045486106
158	0xba292879	-0.0006452869
159	0xb9f09d35	-0.00045893496
160	0x3a0fcab3	0.00054852216
161	0x39efa3b6	0.00045707606
162	0x39ebe7a6	0.00044995284
163	0xba2ddc7d	-0.00066322816
164	0x39f40549	0.00046543244
165	0xba141a95	-0.0005649713
166	0xba81cca3	-0.0009902905
167	0xba558a53	-0.0008145917
168	0xb9f2c64d	-0.00046305583
169	0x3a21b9f6	0.0006169373
170	0x3a094739	0.0005236748
171	0xba861ee7	-0.0010232598
172	0x3a256f25	0.00063108123
173	0xb9f0aff7	-0.0004590747
174	0x3a02d3b3	0.0004990652
175	0xb9ee8e5b	-0.0004550096
176	0xba1716c5	-0.0005763586
177	0xb9f03f53	-0.00045823547
178	0xbaab6d26	-0.0013078793
179	0xba222d2f	-0.00061865425
180	0x3a7f0708	0.0009728526
181	0x39ee5e0c	0.00045464968
182	0x3a047ad7	0.0005053705
183	0xba1a0bd0	-0.0005876394
184	0xba04cdb6	-0.0005066054
185	0x3a1d7c1f	0.000600757
186	0x3a47bac8	0.000761908
187	0x3aaa080e	0.0012972371
188	0x3aa2257b	0.0012370789
189	0xba30c999	-0.00067439076
190	0x3a241364	0.0006258993
191	0xba51820a	-0.00079920946
192	0x3a0dcc40	0.0005409159
193	0x3a7e2553	0.0009694893
194	0xba224973	-0.00061907544
195	0xb9f0921d	-0.0004588523
196	0x3a37413a	0.00069906155
197	0x3a06f6c3	0.00051484647
198	0xba9ad5b3	-0.0011812955
199	0x3a1b4fda	0.00059246796
200	0xb9f41d22	-0.00046561012
201	0x3a2f021a	0.00066760334
202	0x39eea00b	0.0004551414
203	0xbaba66ec	-0.0014221347
204	0xba18606a	-0.00058127067
205	0x3a4e1447	0.0007861298
206	0x3a61d028	0.00086140865
207	0xba643da6	-0.0008706696
208	0xba9dfbaa	-0.0012053151
209	0xba80f9dc	-0.0009840089
210	0x3a65cede	0.00087664824
211	0x39f825d2	0.00047330424
212	0x3a352b90	0.00069110934
213	0xba22c53c	-0.00062092
214	0x3a0f7a1f	0.00054732146
215	0xba2c7f86	-0.0006580282
216	0xba27b724	-0.00063978345
217	0xb9f6b276	-0.0004705374
218	0xba41b068	-0.00073886523
219	0x3a2b2bc6	0.0006529655
220	0x3a37ed32	0.0007016241
221	0xbab730bf	-0.001397632
222	0x3a006f69	0.0004899414
223	0xb9fcc6cc	-0.000482133
224	0x3a28f591	0.00064452837
225	0xba7d47f8	-0.0009661908
226	0xba2b50bb	-0.0006535162
227	0xb9f02252	-0.00045801938
228	0xbabc38ed	-0.0014360227
229	0xba2a0c92	-0.00064868585
230	0x3a3a40a6	0.000710497
231	0x3abb9adc	0.001431312
232	0x3a041f99	0.0005040109
233	0xba0281ea	-0.0004978465
234	0xba12488d	-0.0005580269
235	0x3a05f100	0.0005109459
236	0x3a3ccaf4	0.0007201873
237	0x3a006138	0.0004897299
238	0x3a2dd769	0.0006631525
239	0xb9ee27ab	-0.00045424452
240	0x3a5e285b	0.00084746414
241	0xba953481	-0.0011383445
242	0x3a432f73	0.000744573
243	0x3a26babe	0.0006360224
244	0xbaade3c7	-0.0013266735
245	0xba284d5a	-0.00064202177
246	0x3a3091d1	0.00067355955
247	0x3a6d3ef3	0.00090502127
248	0xb9f61cf8	-0.0004694236
249	0x3a2adc01	0.00065177685
250	0xb9f2ce61	-0.000463116
251	0x3a03bfa4	0.000502581
252	0x39fbed96	0.00048051466
253	0xba88645c	-0.0010405886
254	0xba297f33	-0.00064657925
255	0x3a373c47	0.0006989878

encoder_layer.lstm.bias_ih_l0 f4 [200]
0	0x3bca8a10	0.006181009
1	0x3bc5cb92	0.0060362304
2	0x3bcd1b32	0.0062593454
3	0x3bd085cf	0.0063636075
4	0x3bd0fc8d	0.0063777626
5	0x3bb59d0c	0.005542403
6	0x3bb5bdc6	0.0055463044
7	0x3bcfc54b	0.006340658
8	0x3bba56a1	0.0056865965
9	0x3bb26a1d	0.0054447786
10	0x3bbbebbe	0.00573489
11	0x3bbd5670	0.0057781264
12	0x3bd0152a	0.006350179
13	0x3bb2a949	0.0054523093
14	0x3bd0664f	0.0063598524
15	0x3bb8edd2	0.0056435848
16	0x3bc6f609	0.00607181
17	0x3bbef4f6	0.0058275415
18	0x3bd02e81	0.0063532
19	0x3bbed567	0.0058237794
20	0x3bd05cb2	0.0063587064
21	0x3bd0a8f9	0.0063677994
22	0x3bc0ff13	0.005889782
23	0x3bbcd3f5	0.005762572
24	0x3bba6389	0.005688135
25	0x3bb6639e	0.0055660745
26	0x3bce7d0e	0.006301529
27	0x3bd08198	0.006363105
28	0x3bb34557	0.0054709124
29	0x3bcfc210	0.0063402727
30	0x3bbbed8b	0.0057351044
31	0x3bcdf5f9	0.0062854257
32	0x3bcf0b69	0.006318499
33	0x3bc1f752	0.0059193755
34	0x3bbc34d1	0.005743601
35	0x3bc78cc8	0.0060897805
36	0x3bd08e18	0.006364595
37	0x3bcf0be8	0.006318558
38	0x3bbedd37	0.0058247107
39	0x3bb47391	0.0055069407
40	0x3bba09a4	0.005677419
41	0x3bcda4e7	0.0062757614
42	0x3bd0aeb6	0.0063684834
43	0x3bd0066c	0.006348422
44	0x3bd05905	0.006358268
45	0x3bb681fa	0.0055696936
46	0x3bcd28d8	0.0062609725
47	0x3bb91b04	0.0056489725
48	0x3bcfe493	0.006344387
49	0x3bd0311c	0.0063535105
50	0x3bd5ccfa	0.0065246793
51	0x3bbaeca9	0.0057044816
52	0x3bbddb71	0.0057939817
53	0x3bd55304	0.0065101404
54	0x3bce142c	0.006289026
55	0x3bc940a1	0.0061417376
56	0x3bbd66ed	0.005780092
57	0x3bb7db80	0.0056108832
58	0x3bbdb329	0.00578918
59	0x3bba6037	0.0056877392
60	0x3bc844d5	0.006111721
61	0x3bbb9d75	0.0057255575
62	0x3bd54ecb	0.006509637
63	0x3bbe8dcd	0.005815244
64	0x3bbd9169	0.0057851565
65	0x3bd5bc6a	0.006522705
66	0x3bb9cb51	0.005669989
67	0x3bd54396	0.006508301
68	0x3bc556ae	0.006022296
69	0x3bd5dc88	0.0065265335
70	0x3bd58426	0.0065159975
71	0x3bc0f421	0.0058884774
72	0x3bb92ede	0.005651339
73	0x3bd3d425	0.0064644986
74	0x3bc2f259	0.0059493002
75	0x3bcb0c3c	0.006196527
76	0x3bd5a885	0.0065203332
77	0x3bcc6123	0.0062371655
78	0x3bd5d285	0.00652534
79	0x3bc3cad0	0.005975105
80	0x3bd56b32	0.006513023
81	0x3bcbf9fe	0.0062248698
82	0x3bd3ac4e	0.0064597493
83	0x3bd49ab5	0.006488169
84	0x3bd5ff8b	0.0065307072
85	0x3bbbdb9f	0.005732968
86	0x3bb8a9f6	0.0056354953
87	0x3bbaf6fa	0.0057057114
88	0x3bd54258	0.006508153
89	0x3bc61af0	0.0060456917
90	0x3bcc473f	0.006234079
91	0x3bd5ad9f	0.0065209414
92	0x3bc04942	0.005868108
93	0x3bd59d00	0.00651896
94	0x3bb76e5e	0.0055978736
95	0x3bc77682	0.0060871253
96	0x3bb7a883	0.005604805
97	0x3bcd020a	0.0062563466
98	0x3bd5cbf9	0.0065245596
99	0x3bb7c844	0.0056085903
100	0x3b835b80	0.0040087104
101	0xbb848aa3	-0.004044847
102	0xbb823ca2	-0.003974513
103	0x3b88b475	0.004171903
104	0x3b8006fb	0.003907082
105	0xbb85968e	-0.0040767854
106	0xbb862bc2	-0.004094572
107	0x3b8331e1	0.0040037488
108	0x3b83a370	0.004017286
109	0x3b876f7a	0.004133162
110	0xbb860a1a	-0.0040905597
111	0xbb86f36d	-0.004118374
112	0xbb873f02	-0.004127384
113	0x3b85ce04	0.004083397
114	0xbb85a267	-0.0040781978
115	0x3b85e657	0.0040862965
116	0x3b8875f1	0.0041644503
117	0x3b84c814	0.0040521715
118	0x3b82f147	0.0039960477
119	0xbb867d40	-0.0041042864
120	0xbb86bf9c	-0.004112197
121	0x3b85d112	0.004083761
122	0xbb89b861	-0.004202888
123	0x3b84c2e0	0.004051551
124	0xbb8098c1	-0.0039244597
125	0x3b827261	0.00398092
126	0x3b873e24	0.004127281
127	0x3b85e13c	0.004085688
128	0x3b862484	0.0040937085
129	0x3b843b19	0.0040353653
130	0xbb818ec9	-0.003953789
131	0xbb845cb2	-0.0040393705
132	0xbb829acf	-0.00398574
133	0x3b86c4c4	0.0041128118
134	0x3b858812	0.0040750587
135	0xbb85b85c	-0.0040808152
136	0xbb86164a	-0.0040920125
137	0xbb822015	-0.0039711096
138	0xbb857899	-0.0040732143
139	0x3b855820	0.004069343
140	0xbb848c27	-0.004045028
141	0x3b84d903	0.00405419
142	0xbb841dba	-0.004031864
143	0xbb880ab7	-0.004151668
144	0x3b83078f	0.003998704
145	0x3b86581e	0.00409986
146	0xbb84538c	-0.00403828
147	0xbb8205db	-0.003967983
148	0x3b85622a	0.00407054
149	0xbb849858	-0.004046481
150	0x3a8adb4b	0.0010593919
151	0x3abb0715	0.0014269078
152	0x3a8c01b6	0.0010681662
153	0x3abb4db2	0.0014290123
154	0x3a741afd	0.0009311883
155	0x3ab19bb5	0.0013550433
156	0x3a8f75c7	0.0010945135
157	0x3a8f2879	0.0010922096
158	0x3a859c0a	0.0010193598
159	0x3ab6d182	0.0013947936
160	0x3ab4b20e	0.0013785975
161	0x3a70f255	0.0009191384
162	0x3a85e746	0.001021602
163	0x3aafa2ec	0.0013399995
164	0x3a86d99c	0.0010288241
165	0x3aacf0ad	0.0013194286
166	0x3ab37b96	0.0013693448
167	0x3a7c76b5	0.0009630726
168	0x3a7ea15f	0.0009713377
169	0x3ab27851	0.0013616179
170	0x3a8b620f	0.0010634082
171	0x3a9077e1	0.0011022055
172	0x3a8bc170	0.0010662507
173	0x3aada2c1	0.0013247357
174	0x3a75f4ef	0.0009382506
175	0x3a8ff6a2	0.0010983536
176	0x3a7f853f	0.0009747333
177	0x3a739e46	0.0009293299
178	0x3a77d63a	0.00094542245
179	0x3aaed5ad	0.0013338827
180	0x3a90b485	0.0011040127
181	0x3a7cc996	0.0009643076
182	0x3ab363a6	0.0013686314
183	0x3a7e2669	0.00096950546
184	0x3aac5e30	0.0013150629
185	0x3a862407	0.0010234126
186	0x3a8a109c	0.0010533514
187	0x3abe2183	0.0014505837
188	0x3aac14e5	0.0013128786
189	0x3a7e0948	0.0009690714
190	0x3a7ed485	0.0009720999
191	0x3a891c22	0.0010460655
192	0x3aad89a0	0.0013239868
193	0x3a8e0ce7	0.0010837585
194	0x3ab2416b	0.0013599818
195	0x3a87e85c	0.0010368931
196	0x3a8d5fa8	0.0010785954
197	0x3abb798b	0.001430319
198	0x3aac78b4	0.0013158531
199	0x3a73efed	0.0009305466

encoder_layer.lstm.bias_hh_l0 f4 [200]
0	0x3bbca6c4	0.0057571847
1	0x3bc52524	0.0060163904
2	0x3bd0f2df	0.0063766087
3	0x3bbf7f25	0.005844014
4	0x3bc49a12	0.005999812
5	0x3bd09fa2	0.006366686
6	0x3bb1403d	0.005409269
7	0x3bb58614	0.005539665
8	0x3bcce84e	0.006253279
9	0x3bcdfccb	0.006286239
10	0x3bd012c3	0.006349893
11	0x3bb7479c	0.0055932533
12	0x3bc1b58f	0.005911536
13	0x3bbc2919	0.005742204
14	0x3bb18837	0.0054178494
15	0x3bb46f6b	0.005506446
16	0x3bc9b28f	0.006155319
17	0x3bbfe1ac	0.0058557596
18	0x3bb0d598	0.005396556
19	0x3bb438f8	0.0054999553
20	0x3bc70229	0.0060732556
21	0x3bba308c	0.005682057
22	0x3bbfd6e0	0.0058544725
23	0x3bb410c9	0.005495165
24	0x3bce4ca9	0.0062957597
25	0x3bd079c3	0.0063621714
26	0x3bb69143	0.0055715158
27	0x3bb5cbac	0.005547961
28	0x3bba142d	0.0056786747
29	0x3bcce1ea	0.006252517
30	0x3bcfddf2	0.0063435966
31	0x3bcfb584	0.006338777
32	0x3bd07e57	0.006362717
33	0x3bb84c62	0.00562434
34	0x3bbe1666	0.00580101
35	0x3bd09f73	0.006366664
36	0x3bb2603d	0.0054436014
37	0x3bb0e568	0.005398441
38	0x3bb6ef9b	0.0055827624
39	0x3bd06256	0.006359379
40	0x3bd10b9e	0.0063795587
41	0x3bc0fc89	0.0058894795
42	0x3bc10e81	0.0058916216
43	0x3bd04f2e	0.006357095
44	0x3bd02919	0.0063525555
45	0x3bd0905a	0.0063648643
46	0x3bb18671	0.005417638
47	0x3bc24272	0.005928331
48	0x3bcfbd12	0.0063396776
49	0x3bceb77d	0.0063084946
50	0x3bcd181a	0.0062589766
51	0x3bc272aa	0.005934079
52	0x3bd621a5	0.0065347725
53	0x3bd4e77a	0.0064973207
54	0x3bd5e2d0	0.0065272823
55	0x3bd19e04	0.0063970108
56	0x3bcedea6	0.006313163
57	0x3bd3bb07	0.0064615044
58	0x3bba70a3	0.005689697
59	0x3bc0d693	0.0058849542
60	0x3bd5a87b	0.0065203286
61	0x3bd25965	0.006419348
62	0x3bd52a4b	0.006505286
63	0x3bd285af	0.0064246277
64	0x3bb5c123	0.0055467053
65	0x3bbd415a	0.005775613
66	0x3bb7f3a3	0.0056137606
67	0x3bd46073	0.006481224
68	0x3bc34d76	0.005960162
69	0x3bb6802e	0.0055694794
70	0x3bcbecf7	0.006223317
71	0x3bd5ab7b	0.006520686
72	0x3bc77591	0.006087013
73	0x3bbac1d4	0.0056993756
74	0x3bd5a56c	0.006519964
75	0x3bd1f238	0.0064070486
76	0x3bd61fcd	0.0065345527
77	0x3bd1bc26	0.006400603
78	0x3bb6c8ef	0.0055781524
79	0x3bd5c61a	0.0065238597
80	0x3bd447c7	0.006478283
81	0x3bd4a86f	0.0064898054
82	0x3bd585c5	0.0065161907
83	0x3bc9c540	0.0061575472
84	0x3bbb54bd	0.0057168887
85	0x3bd5e7ca	0.0065278756
86	0x3bd5c27d	0.006523429
87	0x3bc0fd20	0.00588955
88	0x3bc2e047	0.005947146
89	0x3bd5e01b	0.0065269596
90	0x3bcdc99c	0.006280137
91	0x3bd5a74d	0.006520188
92	0x3bc39be3	0.005969511
93	0x3bbb2368	0.005711008
94	0x3bd4d44d	0.006495035
95	0x3bd55462	0.0065103034
96	0x3bd4f524	0.0064989496
97	0x3bc18183	0.0059053316
98	0x3bd46236	0.006481434
99	0x3bcb7364	0.006208824
100	0x3b863523	0.00409569
101	0xbb858f4e	-0.004075921
102	0xbb8530f2	-0.0040646726
103	0x3b89079e	0.0041818162
104	0x3b853681	0.0040653353
105	0xbb8153fe	-0.00394678
106	0xbb84fffe	-0.004058837
107	0x3b8588f1	0.0040751626
108	0x3b83e9c1	0.0040256684
109	0x3b879fe0	0.0041389316
110	0xbb8744fe	-0.0041280976
111	0xbb825611	-0.003977545
112	0xbb874333	-0.004127884
113	0x3b82e6f3	0.0039948164
114	0xbb85fb61	-0.0040888046
115	0x3b84d9d2	0.0040542865
116	0x3b853b38	0.0040658973
117	0x3b85b0b6	0.0040799035
118	0x3b81cfee	0.0039615547
119	0xbb8276d2	-0.0039814496
120	0xbb856cc3	-0.0040718033
121	0x3b86aff8	0.0041103326
122	0xbb8a8064	-0.004226731
123	0x3b863e68	0.004096795
124	0xbb86baca	-0.0041116225
125	0x3b8663b9	0.0041012433
126	0x3b877e87	0.0041349563
127	0x3b84f027	0.0040569487
128	0x3b81709e	0.0039501926
129	0x3b85effe	0.004087447
130	0xbb858187	-0.0040742788
131	0xbb851570	-0.0040613934
132	0xbb857091	-0.004072257
133	0x3b86e3cb	0.0041165105
134	0x3b83c263	0.0040209754
135	0xbb80b4ad	-0.003927788
136	0xbb84fd5c	-0.004058523
137	0xbb86beab	-0.004112085
138	0xbb852cae	-0.004064164
139	0x3b85d599	0.0040843007
140	0xbb850eec	-0.0040606167
141	0x3b81eeec	0.0039652493
142	0xbb84a8f2	-0.00404846
143	0xbb876d96	-0.0041329367
144	0x3b84bb5c	0.0040506553
145	0x3b866e5e	0.0041025123
146	0xbb854cba	-0.0040679844
147	0xbb851a1f	-0.004061952
148	0x3b80dda8	0.0039326735
149	0xbb83ffe4	-0.0040283073
150	0x3aaf8f20	0.0013394095
151	0x3abb61a0	0.0014296062
152	0x3a8f29d3	0.0010922499
153	0x3a8dda7f	0.0010822563
154	0x3a82b207	0.0009971269
155	0x3abca799	0.001439321
156	0x3aac9ce0	0.0013169311
157	0x3aad3c7d	0.001321688
158	0x3a7f66f3	0.00097428187
159	0x3ab6682c	0.0013916544
160	0x3ab64d76	0.0013908583
161	0x3a797140	0.0009515472
162	0x3ab56a32	0.0013840853
163	0x3a7c287d	0.00096190703
164	0x3a70b2d1	0.0009181919
165	0x3a85822c	0.0010185889
166	0x3abc9696	0.001438814
167	0x3a7477a8	0.00093256915
168	0x3a82ad6f	0.00099699
169	0x3a70ab55	0.0009180804
170	0x3a74eb88	0.0009342958
171	0x3a76d5f1	0.0009416035
172	0x3a8aaaee	0.0010579505
173	0x3a7bcc07	0.00096052926
174	0x3a9141b8	0.0011082208
175	0x3aab80e2	0.0013084675
176	0x3aa77e06	0.0012778647
177	0x3a760de1	0.00093862234
178	0x3a9461fb	0.0011320704
179	0x3a79b42b	0.00095254433
180	0x3aae26f3	0.0013286754
181	0x3a909943	0.0011032004
182	0x3a8a0bd2	0.0010532087
183	0x3a8fa74e	0.0010959895
184	0x3a7364c3	0.0009284729
185	0x3a8d4327	0.0010777459
186	0x3ab2e0b6	0.0013647291
187	0x3a7ca9ba	0.00096383283
188	0x3a7b074b	0.0009575977
189	0x3ab5ee84	0.0013880287
190	0x3a907717	0.001102182
191	0x3a897724	0.0010487777
192	0x3a8a70fb	0.0010562235
193	0x3aaef599	0.001334834
194	0x3ab30702	0.0013658705
195	0x3a951f18	0.0011377065
196	0x3a9051da	0.0011010722
197	0x3a8514e4	0.0010153321
198	0x3a918078	0.0011100909
199	0x3ab64d0b	0.0013908459

decoder_layer.lstm.weight_ih_l0 f4 [200, 16]
0	0x3b5abb80	0.003337592
1	0x3b5e10ae	0.0033884454
2	0x3b48dd5e	0.0030649523
3	0xb8cd6448	-9.7938406e-05
4	0x3a895c0f	0.0010479706
5	0x3a3b5f13	0.0007147651
6	0x3972b2cf	0.0002314553
7	0xb9d7b07b	-0.00041139484
8	0x3a2c29fb	0.0006567535
9	0x3b300a93	0.0026861771
10	0xb98d4854	-0.00026947504
11	0xb9c58375	-0.0003767271
12	0xbb1e0faa	-0.0024118223
13	0xb9aff44a	-0.0003356061
14	0x3b5d817d	0.0033799105
15	0x3b47bd7e	0.0030477936
16	0x3b49e44f	0.0030806249
17	0x3b54ece0	0.0032489821
18	0x3b4aed86	0.003096433
19	0x3909c5b5	0.0001313899
20	0x3a8bdf45	0.0010671398
21	0x3a8941ef	0.001047192
22	0xba0a739e	-0.00052815105
23	0xba3d5b3e	-0.0007223374
24	0xb959c88c	-0.00020769442
25	0x3b33565f	0.0027364714
26	0x39ca01e1	0.00038529842
27	0xb98c1543	-0.00026718722
28	0xbb2ca9c0	-0.0026346296
29	0x39dfd1fa	0.0004269032
30	0x3b4e39eb	0.0031467627
31	0x3b521e41	0.003206149
32	0x3b5ebf2f	0.0033988466
33	0x3b4ab5ea	0.0030931183
34	0x3b54f66b	0.003249551
35	0x39d56e9d	0.0004070894
36	0x3a8aaa23	0.0010579269
37	0x3a8d6c65	0.001078975
38	0xba4fc2df	-0.00079254614
39	0xba79d98f	-0.0009531015
40	0xb7d0c779	-2.4888419e-05
41	0x3b2321dd	0.002489201
42	0xb99bab61	-0.0002969159
43	0xb94a1d00	-0.00019275025
44	0xbb2fb4f3	-0.0026810735
45	0xb9d80f29	-0.00041210026
46	0x3b5b53b6	0.0033466644
47	0x3b499ebc	0.003076478
48	0x3b623620	0.0034517124
49	0x3b60363b	0.0034212011
50	0x3b50cee7	0.0031861605
51	0x39cbe23e	0.0003888774
52	0xb930ecd8	-0.00016872899
53	0x3a59c451	0.00083071465
54	0x39b7bed7	0.00035046667
55	0xba78cc0a	-0.00094908534
56	0xb95b0ddd	-0.00020890632
57	0x3b31be49	0.0027121475
58	0x3926ab61	0.00015894837
59	0x3a12257a	0.00055750425
60	0xbb22f0b7	-0.0024862716
61	0xb98762a0	-0.00025822688
62	0x3b46c141	0.003032759
63	0x3b446d3e	0.002997234
64	0x3b44c33e	0.00300236
65	0x3b5d98c1	0.0033812972
66	0x3b5b6dd0	0.0033482201
67	0xb9488a8c	-0.00019125099
68	0x381e5aaf	3.775459e-05
69	0x39432a5b	0.00018612428
70	0xba4d3121	-0.000782745
71	0xba9fb542	-0.0012184756
72	0x3a393177	0.0007064561
73	0x3b345d48	0.002752142
74	0x3a0711e1	0.00051525055
75	0x3a13062f	0.00056085264
76	0xbb673272	-0.003527787
77	0xb9a7e221	-0.000320212
78	0x3b49a199	0.0030766486
79	0x3b4bbf94	0.0031089531
80	0x3b52b393	0.0032150492
81	0x3b5f9f1d	0.0034121939
82	0x3b605b83	0.0034234233
83	0x39d44f1e	0.00040494738
84	0x3a8c5fe8	0.0010709735
85	0x398ee779	0.0002725681
86	0xba3e75f1	-0.00072654994
87	0xba9e92b2	-0.0012098162
88	0x39398d86	0.00017695696
89	0x3b25438a	0.0025217258
90	0xb9915a42	-0.00027723802
91	0x3a118378	0.00055509014
92	0xbb2e70a0	-0.0026617423
93	0xb9bac9cb	-0.00035627032
94	0x3b5ee109	0.0034008643
95	0x3b5ebbdb	0.0033986482
96	0x3b59144b	0.0033123668
97	0x3b5bd9b4	0.003354651
98	0x3b56749c	0.0032723313
99	0xb8f2c564	-0.00011576226
100	0xb90a3214	-0.00013179361
101	0x3a66be7f	0.000880219
102	0xb8cda5e5	-9.806062e-05
103	0xba3e74b1	-0.0007265313
104	0x3a6c69f2	0.00090184726
105	0x3b3accc8	0.0028503407
106	0x3a0b4b32	0.0005313634
107	0xb9b513cb	-0.00034537757
108	0xbb2f6663	-0.0026763908
109	0x3a09fd48	0.0005263877
110	0x3b4eeb94	0.003157352
111	0x3b5914d4	0.0033123987
112	0x3b5c669f	0.0033630503
113	0x3b5953ae	0.003316145
114	0x3b5d06c9	0.0033725968
115	0xb93d7498	-0.00018067879
116	0x39aec433	0.00033334046
117	0x38de6cb6	0.00010606034
118	0xba36fe2d	-0.0006980624
119	0xba8fcae2	-0.0010970498
120	0xb97f198e	-0.00024328215
121	0x3b509eed	0.0031833008
122	0xb953add4	-0.00020187284
123	0x3a1453e7	0.00056582544
124	0xbb1e0c51	-0.0024116228
125	0x39ee613b	0.0004546734
126	0x3b48436d	0.0030557767
127	0x3b5b663b	0.0033477682
128	0x3b4ebb30	0.0031544678
129	0x3b55a817	0.003260141
130	0x3b57af51	0.0032910893
131	0x39d128c2	0.00039893953
132	0x3a8a9168	0.0010571899
133	0x37bab7d7	2.2258535e-05
134	0x39a03841	0.0003055949
135	0xb9d6ce30	-0.00040970882
136	0xb8f509d5	-0.00011684342
137	0x3b2e9ad3	0.0026642575
138	0x3a09d61b	0.00052580395
139	0xb9a953a2	-0.00032296503
140	0xbb2d5159	-0.0026446192
141	0xb97e658f	-0.00024261161
142	0x3b5e05e6	0.0033878027
143	0x3b57aaac	0.0032908125
144	0x3b603424	0.0034210766
145	0x3b608319	0.0034257828
146	0x3b503326	0.0031768768
147	0x39bfb109	0.0003656226
148	0x3a2d52d3	0.0006611768
149	0x38282f96	4.009864e-05
150	0xba208c87	-0.0006124456
151	0xba7ff3e9	-0.00097638235
152	0x3a8fa019	0.0010957747
153	0x3b34e0fb	0.002759992
154	0xb8da33a9	-0.000104046725
155	0xb9a28ef4	-0.00031005556
156	0xbb35be5d	-0.0027731874
157	0xb5c38d3f	-1.456974e-06
158	0x3b51e9a2	0.0032030125
159	0x3b48d2fe	0.003064334
160	0x3b5f308f	0.0034056043
161	0x3b478ae3	0.0030447773
162	0x3b582b58	0.003298482
163	0xb79e7494	-1.8889354e-05
164	0x3a839280	0.0010038167
165	0x3a396520	0.0007072259
166	0x39acddc7	0.00032971633
167	0xba95275e	-0.001137953
168	0xb93ee35b	-0.00018204509
169	0x3b807a98	0.0039208643
170	0xb8e94ba2	-0.000111243935
171	0xb9bb1031	-0.00035679483
172	0xbb2a2876	-0.0025964058
173	0x398edcae	0.0002724877
174	0x3b567dc6	0.0032728775
175	0x3b5b69fa	0.0033479915
176	0x3b5ef4fe	0.0034020538
177	0x3b53571e	0.003224797
178	0x3b5dc0b4	0.0033836784
179	0x39cefa80	0.0003947802
180	0x3989a17c	0.00026250992
181	0x3a859a37	0.0010193054
182	0xba4fb7c7	-0.00079238083
183	0xba8413a7	-0.0010076658
184	0x39cf1819	0.0003950007
185	0x3b807bb0	0.0039209947
186	0xb911ac39	-0.00013892436
187	0x3a126dbc	0.00055858097
188	0xbb66f682	-0.0035242145
189	0x3a161044	0.00057244697
190	0x3b5ade99	0.0033396839
191	0x3b5de1f0	0.0033856593
192	0x3b4fc04b	0.003170031
193	0x3b5a907b	0.0033350277
194	0x3b60afef	0.0034284552
195	0xb7b34ea0	-2.1375075e-05
196	0x3a22dfa9	0.00062131375
197	0x39d07283	0.0003975817
198	0xba45e518	-0.0007549091
199	0xba9ad6e0	-0.0011813305
200	0x38e44a9d	0.00010885785
201	0x3b23683e	0.002493396
202	0x397a16ab	0.00023850302
203	0xb96f45e5	-0.00022818854
204	0xbb6b6004	-0.0035915384
205	0x3990ffbc	0.00027656357
206	0x3b495c11	0.0030725042
207	0x3b5e8e65	0.0033959385
208	0x3b5230c9	0.0032072535
209	0x3b5e2f48	0.0033902694
210	0x3b5c0ba3	0.0033576272
211	0xb9705d9d	-0.00022923057
212	0xb93ea51b	-0.00018181319
213	0x3a376a5b	0.0006996744
214	0x39a4b01e	0.00031411735
215	0xba54f9fe	-0.000812441
216	0x39e188a9	0.00043017164
217	0x3b805524	0.0039163996
218	0xb99d4076	-0.000299934
219	0x39855ca3	0.00025436757
220	0xbb23e593	-0.0025008663
221	0xb9c7969a	-0.00038068445
222	0x3b5ed732	0.0034002778
223	0x3b5e2a86	0.0033899858
224	0x3b55bfb1	0.0032615478
225	0x3b5b5b9b	0.003347135
226	0x3b5c8e47	0.003365414
227	0xb904dde2	-0.00012671159
228	0xb936c6e9	-0.00017430972
229	0x3a89bd92	0.0010508767
230	0x389d69c0	7.506041e-05
231	0xba172b36	-0.0005766632
232	0x3a8a484f	0.0010550114
233	0x3b299699	0.0025877117
234	0xb99dc77d	-0.00030094004
235	0xb993ac33	-0.00028166323
236	0xbb64fd21	-0.0034940916
237	0xb93c00d8	-0.00017929391
238	0x3b4ac714	0.0030941414
239	0x3b5229e2	0.003206842
240	0x3b5d6089	0.0033779463
241	0x3b4d3f40	0.0031318218
242	0x3b5e4b2e	0.0033919322
243	0xb8cb2870	-9.6873264e-05
244	0x3a4fad61	0.0007922259
245	0x391a02fd	0.00014687698
246	0xba4f0cec	-0.0007898349
247	0xb9d5eda9	-0.00040803596
248	0xb97b8fe6	-0.00023990832
249	0x3b29b2d2	0.0025893939
250	0xb996cc38	-0.00028762384
251	0xb84abe93	-4.833804e-05
252	0xbb5cc48b	-0.0033686485
253	0x3a017292	0.0004938032
254	0x3b5615cf	0.0032666808
255	0x3b46c0c9	0.0030327311

decoder_layer.lstm.weight_hh_l0 f4 [200, 50]
0	0xb9fb9bde	-0.0004799058
1	0x3a51e125	0.00080062664
2	0x39bf831a	0.00036528037
3	0xb9b0833a	-0.00033667107
4	0xb9a1ac59	-0.00030836722
5	0x39d849c8	0.00041253702
6	0x39d0a3be	0.0003979485
7	0xb9e0a9ef	-0.0004285122
8	0xb9a1e9ba	-0.00030882453
9	0xb9c0e9b7	-0.00036795225
10	0x39b4f226	0.0003451269
11	0x3a0b0ed9	0.00053046417
12	0x3a2283ee	0.00061994686
13	0xb9c7fdb8	-0.00038145273
14	0x3a8677f1	0.0010259134
15	0xb9c55eec	-0.0003764549
16	0xb9f288c9	-0.0004625975
17	0xba242af4	-0.0006262504
18	0xb9c852fa	-0.00038208795
19	0x39a11d95	0.00030730353
20	0x3a0f4e93	0.00054667256
21	0xb9a895af	-0.0003215498
22	0x3a0c22a6	0.0005345739
23	0xb9c4241d	-0.0003741094
24	0x39a1dfe6	0.0003087513
25	0xba1ae7d6	-0.000590918
26	0xb9dca7b0	-0.00042086607
27	0xb9a827c0	-0.00032073073
28	0xb9da9a1b	-0.00041695018
29	0xb9ce622c	-0.00039364526
30	0x3a4dac67	0.00078458193
31	0x39a27817	0.00030988522
32	0x39aeaea4	0.00033317984
33	0xb9a5841c	-0.00031569682
34	0xb9a55279	-0.000315327
35	0x39b4ca3c	0.00034482952
36	0x39a62f25	0.00031697113
37	0x39b51a8b	0.00034542786
38	0x39a0f959	0.00030703357
39	0xb9a1a408	-0.00030830526
40	0x39acc81b	0.00032955487
41	0xb9c31ec6	-0.00037216226
42	0x39bb6553	0.00035742912
43	0x39abde12	0.00032781117
44	0xba3df4db	-0.0007246264
45	0xb9a48ca4	-0.00031385303
46	0x3a5c509b	0.0008404345
47	0x39b06378	0.00033643446
48	0xb9bcbdaa	-0.00035999465
49	0x39bf24f4	0.0003645789
50	0xb9ad332e	-0.00033035263
51	0x39af8493	0.00033477377
52	0x39a9ef65	0.00032412555
53	0xba7febd4	-0.0009762619
54	0xba197b59	-0.0005854867
55	0x39a0c250	0.00030662352
56	0x3a1b4282	0.0005922691
57	0xb9ed84df	-0.0004530316
58	0xb9a76dd6	-0.00031934556
59	0xba00ce47	-0.000491355
60	0x3a5fca73	0.0008536942
61	0x39a9fcaf	0.00032422456
62	0x39a7c51d	0.00031999583
63	0xba3ce06a	-0.0007205071
64	0x39c1f605	0.00036995127
65	0xb9e12e98	-0.0004295006
66	0xba05a253	-0.00050977356
67	0xb9c42dd8	-0.0003741819
68	0xb9ad0a6c	-0.00033004896
69	0x39c43f14	0.0003743103
70	0x39a609bb	0.00031669237
71	0xb9ab7e28	-0.00032709655
72	0x3a675b3c	0.00088255457
73	0xb9a12645	-0.00030736826
74	0x39a97500	0.00032321364
75	0xb9c34e6c	-0.00037251727
76	0xb9aa0070	-0.00032425253
77	0xba85b37e	-0.0010200588
78	0xb9cc1ebe	-0.00038932817
79	0xb9ff24ce	-0.00048664812
80	0x39a9447b	0.00032285214
81	0x39c347a0	0.00037246663
82	0x39a80eb3	0.0003205441
83	0xb9a2ac3c	-0.00031027372
84	0xb9ace2c1	-0.0003297534
85	0x3a723964	0.0009240119
86	0x39c19c44	0.00036928256
87	0x39ac9c52	0.00032922864
88	0x39cdf0f1	0.00039280162
89	0xb9d17b22	-0.00039955328
90	0x39c3400a	0.0003724101
91	0xb9a460f4	-0.00031352753
92	0x39a37f41	0.00031184594
93	0x39a252e5	0.0003096081
94	0xb9d3ac7a	-0.0004037356
95	0xb9e65a4b	-0.00043936292
96	0x39a6c656	0.0003180976
97	0x39b4bf45	0.00034474782
98	0xb9b7ae3c	-0.00035034295
99	0x39b44791	0.00034385597
100	0xb9cc66cc	-0.00038986502
101	0x39ca80d8	0.00038624438
102	0x39c058c6	0.00036687235
103	0xb9abc112	-0.0003275951
104	0xba4e549e	-0.00078708853
105	0x3a033005	0.0005004409
106	0x39a4e965	0.0003145441
107	0xba867d2b	-0.0010260692
108	0xba11d55e	-0.0005563105
109	0xb9d30740	-0.00040250458
110	0x39cdc8c2	0.00039250223
111	0x3a847bf4	0.0010107742
112	0x39bdc43a	0.0003619509
113	0xb9a9c2a4	-0.0003237921
114	0x39ac6e5d	0.00032888624
115	0xb9a348c2	-0.00031143992
116	0xba2dcc61	-0.0006629881
117	0xb9c52f15	-0.00037609847
118	0xb9c660d5	-0.00037837648
119	0x3a8352e7	0.0010019214
120	0x39c667aa	0.0003784274
121	0xb9d9aba8	-0.0004151736
122	0x39a89509	0.00032154497
123	0xb9af3ce6	-0.00033423974
124	0x3a5448db	0.00080980145
125	0xb9d5f87c	-0.0004081166
126	0xba106dba	-0.00055095146
127	0xba347b64	-0.0006884842
128	0xba7e141f	-0.00096923293
129	0xb9ba1d9c	-0.00035498745
130	0x39bfbcdc	0.0003657107
131	0x39a7aebd	0.00031982912
132	0x39e3e9ca	0.00043471
133	0xb9c142ae	-0.0003686151
134	0xba09a618	-0.0005250885
135	0x39f77d0f	0.00047204687
136	0x39c1bbe8	0.0003695183
137	0x39d15573	0.0003992725
138	0x39c815c4	0.0003816319
139	0xb9cf4381	-0.0003953241
140	0x39cf2c15	0.0003951496
141	0xb9f8c37c	-0.00047447893
142	0x39cec857	0.00039440647
143	0x39d816e7	0.00041215794
144	0xb9c97f44	-0.00038432528
145	0xba01303b	-0.00049281464
146	0x39a17080	0.00030792132
147	0x39cd433c	0.0003915074
148	0xb9cfb248	-0.00039614947
149	0x39a7ed8d	0.0003202971
150	0xb9cabd3c	-0.00038669433
151	0x39fc0e05	0.0004807563
152	0x39bb9d80	0.00035784766
153	0xba5392f7	-0.00080709107
154	0xb9da06a4	-0.00041585148
155	0x39a05240	0.0003057886
156	0x39aa1414	0.00032439886
157	0xb9a0595d	-0.0003058416
158	0xb9fd8b39	-0.0004835965
159	0xb9a6333a	-0.00031700154
160	0x39b75427	0.00034967178
161	0x39ac21a8	0.00032831472
162	0x3a72c2aa	0.00092605746
163	0xb9c18955	-0.0003691415
164	0x39da75ce	0.00041667972
165	0xb9ad8538	-0.00033096387
166	0xb9c9db41	-0.00038501064
167	0xb9cd1476	-0.00039115892
168	0xb9e8560b	-0.00044314595
169	0x39c9075e	0.00038343197
170	0x3a27b6e7	0.0006397799
171	0xba71f117	-0.00092293456
172	0x3a39efd7	0.0007092929
173	0xb9d40ee6	-0.0004044689
174	0x39c11ce7	0.00036833363
175	0xb9e7a021	-0.0004417906
176	0xba792b42	-0.0009505042
177	0xb9abdc61	-0.00032779857
178	0xba60fcf6	-0.0008582616
179	0xb9dae77d	-0.00041752672
180	0x39a86867	0.00032121243
181	0x3a07d9b1	0.000518228
182	0x3a10618b	0.0005507699
183	0xb9a7d7d0	-0.00032013515
184	0xb9a7fc33	-0.00032040625
185	0x3a07ef03	0.0005185457
186	0x39e0171d	0.0004274183
187	0x3a06ec8a	0.00051469414
188	0x3a6b65ec	0.0008979726
189	0xb9a47afa	-0.00031372142
190	0x39dc7558	0.00042049098
191	0xb9bc9b67	-0.00035973938
192	0x3a82f9d9	0.0009992673
193	0x39b62e87	0.0003474841
194	0xb9aa31dc	-0.00032462075
195	0xb9dd6d9c	-0.0004223407
196	0x3a365805	0.0006955865
197	0x39c3985c	0.00037306815
198	0xba6ba56d	-0.0008989189
199	0x39d792bd	0.00041117324
200	0xb9edbd3b	-0.0004534515
201	0x39cda156	0.00039220852
202	0x39ae05be	0.00033192144
203	0xba4ad533	-0.00077374576
204	0xba06b69d	-0.0005138906
205	0x3a84595f	0.0010097435
206	0x39a2f5b1	0.00031082102
207	0xba78b992	-0.00094881014
208	0xba4ba06c	-0.000776774
209	0xb9b91007	-0.0003529789
210	0x39a57d8e	0.00031564798
211	0x39c78782	0.000380572
212	0x39a11e1b	0.00030730743
213	0xb9a16196	-0.0003078102
214	0x3a85794b	0.0010183243
215	0xb9c3a845	-0.0003731867
216	0xba093f80	-0.00052355975
217	0xb9d57473	-0.00040713287
218	0xba33f562	-0.0006864873
219	0x39a294f1	0.00031010018
220	0x39ac17f5	0.00032824246
221	0xb9ab9cd3	-0.00032732505
222	0x39e33a27	0.0004334014
223	0xb9a95bdf	-0.0003230264
224	0x3a27f63e	0.00064072374
225	0xb9ad0ac8	-0.00033005164
226	0xb9d21551	-0.00040070203
227	0xba0c4173	-0.0005350329
228	0xb9f72acc	-0.00047143397
229	0xb9c4070a	-0.00037389278
230	0x39af8605	0.00033478453
231	0x3a27c582	0.00063999754
232	0x39c02ad7	0.00036653012
233	0xb9bfaafa	-0.00036557746
234	0xb9cb27a6	-0.00038748718
235	0x39a5b4e1	0.00031606018
236	0x39b24456	0.0003400172
237	0x39cace2e	0.00038682058
238	0x39af1a70	0.000333983
239	0xb9b019b4	-0.00033588486
240	0x3a55bf11	0.0008153776
241	0xb9a643e9	-0.00031712584
242	0x39c892c1	0.00038256313
243	0x3a7f2bfb	0.00097340316
244	0xb9b44ab0	-0.00034387922
245	0xb9a87f7f	-0.0003213845
246	0x3a848269	0.0010109666
247	0x3a669ab3	0.00087968557
248	0xb9d24379	-0.00040104592
249	0x39b01c14	0.00033590256
250	0xb9c146e9	-0.0003686466
251	0x39bfbb36	0.00036569842
252	0x39cb3f68	0.0003876642
253	0xb9d8c905	-0.00041348502
254	0xb9c29865	-0.00037116106
255	0x39affc06	0.00033566373

decoder_layer.lstm.bias_ih_l0 f4 [200]
0	0x3b81ebb7	0.003964867
1	0x3b7c1c4f	0.0038469022
2	0x3b8db0b8	0.004324045
3	0x3b88c667	0.004174042
4	0x3b80f26e	0.00393515
5	0x3b8c091f	0.0042735483
6	0x3ba0d9ea	0.00490879
7	0x3b8430d8	0.004034143
8	0x3b7fd7e3	0.003903859
9	0x3b7d5922	0.0038657864
10	0x3b88e68a	0.004177873
11	0x3b80ac88	0.0039268173
12	0x3b9e3eae	0.0048292493
13	0x3b84fa3a	0.0040581496
14	0x3b83bad7	0.004020076
15	0x3b84a14c	0.0040475484
16	0x3b85e441	0.004086048
17	0x3b922506	0.00445998
18	0x3b7ff0c5	0.0039053422
19	0x3b8b6f16	0.004255186
20	0x3b94e2f5	0.004543657
21	0x3b9ef15e	0.0048505506
22	0x3b7f00d4	0.0038910406
23	0x3b8e256d	0.0043379576
24	0x3ba15533	0.0049234866
25	0x3b85ca0a	0.004082923
26	0x3b95d900	0.0045729876
27	0x3ba1fac1	0.0049432223
28	0x3b99c7ea	0.004693021
29	0x3b90323d	0.00440052
30	0x3b917fbb	0.0044402755
31	0x3b971522	0.0046106735
32	0x3ba1bf7d	0.0049361573
33	0x3b9bf73c	0.0047596972
34	0x3b8267c3	0.0039796545
35	0x3b992704	0.0046738405
36	0x3b983130	0.0046445355
37	0x3b9ba7ec	0.0047502425
38	0x3b981679	0.004641351
39	0x3b86a956	0.004109542
40	0x3b846185	0.0040399455
41	0x3b9401c5	0.0045168125
42	0x3b9a514b	0.004709398
43	0x3b898423	0.00419666
44	0x3ba11e5c	0.004916949
45	0x3b87c98b	0.004143899
46	0x3ba14486	0.0049214987
47	0x3b9fb8ef	0.0048743407
48	0x3ba099bc	0.004901139
49	0x3b91b956	0.0044471426
50	0x3b94450d	0.004524833
51	0x3bb4594b	0.0055038086
52	0x3bb48c1e	0.0055098673
53	0x3baef12c	0.0053388085
54	0x3bb3f5e8	0.005491961
55	0x3bb1b3b0	0.0054230317
56	0x3ba7cc1e	0.005120768
57	0x3bb40940	0.0054942667
58	0x3b996d7f	0.0046822424
59	0x3bb4e5af	0.0055205445
60	0x3ba36a22	0.0049870173
61	0x3b9b55a2	0.004740433
62	0x3ba3705b	0.004987759
63	0x3bab2d4e	0.0052239066
64	0x3ba40479	0.005005416
65	0x3b992d60	0.0046745986
66	0x3ba28c28	0.0049605556
67	0x3bb3089b	0.0054636723
68	0x3bb05f38	0.0053824447
69	0x3bb2f09f	0.005460813
70	0x3bb47ec8	0.0055082776
71	0x3bb2d521	0.005457536
72	0x3bb50dc9	0.005525325
73	0x3ba1e2b8	0.004940357
74	0x3ba34d06	0.004983547
75	0x3ba9b9c0	0.005179614
76	0x3ba3acd2	0.004994967
77	0x3ba66918	0.005078446
78	0x3bacd532	0.0052744383
79	0x3bb2fdb1	0.0054623713
80	0x3bb23c48	0.005439315
81	0x3bb3d2e9	0.005487789
82	0x3bb37174	0.005476171
83	0x3bb48a81	0.005509675
84	0x3bae373e	0.005316644
85	0x3ba68219	0.005081427
86	0x3b97fe57	0.004638474
87	0x3bb531b0	0.005529605
88	0x3baf491b	0.005349291
89	0x3ba8e8f2	0.0051547224
90	0x3ba3d347	0.0049995515
91	0x3b9c574d	0.0047711493
92	0x3bb313f1	0.0054650237
93	0x3bb3340d	0.0054688514
94	0x3baff009	0.0053691906
95	0x3bb3c3bc	0.00548598
96	0x3bb464fc	0.0055052023
97	0x3baaac25	0.0052085095
98	0x3baa04b7	0.0051885503
99	0x3bb0c1e8	0.005394209
100	0x3b7b2206	0.003831984
101	0xbb7bade9	-0.003840322
102	0xbb7b02d9	-0.0038301258
103	0x3b7f635d	0.0038969137
104	0x3b787a5e	0.0037914733
105	0xbb7d51ab	-0.0038653414
106	0xbb7bcfa2	-0.003842332
107	0x3b755366	0.0037433743
108	0x3b733873	0.0037112504
109	0x3b7743a3	0.0037729524
110	0xbb723d28	-0.0036962721
111	0xbb7adf17	-0.0038279945
112	0xbb764421	-0.003757723
113	0x3b7c6f75	0.0038518582
114	0xbb7b9f40	-0.003839448
115	0x3b73766b	0.003714944
116	0x3b75033e	0.0037385966
117	0x3b79073d	0.00379987
118	0x3b792061	0.0038013684
119	0xbb742ae3	-0.0037257008
120	0xbb7bd70e	-0.0038427743
121	0x3b73befd	0.0037192695
122	0xbb743a5d	-0.0037266233
123	0x3b7ccd04	0.0038574347
124	0xbb7c11b9	-0.0038462712
125	0x3b761266	0.0037547587
126	0x3b800153	0.003906408
127	0x3b756a23	0.0037447296
128	0x3b7c900e	0.0038538012
129	0x3b7b8dbe	0.0038384045
130	0xbb791d33	-0.003801179
131	0xbb7bd01c	-0.0038423603
132	0xbb77bc6f	-0.0037801524
133	0x3b759388	0.0037471969
134	0x3b792e23	0.0038021884
135	0xbb7c591a	-0.0038505257
136	0xbb7c7fc4	-0.0038528303
137	0xbb77d787	-0.0037817673
138	0xbb7704d2	-0.0037692082
139	0x3b6d2519	0.0036185442
140	0xbb7bff23	-0.0038451634
141	0x3b784d10	0.003788773
142	0xbb7a5869	-0.003819967
143	0xbb7e592c	-0.0038810475
144	0x3b7cf7d2	0.003859986
145	0x3b701e80	0.0036639273
146	0xbb7b7c8e	-0.00383738
147	0xbb76522e	-0.0037585604
148	0x3b791d10	0.0038011707
149	0xbb7cbe62	-0.0038565625
150	0x3c1dfc5c	0.009642687
151	0x3c126f36	0.008937648
152	0x3c111468	0.008854963
153	0x3c1eba6b	0.009688
154	0x3c1f579d	0.0097254785
155	0x3c20245b	0.009774293
156	0x3c1fdf3e	0.009757815
157	0x3c1507a8	0.009096064
158	0x3c1fc5ec	0.009751778
159	0x3c205746	0.009786433
160	0x3c1ffc17	0.009764693
161	0x3c10c283	0.008835438
162	0x3c1706fb	0.009217973
163	0x3c1628c1	0.00916499
164	0x3c1d565b	0.009603108
165	0x3c1f1d5c	0.00971159
166	0x3c20a260	0.009804338
167	0x3c1f3d00	0.009719133
168	0x3c1f8751	0.009736852
169	0x3c1fa09c	0.009742882
170	0x3c1fff33	0.009765434
171	0x3c201d36	0.009772589
172	0x3c1c8603	0.009553435
173	0x3c1fd911	0.0097563425
174	0x3c1f2a02	0.009714605
175	0x3c1e1ab9	0.009649926
176	0x3c20d23b	0.009815748
177	0x3c13fdb9	0.00903266
178	0x3c1ecb65	0.009692048
179	0x3c17b6d1	0.009259895
180	0x3c1f19cd	0.009710741
181	0x3c183464	0.009289835
182	0x3c1fca0d	0.0097527625
183	0x3c202ee3	0.009776804
184	0x3c1f607f	0.009727596
185	0x3c1e6976	0.009668699
186	0x3c1ce515	0.009576102
187	0x3c20dff2	0.009819018
188	0x3c144609	0.009049901
189	0x3c1f74ac	0.009732407
190	0x3c19ab65	0.009379243
191	0x3c173c58	0.009230696
192	0x3c1a083f	0.00940138
193	0x3c1f9dfd	0.009742257
194	0x3c1fafde	0.00974652
195	0x3c180629	0.009278812
196	0x3c0ee715	0.008722086
197	0x3c17eecc	0.009273242
198	0x3c1d8356	0.009613832
199	0x3c18ff2c	0.0093381815
