final_project/gru_gbrbm_H_div_2 (drop 0.2)/type2/gru_gbrbm_W20_H100_B32.pt (torch, 157466 bytes, 9 tensors)

lstm_layer.lstm1.weight_ih_l0 f4 [300, 9]
000000 25 cf 52 b8 61 cf 7b b8 be 90 a2 36 de 20 d4 b6
       -5.026082e-05 -6.00362e-05 4.8448264e-06 -6.3219186e-06
000010 37 f4 3f b7 20 6d 18 36 e3 fe a2 36 9d 4a b0 35
       -1.1441348e-05 2.2713284e-06 4.857649e-06 1.3134737e-06
000020 8f 12 1d 36 64 b0 3a b7 68 28 28 b6 7e f5 84 b6
       2.3405626e-06 -1.1127533e-05 -2.505747e-06 -3.9624856e-06
000030 5a 62 2a b7 1b 87 e5 b6 2a ed 83 b6 fc 27 e2 37
       -1.0155689e-05 -6.84046e-06 -3.9317138e-06 2.6959919e-05
000040 3c e8 bc b6 fa 19 10 b7 f5 ca 5c b8 58 69 a8 b8
       -5.6298722e-06 -8.589117e-06 -5.2641106e-05 -8.030486e-05
000050 19 22 07 b7 d7 ed c1 b7 b1 39 0a b7 2d da 79 b6
       -8.054566e-06 -2.3118146e-05 -8.238873e-06 -3.7230886e-06
000060 7b 8a f5 36 b4 b6 75 36 80 6d e4 36 74 d1 9a b7
       7.3176902e-06 3.6614192e-06 6.807677e-06 -1.8455765e-05
000070 92 fa e0 b6 93 99 96 b5 49 87 cf b5 19 0e 93 b5
       -6.7048904e-06 -1.1220567e-06 -1.5462075e-06 -1.0956456e-06
000080 31 9e 8f b5 a4 ef 2b b5 21 aa 9e b5 e4 c5 2c b5
       -1.070037e-06 -6.4051187e-07 -1.1821431e-06 -6.436296e-07
000090 22 53 12 b7 59 b1 2a b8 40 2b a1 b6 cf ac 28 b7
       -8.721634e-06 -4.0696326e-05 -4.803209e-06 -1.00538155e-05
0000a0 e9 e0 a9 36 38 2e 00 b7 51 f2 0a 36 9f 14 e8 b5
       5.0627755e-06 -7.640156e-06 2.070465e-06 -1.7291349e-06
0000b0 8c 37 57 37 36 e2 d0 b7 c0 17 ff b6 5f 31 31 36
       1.2827932e-05 -2.490087e-05 -7.602357e-06 2.6403793e-06
0000c0 3c 5e 28 b4 de ae 5d 35 2e bb d3 b5 80 65 07 37
       -1.5680502e-07 8.258338e-07 -1.5775202e-06 8.070259e-06
0000d0 ec cb e1 35 11 12 1e 36 9c 7d 44 b8 fb f5 27 b8
       1.6823155e-06 2.355435e-06 -4.6847024e-05 -4.004499e-05
0000e0 77 f5 11 b7 72 a6 ee b6 6d f8 b7 38 0e 35 6d b7
       -8.699825e-06 -7.1123295e-06 8.772393e-05 -1.4138654e-05
0000f0 f3 c5 b4 b6 b8 87 e5 b6 2d fb 0c 35 da fb 52 b7
       -5.3874624e-06 -6.8405316e-06 5.2519573e-07 -1.2575614e-05
000100 b1 63 a0 b8 37 27 28 b7 85 e0 9a 36 32 69 13 b8
       -7.6479635e-05 -1.0022711e-05 4.615695e-06 -3.5145502e-05
000110 67 79 e1 34 33 8c 3a b7 81 d3 35 b6 29 37 a7 36
       4.1997848e-07 -1.1119107e-05 -2.7094213e-06 4.9834093e-06
000120 08 88 fa b5 e8 41 40 b5 f1 cc ef 35 fb 06 8d 35
       -1.8666042e-06 -7.162148e-07 1.7866533e-06 1.050735e-06
000130 24 12 d5 35 78 2f 65 35 7f 39 59 35 4a a2 c6 34
       1.5875016e-06 8.5378224e-07 8.092247e-07 3.6998455e-07
000140 20 73 51 34 62 cc 8f b7 4d c6 ca b6 92 8a b0 35
       1.9506524e-07 -1.7142102e-05 -6.0431544e-06 1.3153351e-06
000150 df 1c 2c b4 ad 9a 88 b6 38 2b 04 34 d1 ab 06 36
       -1.6029252e-07 -4.0711225e-06 1.2309181e-07 2.0067566e-06
000160 28 e6 ca 33 63 50 46 36 54 26 93 b8 f3 f0 83 37
       9.448223e-08 2.955109e-06 -7.0166454e-05 1.5728618e-05
000170 65 ec 30 36 1a e9 88 b7 42 b2 c3 b6 68 02 42 b8
       2.6363643e-06 -1.632101e-05 -5.832205e-06 -4.6255445e-05
000180 64 19 55 36 8a 61 03 34 5d 9c c7 36 ab 32 1e b7
       3.1754253e-06 1.223581e-07 5.9488652e-06 -9.429331e-06
000190 da e5 15 b5 f8 76 1f b6 51 57 c9 b6 6a d4 a8 b6
       -5.5841303e-07 -2.3762095e-06 -6.0004318e-06 -5.0315184e-06
0001a0 fc 6e 79 b6 56 fb 90 b6 c2 ca d0 33 bc bf 85 35
       -3.7168493e-06 -4.320794e-06 9.722636e-08 9.965074e-07
0001b0 be 98 11 36 74 bb 20 b7 c2 83 ca 35 54 91 93 b5
       2.1695591e-06 -9.580388e-06 1.5088519e-06 -1.099465e-06
0001c0 aa 3a a7 35 09 ef 54 35 34 ef 03 36 0a 2a 06 36
       1.2459543e-06 7.9323996e-07 1.9659756e-06 1.9992026e-06
0001d0 6d 58 e8 35 bd e0 9e 37 f8 2d 8a 37 75 48 07 b6
       1.7311082e-06 1.893972e-05 1.6472288e-05 -2.0158743e-06
0001e0 83 e7 d5 b5 55 f7 19 b6 0e f4 d4 b5 e9 07 c3 b5
       -1.5937115e-06 -2.2942743e-06 -1.586626e-06 -1.4530934e-06
0001f0 1f 58 d8 b5 a0 33 84 b5 31 e9 a3 b7 3a 5f e4 b7
       -1.6118901e-06 -9.849791e-07 -1.9539702e-05 -2.7224061e-05
000200 c3 fa 37 b6 56 1c 41 b6 4b c4 4a b7 f3 b0 eb b6
       -2.7415088e-06 -2.8775735e-06 -1.2085841e-05 -7.0241454e-06
000210 42 0f 19 b7 20 dc 64 b6 c2 93 5c b5 aa 71 24 b8
       -9.123063e-06 -3.4102777e-06 -8.21714e-07 -3.9206505e-05
000220 e5 f3 92 b6 db ef 77 b7 8d 30 a1 b7 c7 37 c0 b7
       -4.379532e-06 -1.4778193e-05 -1.9215304e-05 -2.2914157e-05
000230 a3 e0 8b b7 2f b9 b4 b6 fa 6b c3 b6 24 1c 8b b5
       -1.6674696e-05 -5.3859762e-06 -5.824023e-06 -1.0364497e-06
000240 c1 d7 84 b8 ed 05 73 b8 1e 3c fe b7 be 9b 89 b7
       -6.334438e-05 -5.7941234e-05 -3.0307154e-05 -1.6404196e-05
000250 35 ff b9 b7 64 d1 96 b7 9d 14 fa 37 a1 c7 85 b7
       -2.2172559e-05 -1.7978899e-05 2.9811921e-05 -1.5947795e-05
000260 62 83 77 b6 c1 be 82 b8 f6 d1 46 b9 f7 aa 51 b8
       -3.6882343e-06 -6.234414e-05 -0.00018960968 -4.9988706e-05
000270 56 ae f2 b7 86 81 3a b8 46 20 82 b7 86 aa 25 b8
       -2.892983e-05 -4.4466484e-05 -1.5512236e-05 -3.9497878e-05
000280 9a 9e 6c b7 9d ad cf 36 3d e1 f1 b7 d0 e4 5e b8
       -1.41036235e-05 6.189292e-06 -2.8834324e-05 -5.3142023e-05
000290 0c 2e e5 33 4b 4a 9d b7 3e a3 19 b7 2d 69 11 b8
       1.06720194e-07 -1.8750454e-05 -9.157518e-06 -3.4668647e-05
0002a0 00 71 df b7 06 5c 5f b7 ba 14 56 37 19 44 73 b7
       -2.6636291e-05 -1.3313262e-05 1.276022e-05 -1.4499784e-05
0002b0 5c b9 bc b6 b0 a9 f1 36 d2 08 a1 b5 8a 36 6b b6
       -5.6244153e-06 7.202114e-06 -1.1998002e-06 -3.5049475e-06
0002c0 d9 c1 0a b5 8f a8 eb b3 ab 33 b0 b5 5d e0 33 35
       -5.169109e-07 -1.0973701e-07 -1.3128059e-06 6.700919e-07
0002d0 fb a8 c5 b8 49 16 9e b9 3c 80 7f b6 2b b7 c5 b7
       -9.425167e-05 -0.00030152712 -3.8072603e-06 -2.3569524e-05
0002e0 08 84 6b b7 ba 34 3b b7 85 68 b6 b7 9a 98 a7 36
       -1.4037832e-05 -1.1158345e-05 -2.1744761e-05 4.994753e-06
0002f0 2e 17 65 38 2a 43 c6 b7 3a b2 62 37 58 d5 01 b6
       5.4619442e-05 -2.3634715e-05 1.3512146e-05 -1.934668e-06
000300 51 da 9d b6 9c 04 3d b5 79 e2 ae b6 ad 3d 3a b6
       -4.70438e-06 -7.0414694e-07 -5.211969e-06 -2.775206e-06
000310 c6 58 fe b6 c5 ce 83 b6 b3 d2 b2 b6 8b 22 6d 37
       -7.5801245e-06 -3.9281754e-06 -5.329342e-06 1.41343435e-05
000320 1b 49 36 35 38 00 a8 35 4d 44 dd b5 31 56 98 35
       6.7906666e-07 1.2517039e-06 -1.6485661e-06 1.1349968e-06
000330 45 65 51 b4 65 6b 49 b6 30 40 16 36 cf be ef b6
       -1.9501483e-07 -3.0013846e-06 2.2389104e-06 -7.144968e-06
000340 52 85 d9 b7 76 9b 30 37 f1 e2 16 37 61 ee b4 36
       -2.5930498e-05 1.0526614e-05 8.993536e-06 5.392169e-06
000350 b2 29 f8 36 15 13 3e 37 9e e4 8b 36 35 6a 08 37
       7.39583e-06 1.1329325e-05 4.1691374e-06 8.13096e-06
000360 e0 5e 12 b6 69 da 59 34 73 35 6a 35 a8 ba d3 b4
       -2.181092e-06 2.0289157e-07 8.724957e-07 -3.9437623e-07
000370 8c 8f c3 35 a2 96 0a 35 4a e1 09 35 35 6a b3 35
       1.457041e-06 5.1628206e-07 5.1364316e-07 1.336745e-06
000380 d7 9d ae 35 b3 73 0f b8 1f 00 2a b8 9f 58 9c b6
       1.3009948e-06 -3.420161e-05 -4.053127e-05 -4.659479e-06
000390 74 1e da b6 91 c3 15 b7 95 b8 e7 b7 31 9a 83 b7
       -6.5004515e-06 -8.926626e-06 -2.7623299e-05 -1.5688218e-05
0003a0 df 8c 76 b7 12 55 cd 37 29 ac 16 b8 e1 10 12 36
       -1.4695542e-05 2.4477518e-05 -3.5923124e-05 2.176552e-06
0003b0 55 b7 77 b5 1d 47 d6 b6 e6 cd 93 b5 92 5a fa b5
       -9.2281454e-07 -6.3859757e-06 -1.1012278e-06 -1.8652811e-06
0003c0 65 07 a7 b5 cf d4 e4 36 7d eb c6 b4 29 28 ff b7
       -1.2444622e-06 6.8197037e-06 -3.7051714e-07 -3.041707e-05
0003d0 48 a4 17 b8 17 bd ec b6 9e 73 07 b8 94 fe 9d b6
       -3.6154204e-05 -7.055361e-06 -3.2294185e-05 -4.7086014e-06
0003e0 a2 5d 96 b7 4e d6 30 b6 07 c6 f9 b6 e8 c1 1a b7
       -1.7924995e-05 -2.6350785e-06 -7.4438317e-06 -9.224263e-06
0003f0 8c 76 7d b7 f3 e2 4c b7 d2 e7 93 b5 95 78 86 b7
       -1.51075765e-05 -1.2212188e-05 -1.1019822e-06 -1.6030195e-05

lstm_layer.lstm1.weight_hh_l0 f4 [300, 100]
000000 88 0a 62 b6 b3 a5 a4 b4 a1 8c c2 36 33 5e 26 b5
       -3.3682754e-06 -3.0667942e-07 5.798022e-06 -6.1976897e-07
000010 6d c4 62 36 a7 23 12 36 55 b5 11 b6 01 67 bf 36
       3.379096e-06 2.1776448e-06 -2.1712233e-06 5.704235e-06
000020 30 b8 b2 35 8a 70 2c b6 f6 2e 8c b6 24 2e 88 35
       1.3315639e-06 -2.5695504e-06 -4.177792e-06 1.0146218e-06
000030 c3 3b 25 36 73 d6 8b b4 2e d3 6a b5 64 1f f2 b5
       2.4621702e-06 -2.60468e-07 -8.74791e-07 -1.8039541e-06
000040 46 91 37 b6 6b 06 01 b7 41 ad 83 36 16 c7 7c b6
       -2.7353685e-06 -7.6904935e-06 3.9242736e-06 -3.766681e-06
000050 14 c3 00 b7 b2 25 a7 35 43 af 42 36 ef 3e a3 36
       -7.674815e-06 1.245344e-06 2.9010268e-06 4.865105e-06
000060 de e6 90 b5 28 ce 24 b6 4c 5b 2f 34 7d 89 78 b6
       -1.0796027e-06 -2.4557903e-06 1.6331359e-07 -3.7034908e-06
000070 10 0b 01 36 55 68 b4 b4 0c 07 84 36 71 57 5b 36
       1.9228937e-06 -3.3603524e-07 3.934727e-06 3.268444e-06
000080 46 ff 0f 37 ac 6c e0 b6 87 fd b1 36 1b b7 30 b5
       8.5829e-06 -6.6883713e-06 5.3045255e-06 -6.583156e-07
000090 ee ce 81 b6 46 06 2e 34 38 60 0f 35 33 14 01 36
       -3.8685894e-06 1.6207295e-07 5.341167e-07 1.9234255e-06
0000a0 30 e1 63 b6 9c 33 4e 35 c8 5d 7a 36 64 c9 be 35
       -3.3956712e-06 7.681608e-07 3.730749e-06 1.4214716e-06
0000b0 df 22 50 b5 a0 a9 33 36 13 48 8b 34 9e 87 36 b6
       -7.753678e-07 2.6771813e-06 2.5943208e-07 -2.7199053e-06
0000c0 74 3f dc 35 25 ae fa b3 d4 cc b8 b5 56 18 6b b6
       1.6409745e-06 -1.1673209e-07 -1.3768681e-06 -3.5031894e-06
0000d0 f0 87 ae b5 b7 be 11 b6 94 97 42 36 8d 3b 8a 35
       -1.3003573e-06 -2.1717694e-06 2.8996483e-06 1.0299133e-06
0000e0 bf f8 c3 b6 21 b8 a0 b5 6e e1 a9 b5 66 c5 96 b6
       -5.8404107e-06 -1.1974518e-06 -1.265709e-06 -4.4933286e-06
0000f0 a8 65 3b 33 4f 4d 89 b6 62 56 72 b4 87 4a 91 35
       4.3631786e-08 -4.091918e-06 -2.2569432e-07 1.0825032e-06
000100 31 38 c0 35 e2 24 2e b6 22 92 fe 35 67 1f 52 36
       1.4321469e-06 -2.594949e-06 1.8967005e-06 3.1310717e-06
000110 ad 73 93 b5 c3 9a b1 b5 86 2e d8 35 29 18 ea b5
       -1.098602e-06 -1.3232569e-06 1.6106794e-06 -1.744139e-06
000120 57 f4 50 b5 27 a3 9d b5 fa 3c 45 36 86 96 c4 b5
       -7.78416e-07 -1.1744895e-06 2.939078e-06 -1.4646946e-06
000130 a3 9f 6e b5 1f 06 0c b5 48 0e 0f b6 59 8b a1 b6
       -8.889421e-07 -5.216297e-07 -2.1316973e-06 -4.814396e-06
000140 14 26 e0 b4 8d 1c 26 b5 a3 b0 4f b6 56 24 97 b6
       -4.1750957e-07 -6.1881366e-07 -3.094822e-06 -4.5043807e-06
000150 48 90 16 b6 0c 35 91 b6 df 33 18 b6 0c aa a2 36
       -2.2435725e-06 -4.327512e-06 -2.2679958e-06 4.8477723e-06
000160 d1 d2 32 b5 63 d5 30 b6 35 e0 30 36 9d 95 77 b6
       -6.6616946e-07 -2.635025e-06 2.635655e-06 -3.6892955e-06
000170 29 38 8f b5 12 44 a8 35 9a 5f 06 b5 00 1b 66 b6
       -1.0670675e-06 1.2536786e-06 -5.005801e-07 -3.4288387e-06
000180 4e 34 24 35 31 21 24 35 3e bc 28 36 a1 b8 88 36
       6.1170874e-07 6.114306e-07 2.5143522e-06 4.0746095e-06
000190 f6 01 15 b7 e5 8f b5 b3 06 ed fd 34 56 9a 9c b3
       -8.881549e-06 -8.4546436e-08 4.729738e-07 -7.2923896e-08
0001a0 bd b0 b3 34 af 44 53 34 4c 73 7f b5 87 7a ed 34
       3.3469942e-07 1.9675893e-07 -9.516268e-07 4.423384e-07
0001b0 17 47 14 35 63 b9 bc b4 2f 67 4b b5 28 de e1 33
       5.5237746e-07 -3.5152615e-07 -7.5773545e-07 1.0517789e-07
0001c0 df df 7f 34 4a 67 16 33 f8 57 02 b5 c4 41 27 b5
       2.383017e-07 3.5018537e-08 -4.8556785e-07 -6.230805e-07
0001d0 67 3b 56 b5 7e e2 af b5 6b 93 d1 34 3a bf 81 34
       -7.9807654e-07 -1.3104434e-06 3.9036544e-07 2.4167258e-07
0001e0 3c c5 0f b6 4e ee d1 32 e4 69 91 34 1c 1c a5 35
       -2.1423466e-06 2.443917e-08 2.70854e-07 1.2301639e-06
0001f0 d4 03 c0 b3 26 0e 16 b5 b4 6b 1c b2 da 6d 0c b6
       -8.941393e-08 -5.5899943e-07 -9.104884e-09 -2.0925568e-06
000200 a0 a6 99 35 a4 ef 6b b4 d9 61 e0 34 fa e1 b4 34
       1.1447883e-06 -2.1973261e-07 4.1794445e-07 3.3692032e-07
000210 e2 cd a9 35 78 73 03 b7 c7 39 bf 35 d2 f7 7c 33
       1.2651401e-06 -7.835093e-06 1.4247424e-06 5.8898713e-08
000220 dc 0c 3a b5 64 11 99 34 5c ea 75 35 87 b2 e4 32
       -6.930911e-07 2.8511124e-07 9.161065e-07 2.6623878e-08
000230 45 f9 10 b5 dd a4 50 34 82 8e 93 34 76 5b b4 34
       -5.4006915e-07 1.9431486e-07 2.7484572e-07 3.359416e-07
000240 21 80 47 b4 1d 60 90 35 0c 76 40 34 76 43 d4 b3
       -1.8579932e-07 1.0756809e-06 1.7924339e-07 -9.8842904e-08
000250 56 c5 69 34 9a fe 3c b4 50 e0 12 b5 d9 da a5 b5
       2.1771606e-07 -1.7601488e-07 -5.4715656e-07 -1.2357151e-06
000260 73 6d 96 b2 6b 0e 21 b5 48 3c 3c 35 e5 00 0e 34
       -1.751207e-08 -5.9998155e-07 7.012318e-07 1.3225106e-07
000270 06 e1 17 b5 d4 80 ad b5 9c b0 f7 b4 b3 71 6c b5
       -5.6579336e-07 -1.2926998e-06 -4.6135835e-07 -8.8082305e-07
000280 77 7f 60 32 97 62 49 b5 b5 90 d1 32 74 0f 56 34
       1.3067498e-08 -7.50218e-07 2.4396607e-08 1.9935925e-07
000290 05 82 19 36 2b 5b 98 b4 9a c4 19 35 b3 9c 9d 35
       2.2874458e-06 -2.837854e-07 5.7283034e-07 1.1743017e-06
0002a0 ff 67 1c b5 7c 96 af b4 aa f8 cd 33 71 8a 2e b5
       -5.8265863e-07 -3.2705782e-07 9.591288e-08 -6.502151e-07
0002b0 86 99 2a b5 1b d7 0b b6 2a 1f bd 35 fa d7 7d b5
       -6.355334e-07 -2.0837822e-06 1.4090667e-06 -9.456413e-07
0002c0 69 6a a4 b3 e5 9b b8 b4 20 d3 0e b3 61 4a 83 b5
       -7.656201e-08 -3.43861e-07 -3.325397e-08 -9.781908e-07
0002d0 f2 d2 b5 32 2e 62 c1 b2 e6 25 d4 b4 43 ad 87 b5
       2.11671e-08 -2.2512804e-08 -3.9515652e-07 -1.010871e-06
0002e0 9f cd 7e b4 6f 46 88 b5 c2 bc b9 b4 cf b2 13 35
       -2.3730398e-07 -1.0153288e-06 -3.4596275e-07 5.502197e-07
0002f0 4e ba bf b3 a8 63 c8 b4 c9 8c 1a 35 79 e0 ae b4
       -8.928019e-08 -3.7325412e-07 5.757434e-07 -3.257335e-07
000300 cc 92 f2 32 3d e9 3f 34 6d 89 c3 32 01 c5 fb b4
       2.8239263e-08 1.7873113e-07 2.2763482e-08 -4.6895732e-07
000310 5b d1 0c 35 ce 6c cd 34 ff 65 dd 34 5a 9f 80 35
       5.2458716e-07 3.826339e-07 4.123867e-07 9.583121e-07
000320 f9 06 b9 b6 da ea 90 b5 64 e6 f0 36 f4 dd 81 b6
       -5.5142414e-06 -1.0797187e-06 7.1793784e-06 -3.8703383e-06
000330 a7 8b 91 37 90 c6 45 36 4e f4 b3 b6 da 0e e7 36
       1.7350378e-05 2.9470866e-06 -5.3630565e-06 6.8860654e-06
000340 cc 47 01 36 af cd 3f b6 67 32 98 b6 dd ff 85 35
       1.926429e-06 -2.8580941e-06 -4.5358206e-06 9.983738e-07
000350 54 c2 70 36 88 dd 4e b4 f9 2d 0f b6 f1 09 46 b6
       3.58759e-06 -1.9265838e-07 -2.133542e-06 -2.9510086e-06
000360 bc 0f 54 b6 a0 16 24 b7 3c f5 ac 36 3b ea 42 36
       -3.159962e-06 -9.7804295e-06 5.1545485e-06 2.9044593e-06
000370 05 89 15 b7 59 6e a6 35 fd b9 7d 36 bd c2 dc 36
       -8.912994e-06 1.2400079e-06 3.7808197e-06 6.5791814e-06
000380 49 90 a1 b6 c1 b4 36 b6 ba 98 17 34 fa cd a7 b6
       -4.814971e-06 -2.7225326e-06 1.4118532e-07 -5.0009667e-06
000390 25 14 59 36 c7 fa e2 b4 08 d7 b3 36 59 b8 a6 36
       3.2347245e-06 -4.2278245e-07 5.3596486e-06 4.9686464e-06
0003a0 a4 d8 36 37 af e0 00 b7 08 4e f6 36 4c f7 28 b5
       1.0898486e-05 -7.681708e-06 7.3404553e-06 -6.294474e-07
0003b0 e7 e6 01 b7 d2 12 5e 34 ba 47 ad 34 b6 16 0b 36
       -7.74276e-06 2.0682208e-07 3.227595e-07 2.0725834e-06
0003c0 d1 69 18 b7 28 dd 95 35 d4 7a b2 36 47 29 15 36
       -9.084543e-06 1.116573e-06 5.3191125e-06 2.2226757e-06
0003d0 c5 cf c4 b5 ed 6c c3 36 a2 d9 0e 35 1e 43 5e b6
       -1.4663607e-06 5.8241335e-06 5.321582e-07 -3.3119645e-06
0003e0 15 c8 0f 36 dd df 8d b4 cd cb 0e b6 06 b2 8a b7
       2.1425124e-06 -2.6426179e-07 -2.1278277e-06 -1.653378e-05
0003f0 7f b4 5f b5 df c6 32 b6 2b 7c 76 36 40 25 bf 35
       -8.333663e-07 -2.6639825e-06 3.6729132e-06 1.424145e-06

lstm_layer.lstm1.bias_ih_l0 f4 [300]
000000 36 61 e6 37 3d 2f 30 37 26 94 9f 38 cf 04 8c 37
       2.7463404e-05 1.0501416e-05 7.6093056e-05 1.669154e-05
000010 98 66 87 35 e7 1b a2 37 c5 b2 7a 38 44 7f 17 38
       1.0088143e-06 1.9324898e-05 5.9771137e-05 3.611973e-05
000020 a5 07 3f 37 b6 23 3d 35 23 82 8a 38 ed 2e 1a 37
       1.1386267e-05 7.0459953e-07 6.6045926e-05 9.190041e-06
000030 71 68 63 37 9c b3 7a 37 87 75 1e 38 cf 30 76 38
       1.35545715e-05 1.494298e-05 3.777959e-05 5.8696427e-05
000040 29 d1 e2 37 c6 5c fd 38 b3 20 19 38 eb a6 c0 36
       2.7038697e-05 0.000120812605 3.6508496e-05 5.7414777e-06
000050 96 4f 9d 38 19 63 59 36 0e 36 ac 36 0b 76 65 37
       7.5011674e-05 3.2393202e-06 5.1322922e-06 1.3676948e-05
000060 19 7f 9c 35 56 47 9e 37 69 c1 ee 36 01 4e f6 37
       1.1659896e-06 1.8868286e-05 7.1154686e-06 2.9361809e-05
000070 8e 0c c4 37 4e a1 1a 37 e5 e1 c1 37 76 64 14 38
       2.3370867e-05 9.216672e-06 2.3112583e-05 3.537951e-05
000080 58 09 0f 38 28 7a ba 37 38 30 b6 38 6b 2a 1a 37
       3.410256e-05 2.2229811e-05 8.687418e-05 9.1889915e-06
000090 40 0f 5a 38 da 83 29 35 29 62 25 37 82 43 6d b5
       5.1989453e-05 6.3149275e-07 9.857621e-06 -8.8387617e-07
0000a0 7e 53 f0 37 ff ac d3 37 c0 ea 76 38 65 aa 8c 38
       2.8649109e-05 2.5233718e-05 5.88696e-05 6.707459e-05
0000b0 e7 f2 12 37 cd 18 3f 38 d3 61 09 37 bc 52 f9 36
       8.758833e-06 4.5561046e-05 8.188613e-06 7.43041e-06
0000c0 d1 3b 92 36 32 be 48 37 18 4a 2d 37 40 8b 5e 37
       4.3581026e-06 1.1965212e-05 1.0328855e-05 1.3264653e-05
0000d0 95 d0 c7 36 5a e6 33 37 3f fc 4f 36 3d 5a 46 38
       5.9549443e-06 1.0722864e-05 3.099223e-06 4.729092e-05
0000e0 67 e2 5b 39 06 a8 bc b6 10 69 2d 38 fb 68 d1 37
       0.00020969809 -5.622397e-06 4.134426e-05 2.4963627e-05
0000f0 b8 77 fe 36 d9 b2 7a b6 45 9b 60 36 50 ba eb 34
       7.583727e-06 -3.7357006e-06 3.346898e-06 4.390772e-07
000100 f5 52 23 38 7c 95 f4 36 32 78 23 38 ed 94 c5 36
       3.8939488e-05 7.289169e-06 3.897417e-05 5.8883948e-06
000110 ec 5e 74 37 fa 7c c2 36 95 32 f3 34 eb f4 ca 38
       1.4565634e-05 5.7961997e-06 4.529908e-07 9.67773e-05
000120 9a 0b ae 36 b0 48 b3 36 df 75 5b 38 74 30 d6 37
       5.1869547e-06 5.3430776e-06 5.2323445e-05 2.553335e-05
000130 92 12 e2 37 a0 ec ef 36 f4 68 a8 37 8c 74 31 38
       2.6949947e-05 7.150302e-06 2.0076033e-05 4.230863e-05
000140 c6 9e 0e 37 76 61 d0 36 26 95 c7 36 b4 32 c3 37
       8.500827e-06 6.210229e-06 5.9480253e-06 2.3269422e-05
000150 f8 8b fb 37 b5 13 20 39 2e 52 b0 36 71 46 20 b7
       2.998671e-05 0.0001526613 5.2547757e-06 -9.553144e-06
000160 f1 47 99 36 76 9c 2c 38 31 d8 7d 38 24 c9 8e 38
       4.5681304e-06 4.115371e-05 6.0521244e-05 6.808553e-05
000170 7c fb 0d 36 ce 60 e7 b6 98 3c 90 37 08 d3 1a 36
       2.115702e-06 -6.895606e-06 1.7194354e-05 2.3070625e-06
000180 b3 37 b9 37 d3 d1 c7 37 7c c7 1b 37 eb 59 29 38
       2.2079656e-05 2.3820356e-05 9.285166e-06 4.0376483e-05
000190 07 dd 43 38 16 aa ae b7 08 ad ab 37 c9 3c d2 37
       4.669747e-05 -2.0821619e-05 2.0465362e-05 2.5062256e-05
0001a0 28 99 5b 37 fb 86 11 37 bb be 20 b8 71 fd 5d 38
       1.3089077e-05 8.674101e-06 -3.8324604e-05 5.292654e-05
0001b0 4a fd 4b b8 1f ac 13 36 a8 2e a3 37 a7 8c 2b 36
       -4.8634865e-05 2.2004895e-06 1.945284e-05 2.5562856e-06
0001c0 8f 59 da 37 5c 81 8c b8 2b 02 8f 37 a9 e6 61 b8
       2.602933e-05 -6.699815e-05 1.7047938e-05 -5.3859e-05
0001d0 4d 8c c9 b7 2f 6b bf 38 ac 76 b4 36 e6 7d 58 37
       -2.40264e-05 9.127554e-05 5.3782333e-06 1.2903916e-05
0001e0 e5 a3 14 38 dd f4 b8 36 b2 df 96 34 2b ba 74 37
       3.543859e-05 5.512133e-06 2.8102437e-07 1.4586879e-05
0001f0 ba d0 ca 35 36 41 d3 36 27 4c 91 36 7e 4d 6e 36
       1.511092e-06 6.2958816e-06 4.330202e-06 3.550987e-06
000200 98 27 04 37 d5 21 2d 37 9d fe d4 37 49 f0 06 b8
       7.877032e-06 1.0319481e-05 2.5390933e-05 -3.2171873e-05
000210 84 1b 96 38 b6 89 30 b6 3b 12 26 b8 b0 b2 9d 34
       7.1576826e-05 -2.6306202e-06 -3.9594463e-05 2.937354e-07
000220 8a 20 18 38 68 fa fe 32 a7 0e 88 b6 60 0e 46 37
       3.626993e-05 2.9683363e-08 -4.0548216e-06 1.1805067e-05
000230 5e 1f 44 38 17 89 8d 36 9f f2 33 38 e6 1b 6b 36
       4.6759254e-05 4.218087e-06 4.2902884e-05 3.5033968e-06
000240 4f 45 fd b6 ee 02 2f b8 63 2d 4d 34 8a 33 5d 37
       -7.548056e-06 -4.172598e-05 1.9108624e-07 1.3184626e-05
000250 3c 54 19 34 4c 84 d0 34 56 1d 43 38 97 98 5b 38
       1.427988e-07 3.8839278e-07 4.6518944e-05 5.235578e-05
000260 1c 15 50 37 97 1a 21 b6 03 ce 7a b7 fe 0d 83 b7
       1.2402681e-05 -2.4006347e-06 -1.4949127e-05 -1.5622933e-05
000270 97 62 25 39 0c 65 2e 37 d2 2e 8c 37 df cb f2 37
       0.00015772354 1.0394735e-05 1.6711103e-05 2.8943583e-05
000280 85 37 0a 36 3b 43 8d 37 56 05 ac 35 31 55 02 b7
       2.059592e-06 1.6839816e-05 1.2816552e-06 -7.768439e-06
000290 39 d2 34 b4 9f 4e b7 37 f0 96 e3 b7 af 29 4d b6
       -1.6840285e-07 2.185191e-05 -2.7130794e-05 -3.0571643e-06
0002a0 75 3e d3 b5 e3 9a 64 35 92 6d 57 36 f0 9e 54 b8
       -1.5738902e-06 8.516201e-07 3.2101275e-06 -5.069276e-05
0002b0 0c a1 0f b7 2c 0c 8a 37 07 91 0a 39 3b b5 78 36
       -8.560961e-06 1.645655e-05 0.00013214732 3.706037e-06
0002c0 0d c2 92 37 6c 26 57 37 ca 1a ca 36 2e 3a 0b 38
       1.7494918e-05 1.2823944e-05 6.023188e-06 3.3194367e-05
0002d0 7f 86 d6 b6 7e 2a 3a 36 58 72 2d b7 f4 8d 78 b7
       -6.3933544e-06 2.7740894e-06 -1.0338226e-05 -1.4815003e-05
0002e0 18 93 da b6 81 5a 91 38 5e 83 2b 37 10 19 10 b8
       -6.5140302e-06 6.9309965e-05 1.0222981e-05 -3.4355617e-05
0002f0 97 8e be 34 e0 ef 31 b8 5a 92 10 38 78 54 85 37
       3.5494006e-07 -4.242349e-05 3.4468576e-05 1.589417e-05
000300 b1 ba 29 37 26 f6 71 b7 92 10 85 38 4f 4a 19 37
       1.0116652e-05 -1.442203e-05 6.345021e-05 9.136812e-06
000310 cc 7f e3 b7 e6 b3 40 38 21 12 78 b7 76 ba 0f b6
       -2.7120019e-05 4.594391e-05 -1.4786173e-05 -2.1417195e-06
000320 fa 25 a0 bb e3 ce 6c ba 45 17 1a 3c 25 13 fe ba
       -0.0048873397 -0.0009033514 0.009404962 -0.0019384368
000330 7a c8 cd 3b 33 d5 a9 3a 63 34 a2 bb 37 23 4f 3c
       0.006280002 0.0012957215 -0.0049500926 0.012642673
000340 99 87 af 3a 56 25 81 bb d8 af 8c bb 36 73 57 ba
       0.0013391852 -0.0039412184 -0.004293423 -0.0008218767
000350 a7 e5 8d 3b 82 72 56 bb ec 7e 02 bb 8d 3a 02 39
       0.004330355 -0.003272206 -0.0019912077 0.00012419578
000360 54 ac 89 bb 27 22 32 bc 5d f4 f1 3b 0e 0f 2e 3b
       -0.0042014513 -0.0108724 0.0073838667 0.0026559266
000370 7b 5a 86 bc 4c 75 45 b9 93 c7 1f 3b 85 75 f1 3b
       -0.016400566 -0.0001883108 0.002438043 0.0073687457
000380 a7 97 a2 ba 5b aa c8 bb 02 19 77 39 22 1d 92 bb
       -0.0012404815 -0.0061238236 0.00023565072 -0.0044590393
000390 08 00 42 3b 14 a9 9b bb 60 be f1 3b fd 73 b3 3b
       0.002960207 -0.0047503803 0.007377431 0.0054764734
0003a0 ce 0e 7d 3c 0c e5 3e bc 27 2b 22 3c f9 3b 7d ba
       0.015445424 -0.011651289 0.009897984 -0.00096601207
0003b0 b6 f8 14 bc f0 93 8f 3a ab 4e d5 3a c3 27 6c 3a
       -0.0090925 0.0010954123 0.0016274055 0.00090086105
0003c0 47 2e ba bb 01 b7 e5 3a 07 78 6a 3b 7e a6 93 39
       -0.005681786 0.0017525853 0.0035777108 0.0002816207
0003d0 29 60 97 ba 38 0e db 3b b8 29 ed 3a 69 66 c8 bb
       -0.0011549044 0.0066850446 0.0018094098 -0.006115724
0003e0 01 1f 11 3b 9d f2 21 bb fb 5d 4f bb 7a 3f ef bb
       0.0022143724 -0.002471126 -0.003164171 -0.007301268
0003f0 18 d0 97 ba e0 6f d7 ba d8 2c 99 3b 7d d5 e9 b9
       -0.0011582403 -0.001643654 0.0046745352 -0.00044600284

lstm_layer.lstm1.bias_hh_l0 f4 [300]
000000 75 55 01 38 9e a4 3d 37 63 1b 9a 38 00 cd 4e 36
       3.0835585e-05 1.1303606e-05 7.3483934e-05 3.0815718e-06
000010 06 83 49 37 e8 4e 98 37 ce 57 8e 38 6c 63 69 37
       1.201104e-05 1.8156556e-05 6.7874425e-05 1.3911031e-05
000020 78 f9 d0 b5 cf ab fb 36 d3 33 8b 38 13 2c 33 37
       -1.5569813e-06 7.500384e-06 6.6376895e-05 1.0679493e-05
000030 26 98 07 b6 ac 62 6b 37 43 48 a8 37 ad 57 65 38
       -2.020513e-06 1.4030065e-05 2.006081e-05 5.467951e-05
000040 b8 da fb 38 8c 9b b3 38 6d da 27 38 f1 28 a0 36
       0.00012009352 8.564358e-05 4.0019328e-05 4.773138e-06
000050 29 88 ff 38 70 0d 35 b8 96 12 94 37 27 6a f4 36
       0.00012184709 -4.3166277e-05 1.765163e-05 7.2841244e-06
000060 34 6c 0b 36 4b 80 ef 37 e7 50 d7 36 78 85 f2 37
       2.0775597e-06 2.8550761e-05 6.4169176e-06 2.89108e-05
000070 a0 4a a8 37 5c 06 3f 37 9e c7 c1 37 d2 01 05 38
       2.006191e-05 1.1385968e-05 2.3100347e-05 3.1711366e-05
000080 68 86 e7 37 4d b0 aa 37 66 26 ce 38 1d 14 18 37
       2.7599934e-05 2.0347676e-05 9.829998e-05 9.064589e-06
000090 08 21 27 38 ab 52 5c 36 d7 2c 7a 37 58 d0 49 36
       3.9846665e-05 3.2830674e-06 1.4911601e-05 3.0072606e-06
0000a0 99 a1 81 37 43 ad f8 37 89 7f 84 38 3a ad 96 37
       1.5453248e-05 2.9644585e-05 6.318006e-05 1.7962058e-05
0000b0 91 14 a4 b5 6d 0c c4 37 8d 78 df 36 62 bb e7 36
       -1.2224938e-06 2.3370807e-05 6.659952e-06 6.9061507e-06
0000c0 2d 5e bd 38 34 90 61 b6 36 8d 3f 38 e2 8b 47 37
       9.029764e-05 -3.361155e-06 4.566946e-05 1.1893893e-05
0000d0 2e 44 2f 36 36 e7 17 b6 b1 b2 cc 36 46 25 74 38
       2.6116718e-06 -2.2635336e-06 6.100476e-06 5.8208847e-05
0000e0 61 44 a5 38 a2 65 ad b6 d7 f4 96 38 29 51 d6 37
       7.88055e-05 -5.1676334e-06 7.198162e-05 2.5548581e-05
0000f0 c7 6d 53 38 17 7e 93 37 a4 28 3d 37 67 25 18 36
       5.040856e-05 1.758248e-05 1.127474e-05 2.2671536e-06
000100 98 07 30 39 d1 7d 86 37 cc 4a 16 38 ce ad 87 37
       0.00016787497 1.6032633e-05 3.5832447e-05 1.6174188e-05
000110 e4 5d f2 36 a1 eb c7 36 39 2f 0e 34 88 fe 09 39
       7.2230923e-06 5.958093e-06 1.324196e-07 0.00013160158
000120 d7 31 8d 37 14 ec ac 36 64 4d c3 38 d0 0a 84 37
       1.6831718e-05 5.1534826e-06 9.31274e-05 1.5740661e-05
000130 67 60 ee 37 df dc f8 36 0b b1 31 37 ac 7c 3b 38
       2.8416702e-05 7.4166887e-06 1.0591243e-05 4.4700384e-05
000140 a8 bb 9a b6 2e 9b ca b4 23 48 ab 37 fc 08 10 38
       -4.6114037e-06 -3.773834e-07 2.041838e-05 3.4340643e-05
000150 e4 ec 2b 38 c3 c3 25 39 62 a1 9a 36 b2 9f 4c 37
       4.09902e-05 0.00015808553 4.608345e-06 1.21965295e-05
000160 99 10 34 36 af c3 54 37 67 ea 49 38 ae 6e 82 38
       2.6831751e-06 1.2681746e-05 4.814044e-05 6.219499e-05
000170 0c a5 98 36 92 d5 70 37 b7 49 20 38 e2 a3 d4 35
       4.549167e-06 1.43548405e-05 3.8215625e-05 1.5842927e-06
000180 bf 44 c8 37 e8 22 ab 37 9c 81 9b 37 9d 56 32 38
       2.387387e-05 2.0401043e-05 1.8537794e-05 4.2519172e-05
000190 d7 12 bb b7 ff 9d 17 b7 1d 24 6f 36 60 65 39 37
       -2.230091e-05 -9.037088e-06 3.5634796e-06 1.10504625e-05
0001a0 1c db 2c 37 86 2d 99 37 b7 67 53 b7 df a8 4a 38
       1.0303014e-05 1.826022e-05 -1.2600728e-05 4.8317826e-05
0001b0 d0 9a ad 35 a1 73 d6 b6 d4 dc 55 37 e0 8d 0f 36
       1.2934561e-06 -6.391158e-06 1.2747205e-05 2.1391243e-06
0001c0 05 6f 84 37 ea 11 92 b6 7f c0 90 37 ed 5c 8f b8
       1.5787324e-05 -4.3532245e-06 1.7255776e-05 -6.83608e-05
0001d0 06 a0 cf b7 5c 9e b0 37 a2 8f eb 36 e6 93 e7 36
       -2.475084e-05 2.1054577e-05 7.020267e-06 6.901554e-06
0001e0 03 82 2e 39 44 64 a6 36 4f 9a c3 b4 9e 1b ce 37
       0.00016642366 4.958858e-06 -3.6433855e-07 2.4569974e-05
0001f0 49 01 f3 35 80 16 28 37 34 4f 71 36 28 b6 75 36
       1.8105285e-06 1.0018819e-05 3.59579e-06 3.6613874e-06
000200 66 af bb 36 6a 45 c9 37 b1 da f6 37 d7 5f ed b7
       5.5934534e-06 2.399339e-05 2.9427321e-05 -2.829723e-05
000210 33 f8 09 36 4c 98 f4 37 c2 07 53 b8 9b 86 3a 38
       2.0559062e-06 2.9157985e-05 -5.0313545e-05 4.4471217e-05
000220 57 ee 37 39 17 f2 01 b5 a0 0f a0 b5 6e c9 47 37
       0.00017541029 -4.840853e-07 -1.1925476e-06 1.1908223e-05
000230 ae b9 02 38 cf 23 4e 36 63 64 e0 37 27 bd 58 36
       3.1167343e-05 3.0717235e-06 2.6749627e-05 3.229661e-06
000240 6f 9b 2a b7 ed a5 44 b8 34 8b 94 b4 bd 56 a9 37
       -1.0168979e-05 -4.6884572e-05 -2.7668432e-07 2.018676e-05
000250 4c 5a e5 35 56 3b 69 34 20 d0 84 35 16 75 38 38
       1.7088109e-06 2.1721402e-07 9.895339e-07 4.3978063e-05
000260 3e ad 4e 37 9b a4 0f b6 f5 e1 7e b7 e0 08 50 b7
       1.2318893e-05 -2.1404474e-06 -1.51921895e-05 -1.23998325e-05
000270 83 1b 8d 38 8a d0 0a 37 44 01 eb 36 4a d5 3f 38
       6.7285284e-05 8.273995e-06 7.003693e-06 4.573659e-05
000280 21 ad f1 35 5f d0 fc 38 a5 7c dd b6 20 bb c2 35
       1.8006286e-06 0.000120551085 -6.600824e-06 1.4508587e-06
000290 97 c9 54 b7 6e ec a8 37 c2 8c 02 b9 1f b1 1b 37
       -1.2683121e-05 2.0137257e-05 -0.00012450202 9.279959e-06
0002a0 32 f4 05 b6 2c de 19 b7 c1 39 fe 35 9c 8d 70 b8
       -1.9960685e-06 -9.171239e-06 1.8941283e-06 -5.7352343e-05
0002b0 50 a2 fc b6 40 2f 19 38 f6 32 31 b5 ce 18 ce b6
       -7.529081e-06 3.6522048e-05 -6.6011796e-07 -6.142166e-06
0002c0 f3 aa be 37 91 86 84 35 5b c0 21 37 f5 c8 28 37
       2.272937e-05 9.87393e-07 9.641134e-06 1.0060369e-05
0002d0 be 30 dd b7 ec 64 c5 36 4d d6 8b 38 97 d1 27 37
       -2.636795e-05 5.8828064e-06 6.667953e-05 1.0002775e-05
0002e0 4e 66 8c 38 1d 02 c7 38 15 9a d4 36 5f c2 ba b8
       6.694776e-05 9.489453e-05 6.33603e-06 -8.9053756e-05
0002f0 9a ee ae 34 f5 8b 11 b8 0d c6 df b6 75 20 8b 36
       3.258363e-07 -3.470104e-05 -6.668974e-06 4.1463013e-06
000300 5c 85 7a 36 14 1a 40 b7 ac 41 a6 36 ea 94 35 37
       3.7330528e-06 -1.1450164e-05 4.9548307e-06 1.08231125e-05
000310 bb 92 ee b6 1e 39 70 37 01 80 8d b7 28 8e 7a b7
       -7.1100344e-06 1.4318413e-05 -1.6868116e-05 -1.49342595e-05
000320 ba 24 37 bb ed bd 6f ba 2c 72 28 3b 31 29 ac b9
       -0.0027945475 -0.00091454276 0.0025702817 -0.00032837086
000330 37 e0 fc 3a a4 ae 9a b9 a1 ef 23 bb c8 4d 88 3b
       0.0019292895 -0.00029503286 -0.0025014656 0.004159663
000340 86 58 03 3a a0 60 7f ba a9 9f 05 ba 5b ea dc b9
       0.00050104444 -0.0009741876 -0.00050973386 -0.00042136278
000350 b3 7b 5c 3a af b0 b1 ba 47 15 d1 ba a3 2e 41 3a
       0.00084107666 -0.0013556684 -0.0015951776 0.0007369315
000360 d2 f3 1f bb 27 98 b7 bb fa 09 38 3b ea a6 c6 b8
       -0.0024406803 -0.005602855 0.0028082118 -9.472466e-05
000370 69 86 e5 bb ec e6 55 ba df e5 b6 b9 8a f5 19 3b
       -0.0070045483 -0.0008159715 -0.00034885012 0.00234923
000380 0d 67 89 38 e6 7a 07 bb 0f 62 ce 37 f7 b8 97 ba
       6.551864e-05 -0.0020672618 2.4602776e-05 -0.001157551
000390 f8 28 36 3a a9 8c 60 bb 6b 45 ea 3a c8 6f 3d 3b
       0.0006948854 -0.0034263527 0.0017873471 0.0028905738
0003a0 62 e2 ce 3b 18 7e 97 bb 6e aa 58 3b 56 6b 97 3a
       0.006313608 -0.004623186 0.0033060568 0.0011552374
0003b0 9b 1b 1a bb a9 2c 0b 3a 21 a6 07 b9 8b 73 2a ba
       -0.002351499 0.0005309084 -0.00012936491 -0.00065022026
0003c0 ee 32 62 ba 94 2b 56 3a b5 e8 b3 3a 6a f6 af b8
       -0.0008628805 0.0008169946 0.0013725968 -8.3905485e-05
0003d0 ff b0 ca ba 61 76 6f 3b b7 5c e8 3a 98 79 09 bb
       -0.0015464126 0.0036539065 0.0017727826 -0.0020977017
0003e0 ee fe b8 3a 36 69 8d ba 99 8b b7 ba d2 73 25 bb
       0.0014114061 -0.0010788802 -0.0014003395 -0.0025246036
0003f0 ce 7e db b9 17 eb 09 ba 9f c7 ec 3a 90 42 34 ba
       -0.00041865412 -0.00052611664 0.0018064863 -0.00068763737

gbrbm.W f4 [100, 50]
000000 10 05 4b bb 63 9f ba 3b 8f 4c 1c 3c 2c 8b c0 bb
       -0.003097836 0.00569527 0.009539737 -0.0058759656
000010 de 38 e1 3a 50 2c 9f 3b fb 51 ba 39 a9 6f 21 3b
       0.0017183085 0.0048575774 0.00035537765 0.0024633205
000020 48 ab d0 3b 1f 0f a3 ba 57 7e ca bb 96 0d 57 bb
       0.0063680746 -0.001244042 -0.0061796117 -0.0032814494
000030 b7 26 b2 bb 61 c0 81 bb 7b c1 2f 3b f9 e1 f3 3b
       -0.005436744 -0.003959701 0.0026818204 0.0074427095
000040 1f d5 68 bb 01 de 7b 3a 21 96 b1 3b 7a 56 2d 3b
       -0.003552742 0.00096079713 0.005419508 0.002644925
000050 70 61 82 bb f6 3c ff ba 54 78 b6 3a bc e5 98 bb
       -0.0039789006 -0.0019473124 0.0013921359 -0.0046660583
000060 6c 30 8c bb cb 12 34 3a 85 3a 13 bb 50 8c 98 3a
       -0.0042782333 0.00068692554 -0.00224653 0.0011638496
000070 39 b1 91 bc 08 ba 37 bc d1 36 b9 bb e0 2e da 3b
       -0.017784702 -0.011213787 -0.0056522866 0.00665842
000080 1b 88 2b 3c 45 ac d6 3a 1a d1 6c 3a a8 ed d6 3b
       0.010469462 0.0016378245 0.0009033844 0.0065590926
000090 b9 1b 59 bb 24 ab 33 bb 9f 76 02 bb 90 f1 28 bb
       -0.0033128096 -0.002741524 -0.001990713 -0.0025778748
0000a0 46 61 fb bc cb 9f 07 bc 4b fe 7c 3c 40 b3 ba 3b
       -0.030686032 -0.008277844 0.015441488 0.005697638
0000b0 8e 63 57 3a 74 40 7c 3b 42 f4 89 3a f6 1c 8a 3c
       0.0008216434 0.0038490565 0.0010525065 0.016859513
0000c0 bc 68 19 3c 11 f4 00 3b db d3 bc ba de 22 1c 3c
       0.0093633495 0.0019676725 -0.00144064 0.009529797
0000d0 3e 9d 1c 3b 93 b0 e0 ba 77 ed 05 bb f7 d1 ad ba
       0.0023897435 -0.0017142467 -0.002043573 -0.0013261427
0000e0 67 53 3c 3b 71 31 26 bb b9 b6 71 3b 5b 7c 16 3b
       0.0028736235 -0.002535906 0.0036882593 0.0022962305
0000f0 36 73 3f ba 37 0f 8d 3b e1 5b d8 ba 3b 0f 32 bc
       -0.00073032395 0.0043047923 -0.0016506874 -0.010867889
000100 50 d2 0a bc d7 34 08 bb 8b 52 20 3b 5b 4f ed ba
       -0.008472994 -0.0020783448 0.0024463262 -0.0018105315
000110 14 01 9b 3b e1 36 0f bb f3 99 c4 bb 24 9a cb ba
       0.004730353 -0.0021852779 -0.0059997975 -0.0015533608
000120 81 4c b1 3b ea 55 53 bb 3f 43 5d 3b 9c d8 55 3b
       0.0054107313 -0.0032247254 0.0033762006 0.003263033
000130 a4 bd 04 bb be 6c 00 bc bd 59 17 bc 60 72 8a 3b
       -0.0020254636 -0.007838426 -0.009237704 0.0042250603
000140 85 fc d2 bb db f4 70 bb c9 58 cc ba 92 e0 14 3c
       -0.006438794 -0.003676704 -0.0015590425 0.009086745
000150 53 42 ff 39 c7 b3 32 3b 4a 91 a9 bb 12 3d 8b bb
       0.00048686806 0.00272678 -0.0051747905 -0.0042492235
000160 4f 6e 31 3b 87 f4 1e bb 8a 08 80 3b 4b 7a e7 3a
       0.0027073806 -0.0024254636 0.003907268 0.0017660348
000170 f8 4f 93 ba d1 c6 75 bb 0f 86 91 3b ba 80 c3 3b
       -0.0011239043 -0.0037502537 0.00444103 0.005966273
000180 c3 d7 a1 bb d1 bf 7a 3b f5 13 35 3a 2d ea 64 bb
       -0.004939051 0.0038261304 0.0006907576 -0.0034929619
000190 c2 a5 78 3a a8 71 5b bb 46 48 ae bb 8f 93 4e 3c
       0.0009485149 -0.0033484492 -0.0053186743 0.012608423
0001a0 1b cf ce b9 fa 93 db 3b 6e a0 fa ba 89 06 34 3b
       -0.00039445687 0.00670099 -0.0019121298 0.0027469716
0001b0 f3 8b 16 ba 69 74 b2 39 63 89 ff 3a 8a d0 27 3b
       -0.00057429 0.00034037538 0.00194959 0.0025606477
0001c0 bc a1 14 bc 50 72 12 bb 22 75 1b bc a5 7e 53 bc
       -0.009071764 -0.0022345968 -0.009488376 -0.012908612
0001d0 05 0e 9b b9 33 85 eb 3b 48 65 a2 3b b4 2b 8c bb
       -0.0002957435 0.0071875094 0.0049559213 -0.0042776708
0001e0 f4 e0 9c 3b 00 9a 9c bb 9a 23 c9 3a da 3e 1e bc
       0.0047875587 -0.0047791004 0.0015345693 -0.00965854
0001f0 ab cf 59 bc c5 95 00 3c 94 0c fa 3b 3f ae ba ba
       -0.013294141 0.007848208 0.007630894 -0.0014242603
000200 05 af d7 3b 59 a4 cf 3a 37 49 6f 3a 6f 2e 77 bb
       0.0065821433 0.0015841826 0.00091280363 -0.0037716886
000210 66 6c 84 bb c3 64 d6 3b 91 e7 d8 39 06 57 ea bc
       -0.0040412424 0.0065427735 0.0004137126 -0.02860595
000220 69 ca 5f bb c4 03 e7 3b ee af f4 3b e8 89 cd ba
       -0.0034147745 0.0070500094 0.0074672615 -0.0015681358
000230 67 aa 5b 3d e8 04 af 3b ce f0 5e bc ae 9c 09 bc
       0.053629305 0.005341161 -0.013607217 -0.008399172
000240 51 7a 96 bb 1b 8c 3d bc c1 63 f0 bb 07 f3 8e bc
       -0.004592218 -0.011569048 -0.0073361103 -0.017449869
000250 21 1d 20 bc bc 5f a8 ba 7e 68 82 bb 03 67 5f 3b
       -0.00977257 -0.0012845914 -0.0039797416 0.00340885
000260 23 d6 82 3b ca 82 d5 3a 2c 37 b9 3a 16 0a f9 3a
       0.0039928122 0.0016289589 0.0014130822 0.0019000198
000270 38 13 04 3b 52 d9 28 3b c7 40 e0 3b 0b 17 b1 3a
       0.0020153057 0.0025764299 0.0068436596 0.0013510896
000280 a7 c3 02 3b fd 6d 13 b9 5f 75 42 3b d9 14 b8 bb
       0.0019953044 -0.00014059986 0.002967201 -0.0056177196
000290 0e a7 04 3b bf 94 ca bb ba 5b 32 3b 1a 21 07 bb
       0.0020241174 -0.0061822827 0.0027215318 -0.0020619095
0002a0 ab 22 67 ba 1b 95 97 bb ba dd 0c bb ff 12 4e 3a
       -0.00088171166 -0.004625929 -0.0021494464 0.0007861107
0002b0 94 4c 3b 3a 84 2e 81 39 90 8a 4c bb f4 02 03 3b
       0.0007144895 0.00024639454 -0.003121052 0.0019990774
0002c0 ce 08 ea 3b 16 eb 89 3b 8a 8f 9f bb a5 32 be 3a
       0.007142163 0.0042089326 -0.004869406 0.0014510943
0002d0 c0 83 86 bb 50 65 26 3c 61 4e eb ba cd fb 62 b8
       -0.0041050613 0.010155991 -0.0017952436 -5.4117107e-05
0002e0 98 e9 18 bb 5b 21 d8 3b f9 eb 5e 3b 0f 31 ac 3b
       -0.0023332592 0.006595773 0.0034015162 0.0052548717
0002f0 54 21 ac bb a0 b8 79 3a d0 e9 49 bc 52 ec bb ba
       -0.0052529965 0.00095261075 -0.012323812 -0.0014337397
000300 b8 d7 db b9 4a 35 fc ba 64 e1 5e bb 63 af 22 3b
       -0.00041931658 -0.0019241956 -0.0034008855 0.0024823777
000310 fd 8b f8 bb 04 be e4 3b 0d 95 86 ba 19 aa de bb
       -0.0075850473 0.0069806594 -0.0010267809 -0.0067951796
000320 d4 24 01 3a 04 51 fd b9 33 c8 bf ba a0 43 7d 3a
       0.0004926447 -0.00048316282 -0.0014631808 0.0009661261
000330 81 49 cc 37 08 32 12 bb f1 39 ca 38 6c 96 ff 3a
       2.4352923e-05 -0.0022307653 9.642903e-05 0.0019499785
000340 79 6a 13 3c 4f 6e ff 3a 48 ac 1a 3c d8 7c ca 3a
       0.008997553 0.001948783 0.009440489 0.0015448583
000350 14 0d 47 bb 97 8b 7b bb 4d 62 31 bb 6d cd 11 bc
       -0.0030372785 -0.0038382763 -0.0027066648 -0.008899075
000360 70 b4 c2 3b c7 bb c3 3b 96 26 9b 3b 2b 03 84 bb
       0.00594192 0.0059733125 0.0047348244 -0.004028698
000370 71 01 09 3b 9c a2 90 bb e8 62 00 bb 43 1b a0 ba
       0.00209054 -0.004413916 -0.0019590203 -0.0012215156
000380 5e 9b e9 bb 90 33 9a 3b 28 8a 03 bb ce fa 6f bb
       -0.007129117 0.0047058538 -0.0020071361 -0.0036617997
000390 b6 4d 0c 3c be 46 01 b9 17 98 0a 3c 14 76 9c bb
       0.00856345 -0.00012328752 0.008459113 -0.004774818
0003a0 91 a5 fa ba 0a b6 1f bb af b4 44 bb b2 44 49 bc
       -0.0019122829 -0.0024369978 -0.0030014922 -0.012284445
0003b0 b9 2e 39 bb d2 7d fb 3b 00 b5 b4 3b eb 4a fc bb
       -0.0028256609 0.007674911 0.005514741 -0.0076993606
0003c0 ee 1e 3f 3d b7 de 44 bb c2 2d 17 bc bb ed e9 bb
       0.046660356 -0.0030039975 -0.009227218 -0.0071389354
0003d0 d6 a8 f3 bb d6 b9 06 bc 0c 84 55 3a 20 0f a4 bc
       -0.0074358983 -0.008223018 0.00081449817 -0.020026743
0003e0 3c c1 6c ba 8d 27 17 3b f2 57 75 bb fe 90 fc bb
       -0.000903148 0.0023064346 -0.0037436453 -0.007707714
0003f0 ff 71 99 ba 4e 44 de 3b a0 b7 72 bb 13 b8 16 3b
       -0.0011706947 0.006783045 -0.0037035719 0.00229979

gbrbm.b f4 [50]
000000 af a3 4e be 4b e4 9a be dd 9f 22 be aa 42 fc bd
       -0.20179628 -0.302523 -0.15881296 -0.12317403
000010 96 04 06 be 18 25 0e be ad c4 f0 bd 1e 10 df 3c
       -0.13087687 -0.13881338 -0.11756263 0.027229365
000020 9c 06 71 3c 02 36 2c be b5 b5 1e be 74 35 70 be
       0.014711048 -0.16817477 -0.15499003 -0.23457891
000030 10 a2 05 bf 23 00 4a be a9 43 40 be fa 55 6b be
       -0.5220041 -0.19726615 -0.1877581 -0.22982016
000040 7b 10 40 be 21 a0 50 bd c7 08 e9 bc fe f7 3f be
       -0.18756287 -0.05093396 -0.028446568 -0.18746945
000050 95 9b 08 be 18 85 4d bd 20 2b 15 be 8d 61 b7 bd
       -0.133406 -0.050175756 -0.14567232 -0.08954153
000060 42 38 3a be 2a 31 ee bc a5 e8 b1 bd 30 a5 1b be
       -0.18185523 -0.029076178 -0.086869515 -0.15199733
000070 9e ef 70 bd b7 e9 a8 bd 17 43 0f be 17 4d 62 be
       -0.058822267 -0.082477026 -0.13990436 -0.2209972
000080 5a 65 ed bd c9 81 7c be d7 71 fa bd b7 a6 52 bf
       -0.11591597 -0.24658884 -0.122287445 -0.82285637
000090 ae 66 3e be d8 8b 23 be d5 ba ce bd 51 cd 06 be
       -0.18593857 -0.15971315 -0.10094229 -0.1316426
0000a0 21 cc ae 3f 6f ad 30 bd 4f d5 2f be 79 78 2b be
       1.3656045 -0.04313415 -0.17171215 -0.16745175
0000b0 05 d7 4a be de 2d 29 be 35 43 52 bd 52 f7 56 bf
       -0.19808586 -0.16521403 -0.051333625 -0.8397113
0000c0 9a 2f 9d bd 0b d2 d4 bd
       -0.07675095 -0.10391625

gbrbm.mu f4 [100]
000000 1e 27 f5 bb 43 62 ff bb f8 aa a4 3c 4a 53 53 bc
       -0.00748147 -0.007793696 0.020101056 -0.012898276
000010 7c 4a f1 3b 54 05 2d 3b fe 78 13 bc 82 fb aa 3c
       0.0073636156 0.002640088 -0.009001015 0.020871881
000020 bb f2 e3 bb ae 3b 2f bc ab 75 e8 bb 01 57 ef ba
       -0.006956426 -0.010695381 -0.0070941052 -0.0018260182
000030 e5 88 66 3c 32 66 1f bc f4 36 b0 bb bd 58 09 3c
       0.014070724 -0.009728955 -0.0053776447 0.008382973
000040 f7 41 4e bc bf 23 8b bc 6c e0 3b 3c 59 18 4e 3c
       -0.012588969 -0.016984819 0.011467081 0.012579047
000050 18 94 dd bc 5f 98 a3 3b 6e cc ec 3b 11 6e 6f 3c
       -0.027048156 0.0049925293 0.0072265184 0.014613644
000060 b4 b4 36 bc 83 8e 9a bc a0 42 de 39 81 3f 1c bc
       -0.011151481 -0.018866783 0.0004239278 -0.009536625
000070 98 a9 33 3c 7e 5c c9 ba d0 ee 39 3c 51 4c 53 3c
       0.010965727 -0.0015362648 0.011348441 0.012896613
000080 5a a6 c7 3c c9 cc ae bc e8 83 a5 3c b2 6e 27 bc
       0.024371315 -0.021337884 0.0202045 -0.010219263
000090 ae 2b 8b bc 61 5e f2 3b 89 4e a0 39 a3 0f b6 3b
       -0.016988602 0.0073965047 0.0003057609 0.0055560633
0000a0 d5 b1 bf bb 41 e2 a9 37 cd 73 6e bb 27 0a 42 bb
       -0.0058500567 2.0251728e-05 -0.003638494 -0.0029608102
0000b0 85 a5 d7 3b 99 c4 a8 3c 40 ce 80 3b 9b 94 af bc
       0.0065810108 0.020601558 0.003930837 -0.021433165
0000c0 36 45 40 3c ed 9a f8 bb f1 83 30 bc c0 78 1c bc
       0.011735251 -0.007586828 -0.010773645 -0.009550273
0000d0 66 86 08 bc 3e dc 24 bb 71 d6 75 3b 47 fd 70 bb
       -0.008332824 -0.0025155689 0.003751185 -0.0036772059
0000e0 ae 2e 34 bc 80 c3 e0 3a 33 e6 73 bc 66 c9 ad bb
       -0.010997457 0.0017148107 -0.014886427 -0.0053035496
0000f0 0d e9 9d 3a 8b b5 9b bc 61 13 17 bb f7 9a 51 3c
       0.0012047604 -0.019007465 -0.0023052322 0.012793294
000100 c7 4f 99 bb ae ee 4e bc 40 05 44 3a 56 76 ad 3c
       -0.0046786997 -0.012630148 0.0007477589 0.021174591
000110 6d 76 02 bc df c9 21 bb 43 80 36 3c 3b 3f d2 3b
       -0.007962805 -0.0024686975 0.011138978 0.006416229
000120 0b e0 de bb e7 19 40 bc 0e 14 46 3c 08 99 bb 3a
       -0.0068016103 -0.011724926 0.012089742 0.0014312575
000130 be 3d 8d bb 53 0b f5 bb 9e 29 2c 3c 68 cd 8d bc
       -0.0043103388 -0.0074781566 0.010507969 -0.01730986
000140 49 a9 f4 bb e2 2e 10 3c 36 ab 11 bc d3 c8 fc bb
       -0.0074664694 0.00880024 -0.0088909175 -0.00771437
000150 72 9f 28 bc 6f b6 03 bc f3 3d c8 bb 29 0e 98 3c
       -0.010291921 -0.008039101 -0.0061109005 0.01856144
000160 10 c3 11 bb c2 84 3e bc b2 e7 09 3c 2a b5 21 bc
       -0.002224151 -0.011628332 0.008417057 -0.009869853
000170 ae 27 4c ba 4b b0 1d 3b 4b 7c 09 3c 4f 84 a7 bc
       -0.0007787895 0.0024061378 0.00839145 -0.020448832
000180 d7 b0 85 ba 62 4d 10 3c 51 14 07 3c 03 b8 55 3c
       -0.0010199797 0.008807512 0.00824459 0.01304436

gbrbm.log_var f4 [100]
000000 80 9e 69 c0 5f 9d 69 c0 18 93 68 c0 2b 04 6a c0
       -3.650299 -3.6502302 -3.633978 -3.6565044
000010 30 31 6b c0 b8 70 6a c0 41 f2 69 c0 ec d7 68 c0
       -3.6748772 -3.6631298 -3.655411 -3.6381788
000020 36 16 6b c0 9a 8a 69 c0 67 45 68 c0 fe 07 6b c0
       -3.6732306 -3.6490846 -3.629236 -3.6723628
000030 88 ca 68 c0 52 d6 6c c0 3d 04 6b c0 43 3e 6b c0
       -3.6373615 -3.700581 -3.6721337 -3.6756752
000040 42 ec 69 c0 02 f5 66 c0 b1 bb 69 c0 79 cd 69 c0
       -3.655045 -3.608704 -3.6520808 -3.653166
000050 92 2c 66 c0 fd fe 6a c0 b3 cc 68 c0 8b 63 67 c0
       -3.5964704 -3.6718132 -3.6374938 -3.6154506
000060 18 3e 6b c0 3f 98 6a c0 43 64 6b c0 a4 35 69 c0
       -3.675665 -3.6655424 -3.6779945 -3.643899
000070 3d 6b 69 c0 02 2e 6a c0 8d 95 68 c0 bf b5 6a c0
       -3.6471703 -3.659058 -3.6341279 -3.667343
000080 44 50 64 c0 61 0c 67 c0 6f e6 67 c0 ac bb 69 c0
       -3.567399 -3.6101305 -3.6234396 -3.6520796
000090 dc 1b 68 c0 09 be 69 c0 01 63 6a c0 4c 76 69 c0
       -3.6267004 -3.6522238 -3.6622927 -3.6478453
0000a0 c4 df 68 c0 ed 2f 6b c0 ac 4c 6a c0 66 e1 6a c0
       -3.6386576 -3.6748002 -3.6609297 -3.6700072
0000b0 25 0f 6a c0 2f fb 67 c0 6b ff 69 c0 82 85 69 c0
       -3.6571743 -3.624706 -3.6562145 -3.6487737
0000c0 cd 48 69 c0 38 c3 6b c0 c9 a1 6b c0 d1 e3 68 c0
       -3.6450684 -3.6837902 -3.6817496 -3.6389048
0000d0 4f a6 6a c0 69 d1 6a c0 9a 87 69 c0 e9 af 6b c0
       -3.6664007 -3.6690314 -3.6489015 -3.6826117
0000e0 ba 43 68 c0 ed 97 6b c0 00 70 6b c0 06 7d 68 c0
       -3.6291337 -3.6811478 -3.678711 -3.6326308
0000f0 27 f0 6a c0 0f 99 68 c0 11 8f 6a c0 8d 92 6b c0
       -3.6709077 -3.634342 -3.664982 -3.6808197
000100 9e 43 6b c0 86 e1 68 c0 62 d5 6a c0 0a e9 69 c0
       -3.676002 -3.6387649 -3.6692739 -3.6548486
000110 fe 66 6a c0 f3 13 6b c0 35 77 6a c0 40 ef 6a c0
       -3.6625361 -3.6730926 -3.6635258 -3.6708527
000120 89 e3 6a c0 c6 65 6a c0 5b f9 66 c0 39 fe 6c c0
       -3.6701376 -3.6624618 -3.6089694 -3.7030165
000130 01 28 6a c0 dd 55 6a c0 2e 47 6b c0 f0 a5 67 c0
       -3.6586916 -3.6614907 -3.6762195 -3.619503
000140 1c 9b 6a c0 7b df 6a c0 27 0b 68 c0 7c df 6a c0
       -3.6657171 -3.6698902 -3.6256807 -3.6698904
000150 61 fc 6a c0 15 51 68 c0 03 90 69 c0 00 bd 66 c0
       -3.671654 -3.6299489 -3.6494148 -3.6052856
000160 9e 2a 6a c0 3b f0 68 c0 62 bc 69 c0 c3 10 68 c0
       -3.6588511 -3.6396625 -3.652123 -3.626023
000170 5f 33 6b c0 bd fb 69 c0 35 f9 6a c0 08 05 69 c0
       -3.6750104 -3.65599 -3.6714604 -3.640932
000180 ee 24 6a c0 79 7b 6b c0 e5 c9 6a c0 36 37 68 c0
       -3.658504 -3.6794112 -3.6685727 -3.6283698

gbrbm.linear_layer.weight f4 [1, 50]
000000 07 b5 dc bd 3c de 7c 3e 54 8f f6 3d eb c9 4d 3d
       -0.10776716 0.2469415 0.120390564 0.050241392
000010 1e dc 9c bd 04 0b df bc 34 d8 7e bd 72 3b 06 be
       -0.076591715 -0.027226932 -0.062217906 -0.13108614
000020 3e 14 08 be c2 8a 20 3e 4f 15 bb 3d fb 7b 23 3d
       -0.13288972 0.15677932 0.09134924 0.03991316
000030 ad 79 42 3f 24 2d 4d be 78 e4 83 3e 47 3a 3c 3d
       0.7596691 -0.20036751 0.25760245 0.045954015
000040 e9 b9 a0 3d ab 2a 03 be 76 e6 15 be 3e f2 03 be
       0.078479595 -0.12809245 -0.14638695 -0.12885377
000050 3c 86 16 be 92 77 03 be 34 7c 28 bd bd 31 00 be
       -0.14699644 -0.12838581 -0.041134074 -0.12518974
000060 8e cc 0a 3e 6e 1f b4 bd ac c6 3d 3d ba 86 54 3d
       0.13554594 -0.08795057 0.046332046 0.051886298
000070 e4 d2 f6 bd 92 35 a0 3d 9d 47 9e bc 1b a8 47 3d
       -0.12051943 0.07822718 -0.019321257 0.048744302
000080 d0 a6 87 bd f4 25 8e 3d 1c 13 2a ba 90 d3 5e 3f
       -0.06623614 0.06940833 -0.0006487833 0.8704157
000090 11 3e ba bd c2 f5 e5 3d 10 9c 9a 3d 2f 17 95 bc
       -0.090938695 0.11228515 0.07549298 -0.018199531
0000a0 83 b5 c0 be 39 b1 0a be 92 f8 64 3d ba 2b 1f bc
       -0.37638482 -0.13544168 0.055901118 -0.009715015
0000b0 85 69 18 3e d0 93 52 be 1c ba 3e be f2 fc 5e 3f
       0.14884003 -0.20564198 -0.18625683 0.87104714
0000c0 11 f8 82 bd 46 b4 16 be
       -0.06394971 -0.14717206
