final_project/lstm_gbrbm_H_per_2 (drop 0.2)/type2/lstm_gbrbm_W15_H100_B32.pt (torch, 263075 bytes, 9 tensors)

lstm_layer.lstm1.weight_ih_l0 f4 [400, 9]
00000000: 04af 57bb fd42 0cbb 14ac aa39 b5e2 79b9
00000010: 16ee 423a deef c8b8 83d1 72b9 a244 10b8
00000020: 9f55 0138 8b22 933a e11b ecba 59b4 86b9
00000030: 2ee3 5ab9 86c0 abb8 f27a 01b9 1cc3 19b9
00000040: 3282 1e38 f1a1 f938 297b c2bb 3d88 8b3b
00000050: ddde e7b9 0c98 36ba 7413 09ba 4161 08ba
00000060: 5747 ddb9 4f90 49b9 eea1 37b9 9034 6238
00000070: d9a3 c8ba c5d0 6a37 4173 f3b8 ea07 0bb9
00000080: d63f b5b8 474b a6b8 38d6 72b8 605c ba38
00000090: 4b6b 33ba 7ba7 3ebb 73d9 6b39 d1f9 4438
000000a0: 0058 2239 9bab 1139 3ab3 09b8 729a 7539
000000b0: 2f5c 9239 26b3 62ba cdfc cab9 5d7e eeb7
000000c0: 4a8b 01ba d957 ebb9 08e5 beb9 c571 9ab9
000000d0: 42f2 81b9 0e78 87b8 c880 e5ba 9b48 173b
000000e0: 5756 3ebb 043d 9fb9 7fc5 36ba 296c cbba
000000f0: b7ea 3dbb feb5 55ba 5053 7aba 076e a639
00000100: 1771 26b9 6a6e ebb6 b154 dfb7 14dd 4238
00000110: 3de8 2f37 10f7 2238 3bfa e535 641d e5b5
00000120: 2645 90bb e939 693b 362e bab9 7b78 26ba
00000130: f5cf 0bba 33c8 e8b9 3b07 83b9 5caf 9cb9
00000140: ca24 63b9 53ae 1cbb 7c33 2b3b ef53 d739
00000150: 34af 43ba 63ea 67ba 2cdc 20ba ab83 37ba
00000160: 986b dfb9 f195 c7b9 07ab 3b39 c5f2 5738
00000170: 0ed7 ef38 57a6 5a38 b142 0239 aeee f5b7
00000180: bb54 eeb7 e303 f338 6b69 93b7 fe6a 51bc
00000190: 8af0 2b3c 8a70 65ba f621 e3ba 8abe 8aba
000001a0: c1e3 dbba 3608 b4ba cea5 90ba 5b1d 45ba
000001b0: cb7e 5d39 34ad 8cba 0591 98b8 5af0 cd35
000001c0: ec68 a738 9163 adb8 22de e7b5 4151 8ab8
000001d0: 8b89 5939 4c93 f5bb b1ab 623b 84b2 33b9
000001e0: aeed 38ba 02bc 47ba b404 31ba 62b2 0aba
000001f0: 2c99 d7b9 2e03 3eb9 4fbe ba39 5ae4 1739
00000200: acf6 88b8 982a 0839 be73 aab8 8040 a2b8
00000210: 49c0 6438 a082 19b8 ae8a 2439 1132 5bbc
00000220: a9c8 233c 56fc b3ba 35e4 9bba 2b1a e3ba
00000230: a48c c1ba 5e40 91ba 30d4 85ba 6c17 51ba
00000240: ea36 58ba 2dda 8c39 cd7c c037 b46c c7b8
00000250: 3c4e c6b8 1401 373a 569d 78b8 2ce0 27b8
00000260: 5430 fd39 2539 d8bb 8990 ce3b 86eb 95ba
00000270: f2a2 7dba e701 a8ba ffb5 93ba e1da 80ba
00000280: 3b3f 54ba 1778 8339 44df 71b9 da31 8039
00000290: f3f6 25b8 228a 06b9 9e2a 45b8 1b52 0bb9
000002a0: c0ce f3b8 2eee 0d3a fdba 8db8 4b15 82ba
000002b0: 4699 80bb c2c9 093a 2be0 a7b9 65bb a7b9
000002c0: a594 b838 d0b9 a9b5 9aa3 5fb9 b508 45b9
000002d0: 9298 b8b9 941a ab3a 1c5f 5cb9 17bc e3b9
000002e0: 1ccb 4bb9 04ac 22ba e460 fab8 7e08 70b8
000002f0: a19c 26ba 3a4a fbba 7d65 a83a 628a 90b9
00000300: a662 86b9 c55f c1b8 b25c 8fb9 d837 21b9
00000310: 9f49 3cb9 01df bab8 3cd4 093a 894c bf39
00000320: b020 c4b8 6ac8 e1b9 b6d0 193a de99 203a
00000330: 695a cfb9 84b7 b839 1159 c537 53b2 aebc
00000340: c437 b53c b29a 82bb b5f8 81bb 63a2 8ebb
00000350: a74f 7cbb 6297 5dbb d065 42bb 837d 30bb
00000360: 46ac bab8 d7d0 9437 e4a6 85b7 5f4c 6ab8
00000370: cdf0 66b7 a4fa 80b7 bc4b 9cb7 f96c a6b6
00000380: 91e4 30b7 5a0a a1ba eb9a 91ba 1151 23b9
00000390: d809 1db9 5477 4ab9 d339 da38 8faa 0fb9
000003a0: 8801 f238 c8be 98b7 0593 08bd 24bc f23c
000003b0: 3397 9bbb 67e5 78bb 2d6d b3bb c3db a3bb
000003c0: 777f 8fbb a46a 75bb 74a4 53bb 40bc cabb
000003d0: 449d 9d3b a209 9937 bac8 30ba 8e89 d839
000003e0: 6d55 22ba ab07 07ba 867e dbb9 77a8 39b9
000003f0: d94a adbb b282 463b a793 18ba deae 3aba
-0.0032910714 -0.0021402233 0.00032553135 -0.00023830945 0.000743599 -9.581422e-05 -0.00023156968 -3.4396195e-05
3.0835738e-05 0.0011225505 -0.001801368 -0.0002569284 -0.00020874731 -8.189776e-05 -0.000123482 -0.00014663901
3.779139e-05 0.00011903409 -0.005935092 0.004258184 -0.000442258 -0.0006965406 -0.0005229034 -0.000520248
-0.00042205557 -0.00019222613 -0.00017512563 5.393155e-05 -0.001530762 1.3996095e-05 -0.00011608611 -0.00013259021
-8.642643e-05 -7.929518e-05 -5.7896803e-05 8.886377e-05 -0.0006844296 -0.0029091525 0.00022492353 4.69627e-05
0.00015482306 0.00013892206 -3.2830263e-05 0.00023422556 0.00027915972 -0.0008647911 -0.00038716794 -2.8430653e-05
-0.0004941715 -0.00044888144 -0.00036410266 -0.00029457934 -0.00024785293 -6.4596636e-05 -0.0017509693 0.0023084048
-0.0029043162 -0.00030372303 -0.0006972178 -0.0015519905 -0.0028979012 -0.0008152424 -0.00095491577 0.00031743964
-0.00015873123 -7.0163996e-06 -2.6623109e-05 4.64591e-05 1.0484885e-05 3.8853905e-05 1.7134656e-06 -1.7070383e-06
-0.0044027744 0.0035587496 -0.00035511114 -0.00063503504 -0.0005333417 -0.00044399648 -0.00024991654 -0.00029885292
-0.00021662112 -0.0023907616 0.0026123216 0.0004107053 -0.0007464767 -0.0008846877 -0.0006136324 -0.0007000516
-0.00042614038 -0.00038067953 0.00017897422 5.148609e-05 0.00011436465 5.2130166e-05 0.0001242261 -2.931742e-05
-2.8411267e-05 0.00011587867 -1.7572855e-05 -0.012781857 0.010494361 -0.00087524264 -0.0017328847 -0.001058535
-0.001677625 -0.0013735357 -0.0011035742 -0.0007519328 0.00021123436 -0.0010732771 -7.274937e-05 1.5343642e-06
7.982724e-05 -8.2678285e-05 -1.727549e-06 -6.5954875e-05 0.00020745971 -0.007494366 0.00345872 -0.00017137273
-0.000705446 -0.0007619263 -0.0006752715 -0.00052908633 -0.00041122118 -0.00018120997 0.00035618476 0.0001448555
-6.5309316e-05 0.00012985838 -8.12779e-05 -7.736776e-05 5.4538516e-05 -3.6599697e-05 0.00015691921 -0.013378636
0.009996572 -0.0013731818 -0.0011893573 -0.0017326524 -0.0014766646 -0.0011081805 -0.0010210332 -0.00079762074
-0.0008247929 0.00026865434 2.2946298e-05 -9.509307e-05 -9.455948e-05 0.00069810566 -5.9274338e-05 -4.002468e-05
0.00048291928 -0.006598609 0.006303851 -0.0011437989 -0.0009675465 -0.001281795 -0.0011269449 -0.0009830856
-0.000809658 0.0002507574 -0.00023066724 0.00024451205 -3.9569055e-05 -0.00012830694 -4.700815e-05 -0.0001328666
-0.00011625653 0.00054142147 -6.758233e-05 -0.0009924559 -0.0039245216 0.00052561995 -0.0003201974 -0.00031992342
8.801491e-05 -1.264556e-06 -0.00021327884 -0.00018790628 -0.0003520889 0.0013054186 -0.00021016266 -0.00043436952
-0.00019435253 -0.0006205442 -0.00011938976 -5.7228368e-05 -0.0006355737 -0.0019171902 0.0012847629 -0.00027568924
-0.0002563197 -9.2207956e-05 -0.0002734415 -0.0001537496 -0.00017956503 -8.910709e-05 0.00052577606 0.00036487382
-9.352097e-05 -0.00043064664 0.0005867587 0.00061264436 -0.00039549478 0.00035231945 2.3525705e-05 -0.021325266
0.022121318 -0.0039857263 -0.0039664158 -0.004352854 -0.0038499625 -0.0033812155 -0.0029662736 -0.002693028
-8.9012596e-05 1.7740223e-05 -1.593255e-05 -5.5861074e-05 -1.3765134e-05 -1.5375503e-05 -1.8631916e-05 -4.9598716e-06
-1.0543635e-05 -0.001228641 -0.0011108791 -0.00015575091 -0.00014976354 -0.00019308674 0.00010405821 -0.00013701081
0.000115397444 -1.8208651e-05 -0.033343334 0.029630728 -0.004748249 -0.0037978531 -0.0054756613 -0.005000563
-0.0043792087 -0.0037447596 -0.0032294067 -0.006186992 0.0048100073 1.8243507e-05 -0.0006743778 0.00041301217
-0.0006192539 -0.0005150984 -0.00041865202 -0.00017705733 -0.0052884636 0.0030290303 -0.0005820342 -0.0007121394

lstm_layer.lstm1.weight_hh_l0 f4 [400, 100]
00000000: 411a 8438 d3f9 36b8 179e beb8 f1a9 5238
00000010: 0d15 7cb7 8b77 6db8 b00d 61b8 65bc 36b8
00000020: 2e1a 41b8 0575 94b9 f5a4 5cb7 3367 aeb9
00000030: 71f0 90b7 c3cc 0538 c571 b9b7 6d91 4338
00000040: f9cb 0e37 f318 cc37 0305 1737 2468 0839
00000050: af04 1c37 2061 7cb9 c8a8 0e39 d8cb 88ba
00000060: b2c7 9634 7f5e f338 0355 7239 94af 6839
00000070: c19f 23b7 8fe2 35b8 5379 6b38 5fb2 9239
00000080: 8446 1e38 d29a e138 03aa 0a3a eb8b 3339
00000090: 7749 d737 d6ca 1ab8 6839 1fb9 340a 6137
000000a0: 770f 0dba 9550 9038 38be 1fba 6806 2c36
000000b0: 1bf9 98b9 90de fc39 91a0 6eb9 fdbd c637
000000c0: e686 7b38 be39 f0b8 65e9 12b8 1471 5437
000000d0: 003a 0eb7 d2de 4836 cceb 0b3a 5faa dab8
000000e0: 1e24 7936 7eed bf37 e93a fa38 bb7e 683a
000000f0: 29a9 ba37 44f3 96b7 7997 1db7 954e 7e38
00000100: 6804 0838 9463 ec39 7f67 cd38 70f6 fab8
00000110: eee9 13b8 34a9 9c39 efbe 12b9 3447 65b8
00000120: 503d 7ab7 7d32 0536 d1bb 1d39 7a92 42b9
00000130: e0de 77b7 6440 45b8 180d 9439 735a cd39
00000140: 90c9 4db9 776c e7b8 b5cf 2e37 0d93 0eb9
00000150: 3dab 38b9 b2c7 9e3a e7fa 0339 a715 a6b7
00000160: 176f ceb8 8380 2538 4951 5bb9 876b 543a
00000170: df72 8cb8 972a 4339 60b8 00b9 77e0 1639
00000180: 31ce 0eb8 e795 23b8 a252 4db8 8087 483a
00000190: 9890 00b9 ee5d a6b7 09bc 35b9 808b e236
000001a0: 552a a237 220b 97b5 0d96 50b8 de10 98b6
000001b0: 191b d3b8 57ec 2ab8 083e c4b7 e273 75b9
000001c0: 859e d6b7 8ad0 a2b8 28c8 ffb7 5da2 28b9
000001d0: 4db0 4137 95ff 9cb9 323c 14b8 e574 9138
000001e0: d506 9037 1faf 4fb8 4fbf 3b38 3a86 01ba
000001f0: 1acf ae37 ff3e 5a38 463b b439 32bc a038
00000200: c9ab a3b8 b6cd 2ab8 f5eb 8d37 43f2 8238
00000210: a483 1ab8 32e5 edb6 aaaf 8335 ca02 0638
00000220: 2a21 1938 120b 52b7 039e 14b8 ec7b c2b8
00000230: e726 b3b8 c9ae cf37 1e6a 43b6 5542 20b9
00000240: f387 17b9 6546 0339 2755 a0b8 d11c 6737
00000250: f165 7b37 de37 00b8 2a2a 96b6 05db 9bb5
00000260: dbb7 78b8 fa1e 5d39 77ee a539 8498 a1b8
00000270: 9773 8738 8d25 b636 fca7 9f38 6389 1737
00000280: 34d3 6437 1efb 89b7 8710 af36 3885 9bb8
00000290: 052d a9b8 2c43 2639 5aac 2b38 a161 2f3a
000002a0: 710f c2b7 9731 8e38 9ac7 5339 ff0b 8437
000002b0: 9a75 5836 23b7 f6b8 2708 4138 1087 82b7
000002c0: 5e8e c938 3213 bbb7 6f5d 8b36 15c3 c839
000002d0: 992a bcb7 95ca 8836 1710 8238 e479 4ab8
000002e0: 0c26 e7b8 994f 9f39 8af4 1939 25c7 10b8
000002f0: 3bb3 a0b8 5661 7a38 4871 cab8 a6dc 7439
00000300: 568e 2738 8824 1a38 c84d a5b8 25c3 9238
00000310: 9423 0438 3bc0 a7b7 651c 52b8 35f8 7739
00000320: 459f b437 3dda 3837 a61b 4138 50b7 c037
00000330: 51c8 6bb8 64cd f4b8 7d33 0bb8 f293 3038
00000340: dff5 0238 331b 0e39 707c 8fb7 8d07 8138
00000350: beaa 8a36 39e6 a338 9386 82b7 c65a 32b7
00000360: 55f7 93b5 2f5c 4239 2c32 1735 1742 8e38
00000370: 813a bc37 f6fd 0a38 f858 0e39 d8de 0cb8
00000380: 7e0b 1db6 1d5b 2ab8 87c6 3cb9 c10f b5b7
00000390: 4eb6 ed36 8236 8db7 734f c637 b8e8 6137
000003a0: 7a72 0239 028e a0b8 50ff 2bb9 9f28 7a38
000003b0: 3307 9537 e822 7437 95ab 8838 768f 5239
000003c0: ac69 ca38 a06f 6537 703d 3939 df80 b438
000003d0: d32a 4fb5 e2c3 1938 e42a 89b8 b593 a437
000003e0: 202a b938 102d a7b6 e150 2638 be69 c236
000003f0: cfd8 6ab8 14f1 84b9 675f 9ab9 0e8c 47b7
6.299141e-05 -4.362485e-05 -9.0893525e-05 5.0226172e-05 -1.5025272e-05 -5.6616536e-05 -5.3656928e-05 -4.3567637e-05
-4.6039168e-05 -0.00028315946 -1.3151429e-05 -0.00033264756 -1.7278102e-05 3.190037e-05 -2.2106697e-05 4.662706e-05
8.511351e-06 2.4330313e-05 9.001468e-06 0.00013008766 9.299415e-06 -0.00024068775 0.00013605051 -0.0010436727
2.8084975e-07 0.00011604744 0.00023110588 0.00022190652 -9.752753e-06 -4.3364762e-05 5.6141358e-05 0.00027980187
3.773581e-05 0.000107576736 0.0005289616 0.00017122894 2.5664207e-05 -3.6905367e-05 -0.00015184807 1.3413421e-05
-0.00053810276 6.881465e-05 -0.00060937135 2.5633726e-06 -0.00029177297 0.00048231008 -0.00022757264 2.369191e-05
5.9968697e-05 -0.00011454847 -3.5026478e-05 1.2662513e-05 -8.477364e-06 2.993202e-06 0.00053375657 -0.00010426784
3.7124914e-06 2.2879565e-05 0.00011931902 0.0008868982 2.22517e-05 -1.7994673e-05 -9.393197e-06 6.0631504e-05
3.242903e-05 0.0004508762 9.7944394e-05 -0.000119668315 -3.5265395e-05 0.00029880705 -0.00013994773 -5.4664168e-05
-1.4915437e-05 1.9847932e-06 0.00015042654 -0.00018555849 -1.4774239e-05 -4.702843e-05 0.00028238515 0.00039168037
-0.00019625411 -0.000110351415 1.0419569e-05 -0.00013596956 -0.00017611399 0.0012113957 0.00012586602 -1.9798825e-05
-9.8435376e-05 3.945875e-05 -0.00020915749 0.0008103181 -6.6971166e-05 0.00018612515 -0.00012275716 0.00014388734
-3.404747e-05 -3.9001836e-05 -4.8952767e-05 0.00076495856 -0.00012260897 -1.9832481e-05 -0.00017331554 6.751565e-06
1.9331617e-05 -1.1253617e-06 -4.973081e-05 -4.5319166e-06 -0.000100663114 -4.0751267e-05 -2.3393906e-05 -0.0002340819
-2.5584604e-05 -7.7636054e-05 -3.0491574e-05 -0.00016082214 1.1544745e-05 -0.00029945062 -3.534201e-05 6.935912e-05
1.716932e-05 -4.951574e-05 4.4762444e-05 -0.0004940961 2.0838856e-05 5.203392e-05 0.00034376438 7.664449e-05
-7.804443e-05 -4.072274e-05 1.6918386e-05 6.244008e-05 -3.683906e-05 -7.0898323e-06 9.811386e-07 3.1950687e-05
3.650893e-05 -1.2519553e-05 -3.543311e-05 -9.273723e-05 -8.542631e-05 2.4757714e-05 -2.9119033e-06 -0.000152835
-0.00014451127 0.00012519358 -7.6452554e-05 1.3775382e-05 1.4984501e-05 -3.056961e-05 -4.475257e-06 -1.1612143e-06
-5.9299036e-05 0.00021087742 0.00031648923 -7.7054865e-05 6.458832e-05 5.428394e-06 7.613e-05 9.032289e-06
1.3639034e-05 -1.6448608e-05 5.2173305e-06 -7.41579e-05 -8.0669335e-05 0.00015856017 4.0930092e-05 0.0006690268
-2.3133793e-05 6.7803245e-05 0.00020196885 1.5741212e-05 3.2254961e-06 -0.00011764306 4.602238e-05 -1.5560101e-05
9.610945e-05 -2.2301076e-05 4.1534e-06 0.0003829232 -2.2431183e-05 4.0766995e-06 6.20188e-05 -4.8274072e-05
-0.00011022025 0.00030386148 0.00014682315 -3.4517743e-05 -7.662779e-05 5.9695296e-05 -9.653211e-05 0.00023351851
3.9948463e-05 3.6750484e-05 -7.882301e-05 6.998171e-05 3.1504387e-05 -1.9997466e-05 -5.0094346e-05 0.0002364822
2.1531838e-05 1.1018067e-05 4.6040535e-05 2.2973545e-05 -5.6214925e-05 -0.00011673084 -3.3188135e-05 4.2099455e-05
3.12234e-05 0.00013552308 -1.7104874e-05 6.152606e-05 4.1325975e-06 7.815328e-05 -1.5559874e-05 -1.0630762e-05
-1.1024337e-06 0.00018535623 5.6324893e-07 6.783398e-05 2.243859e-05 3.3138283e-05 0.00013575319 -3.358614e-05
-2.3401512e-06 -4.0616014e-05 -0.00018003034 -2.1584217e-05 7.0843735e-06 -1.6833892e-05 2.3640436e-05 1.3465229e-05
0.00012440412 -7.6558455e-05 -0.00016402942 5.9642476e-05 1.7765537e-05 1.4551661e-05 6.516945e-05 0.00020080604
9.6517935e-05 1.3675453e-05 0.00017665862 8.607073e-05 -7.7175827e-07 3.6660473e-05 -6.540658e-05 1.9619105e-05
8.829334e-05 -4.982234e-06 3.965281e-05 5.7939606e-06 -5.5991866e-05 -0.0002535662 -0.0002944425 -1.1893933e-05

lstm_layer.lstm1.bias_ih_l0 f4 [400]
00000000: 5db1 b13b 2231 e7b9 a2ca 1a3c a3b4 8b38
00000010: 9ee7 3a39 7433 d53b 8664 2b3b 7150 e8b9
00000020: 1edf ec3b c07b d13b 257e dfb8 ee48 b63c
00000030: 3e3c f139 f589 223c 400c 6cba c437 9d3c
00000040: 012f fbba 4cd8 733c 68e2 933a c904 21bb
00000050: 3adf df3a 41c4 5c3b a083 ba3b d9f0 403d
00000060: e635 91b9 7dc7 0a3b f388 693d c11f 0e3c
00000070: bc88 133c 5fb4 353a cb1b a33a 8091 933c
00000080: 4e0c 953c 2dfc dcba 20aa 933c c9e7 e7ba
00000090: c2b0 e33a 3482 d138 6998 903b c882 d93c
000000a0: 5399 6c3c 09db 113c 8ec7 6c3c 1b70 073c
000000b0: b538 ba3c ef4e 793c 386b 493c 5da1 7a39
000000c0: 89d3 32ba da7b 74ba 9bac 9c3a 724c c1b8
000000d0: 11b9 9f3a 7cbf ea3c c4cf 593d edaf 503c
000000e0: 909f 4a3b f5f9 e2b9 2d89 103c b1c7 8f3d
000000f0: 9649 6f39 d593 1039 88d0 a63a adb2 fe3b
00000100: db6f 1e3c 5f14 523d b4df 753a 0295 853d
00000110: a0af a939 a2d4 973b 59d1 eb3c 5e19 76ba
00000120: 008a 0939 a1b5 433b 42e3 6f3b c912 563b
00000130: 55a3 a13b cfcf 2d3b 639c 9a3c ffb9 093d
00000140: 4bfd 033c 25a7 1b3a 4e07 f03a 2fdd 113b
00000150: 370e b73b 4277 323d 24b1 4e3c 3b21 4739
00000160: df8e 143c c6cd 6a3c 918f 613c b87b 533d
00000170: c2ec 30b9 16c6 bf3c 184c 023a 7c51 cab9
00000180: f567 2e3b 0db7 ba3a 0426 2e3c 4e19 be3c
00000190: 5ea9 ad3b 7bfd 0cbb 425e 1b3c ca38 98ba
000001a0: f536 86bb 0884 fe3a 415d 993b 4b48 f039
000001b0: b7a0 0a3c a904 d93b 86e9 a8b8 31a8 af3c
000001c0: 3f35 84ba 5833 003c 2afb 17ba ef13 b63c
000001d0: 685a fb39 8363 2d3c eacc e839 b947 68bb
000001e0: 8100 8439 c0d3 3f3b ba12 96ba 9cb0 4b3d
000001f0: 7dbb 2739 739d 043b fed2 593d 78a5 4a3b
00000200: 6f41 f23b efbc 7a3a b470 1b3a a17c 823c
00000210: 05b2 973c 8c6e a4ba de1c 8d3c 10a5 973b
00000220: 90cf bd3a a609 7f39 494a 873b 12ec da3c
00000230: 454c 493c 91d2 093c 5275 383c 8964 db3b
00000240: 0b08 dd3c 72cb 693c 900d 463c 6d95 243a
00000250: be96 46ba a232 113b 66ee 8fbb 28c1 5939
00000260: 5baf a33a 0f8d f13c c801 633d db2b e53b
00000270: edd7 8f3a ffba bcb9 e5c3 f43b 58e1 8b3d
00000280: ea6d fb39 a732 1e39 eb07 78ba 0867 7d3b
00000290: 616a 373c 05e1 633d 3b66 743a d484 943d
000002a0: c861 4e39 56d9 8c3b 39fa f23c e498 d63a
000002b0: b1df 7138 535a 383b 8ebe 5c3b f74e 4c3b
000002c0: 1b56 9a3b cd58 69bb 5f7c 9c3c 47da 0e3d
000002d0: 2ad5 a53a 36fa 0e3b 136c 5c3b 709d 343b
000002e0: 6132 a63b b8a0 893d aad0 523c ac4f a03a
000002f0: 684a 063c b357 293c 36af 603c 3f35 223d
00000300: bb18 a93a efc1 9c3c 1d99 3f3b 092a 803b
00000310: fca1 d93a dca0 9b3a 48ac 2a3b 4394 c73c
00000320: c510 52bc aabd 1f3c 3e47 64bc 2df2 163c
00000330: bfa4 fd3b d3a5 613c c37a 07bb f220 0cbc
00000340: 2974 6abc fb17 61bc b52f b2ba 3287 79bc
00000350: 787c 80bb 6134 55bc 3c5e 60bb 5eab 7fbc
00000360: 7dd0 d83b 1506 5fbc 5931 a6bb fe86 4e3c
00000370: 70c0 5a3a 5db2 3abc 2222 653c e4f2 98bc
00000380: 8f80 033b 7716 0f3c 6f61 9c3c d2b5 4c3c
00000390: b8f5 57bc adb3 35bb fb53 c93b b6ee 633c
000003a0: fd9e 84bc 9bbd e53b 8ac0 733c 31b5 4e3c
000003b0: 3709 9c3b ce49 823b db01 13bc 6b25 7cbc
000003c0: 69ff 62bc 8fea 5d3c 844c 69bc e5a9 54bc
000003d0: 7c19 79bc 9749 653c 5f30 38bc b80f bc3a
000003e0: fea7 c8bb 799e 08bc d2d1 283c 113d 9b3b
000003f0: cbb2 09bc 7407 8b3c 7d37 943c 8d93 44bc
0.0054227547 -0.0004409636 0.0094477255 6.661683e-05 0.00017824626 0.006506378 0.0026152446 -0.00044310422
0.007228746 0.006392926 -0.00010656965 0.022251572 0.00046011986 0.009920587 -0.0009004511 0.01919163
-0.0019163789 0.014883112 0.0011282684 -0.0024569503 0.0017080077 0.0033686312 0.0056919605 0.04710469
-0.00027696713 0.0021176033 0.05701537 0.008674563 0.009004768 0.00069314794 0.0012444196 0.018013716
0.018194344 -0.0016859822 0.018025458 -0.0017692979 0.0017371404 9.990149e-05 0.0044127 0.02655162
0.014440852 0.00890232 0.014451874 0.008266474 0.022732118 0.015216573 0.012293629 0.0002390197
-0.00068216823 -0.00093263166 0.0011953296 -9.217196e-05 0.0012185891 0.02865576 0.053176656 0.0127372565
0.003091786 -0.00043292312 0.008821768 0.0702051 0.00022820229 0.00013787982 0.0012726942 0.0077727647
0.009670223 0.05128896 0.00093793427 0.065225616 0.00032365043 0.004633502 0.028786348 -0.0009387935
0.00013116747 0.0029862898 0.0036603962 0.0032665005 0.004932801 0.0026521569 0.0188734 0.033624645
0.008055995 0.0005937687 0.0018312724 0.002225708 0.0055864113 0.043570764 0.012615476 0.00018990498
0.009067266 0.014331287 0.013767139 0.05163166 -0.00016872867 0.023409884 0.00049704453 -0.00038589153
0.0026612256 0.0014245227 0.010629181 0.023205426 0.005299731 -0.002151339 0.009482922 -0.0011613604
-0.004095907 0.001941801 0.004680306 0.0004583023 0.008461169 0.00662287 -8.0543614e-05 0.021442505
-0.0010086669 0.007824741 -0.0005797619 0.022226302 0.0004794181 0.0105828075 0.0004440316 -0.003544314
0.00025177377 0.00292705 -0.0011449673 0.049728975 0.00015996206 0.0020235449 0.053179733 0.003092138
0.007393054 0.00095648965 0.0005929575 0.015928568 0.018517504 -0.0012545153 0.017225679 0.0046278313
0.0014481414 0.0002432229 0.0041287285 0.026723895 0.0122862505 0.008412019 0.01125844 0.0066953343
0.026981374 0.014269697 0.0120881945 0.00062783697 -0.0007575563 0.0022155424 -0.004392433 0.00020766689
0.0012488173 0.029486207 0.05542162 0.0069937534 0.0010974385 -0.00035997477 0.0074696415 0.0683009
0.00047956343 0.00015086924 -0.0009461629 0.0038666148 0.011194796 0.055634517 0.0009323095 0.072518975
0.00019682117 0.0042983694 0.029660331 0.0016372469 5.7667206e-05 0.002813001 0.0033682915 0.0031174996
0.0047099716 -0.0035605908 0.019102274 0.034876134 0.0012652029 0.0021816618 0.0033633753 0.002755966
0.0050719236 0.06720108 0.012867132 0.0012230775 0.008196451 0.0103358505 0.013713649 0.03960156
0.0012901047 0.019135443 0.002923555 0.003911261 0.0016604061 0.0011873501 0.002604263 0.024362689
-0.012821381 0.009749809 -0.013933001 0.009213013 0.0077405865 0.013772446 -0.0020672537 -0.008552777
-0.014309921 -0.013738628 -0.001359454 -0.015229987 -0.003921088 -0.013012976 -0.0034235856 -0.015604822
0.0066166506 -0.01361229 -0.0050718007 0.012605427 0.00083447155 -0.011395064 0.013985189 -0.018670507
0.002006564 0.008733383 0.019089429 0.012494521 -0.0131811425 -0.0027725503 0.0061440445 0.013911894
-0.016189093 0.007011128 0.014877448 0.012616442 0.0047618407 0.0039760834 -0.00897261 -0.0153897805
-0.01385484 0.013544693 -0.014239434 -0.012979959 -0.01520383 0.013994596 -0.011242001 0.0014347946
-0.006123542 -0.008338564 0.010303931 0.0047375043 -0.008404444 0.016971327 0.018092865 -0.0119980695

lstm_layer.lstm1.bias_hh_l0 f4 [400]
00000000: 07e2 b63b b70f edba a259 173c cec6 d9ba
00000010: 37bd 9e3a 7a56 e33a 89a3 293c 8739 8539
00000020: e75f ef3b e7bd dc3b 0dea 2e36 54be a23c
00000030: 5f75 243a 95f5 3d3c f7a4 e939 bb12 ba3c
00000040: 8c4b a1ba 6a86 763c 001d 983a 25f2 65bb
00000050: 1517 8b39 d48a 583b 0a7d bb3b a2ea 3f3d
00000060: 2e6d 2f39 5abf 1938 2faf 5d3d 259d 4a3b
00000070: 6621 2e3c 0322 823a 0ed2 60b9 1728 8c3c
00000080: f059 983c 40c5 9e37 64f5 863c 7dbc af3b
00000090: caee e63a 44ad 1838 4024 9e3b cc88 bc3c
000000a0: dbba 6e3c 564b 653b 000b 543c a908 093c
000000b0: 2b28 d83c dd20 4d3c 1825 4f3c bdc6 6b39
000000c0: 0521 b3b9 77f9 263b 5197 063a fb15 f3b7
000000d0: 0732 48bb 6415 ee3c fbb6 3a3d c4ae 213c
000000e0: 2e4e b9bb aac3 b5b9 64a0 e53b d525 8a3d
000000f0: bf0d 6439 2581 0ab9 f4d4 8c3a 50ae 083c
00000100: e3ae 333c 3825 223d f5d0 803a dc35 343d
00000110: fc5a bc38 8809 8d3b 820a ee3c bf7c cd38
00000120: 4dc5 8e39 8405 aa3b 936e 143b 9b95 5f3b
00000130: 56ca a93b 7d84 273b 8011 9d3c f0b7 093d
00000140: 7d54 f03a 34a0 823a ce69 623b 9c64 0f3b
00000150: e5d0 043c b065 703d 4fb6 403c ab2f b43a
00000160: e230 063c 1dea 6e3c a082 313c 3a50 743d
00000170: bdd3 adb9 8dad d63c 6b48 5638 eeef 28bb
00000180: b3d6 2e3b a3c3 a23a 535d 8e3b 5d60 c13c
00000190: 686a 09bb 6662 0a3b 1893 143c 37e4 abba
000001a0: b182 8ebb 7ce2 753b 6e06 253c 4c00 0cba
000001b0: 7d66 033c 3257 0f3c 4cd6 b3b9 942c b03c
000001c0: d5e2 1c3a a7b9 433c 8e88 9f39 3922 be3c
000001d0: f466 b43a b462 623c eaf1 973a e320 8fbb
000001e0: 2eab 4e39 03de 793a c56a b23b 9717 2d3d
000001f0: f4f9 dc38 4e2c 023b 011b 713d 26db 233c
00000200: 2e51 1e3c 9444 5b3a b723 2c3a 45e9 973c
00000210: da53 903c 20ed 023a 1314 9d3c 3edf 9f3b
00000220: 9c40 ea3a ca56 1139 151f 423b 8e27 dd3c
00000230: c468 5a3c ae15 033c 9f43 3f3c 7b32 403b
00000240: 2df1 e33c 6fd5 5f3c 1d28 483c de7a 7339
00000250: 6390 09ba a828 f83a 414e 8ab9 3556 7bb9
00000260: 0962 c9ba b5be cf3c 4912 283d b8eb ef3b
00000270: 96ab 063b b62a 40ba 1498 b73b 26db a33d
00000280: 1b6a 98b9 905e cab8 7e69 2a3a 1402 053c
00000290: 6b9f b03b 8251 633d 74e9 cc3a b27a 883d
000002a0: 528a e738 b4d7 4f3b c4c9 cc3c 48d9 b13a
000002b0: a1d9 4d39 bc3a 183b 8647 0c3b b9f8 583b
000002c0: 18b8 573b 738a 213a 3807 b23c 58a3 f53c
000002d0: dbaf 113b 4257 1d3a ccdc 5b3b 2d80 a43b
000002e0: 0538 013c 579c 893d b868 3d3c c902 a43a
000002f0: aeff fc3b fb6b 643c 1e72 a03c 9885 313d
00000300: 908a 6f3b 358e 9b3c 8e5b 383b a8b1 5ebb
00000310: 43ab 333b 539c 203b 1c9d 8d3b 495a b33c
00000320: a9b1 55bc a896 303c c230 76bc e682 243c
00000330: 48ec f83b ce73 5f3c ca2f 06bb 06ec 01bc
00000340: 19cf 4abc 560e 68bc 4158 e8ba bb95 84bc
00000350: 04fe 93bb 2c2e 69bc a06d 87bb 53a4 79bc
00000360: 8ecc d73b 0a93 60bc cf71 a3bb ac90 503c
00000370: 69f0 953a c9ef 26bc 6711 5a3c b6e9 98bc
00000380: 67c8 193b bc9d f43b ec09 a13c 750e 4d3c
00000390: ea17 4bbc 543e 12bb 2512 cf3b 8290 7c3c
000003a0: baa1 7abc f04f c63b 13eb 6c3c 2218 503c
000003b0: 96a0 9c3b 46b3 723b 3a57 fdbb ad09 6cbc
000003c0: 10d4 61bc d2cd 5c3c da87 6bbc 4a91 51bc
000003d0: a3e9 71bc c5b0 5d3c fa3e 57bc 030c 123b
000003e0: 5c6a adbb 772e e0bb 6dfd 323c 4b67 893b
000003f0: 95d7 0bbc 3f71 8a3c c360 8f3c d893 20bc
0.005581144 -0.0018086348 0.009237679 -0.0016615035 0.0012110834 0.0017344498 0.010353931 0.00025410598
0.0073051336 0.0067365053 2.6064256e-06 0.019866146 0.0006273593 0.011594196 0.00044564132 0.02271401
-0.001230584 0.015046695 0.0011605322 -0.0035086956 0.00026529343 0.0033041732 0.005721693 0.046854623
0.00016729973 3.6656253e-05 0.054122146 0.003091642 0.01062808 0.0009928349 -0.00021440556 0.01710896
0.018597573 1.892692e-05 0.016474433 0.0053630457 0.0017618772 3.640099e-05 0.0048260987 0.023014449
0.014570917 0.003498753 0.012942076 0.008363881 0.026386341 0.012520042 0.012643121 0.00022485382
-0.00034166142 0.0025478282 0.0005134242 -2.8978093e-05 -0.0030547397 0.029062934 0.04558466 0.0098683275
-0.0056550717 -0.0003466879 0.0070076454 0.06745497 0.00021748895 -0.00013208816 0.0010744617 0.008342341
0.010966989 0.039586276 0.0009827899 0.043996677 8.981486e-05 0.0043041147 0.029057745 9.7983975e-05
0.0002723135 0.005188646 0.0022648915 0.0034116271 0.005181591 0.0025561147 0.019173384 0.033622682
0.0018335726 0.0009965957 0.0034547928 0.0021880036 0.008106445 0.058690727 0.011762216 0.0013747116
0.0081903655 0.014582184 0.010834366 0.059646823 -0.0003315489 0.026205802 5.108902e-05 -0.0025777775
0.0026678264 0.0012417923 0.004344621 0.02360552 -0.0020967964 0.002111578 0.009068273 -0.0013114278
-0.0043490757 0.0037519028 0.010072334 -0.00053406204 0.008020041 0.008748816 -0.00034301204 0.021505632
0.00059847283 0.011946118 0.00030428584 0.023209678 0.0013763593 0.013817478 0.0011592482 -0.004367934
0.0001970946 0.00095316785 0.005444857 0.042258825 0.00010536975 0.0019862833 0.058863644 0.0100009795
0.009662909 0.0008364406 0.0006566601 0.018543849 0.017618109 0.0004994441 0.019174611 0.0048789075
0.0017872038 0.00013860609 0.0029620577 0.0269964 0.013330642 0.008000774 0.011673837 0.0029326964
0.027824963 0.013661726 0.012216595 0.00023220057 -0.00052476506 0.0018933015 -0.00026379715 -0.0002396934
-0.00153643 0.02535949 0.041033063 0.007321801 0.002054905 -0.0007330583 0.005602846 0.080007836
-0.00029070754 -9.649724e-05 0.0006500705 0.008118171 0.005390098 0.055497654 0.0015633539 0.06664027
0.000110407025 0.0031714262 0.024998553 0.0013568783 0.00019631397 0.0023228368 0.0021404936 0.0033107235
0.0032916125 0.0006162293 0.021731958 0.029985115 0.0022230062 0.0006002077 0.0033548353 0.0050201626
0.007886891 0.067192726 0.011560611 0.0012513037 0.007720909 0.01394176 0.019585665 0.043340296
0.0036551096 0.018988708 0.0028130743 -0.0033980403 0.0027415312 0.002450724 0.0043217074 0.021893637
-0.013042846 0.010778107 -0.015026273 0.010040974 0.0075965263 0.01363845 -0.0020475262 -0.0079298075
-0.0123784775 -0.014163574 -0.0017726497 -0.016184678 -0.004516365 -0.0142322 -0.0041329414 -0.015236932
0.006585664 -0.013706932 -0.0049879323 0.012729805 0.0011439446 -0.010189005 0.013309813 -0.01866613
0.0023465396 0.0074650925 0.019658051 0.012515654 -0.012395838 -0.0022314982 0.0063193017 0.015415313
-0.015297348 0.0060520098 0.014460343 0.012701066 0.0047798855 0.0037033125 -0.0077313455 -0.014406604
-0.01378347 0.013476806 -0.014375651 -0.012790987 -0.014765176 0.013530915 -0.013137573 0.0022284992
-0.00529222 -0.0068414765 0.010924679 0.0041932217 -0.0085352855 0.016899703 0.017502194 -0.009800874

gbrbm.W f4 [100, 200]
00000000: 6bc9 a2bb a8aa 9d3b 4eb4 12ba 3e0e a53b
00000010: 589e 573b adda e63b 9d3c 6a3b 6171 b43a
00000020: a248 ed3b e777 2f3b 3eec 8cba 7b73 2d3b
00000030: 9fcf 91ba c04f 8fbb 7933 e93a 8746 16ba
00000040: c3ce 55bb b10f 413b 79ae 05bb ed54 f5ba
00000050: 9ae7 01bb 4dd4 d0bb ee71 f6ba fad3 a43b
00000060: 8ed3 49bb 2db1 373b 128b 58ba 152c 41bb
00000070: a293 023b 99a7 323b 50e7 9eba d401 4dbb
00000080: 40db 5bbb 2855 95bb 4458 be39 d32e 63bb
00000090: 0f10 00bb b110 3c3b 861a 24ba 2f12 bdb8
000000a0: 395f 6abb 2fe4 353a f33a 0a3b 0e9c 68b9
000000b0: 73eb 513b 5cc2 9b3b ce51 1f3b 49f6 1b3b
000000c0: 764a 3e39 a998 8c3b a990 d53a 24d0 acbb
000000d0: 7090 8a3a 5a6e dcba 0c71 2c3a a059 feba
000000e0: 969c f4ba de68 993a bf67 8cba 7dc9 d93b
000000f0: 5d25 61ba 3b6d 833b 6d16 79bb 629d 973b
00000100: 6402 8dbb 4740 96bb 904b 70b8 b323 993b
00000110: db3f 653a e009 243b b99c 8cba 7c93 8cbb
00000120: d6b9 dc3b 4b47 62ba 23e9 e0bb 48f3 23bb
00000130: 3aa1 133b 5a9c 82bb a9eb 20ba 1e09 7e3b
00000140: cbc7 aabb 16b5 403b 479a 9bbb 7faa 923b
00000150: 660b dbbb 9062 a3bb b9ce 9a39 de33 f83a
00000160: f5c4 82bb 6b87 fc3a 525d 353b cc05 d0bb
00000170: b3fe 9d3b d79f 8d3b acbf 3abb 03f7 abba
00000180: d890 d3b9 5fdd 4f3b 3ccc 54bb ded1 be3a
00000190: 7820 253b 06b2 7d3b f9fb 2d3a 704f dc39
000001a0: a112 46bb bfab bfbb be9e 5e3b 4379 643b
000001b0: c69a 5abb 9ef0 c7ba 097c c3bb b7d6 513b
000001c0: 1f56 76bb 2899 7cbb 34e8 b93b cd53 b73a
000001d0: d021 a3bb 4410 ce39 179f ffba ea9f 66ba
000001e0: edb2 6b3b c50e 483b 6381 093b 8a0a 3dbb
000001f0: aad1 18bb ac32 3eb9 9b16 f6ba 574f 9e3a
00000200: 5512 3bbb 30a1 703b 2458 fd3a 1f51 a93b
00000210: 0730 6a3b 9355 893b 9438 43bb 0d66 46bb
00000220: 758a 9b3b 2109 7aba 6331 05b9 b555 823b
00000230: 4b99 c0bb 90d6 70bb d664 683b 01a1 bd39
00000240: becf b3ba 0b51 333b 0ac8 1b3b b13e 833b
00000250: 06a8 153a cd70 133b 2f93 c139 f3d0 023b
00000260: ce78 d03a 04ee 543b 2e9e 5a3a 1d84 f4b9
00000270: b84a 68b9 56d2 cdbb f075 a0bb 6779 88ba
00000280: 676f 333a 733f ffba 44b9 86ba 35d8 af3a
00000290: b33b 9d3a 948f bbba 335f 303b 0a2c 6f3b
000002a0: 08d0 283b 68e8 a33a bcc7 6bba 87bf 9fba
000002b0: b251 c8bb b008 0f37 4dbf 0bbb 11fc 913b
000002c0: 7c3a 113b 85f6 2dbb 3f38 973b 65cf 2bb9
000002d0: 5a95 b43b a67f 2f39 dd48 f4ba b0e3 97ba
000002e0: 42ca b2ba 92c0 82ba 7c3a 21bb 7477 60bb
000002f0: bebc 86b9 01ea 98ba f547 a039 b3f0 eeba
00000300: 859f 4dbb a95c 8c39 c077 823a 2339 d53b
00000310: 77cf f1ba 286e 813b 0678 05bb 9e0e 2cbb
00000320: 9fd4 913b a131 a1ba 48a4 14b8 e266 c2ba
00000330: 4423 a63a 8eed 8438 533d bdbb e3c8 a8bb
00000340: f37e 93bb 1877 853b 7ee2 4a3a 371b 75b8
00000350: 6e06 003b 86d8 883b dacf abbb 7cab 66bb
00000360: 04cf 1cbb 47d4 123b 14c2 0c3a b357 78ba
00000370: 946e 543b 9651 67bb 988a 443a abe4 9a3a
00000380: 1c82 983a 56b1 213a 56c8 4a39 716f ca3b
00000390: 6627 f6bb e588 8abb 63cc deba fb7b 133a
000003a0: 5b69 9bb9 0984 df3a ebae bbbb 0c49 073a
000003b0: 4705 3bba c614 e53a a341 ed3b c4f9 853b
000003c0: 01a0 21bb 7c3c 373a 8bc3 a2ba f658 81bb
000003d0: ce88 3bbb 13b3 483b be01 3bba 4415 acba
000003e0: ffdc 433a 58be 693b 5ecf e13a 94ca 5d3b
000003f0: e3be 453b 3435 edb9 c7b9 eab8 1aee 7cbb
-0.0049678585 0.0048116036 -0.00055963255 0.005037098 0.0032900777 0.007045111 0.0035741695 0.00137667
0.0072413245 0.0026774348 -0.0010751558 0.0026466537 -0.0011124498 -0.0043735206 0.0017791829 -0.00057325553
-0.003262446 0.0029458816 -0.0020398183 -0.0018717326 -0.0019821883 -0.0063729645 -0.0018802264 0.0050301524
-0.0030796262 0.002802919 -0.0008260469 -0.0029475738 0.0019924422 0.002726054 -0.001212338 -0.0031281607
-0.0033547431 -0.0045572706 0.00036305387 -0.003466536 -0.0019540822 0.0028696472 -0.0006260056 -9.015609e-05
-0.0035762324 0.0006938604 0.0021092265 -0.00022183379 0.0032031208 0.004753394 0.0024310234 0.002379792
0.00018147551 0.0042906594 0.0016293722 -0.0052738357 0.001057161 -0.0016817555 0.00065781246 -0.0019405372
-0.0018662389 0.0011704226 -0.0010712071 0.0066463337 -0.00085886364 0.004010824 -0.0038007752 0.004626916
-0.0043032635 -0.004585299 -5.7290832e-05 0.004673445 0.0008745172 0.00250303 -0.0010727859 -0.0042900424
0.0067360206 -0.00086318393 -0.0068637296 -0.0025016833 0.0022526518 -0.0039859237 -0.0006138632 0.0038762758
-0.0052118055 0.002940481 -0.004748616 0.004475891 -0.0066847084 -0.004986115 0.0002952719 0.0018936356
-0.0039907643 0.0019266432 0.0027674031 -0.0063483473 0.0048216223 0.004322033 -0.0028495593 -0.001311988
-0.00040352973 0.003171764 -0.0032470366 0.0014558395 0.0025196355 0.0038710847 0.0006636973 0.00042020855
-0.0030223506 -0.005849331 0.003396913 0.0034862317 -0.0033356412 -0.0015254205 -0.005965714 0.003201885
-0.0037587953 -0.0038543437 0.0056734327 0.0013986767 -0.004978396 0.000393035 -0.0019502369 -0.0008797633
0.0035964802 0.0030526381 0.0020981662 -0.0028845393 -0.002331833 -0.00018138689 -0.0018775048 0.0012078088
-0.0028544862 0.003671717 0.0019328636 0.005167141 0.0035734193 0.0041911094 -0.0029788362 -0.003027323
0.00474673 -0.00095381035 -0.00012702266 0.003977502 -0.005877649 -0.0036748983 0.0035460494 0.00036168846
-0.0013718528 0.0027361538 0.0023770356 0.004005276 0.00057089364 0.0022497654 0.0003692149 0.001996097
0.0015905143 0.0032490501 0.00083396106 -0.0004663774 -0.00022153079 -0.0062811775 -0.0048968717 -0.0010412157
0.00068449083 -0.0019473865 -0.0010278602 0.0013415875 0.0011995941 -0.0014309757 0.0026912212 0.0036494755
0.0025758762 0.0012505176 -0.00089943013 -0.0012187817 -0.0061132545 8.525487e-06 -0.002132374 0.0044550975
0.0022160104 -0.0026544642 0.0046148594 -0.00016385091 0.005510968 0.00016736853 -0.0018637438 -0.0011588242
-0.00136406 -0.0009975603 -0.002460151 -0.0034250887 -0.00025699096 -0.0011666418 0.0003057119 -0.0018229693
-0.0031375599 0.00026771918 0.0009953901 0.0065070554 -0.001844867 0.003949899 -0.002036573 -0.002625383
0.0044503952 -0.0012298116 -3.543895e-05 -0.0014831687 0.0012675305 6.3384985e-05 -0.0057751327 -0.0051509007
-0.0045012175 0.004073035 0.00077394384 -5.8437898e-05 0.0019535082 0.004176202 -0.0052432837 -0.0035197427
-0.0023927102 0.002240436 0.0005369496 -0.00094735174 0.0032414543 -0.0035296432 0.0007497459 0.0011817416
0.0011635455 0.0006168088 0.00019338852 0.0061778356 -0.007512021 -0.004227745 -0.0016998168 0.00056260795
-0.000296424 0.0017052899 -0.005727639 0.0005160726 -0.000713427 0.0017477504 0.0072404905 0.0040886123
-0.002466202 0.0006989909 -0.0012417895 -0.0039473725 -0.0028615477 0.0030624315 -0.00071337435 -0.0013128896
0.00074715907 0.0035666432 0.0017227938 0.003384267 0.0030173592 -0.00045243802 -0.00011192593 -0.0038594068

gbrbm.b f4 [200]
00000000: 1287 08be 6c11 a1bd d1c9 98bd d6d9 e1bd
00000010: bd1f 6cbe ac9a c7bd 6c89 34be 9331 40bd
00000020: 0a2e 05be 7114 3ebd 5f57 c6bd 017d 08be
00000030: ba95 ddbd 28e1 37be 4a6e 33be e4a1 18be
00000040: b2b5 e13c 454d 05be 396a 1dbe c4f1 dcbd
00000050: 83d1 e7bc e35f b6bd 2379 91bc 78aa 01be
00000060: 114f dfbd 781b acbd e974 fbbd a1b7 49be
00000070: c1c2 94bd 22d7 f4bd f14c bfbd b07c 02be
00000080: ed50 bfba d706 62be ca75 12be ce51 80bd
00000090: f44a 92be c60a 9cbd f9c8 25bd f022 eebd
000000a0: 2b7c 77bd f2d1 2dbd 0a38 9bbd bf1f 11bd
000000b0: ad45 cfbd b769 60be b788 aabd 8d27 cbbc
000000c0: 64d3 b53b 79cf f5bd b014 61be 58ca 7dbd
000000d0: 5f59 1bbe 9292 96bd 4cb0 70bd d22c aebd
000000e0: 9c19 86bd 85eb a2bd 0504 2fbe 720c 06be
000000f0: a966 8dbd b9ce d2bd ceb7 03be 28e8 04bd
00000100: 5cd8 2abe 3360 ffbd 6602 14be fc1d 2dbe
00000110: c9a9 0abd 6929 c6bd 53b5 ddbd 1b9f 45be
00000120: 7826 d5bd 1130 38be 6f62 53bd 09ed 8abd
00000130: c49c 87bd 040c 0ebe f805 c5bd 57a2 cfbd
00000140: dcda e5bd 4482 00bd 63ce f7bd 388b e5bc
00000150: 7777 34bd c575 55bd 037a 6dbd 6034 273d
00000160: 12f1 8ebd 17b8 3bbd 86f7 a3bd aade 89bd
00000170: 2bad 26be 6ac5 e7bd 5484 ddbd d27c 37be
00000180: 260c 2fbe 1f5b 43be 95c2 42be 4f47 8bbe
00000190: fabc 77bd b141 bf3c a152 84bd 4a93 5bbd
000001a0: 90b5 683c e85a b2bd 5b34 febd 30ba 5dbd
000001b0: 006a 8dbd 9f16 043b 385a fb3d 2380 28be
000001c0: 6931 02be 463b edbd 9418 35be cc39 18be
000001d0: eb67 37be dc2b 07be 1203 dbbd 56fb f5bd
000001e0: 15f1 9ebd 933e 4ebe 1b8f 4bbd 5404 26be
000001f0: 33c6 e3bd e239 68be 542d d1bd 035c 1fbe
00000200: eec3 e0bd 64ec 2cbd 37d8 21be 8e69 75bd
00000210: 7719 32be c166 13be a757 2ebe a4a8 e0bd
00000220: ecbb 05be 9146 fbbd ee13 ccbd c4ef 06be
00000230: 255a 34be 0ce6 02be b05d 9ebd a9e0 9abd
00000240: 80de 00be 977f 44bd ea44 a2bd 7365 f6bd
00000250: f297 e6bd f833 68bd a154 5cbd c47c 4f3b
00000260: 4e37 fcbd 0c3f b7bd 5189 10be 4f33 aa3c
00000270: 0437 93bb f5bb 98bd 9ffe 8cbd db0f f9bc
00000280: 4d58 d5bd 95a5 23bd f033 853c 584a 29bd
00000290: a2fa f5bd 533e f9bd 4553 46be 3f62 a6bd
000002a0: 6d56 85bc d6ec cebd de10 d8bd d5e8 f2bd
000002b0: e495 0dbe 97ae f6bd 46d1 20bd 0494 08be
000002c0: 143e f23b 2787 18be abb9 07be a7e7 9cbc
000002d0: 7570 e0bc b5c7 90bd ef49 37be c9c6 a5bd
000002e0: cf93 3dbe 5825 11be ff86 e5bd a300 0ebe
000002f0: 3e55 a3bc 4f11 9ebd 8357 ddbc f9f5 03be
00000300: cac3 12be 2c11 c8bd 0818 92bd ff20 efbd
00000310: 1d5c d8bd 08e2 a3bd 28ff 54be 2947 afbd
-0.13332775 -0.07864651 -0.074603684 -0.11027877 -0.23058982 -0.09746298 -0.17630547 -0.046922278
-0.13005844 -0.046406213 -0.096846335 -0.13328935 -0.10819574 -0.17956984 -0.1752254 -0.14905506
0.02755246 -0.13017757 -0.15372552 -0.10788301 -0.028298145 -0.08905008 -0.017757958 -0.12662685
-0.109037526 -0.08403677 -0.12278158 -0.19698955 -0.07263709 -0.11955096 -0.09340847 -0.12742877
-0.0014596261 -0.22072922 -0.14302745 -0.06265603 -0.2857281 -0.07619242 -0.040474866 -0.116277575
-0.06042115 -0.042436548 -0.07579048 -0.035430666 -0.101207115 -0.21915327 -0.083268575 -0.024799133
0.0055488814 -0.12002463 -0.21980548 -0.06196055 -0.15170811 -0.07352175 -0.05876188 -0.085046425
-0.06547853 -0.07955078 -0.17091377 -0.13090685 -0.069043465 -0.102933355 -0.12863085 -0.032447964
-0.16684097 -0.124695204 -0.1445404 -0.1690597 -0.033853326 -0.09675867 -0.108256005 -0.19298975
-0.10407728 -0.17987086 -0.051607545 -0.06783492 -0.066216975 -0.13871771 -0.09620279 -0.10138386
-0.11223385 -0.03137423 -0.12099912 -0.028020486 -0.044059243 -0.052114267 -0.057977688 0.040821433
-0.06979574 -0.04582986 -0.08006196 -0.06731923 -0.16276996 -0.113169506 -0.10816255 -0.17918709
-0.17094478 -0.19077729 -0.1901954 -0.27202842 -0.060482956 0.023346754 -0.06461073 -0.053607263
0.014203444 -0.08708745 -0.1241233 -0.05413264 -0.069049835 0.0020155085 0.12273067 -0.1645513
-0.12714161 -0.11583571 -0.17685157 -0.14865798 -0.17910735 -0.13200325 -0.10693945 -0.12010829
-0.077608265 -0.20141058 -0.049697023 -0.16212589 -0.11121788 -0.2267833 -0.10213724 -0.15562443
-0.109748706 -0.042217627 -0.15805136 -0.059915118 -0.17392527 -0.14394666 -0.17025624 -0.10969666
-0.13059968 -0.12269319 -0.09964739 -0.13177401 -0.17612512 -0.12783068 -0.07732713 -0.07562382
-0.12584877 -0.04797324 -0.079233006 -0.12031069 -0.1125945 -0.056690186 -0.053791646 0.003166006
-0.12315236 -0.08947572 -0.14114882 0.020776419 -0.0044926424 -0.07457725 -0.068845026 -0.030403068
-0.10417233 -0.039952833 0.016260117 -0.041330665 -0.12010695 -0.121700905 -0.19367702 -0.08124208
-0.016276563 -0.101037666 -0.10550092 -0.118608154 -0.1382671 -0.12045019 -0.03926208 -0.13337713
0.007392654 -0.14895307 -0.1325442 -0.01915343 -0.027397374 -0.07069341 -0.17899297 -0.08094556
-0.18513416 -0.14174402 -0.11207389 -0.1386743 -0.019938108 -0.07718145 -0.027019268 -0.128868
-0.143325 -0.097689 -0.0713349 -0.116762154 -0.10564444 -0.080020964 -0.2080046 -0.085584946

gbrbm.mu f4 [100]
00000000: 6eea 15ba ea81 cd3a 004e e7b9 3736 19bc
00000010: 79bf 023b f1ea fe3b a588 fb3a 74e3 24bb
00000020: be04 37bc 729a 95bb 99e7 763a f502 ef3a
00000030: c325 4dbb e92e 92bb ae29 273c b780 26ba
00000040: e851 e138 0d2e 1cbb 5056 1c3b 4f07 b839
00000050: bf6d a3bb 5e49 85bb e2a8 f23b ab9f e3b9
00000060: fad1 a73a ee4d b13b 5828 c63b df5d 3bbb
00000070: 2c87 06bb bdab f6ba d650 7dbb 8b41 d43a
00000080: aa13 9ebb 4039 1b3b b4b0 0e3c df35 b73b
00000090: 9370 4bba 1cd6 4c3b 06fb 31bc e49f 78bb
000000a0: 9539 5f3a 20d0 9d3b bdcd 02bc a056 853b
000000b0: 7f16 01bb a4a1 a3ba 355c 87bb 904f c9b8
000000c0: 78e7 e0ba 5e31 2abb b81a 813b 0f88 09bb
000000d0: 32e4 bb3a 23da 363b a7ed d73b 4b7b af3b
000000e0: 5acc 0f3c 1136 e0bb fd3a a73b 20a6 49b9
000000f0: ad66 8f3a 6f5d 253b c927 3b3b 561c 83bc
00000100: c5ae c7bb d946 b83b e468 d03b 0d23 fbba
00000110: 4934 10bb 11df 863b 25d8 0e3c fac3 2abc
00000120: c458 f037 643d 7ebb 9780 8b3a b5f6 a1bb
00000130: 2afc 023c b58b a63a 7ec9 31bb bd86 233c
00000140: 1cd7 1039 2e4a e1bb 4c81 a63a b0c4 f5bb
00000150: 9492 45bb f804 783b c968 a7b9 3fd1 c6ba
00000160: 9688 b4bb 1c78 9a3b fbac b2bb 3a8a f83a
00000170: 8d45 ac3b c01e 023c 7c89 77bb 083f b93a
00000180: 0890 0dbb 774f a23b 19d2 17ba 8659 c63b
-0.00057188317 0.0015678976 -0.00044117868 -0.009351305 0.0019950552 0.007779472 0.0019190504 -0.0025159987
-0.011170564 -0.0045655305 0.0009418666 0.0018235134 -0.0031303025 -0.0044611585 0.010202808 -0.00063515775
0.00010744092 -0.002383116 0.0023855157 0.0003510066 -0.004987448 -0.004067584 0.0074053863 -0.00043415776
0.0012803667 0.0054109013 0.00604729 -0.0028589887 -0.0020527346 -0.0018819493 -0.0038652918 0.001619385
-0.0048241215 0.0023685247 0.0087091215 0.0055911387 -0.00077606103 0.0031255549 -0.010863071 -0.00379371
0.00085153553 0.00481607 -0.007983622 0.0040691644 -0.0019697247 -0.0012484086 -0.004130865 -9.5992466e-05
-0.0017158827 -0.0025969367 0.0039399527 -0.0020985638 0.0014334975 0.0027901016 0.0065896097 0.005355274
0.008776749 -0.0068423827 0.0051034675 -0.0001923074 0.0010940634 0.0025232693 0.002855765 -0.016004723
-0.006093832 0.00562368 0.00636016 -0.0019160226 -0.002200382 0.004115947 0.008718525 -0.010422701
2.8651564e-05 -0.0038793916 0.0010643181 -0.00494274 0.007994691 0.0012706431 -0.0027128155 0.009980855
0.00013813045 -0.006875298 0.0012703328 -0.0075002536 -0.0030147182 0.0037844758 -0.00031930793 -0.0015168561
-0.0055094464 0.004714025 -0.00545275 0.0018962093 0.0052573145 0.007941902 -0.0037771156 0.0014133165
-0.0021600742 0.0049533206 -0.00057915 0.0060531525

gbrbm.log_var f4 [100]
00000000: ce87 6ec0 7541 6ec0 8c47 6cc0 6193 6dc0
00000010: 2181 6cc0 e5b8 6dc0 9911 6ec0 37c9 6dc0
00000020: 621a 6dc0 12b6 6cc0 1561 6ec0 0fc6 6bc0
00000030: bf75 6dc0 3fe7 6dc0 e5d1 6cc0 65f5 6cc0
00000040: 1993 6dc0 f663 6dc0 e0da 6bc0 6110 6dc0
00000050: 5940 6dc0 6da6 6cc0 b20b 6dc0 e7e8 6bc0
00000060: e1f3 6dc0 482f 6dc0 ad4a 6cc0 6b6e 6dc0
00000070: 4d34 6dc0 be3b 6dc0 874b 6dc0 4d52 6dc0
00000080: 19a2 6cc0 1a90 6ec0 0bb8 6dc0 8aa1 6cc0
00000090: a2c7 6cc0 0330 6dc0 4727 6dc0 b63e 6cc0
000000a0: 83af 6dc0 771a 6dc0 a8ed 6dc0 142e 6dc0
000000b0: 3154 6dc0 5c1a 6cc0 ff34 6ec0 e7e4 6dc0
000000c0: cd28 6ec0 0beb 6cc0 eb13 6ec0 43fc 6dc0
000000d0: 7bea 6dc0 418e 6bc0 766d 6ac0 5b3f 6dc0
000000e0: bbcc 6cc0 a258 6dc0 3510 6dc0 f3f0 69c0
000000f0: 9a06 6dc0 67c3 6dc0 db10 6dc0 078a 6ec0
00000100: d975 6cc0 2b31 6cc0 11c2 6cc0 b7fc 6bc0
00000110: 13e4 6cc0 b996 6cc0 ff77 6cc0 6932 6ec0
00000120: b245 6dc0 e210 6dc0 773b 6dc0 4562 6dc0
00000130: 03d6 6cc0 9a1e 6cc0 f235 6dc0 1255 6cc0
00000140: c730 6cc0 f46e 6dc0 2854 6cc0 e87f 6dc0
00000150: b3cc 6cc0 d018 6bc0 e14f 6dc0 5ee6 6cc0
00000160: 7d54 6ec0 106e 6dc0 d7fd 6cc0 7dc3 6ac0
00000170: 56f5 6cc0 7f49 6cc0 d008 6cc0 3aa6 6dc0
00000180: 6f89 6dc0 3dbd 6dc0 c833 6dc0 7df0 6bc0
-3.7270389 -3.7227452 -3.6918669 -3.7121203 -3.6953814 -3.71441 -3.719824 -3.7154062
-3.7047353 -3.6986127 -3.7246754 -3.6839635 -3.7103117 -3.7172391 -3.700311 -3.7024777
-3.7121031 -3.7092261 -3.685234 -3.7041247 -3.7070525 -3.6976578 -3.7038388 -3.6860902
-3.7180102 -3.7060108 -3.6920578 -3.7098644 -3.7063172 -3.7067714 -3.7077348 -3.7081482
-3.6973937 -3.7275453 -3.714358 -3.6973596 -3.6996846 -3.7060554 -3.7055223 -3.6913276
-3.7138374 -3.7047403 -3.7176304 -3.7059374 -3.7082636 -3.6891088 -3.7219846 -3.717096
-3.7212403 -3.701846 -3.7199657 -3.7185218 -3.7174366 -3.6805575 -3.662931 -3.706992
-3.6999958 -3.7085347 -3.7041142 -3.6553314 -3.703528 -3.7150514 -3.7041538 -3.7271745
-3.6946929 -3.690501 -3.6993449 -3.6872995 -3.7014205 -3.6966994 -3.694824 -3.7218268
-3.7073789 -3.7041554 -3.7067544 -3.709123 -3.7005622 -3.6893678 -3.7064176 -3.6926923
-3.6904771 -3.709897 -3.6926365 -3.7109318 -3.6999938 -3.6733894 -3.7080004 -3.7015605
-3.7239068 -3.7098427 -3.7029932 -3.6681817 -3.702474 -3.6919858 -3.6880379 -3.7132707
-3.7115133 -3.7146752 -3.7062855 -3.6865532

gbrbm.linear_layer.weight f4 [1, 200]
00000000: 2fa9 a23d d3bc 303d 65ac 88bd 8343 1ebe
00000010: 11fe 0b3e 06a2 dabc 6937 873d f88c 01be
00000020: bba2 3d3c 8d4d d43d 2c97 93bd ab4b 683c
00000030: 50fa bb3d 2a5c 453d f2ce 7cbd 5878 353d
00000040: 3cfe 04be 7010 923d 2251 13bc d893 98bc
00000050: 4e38 103c 256e aa3c 1b45 553d 6e9e aebc
00000060: 3e1e 973d c9c2 82bb c848 143e 4c2f 0ebc
00000070: 2b5a e0bd 7252 853c f738 163d e350 ccbd
00000080: 127a d0bd ee47 1c3e b123 05bd 39d3 b1bd
00000090: 9550 bc3d 1a1a 0cbe 5576 ba3b 686b ddbd
000000a0: f8f3 b03c de95 13bc 14b4 8fbd 4f45 bc3b
000000b0: 2cec 47bd 1a88 103e f7f2 953c 713a ab3b
000000c0: a477 c4bd c0c2 c83b b4f5 e73c 4510 edba
000000d0: 6b90 b43c 7063 433d 320d f5bd a0bf e43c
000000e0: 97a7 063e ea87 813d f2e5 183e d1a4 8fbd
000000f0: b8dd 4d3d 4348 8c3d ee91 0a3e 8566 073d
00000100: 38f1 08bc 79f1 04bd f02d 63bd f7d3 64bb
00000110: 74a9 01bd 0725 46be 12ff 993c 85b7 ce3d
00000120: ecf9 cb3c 24d9 2fbd c81f c7bc 6525 603d
00000130: 5980 bb3c a3d0 e4bc 9c54 9dbd 7da7 b5bd
00000140: 1b76 813d a06e bcbc b15f 78bd 79c0 8cbd
00000150: ea66 3e3c 8145 1d3e 509d 23bd 2cfa debd
00000160: 8e60 a7bb 01dc 6e3c 9bff b63b f51d 93bd
00000170: 6d5b 813d 0809 3b3d 7011 60bd b56e d03c
00000180: 85ca 9b3d 7638 583d fbd8 e7bd 41d9 84bd
00000190: c88c b4bd 1841 843d 544d afbc d9b5 673d
000001a0: adbd 20bb b727 dc3d cb4f 1e3d 8232 8ebd
000001b0: 18d7 9cbd f891 dfbd 7f62 a5bc b836 f4bc
000001c0: ae8d 503c 9476 d63d b979 493c b82f 5abb
000001d0: 0a02 033e 0f35 6f3c 78c7 063d c27b 84bc
000001e0: 549f 683b 6343 0b3d f2fc 2dbe 4ffb da3b
000001f0: fd7b 03bb 88ce b3bd 2e85 113d 3500 c63d
00000200: d6c0 e6bd 2490 9abd 395c 24bc c4df ad3d
00000210: c970 1ebd 06a0 bd3d 7ff3 f23b 1e0b 433d
00000220: b6f0 e1bb 2cd4 5bbd 9397 0d3c a2ba 0abe
00000230: dfff 353e b06f 6e3b 287f aabd 52ba 313c
00000240: 32f6 463d a8a2 c7bd f1d3 f1bd 5939 80bd
00000250: afe4 05bc cd97 0cbd 5edb e63b 4eb4 413d
00000260: 770e a5bb c07a 8d3d 57a0 863d e18f 5e3d
00000270: 5ed5 2ebd 4ede cabd c118 d03c 4916 8dbc
00000280: 1fcd 8bbd bace a5bb 857f 97bd 52a9 e73d
00000290: 03ed 1dbb e85d 1bbb be37 c23d 48ef 75bd
000002a0: 77cf 34bd c51c f73d bee2 c43d db97 9b3b
000002b0: 8b02 58bd a0aa 313e 2588 c43c 7374 3dbc
000002c0: 4b1b be3d 16bc 593d 005c abbd 8a64 713d
000002d0: 4666 69bd 0df8 483c eb03 d9bb 12f1 a13d
000002e0: 01ef b43d 4cb4 043d a966 05bc dc99 823d
000002f0: 85a1 35bd e1c1 c3bd 535d f5bc 6c14 7ebb
00000300: 47d2 03bd a01d a13d 10fc 76bd 31f8 74bb
00000310: 476a f33c 3ef5 b73c 00f3 2d3d 48e4 3abb
0.079424255 0.043148827 -0.06673507 -0.15455441 0.13671137 -0.026688587 0.066023655 -0.12651432
0.0115744425 0.10366354 -0.07206568 0.014178197 0.09178603 0.048183598 -0.061720796 0.044304222
-0.12987608 0.071320415 -0.008991512 -0.018625185 0.008802487 0.020804474 0.052067857 -0.02131578
0.07378815 -0.0039905054 0.14480889 -0.008678269 -0.10954698 0.016274665 0.03667542 -0.099763654
-0.10179533 0.15261814 -0.03250474 -0.08682866 0.09195057 -0.13681832 0.005690376 -0.10811502
0.021600708 -0.009007899 -0.07016769 0.005745567 -0.048809215 0.14114419 0.018304331 0.0052254726
-0.09593132 0.0061267316 0.028315403 -0.0018086514 0.02204152 0.047702253 -0.119654074 0.027923405
0.13149868 0.06324752 0.14931467 -0.07013858 0.050260276 0.0684972 0.1353223 0.033056755
-0.008358292 -0.03245685 -0.05546373 -0.003491638 -0.031655744 -0.19350062 0.018798385 0.10093597
0.024899445 -0.04293169 -0.024307147 0.054723162 0.02288835 -0.027931517 -0.076821536 -0.088698365
0.06321355 -0.023001969 -0.060638133 -0.06872649 0.011621216 0.15358545 -0.039944947 -0.1088756
-0.0051079458 0.01457882 0.0055846698 -0.07183448 0.06316266 0.04566291 -0.05470413 0.025443414
0.07606987 0.05278822 -0.113206826 -0.064867504 -0.088159144 0.06457728 -0.021399178 0.056569908
-0.0024527118 0.107497625 0.038650315 -0.06943227 -0.076582134 -0.10916513 -0.020188568 -0.029811248
0.012729092 0.10471836 0.012297087 -0.0033292603 0.12793747 0.0146000525 0.032905072 -0.016172294
0.0035495358 0.03399981 -0.16991022 0.0066827904 -0.0020062916 -0.08779627 0.0355274 0.09668008
-0.11267249 -0.07547024 -0.010031753 0.084899455 -0.03868178 0.09259038 0.007414281 0.047618024
-0.00689515 -0.05366914 0.008642095 -0.13547757 0.17773388 0.003638249 -0.083250344 0.010847645
0.048574634 -0.09747821 -0.11808003 -0.06260938 -0.008172198 -0.034324456 0.0070451936 0.047291093
-0.0050371247 0.06908178 0.06573551 0.054336432 -0.04268395 -0.099056825 0.025402429 -0.01722254
-0.06826233 -0.005060044 -0.07397369 0.11311592 -0.0024097569 -0.0023707096 0.09483288 -0.06004265
-0.044143166 0.12066034 0.0961356 0.004748327 -0.0527368 0.17350245 0.0239907 -0.011563408
0.092825495 0.05315789 -0.08367157 0.058933772 -0.0569823 0.012266171 -0.0066227815 0.07907309
0.08834649 0.032398507 -0.008142152 0.063770026 -0.04434349 -0.09558464 -0.029951727 -0.0038769497
-0.032182958 0.07866979 -0.06029898 -0.003737938 0.029713763 0.022455808 0.04246807 -0.0028517414
