final_project/gru_gbrbm_H_per_2 (drop 0.1*0.2)/type2/gru_gbrbm_W15_H100_B32.pt (torch, 218650 bytes, 9 tensors)

lstm_layer.lstm1.weight_ih_l0 f4 [300, 9]
00000000: ae9f 07ba 71af 5b3a a2b8 9538 7d38 2e38
00000010: a3d9 9bb8 e0d6 ebb8 a9fa 43b7 18cf b638
00000020: e95d 8f38 bd07 46b8 54e3 9c37 76ad c137
00000030: eef5 d337 a794 6936 cd55 c337 574a 8db7
00000040: 25b0 a037 ea1f 6f37 7aeb 2738 83a8 1339
00000050: 284a 1137 0baf 3b38 d087 e3b6 71b0 e836
00000060: 310b ea36 7fda f536 4c8e a534 cc31 9d38
00000070: c3b1 273a a43d 4836 bacd 6638 95a7 4438
00000080: 6ddd 7a37 89a6 d435 cb2c e836 6a09 89b7
00000090: 0876 a1b8 cd5f b638 ce13 ff35 318e 8336
000000a0: ee6c 7db5 6ed5 c4b4 3075 9735 f27f abb7
000000b0: 89bf 3ab6 77fa d7b7 03ad 3038 00be c235
000000c0: bd06 d235 f630 4e35 d730 d335 8b4b 1d37
000000d0: 2e5b d935 79e0 2fb4 3613 95b9 cbec 7c39
000000e0: 4d17 96b8 b784 9138 b6c8 ebb7 ab0a 6ab8
000000f0: 42c4 59b8 533b c337 010e e4b8 14dd 89b7
00000100: e313 80b8 87b1 c435 63fd 27b7 8aa6 83b6
00000110: 2b6a 68b6 17b5 a538 cccc 6338 95b6 9038
00000120: 47f5 06b9 4b1d ae39 dd1a 9c38 b06f 9338
00000130: ace0 4138 1ee7 7b38 ec76 0838 b618 e538
00000140: 3834 8938 510d 3ab9 1300 3639 a5a3 9a37
00000150: 8b5c 9e37 1256 e6b8 f2e7 d436 3df8 04b6
00000160: e40c 1e38 bdee 54b8 d1fe fdb9 7830 a23a
00000170: 61be 7a38 3e65 313a 4095 9738 cad3 2439
00000180: 661a 5e39 8ffe 5739 5119 a838 01d4 3037
00000190: 456d 0bb7 0a4b 3836 9274 a7b6 9133 5936
000001a0: 7709 df35 fd4c ca36 8acd 9636 d26a 3037
000001b0: 9ef6 3aba e477 8c3a d77f e238 6a96 6c39
000001c0: b9e2 17b9 e435 e838 67fe 39b8 4609 2639
000001d0: 663f 9538 b249 09b8 fe94 ef37 eaed 1cb8
000001e0: 8de5 0838 0255 8a37 b890 eb37 3f9d bb37
000001f0: 9ee3 8f37 2609 cf37 306c 2037 76d9 bdb6
00000200: f4e7 49b7 170b 4f37 b7fc 69b7 752a e6b6
00000210: 67aa 97b7 15fd 98b7 63ea e2b6 8e15 13b9
00000220: 676d 0438 e83f 2837 1a98 b937 6287 9136
00000230: 9d02 ee36 9415 2737 6a14 4b37 eca9 3936
00000240: 6814 8ab9 079e c139 de06 00b8 1c54 bd37
00000250: 77ef 9bb8 e2a2 34b8 11cd 07b8 f2dd c5b7
00000260: 38f1 4bb7 4c25 adb8 a520 f237 abf0 0138
00000270: c615 a638 d36d d0b3 5f7a 6438 7ca9 7438
00000280: 8fc1 3f38 87ed 27b7 94f6 edb7 473f 2239
00000290: 7c69 3638 92a0 5238 d765 5838 1cf3 3938
000002a0: 8f91 5838 e393 5738 92ea c737 73fb 50b9
000002b0: d62d 8239 7a45 e836 d00d 5b38 6673 1936
000002c0: 9092 1a36 2210 8fb4 36a6 2c37 b4fe 10b8
000002d0: e516 2ab7 f289 48b6 6ce9 6fb6 899f 2437
000002e0: f2da 3bb6 2758 a7b6 108e 07b6 d1b1 deb6
000002f0: 5ca8 fab5 baf6 9bb9 160f 8a39 79da 8636
00000300: 9e0f d338 55b2 aa38 50f2 cf36 e444 b038
00000310: e392 cc38 b9dc 5438 dca6 18b9 cb9f 9c39
00000320: 9aaa 28b7 0bee 19b9 2fc7 03b9 ea80 08b8
00000330: 47da 5e35 63c9 3936 23ec afb8 3e3f f8b7
00000340: c5c6 19b6 99ac dc37 d524 8db6 50bc e8b5
00000350: dbde 3bb6 9919 aeb6 1e9d 2ab6 eda3 87b3
00000360: 13e5 96b9 6b7b a739 6014 9138 ef3e 64b8
00000370: 7d57 3b38 438c 5f38 040e 9338 32a5 b0b7
00000380: 3469 0438 0611 9eb8 3a75 8938 e156 6a37
00000390: cb07 c137 976c 85b8 ea84 82b8 4c02 bbb7
000003a0: b4b0 b337 27d2 3237 d407 b0b7 6d97 3e37
000003b0: d47a 03b5 afdd dcb6 6fa8 04b6 59be aeb5
000003c0: 19df f4b3 f944 f635 06b7 42b7 1d4b 32b8
000003d0: 32b1 8d38 7ce6 5537 0b49 8937 bbdf 3f36
000003e0: c074 0b37 f315 ce37 274a 3738 e5f4 e736
000003f0: 98e4 49b9 8b1a 6839 392b c637 c59a ff37
-0.00051736354 0.000838033 7.139264e-05 4.153744e-05 -7.431514e-05 -0.00011245697 -1.1681267e-05 8.7170105e-05
6.8362635e-05 -4.7214085e-05 1.8702507e-05 2.3088167e-05 2.526768e-05 3.4806233e-06 2.3285766e-05 -1.6843127e-05
1.915551e-05 1.4252941e-05 4.0035207e-05 0.00014081788 8.659939e-06 4.4747296e-05 -6.780938e-06 6.9346793e-06
6.9750463e-06 7.3270053e-06 3.083718e-07 7.495619e-05 0.0006397033 2.9838202e-06 5.502787e-05 4.6886114e-05
1.4952716e-05 1.5843699e-06 6.9193534e-06 -1.6336056e-05 -7.699063e-05 8.6962806e-05 1.9004744e-06 3.9206575e-06
-9.440836e-07 -3.6663135e-07 1.1284483e-06 -2.0444368e-05 -2.7827648e-06 -2.5746629e-05 4.21228e-05 1.4509424e-06
1.564818e-06 7.681223e-07 1.5734939e-06 9.375518e-06 1.6194297e-06 -1.6379808e-07 -0.00028433808 0.00024120805
-7.1568975e-05 6.938859e-05 -2.8107646e-05 -5.5799883e-05 -5.191961e-05 2.3273436e-05 -0.00010874496 -1.643462e-05
-6.10722e-05 1.4654805e-06 -1.0012972e-05 -3.923492e-06 -3.4632492e-06 7.901544e-05 5.431175e-05 6.9004636e-05
-0.00012870609 0.0003320969 7.443663e-05 7.03031e-05 4.6224028e-05 6.0058308e-05 3.253568e-05 0.00010924174
6.5423956e-05 -0.00017743303 0.000173569 1.8434434e-05 1.8878161e-05 -0.000109832865 6.3450943e-06 -1.9814026e-06
3.768214e-05 -5.076708e-05 -0.00048445773 0.0012374064 5.978195e-05 0.00067671004 7.228041e-05 0.00015719156
0.00021181404 0.00020598828 8.01558e-05 1.05397785e-05 -8.310487e-06 2.7461815e-06 -4.9905584e-06 3.2365535e-06
1.6617549e-06 6.0290317e-06 4.4942763e-06 1.05152885e-05 -0.0007132086 0.0010716883 0.00010800332 0.00022562747
-0.00014484943 0.0001107266 -4.4344368e-05 0.00015834448 7.1166825e-05 -3.273198e-05 2.85604e-05 -3.7414873e-05
3.2638713e-05 1.6490467e-05 2.8081573e-05 2.236536e-05 1.7152921e-05 2.4680583e-05 9.5619325e-06 -5.6579547e-06
-1.2034539e-05 1.23407435e-05 -1.3946722e-05 -6.859477e-06 -1.8079952e-05 -1.8237663e-05 -6.762611e-06 -0.00014027042
3.157314e-05 1.002846e-05 2.2124546e-05 4.3370974e-06 7.093257e-06 9.959e-06 1.2104496e-05 2.7666056e-06
-0.00026336615 0.00036929568 -3.0523974e-05 2.2569722e-05 -7.43558e-05 -4.306704e-05 -3.237749e-05 -2.3587581e-05
-1.2155906e-05 -8.25623e-05 2.886385e-05 3.0980136e-05 7.9195524e-05 -9.705732e-08 5.4473403e-05 5.8331978e-05
4.5718214e-05 -1.0009279e-05 -2.8367424e-05 0.00015473097 4.349042e-05 5.0217444e-05 5.159326e-05 4.433385e-05
5.1633975e-05 5.1397725e-05 2.3831879e-05 -0.00019930098 0.00024829683 6.922227e-06 5.2226533e-05 2.2865947e-06
2.3033099e-06 -2.6647564e-07 1.0290698e-05 -3.4569486e-05 -1.013812e-05 -2.9882617e-06 -3.5749645e-06 9.812306e-06
-2.7992614e-06 -4.98725e-06 -2.019926e-06 -6.636816e-06 -1.867545e-06 -0.0002974773 0.0002633265 4.0189448e-06
0.00010064173 8.1394486e-05 6.1972896e-06 8.405166e-05 9.754838e-05 5.0750303e-05 -0.0001455801 0.00029873694
-1.0053302e-05 -0.00014679895 -0.00012567335 -3.2544987e-05 8.301908e-07 2.768437e-06 -8.388634e-05 -2.9593353e-05
-2.2914476e-06 2.6306416e-05 -4.2064153e-06 -1.7340153e-06 -2.799489e-06 -5.188584e-06 -2.5423428e-06 -6.316245e-08
-0.00028780903 0.00031944676 6.917934e-05 -5.4418048e-05 4.4665754e-05 5.3297972e-05 7.012117e-05 -2.105776e-05
3.156923e-05 -7.537198e-05 6.554504e-05 1.3967715e-05 2.3011022e-05 -6.362161e-05 -6.22364e-05 -2.2293207e-05
2.1420747e-05 1.0658557e-05 -2.098448e-05 1.1360139e-05 -4.898004e-07 -6.5823183e-06 -1.9767574e-06 -1.3019409e-06
-1.14027166e-07 1.8348502e-06 -1.1605915e-05 -4.250846e-05 6.756409e-05 1.2749453e-05 1.6365686e-05 2.8591446e-06
8.312229e-06 2.4567335e-05 4.369966e-05 6.912846e-06 -0.00019254012 0.00022135132 2.3623566e-05 3.0470439e-05

lstm_layer.lstm1.weight_hh_l0 f4 [300, 100]
00000000: 7687 e2b8 8128 5537 a357 1537 83cd 0637
00000010: 8240 0bb5 8341 50b6 18e7 a4b8 82e3 0db6
00000020: 32f7 1738 dcef 2d38 4215 acb6 e20f 4fb8
00000030: 7cc0 9438 f3da 1f37 d967 91b7 286d 8fb8
00000040: 8990 8036 0571 6b37 ff27 d137 4c52 eab6
00000050: 0ff3 5b37 022e bab6 0462 3336 3ba2 c035
00000060: 8361 42b8 1380 3c38 377b e1b5 ef4e 4b38
00000070: d087 40b8 8740 9c36 924a 5cb7 479d 7538
00000080: 5c5f 69b7 8437 19b7 58ff 6238 08e5 aeb6
00000090: 049e eb37 aad3 d333 6e17 4336 1d27 10b8
000000a0: deea 9db7 a558 92b8 adad 9db7 e1ad e835
000000b0: e9b2 de36 99b4 fc36 7442 e8b5 44d2 d6b7
000000c0: 0b23 13b6 655c 2136 8871 5e38 34b5 31b7
000000d0: 0e28 44b8 1fe2 4ab8 7a28 06b7 fbb1 4c37
000000e0: c04b f8b5 cc1f 6c37 9604 8337 9e89 f5b4
000000f0: 9bdb 67b7 de01 62b8 cfc7 a9b7 22e1 e635
00000100: 2d20 07b5 d8b6 b936 5706 77b8 7d48 0ab7
00000110: 49dc 3c37 886d 0ab7 e497 31b8 69c3 0238
00000120: 78e3 0f38 4f8a 22b5 b837 5936 d57e 8037
00000130: 0616 49b6 762e 4b37 ed44 f536 f6ea d4b7
00000140: 3725 2d37 f25e 0e38 a3cf 5d36 ed07 bcb6
00000150: 728c afb7 f81b 7236 c2e9 6f37 d67b 8f38
00000160: 63c2 8838 2f94 a8b8 65a3 89b7 1208 da36
00000170: 9796 6a37 fb03 bb37 a1ff 2b36 72a0 cdb6
00000180: c989 a836 181b bdb7 485d afb7 d4b7 87b8
00000190: f5a9 6834 69e1 04b6 2ef5 9336 44a5 b9b4
000001a0: 1e3b a9b5 5fc7 ac35 878a 8ab7 f49b 9db5
000001b0: 0ccd 3b36 778d af35 2814 26b7 6890 1d36
000001c0: 5f6a 6137 fd34 0cb5 ba09 1ab6 05f6 a8b7
000001d0: f2f1 c3b3 6c6f 7b37 4a0e 8436 f24f 01b5
000001e0: 3ae2 a935 9785 c337 e572 cab4 89e9 1ab6
000001f0: 6fe4 86b7 a539 8437 3742 f8b4 b653 5a37
00000200: 21a5 edb6 74b1 6034 250b a4b5 6851 acb5
00000210: 7141 7eb6 bd63 18b6 d18c 5e37 2b8d 7f35
00000220: 3212 9236 82e8 3db5 1cc9 0bb6 f35d ab35
00000230: 07a3 9cb7 24c3 ac36 e492 9fb5 7b14 da34
00000240: b602 2b36 58be a633 c883 c1b5 5698 8435
00000250: 0214 85b4 150c 0136 0379 8a37 d08e 07b7
00000260: 4667 bc34 de67 c9b6 82f5 01b5 6757 08b6
00000270: 1dfc ebb4 f6ab 3cb6 70f7 da36 acfa 2e34
00000280: d827 4fb7 0422 7fb5 8f7a a9b6 0b9b d2b7
00000290: 2983 9eb5 a5ff 6d36 8c4b 90b7 61d9 bfb5
000002a0: bf17 c4b4 9d2a 7cb6 a04f 78b7 cfd3 8237
000002b0: 46da f236 c61f 07b7 adc8 4c37 f290 0236
000002c0: 38f0 cc36 ad78 b6b6 ee4a ab36 0d9c 3eb6
000002d0: 1e90 0836 3df4 6bb6 de86 adb4 acfe 3cb4
000002e0: 8bbb 5eb7 0ad8 08b7 d2ab 9935 5fba 3d37
000002f0: f90e 91b7 8913 98b6 f332 eab5 65aa b1b4
00000300: 9e39 4736 56b0 ca34 8ff3 a7b4 3316 c637
00000310: 039e 8435 e00f d4b6 91f7 e8b5 d481 a0b7
00000320: e1ec a7b7 e7b1 e936 76ba 7f34 d627 08b7
00000330: e161 d033 653d 13b6 b85f 65b7 bfe3 e235
00000340: 5557 2737 a598 2a37 e5dd 9237 31ed 21b6
00000350: db94 9437 880d d036 e867 f7b6 5ce9 4cb6
00000360: e80c 5f36 5ec4 4f37 eff8 f436 4dd2 0eb6
00000370: 913e 8936 a76a 6f37 6fcf 3536 9226 a935
00000380: 6899 8437 8670 0937 12bd e135 bbbb f436
00000390: b97b 34b7 ae13 04b5 4b91 93b5 a57f 9537
000003a0: 8ea0 83b6 30bb 3ab7 bfd2 e036 766d 8cb5
000003b0: 170e 6535 ffb5 4935 32d7 55b6 e045 2036
000003c0: a9c9 3eb6 7179 5db6 6599 b236 7036 67b4
000003d0: 1d96 b536 63f1 f235 f563 08b7 5be4 bcb6
000003e0: 8904 3b32 234f 35b6 01b6 8d36 bcfc 48b6
000003f0: f2ad 8fb6 757d 9eb6 2728 d634 4fe7 a3b5
-0.00010801751 1.270522e-05 8.901497e-06 8.034872e-06 -5.1875406e-07 -3.1032548e-06 -7.863174e-05 -2.1143064e-06
3.6231424e-05 4.14698e-05 -5.128474e-06 -4.9367438e-05 7.093043e-05 9.528117e-06 -1.7333705e-05 -6.839103e-05
3.8315234e-06 1.4033406e-05 2.4933366e-05 -6.983324e-06 1.3110009e-05 -5.548588e-06 2.6730131e-06 1.435233e-06
-4.634402e-05 4.494197e-05 -1.6799667e-06 4.8472484e-05 -4.5902852e-05 4.6566743e-06 -1.3130384e-05 5.8559028e-05
-1.3910085e-05 -9.132436e-06 5.4120406e-05 -5.212267e-06 2.8087765e-05 9.8639546e-08 2.9070902e-06 -3.4368702e-05
-1.8825227e-05 -6.978334e-05 -1.8796733e-05 1.7335952e-06 6.6369435e-06 7.5312096e-06 -1.7304687e-06 -2.56087e-05
-2.1925105e-06 2.404465e-06 5.303466e-05 -1.0592212e-05 -4.6767345e-05 -4.8371145e-05 -7.996447e-06 1.2200787e-05
-1.8499486e-06 1.4074099e-05 1.5618552e-05 -4.5734936e-07 -1.3819804e-05 -5.3884338e-05 -2.0239413e-05 1.7201858e-06
-5.033824e-07 5.5347155e-06 -5.8895293e-05 -8.2423185e-06 1.1256962e-05 -8.250943e-06 -4.2341548e-05 3.1176405e-05
3.4305704e-05 -6.055097e-07 3.2367952e-06 1.531785e-05 -2.9964153e-06 1.211056e-05 7.309593e-06 -2.5381782e-05
1.0320268e-05 3.3943863e-05 3.3052427e-06 -5.6037593e-06 -2.0927026e-05 3.607709e-06 1.4299936e-05 6.8418376e-05
6.521193e-05 -8.0384656e-05 -1.640776e-05 6.497846e-06 1.3982549e-05 2.229399e-05 2.5629781e-06 -6.1281544e-06
5.0228305e-06 -2.2543172e-05 -2.0905063e-05 -6.471542e-05 2.1668514e-07 -1.9800739e-06 4.409484e-06 -3.4579182e-07
-1.2608687e-06 1.2873023e-06 -1.6515389e-05 -1.17428e-06 2.7984524e-06 1.3079688e-06 -9.899064e-06 2.3478879e-06
1.34358115e-05 -5.223117e-07 -2.295345e-06 -2.0141722e-05 -9.124405e-08 1.4986708e-05 3.93557e-06 -4.817258e-07
1.2657322e-06 2.3308019e-05 -3.770903e-07 -2.3083724e-06 -1.6080417e-05 1.5762469e-05 -4.6241777e-07 1.3013303e-05
-7.082374e-06 2.0926183e-07 -1.2222196e-06 -1.2838691e-06 -3.7887041e-06 -2.270782e-06 1.32650175e-05 9.520033e-07
4.3532573e-06 -7.074633e-07 -2.0829675e-06 1.2767836e-06 -1.8672565e-05 5.148717e-06 -1.1889174e-06 4.0620566e-07
2.5482564e-06 7.764601e-08 -1.4417974e-06 9.879102e-07 -2.4787738e-07 1.922953e-06 1.6507232e-05 -8.079878e-06
3.509287e-07 -6.0023585e-06 -4.8413506e-07 -2.0316454e-06 -4.3955598e-07 -2.8114277e-06 6.525712e-06 1.6296207e-07
-1.2347438e-05 -9.50444e-07 -5.05086e-06 -2.5106148e-05 -1.181009e-06 3.5464557e-06 -1.7201317e-05 -1.4293875e-06
-3.6525122e-07 -3.757573e-06 -1.4800491e-05 1.5595839e-05 7.2375724e-06 -8.054025e-06 1.2206071e-05 1.9455879e-06
6.107639e-06 -5.438071e-06 5.10492e-06 -2.840304e-06 2.0349466e-06 -3.5159894e-06 -3.232189e-07 -1.7601513e-07
-1.3275897e-05 -8.156532e-06 1.1449395e-06 1.1308671e-05 -1.729232e-05 -4.532227e-06 -1.7449187e-06 -3.3092797e-07
2.9686848e-06 3.7753733e-07 -3.1283386e-07 2.3613777e-05 9.880754e-07 -6.3199404e-06 -1.7357398e-06 -1.9133942e-05
-2.0018257e-05 6.9646517e-06 2.381656e-07 -8.115507e-06 9.703559e-08 -2.1940443e-06 -1.367175e-05 1.6904595e-06
9.974309e-06 1.016833e-05 1.7507884e-05 -2.4128933e-06 1.7712291e-05 6.2004583e-06 -7.37327e-06 -3.0534202e-06
3.3237102e-06 1.2383882e-05 7.3007463e-06 -2.128206e-06 4.090202e-06 1.4270342e-05 2.7091844e-06 1.2602707e-06
1.5807062e-05 8.192035e-06 1.6818833e-06 7.2936214e-06 -1.07576425e-05 -4.920247e-07 -1.0994639e-06 1.7821623e-05
-3.9227953e-06 -1.1130047e-05 6.7002543e-06 -1.046267e-06 8.532965e-07 7.5143174e-07 -3.1864734e-06 2.388253e-06
-2.8429588e-06 -3.3002254e-06 5.322671e-06 -2.1533356e-07 5.411696e-06 1.8100658e-06 -8.129505e-06 -5.6294207e-06
1.0885864e-08 -2.7017165e-06 4.2233155e-06 -2.9949433e-06 -4.281982e-06 -4.723372e-06 3.988982e-07 -1.2211766e-06

lstm_layer.lstm1.bias_ih_l0 f4 [300]
00000000: df36 983a 7d60 3239 6d6b c538 6d30 70b9
00000010: bfd2 1c38 8c55 80b8 8bda ec39 75d8 0639
00000020: 9bcb de39 e516 8039 b9fd af3a d02c 2235
00000030: 510e 393a d002 ae38 4be1 17b6 3e7f 0338
00000040: 79b1 953a a0b7 9539 5858 2439 eef1 ba39
00000050: 3385 4ab7 26b5 0f3a e565 2839 03f2 b3b6
00000060: fb6e 003a 1748 1539 5034 1f38 02e6 ca39
00000070: edb7 8e39 01ba 0d38 4d3f 4239 b32e 593a
00000080: 0158 a238 b59b 5339 15a0 8e38 569f 6639
00000090: 1ecd 16b7 db9d 4c39 1ce8 15b8 ca89 2139
000000a0: 67ec 5839 bcdf 843a 7ec3 b138 43b1 1037
000000b0: 699b 9638 2ad4 ec37 1448 0d39 a374 fcb7
000000c0: abc3 5339 b020 7438 ed08 ba38 3131 8e38
000000d0: d6d8 3438 b959 2e38 4ea0 3339 ad9a 0638
000000e0: e0bc 61b6 7025 b536 de09 2b36 9c7b f833
000000f0: 714a 9638 494a 173a 92fd ec39 1d86 233a
00000100: 716c b638 9eee 4638 e2bc ff39 b824 183a
00000110: b381 d939 77f2 3eb8 7226 c639 1c61 9939
00000120: 6e72 ec38 f090 4e3a c185 ee39 4509 923a
00000130: 7aeb 8538 751e d239 bdb6 fe37 6383 6039
00000140: 11af 8138 3976 f137 42da ca38 10c8 3439
00000150: 9aba 1337 d31e a73a c6d7 83b6 c4be c13a
00000160: 6d46 123a 069f e13a e9c8 4238 21af 9e38
00000170: 678a 0f38 114f 7b39 bc9b 6236 5d85 3b3a
00000180: 3639 1938 381c d638 5118 0f39 9825 793a
00000190: 1e4f 9cb7 bcca 8cb7 1333 9fb7 367a 5c38
000001a0: 1e89 efb6 68e3 40b6 ef50 ddb8 a466 ae38
000001b0: d277 7db8 bbdb d1b7 b10a 2fb8 87d2 2d36
000001c0: fa62 b1b8 49a3 e236 26d4 dab6 5b72 58b5
000001d0: c801 69b6 edac 46b8 b98e b8b8 959b a037
000001e0: 3bbd 4337 df9b 9237 623e 80b6 655c 2036
000001f0: 458e 35b8 85a5 e7b5 63a5 3b37 72da 15b7
00000200: 37db 0fb6 5147 0538 465e 1537 400a 9eb8
00000210: e73f afb5 58d3 38b6 c073 09b8 205d 08b6
00000220: 8811 9437 b925 7a37 1d73 3237 fba7 01b7
00000230: d8da 7637 84a9 a3b7 a0df 3ab5 c537 b9b6
00000240: c201 2837 f08f 7f35 e766 0436 0154 a2b7
00000250: 4731 8336 92a7 4db6 f6e6 fd35 808d 5bb5
00000260: 490d 7bb6 b886 2137 6f34 2337 f8c9 d535
00000270: abd6 0ab5 cd48 5334 bb70 04b7 f6e3 9ab7
00000280: 27dd 8035 c6b2 4ab7 c9e3 8736 a86e 19b8
00000290: 3d08 8d36 b737 35b7 841b eab7 f84f 3fb7
000002a0: af7f bdb6 f372 1137 7b87 85b7 34cf 42b8
000002b0: abe6 37b8 fe07 89b8 0838 8538 b3b3 8eb6
000002c0: 3006 afb7 dcc9 84b6 0e5b 40b7 17b3 7137
000002d0: 7508 50b5 f83c be35 550a 29b6 085f e335
000002e0: c826 ea35 3a45 fb36 900c c035 28c0 c4b7
000002f0: 38da 63b8 1d3c 0a37 03ba 3336 11df 8635
00000300: 6759 bbb6 52ee 0c37 ed00 a036 cc5d 3537
00000310: ea4f afb5 d86e c0b5 401a e0b6 7c92 efb7
00000320: ace9 2d3c 6b1c d4bb 0dcf 94bb 19d8 59bb
00000330: ba48 f23a dbc8 1f3a 50fd 5a3c 54f9 da3a
00000340: f59a c0bb 2aef 2bbc 8c0f 67bc 5221 763b
00000350: 91fd 2dbc bf20 06bc b16b e53b 03cf 5f3c
00000360: 2486 9dbb 319a 40bc 8c25 0dbc fc6f 0d3b
00000370: 9923 79bb 1693 89bc bd04 d7ba 91fd 13bb
00000380: 96c8 1b3c 72e4 46bc b9c2 2abb af6b 35bc
00000390: 0c02 193c 655d 323a a882 b03a cf0a 74bc
000003a0: 95b0 c43b 8ab1 d33b f6a2 eebb 8372 593b
000003b0: 2bf3 00bc 1456 49ba 1752 103c f3b4 633b
000003c0: e68e 833b 6fed 843c a287 943b 54ae 97ba
000003d0: d8a0 cdbb 2158 1cbb a949 e63b 219a 113c
000003e0: 9b85 94bb 42cd 993b 85a5 1abc 4a0d 5e3b
000003f0: bf9c 963b 8e6d 3a3b 79bc 19ba ace5 9bbb
0.0011613033 0.00017011348 9.4137016e-05 -0.00022906224 3.738957e-05 -6.11945e-05 0.00045176255 0.00012859872
0.00042494838 0.0002443112 0.0013427056 6.0414914e-07 0.0007059323 8.2974904e-05 -2.2631891e-06 3.1351337e-05
0.0011420689 0.00028556306 0.0001567317 0.00035656936 -1.2071151e-05 0.00054820103 0.00016059687 -5.3627896e-06
0.000489935 0.00014236603 3.7957274e-05 0.00038699812 0.00027221386 3.379025e-05 0.00018524863 0.0008284852
7.741154e-05 0.00020180533 6.800905e-05 0.00021993867 -8.988454e-06 0.00019513762 -3.5740537e-05 0.00015405487
0.00020687432 0.0010137479 8.476431e-05 8.624341e-06 7.181505e-05 2.8232189e-05 0.00013473659 -3.0095054e-05
0.0002019542 5.8204576e-05 8.870834e-05 6.78025e-05 4.311729e-05 4.1568393e-05 0.00017130488 3.2092143e-05
-3.3637552e-06 5.3985787e-06 2.548673e-06 1.1570884e-07 7.166423e-05 0.0005771262 0.00045202352 0.0006237941
8.698635e-05 4.742911e-05 0.0004877812 0.00058038114 0.000414861 -4.5525343e-05 0.00037794147 0.00029254786
0.00011274671 0.0007879874 0.00045494552 0.0011141679 6.385795e-05 0.00040077014 3.0364254e-05 0.0002141125
6.183808e-05 2.878449e-05 9.672764e-05 0.00017240667 8.805329e-06 0.0012750275 -3.9292236e-06 0.0014781584
0.0005579952 0.001721353 4.6440317e-05 7.5666474e-05 3.4222754e-05 0.0002396668 3.3767274e-06 0.00071533566
3.6531324e-05 0.00010209571 0.00013646601 0.0009504198 -1.8633491e-05 -1.6783706e-05 -1.897806e-05 5.2565905e-05
-7.1387176e-06 -2.8742597e-06 -0.00010553176 8.316085e-05 -6.0431492e-05 -2.5017061e-05 -4.173321e-05 2.5901552e-06
-8.4584535e-05 6.7543338e-06 -6.5216036e-06 -8.063268e-07 -3.4720742e-06 -4.736793e-05 -8.800388e-05 1.9145935e-05
1.1666964e-05 1.747714e-05 -3.8219596e-06 2.3895639e-06 -4.328626e-05 -1.7259014e-06 1.1184576e-05 -8.931953e-06
-2.143626e-06 3.177609e-05 8.903042e-06 -7.535936e-05 -1.3057114e-06 -2.7541155e-06 -3.2771146e-05 -2.0319785e-06
1.7651138e-05 1.4909944e-05 1.0636429e-05 -7.72811e-06 1.4713696e-05 -1.9510051e-05 -6.9615817e-07 -5.519922e-06
1.001399e-05 9.520436e-07 1.972943e-06 -1.9351022e-05 3.909841e-06 -3.064492e-06 1.8917187e-06 -8.1789767e-07
-3.7409648e-06 9.6277145e-06 9.727765e-06 1.5928517e-06 -5.172139e-07 1.9677391e-07 -7.89406e-06 -1.8464383e-05
9.601107e-07 -1.2081762e-05 4.049831e-06 -3.65811e-05 4.2030865e-06 -1.0801413e-05 -2.7907787e-05 -1.1403106e-05
-5.6475033e-06 8.669437e-06 -1.5917924e-05 -4.6446177e-05 -4.3845426e-05 -6.534158e-05 6.352371e-05 -4.2528495e-06
-2.0864507e-05 -3.957406e-06 -1.1465292e-05 1.4406417e-05 -7.7498345e-07 1.4173847e-06 -2.5188976e-06 1.6940476e-06
1.7445645e-06 7.488442e-06 1.4308771e-06 -2.34545e-05 -5.432425e-05 8.239437e-06 2.6781352e-06 1.0048699e-06
-5.583442e-06 8.4001385e-06 4.7684794e-06 1.08102795e-05 -1.3061774e-06 -1.4337375e-06 -6.678776e-06 -2.8559232e-05
0.010614794 -0.0064731142 -0.004541284 -0.0033240377 0.0018484809 0.00060952984 0.0133660585 0.0016706386
-0.0058778473 -0.010494033 -0.014102828 0.0037556482 -0.010619537 -0.008186518 0.007001363 0.013660195
-0.0048072506 -0.011755512 -0.008614909 0.002158164 -0.0038015603 -0.016793769 -0.001640461 -0.0022581557
0.009508273 -0.012139427 -0.0026056005 -0.011073037 0.009338867 0.0006804078 0.0013466673 -0.014895155
0.0060024955 0.0064603733 -0.00728261 0.0033179827 -0.007870476 -0.0007680368 0.008808634 0.0034745305
0.0040148376 0.016226498 0.0045327703 -0.001157234 -0.0062752776 -0.002385624 0.007027824 0.008886845
-0.0045325286 0.004693658 -0.009438877 0.0033882433 0.0045963223 0.0028446647 -0.00058645714 -0.0047576036

lstm_layer.lstm1.bias_hh_l0 f4 [300]
00000000: c1d1 443a 4eb3 9039 7e6b f638 424e 493a
00000010: 9eb9 a638 e3a0 b636 63ed 8339 02c0 95b8
00000020: b647 f139 8dad 8339 0057 9e3a faa9 7cb6
00000030: e5ea b13a 25de bc38 5e4b cfb4 ac93 9937
00000040: e982 d939 4a4e de39 e210 4739 23a3 a639
00000050: 34c4 39b7 555f 003a 6230 a039 e1f6 4038
00000060: 9503 5839 2a81 0e39 de8e 2438 dadc 8639
00000070: 6665 bb39 98d8 0a39 b02d 6239 c9af 3e3a
00000080: 3225 6639 1759 0039 8faa 7138 cbc8 6539
00000090: d789 9638 25c7 4b39 a372 20b8 a07d 8538
000000a0: 081d 9c39 b386 403a f60f b738 2d1e 2f36
000000b0: 397f 2538 dd31 f937 4687 e638 3eba 50b8
000000c0: 7032 dc38 f9c6 7f38 61b8 b538 e675 b638
000000d0: aa1f d937 fd8c 0438 1348 1839 2c83 ed37
000000e0: a0d6 53b6 7679 a736 0e0e 2337 ad09 1db6
000000f0: ba83 5938 09da 253a 3362 8139 da0a 1d3a
00000100: 076f dc38 f47b 2e39 e406 d939 c66d 8a39
00000110: 2df0 0b3a c488 1c38 e34c cc39 fe2b 4339
00000120: 847f 0e39 d018 e239 50b6 0f3a bc51 9b3a
00000130: 4010 a437 ef8a 003a 2603 fb37 a718 5839
00000140: 977d ba38 afc3 8a37 0654 db37 9907 7239
00000150: 69df 8138 8338 a73a a667 abb6 defe 913a
00000160: a70c 1a3a 59b1 be3a 89ad 2938 9b5e 9c38
00000170: 9e5e 0b38 40a4 8239 2492 8737 1fa7 233a
00000180: 4efe 1d38 eeb5 2b39 a58f c738 d0d1 783a
00000190: 909f 3336 dbf3 65b7 d4b3 b5b6 fec9 fc35
000001a0: 29b8 15b7 543f 5cb6 a698 dcb8 5a9e 8838
000001b0: 3fce 5db6 01ac 4cb6 c6a1 b6b8 a868 2636
000001c0: 4d23 50b8 c95e 7fb5 a1ab c0b6 536d f0b7
000001d0: dd12 16b9 d16d 3fb7 e514 0b38 033c 3fb7
000001e0: 9d71 5137 8f62 abb8 2468 5eb6 c77e 8136
000001f0: 7898 3ab8 088c 03b9 5d43 2137 5470 aab8
00000200: a4d0 1d36 a8e1 5937 9880 a4b6 ba25 8cb9
00000210: 9994 42b7 10ec 21b9 8571 1db7 04ba 87b7
00000220: 3da8 0eb7 6ba8 3937 7969 2d37 4c0b 2eb7
00000230: 850c 0cb8 9994 afb7 1b4c 41b4 ab6e 5ab5
00000240: 9020 9fb6 ad27 8835 5bd7 a0b8 5794 ac36
00000250: eaae 8a36 11b2 3336 16f0 8937 5b39 2bb5
00000260: 438d 7cb6 385e a036 29c7 b736 878d 2936
00000270: 5bcd 39b3 1c9f 7335 6d90 15b6 19f2 17b7
00000280: b81e e5b7 a475 43b8 eff6 2437 1e9f d7b8
00000290: ecd5 9135 ece8 65b6 df56 93b9 32cd 03b7
000002a0: 9c49 02b7 72aa b635 52f8 84b7 12d8 43b8
000002b0: edd7 f9b7 67a1 ae36 1e8d 40b9 80b5 5338
000002c0: 5f64 37b5 9808 3fb7 01c9 44b7 0050 0c37
000002d0: c3de f935 335c 3bb8 5545 6fb6 cf00 7537
000002e0: 5a72 9836 47bc a6b8 ad9b b935 67e8 d6b8
000002f0: 8d67 06b8 b3ad 5838 5ad1 1235 9578 5935
00000300: 3b06 0eb8 64fb 81b5 8b50 7736 f04c d137
00000310: 30b5 32b6 001d 01b6 ff72 c6b6 3f3c 42b7
00000320: b9df cc3b 3c3d 91bb da7a 03bb d23b 1abb
00000330: c4d4 a938 5903 e138 a632 e53b b18c 2d3b
00000340: 9546 83bb 4972 acbb 93d4 05bc 5e72 0c3b
00000350: 25ad cebb 885b 8cbb 3314 5a3b 96bd e83b
00000360: 9876 38bb c86e d9bb 6d47 8dbb 62d8 e33a
00000370: 5b0a b5ba 88a8 13bc e209 ddb9 6bda bdba
00000380: 8699 963b b707 c1bb 6d66 1fba 834f d6bb
00000390: 9764 9b3b 4a3b 043a f979 b3b9 37ed f7bb
000003a0: 3c14 573b 9c47 243b a35a 5cbb ba70 4e3b
000003b0: 9d26 54bb 925b f037 f892 873b 07d5 4f3a
000003c0: 9ad7 4a3b 04c2 103c ca79 dd3a a7e3 f0b9
000003d0: 1d36 2ebb 265a 59ba 5eb5 683b 14e9 8f3b
000003e0: fe31 4fba c4d2 d63a d4cd 9ebb 8ca1 773a
000003f0: 279d 013b aeca 0b3a a1e1 83ba 935e 0fbb
0.00075080624 0.00027599413 0.00011750216 0.0007679203 7.950071e-05 5.4427524e-06 0.00025163134 -7.140638e-05
0.0004602053 0.00025115572 0.0012080371 -3.7649866e-06 0.0013574032 9.005916e-05 -3.8611591e-07 1.8307786e-05
0.00041487 0.0004240147 0.00018984408 0.00031783534 -1.1072541e-05 0.0004897018 0.00030553626 4.600629e-05
0.000206007 0.00013590293 3.9233702e-05 0.0002572302 0.00035742967 0.00013241393 0.0002157006 0.0007274119
0.00021948366 0.0001224022 5.7617723e-05 0.00021913943 7.178232e-05 0.00019433776 -3.8253736e-05 6.365334e-05
0.0002977627 0.00073442905 8.729093e-05 2.6094597e-06 3.945755e-05 2.9706332e-05 0.00010992451 -4.9764516e-05
0.00010499812 6.0982045e-05 8.665096e-05 8.7003966e-05 2.588316e-05 3.1602558e-05 0.000145227 2.8313683e-05
-3.1566378e-06 4.9911278e-06 9.7188295e-06 -2.3400455e-06 5.185951e-05 0.000632674 0.00024677961 0.0005990692
0.00010511098 0.00016640109 0.000413946 0.000264032 0.0005338218 3.732067e-05 0.00038967197 0.00018613038
0.00013589679 0.00043124566 0.0005482184 0.001184992 1.955789e-05 0.0004903515 2.9922998e-05 0.00020608549
8.892564e-05 1.6542004e-05 2.614596e-05 0.00023081749 6.192813e-05 0.0012757931 -5.1082634e-06 0.0011138578
0.0005876519 0.0014548703 4.0454357e-05 7.456281e-05 3.32283e-05 0.00024917908 1.6161306e-05 0.00062428595
3.7668557e-05 0.00016375605 9.515815e-05 0.0009491714 2.6765956e-06 -1.3706241e-05 -5.415155e-06 1.883425e-06
-8.92397e-06 -3.2819416e-06 -0.000105188505 6.5144806e-05 -3.3051617e-06 -3.0498488e-06 -8.708569e-05 2.4796846e-06
-4.962394e-05 -9.5132833e-07 -5.742026e-06 -2.8661138e-05 -0.00014312142 -1.1410056e-05 3.3159642e-05 -1.139846e-05
1.2483823e-05 -8.1722734e-05 -3.3141196e-06 3.8592584e-06 -4.4487853e-05 -0.00012545299 9.612032e-06 -8.1271544e-05
2.3516268e-06 1.2986748e-05 -4.902551e-06 -0.0002673099 -1.1597899e-05 -0.00015442097 -9.38436e-06 -1.6179874e-05
-8.503031e-06 1.1066072e-05 1.0336161e-05 -1.0373838e-05 -3.339026e-05 -2.0930822e-05 -1.8002213e-07 -8.137237e-07
-4.74236e-06 1.0144337e-06 -7.6695076e-05 5.1432685e-06 4.133083e-06 2.6776727e-06 1.6443471e-05 -6.378593e-07
-3.7633151e-06 4.77934e-06 5.4770103e-06 2.5265342e-06 -4.326044e-08 9.075609e-07 -2.2286797e-06 -9.056669e-06
-2.7313232e-05 -4.6601184e-05 9.832655e-06 -0.00010281637 1.0865601e-06 -3.4259238e-06 -0.0002810275 -7.855984e-06
-7.765742e-06 1.3609663e-06 -1.585126e-05 -4.6692854e-05 -2.9783661e-05 5.204394e-06 -0.00018363117 5.0475355e-05
-6.831887e-07 -1.1386488e-05 -1.172931e-05 8.363277e-06 1.8616778e-06 -4.467014e-05 -3.5654132e-06 1.4603326e-05
4.5432653e-06 -7.950566e-05 1.3828882e-06 -0.000102476035 -3.204453e-05 5.1660183e-05 5.4693885e-07 8.101427e-07
-3.386124e-05 -9.684413e-07 3.685275e-06 2.4950568e-05 -2.6629532e-06 -1.9239378e-06 -5.914247e-06 -1.1577328e-05
0.0062522558 -0.0044323485 -0.002006224 -0.002353419 8.098179e-05 0.000107294596 0.006994563 0.0026481564
-0.004006217 -0.0052626473 -0.008168357 0.0021430473 -0.0063072615 -0.0042833723 0.00332762 0.0071026785
-0.002814686 -0.0066355206 -0.004311493 0.0017383213 -0.001381229 -0.009012349 -0.00042159768 -0.0014484649
0.004595938 -0.0058908123 -0.0006080631 -0.0065402403 0.004742216 0.0005044235 -0.00034232417 -0.00756612
0.0032818457 0.0025067097 -0.003362336 0.0031500296 -0.0032371648 2.865287e-05 0.004137393 0.0007928167
0.0030951262 0.008835319 0.0016897258 -0.0004594598 -0.0026582547 -0.0008291326 0.0035508494 0.0043917987
-0.0007903873 0.0016389717 -0.004846314 0.00094463746 0.0019777508 0.0005332631 -0.001006175 -0.002187644

gbrbm.W f4 [100, 200]
00000000: d2b6 8d3b 6e9d 393c e6cf bebb 90b3 8f3b
00000010: d27b 8cbb ff3b 3a3c 4d63 dabb 24e8 20bc
00000020: 58ad 94bb a585 40bc 5684 583b 77f5 e93a
00000030: 3bf5 a93b a067 163b 57b7 88bb 53c0 06bb
00000040: 7146 0a3b d6ad baba 9f6a 103b 178d c23b
00000050: 54d1 553b 96ef 03bc bf75 9c3b 106c 0ebb
00000060: 8673 e9ba 3970 45bb d348 813b 2edb 46bc
00000070: a164 183c 4304 55bb 6eb1 103b d621 acbb
00000080: 2680 da3b 3b85 a4bb a93f 74bb 6627 7aba
00000090: 8195 8f3b 0fba b7bb 8778 e53b 200b 453a
000000a0: 6626 253b 1a84 3fbb 325d 0b3c 0df7 2c3b
000000b0: 25ed c5bb 2efa 6a3b 0210 35bc 0722 4bbb
000000c0: 2b29 973d 3737 803b fb71 bbb9 f666 033b
000000d0: f7cf 8bba 850f b8bb 7149 d7bb 991f e13a
000000e0: 9c24 89ba 0e4f 58bb c426 6a3b 1af0 023a
000000f0: 48ea d7bb e9ab e5ba 8a2a 18ba 2aa1 5ebc
00000100: eeea 113b b1c3 fcba 51e3 0a3a 615f 303a
00000110: 1c51 e5bb a146 bcba 5c62 023b 1ad8 1a3b
00000120: 9174 1c3c a05a 4a3b 7bb9 9e3b fe2c 9038
00000130: ca84 56bc 3b06 7fba e48d a0ba ba64 e8b8
00000140: 6dad 07bb 6ed3 03bc 4d6d 043b 5de4 e73b
00000150: a8a0 793b d67d 2bbb 0017 2d3b e404 33bc
00000160: 3af3 833a 466b 09bb 10aa 803a 2a68 273b
00000170: 23fb ce3a 1c98 e43a 2c3e b7bb f48d daba
00000180: de65 393b 3fe8 e6bb b66e 193c 3e60 1db9
00000190: 2a73 a13a 1b9e d8ba e611 593b 8bca 133c
000001a0: 0d2c 03ba 957a 8a3a 926e ebba 9d37 843c
000001b0: e4f8 de39 48eb 7a3b 08ae 92bb 1335 dcbb
000001c0: 94d2 343c b967 f83b 6686 1c3c 5c69 bbba
000001d0: 9df9 2b3b 06fb cd3b 7ae2 bbbb a510 03bb
000001e0: 0aa4 dfba 99d6 01bc 475f 2b3b e615 71bb
000001f0: 8c6d 273b 1100 b13a 9f0c 5bbb 78f6 4dbb
00000200: e0f9 6fbb e414 883b c0fb b53a b25f a3bb
00000210: e90d bd39 8f63 f93b 1c1b 8bbb 393c aabb
00000220: 6b11 2a3c 17d6 8ebb 8201 8fba 2806 40bc
00000230: efc4 13bc e0df febb bea7 1a3c 9b45 78bb
00000240: f78c 5f3b f72e acbb ade2 b53b 15bd 08bc
00000250: 0175 ba3b 73ce 0abc 8e3d 6bbb 6d5a e73b
00000260: d4a6 1b3b 6fd6 1fbc c61a 80bb eace ea3a
00000270: 8464 ea3a 732f c8bb aff5 01bc 41f5 553b
00000280: 5a1e 953b e4ab 1bbc 5c65 08bc a5cc 86bb
00000290: 4a0a 953a 61eb 58b7 ce29 9a3a aaa3 493b
000002a0: 11cb 51bb 0348 4f3b dd38 8039 4962 d1bb
000002b0: c16f 383a a955 113b 494b 21bb 7ca5 04bc
000002c0: 43b3 b2bb 6e86 00bc 05e1 00bb d2ac 263c
000002d0: 23b8 b8bb e794 963a e14a 87bc 4001 e63b
000002e0: 59f1 7dbb d198 2c3c c7ca a4bb d4e3 a1bb
000002f0: fb1b d33b bd58 263b df44 6ebb 7ed3 983a
00000300: b2db beba a3b5 003b 209a 58bb 9374 cd3b
00000310: adc1 cabb b995 4c38 6c5a 163b 83c0 b8bb
00000320: 146f d23b e853 57bb c4b1 25bb 76de 8f3b
00000330: b354 d53b 1fd6 423a 6371 6f3b ff27 7f3a
00000340: 74f7 023c 3f43 f53b f5be 39bb 03a2 5f3b
00000350: db74 71ba d5d1 323b 6ace 033c 6b76 acbb
00000360: ead9 9fb9 49ab e33a f2cd 4ebb b380 ce3b
00000370: 6b4a 953a 6fdb 073b 3d43 8e3b 2c89 98bb
00000380: 0cb9 173a ca9b b7ba 7d31 b5bb cb22 cc39
00000390: 2d32 9bba 11c9 e039 6252 8cbb 0243 f7ba
000003a0: b382 92b9 ff87 f3ba 8fca 5eba a739 2b3b
000003b0: 5bbf 6f3a 16c7 1d3b 4367 cdbb db54 9b3a
000003c0: 4f59 a8ba 12b5 a139 3d72 a2ba 2160 e5ba
000003d0: 0143 64bb 6754 8c3a 730f 5fba 5999 49b7
000003e0: 581e c0bc 8f2e 1ebb 72ab 873b 8b6c 95ba
000003f0: bfe9 203b b057 c7bb 8b42 44ba d770 b73a
0.0043247724 0.011329038 -0.0058231233 0.004385419 -0.0042872215 0.011366843 -0.0066646696 -0.009820972
-0.0045372657 -0.011750613 0.0033037863 0.0017849643 0.0051867045 0.002294995 -0.0041722464 -0.0020561412
0.0021099115 -0.0014242481 0.0022036207 0.0059372294 0.003262599 -0.008052727 0.0047747786 -0.002173189
-0.0017810918 -0.0030126704 0.003945449 -0.012137217 0.009301336 -0.003250376 0.0022078413 -0.005253057
0.0066681085 -0.005020765 -0.003726939 -0.0009542614 0.004381836 -0.0056068967 0.0070028934 0.00075166114
0.002519989 -0.0029223026 0.008506106 0.002639237 -0.0060402327 0.0035854685 -0.01105118 -0.0030995624
0.07380899 0.003912832 -0.00035752342 0.0020050383 -0.0010666837 -0.0056170844 -0.006570034 0.0017175555
-0.0010463181 -0.0033006105 0.0035728673 0.00049948844 -0.006589208 -0.0017522547 -0.00058046787 -0.013588229
0.0022265273 -0.0019284395 0.0005298155 0.000672808 -0.0069981944 -0.0014364311 0.0019895053 0.0023627342
0.009549276 0.003087677 0.0048438883 6.8748355e-05 -0.013093183 -0.00097284064 -0.0012249318 -0.00011081384
-0.0020702735 -0.008046014 0.002020675 0.0070767836 0.0038090143 -0.0026167533 0.0026411414 -0.010926459
0.0010066994 -0.002096848 0.0009816308 0.0025544264 0.0015791397 0.0017440352 -0.0055921283 -0.0016674385
0.0028289477 -0.007046729 0.009364774 -0.0001500854 0.0012317647 -0.0016526611 0.003312224 0.009020458
-0.00050038175 0.0010565097 -0.001796203 0.0161398 0.00042528578 0.0038287211 -0.0044763125 -0.006720194
0.011036534 0.007580724 0.009553527 -0.0014298367 0.002624131 0.006286028 -0.005733785 -0.0019998935
-0.0017062437 -0.007924699 0.002614932 -0.0036786734 0.0025547473 0.0013504048 -0.003342427 -0.0031427424
-0.0036617443 0.004152881 0.0013884231 -0.004985773 0.00036059253 0.0076107453 -0.004245175 -0.0051951674
0.010380129 -0.0043590176 -0.0010910484 -0.011720218 -0.009019121 -0.007778153 0.009439407 -0.0037883285
0.0034111121 -0.005254622 0.0055507035 -0.008345862 0.0056902175 -0.008472073 -0.0035894844 0.00706034
0.002375056 -0.009755715 -0.0039094416 0.0017914448 0.0017882739 -0.006109172 -0.007932111 0.0032647403
0.0045507373 -0.009501431 -0.008324947 -0.004113751 0.0011370864 -1.2929407e-05 0.0011761726 0.0030767717
-0.0032011906 0.0031628616 0.0002445643 -0.0063898903 0.00070356956 0.0022176302 -0.0024611524 -0.008096095
-0.0054534986 -0.007844551 -0.0019665372 0.0101730395 -0.005637185 0.0011488468 -0.016515197 0.007019192
-0.003874859 0.010534481 -0.0050290558 -0.0049404893 0.0064425445 0.0025382482 -0.0036356968 0.0011659709
-0.0014561324 0.0019639514 -0.003305085 0.0062700002 -0.0061876387 4.877683e-05 0.002294208 -0.0056381836
0.006421933 -0.0032856409 -0.0025282959 0.004390533 0.006510341 0.0007432419 0.003653609 0.0009733438
0.007993568 0.007484823 -0.002834258 0.0034123666 -0.0009210833 0.0027285714 0.008044818 -0.00526314
-0.00030489202 0.0017369773 -0.0031555858 0.0063019632 0.0011389976 0.0020730158 0.0043415115 -0.004655024
0.0005787767 -0.0014008221 -0.005529581 0.00038935835 -0.0011840515 0.00042874416 -0.0042822817 -0.0018864574
-0.0002794467 -0.0018579959 -0.00084988115 0.0026126893 0.00091456407 0.0024074963 -0.0062684133 0.001185085
-0.0012843999 0.0003084322 -0.0012393665 -0.0017499962 -0.0034829977 0.0010706306 -0.0008509077 -1.2016238e-05
-0.023451969 -0.0024136638 0.004140311 -0.0011400146 0.0024553386 -0.006083451 -0.00074867223 0.0013995421

gbrbm.b f4 [200]
00000000: 3c79 2bbe a959 4ebe 547c 82be 50de cabd
00000010: 7486 22bc 16e2 78be fc0a 1dbe 3a56 29be
00000020: 3364 57be a739 e6bd 5d20 3ebe f009 1fbe
00000030: 8146 39be 0328 22be 7eab 26be f389 10bd
00000040: 759b 77be a255 23be 684e 4bbe ac8d 74bd
00000050: d75a 0abd 3b07 9ebe 28c3 fabd da25 10be
00000060: 8b96 9cbd 19ac 13be 1fef 27be 53fb 61be
00000070: f9b2 7dbe 1c7c f7bd f8af 6bbd 94df 57be
00000080: 8b0c 0ebe 9f2d 79be a0aa 7dbc 4b71 aebd
00000090: 8bef 80be 1d9d 4cbe 8433 50be f01c 8e3b
000000a0: 9120 80be a0be 65be d630 95be 572a 33be
000000b0: aa96 7cbe 0803 01be 767e 3fbd 06c1 bdbc
000000c0: 6c00 9f3f 61d7 1bbe f727 18be fe4f 33be
000000d0: 7b73 3ebe a9b4 3bbe bbd5 9dbe ffdc 47bd
000000e0: 5f71 99bc 1702 6abe ea2a 1abe 3263 cfbd
000000f0: 4b77 13be 54b5 6dbe a74c 36be b76e 36be
00000100: 7633 88be beb1 afbd 66f9 53be 12d1 b5bd
00000110: 88cb 7abe 510f 42be b087 16be 8066 77bd
00000120: 7e18 03be 6e1a e5bd e129 6ebc 4efa ebbc
00000130: f416 28be 2ad3 13bd 3ce4 8bbe ca53 f3bd
00000140: bf36 80be b8bc c5bc 1aa5 a9bd bf0f d0bd
00000150: ee90 2ebe 945f 2abe 9e45 1fbe e9df 5fbe
00000160: 5e93 11be 1a2c e5bd 12f5 2dbe 460b 97be
00000170: d1d9 2ebe eeef 31be b41a 25be 0fe6 8bbe
00000180: 1371 a0be 536a a9be ed99 98bd debc 32be
00000190: 6beb 9bbc c812 38be be70 54be 06d1 1cbe
000001a0: b2c3 0fbe ac54 7bbe 85b3 debd f169 11be
000001b0: 6c03 03be 12bc 63be 6d61 8abe 1853 2bbe
000001c0: 941e 4dbe 2554 71be c0b8 93bd eaa3 0dbe
000001d0: fb50 50be 86f9 06be 17e6 1bbe 055c 55be
000001e0: 5cde 86be 7331 5bbe cc17 55bd c6b4 16be
000001f0: 2117 5bbe c201 e7bd 6518 89be e0f1 0bbe
00000200: db89 17be 4464 11be 12ce 04be a87b 79be
00000210: 6781 44bd dea3 ddbd 10b1 01be eba9 c5bd
00000220: 40ae 493d 4fd7 42be 7f32 36be 1938 eabd
00000230: 741c 14be d7c6 74bd 5f6b 853c 95e8 96be
00000240: 734c afbd c5de 7ebe 7b6e 14be de59 83be
00000250: 46e1 34be 67ea 39be 46d7 01be 139b 2dbe
00000260: 97fb 87bd cdae 98be 1c41 0abd a3af cebd
00000270: 0b1f b0bd c7c4 cebd 7aa3 99bd f4cb 1fbe
00000280: 1bc9 edbd 7036 47be 282c d8bd 0b78 ffbd
00000290: 2493 27be 0ebe f6bd 490c 00be ee3e 19be
000002a0: 0fc9 2abe 83dc 97be 3597 dbbd 3126 5cbe
000002b0: fb11 64be b091 7fbe 5de4 0abe 75c9 12be
000002c0: d136 e4bd fc3a 16be 39e5 c8bd ea52 1bbe
000002d0: 93fb d13c 8691 28be 8245 a7be 3345 abbd
000002e0: 9b62 a8bd 83df 20be 547e 54bd 6754 4ebd
000002f0: 1099 83be 00bb 1dbe 5ee1 6bbe 907d 6bbe
00000300: 5992 37be 5a64 69be 0826 27be 72ec 01be
00000310: 2cd4 13be 17d4 8fbe 9b70 74bd f772 03be
-0.16745466 -0.2015139 -0.2548548 -0.09905684 -0.009919751 -0.24304995 -0.15336221 -0.16536799
-0.21034317 -0.11241465 -0.18567033 -0.15531135 -0.18093301 -0.15835576 -0.16276357 -0.03528781
-0.24180396 -0.15950635 -0.19854128 -0.05970542 -0.033778038 -0.3086489 -0.12244254 -0.14076939
-0.07645901 -0.14421119 -0.16399811 -0.22068529 -0.24775304 -0.12084219 -0.057540864 -0.21081382
-0.13871972 -0.2433381 -0.015482575 -0.08517703 -0.25182757 -0.19981809 -0.20332152 0.0043369457
-0.25024846 -0.22435999 -0.2913882 -0.1749662 -0.24666849 -0.12598813 -0.046751462 -0.02316333
1.2422004 -0.1521888 -0.14858995 -0.17510983 -0.1859874 -0.18330635 -0.30827126 -0.048794743
-0.018730817 -0.2285236 -0.15055433 -0.10126342 -0.14400975 -0.23213702 -0.17802678 -0.17815672
-0.26601762 -0.085788235 -0.20700607 -0.088777676 -0.24491704 -0.18951155 -0.14700198 -0.060400486
-0.12802312 -0.11186682 -0.014536352 -0.028805878 -0.16415006 -0.036090054 -0.27322567 -0.11881216
-0.25041768 -0.02413784 -0.08283444 -0.10159253 -0.17047474 -0.16638023 -0.155539 -0.21862759
-0.14216372 -0.11190052 -0.16988018 -0.29500788 -0.17075278 -0.17376682 -0.16123468 -0.27323958
-0.3133627 -0.3308893 -0.07451234 -0.1745486 -0.019033154 -0.17975914 -0.20746133 -0.15314111
-0.14039496 -0.24544019 -0.108740844 -0.1420057 -0.12794274 -0.22239712 -0.27027455 -0.16730917
-0.20031196 -0.23567255 -0.07212973 -0.1383206 -0.20343392 -0.13181123 -0.15224491 -0.20835884
-0.26341522 -0.21405582 -0.052024648 -0.14717397 -0.21395542 -0.11279632 -0.26776424 -0.13666487
-0.14798681 -0.14198405 -0.12969235 -0.24363577 -0.04797497 -0.10822271 -0.126652 -0.0965155
0.049238443 -0.19027446 -0.177927 -0.11436481 -0.14463979 -0.05975994 0.01628655 -0.2947432
-0.085595034 -0.24889667 -0.1449527 -0.256545 -0.1766406 -0.18155824 -0.12679777 -0.16953687
-0.06639784 -0.29820862 -0.0337535 -0.10092094 -0.08599671 -0.10096126 -0.07501884 -0.15605146
-0.116106234 -0.1945436 -0.10555297 -0.12474068 -0.16364723 -0.12047969 -0.12504686 -0.14965412
-0.1667826 -0.29660425 -0.107222 -0.21498944 -0.22272484 -0.24957919 -0.13563676 -0.14334662
-0.11143268 -0.14670938 -0.09809346 -0.15168348 0.025632655 -0.16461763 -0.32670218 -0.08362808
-0.082219325 -0.15710263 -0.05187829 -0.05037346 -0.25702715 -0.15403366 -0.2303519 -0.22997117
-0.17926921 -0.22792187 -0.16323102 -0.12687853 -0.14436406 -0.280915 -0.0596777 -0.12836824

gbrbm.mu f4 [100]
00000000: f0c4 dd3b 2a3b 6abc 4228 073b e739 15bc
00000010: c636 753b 0bb6 663b 33ef 1c3c cc98 b5bb
00000020: 6fd7 a4bb 7746 763a 9e25 c0bc 8b0e 483b
00000030: c707 c8bb 80ed 38bc 7cd6 f23b 9482 a93c
00000040: 1e09 2bbc eb1c b6bc 2bd0 a1bc 82e8 bebb
00000050: 1606 b7bb 268a 01bd d5ef 80bb 8d15 fabb
00000060: 8ab9 103c 0336 83bc d851 11bb bbec 50bc
00000070: a792 473c a650 d9bb ac35 a03b a2cd 83bc
00000080: 2b39 a93b d3b4 163c 2338 74bc 14e0 193b
00000090: d4b5 6bbc 6cc6 9139 7964 1d3c 67a0 f93b
000000a0: c8b0 563a 2e7d 973c 78d3 453a 3416 98bb
000000b0: 37b3 22bc 638d 2e3b a867 7b3c b1e8 9a3c
000000c0: a650 5ebc dce7 c53b 3080 bcbc 1aca 513c
000000d0: 9f99 443c 4784 c83b ee28 f9bb 8127 98bc
000000e0: 57dc bebb 1aa2 60bc cd9b b6bb 8fda 943b
000000f0: aecc ed3b ba4d b53c 0cf1 b93b 8d5a 323c
00000100: baec c439 4c06 cbbb 9bc8 7d3c 2345 d2bb
00000110: 9d4b b83b c772 193c 6644 6e3c 44b3 96bc
00000120: cbb5 a8bc 4738 993c 50c9 393c dd57 3d3b
00000130: 4f0e c7bb b35f f8bb c475 23bc 4a1c b13c
00000140: 76cd faba 11f9 bcbb 54e7 103b 86a3 253b
00000150: 5d50 253c c96d 473c 95fd 3fbc f789 cebc
00000160: f0cc ccbc edc5 f93c 9063 2e3c 1efa d7bb
00000170: 587e c4bb 70f1 23bc 78d2 0aba ae5d 92bc
00000180: adad cdbb f42b de3b 00c8 8b3c 8f93 0d3c
0.0067678615 -0.014296332 0.002062336 -0.009108043 0.003741668 0.003520372 0.009578514 -0.0055418964
-0.0050305645 0.00093946554 -0.023455437 0.0030526246 -0.0061044428 -0.011287093 0.0074108224 0.020692147
-0.010439185 -0.022230586 -0.019752583 -0.005826057 -0.0055854423 -0.03162589 -0.00393484 -0.0076319636
0.008833298 -0.016016966 -0.0022174027 -0.012751753 0.012180961 -0.0066319285 0.0048892107 -0.016089264
0.0051642857 0.009198385 -0.014905962 0.0023479508 -0.014386613 0.0002780439 0.009606474 0.0076179984
0.00081897946 0.018492308 0.0007546465 -0.0046413187 -0.009930423 0.0026634566 0.015344538 0.018909784
-0.013569033 0.0060396027 -0.023010343 0.012804532 0.011999517 0.0061192843 -0.007603756 -0.018573524
-0.0058246064 -0.013710523 -0.005572772 0.004542656 0.0072570657 0.02213179 0.005674487 0.010885847
0.00037560408 -0.006195819 0.015489723 -0.006416933 0.005624248 0.009365744 0.014542675 -0.018396027
-0.020594498 0.018703593 0.011339501 0.0028891482 -0.0060747038 -0.0075797676 -0.009976808 0.021619935
-0.0019134718 -0.0057669957 0.0022110539 0.002527447 0.010089961 0.012172171 -0.0117181735 -0.025212271
-0.025000066 0.030489886 0.010643855 -0.0065910956 -0.0059965067 -0.010006294 -0.00052956445 -0.017866936
-0.0062768073 0.006780142 0.01706314 0.008641138

gbrbm.log_var f4 [100]
00000000: 5f79 61c0 57d6 69c0 d5f8 69c0 8619 6bc0
00000010: 2211 69c0 bb24 6ac0 597d 63c0 e6e6 6bc0
00000020: f766 68c0 9f26 68c0 3d73 62c0 73f4 6ac0
00000030: 864e 64c0 35c4 6ac0 aede 67c0 c1b8 65c0
00000040: f569 6cc0 7f1f 67c0 45a5 69c0 6b66 6bc0
00000050: c81a 6bc0 3238 63c0 4ad4 6bc0 d30b 6bc0
00000060: 3785 66c0 3319 68c0 34b2 69c0 ff41 66c0
00000070: 850d 67c0 2edc 6bc0 6ba3 6ac0 7987 62c0
00000080: b9d3 68c0 40b8 66c0 5668 68c0 77df 6ac0
00000090: bb64 68c0 6c9d 6bc0 cdfb 67c0 546e 6ac0
000000a0: cd7a 6ac0 9d2c 63c0 917a 6bc0 fd0f 6cc0
000000b0: c267 6ac0 ebaf 6ac0 d6b1 69c0 486a 69c0
000000c0: 0f87 69c0 ae05 6ac0 72d6 69c0 7d43 6ac0
000000d0: ac8b 69c0 b2c6 69c0 cd3d 6bc0 6ebf 6ac0
000000e0: 9ce5 6ac0 0e93 69c0 5d1e 69c0 4ad9 6ac0
000000f0: f712 6ac0 6786 64c0 f17a 6cc0 07e0 64c0
00000100: f766 6ac0 4590 6ac0 fdff 65c0 6323 6ac0
00000110: 1bd4 6ac0 b854 6ac0 bc2f 68c0 29f4 64c0
00000120: 8df4 67c0 2b49 69c0 fa53 65c0 81bc 6cc0
00000130: 2b93 6ac0 6882 6cc0 ed63 6cc0 d358 6ac0
00000140: 1032 6bc0 7e52 69c0 743b 6bc0 cd6f 6bc0
00000150: 3919 67c0 2ca1 61c0 7778 69c0 cd90 62c0
00000160: c4c4 62c0 b1d5 61c0 5fc0 6ac0 6f17 69c0
00000170: 4325 6ac0 c5a9 6ac0 27d5 6bc0 b2c3 65c0
00000180: af48 6bc0 f28a 69c0 23d9 6ac0 e1e3 66c0
-3.523033 -3.6537073 -3.6558125 -3.6734328 -3.6416707 -3.6584918 -3.5545256 -3.685968
-3.6312845 -3.6273572 -3.5382836 -3.67117 -3.5672927 -3.6682255 -3.6229663 -3.5894015
-3.693967 -3.6112974 -3.6507123 -3.678126 -3.6735096 -3.550305 -3.684832 -3.6725967
-3.6018808 -3.626538 -3.6515017 -3.597778 -3.6102002 -3.6853137 -3.6662242 -3.5395186
-3.6379225 -3.6049957 -3.6313682 -3.6698892 -3.631148 -3.6814833 -3.6247437 -3.662984
-3.6637452 -3.549598 -3.6793559 -3.6884758 -3.6625829 -3.6669872 -3.6514792 -3.647112
-3.6488683 -3.6565967 -3.6537137 -3.6603692 -3.64915 -3.6527524 -3.675647 -3.667934
-3.6702642 -3.6496005 -3.6424782 -3.6695123 -3.6574075 -3.5707033 -3.6950037 -3.5761735
-3.6625345 -3.6650555 -3.5937493 -3.6584098 -3.669196 -3.6614208 -3.6279135 -3.5774024
-3.6243012 -3.6450908 -3.5832505 -3.6990054 -3.6652324 -3.6954594 -3.693599 -3.6616714
-3.6749306 -3.64566 -3.6755037 -3.6786988 -3.6109145 -3.5254622 -3.6479776 -3.540088
-3.5432596 -3.5286677 -3.6679914 -3.6420553 -3.6585243 -3.666612 -3.6848848 -3.5900693
-3.6763113 -3.6491055 -3.669503 -3.6076586

gbrbm.linear_layer.weight f4 [1, 200]
00000000: 560a 6d3a acb1 e2bc 3d9c 453e 96a5 8f3c
00000010: a5d0 4dbe baf6 4cbd 9e66 d3bd 1481 913c
00000020: 561c e5b8 ac6e c63d 448b b53c 76c8 20bd
00000030: a539 873d 00d1 cbbd 6ad6 9e3d a7e7 fc3d
00000040: a8a8 3f3d f1d7 303d d541 08be 9073 67be
00000050: 7b54 92bd 7432 d93c 69d6 1fbd 48cd ecbd
00000060: a03b 8dbd 5d01 c73c b9ca c03d 75da d73d
00000070: 6d14 1bbd 54e9 83bd 3290 9fbb 702e 873d
00000080: f136 09bd 6e8a 043e 71d8 00bd 1de6 1bbe
00000090: 5d66 393c c19e 413e ab62 5b3d 27a4 5bbe
000000a0: c649 0f3d 87fc c8bd 9b4c 8b3e a4c3 093e
000000b0: 7981 6c3e f5ac da3c a2ca a93d bb85 28be
000000c0: 9202 ccbe f75c edbd a166 13be 3dfa 9e3c
000000d0: 6812 333d bfe6 b63d 2ae4 e93d 85ef 0ebe
000000e0: 3bf9 b8bd ce8a cb3c 2604 a33d 49ff e1bd
000000f0: 4343 993d d16b a7bd 9f35 743e 534b 103e
00000100: f082 e3bc 7415 77be 971f 893c 43c8 f7bd
00000110: d900 343e 2abc ddbc 5f90 f1bc e4d3 a6bd
00000120: e7b7 da3c e273 313c fc55 27bd f82c 15be
00000130: 59ac 8a3d 9676 42be 75e7 483e b932 85bd
00000140: 9216 053e f4ab 73bd 8837 81bd ac8c c23c
00000150: d201 c83d 10c6 05be a96f 4dbd c657 e23d
00000160: 7e57 febc f621 e8b7 b66f 9fbd a510 463e
00000170: 5d0c 6b3e 6768 203c 1b65 773d 0f08 5b3e
00000180: e0c6 1e3e 8220 c83e dbe2 ecbc 5a24 3cbd
00000190: c28e c1bc 730b 5c3d 0564 f73d c790 40be
000001a0: 580a d4bd 00c8 d53c 17f0 d0bd 6038 49bd
000001b0: 7c42 dfbd 019d fb3c 6d70 0c3e 66f7 903d
000001c0: a333 523d 5136 233e ce85 dfbd 4009 b73c
000001d0: 125f 1c3d 33c1 c3bd 11e9 55bd 2029 ad3d
000001e0: 95bb 813e d5dc 4e3e 82ba cdbd 4c6c 273e
000001f0: 5b78 b7bc a37b 56bd a1e7 ab3e 8ce9 aebc
00000200: fe93 853c d28b 12bd cf7c 65bd f38b ff3d
00000210: 3d3e 02be a4e6 0ebd b0ce de3c f06e 4cbd
00000220: 32f0 21be 62cb c23d bfd7 b43c 0092 12be
00000230: 9124 ef3c 640b 1bbe e7f3 0abe c9f5 8b3e
00000240: 50b2 aebd e2a9 193e d0f2 13be 1227 853d
00000250: 9920 093e e8d7 313e 21a5 413d fcc6 863d
00000260: cc8a 73bc 0639 0a3e f867 a5bc db72 633d
00000270: 67f7 e5bc 3a8d 32be a7e3 16be 7302 2abd
00000280: 8784 21bd 88e9 363e 4a91 e0bd 8a5b ad3c
00000290: b04e da3d f1cf afbd b2c6 26be e861 76bd
000002a0: d5fe c13d 0769 763e 3f5d b73d 789d 8f3d
000002b0: 1c3d 8dbd 6ba3 033c a928 8dbd 4923 d4bb
000002c0: 3696 893d 155c ee3d 49c3 c03c d72d c23d
000002d0: ddd1 5fbe f27e e03c 20d5 923e ff99 3e3b
000002e0: 43be c2bd 63d9 d4bd 420e bdbc 2e40 91bd
000002f0: e98c 02be 5cc6 9f3c ffec c23d dbd2 70bd
00000300: 26d8 2e3e da8a f23b 919e 063d 40f3 02be
00000310: afd7 2abe c7a4 b33c 817f 023c cb87 5bbd
0.00090423727 -0.027672611 0.19297881 0.017535012 -0.20099123 -0.050039984 -0.10322307 0.017761745
-0.00010924849 0.09689078 0.022161134 -0.039253674 0.06602792 -0.09951973 0.0775574 0.12348872
0.046791703 0.043174688 -0.13306363 -0.22602677 -0.071450196 0.026513316 -0.039022837 -0.11562592
-0.06896138 0.024292642 0.09413666 0.10539714 -0.037861276 -0.06440988 -0.0048694843 0.06600654
-0.03349966 0.12943432 -0.031456415 -0.152245 0.011315909 0.18908216 0.053560894 -0.21449338
0.034982465 -0.09813791 0.27206883 0.13453537 0.23096265 0.0266938 0.08290602 -0.16457264
-0.3984571 -0.11589997 -0.14394619 0.019406432 0.043718725 0.0893073 0.11420472 -0.13958557
-0.09031912 0.02484646 0.079597756 -0.1103502 0.07483532 -0.08174861 0.2384858 0.14091234
-0.027772397 -0.24129277 0.016738696 -0.12098744 0.17578448 -0.027067263 -0.029487787 -0.08145884
0.02669902 0.010830851 -0.040853485 -0.14567935 0.06771154 -0.1899055 0.19619544 -0.06503815
0.12996891 -0.05949016 -0.0630942 0.023748718 0.09765972 -0.13063836 -0.050155316 0.11051898
-0.031047579 -2.767237e-05 -0.07784979 0.19342287 0.22953935 0.009790516 0.060399156 0.21389793
0.15505552 0.39087301 -0.028916767 -0.045933105 -0.023627643 0.053721856 0.12079624 -0.18805228
-0.103535354 0.026096344 -0.102020435 -0.04912603 -0.10901353 0.030714514 0.13714762 0.070784375
0.051318776 0.15938689 -0.10914193 0.022343278 0.038176604 -0.09558334 -0.052224223 0.084551096
0.25338426 0.20201428 -0.10045339 0.16349906 -0.022396257 -0.052364003 0.33575156 -0.021351598
0.01630592 -0.035777874 -0.05602723 0.12477865 -0.12719055 -0.034887925 0.027198166 -0.049910486
-0.15814283 0.095114484 0.022075532 -0.14313507 0.02919224 -0.15141064 -0.13569604 0.27335957
-0.08530104 0.15006211 -0.14448094 0.06501593 0.13391341 0.17367518 0.04727662 0.06580922
-0.014864635 0.13498315 -0.020191178 0.055529457 -0.028072072 -0.17436686 -0.1473528 -0.041506242
-0.03943303 0.17862523 -0.10965212 0.021161813 0.1065954 -0.085845836 -0.16286734 -0.060151964
0.094724335 0.24063502 0.08953332 0.07012457 -0.06896421 0.008034567 -0.06892521 -0.006473933
0.067181036 0.11638657 0.02353062 0.094813995 -0.218574 0.027404282 0.28678226 0.0029083488
-0.09508946 -0.10393026 -0.023078088 -0.070923194 -0.12749065 0.019503765 0.0951786 -0.058794837
0.17074642 0.0074018063 0.032866064 -0.12788105 -0.1668384 0.021929158 0.00796497 -0.0535963
