final_project/gru_gbrbm_H_div_2 (drop 0.1)/type2/gru_gbrbm_W15_H200_B16.pt (torch, 591834 bytes, 9 tensors)

lstm_layer.lstm1.weight_ih_l0 f4 [600, 9]
-0.0002888823 -0.00096868514 -0.0004034204 -0.00032152774 -0.00027034245 -0.00035378538 -0.0004375378 -0.00038549153
-0.00032776498 -1.1588016e-05 -0.00033007472 0.00020691591 0.00017283959 0.00024414968 0.00019746061 0.00019570722
9.560987e-05 5.0960858e-05 -0.00011027369 8.0993166e-05 -6.721686e-05 -0.00011066523 -9.8042954e-05 -6.968382e-05
-5.1289728e-05 -8.2798746e-05 -9.465651e-05 -8.85176e-06 -0.00019340028 -1.3695784e-05 7.737398e-06 6.208968e-06
-2.2798848e-05 -2.2792967e-05 -5.3612384e-05 -0.00010003032 -1.48539e-05 3.7969003e-06 -5.3245065e-05 -0.0001290732
-8.776053e-05 -6.760339e-05 -7.8241756e-05 -7.61697e-07 -4.6843823e-05 1.2128048e-05 -0.00027488242 -0.0003178974
-0.00025710926 -0.00023962154 -0.00026030815 -0.00034323893 -0.00019656937 -0.000109027125 -0.00018567666 0.0003697697
-0.00046200515 -0.0010648476 -0.00046084955 -0.00036451808 -0.0005348985 -0.00042522044 -0.00022311688 9.308509e-05
-0.00042924308 -0.00011569509 1.1325558e-05 -4.964636e-07 -7.699011e-05 -0.00019034943 -0.00010749843 -0.0001524474
0.00013989201 0.00017433174 2.0609157e-05 -2.0764369e-06 1.3538498e-06 -6.246854e-05 -2.6566733e-05 -1.08702825e-05
-5.7459045e-05 -7.1785894e-06 -2.5759991e-06 -4.5187568e-05 -1.6476288e-05 -1.63478e-05 -4.5695382e-05 -1.794403e-05
1.2325562e-05 1.0531996e-05 -6.054954e-06 -2.9662206e-06 -0.00034264434 -0.00043624744 -0.00032831947 -0.00021460826
-0.0003762562 -0.00018018097 -0.0002530648 -2.7463244e-05 -5.000015e-05 -2.1082176e-05 5.198455e-05 -2.6336062e-05
-3.279263e-05 -4.0246236e-05 -4.0177667e-05 -4.2982938e-05 7.1028815e-05 9.62917e-05 -0.000102518956 -8.29571e-05
-5.4211952e-05 -5.8931775e-05 -9.4881594e-05 -3.04401e-06 -9.488233e-06 -0.00023284623 2.8927213e-06 4.5616484e-06
-6.6249627e-06 3.017841e-06 9.192774e-06 1.3919647e-05 4.778992e-06 -3.717901e-05 -0.0013026684 -0.0037769468
-0.0005224592 -0.0009687765 -0.00047269123 -0.00039231445 -0.00046941612 -0.00051835086 -0.00054557226 -0.00014954495
-0.0002582633 -2.3027302e-05 -0.00023717358 -0.00010261449 1.0671735e-05 -0.00012944415 -0.00014325601 -0.0002588235
-0.0003133947 -0.00072499854 -0.00026480333 -0.00037893894 -0.00021797381 -0.0002214083 -0.00027683956 -0.00021638823
-0.00019586501 -0.00018626398 3.6913385e-05 3.7657694e-05 -1.5970323e-05 4.9197515e-05 7.1141214e-05 5.596245e-05
9.302894e-06 2.9455483e-05 -0.00016532444 -6.6986846e-05 -7.60473e-05 -0.00012942131 -8.561427e-05 -8.9744e-05
-9.193225e-05 -3.8792925e-05 2.3330727e-05 -0.00032087727 -0.0002513066 -7.7825396e-05 -0.000121478406 -8.734997e-05
-4.752714e-05 -3.6077978e-05 -1.7324113e-05 7.789358e-06 -6.9709936e-06 0.00024510024 -0.00018919903 -0.00021455286
-0.00026799925 -0.00027828137 -0.00022850117 -4.501785e-05 -5.7199162e-05 5.7142453e-05 -3.6056335e-07 1.1332186e-06
8.573067e-06 -6.785713e-06 -5.9066024e-06 -2.2504123e-06 1.5843287e-05 1.3070814e-05 -3.494195e-05 -0.000100139805
-2.248017e-05 -7.931397e-06 -1.755232e-05 -1.4392603e-05 -1.444105e-05 -2.3929526e-05 -1.2398237e-05 0.00036142167
0.00015991055 7.561314e-05 -0.00010551461 3.236835e-05 3.5668854e-06 7.5327785e-05 0.0001638779 0.00017114058
4.3383043e-05 0.0003263724 6.6727705e-05 3.0104098e-05 -2.6172522e-05 -7.63888e-06 5.4849355e-05 2.246751e-05
2.5703166e-05 5.8941943e-05 -0.00025352815 -0.00018576378 -0.00017944275 -0.00022640232 -0.00017714889 -0.00017895416
-0.00011523516 -9.636852e-05 -8.860902e-05 -0.00014464589 -4.939647e-05 8.072369e-06 -1.1239427e-05 -1.1073006e-05
-5.2024185e-05 -7.3994546e-05 -7.2911134e-05 -4.5284738e-05 0.00023722973 4.7689235e-05 2.5046249e-05 6.544103e-05
4.8390655e-05 5.318947e-05 -4.166234e-06 1.0146322e-05 0.00046071454 -0.00034742503 5.383798e-05 0.00031121436
00000000: 2075 97b9 5cef 7dba 2b82 d3b9 b992 a8b9
00000010: c0bc 8db9 457c b9b9 5465 e5b9 cc1b cab9
00000020: dfd7 abb9 266a 42b7 e10d adb9 91f7 5839
00000030: 463c 3539 3701 8039 6e0d 4f39 c236 4d39
00000040: 2882 c838 cebe 5538 bd42 e7b8 e0da a938
00000050: c7f6 8cb8 f114 e8b8 699c cdb8 3723 92b8
00000060: ed1f 57b8 3da4 adb8 5482 c6b8 0582 14b7
00000070: 7ecb 4ab9 f2c6 65b7 dfcf 0137 a156 d036
00000080: 2740 bfb7 8633 bfb7 dcdd 60b8 5ec7 d1b8
00000090: 0435 79b7 40ce 7e36 7453 5fb8 d357 07b9
000000a0: 130c b8b8 4bc6 8db8 b915 a4b8 6b77 4cb5
000000b0: 2c7a 44b8 9279 4b37 181e 90b9 77ab a6b9
000000c0: 9fcc 86b9 eb42 7bb9 f879 88b9 c0f4 b3b9
000000d0: 301e 4eb9 7ea5 e4b8 33b2 42b9 a6dd c139
000000e0: 4839 f2b9 5b92 8bba 2e9e f1b9 ca1c bfb9
000000f0: 6e38 0cba 1ff0 deb9 7bf4 69b9 ad36 c338
00000100: 080c e1b9 54a1 f2b8 e702 3e37 b844 05b5
00000110: c075 a1b8 8998 47b9 c870 e1b8 4ada 1fb9
00000120: faaf 1239 d2cc 3639 d4e1 ac37 ea58 0bb6
00000130: edb5 b535 8b01 83b8 a0db deb7 825f 36b7
00000140: 2e00 71b8 9ddf f0b6 54df 2cb6 c887 3db8
00000150: 8f36 8ab7 a222 89b7 0ba9 3fb8 8386 96b7
00000160: e3c9 4e37 94b2 3037 a92b cbb6 480f 47b6
00000170: f2a4 b3b9 24b8 e4b9 4b22 acb9 7708 61b9
00000180: 4144 c5b9 f6ee 3cb9 c8ad 84b9 de60 e6b7
00000190: 41b7 51b8 a1d9 b0b7 fc09 5a38 43ec dcb7
000001a0: d18a 09b8 11ce 28b8 7184 28b8 9448 34b8
000001b0: 4ef5 9438 36f0 c938 72ff d6b8 41f9 adb8
000001c0: a461 63b8 832d 77b8 2bfb c6b8 b247 4cb6
000001d0: a72f 1fb7 2f28 74b9 9320 4236 4310 9936
000001e0: ff4b deb6 1d86 4a36 aa3a 1a37 6e88 6937
000001f0: 3b5b a036 a8f0 1bb8 4cbe aaba a786 77bb
00000200: a5f5 08ba 7ef5 7dba 8bd3 f7b9 8eaf cdb9
00000210: f71b f6b9 f0e1 07ba bc04 0fba 2bcf 1cb9
00000220: 8367 87b9 c12a c1b7 ccb1 78b9 bc32 d7b8
00000230: c10a 3337 66bb 07b9 fe36 16b9 b4b2 87b9
00000240: 204f a4b9 d40d 3eba 4dd5 8ab9 53ac c6b9
00000250: e68f 64b9 d729 68b9 c724 91b9 46e6 62b9
00000260: 1d61 4db9 db4f 43b9 72d3 1a38 a4f2 1d38
00000270: 02f8 85b7 6e59 4e38 a631 9538 39b9 6a38
00000280: a013 1c37 2b17 f737 f15a 2db9 4a7b 8cb8
00000290: 957b 9fb8 45b5 07b9 d08b b3b8 f134 bcb8
000002a0: c0cb c0b8 96b5 22b8 5bb6 c337 6b3b a8b9
000002b0: cdc1 83b9 3136 a3b8 39c2 feb8 a82f b7b8
000002c0: e157 47b8 6f52 17b8 4053 91b7 0aaf 0237
000002d0: 61e8 e9b6 cc80 8039 ba63 46b9 98f9 60b9
000002e0: 4082 8cb9 4be6 91b9 d199 6fb9 8cd1 3cb8
000002f0: 22e9 6fb8 3eac 6f38 7393 c1b4 1819 9835
00000300: 0bd5 0f37 d5b0 e3b6 5431 c6b6 ca05 17b6
00000310: 33e7 8437 b84a 5b37 a28e 12b8 2602 d2b8
00000320: cc93 bcb7 1711 05b7 523d 93b7 c277 71b7
00000330: d647 72b7 44bc c8b7 0602 50b7 327d bd39
00000340: a9ad 2739 7f92 9e38 ba47 ddb8 40c3 0738
00000350: a05e 6f36 4cf9 9d38 a4d6 2b39 3374 3339
00000360: 30f6 3538 f61c ab39 2af0 8b38 0f88 fc37
00000370: 108d dbb7 bd28 00b7 0c0e 6638 9c78 bc37
00000380: 219d d737 6e38 7738 f9eb 84b9 96c9 42b9
00000390: cc28 3cb9 6966 6db9 0bc1 39b9 a4a5 3bb9
000003a0: 68aa f1b8 7519 cab8 9bd3 b9b8 16ac 17b9
000003b0: 0e2f 4fb8 906e 0737 f990 3cb7 33c6 39b7
000003c0: 8b34 5ab8 852d 9bb8 dee7 98b8 1ef0 3db8
000003d0: dfc0 7839 ed05 4838 691a d237 633d 8938
000003e0: 12f7 4a38 c217 5f38 adcb 8bb6 1f3a 2a37
000003f0: 0f8c f139 9926 b6b9 17d0 6138 7c2a a339

lstm_layer.lstm1.weight_hh_l0 f4 [600, 200]
-3.1578922e-05 -8.945589e-05 -9.996795e-06 3.0983592e-06 -2.5765971e-06 -6.59575e-06 -6.59353e-05 -6.4245696e-06
-1.0624215e-05 -2.8963898e-06 -1.5159726e-05 5.626705e-06 -4.9559253e-06 -3.437422e-05 -4.9142213e-06 -4.2180895e-05
-2.1646007e-05 2.1276266e-05 -6.635354e-06 5.5599397e-05 5.595926e-06 -1.8604393e-06 -1.8021745e-05 -4.9928904e-06
-7.3765536e-06 9.371493e-06 3.2829405e-06 1.7875407e-06 -1.2374304e-05 -5.0260483e-06 -4.1608808e-05 3.5468108e-06
1.758043e-05 -3.170956e-05 1.0446098e-06 3.826706e-06 -0.0002473438 3.6929534e-05 2.6045982e-05 1.493721e-06
-1.0680623e-06 6.343346e-05 0.00015717733 -2.7993342e-06 8.753887e-06 -6.923035e-06 -2.2536542e-05 -6.0890907e-05
6.192293e-06 1.8895147e-05 3.1215852e-06 -3.8190324e-06 4.7957546e-06 5.1003735e-05 -4.0608384e-07 -4.7030204e-05
6.4398787e-06 -1.6604467e-05 7.6945355e-07 9.775257e-06 2.7386699e-05 -6.252579e-05 -8.931118e-06 -4.0671977e-05
-4.0569565e-05 2.4322894e-06 8.8356876e-07 1.7872782e-05 -5.5281173e-05 -1.1681263e-05 6.1406e-05 4.8498155e-06
4.3625474e-05 3.152681e-06 -3.280325e-05 -1.6047668e-05 3.3710105e-06 -5.718425e-06 3.968593e-06 5.023902e-05
8.426323e-07 3.3503722e-05 -4.7071702e-05 -1.8112369e-05 1.6780708e-05 4.0509335e-06 1.1787285e-05 -6.7670553e-06
-6.4738665e-06 3.768945e-05 -3.615112e-05 1.2039218e-06 -2.3606433e-06 -9.4410934e-05 2.4151803e-05 -4.860986e-06
1.4622872e-05 -2.9574567e-06 -9.062519e-06 -3.0455278e-05 6.785733e-07 2.8694485e-05 -1.9230438e-06 2.5326444e-05
0.00013152018 4.1495673e-06 1.9091927e-05 3.942837e-05 7.980784e-07 7.52891e-06 5.7476946e-06 6.118929e-06
0.00011285032 6.280929e-07 -1.4779411e-05 -1.2091855e-05 6.223034e-06 -6.050465e-06 1.9656585e-05 3.771261e-06
-2.189671e-05 -2.488675e-06 -7.760833e-06 -1.7254268e-05 1.6461141e-05 -2.307974e-05 1.0023925e-05 -4.44087e-05
2.3833888e-06 -2.2473765e-05 -4.421398e-05 2.7249039e-06 -8.528697e-05 -9.0600065e-07 -1.165805e-05 -6.136343e-06
-5.7377665e-06 2.254303e-07 0.0001646998 -2.3422068e-05 -3.4583275e-06 1.7624317e-05 1.1101819e-05 -1.7591152e-05
2.2841307e-06 3.7654667e-05 -3.5641801e-06 1.2639614e-05 -1.2140804e-05 -9.973802e-07 -2.6208404e-06 4.687997e-06
-1.4864575e-05 4.430209e-05 2.1450894e-06 -1.2412358e-05 -4.8067986e-06 -2.9637283e-06 -5.061109e-05 6.7148585e-06
-4.6330973e-05 -1.4740577e-05 1.9801071e-05 2.270519e-05 -4.1624558e-06 2.0973399e-05 4.8388374e-06 4.9022756e-06
2.4127392e-05 5.3614012e-06 0.00017039552 3.046962e-06 2.2436e-05 1.3565416e-05 -3.5986411e-06 6.667651e-05
-6.4587264e-05 1.3517277e-05 -7.0422125e-06 1.05287045e-05 -1.3886777e-05 1.9200776e-05 -3.5837227e-06 8.257553e-06
8.666662e-06 -4.6647074e-06 1.9469657e-05 1.15165285e-05 1.6490603e-05 2.5704063e-05 4.3508167e-05 1.9388146e-05
-3.6376869e-06 5.419987e-05 -5.585388e-06 7.9396605e-06 1.2985627e-05 -1.4092263e-05 -3.998894e-05 -3.674894e-05
4.0984164e-06 -2.2984068e-06 3.2978573e-06 1.7458377e-07 -2.4478911e-06 3.4131626e-06 6.6243438e-06 -9.023706e-06
1.2272559e-06 9.736322e-08 5.512482e-06 -2.9938674e-06 -1.6768412e-06 6.579915e-08 1.0915959e-05 1.2600219e-06
4.401062e-06 4.3581116e-07 2.9764815e-06 -1.080484e-05 1.7784653e-06 1.251736e-07 8.2463487e-07 5.4005244e-07
-1.6699953e-06 1.3730428e-05 -7.2487126e-07 -1.9774508e-07 1.826698e-05 3.5377657e-06 3.0395759e-06 1.2093441e-06
-8.224822e-06 1.2583992e-06 7.3659686e-07 -7.2202596e-07 4.2578507e-05 -1.1665011e-06 1.2283612e-05 1.33677395e-05
6.7561416e-07 4.1910444e-06 -2.9486087e-06 2.6336756e-06 3.974735e-06 -8.009734e-06 3.534021e-06 3.642166e-06
-1.5824044e-05 -1.0619668e-06 -8.28995e-07 -1.5549067e-06 -3.515536e-06 -2.1006788e-06 7.369481e-07 -5.728561e-06
00000000: 9c73 04b8 449a bbb8 e8b7 27b7 68ed 4f36
00000010: 9ae9 2cb6 1051 ddb6 bf46 8ab8 a292 d7b6
00000020: a83e 32b7 995f 42b6 8756 7eb7 07cd bc36
00000030: 134b a6b6 0a2d 10b8 d7e4 a4b6 64eb 30b8
00000040: 7294 b5b7 6f7a b237 42a5 deb6 6633 6938
00000050: a3c4 bb36 35b4 f9b5 672d 97b7 9a88 a7b6
00000060: 1d84 f7b6 423a 1d37 7d50 5c36 6eeb ef35
00000070: 3b9b 4fb7 6da5 a8b6 1e85 2eb8 bf05 6e36
00000080: b079 9337 e1ff 04b8 8534 8c35 2767 8036
00000090: ecad 81b9 c9e4 1a38 527d da37 dd7b c835
000000a0: 575a 8fb5 9407 8538 f8cf 2439 32dc 3bb6
000000b0: a9dd 1237 6b4c e8b6 db0c bdb7 1d65 7fb8
000000c0: 64c7 cf36 0581 9e37 6d7c 5136 3d25 80b6
000000d0: 38eb a036 d8ec 5538 bd03 dab4 4c42 45b8
000000e0: 2316 d836 d249 8bb7 728c 4e35 6900 2437
000000f0: 7dbc e537 4720 83b8 dcd6 15b7 3497 2ab8
00000100: 3d29 2ab8 6a3a 2336 622e 6d35 82ed 9537
00000110: b5dd 67b8 a4fa 43b7 18c7 8038 99bb a236
00000120: 7ffa 3638 a692 5336 3996 09b8 1b9e 86b7
00000130: 8539 6236 e6e0 bfb6 f429 8536 bdb7 5238
00000140: 4031 6235 5986 0c38 db6e 45b8 04f0 97b7
00000150: 4cc4 8c37 41ed 8736 01c2 4537 9010 e3b6
00000160: 173a d9b6 bd14 1e38 f8a0 17b8 7096 a135
00000170: 8b6b 1eb6 7cfe c5b8 9a99 ca37 8d1b a3b6
00000180: c254 7537 b878 46b6 390b 18b7 367a ffb7
00000190: 3427 3635 f0b4 f037 a40d 01b6 2074 d437
000001a0: aee8 0939 833c 8b36 9a27 a037 e45f 2538
000001b0: 883b 5635 d8a0 fc36 52dc c036 3351 cd36
000001c0: 0eaa ec38 379a 2835 16f5 77b7 1fde 4ab7
000001d0: 74cf d036 1905 cbb6 32e4 a437 c515 7d36
000001e0: d4ae b7b7 1c03 27b6 8634 02b7 42bd 90b7
000001f0: 0816 8a37 5d9b c1b7 6e2c 2837 7b43 3ab8
00000200: 4ff2 1f36 0b86 bcb7 6672 39b8 7edd 3636
00000210: 18dc b2b8 e433 73b5 f296 43b7 c9e6 cdb6
00000220: 0a87 c0b6 cf0d 7234 44b3 2c39 827a c4b7
00000230: 9d15 68b6 efd7 9337 f341 3a37 b690 93b7
00000240: 1149 1936 64ef 1d38 2630 6fb6 bb0e 5437
00000250: 5bb0 4bb7 b9dd 85b5 b2e1 2fb6 964d 9d36
00000260: dd62 79b7 02d1 3938 5bf4 0f36 ac3e 50b7
00000270: 164a a1b6 77e4 46b6 3e47 54b8 3250 e136
00000280: 8153 42b8 4c4e 77b7 7a1a a637 0677 be37
00000290: 39ab 8bb6 08f0 af37 4c5d a236 3a7e a436
000002a0: 2e65 ca37 16e6 b336 33ac 3239 697a 4c36
000002b0: f134 bc37 0597 6337 2f80 71b6 aed4 8b38
000002c0: 0673 87b8 43c8 6237 254c ecb6 71a4 3037
000002d0: 41fb 68b7 5a11 a137 e37f 70b6 ec89 0a37
000002e0: 0867 1137 8885 9cb6 c552 a337 1d37 4137
000002f0: 4d55 8a37 0e9f d737 8a7c 3638 baa3 a237
00000300: fc1e 74b6 ab54 6338 1e6a bbb6 9534 0537
00000310: d8dc 5937 cf6d 6cb7 ccb9 27b8 e022 1ab8
00000320: 2185 8936 543e 1ab6 c250 5d36 3975 3b34
00000330: 7346 24b6 b00d 6536 ae46 de36 8664 17b7
00000340: 31b8 a435 ff15 d133 dcf7 b836 40ea 48b6
00000350: d30f e1b5 774d 8d33 b023 3737 061e a935
00000360: d6ac 9336 6ef9 e934 90bf 4736 6f46 35b7
00000370: 9ab3 ee35 7567 0634 7a5c 5d35 1ff8 1035
00000380: 9a24 e0b5 bd5b 6637 c694 42b5 c153 54b4
00000390: 0a3c 9937 5a6a 6d36 84fb 4b36 bf50 a235
000003a0: 57fd 09b7 44e6 a835 8dba 4535 3fd1 41b5
000003b0: 5396 3238 ac90 9cb5 b615 4e37 0146 6037
000003c0: da5b 3535 cca0 8c36 b6e0 45b6 34be 3036
000003d0: b75e 8536 8c61 06b7 052a 6d36 ef6b 7436
000003e0: e0bd 84b7 e788 8eb5 1a88 5eb5 30b2 d0b5
000003f0: 73ec 6bb6 63f9 0cb6 b0d2 4535 f737 c0b6

lstm_layer.lstm1.bias_ih_l0 f4 [600]
0.00046046247 3.718043e-05 0.00019011983 4.904465e-05 1.3287146e-06 -4.747334e-05 0.0015404342 -5.0776193e-06
-0.0002212453 1.0224607e-05 6.980268e-05 3.9597373e-05 -4.112574e-05 0.0002305236 0.0024283356 0.00019935142
0.00030939167 7.2465016e-05 0.00018924002 0.00039426147 3.046717e-05 -0.00010118084 -2.1212543e-05 -0.00045003067
-3.3584325e-05 -3.5276877e-05 0.00016072181 0.00012438996 -0.0005226089 2.3959805e-05 0.00024736064 -4.4634173e-05
0.00012414446 -9.333487e-05 9.68694e-05 -2.8609948e-05 0.001756881 -1.6128502e-05 -3.8013943e-05 0.00044546576
2.1492679e-05 0.00028576222 0.0013102691 -0.00010492115 5.171408e-05 9.2745024e-05 8.212998e-05 -0.00028075624
0.00035693226 -3.1377764e-05 -0.00031207906 -3.1813255e-05 0.00017789488 0.00021514008 0.00035939924 -1.48821255e-05
0.0004067767 -0.00025271552 -0.00022190505 2.5498211e-05 -0.0002766059 0.0006408845 -1.66143e-05 0.00010050245
0.00059438986 4.3021773e-05 -7.804792e-06 0.00012437245 2.2366605e-05 8.983093e-05 0.0009656498 0.00013129968
0.00011097554 0.00011773009 0.00036610328 2.9493422e-06 -0.000283006 0.002578603 6.197658e-05 0.00073813595
2.693978e-05 0.00013394975 -0.00013165084 5.4064374e-05 3.399774e-05 8.352974e-05 -0.00017772369 -7.046942e-05
1.8444998e-05 2.5122104e-05 -0.00033920098 0.00014796798 8.246791e-05 -0.00013885715 5.3484284e-05 -1.1337708e-06
-0.0001165163 -6.375955e-05 -5.6589433e-05 -0.00018598151 -1.760014e-05 -0.00028087036 0.00012257202 5.150958e-05
0.00069565594 0.0005817475 0.0001800599 4.3047876e-05 0.0009048432 0.00019769357 5.1888197e-05 0.00016050573
0.00058446615 -0.00010360736 -2.8115925e-05 1.4512168e-05 -0.0007414575 0.00067098107 0.00014758282 -0.00035796373
1.7341925e-05 -0.00026033283 0.000357307 0.00015425845 0.00012713677 -1.22925685e-05 0.000702295 -0.00015813488
0.0001876908 -5.19801e-05 0.00024417343 0.00014094735 0.0006416452 0.000112660964 -0.0001381339 0.00023843203
-5.4389926e-05 0.00013127901 0.0010083535 -4.6529538e-05 -2.4488216e-05 0.00014294917 -2.1349615e-05 9.9502875e-05
0.00012753098 3.926103e-05 6.920125e-05 -1.0790446e-05 4.3681444e-05 0.00044574522 -0.0003127326 8.350822e-05
-6.3618005e-05 0.00019599499 -0.0001486886 -0.00026998273 0.00050529384 3.661887e-05 0.000105545616 1.1462725e-05
0.00014946362 -0.00013030191 0.00018744855 4.2824577e-05 -6.798064e-05 3.0056599e-05 8.496472e-05 -0.00046923867
0.0001843248 1.4271045e-05 0.002201431 -9.513687e-05 -0.0001976658 -5.4674587e-05 0.00045170952 0.00018892282
5.4346365e-05 -9.043505e-05 -0.00059805147 -0.0001621403 7.885173e-05 3.9151942e-05 3.2880816e-05 -9.27774e-05
-0.00013452812 -0.00023086861 0.0006158771 8.8170245e-06 5.5636654e-05 0.00010110499 0.0017281844 -2.3396003e-06
0.00047320544 0.00014947193 4.1687406e-05 1.292306e-05 4.7399477e-05 -6.2478546e-05 0.00017438244 0.0012373395
0.00011243116 4.2889824e-05 -0.00029164038 2.0284897e-06 -6.1607854e-05 5.949066e-05 0.0005342761 -0.00013731909
2.6556807e-05 -1.876659e-05 0.00016324638 -0.00017942383 -2.7631742e-05 -0.00016681313 0.00062559446 -2.0255238e-05
0.00016056947 7.0551534e-05 0.00026514297 -0.00019253629 -0.00013340516 -8.05158e-05 -0.00026134765 6.075196e-05
-0.00025625955 5.7920763e-05 5.7946083e-05 -8.148798e-05 -0.0007691853 -9.1246606e-05 2.6466376e-05 8.231285e-05
0.00015490684 0.00019975749 0.000102839884 -0.00014888342 0.00037396033 4.4914428e-05 0.00019864152 0.00015130751
-9.369001e-05 0.00044798796 -0.00023963001 0.00014030377 1.769182e-05 -7.558971e-05 -0.0001578718 0.00016050959
1.865217e-05 -1.2110604e-05 -1.5605154e-05 3.8699472e-05 -0.00017397142 4.8126734e-05 -9.324141e-05 -0.00020803818
00000000: 3a6a f139 2ff2 1b38 e75a 4739 4bb5 4d38
00000010: 4956 b235 1c1e 47b8 65e8 c93a 6b60 aab6
00000020: 15fe 67b9 5a8a 2b37 0763 9238 5b15 2638
00000030: 6d7e 2cb8 b5b8 7139 b624 1f3b fd08 5139
00000040: d935 a239 5cf8 9738 bb6e 4639 e1b4 ce39
00000050: c093 ff37 0d31 d4b8 97f1 b1b7 18f2 ebb9
00000060: e5dc 0cb8 42f6 13b8 6f87 2839 ad6e 0239
00000070: b1ff 08ba 4afd c837 2fb0 8139 9435 3bb8
00000080: c62c 0239 c7bc c3b8 5d26 cb38 65ff efb7
00000090: 2547 e63a b24b 87b7 2971 1fb8 678d e939
000000a0: 2d4b b437 5bd2 9539 56bd ab3a 1d09 dcb8
000000b0: 92e7 5838 1b80 c238 323d ac38 7732 93b9
000000c0: a322 bb39 9e9b 03b8 8b9e a3b9 396f 05b8
000000d0: 4b89 3a39 3a97 6139 c06d bc39 3eae 79b7
000000e0: a544 d539 e77e 84b9 2faf 68b9 fee4 d537
000000f0: 6a05 91b9 0801 283a f05e 8bb7 d8c4 d238
00000100: d4d0 1b3a 4772 3438 54f1 02b7 fa69 0239
00000110: eb9f bb37 9d63 bc38 a923 7d3a 7dad 0939
00000120: 8abb e838 dce5 f638 8df1 bf39 50ed 4536
00000130: 6c60 94b9 c8fd 283b 6cf9 8138 777f 413a
00000140: bdfc e137 dd74 0c39 c10b 0ab9 2ec3 6238
00000150: cc98 0e38 b02c af38 575b 3ab9 fbc8 93b8
00000160: 55ba 9a37 4fbd d237 c9d6 b1b9 da27 1b39
00000170: 9ff2 ac38 2f9a 11b9 5054 6038 112c 98b5
00000180: 365a f4b8 a6b6 85b8 715a 6db8 0804 43b9
00000190: 03a4 93b7 c841 93b9 ad86 0039 fe0b 5838
000001a0: ae5c 363a 6a80 183a 76ce 3c39 4e8e 3438
000001b0: 0033 6d3a f74b 4f39 87a2 5938 6e4d 2839
000001c0: dc36 193a c747 d9b8 7dda ebb7 4979 7337
000001d0: 5f5e 42ba c7e4 2f3a 76c0 1a39 14ad bbb9
000001e0: 8079 9137 487d 88b9 ef54 bb39 70c0 2139
000001f0: 0450 0539 2e3c 4eb7 381a 383a 02d1 25b9
00000200: dece 4439 3505 5ab8 6704 8039 44cb 1339
00000210: 1534 283a 6544 ec38 09d8 10b9 9c03 7a39
00000220: bd20 64b8 f1a7 0939 bb2a 843a b628 43b8
00000230: 0b6c cdb7 a0e4 1539 f317 b3b7 33ac d038
00000240: d6b9 0539 36ac 2438 2320 9138 9d08 35b7
00000250: 9836 3738 e9b2 e939 42f6 a3b9 2221 af38
00000260: a86a 85b8 0184 4d39 4be9 1bb9 788c 8db9
00000270: b275 043a 3697 1938 5f58 dd38 0750 4037
00000280: 56b9 1c39 a7a1 08b9 d68d 4439 8a9e 3338
00000290: d490 8eb8 0e22 fc37 162f b238 2604 f6b9
000002a0: 5047 4139 ac6d 6f37 e245 103b 3884 c7b8
000002b0: 8244 4fb9 6452 65b8 6dd3 ec39 9519 4639
000002c0: f7f1 6338 f3a7 bdb8 8ec6 1cba 3504 2ab9
000002d0: 335d a538 1437 2438 82e9 0938 7d91 c2b8
000002e0: 1e10 0db9 5215 72b9 d072 213a d5ec 1337
000002f0: 675b 6938 5408 d438 3f84 e23a 0702 1db6
00000300: 8f18 f839 91bb 1c39 83d9 2e38 1fd0 5837
00000310: cdce 4638 ea06 83b8 6eda 3639 392e a23a
00000320: 05c9 eb38 99e4 3338 4fe7 98b9 3021 0836
00000330: 7733 81b8 9c85 7938 aa0e 0c3a 50fd 0fb9
00000340: 4fc6 de37 f26c 9db7 1e2d 2b39 b823 3cb9
00000350: b7ca e7b7 8fea 2eb9 effe 233a cbe9 a9b7
00000360: 8a5e 2839 11f5 9338 e302 8b39 91e3 49b9
00000370: ade2 0bb9 97da a8b8 7d05 89b9 eccf 7e38
00000380: 935a 86b9 f2ef 7238 220b 7338 87e4 aab8
00000390: 27a3 49ba a65b bfb8 1c04 de37 609f ac38
000003a0: 7d6e 2239 fe75 5139 beab d738 971d 1cb9
000003b0: 1b10 c439 8062 3c38 6d4a 5039 4da8 1e39
000003c0: 717b c4b8 eddf ea39 3145 7bb9 821e 1339
000003d0: e568 9437 eb85 9eb8 638a 25b9 774e 2839
000003e0: 3b77 9c37 a62e 4bb7 d0e7 82b7 3e51 2238
000003f0: 196c 36b9 b0db 4938 9a8a c3b8 d324 5ab9

lstm_layer.lstm1.bias_hh_l0 f4 [600]
0.0004359024 2.0220305e-06 0.0001550009 3.9834347e-05 2.4932406e-06 -4.1782365e-05 0.0015404343 5.2165415e-06
-0.00020551786 1.316474e-05 5.9623602e-05 3.956186e-05 -4.3660762e-05 0.00023197567 0.0024267684 0.00020772482
0.00033393453 0.00013756462 0.00017816733 0.00039911922 3.0777017e-05 -9.580374e-05 -5.6708e-05 -0.00045213278
-2.5501997e-05 -3.5441848e-05 0.00012772679 0.00015588397 -0.0004228448 2.388134e-05 0.00027795474 -5.108384e-05
0.00012397669 -9.4667426e-05 0.00011850805 -1.7306611e-05 0.0017571948 -1.570403e-05 -3.8057333e-05 0.00044998407
2.2113427e-05 0.00035574185 0.0013309175 -0.00010492035 8.385484e-05 8.8646724e-05 8.077273e-05 -0.00028082004
0.00035399548 -1.2815161e-05 -0.0003128535 -0.00012823832 0.00022398542 0.00017580332 0.00041613425 -2.5866233e-05
0.0004073371 -0.00025289357 -0.00021802486 2.6947604e-05 -0.00021841576 0.0006390777 -4.4420834e-05 0.00012391112
0.0006016618 4.344691e-05 -1.7799775e-05 0.00012451169 1.5901973e-05 0.000110924135 0.00096623244 0.00013495125
0.000110286295 0.00011697479 0.00034913613 -3.6954516e-05 -0.00024741702 0.0025774254 1.1149842e-05 0.0006411584
2.682736e-05 0.00013409765 -0.00013399002 6.172132e-05 4.684595e-05 0.00011487278 -0.0001467866 -5.603015e-05
1.8438215e-05 3.095137e-05 -0.0004270553 0.00012321776 8.2349805e-05 -0.00013872987 7.546649e-05 -2.6746256e-05
-0.00012125307 -4.8556714e-05 -2.0019363e-05 -0.00018940656 -2.0305342e-05 -0.00028848107 0.000112088695 6.6714136e-05
0.0006956269 0.0006048993 0.00017393946 4.9078917e-05 0.00090482965 0.00020859162 5.2676354e-05 9.4493626e-05
0.000569447 -0.0002847541 -2.3698552e-05 1.4755102e-05 -0.0007420328 0.00035986787 0.00018080488 -0.00035795977
-2.515083e-06 -0.00026183086 0.0003473278 0.00014969897 0.00013923463 1.9769544e-05 0.00067581993 -0.00016046061
0.00019735633 -4.7518763e-05 0.0002939506 0.0001634204 0.0005879844 2.255132e-05 -7.045046e-05 0.0002282335
-5.5043773e-05 0.000120014505 0.0010085315 -4.1418076e-05 -2.5332612e-05 0.00014383654 -2.2513625e-05 6.791519e-05
0.0001899709 1.6656904e-05 6.4417705e-05 -3.3360717e-05 4.643209e-05 0.00042925257 -0.00023960568 3.6400226e-05
-7.115517e-05 0.00019144674 -0.00014870544 -0.00019172196 0.0005546082 2.6597025e-05 0.00011247665 4.5273042e-05
0.00014087636 -0.00014071802 0.00021808376 4.0018975e-05 -6.6489774e-05 4.4203673e-05 8.2745595e-05 -0.00029949393
0.00018571812 1.4236441e-05 0.002200032 -9.30748e-05 -0.00021123588 -5.398173e-05 0.00041192648 0.00019106554
5.3142943e-05 -9.191827e-05 -0.0005840405 -0.00015810778 7.560753e-05 3.9296294e-05 1.5871605e-05 -5.7267305e-05
-0.00013326675 -0.00016537002 0.00061404455 9.515434e-06 6.855655e-05 0.000108882756 0.0017276566 -2.2877234e-06
0.00040728968 0.00014072249 4.1642794e-05 8.3154984e-05 4.838014e-05 -0.00010361831 0.00016421605 0.0012373767
0.000140935 0.0001276761 -0.00030952023 -6.3435414e-06 -6.0489532e-05 0.00010436259 0.00054667017 -0.00013727855
1.7053375e-05 -2.0057205e-05 0.00011491261 -7.63733e-05 -2.7663695e-05 -0.00015738602 0.0005841689 -1.8475872e-05
0.00015622158 7.051694e-05 0.00026626498 2.7824099e-05 -0.00014589385 -7.924233e-05 -0.00027067555 3.108523e-05
-0.00020332451 5.659069e-05 5.679898e-05 -8.519696e-05 -0.00045787156 -0.00010046882 1.906379e-05 8.23329e-05
0.00014862964 0.00011546193 8.2882e-05 -0.00014291043 0.00039183942 1.8849165e-05 0.0002232318 0.00015416445
-9.3427014e-05 0.00043800203 -0.00024923708 0.00015383685 1.9732814e-05 -7.020867e-05 -0.0001322028 0.00017458983
1.8390747e-05 -1.0008757e-05 -1.6526703e-05 4.776062e-05 -7.854183e-05 4.8063655e-05 -9.4171904e-05 -0.00020752252
00000000: d489 e439 38b2 0736 bd87 2239 ce13 2738
00000010: 8c51 2736 793f 2fb8 66e8 c93a c009 af36
00000020: 4880 57b9 21de 5c37 5b14 7a38 39ef 2538
00000030: 6320 37b8 7f3e 7339 6b0a 1f3b b5d0 5939
00000040: ef13 af39 393f 1039 6ed2 3a39 e040 d139
00000050: 9216 0138 3eea c8b8 c0d9 6db8 3c0c edb9
00000060: 1fed d5b7 65a7 14b8 66ee 0539 c974 2339
00000070: 45b1 ddb9 ca54 c837 74ba 9139 db42 56b8
00000080: bdff 0139 3088 c6b8 8687 f838 aa2d 91b7
00000090: ac51 e63a 26bc 83b7 c09f 1fb8 d7eb eb39
000000a0: 3980 b937 dd82 ba39 2e72 ae3a af08 dcb8
000000b0: 39db af38 d9e7 b938 8764 a938 073b 93b9
000000c0: 7898 b939 b300 57b7 7c06 a4b9 b677 06b9
000000d0: a1dd 6a39 d857 3839 982c da39 50fb d8b7
000000e0: dc8f d539 cd96 84b9 9a9d 64b9 8a0d e237
000000f0: 8906 65b9 c787 273a 8250 3ab8 23ee 0139
00000100: d7b8 1d3a c43a 3638 ba50 95b7 5a8f 0239
00000110: 3a65 8537 f19f e838 c34a 7d3a b381 0d39
00000120: 8149 e738 5d50 f538 420c b739 9cff 1ab8
00000130: c0b7 81b9 06ea 283b 3510 3b37 6913 283a
00000140: 510b e137 909c 0c39 ac7f 0cb9 6270 8138
00000150: 757c 4438 dbe7 f038 baea 19b9 ea01 6bb8
00000160: c4ab 9a37 c8d1 0138 64e6 dfb9 0434 0139
00000170: 37b3 ac38 0478 11b9 c343 9e38 265d e0b7
00000180: 3f49 feb8 60a9 4bb8 41ef a7b7 709b 46b9
00000190: 6455 aab7 463f 97b9 2911 eb38 e1e8 8b38
000001a0: bb5a 363a 1b92 1e3a 8563 3639 16da 4d38
000001b0: 1732 6d3a 63b9 5a39 cef0 5c38 e12a c638
000001c0: f146 153a 0c4b 95b9 41cc c6b7 ae8c 7737
000001d0: fa84 42ba a6ac bc39 7196 3d39 8cac bbb9
000001e0: ccc8 28b6 5846 89b9 8c19 b639 83f8 1c39
000001f0: 83ff 1139 c6d6 a537 8229 313a 5141 28b9
00000200: 70f1 4e39 e24e 47b8 621d 9a39 d45b 2b39
00000210: f722 1a3a 972c bd37 cdbe 93b8 f751 6f39
00000220: cdde 66b8 4cb0 fb38 b430 843a 52b8 2db8
00000230: 5f81 d4b7 d4d2 1639 a4db bcb7 b16d 8e38
00000240: ed32 4739 6eba 8b37 fe17 8738 ccec 0bb8
00000250: 14c0 4238 4e0d e139 a93e 7bb9 72ac 1838
00000260: 2439 95b8 18bf 4839 d0ed 1bb9 f908 49b9
00000270: 2063 113a ad1c df37 71e1 eb38 8fe3 3d38
00000280: 36b8 1339 b58d 13b9 6aad 6439 0cda 2738
00000290: 6d70 8bb8 5567 3938 b487 ad38 6505 9db9
000002a0: 54bd 4239 0cd9 6e37 692e 103b 2731 c3b8
000002b0: 337f 5db9 716a 62b8 d6f7 d739 c458 4839
000002c0: cde5 5e38 3fc4 c0b8 4b1a 19ba bcc9 25b9
000002d0: 7c8f 9e38 13d2 2438 0324 8537 4d32 70b8
000002e0: 85bd 0bb9 2d67 2db9 d5f7 203a 7aa4 1f37
000002f0: 04c6 8f38 fc57 e438 8972 e23a ca86 19b6
00000300: 7f89 d539 e88e 1339 9ca9 2e38 7e63 ae38
00000310: c8eb 4a38 a84d d9b8 6931 2c39 792f a23a
00000320: f3c7 1339 cbe0 0539 1a47 a2b9 9bda d4b6
00000330: 24b6 7db8 3ddd da38 6a4e 0f3a 6ef2 0fb9
00000340: d80d 8f37 8540 a8b7 3dfd f038 9a2a a0b8
00000350: 550f e8b7 fd07 25b9 e922 193a a2fc 9ab7
00000360: 69cf 2339 7ee2 9338 7b99 8b39 cc67 e937
00000370: 15fb 18b9 e72e a6b8 75e9 8db9 8361 0238
00000380: 8233 55b9 ca5b 6d38 713b 6e38 c5ab b2b8
00000390: 7b0e f0b9 c9b2 d2b8 2deb 9f37 24aa ac38
000003a0: 77d9 1b39 2724 f238 efd0 ad38 3ada 15b9
000003b0: cc6f cd39 461e 9e37 5413 6a39 34a7 2139
000003c0: 3fee c3b8 a3a3 e539 09ac 82b9 444f 2139
000003d0: e587 a537 fe3c 93b8 eb9f 0ab9 1a12 3739
000003e0: d445 9a37 49eb 27b7 d3a2 8ab7 9352 4838
000003f0: d3b6 a4b8 f597 4938 287e c5b8 679a 59b9

gbrbm.W f4 [200, 100]
0.003991758 0.0024438617 -0.011105136 0.0017624504 -0.00015301123 0.00071653514 -0.0018714729 -0.0041066133
0.001428387 -0.002002831 0.002790979 0.00047806627 -0.0026037444 -0.0014111795 -0.00021207334 0.0020279665
0.0019275155 0.001249353 0.0014393799 0.0023440868 9.912469e-05 0.005058938 -0.006063469 -0.001491814
0.0042558652 -0.002094136 -0.0057242913 0.00030249683 0.005326666 -0.0008949381 0.0023148337 -0.0024016576
-0.0006458532 -0.0065674325 0.0024986954 -0.0037012761 -0.0007417155 -0.0010592982 0.00022247418 -0.0040737926
-0.00017315372 -0.0006930858 0.0012171294 0.0034678876 0.0015967094 -0.0023532205 0.002292577 0.0013716898
-0.004427858 -0.004917958 0.0028047601 0.004577301 0.00096605 0.0038226694 -0.0025354081 -0.0013554821
0.0010069873 0.0015579672 -0.00068300223 0.0018469478 0.0015440257 0.0016672504 -0.0007176876 0.00032779394
9.5590534e-05 0.0028866418 0.002827666 0.0022076378 -0.0025817817 0.0014999234 0.0020568972 -0.0035041792
-0.0020709662 0.0014931716 0.0025947713 -0.0027891286 -0.0032086868 0.005644888 0.004104125 -0.0013657644
-0.000372066 0.00018055616 0.0019078056 0.0037390909 0.0032190988 0.0012640296 0.0035789437 -0.00017062051
-0.002765708 0.0019502286 0.0014200634 -0.0035374574 0.0021656726 0.00053172495 -0.0003927125 -0.00063117733
0.0011370335 0.004144238 0.001297813 0.0023272978 -0.00058336474 0.005863568 0.0018226058 0.0029953937
0.00016050528 -0.0014819507 -0.0032467048 -0.002168189 -0.00048362245 0.0016722856 0.004801211 0.0044662943
0.0026064455 0.0010670476 -0.0009347071 0.0009085515 0.0004963085 0.00086096575 0.008965573 0.0010647688
0.00075031957 0.0047526984 0.0029495014 0.00084555655 0.003394207 0.0008768207 -0.0003036291 -0.0004476056
0.0063932454 -0.0023893681 0.0006146088 -0.0020549702 0.0019204817 0.0043032616 -0.00017610182 0.0002499357
8.046187e-05 -0.00096475775 -0.0027430037 0.0020451248 -0.0016147709 -1.994498e-05 -0.0006718074 -0.0014415409
0.0005059877 0.00022719699 0.0027447583 0.0027126423 -0.0016138249 -0.0008010873 -0.0014751767 0.00025716625
0.0014384054 -0.001721808 -0.002327116 0.0015452608 -0.004480361 0.0013025852 0.00041104172 0.0009138741
0.0035399825 0.003259711 -0.0013553597 0.0052161566 0.0012744524 -0.00072483724 -0.0010229164 -0.00047362963
0.0018498922 0.00070637645 2.5113602e-06 0.0048931474 0.00088512787 0.0015386282 0.004288493 -0.0015379682
0.0012188167 -0.00394524 0.0020018294 -0.0016261878 0.0007619827 0.0015658325 0.0010309544 0.0023968366
0.0016739628 0.0005886203 0.001711782 -0.001640452 0.0012700178 -0.00089150574 -0.00043462517 -0.0010788874
-8.612507e-05 0.007222063 0.0010050677 0.0021084116 0.0015253986 0.0020315924 -0.0006052893 0.0033817932
-0.002380013 0.0015797007 -4.978681e-05 -0.0013190173 -0.000568457 -0.005395966 -0.0011868493 -0.00081547594
-0.00012385608 -0.0016063566 0.000544854 -0.000104846724 0.00086416415 -0.010051255 0.00026334586 -0.00080387347
-0.0038855108 -0.0012232536 0.0027374227 0.0011515818 -0.0013274986 0.0004687468 -0.00051148713 0.00207454
0.0015759055 -0.00072410813 0.007085661 -0.0027132055 -0.0013335778 -0.00016767501 -0.0037320436 -0.0022616088
0.00023329104 0.0045862882 0.0021983986 0.0015032962 -0.0005984727 0.0021627366 0.0024918574 -0.0030208381
-0.0013952833 -0.002313832 0.0011473735 0.0029140713 0.00034850836 -0.0022065993 -0.0017549192 0.00090377254
0.0027730102 0.00035399958 -0.0031240466 3.681149e-05 -0.0017265845 0.0021610777 0.0024493162 -0.0018505951
00000000: 4bcd 823b 3229 203b 51f2 35bc 0602 e73a
00000010: a471 20b9 dcd5 3b3a 364c f5ba c590 86bb
00000020: b738 bb3a ee41 03bb dce8 363b f8a4 fa39
00000030: 95a3 2abb 54f7 b8ba 0160 5eb9 a2e7 043b
00000040: b0a4 fc3a 55c1 a33a 93a9 bc3a 409f 193b
00000050: 2ae1 cf38 73c5 a53b 11b0 c6bb f988 c3ba
00000060: c974 8b3b c63d 09bb d692 bbbb 7098 9e39
00000070: 508b ae3b 479a 6aba 77b4 173b 2165 1dbb
00000080: 794e 29ba 9e33 d7bb 27c1 233b 1c91 72bb
00000090: af6f 42ba 26d8 8aba f547 6939 737d 85bb
000000a0: 9990 35b9 33b0 35ba 1688 9f3a 8045 633b
000000b0: ad48 d13a 7d38 1abb 0f3f 163b 46ca b33a
000000c0: 9117 91bb d226 a1bb 11d0 373b 2ffd 953b
000000d0: 853e 7d3a c085 7a3b 1729 26bb 6faa b1ba
000000e0: e3fc 833a b434 cc3a 810b 33ba 4915 f23a
000000f0: e860 ca3a a487 da3a 3323 3cba c2db ab39
00000100: c777 c838 d02d 3d3b 5d50 393b 04ae 103b
00000110: 1c33 29bb 1499 c43a 02cd 063b 5fa6 65bb
00000120: 0cb9 07bb 86b6 c33a 0a0d 2a3b d0c9 36bb
00000130: d548 52bb c1f8 b83b e57b 863b 7303 b3ba
00000140: da11 c3b9 ad53 3d39 550f fa3a 890b 753b
00000150: 84f7 523b ccad a53a b68c 6a3b 98e8 32b9
00000160: e140 35bb d09e ff3a 6c21 ba3a b0d4 67bb
00000170: f5ed 0d3b 7563 0b3a fbe4 cdb9 9875 25ba
00000180: 8308 953a 63cc 873b 611b aa3a 9485 183b
00000190: f2ec 18ba 2c23 c03b 81e4 ee3a 5e4e 443b
000001a0: 4f4d 2839 043e c2ba abc6 54bb 2d18 0ebb
000001b0: b58e fdb9 9830 db3a 7a53 9d3b fe59 923b
000001c0: e6d0 2a3b 2ddc 8b3a 2207 75ba dc2b 6e3a
000001d0: b31a 023a 6fb2 613a 57e4 123c b68f 8b3a
000001e0: 18b1 443a 86bc 9b3b 6c4c 413b 57a8 5d3a
000001f0: 5871 5e3b 71da 653a 6830 9fb9 9bac eab9
00000200: 6e7e d13b f296 1cbb b31d 213a aeac 06bb
00000210: acb8 fb3a 6002 8d3b f9a7 38b9 cd09 8339
00000220: a3bd a838 cce7 7cba f7c3 33bb 8007 063b
00000230: b8a6 d3ba 854f a7b7 3b1c 30ba 16f2 bcba
00000240: 42a4 043a ba3b 6e39 67e1 333b 96c6 313b
00000250: fa86 d3ba 0f00 52ba b75a c1ba 45d4 8639
00000260: e088 bc3a 4aae e1ba 8782 18bb 598a ca3a
00000270: fecf 92bb 82bb aa3a 1681 d739 0d91 6f3a
00000280: 0dff 673b e0a0 553b 53a6 b1ba 4bec aa3b
00000290: 870b a73a 0103 3eba 6113 86ba 7e51 f8b9
000002a0: 1578 f23a 1f2c 393a d788 2836 b256 a03b
000002b0: ed07 683a ccab c93a 7d86 8c3b a695 c9ba
000002c0: b4c0 9f3a 1247 81bb 2031 033b cf25 d5ba
000002d0: cbbf 473a 9f3c cd3a 1721 873a 3f14 1d3b
000002e0: df68 db3a a44d 1a3a df5d e03a 6f04 d7ba
000002f0: ba76 a63a f0b3 69ba 67de e3b9 7469 8dba
00000300: 0b9e b4b8 0ea7 ec3b 7abc 833a 472d 0a3b
00000310: e2ef c73a 7724 053b 47ac 1eba 13a1 5d3b
00000320: fef9 1bbb f60d cf3a 2ed2 50b8 e0e2 acba
00000330: 8104 15ba a5d0 b0bb 0e90 9bba aac5 55ba
00000340: 5ddf 01b9 628c d2ba 88d4 0e3a 28e1 dbb8
00000350: 1389 623a 05ae 24bc af11 8a39 09bb 52ba
00000360: 0ea4 7ebb 9455 a0ba 5566 333b acf0 963a
00000370: 76ff adba 21c2 f539 5215 06ba 01f5 073b
00000380: 9d8e ce3a 13d2 3dba d52e e83b 09d0 31bb
00000390: 72cb aeba ebd1 2fb9 4d95 74bb 8037 14bb
000003a0: 969f 7439 9348 963b 0213 103b 400a c53a
000003b0: d3e2 1cba b3bc 0d3b 6e4e 233b 41f9 45bb
000003c0: f0e1 b6ba a9a3 17bb 7763 963a 01fa 3e3b
000003d0: 00b8 b639 989c 10bb 5105 e6ba 26eb 6c3a
000003e0: 64bb 353b 0599 b939 cebc 4cbb 0966 1a38
000003f0: 904e e2ba dea0 0d3b b584 203b ab8f f2ba

gbrbm.b f4 [100]
-1.7044916 -1.8765411 -1.7872913 -1.7991157 -1.7989867 -1.7893634 -2.7137632 -1.9320145
-1.7702793 -1.7860912 -1.8632466 -1.6363516 -1.7903984 2.2964447 -1.9108995 -1.5187594
-1.8993702 -1.7671219 -1.8692379 -1.6054535 -1.7721815 -1.8923849 -1.9361904 -1.7735177
-1.8414634 -1.7283463 -1.7006055 -1.7011397 -1.7870419 -1.7114544 -1.7754493 -1.5938416
-1.5589769 -1.6941788 -1.9337608 -1.9648752 -1.6729409 -1.8763893 -1.7524955 -1.8377045
-1.5529755 -1.750635 -1.6620005 -1.6652726 -1.5515146 -1.3642281 -1.8267592 -1.5287869
-1.7519685 -1.7355984 -1.7737377 -1.8579017 -1.4975393 -2.0352194 -1.5809462 -1.7540524
-1.9536104 -1.8202281 -1.8562663 -1.4533377 -1.3933307 -1.7528603 -1.3842008 -1.5432317
-1.7643409 -1.5632409 -1.566904 -1.7922965 -1.8152418 -1.8015567 -1.8222644 -1.8760184
-1.9884995 -1.7805002 -1.8177588 -1.9696747 -1.7522533 -1.7527294 -1.8494966 -1.7247537
-1.8978084 -1.786616 -2.0121417 -2.089295 -1.9588748 -1.754076 -1.688091 -1.4736248
-1.9697098 -1.6462246 -1.6646073 -1.8687712 -2.0013914 -1.90669 -1.8621783 -1.6584964
-1.7793431 -2.0088956 -1.658946 -1.9281129
00000000: c82c dabf 8032 f0bf f6c5 e4bf 6c49 e6bf
00000010: 3245 e6bf dc09 e5bf 4cae 2dc0 404c f7bf
00000020: 8398 e2bf a39e e4bf dd7e eebf f873 d1bf
00000030: c62b e5bf f3f8 1240 5b98 f4bf b566 c2bf
00000040: 901e f3bf 0d31 e2bf 3043 efbf 807f cdbf
00000050: d8d6 e2bf ab39 f2bf 16d5 f7bf a102 e3bf
00000060: 13b5 ebbf 743a ddbf 71ad d9bf f2be d9bf
00000070: cabd e4bf f010 dbbf ec41 e3bf 0003 ccbf
00000080: 8e8c c7bf dada d8bf 7985 f7bf 0881 fbbf
00000090: ed22 d6bf 862d f0bf c651 e0bf e739 ebbf
000000a0: e7c7 c6bf cf14 e0bf 6fbc d4bf a727 d5bf
000000b0: 0898 c6bf 079f aebf 3fd3 e9bf 4aaf c3bf
000000c0: 8140 e0bf 1728 debf d609 e3bf b9cf edbf
000000d0: 5eaf bfbf 0941 02c0 725c cabf ca84 e0bf
000000e0: e80f fabf 3cfd e8bf 229a edbf f806 babf
000000f0: a958 b2bf ba5d e0bf 7e2d b1bf 9e88 c5bf
00000100: ecd5 e1bf 4718 c8bf 4f90 c8bf f969 e5bf
00000110: d859 e8bf 6999 e6bf f63f e9bf 5f21 f0bf
00000120: 2787 febf 6ee7 e3bf 52ac e8bf 4d1e fcbf
00000130: d649 e0bf 7059 e0bf 4ebc ecbf bbc4 dcbf
00000140: 63eb f2bf d5af e4bf eec6 00c0 02b7 05c0
00000150: 69bc fabf 9085 e0bf 5e13 d8bf bd9f bcbf
00000160: 731f fcbf 7db7 d2bf da11 d5bf e533 efbf
00000170: cc16 00c0 6b0e f4bf dc5b eebf 9c49 d4bf
00000180: 84c1 e3bf bf91 00c0 5858 d4bf 67cc f6bf

gbrbm.mu f4 [200]
0.0062366715 -0.06281726 0.0095795635 0.02237548 0.00017050044 -0.006091282 0.0123119345 0.014409563
-0.0030820556 0.003113245 -0.009370365 0.001263934 0.0030302892 -0.02717183 0.10163329 -0.020972691
-0.011435949 0.010564883 0.011543063 8.2772145e-05 0.003507743 0.011447021 -0.032575645 0.0028625026
-0.013492353 0.030635191 -0.022078598 0.0076451837 -0.03135794 -0.0011806465 -0.009442591 -0.009267276
0.011822385 -0.035665106 0.0059591904 0.0025656673 -0.17467855 0.018072186 0.10405495 -0.010726439
-0.008811887 0.050845142 0.09841103 -0.011071129 0.028990917 -0.020078937 0.0023681044 -0.034950875
0.055592395 0.021974502 -0.013330999 0.01593995 0.00092001696 0.027798211 0.013737733 -0.02035259
0.013996366 -0.033510394 -0.011638919 0.016238065 0.009502754 -0.018086756 0.009432389 -0.0045627183
-0.0061984397 -0.0063125067 0.0001857457 0.02810889 -0.015994985 0.0056430493 -0.008277898 -0.0027570997
0.00830778 -0.004853925 -0.009208439 -0.0038377356 0.0070122047 -0.12666672 -0.0007039175 0.014386016
-0.006153295 0.009699197 -0.06938608 -0.009352202 0.015947785 -0.011188247 0.018810613 -0.009444707
-0.0037746017 0.04213113 -0.004807464 0.01130286 0.014335337 -0.07665203 0.022003578 0.011649499
0.024888493 -0.012887845 -0.0033412336 -0.027328549 -0.019082304 0.017952465 0.016934855 0.023721177
0.101849884 0.023342893 0.005624455 -0.0028142952 -0.023863442 0.009637416 0.0071713617 0.012526522
0.061247993 0.008724853 -0.057004537 -0.010815826 -0.015939372 -0.016305463 0.0020838166 0.010152579
-0.022915289 -0.0022863215 -0.01559239 -0.054169606 0.020271743 -0.0418928 -0.0029388121 -0.071349025
-0.011027216 -0.017442184 -0.0178944 0.0057935226 -0.034812286 0.012647992 -0.015174091 0.018987212
0.0006358379 -0.016725486 0.17194185 -0.022354783 -0.0030208295 0.0027667794 0.03217824 -0.009471466
0.0031985112 0.019695118 0.0041167694 0.051764235 -0.027148722 0.015794434 0.011027065 0.04142697
0.004348857 0.011881163 0.0060373074 -0.01404843 0.0052006296 0.008740627 -0.026490277 0.017703582
-0.011191438 -0.013081026 0.023380378 0.008499722 0.0006409444 0.02149359 0.055340763 -0.0009794374
0.011890509 -0.006841356 0.19320308 0.0072265672 0.00852893 0.007844098 0.014034378 0.09347534
-0.013216 0.017998584 0.00216111 0.020189997 0.014707091 -0.0048518768 -0.0023738823 0.030560942
0.034784365 -0.011783264 0.019290883 0.051862966 0.012169547 0.0020918606 0.18540867 0.011293558
-0.018858291 0.01765502 0.0072571547 0.010907621 0.012180738 -0.022770423 -0.005697222 -0.1738597
00000000: fe5c cc3b 56a6 80bd 9af3 1c3c c84c b73c
00000010: 5dc8 3239 6099 c7bb ffb7 493c 1616 6c3c
00000020: 50fc 49bb 9507 4c3b 2986 19bc 96aa a53a
00000030: d197 463b 7597 debc 1d25 d03d ecce abbc
00000040: d95d 3bbc 5518 2d3c 1e1f 3d3c f595 ad38
00000050: 29e2 653b 498c 3b3c 0a6e 05bd d398 3b3b
00000060: 080f 5dbc a7f6 fa3c 2dde b4bc 7384 fa3b
00000070: 2f71 00bd ecbf 9aba 19b5 1abc c6d5 17bc
00000080: adb2 413c 9315 12bd 5045 c33b c124 283b
00000090: efde 32be 1f0c 943c c31a d53d f2bd 2fbc
000000a0: bc5f 10bc ff42 503d b98b c93d ae63 35bc
000000b0: 5c7e ed3c 957c a4bc 3332 1b3b a628 0fbd
000000c0: dab4 633d df03 b43c 436a 5abc 7f94 823c
000000d0: 4b2d 713a 13b9 e33c 3a14 613c 7aba a6bc
000000e0: 0451 653c 3242 09bd 2ab1 3ebc b105 853c
000000f0: 70b1 1b3c ad2a 94bc 4f8a 1a3c db82 95bb
00000100: 481c cbbb 25d9 cebb bbc4 4239 9d44 e63c
00000110: ea07 83bc 54e9 b83b 05a0 07bc 75b0 34bb
00000120: 5b1d 083c ad0d 9fbb fede 16bc 8582 7bbb
00000130: a3c6 e53b ecb4 01be 1b87 38ba 53b3 6b3c
00000140: 94a1 c9bb 61e9 1e3c 4a1a 8ebd fa39 19bc
00000150: eea4 823c e94e 37bc b718 9a3c f9bd 1abc
00000160: 4f5f 77bb b191 2c3d ee87 9dbb a22f 393c
00000170: c3de 6a3c bdfb 9cbd d940 b43c 8add 3e3c
00000180: f4e2 cb3c 8a27 53bc 99f8 5abb 1fe0 dfbc
00000190: 7e52 9cbc 0c11 933c f7ba 8a3c ea52 c23c
000001a0: ac96 d03d 9839 bf3c 594d b83b 0a70 38bb
000001b0: 447d c3bc 41e6 1d3c befd ea3b 0b3c 4d3c
000001c0: 2ddf 7a3d b0f2 0e3c 977d 69bd dd34 31bc
000001d0: 4993 82bc 0993 85bc a490 083b 0157 263c
000001e0: d8b8 bbbc 1cd6 15bb 3977 7fbc f3e0 5dbd
000001f0: ed10 a63c c997 2bbd 1699 40bb 701f 92bd
00000200: 7fab 34bc e9e2 8ebc 4797 92bc 97d7 bd3b
00000210: 5497 0ebd 8639 4f3c c09c 78bc 128b 9b3c
00000220: 5cae 263a e303 89bc 8611 303e 6121 b7bc
00000230: 1cf9 45bb db52 353b 55cd 033d 352e 1bbc
00000240: 1d9e 513b a857 a13c f7e5 863b bc06 543d
00000250: ff66 debc 5463 813c ddaa 343c 54af 293d
00000260: db80 8e3b 36a9 423c 9bd4 c53b 632b 66bc
00000270: 0b6a aa3b d934 0f3c 2302 d9bc 1a07 913c
00000280: 4b5c 37bc cd51 56bc 3588 bf3c 6b42 0b3c
00000290: 0d05 283a 5313 b03c ffac 623d 7760 80ba
000002a0: 69d0 423c 742d e0bb 07d7 453e d7cc ec3b
000002b0: edbc 0b3c 8884 003c 73f0 653c 0070 bf3d
000002c0: ec87 58bc c471 933c 69a1 0d3b 7e65 a53c
000002d0: 03f6 703c 7efc 9ebb 2393 1bbb f15a fa3c
000002e0: 0d7a 0e3d 970e 41bc ea07 9e3c 436e 543d
000002f0: c862 473c 9917 093b c5db 3d3e 9e08 393c
00000300: b47c 9abc 43a1 903c 6dcd ed3b e1b5 323c
00000310: b891 473c 0a89 babc c3af babb 4708 32be

gbrbm.log_var f4 [200]
-6.7422514 -6.98321 -7.068243 -7.023824 -6.916609 -6.978788 -5.5451603 -6.94777
-7.077014 -7.0299783 -6.8896403 -7.0318093 -7.0402894 -6.9955397 -5.871478 -7.055726
-6.7876086 -7.055593 -6.956843 -7.0128827 -7.0222707 -6.9915195 -6.9476037 -7.017197
-7.01021 -6.8350143 -6.955401 -6.984819 -7.038195 -7.0616984 -7.00599 -7.0515428
-6.802206 -7.044589 -7.039285 -7.01757 -6.509114 -6.9741745 -6.8344917 -6.929184
-7.0597224 -7.044237 -6.9510884 -7.055527 -6.9912233 -6.9981923 -7.0149484 -7.0538287
-6.8872075 -7.012277 -7.018327 -7.064119 -7.0251393 -7.004356 -7.0343823 -7.017885
-7.0188856 -6.9949584 -7.056375 -6.850646 -6.977246 -6.9363084 -7.025271 -7.0582504
-6.880905 -7.031963 -7.038109 -6.8552823 -7.0360913 -7.048425 -6.5698166 -6.9744444
-6.958999 -7.017739 -6.986068 -6.9906383 -7.038158 -5.836941 -7.057259 -6.9676776
-6.9821568 -6.9356365 -6.9310093 -7.0431366 -7.0616374 -7.0383315 -7.036818 -7.036032
-6.988403 -6.944067 -7.0084577 -7.012619 -7.030797 -6.983639 -6.996487 -6.948225
-7.0597434 -7.028772 -7.0433083 -6.9641833 -6.996584 -6.949844 -7.0253057 -6.9985423
-6.7255015 -6.927607 -7.0228677 -7.01391 -6.846045 -7.0480657 -7.051775 -7.0346107
-6.903779 -7.015793 -6.994612 -6.975118 -7.0358925 -6.986084 -6.9873295 -7.029484
-7.000339 -6.9774203 -7.032233 -6.9432187 -6.973621 -6.8845577 -6.763089 -6.9280796
-7.0364637 -7.0606785 -6.9854107 -6.9718904 -6.872527 -7.061267 -7.00695 -6.8518248
-7.052573 -6.9797025 -6.851973 -6.985436 -7.0617185 -7.04473 -6.9437647 -6.999205
-7.0081162 -6.9693675 -7.0399804 -6.982889 -7.0133476 -6.8693204 -7.015792 -7.0356145
-6.969984 -7.0558205 -6.9723344 -7.0538526 -7.0380235 -7.0321717 -6.9854255 -7.0416327
-6.9180846 -6.9445577 -6.9669347 -7.0121665 -7.0362945 -7.031099 -6.9882336 -6.9719524
-6.9796867 -6.9267077 -6.470529 -7.062647 -7.00198 -7.054189 -7.017721 -6.990701
-7.0156946 -6.9393783 -7.0463123 -7.0588894 -7.058771 -6.950967 -7.054896 -6.940565
-7.007567 -7.0294943 -7.0506754 -6.970449 -7.015916 -7.0550714 -6.3054466 -6.9906683
-7.003297 -6.7732735 -7.0479703 -7.036991 -6.994236 -6.9727006 -7.0002017 -6.7010627
00000000: 86c0 d7c0 7576 dfc0 0c2f e2c0 2bc3 e0c0
00000010: dc54 ddc0 3b52 dfc0 f471 b1c0 2254 dec0
00000020: e676 e2c0 95f5 e0c0 ef77 dcc0 9504 e1c0
00000030: 0d4a e1c0 76db dfc0 26e3 bbc0 82c8 e1c0
00000040: 1734 d9c0 6bc7 e1c0 759e dec0 8969 e0c0
00000050: 71b6 e0c0 87ba dfc0 c552 dec0 e18c e0c0
00000060: a453 e0c0 70b8 dac0 a592 dec0 a383 dfc0
00000070: e538 e1c0 6ff9 e1c0 1231 e0c0 3da6 e1c0
00000080: acab d9c0 466d e1c0 d341 e1c0 ef8f e0c0
00000090: a94a d0c0 702c dfc0 28b4 dac0 e0bb ddc0
000000a0: 3fe9 e1c0 646a e1c0 516f dec0 e1c6 e1c0
000000b0: 1ab8 dfc0 31f1 dfc0 757a e0c0 f7b8 e1c0
000000c0: 0164 dcc0 9364 e0c0 2396 e0c0 430d e2c0
000000d0: f1cd e0c0 af23 e0c0 a919 e1c0 8492 e0c0
000000e0: b69a e0c0 b3d6 dfc0 d3cd e1c0 7e38 dbc0
000000f0: 9945 dfc0 3df6 ddc0 05cf e0c0 30dd e1c0
00000100: 6030 dcc0 d705 e1c0 3038 e1c0 795e dbc0
00000110: a927 e1c0 b38c e1c0 f03b d2c0 a62e dfc0
00000120: 1fb0 dec0 5191 e0c0 de8d dfc0 4fb3 dfc0
00000130: 9738 e1c0 38c8 bac0 11d5 e1c0 37f7 dec0
00000140: d46d dfc0 bcf0 ddc0 d4ca ddc0 6061 e1c0
00000150: eff8 e1c0 033a e1c0 9d2d e1c0 2d27 e1c0
00000160: ffa0 dfc0 cc35 dec0 4945 e0c0 6067 e0c0
00000170: 4afc e0c0 f879 dfc0 39e3 dfc0 dc57 dec0
00000180: 6be9 e1c0 b3eb e0c0 c862 e1c0 97da dec0
00000190: 04e4 dfc0 1f65 dec0 4ecf e0c0 0ff4 dfc0
000001a0: 4f37 d7c0 f5ae ddc0 55bb e0c0 f371 e0c0
000001b0: cd12 dbc0 c189 e1c0 24a8 e1c0 881b e1c0
000001c0: c2eb dcc0 6081 e0c0 ddd3 dfc0 2b34 dfc0
000001d0: 0826 e1c0 008e dfc0 3498 dfc0 88f1 e0c0
000001e0: c702 e0c0 0747 dfc0 0e08 e1c0 d92e dec0
000001f0: e727 dfc0 4c4e dcc0 3a6b d8c0 d4b2 ddc0
00000200: b62a e1c0 14f1 e1c0 7c88 dfc0 ba19 dfc0
00000210: beeb dbc0 e6f5 e1c0 ef38 e0c0 2642 dbc0
00000220: aeae e1c0 b959 dfc0 5d43 dbc0 b188 dfc0
00000230: 99f9 e1c0 6e6e e1c0 5233 dec0 7df9 dfc0
00000240: 7d42 e0c0 0f05 dfc0 8547 e1c0 d473 dfc0
00000250: 586d e0c0 79d1 dbc0 5e81 e0c0 c123 e1c0
00000260: 1c0a dfc0 48c9 e1c0 5d1d dfc0 29b9 e1c0
00000270: 7d37 e1c0 8d07 e1c0 9b88 dfc0 0e55 e1c0
00000280: f360 ddc0 d139 dec0 21f1 dec0 ab63 e0c0
00000290: 5329 e1c0 c3fe e0c0 9c9f dfc0 3c1a dfc0
000002a0: 9859 dfc0 97a7 ddc0 930e cfc0 3401 e2c0
000002b0: 3810 e0c0 ebbb e1c0 2c91 e0c0 d3b3 dfc0
000002c0: 9280 e0c0 630f dec0 647b e1c0 6ce2 e1c0
000002d0: 74e1 e1c0 526e dec0 b5c1 e1c0 1c19 dec0
000002e0: fd3d e0c0 9ef1 e0c0 229f e1c0 eb0d dfc0
000002f0: 6282 e0c0 25c3 e1c0 38c6 c9c0 8eb3 dfc0
00000300: 021b e0c0 a8be d8c0 f988 e1c0 082f e1c0
00000310: c8d0 dfc0 5d20 dfc0 a701 e0c0 1b6f d6c0

gbrbm.linear_layer.weight f4 [1, 100]
0.075050175 -0.105338395 0.12471026 0.32275242 0.15183055 -0.09655581 0.5735695 0.10392241
0.07404211 0.22707197 0.13033685 -0.10608156 0.22660954 -0.2743554 0.034213386 0.028017256
-0.02694867 -0.020999203 0.01531485 0.044808637 -0.006584557 0.03321104 -0.014703574 -0.026235465
-0.059926573 0.13584928 0.053914644 0.03136536 0.08739811 0.13906801 -0.11444833 0.086918816
0.30546984 0.21162108 0.26057634 0.20998222 -0.017080894 0.21648446 -0.11837611 -0.17678457
0.032225706 -0.0045511005 0.35916823 0.11283964 0.17373237 -0.14837694 -0.033712365 -0.16638532
0.42208496 0.27567062 0.14799303 0.15730205 -0.096406095 -0.0060800957 -0.03677714 0.020395929
0.16439933 -0.05458352 0.24264616 0.1522094 -0.07124093 0.16955352 0.043860406 0.21880575
0.07962935 0.040065948 0.042762622 0.018791912 0.17024596 0.17276944 0.19922009 -0.037934188
0.27357948 0.2253094 0.17388251 0.07602463 0.17597823 0.056193493 0.13829264 0.15096408
0.0069621727 -0.037262846 0.09350544 0.00066145323 0.17151773 0.11933996 -0.2528284 0.15542501
0.01675458 -0.106154785 0.067537844 0.14519665 0.25332958 -0.018514823 0.18792473 -0.11665763
0.19322579 0.25021362 0.016304795 -0.016732391
00000000: e8b3 993d a8bb d7bd 1868 ff3d ce3f a53e
00000010: 7879 1b3e 0dbf c5bd 73d5 123f 46d5 d43d
00000020: 64a3 973d 8e85 683e 0677 053e 4a41 d9bd
00000030: 550c 683e 5078 8cbe 5623 0c3d 7284 e53c
00000040: 75c3 dcbc 8506 acbc 23eb 7a3c 4389 373d
00000050: 44c3 d7bb 4d08 083d 42e7 70bc c2eb d6bc
00000060: 9175 75bd 131c 0b3e 9ad5 5c3d f778 003d
00000070: c8fd b23d d867 0e3e e363 eabd 7e02 b23d
00000080: 8b66 9c3e 32b3 583e 436a 853e 9405 573e
00000090: 3bed 8bbc 1aae 5d3e 2d6f f2bd 0407 35be
000000a0: 1aff 033d 6621 95bb e6e4 b73e 7818 e73d
000000b0: e6e6 313e 20f0 17be fa15 0abd ea60 2abe
000000c0: 851b d83e b324 8d3e 7c8b 173e ca13 213e
000000d0: 8f70 c5bd 8a3b c7bb a0a3 16bd 5d15 a73c
000000e0: 4c58 283e f892 5fbd 3c78 783e c8dc 1b3e
000000f0: c4e6 91bd 709f 2d3e f8a6 333d 9d0e 603e
00000100: b614 a33d 311c 243d dc27 2f3d 7ff1 993c
00000110: f554 2e3e 79ea 303e 5a00 4c3e e160 1bbd
00000120: 9c12 8c3e 82b7 663e 420e 323e cdb2 9b3d
00000130: a333 343e 262b 663d 969c 0d3e 5496 1a3e
00000140: f022 e43b eda0 18bd c87f bf3d 6065 2d3a
00000150: 58a2 2f3e 8268 f43d b972 81be bc27 1f3e
00000160: e740 893c ae67 d9bd 4851 8a3d 6eae 143e
00000170: 6ab4 813e 66ac 97bc 576f 403e 32ea eebd
00000180: fbdc 453e 001c 803e a291 853c 5e12 89bc
