final_project/lstm_gbrbm/type2/lstm_gbrbm_W20_H50_V25_B16_D2.pt (torch, 57497 bytes, 9 tensors)

lstm_layer.lstm1.weight_ih_l0 f4 [200, 9]
0.00041226787 0.00048524066 0.00035947902 0.00040969893 0.00039302808 0.0004062711 0.00035588702 0.0002461217
8.28557e-05 0.0047749295 -0.00024275859 0.0023925623 -0.0005747772 0.0022031341 0.002401539 0.0023167958
0.001471046 0.0007044039 0.0006959565 -0.00089695974 0.00020774601 0.00010640347 0.00020696085 0.00019027674
0.00019195558 0.00015528109 9.8955985e-05 -0.0007466154 0.0013845043 -0.0003347474 -0.00018348212 -0.00013050037
-0.000129984 -0.00011674426 -0.000592785 -0.000772035 0.0007778597 0.00019600526 -0.00047531302 0.00057523494
-0.000301063 -0.00038194726 -0.00041249077 -0.0006257906 -0.0004449028 3.3026663e-06 -0.00044854742 0.00015305073
0.00037293075 0.0002183452 0.00020424325 0.00015998444 4.751437e-05 -5.4711818e-05 0.0012884974 0.00051330304
-3.3677272e-05 -0.0012615108 4.1162926e-05 2.7690347e-05 -4.0352363e-05 -0.00021337882 -0.00059715356 0.0008935011
-0.0017786861 0.0003532153 -0.0005035841 0.000328457 0.00034905688 0.00024835908 0.00023704041 0.00014658862
0.00013015443 -0.00074900576 0.0003227805 -0.00024786516 0.00010719733 0.00015435391 0.00031728455 0.00048591362
0.00064203097 0.0033382657 0.0016379973 0.0028522187 -0.00047414345 0.0029736971 0.0032082887 0.002460717
0.00081164984 0.0005106051 0.00023138589 -0.0012858985 0.0001781161 -0.0005992899 -7.5973862e-06 0.00012666007
0.00020564673 0.0002535504 0.00017695715 1.6119395e-05 -0.0003796411 0.00053140405 0.00014239506 0.0004930723
0.0005063905 0.00055125303 0.00051759236 0.00037923758 0.00021495034 -0.00030515 8.875153e-05 -2.46479e-05
3.9648792e-05 5.0519593e-05 5.897763e-05 9.182985e-05 6.610438e-05 0.00015567926 -0.0003028124 0.00035295734
-5.116149e-05 0.0003234903 0.00036464538 0.0003270425 0.00035320828 0.00033616295 0.00017880755 -0.00029273416
2.5537096e-05 -7.154044e-05 -4.6313056e-05 -1.5491354e-05 2.2970314e-06 6.805668e-05 8.992513e-05 0.004535718
0.0024935016 0.004054056 -0.0009162931 0.0036794867 0.003980019 0.0038226633 0.0023950608 0.0013665113
0.0046182917 0.0004831495 0.0013317683 0.00018157608 0.0014352008 0.0014222552 0.0010092916 0.00069931644
0.00043626106 0.0040359437 0.00041620096 0.0024111068 0.0001016931 0.0022585327 0.0022854907 0.0023821096
0.0013631748 0.0009993077 0.0035910476 -0.00085451605 0.0018607007 -7.4475315e-07 0.0018693162 0.0018892223
0.0017035481 0.001200836 0.00032062907 8.801434e-05 0.00054019754 8.2923594e-05 0.0002464694 0.00023655755
0.000104282466 8.604619e-05 1.6589614e-05 -4.4591943e-05 0.0048180684 -0.0025746129 0.0017721405 -0.00088379957
0.0016648589 0.00164475 0.0015361782 0.0011858497 0.0008259318 0.0019936687 0.00067794893 0.00021143176
0.00016066557 0.00017354156 0.00020645298 0.00017181197 0.00019431478 0.000113936425 0.0019814319 -0.00184766
0.0014546221 0.00048465075 0.0016777036 0.0015451808 0.0011503384 0.0007258475 0.0004732213 -7.472124e-05
-0.00014909236 -3.3825887e-05 -0.0004699776 -0.00012803948 -9.904457e-05 2.8251594e-05 -1.1925575e-05 0.00016867899
-0.0002670529 -0.00036098962 -3.3164536e-06 0.0011140913 0.00014823127 3.5231147e-05 -5.3478358e-05 -0.00011717264
-0.00019611516 0.0011240739 -0.00041604182 0.00020557309 -0.00034922126 0.0002997345 0.00025483398 0.00020904142
2.0631573e-05 -0.00029359944 0.0003313305 0.00030576682 0.00039682753 0.0010727692 0.0005791445 0.0001949562
0.000104748426 0.00018909136 0.00024027823 0.003406508 0.0011781335 0.0026658378 0.0011782048 0.0029823794
0.0027920336 0.001866889 0.0009847345 0.00054455135 0.004071144 0.00028604842 0.004512746 -0.0006380761
00000000: a825 d839 e667 fe39 7578 bc39 dccc d639
00000010: 560f ce39 c900 d539 5996 ba39 e509 8139
00000020: d1c2 ad38 0377 9c3b 038d 7eb9 89cc 1c3b
00000030: a5ac 16ba 7562 103b 2363 1d3b 62d5 173b
00000040: 1dd0 c03a bfa7 383a da70 363a f321 6bba
00000050: 65d6 5939 ee24 df38 a103 5939 0685 4739
00000060: af47 4939 f3d2 2239 9786 cf38 83b8 43ba
00000070: 4178 b53a 0981 afb9 1b65 40b9 edd6 08b9
00000080: 504c 08b9 99d4 f4b8 2165 1bba 6462 4aba
00000090: 48e9 4b3a c386 4d39 6f33 f9b9 5dcb 163a
000000a0: fed7 9db9 1840 c8b9 9343 d8b9 190c 24ba
000000b0: d841 e9b9 60a3 5d36 042b ebb9 3e7c 2039
000000c0: eb85 c339 98f3 6439 212a 5639 7fc1 2739
000000d0: 2b4a 4738 5e7a 65b8 cce2 a83a 2f8f 063a
000000e0: b240 0db8 4759 a5ba 5ba6 2c38 9148 e837
000000f0: 0540 29b8 71be 5fb9 4c8a 1cba d839 6a3a
00000100: cd22 e9ba c12f b939 f502 04ba c134 ac39
00000110: 9f01 b739 3136 8239 0d8e 7839 95b5 1939
00000120: 107a 0839 ed58 44ba de3a a939 e6f3 81b9
00000130: 21cf e038 10da 2139 3659 a639 39c2 fe39
00000140: f84d 283a cec6 5a3b 12b2 d63a 4aec 3a3b
00000150: 7596 f8b9 5ce2 423b 2742 523b fb43 213b
00000160: e6c4 543a 21da 053a 2da0 7239 988b a8ba
00000170: adc4 3a39 aa19 1dba 0ded feb6 0ed0 0439
00000180: e0a2 5739 f5ee 8439 938d 3939 2338 8737
00000190: 910a c7b9 ec4d 0b3a e24f 1539 8641 013a
000001a0: 4bbf 043a f781 103a 09af 073a 68d4 c639
000001b0: 4b64 6139 8afc 9fb9 1d20 ba38 f6c2 ceb7
000001c0: 914c 2638 00e5 5338 bf5e 7738 c694 c038
000001d0: 85a1 8a38 d53d 2339 cbc2 9eb9 220d b939
000001e0: 3b96 56b8 229a a939 e02d bf39 e776 ab39
000001f0: d02e b939 073f b039 497e 3b39 1d7a 99b9
00000200: 7f38 d637 fb07 96b8 4440 42b8 6ef3 81b7
00000210: b326 1a36 a7b9 8e38 3096 bc38 5ca0 943b
00000220: 046a 233b e3d7 843b 6433 70ba 8b23 713b
00000230: d26a 823b a685 7a3b 74f6 1c3b 831c b33a
00000240: 0a55 973b 3a4f fd39 bb8e ae3a 7565 3e39
00000250: 591d bc3a f76a ba3a 354a 843a 5552 373a
00000260: f8b9 e439 f33f 843b 8c35 da39 a903 1e3b
00000270: 1144 d538 e403 143b 2cc8 153b 2b1d 1c3b
00000280: 8eac b23a 34fb 823a c857 6b3b 9a01 60ba
00000290: c1e2 f33a 0ceb 47b5 d803 f53a c89f f73a
000002a0: 9749 df3a 5f65 9d3a 1b1a a839 5794 b838
000002b0: 0b9c 0d3a 44e7 ad38 9038 8139 6f0c 7839
000002c0: 39b2 da38 b273 b438 ed29 8b37 3c08 3bb8
000002d0: e3e0 9d3b d6ba 28bb 2b47 e83a c9ae 67ba
000002e0: 6537 da3a a794 d73a 9659 c93a 836e 9b3a
000002f0: 5883 583a 36a8 023b 62b8 313a c8b3 5d39
00000300: 5678 2839 b5f8 3539 4d7b 5839 6d28 3439
00000310: fac0 4b39 27f1 ee38 e9da 013b 2f2d f2ba
00000320: 05a9 be3a b918 fe39 64e6 db3a aa87 ca3a
00000330: f4c6 963a cd46 3e3a b01a f839 a9b3 9cb8
00000340: ad55 1cb9 45e0 0db8 5367 f6b9 5642 06b9
00000350: 26b6 cfb8 d6fd ec37 f413 48b7 6cdf 3039
00000360: 3c03 8cb9 3543 bdb9 3d90 5eb6 b306 923a
00000370: 876e 1b39 28c5 1338 f34d 60b8 95ba f5b8
00000380: 43a4 4db9 a955 933a 3020 dab9 1b8f 5739
00000390: af17 b7b9 af25 9d39 3d9b 8539 2132 5b39
000003a0: f711 ad37 40ee 99b9 6db6 ad39 544f a039
000003b0: 4a0d d039 299c 8c3a bbd1 173a 286d 4c39
000003c0: 62ac db38 d346 4639 32f3 7b39 b83f 5f3b
000003d0: 9a6b 9a3a 56b5 2e3b fe6d 9a3a 0674 433b
000003e0: 8dfa 363b 66b2 f43a 3512 813a 39c0 0e3a
000003f0: 3b67 853b c5f8 9539 a8df 933b 9044 27ba

lstm_layer.lstm1.weight_hh_l0 f4 [200, 50]
-1.3222827e-05 1.0122612e-05 7.856498e-06 2.9208394e-07 9.652968e-06 4.5022175e-06 3.3110813e-05 -9.427748e-07
-3.7617465e-05 -1.6290118e-05 5.1286628e-05 3.7850655e-06 7.8207387e-07 -2.0315271e-07 4.883541e-06 2.1682343e-05
-8.065811e-06 8.6645974e-07 -7.0372303e-06 3.3201911e-06 1.39779495e-05 -2.3144954e-05 -3.0857773e-05 -4.029894e-06
-3.983365e-05 7.180524e-06 6.129981e-05 1.7937e-05 -1.9519795e-05 -5.329684e-06 1.3514723e-05 2.2105538e-05
-2.3875822e-05 1.3440157e-05 1.9671547e-09 2.4642402e-05 -5.0321793e-05 -4.1802035e-05 1.5798758e-05 -5.597665e-07
0.00012719297 -1.8943573e-06 2.4118149e-06 6.3845033e-07 -4.7507374e-06 1.2080233e-05 -1.1899131e-06 -1.025998e-07
-7.4180066e-06 -4.4306753e-06 -2.9986008e-05 -7.795047e-05 -9.583062e-06 2.1609138e-05 3.8014514e-05 4.964006e-05
1.4571085e-05 -4.0559476e-05 -9.27709e-05 9.509907e-05 -2.5483158e-05 -1.2236637e-07 2.3237391e-05 2.5814814e-05
3.406487e-05 -3.9823726e-06 -1.4945527e-05 -3.1083e-05 -9.622681e-05 -9.88533e-06 6.7833804e-05 -3.1545518e-05
-7.725618e-05 -1.7307479e-05 -1.7613747e-05 -1.6442754e-06 1.0055718e-05 -9.7713266e-05 3.4034587e-05 -1.9037383e-05
3.915445e-05 -6.0764454e-05 3.1992284e-05 -2.9997334e-05 -1.6583e-05 -5.843849e-05 -5.1217426e-06 -0.00016940614
3.410317e-05 -1.149769e-05 -3.8613947e-05 1.522334e-06 5.947945e-05 -2.1105554e-05 -4.245413e-05 4.9402755e-05
-1.0799331e-06 -3.2319327e-05 -3.4645665e-05 -2.373311e-05 -6.0426105e-06 9.534399e-06 4.6991554e-06 1.1091364e-06
-1.1530744e-06 -2.0669452e-06 4.192261e-06 -2.2405693e-06 5.8498194e-06 1.1241147e-05 5.592602e-07 6.8175683e-07
-1.2956134e-06 2.3973182e-06 -5.3532716e-07 8.950718e-06 -4.853672e-06 2.2525555e-05 1.3305893e-05 -2.0942605e-06
-6.0968596e-06 -3.470144e-06 -1.5479395e-06 -2.5282696e-07 6.316765e-07 4.8912448e-06 1.2183258e-06 1.6638036e-05
-9.744548e-06 -1.3601716e-05 -5.988584e-06 -3.038749e-06 -3.5180624e-06 2.684182e-06 -6.1714513e-06 -1.0916446e-05
-6.967284e-06 1.4383634e-05 -2.8191448e-06 -1.402043e-06 5.6252584e-06 -1.7343867e-06 -8.161512e-06 1.04777455e-05
2.0603436e-07 5.2404e-06 8.8390453e-07 -3.710721e-06 -2.8204488e-06 -7.92064e-06 -8.28631e-06 5.213687e-05
3.0673908e-09 3.687778e-06 1.11026475e-05 1.9007199e-06 -4.4477442e-06 6.408766e-06 -1.1330679e-05 1.7103095e-05
-1.4835819e-05 -4.2410596e-07 -6.6824864e-06 1.0274453e-05 4.0341342e-06 -4.5962283e-06 -2.161438e-05 6.229892e-05
-1.4406545e-05 -2.3413082e-07 -1.5054865e-05 -9.232283e-06 -3.6044335e-06 -5.8302285e-06 -1.3578966e-06 1.1410184e-05
-4.4609433e-06 1.46688435e-05 1.641864e-05 -2.8659528e-05 1.7234883e-06 1.1166162e-05 1.0056756e-05 1.9868755e-06
-5.849331e-06 2.5981535e-06 5.059449e-06 2.0270068e-05 -6.4053515e-06 1.2485666e-05 6.926531e-06 -3.1200964e-06
-3.5693625e-05 2.3979267e-06 -1.5355059e-05 1.535061e-06 -2.2774888e-08 -4.6019422e-06 -2.6274158e-06 -2.2294693e-05
-1.0638261e-05 5.9179947e-05 -2.0921955e-06 4.0173643e-05 5.44955e-05 2.2626764e-05 3.964122e-05 1.8266985e-05
5.524065e-05 8.6983164e-05 -5.015836e-05 1.0044196e-05 -4.822891e-05 7.411067e-07 -8.302251e-06 0.00013794244
-0.00012372716 6.823835e-05 8.007199e-05 -1.7963288e-05 -4.839598e-05 -3.2824213e-05 2.4896575e-05 -1.17608615e-05
-2.197887e-05 2.0703732e-05 3.512104e-05 0.0002419515 -0.00017044877 -0.00017455821 -6.048985e-05 -2.1579488e-05
1.926492e-05 -1.6763825e-05 -2.8769064e-05 -6.106751e-05 -3.3606502e-06 4.1107844e-05 -1.1287633e-05 -5.256649e-07
5.7467292e-05 1.7404154e-05 -3.739259e-05 6.214783e-06 -1.5916998e-05 2.4335266e-05 7.5486864e-06 -2.9117291e-05
-1.6696895e-05 -5.002379e-05 -1.6175296e-05 1.6676751e-05 1.6813745e-05 3.0678193e-06 2.9219233e-05 1.2007521e-05
00000000: 9cd7 5db7 4ad4 2937 67cf 0337 b6cf 9c34
00000010: 2ff3 2137 c111 9736 77e0 0a38 fe12 7db5
00000020: 72c7 1db8 c3a6 88b7 991c 5738 ee02 7e36
00000030: b5ef 5135 3122 5ab4 4cdd a336 7ae2 b537
00000040: 6552 07b7 a996 6835 5921 ecb6 73d0 5e36
00000050: d682 6a37 6927 c2b7 486d 01b8 8738 87b6
00000060: 0e13 27b8 3bf0 f036 168e 8038 6a77 9637
00000070: 71be a3b7 a3d5 b2b6 4bbd 6237 486f b937
00000080: f048 c8b7 097d 6137 8d2e 0731 28b7 ce37
00000090: 9d10 53b8 9854 2fb8 9387 8437 dc42 16b5
000000a0: 1a5f 0539 9f41 feb5 aada 2136 f961 2b35
000000b0: 8668 9fb6 35ac 4a37 1ab5 9fb5 d654 dcb3
000000c0: 31e8 f8b6 36ab 94b6 768a fbb7 5779 a3b8
000000d0: f0c6 20b7 4545 b537 c671 1f38 9c34 5038
000000e0: 5576 7437 681e 2ab8 ff8d c2b8 ed6f c738
000000f0: aac4 d5b7 d063 03b4 ebed c237 e48c d837
00000100: e0e0 0e38 52a0 85b6 8dbe 7ab7 1e5f 02b8
00000110: 60cd c9b8 2bd9 25b7 ff41 8e38 be4f 04b8
00000120: 9904 a2b8 872f 91b7 3cc1 93b7 dfb0 dcb5
00000130: fbb4 2837 69eb ccb8 5cc0 0e38 78b2 9fb7
00000140: c539 2438 56dd 7eb8 742f 0638 c9a2 fbb7
00000150: b91b 8bb7 da1b 75b8 6fdb abb6 9da2 31b9
00000160: 000a 0f38 34e6 40b7 69f5 21b8 ff52 cc35
00000170: 9379 7938 d50b b1b7 c610 32b8 ce35 4f38
00000180: 38f2 90b5 9d8e 07b8 8050 11b8 7716 c7b7
00000190: a1c1 cab6 eff5 1f37 70ad 9d36 a3dd 9435
000001a0: 56c3 9ab5 d9b5 0ab6 3fab 8c36 b05c 16b6
000001b0: 9149 c436 5c98 3c37 1120 1635 f901 3735
000001c0: f0e4 adb5 9de1 2036 67b3 0fb5 0b2b 1637
000001d0: badc a2b6 43f5 bc37 603c 5f37 1f8b 0cb6
000001e0: a093 ccb6 9fe0 68b6 ccc2 cfb5 46bc 87b4
000001f0: 7b90 2935 791f a436 5b85 a335 e991 8b37
00000200: 847c 23b7 ed32 64b7 8bf1 c8b6 4fed 4bb6
00000210: da17 6cb6 e521 3436 5d14 cfb6 c725 37b7
00000220: 84c8 e9b6 3d51 7137 8a30 3db6 d52d bcb5
00000230: 9ac0 bc36 13c9 e8b5 6ded 08b7 93c9 2f37
00000240: 4b3a 5d34 b1d6 af36 7545 6d35 b405 79b6
00000250: f146 3db6 e4e2 04b7 6e05 0bb7 8aad 5a38
00000260: 1cca 5231 8b7b 7736 8245 3a37 3d1c ff35
00000270: d53d 95b6 e10a d736 e518 3eb7 9e78 8f37
00000280: 5be7 78b7 aeb0 e3b4 1f3a e0b6 7160 2c37
00000290: f35c 8736 4d39 9ab6 8750 b5b7 7aa6 8238
000002a0: a4b3 71b7 6465 7bb4 2794 7cb7 5be4 1ab7
000002b0: b2e3 71b6 48a1 c3b6 f940 b6b5 5e6e 3f37
000002c0: 36af 95b6 341a 7637 c3ba 8937 de69 f0b7
000002d0: 9b52 e735 4d56 3b37 70b9 2837 4356 0536
000002e0: 5f45 c4b6 f05b 2e36 56c4 a936 a409 aa37
000002f0: 8ded d6b6 8779 5137 736a e836 d962 51b6
00000300: bdb5 15b8 11ec 2036 bdce 80b7 4b08 ce35
00000310: 82a2 c3b2 626a 9ab6 a952 30b6 7d05 bbb7
00000320: fc7a 32b7 fc37 7838 a567 0cb6 1f80 2838
00000330: 1992 6438 9bce bd37 7044 2638 0d3c 9937
00000340: 32b2 6738 bb6a b638 2161 52b8 7e83 2837
00000350: 6649 4ab8 77f0 4635 e649 0bb7 a4a4 1039
00000360: c2bc 01b9 2f1b 8f38 53ec a738 deaf 96b7
00000370: cafc 4ab8 bbac 09b8 fdd8 d037 8450 45b7
00000380: 445f b8b7 edac ad37 ee4e 1338 5cb4 7d39
00000390: 7eba 32b9 9d09 37b9 7bb6 7db8 9905 b5b7
000003a0: 1a9b a137 0aa0 8cb7 1855 f1b7 5f11 80b8
000003b0: 8887 61b6 366b 2c38 0460 3db7 6b1b 0db5
000003c0: 0909 7138 23ff 9137 fdd5 1cb8 9488 d036
000003d0: 7e85 85b7 9623 cc37 b94a fd36 e840 f4b7
000003e0: 4f10 8cb7 a3d0 51b8 2fb0 87b7 0de5 8b37
000003f0: 3e0b 8d37 bce0 4d36 d31b f537 e973 4937

lstm_layer.lstm1.bias_ih_l0 f4 [200]
-0.00017505212 -0.0054987357 -0.00064149586 -0.0005552557 0.0014166574 -0.0009354706 -0.0010096135 -0.0019055284
-0.0009956709 -0.0055415956 -0.0008595744 -0.000504492 -0.0004740086 -5.066473e-05 -0.00038154173 -0.005904471
-0.004422176 -0.005302208 -0.003954007 -0.00011796403 -0.005464799 -0.0024744554 -0.003404988 -0.00016796183
-0.00051871786 -0.000879395 -0.0017053623 -0.0041415235 -0.005406278 -0.006868752 -0.0010723453 -0.0029883764
-0.0019791245 -0.00185782 -0.00044969982 -0.0039120694 -0.00048154086 -0.0029283643 -0.0027139727 -0.000926551
-0.0005750299 -9.343995e-06 -0.0027953633 8.972641e-05 -0.0004376195 -0.00029382601 -0.001113759 -0.0012004011
-0.00060387707 -0.0022348927 7.896502e-05 -0.005402476 -0.00062187115 -0.00059642806 0.0011694775 -0.0010604238
-0.0009470184 -0.0018283013 -0.0009146974 -0.0054750154 -0.00083308783 -0.0004885373 -0.00042741591 3.6452446e-05
-0.00017631099 -0.005734708 -0.004303385 -0.005278567 -0.0038737971 -0.00014843068 -0.0053557907 -0.0024110866
-0.0032785132 -6.137267e-06 -0.0005906929 -0.00082997617 -0.0014676965 -0.004075411 -0.0053293714 -0.0068104207
-0.001010874 -0.0028251545 -0.0019174385 -0.0018092566 -0.0004651056 -0.0038633253 -0.00060115254 -0.002862383
-0.0026418692 -0.00071335223 -0.00059986603 2.7739572e-05 -0.0026853934 1.8863639e-05 -0.0003273248 -0.00017214043
-0.0010368767 -0.0011731233 -0.00067934743 -0.0021645108 0.0057177315 -0.004942852 -0.0063073416 -0.00026975435
-0.011501001 -0.0040297033 -0.0033984573 0.003534903 0.0074369223 -0.008331396 -0.0054983697 0.0019666841
-0.004269405 -0.0028066568 -0.0019695975 -0.011374118 0.009699335 -0.009030044 -0.0033798357 0.00023689837
0.0028016265 0.00495469 0.0049111405 -0.0013243202 0.009998583 -0.0014860025 -0.006036179 -0.006737237
0.011401602 0.01444269 -0.004621063 0.002301511 0.0047312696 -0.0020991007 0.000941682 0.0013490152
0.011214036 0.0023387035 -0.0021456254 0.00064283627 -0.00945088 0.0021496827 -0.0012233254 -0.0021153158
0.00083612953 -0.005560538 0.0015529557 0.0019579297 0.0013098127 0.0030616305 -0.00016778157 -0.0054573813
-0.0006358797 -0.0005517824 0.0013704386 -0.0010283692 -0.0009966083 -0.0019135403 -0.00097080605 -0.005417487
-0.0008614684 -0.000503449 -0.00047374613 -5.1203173e-05 -0.0002911328 -0.005727296 -0.0044067027 -0.0052401046
-0.0039440207 -0.00012235557 -0.005445763 -0.0024748913 -0.0034016948 -0.00015590244 -0.00060600834 -0.00085653167
-0.0017362442 -0.0040867995 -0.0052540796 -0.006686671 -0.0010650231 -0.0029891953 -0.0019805788 -0.0018634879
-0.00047370605 -0.0039013603 -0.00053295173 -0.0029099204 -0.0027134845 -0.0008305179 -0.0006070679 0.00014853451
-0.0028035142 3.6893573e-05 -0.00044160825 -0.0002876193 -0.0010889152 -0.0012182671 -0.0006054186 -0.0022163622
00000000: 328e 37b9 bd2e b4bb 0f2a 28ba 948e 11ba
00000010: 22af b93a 5f3a 75ba 0255 84ba ecc2 f9ba
00000020: 2c81 82ba 4696 b5bb 1055 61ba e33f 04ba
00000030: 5b84 f8b9 d780 54b8 aa09 c8b9 4b7a c1bb
00000040: e7e7 90bb 25be adbb 9d90 81bb 7563 f7b8
00000050: 0e12 b3bb 792a 22bb 3826 5fbb e91e 30b9
00000060: 91fa 07ba 3387 66ba 7786 dfba 9eb5 87bb
00000070: 2627 b1bb 4513 e1bb f08d 8cba a3d8 43bb
00000080: 33b4 01bb 1882 f3ba b0c5 ebb9 d130 80bb
00000090: 5277 fcb9 cde9 3fbb e8dc 31bb c9e3 72ba
000000a0: 9abd 16ba 27c4 1cb7 6a32 37bb 802b bc38
000000b0: 4c70 e5b9 a90c 9ab9 8dfb 91ba c756 9dba
000000c0: 814d 1eba 4777 12bb 069a a538 4107 b1bb
000000d0: 1105 23ba 9c59 1cba 2749 993a ebfd 8aba
000000e0: 5441 78ba 9da3 efba 4ec8 6fba c267 b3bb
000000f0: 9463 5aba 2f11 00ba cb16 e0b9 84e4 1838
00000100: 1fe0 38b9 38ea bbbb 6903 8dbb d4f7 acbb
00000110: 88df 7dbb 0fa4 1bb9 a17f afbb 5203 1ebb
00000120: 53dc 56bb b9ee cdb6 bbd8 1aba c292 59ba
00000130: b95f c0ba 068b 85bb 02a2 aebb f329 dfbb
00000140: 4e7f 84ba 3a26 39bb 8f52 fbba 9424 edba
00000150: 6bd9 f3b9 d82f 7dbb aa96 1dba d196 3bbb
00000160: 3623 2dbb 4200 3bba 5440 1dba 47b2 e837
00000170: 6dfd 2fbb 5b3d 9e37 ca9c abb9 9880 34b9
00000180: cfe7 87ba 7cc3 99ba 3c16 32ba 77da 0dbb
00000190: cf5b bb3b a6f7 a1bb d1ad cebb d16d 8db9
000001a0: b26e 3cbc 9a0b 84bb a7b8 5ebb d5a9 673b
000001b0: 6db1 f33b 6880 08bc ab2b b4bb 7ce3 003b
000001c0: 5de6 8bbb e3ef 37bb 5d14 01bb 825a 3abc
000001d0: f6e9 1e3c c0f2 13bc 3c80 5dbb ec67 7839
000001e0: 7e9b 373b f45a a23b a2ed a03b d094 adba
000001f0: 19d1 233c f8c5 c2ba 24cb c5bb 0ac4 dcbb
00000200: c9cd 3a3c 08a1 6c3c 496c 97bb f2d4 163b
00000210: c408 9b3b 1191 09bb 36db 763a 70d1 b03a
00000220: 13bb 373c ef44 193b 9f9d 0cbb 0384 283a
00000230: ddd7 1abc b1e1 0c3b fd57 a0ba 1ca1 0abb
00000240: b42f 5b3a 2c35 b6bb 8c8c cb3a 9c50 003b
00000250: 05ae ab3a a3a5 483b 86ee 2fb9 d5d3 b2bb
00000260: 2ab1 26ba 7da5 10ba 4aa0 b33a 58ca 86ba
00000270: a0a0 82ba c2cf faba b17d 7eba 2d85 b1bb
00000280: 2ad4 61ba e4f9 03ba 2161 f8b9 fdc2 56b8
00000290: 2fa3 98b9 0bac bbbb 1a66 90bb 2fb5 abbb
000002a0: d83c 81bb 934c 00b9 5f72 b2bb c931 22bb
000002b0: f8ee 5ebb be79 23b9 88dc 1eba de88 60ba
000002c0: b092 e3ba 8fea 85bb 6a2a acbb dd1b dbbb
000002d0: 3f98 8bba 60e6 43bb 99cc 01bb 4740 f4ba
000002e0: c05b f8b9 f7ad 7fbb c9b5 0bba 5db4 3ebb
000002f0: b7d4 31bb 1db7 59ba a323 1fba eebf 1b39
00000300: 2abb 37bb 2cbe 1a38 a887 e7b9 9ccb 96b9
00000310: eeb9 8eba 43ae 9fba f4b4 1eba 6340 11bb

lstm_layer.lstm1.bias_hh_l0 f4 [200]
-5.496837e-05 -0.00549918 -0.0006589921 -0.000554091 0.0013823117 -0.0010308989 -0.0009990681 -0.0019292234
-0.00097316114 -0.005538671 -0.000859816 -0.0005027844 -0.0004686193 -5.0647992e-05 -0.0002936938 -0.005901876
-0.00442218 -0.005302171 -0.0039532254 -0.00012412382 -0.0054693143 -0.002473488 -0.00340201 -0.0001638724
-0.000496271 -0.0008817668 -0.0018050992 -0.0041415663 -0.0054079853 -0.006872746 -0.0010559561 -0.0029880037
-0.0019760602 -0.0018619862 -0.0004625565 -0.0039111297 -0.0004782361 -0.0029226243 -0.0027106323 -0.00084677216
-0.00057828054 0.0002075895 -0.0027765436 9.523514e-05 -0.00044506 -0.00029181511 -0.0011700593 -0.0011926917
-0.0006032883 -0.0022148797 3.6348374e-05 -0.005402859 -0.00061926304 -0.00059692696 0.0011564079 -0.0009872022
-0.00094716594 -0.0018283272 -0.0009462688 -0.0054794042 -0.00083181035 -0.0004887009 -0.0004271135 3.554968e-05
-0.00017821579 -0.0057359547 -0.0043029315 -0.0052786856 -0.003869938 -0.00014821874 -0.00535446 -0.0025421756
-0.0032822606 -1.2117358e-05 -0.00059737655 -0.0008580938 -0.0015667109 -0.004074859 -0.005329421 -0.0068105627
-0.0010081949 -0.0028125963 -0.0019174033 -0.0018069359 -0.00044612132 -0.003863735 -0.0005155947 -0.002862134
-0.0026421205 -0.0008284244 -0.000600215 0.0001035758 -0.0026868647 -1.4236088e-05 -0.00032601177 -7.6051605e-05
-0.00093321636 -0.00119554 -0.00069442135 -0.0021549508 0.0057180077 -0.004952396 -0.0063028256 -0.00027020427
-0.011501033 -0.0040358203 -0.0033516602 0.0034825916 0.007424138 -0.0083247945 -0.005499121 0.0019874873
-0.0042619174 -0.0028071483 -0.0019694036 -0.011634136 0.009737164 -0.008976878 -0.0033875217 0.00022862382
0.0028014723 0.0049545295 0.0049002194 -0.0013243181 0.009995022 -0.0014550585 -0.0060444158 -0.006882866
0.011443838 0.014744436 -0.004619778 0.002301216 0.004775672 -0.0020700474 0.0009763494 0.0014235391
0.011213053 0.002439577 -0.002202836 0.0006864588 -0.00945365 0.0021496895 -0.0011579338 -0.0021146801
0.00083900284 -0.005499761 0.0015570554 0.0019590738 0.001315282 0.003293609 -0.00013861051 -0.0054577696
-0.0006586462 -0.00055462285 0.0014699105 -0.0010369329 -0.0009965473 -0.00190523 -0.0009781416 -0.0054118503
-0.00086135766 -0.0005034816 -0.00046904347 -0.00010111735 -0.00027246267 -0.005729804 -0.004406831 -0.0052401056
-0.003947409 -0.00011477657 -0.005456161 -0.002623372 -0.0034049903 -0.00015909655 -0.00048130078 -0.00087957265
-0.0017802606 -0.0040868334 -0.005257991 -0.0066888053 -0.0010718683 -0.0029865669 -0.0019844675 -0.0018647393
-0.00047064436 -0.00390068 -0.0006060389 -0.0029094645 -0.0027136842 -0.00082862086 -0.0005780428 5.472074e-05
-0.0027801038 9.9260775e-05 -0.00044196795 -0.00023967188 -0.0010878217 -0.0011739633 -0.00064024347 -0.0022248363
00000000: d68d 66b8 7732 b4bb 36c0 2cba 6b40 11ba
00000010: af2e b53a 3a1f 87ba 2af3 82ba ffdd fcba
00000020: bd1b 7fba bd7d b5bb 4665 61ba 4acd 03ba
00000030: 05b1 f5b9 de6e 54b8 eafa 99b9 8664 c1bb
00000040: efe7 90bb d6bd adbb 0f8a 81bb 3c27 02b9
00000050: ef37 b3bb 3e1a 22bb 42f4 5ebb 2ad5 2bb9
00000060: 2f18 02ba 5e26 67ba 1499 ecba fab5 87bb
00000070: 7835 b1bb c634 e1bb 0268 8aba 62d2 43bb
00000080: ca80 01bb e40d f4ba 4883 f2b9 ef28 80bb
00000090: c3bb fab9 8089 3fbb dda4 31bb ebf9 5dba
000000a0: c097 17ba 62ac 5939 acf6 35bb fab8 c738
000000b0: f156 e9b9 c3fe 98b9 ad5c 99ba 1854 9cba
000000c0: fe25 1eba 8427 11bb c574 1838 770a b1bb
000000d0: 0a56 22ba 177b 1cba 9c92 973a 0265 81ba
000000e0: 3b4b 78ba 7ba4 efba 060f 78ba 938c b3bb
000000f0: d90d 5aba 2a1c 00ba 34ee dfb9 2e1b 1538
00000100: 70df 3ab9 adf4 bbbb 9bff 8cbb d3f8 acbb
00000110: c99e 7dbb 2a6b 1bb9 7774 afbb a19a 26bb
00000120: 321b 57bb a84b 4bb7 4399 1cba b3f1 60ba
00000130: 185a cdba 6586 85bb 6ca2 aebb 242b dfbb
00000140: 6825 84ba 8953 38bb 6151 fbba b5d6 ecba
00000150: 64e5 e9b9 b736 7dbb f928 07ba a492 3bbb
00000160: 6d27 2dbb 9f2a 59ba bf57 1dba d636 d938
00000170: 1c16 30bb 88d7 6eb7 8fec aab9 e57d 9fb8
00000180: 17a3 74ba aab3 9cba d409 36ba 133a 0dbb
00000190: 205e bb3b b547 a2bb ef87 cebb 34aa 8db9
000001a0: d46e 3cbc ea3e 84bb 87a7 5bbb 313c 643b
000001b0: 2f46 f33b b864 08bc f831 b4bb 8140 023b
000001c0: 8ea7 8bbb 22f8 37bb 1c11 01bb 1a9d 3ebc
000001d0: a088 1f3c c113 13bc 2f01 5ebb bdba 6f39
000001e0: e898 373b 9b59 a23b 0592 a03b be94 adba
000001f0: 29c2 233c a9b7 beba 3c10 c6bb aa89 e1bb
00000200: ef7e 3b3c a692 713c 8261 97bb ffcf 163b
00000210: 3e7d 9c3b a2a9 07bb b3f1 7f3a 0c96 ba3a
00000220: f4b6 373c 4fe1 1f3b 755d 10bb 78f3 333a
00000230: 7be3 1abc cee1 0c3b d0c5 97ba 7296 0abb
00000240: 87f0 5b3a 5737 b4bb 1c16 cc3a ce63 003b
00000250: 8a65 ac3a 97d9 573b fa57 11b9 17d7 b2bb
00000260: 00a9 2cba 1c64 11ba 03aa c03a b2e9 87ba
00000270: 949e 82ba e9b8 f9ba fc34 80ba e455 b1bb
00000280: bccc 61ba 14fc 03ba f3e9 f5b9 f70e d4b8
00000290: 52d9 8eb9 14c1 bbbb 2e67 90bb 31b5 abbb
000002a0: 4459 81bb 34b4 f0b8 99c9 b2bb e1ec 2bbb
000002b0: 4226 5fbb 28d3 26b9 1957 fcb9 1f93 66ba
000002c0: a257 e9ba d8ea 85bb 3a4b acbb c42d dbbb
000002d0: ef7d 8cba 47ba 43bb d70d 02bb 456a f4ba
000002e0: d1c0 f6b9 8da2 7fbb 95de 1eba b7ac 3ebb
000002f0: 11d8 31bb ce37 59ba cc87 17ba f283 6538
00000300: 6732 36bb 392a d038 efb7 e7b9 6e50 7bb9
00000310: 3d95 8eba acdf 99ba 03d6 27ba 8fce 11bb

gbrbm.W f4 [50, 25]
0.0031008807 0.0022311606 0.0007267449 -0.0015155228 -0.00022554974 0.00074998697 -0.002589437 -0.0015838349
0.0014585272 0.0011981362 -0.0036739262 -0.00047638203 0.00051095104 -0.0021969501 -0.0011346258 -0.00031491762
-0.0030523587 -0.0027223988 -0.0020168973 0.0029279524 0.003467027 -0.0014997798 0.0010548546 -0.0016202105
-0.002119931 -0.0010181476 0.00552416 -0.0020482738 0.0035787101 0.0037705482 -0.0014750406 0.0018580668
-0.0036037676 0.0041738474 -0.0041357037 1.7055809e-05 0.0048444616 -0.0013337552 0.004308046 -0.0038768814
0.0014298351 0.00076743984 -0.0011835158 0.0033331683 0.0021210336 0.00011116417 0.004870723 0.00070070114
-0.0038536442 0.00252538 -0.0024101718 0.0022830425 0.00012278843 -0.00049121305 0.0022761635 0.00040800634
4.9746865e-05 0.001372776 0.0015170872 -0.00036662372 0.0016905469 -0.001812161 -0.000982572 -0.001467869
0.0014085018 0.0012064754 0.0003902324 0.0032467712 -0.00042986765 -0.0007987224 -0.002795498 0.0005260079
-0.0016363647 0.0025157365 0.0024181379 0.00094618415 0.0003166392 0.0014525476 -0.00029017706 0.0017293972
-0.003008609 0.002610455 0.0027635503 -0.0023567616 0.0016266563 -0.0008555924 0.0003469175 0.0028992654
0.0009922077 0.0020055617 0.0009150903 0.0024372553 0.0008418188 0.0014101225 0.0010229179 -0.00023857693
8.514648e-05 0.0023445415 -0.00039013568 -0.0013277552 -2.3932953e-05 0.0019731293 -0.0055912295 0.0047639436
0.0010282755 -0.00056578417 0.0071099787 -0.00046285696 0.0027465483 -0.0016921707 0.0015217703 0.000760187
-0.0036827726 0.0047571557 -0.0015721133 0.00019717078 0.0022221263 0.003505881 0.005826515 0.00096827326
-0.004429525 -0.0008333004 -0.000373605 -0.0009444762 -0.00040162302 -0.00037377488 0.0015033154 -0.0004988726
0.0012396744 0.0016314866 0.0033388527 -0.003212345 0.0032012856 0.0004800196 -0.000818739 0.0020713645
0.00022258783 -0.0028098933 0.003059417 0.000997705 -0.0013036138 0.0014038765 0.0019074096 0.0012746764
-0.00016020979 -0.0006660346 -0.0003535196 -0.0010261427 0.0028965713 -0.00012420211 -0.00044195785 0.0036825053
5.915317e-05 0.0023444174 0.003782121 0.0015931248 0.00039148642 -0.0005836838 0.004925133 -0.0030909637
0.0006315247 -0.0024313603 -0.00022087488 0.003793286 -0.001109484 -0.00060290215 0.002796645 -0.0017717612
0.0051703136 0.0010388365 -0.00054223154 0.0031725452 0.0021499607 -3.2763808e-05 -0.0015153853 -0.0007394854
0.0032999837 -0.0005538811 0.0024474983 0.0016494569 0.00014290657 -0.0005411013 0.0011857369 0.0011939856
-0.00046550672 0.00016224575 0.00093903096 -0.0020003465 0.0012598394 -0.00372644 0.00054831547 0.003338917
-0.00051963417 -0.00020822232 4.801326e-05 0.00020480764 0.002557803 -0.0011644467 -0.0013698234 0.0031127776
-0.0018047981 -0.0015732114 -0.0013601175 -0.00041351738 0.0021880323 0.0009299412 0.001729823 -0.0018087117
-0.0012769351 -0.007816644 -0.0017679649 0.002117505 -0.0010395461 -0.0011651168 -0.0035377722 -5.559643e-05
-0.001962335 -0.0042253663 -0.0007239814 0.000519263 -0.0028353848 0.002217096 -0.0006074435 0.0012883233
0.0020765748 -0.00043582605 0.00719199 -0.0038918725 0.0074620508 0.009602714 -0.004194185 0.0045457752
-0.0006098562 0.0065324013 -0.00023483936 -0.0033030936 0.0016920556 -0.0026937716 0.0052595586 -0.004966784
0.0026046282 0.0035485253 -0.0012621414 0.0075598164 0.0039193705 4.2210093e-05 0.0044319695 0.0064082723
-0.0022695414 0.0025434277 5.7109428e-05 0.0005837165 0.0020021745 -0.0031272518 -0.0013147171 0.00013309353
00000000: 2538 4b3b aa38 123b 0683 3e3a 82a4 c6ba
00000010: 8c81 6cb9 c69a 443a 8bb3 29bb ae98 cfba
00000020: 0d2c bf3a c80a 9d3a 41c6 70bb eac2 f9b9
00000030: 58f1 053a b5fa 0fbb b9b7 94ba 871b a5b9
00000040: 150a 48bb 466a 32bb ec2d 04bb e4e2 3f3b
00000050: 1037 633b 4294 c4ba 0c43 8a3a 3e5d d4ba
00000060: 8aee 0abb 5d73 85ba 0304 b53b 553c 06bb
00000070: cb88 6a3b 4d1b 773b 2656 c1ba 608a f33a
00000080: 302d 6cbb c5c4 883b cc84 87bb 1213 8f37
00000090: 4abe 9e3b 66d1 aeba 822a 8d3b 4713 7ebb
000000a0: 4e69 bb3a 042e 493a 3320 9bba 4971 5a3b
000000b0: 0a01 0b3b cf20 e938 969a 9f3b 42af 373a
000000c0: 6c8d 7cbb d980 253b f9f3 1dbb 199f 153b
000000d0: c5c0 0039 c0c4 00ba b02b 153b afe9 d539
000000e0: 4aa7 5038 b8ee b33a 00d9 c63a 6737 c0b9
000000f0: 5795 dd3a 0886 edba a5c9 80ba 8365 c0ba
00000100: 7a9d b83a 9922 9e3a 1b98 cc39 c8c7 543b
00000110: dc5f e1b9 5a61 51ba ac34 37bb cbe3 093a
00000120: 4a7b d6ba 0edf 243b 9f79 1e3b 5809 783a
00000130: 9802 a639 6963 be3a e822 98b9 f1ac e23a
00000140: 152c 45bb 2b14 2b3b ae1c 353b e673 1abb
00000150: 8735 d53a d649 60ba 7be2 b539 9a01 3e3b
00000160: f70c 823a be6f 033b ace2 6f3a 5cba 1f3b
00000170: 81ad 5c3a dcd3 b83a 6e13 863a 822a 7ab9
00000180: ab90 b238 e1a6 193b 208b ccb9 1208 aeba
00000190: a0c3 c8b7 9e4f 013b a236 b7bb db1a 9c3b
000001a0: 33c7 863a 2251 14ba d3fa e83b 9cab f2b9
000001b0: 6fff 333b d4cb ddba 2376 c73a 4947 473a
000001c0: ac5a 71bb eae1 9b3b 5e0f ceba a1bf 4e39
000001d0: 18a1 113b ecc2 653b 5aec be3b b8d3 7d3a
000001e0: 8d25 91bb d871 5aba 6ae0 c3b9 ba96 77ba
000001f0: ee90 d2b9 37f7 c3b9 e50a c53a c6c6 02ba
00000200: 927c a23a 9bd7 d53a a7d0 5a3b 3586 52bb
00000210: a9cc 513b 24ab fb39 a5a0 56ba bbbf 073b
00000220: 7766 6939 3026 38bb 8080 483b 6dc5 823a
00000230: 05de aaba 4702 b83a 0c02 fa3a 0b13 a73a
00000240: fdfd 27b9 d398 2eba 9958 b9b9 a37f 86ba
00000250: 67d4 3d3b 403c 02b9 94b6 e7b9 3056 713b
00000260: 3c1b 7838 cca4 193b 76dd 773b 66d0 d03a
00000270: 6b40 cd39 5b02 19ba 0363 a13b c491 4abb
00000280: e88c 253a 7557 1fbb a69a 67b9 c798 783b
00000290: 1b6c 91ba 140c 1eba eb47 373b 713a e8ba
000002a0: bc6b a93b 9229 883a 8b24 0eba 7aea 4f3b
000002b0: 5be6 0c3b df6b 09b8 e59f c6ba 06da 41ba
000002c0: 8a44 583b 5532 11ba 3566 203b 9732 d83a
000002d0: 31d9 1539 b2d8 0dba ba6a 9b3a 827f 9c3a
000002e0: 410f f4b9 8320 2a39 4d29 763a 3f18 03bb
000002f0: 3221 a53a 4a37 74bb d4bc 0f3a bbd1 5a3b
00000300: 0f38 08ba 4156 5ab9 d861 4938 a2c1 5639
00000310: d0a0 273b 59a0 98ba a58b b3ba beff 4b3b
00000320: fa8e ecba 3734 ceba f845 b2ba 5dcd d8b9
00000330: 1765 0f3b 4cc7 733a 3abb e23a 4b12 edba
00000340: d55e a7ba 6211 00bc 0fbb e7ba d7c5 0a3b
00000350: 6141 88ba d5b6 98ba f8d9 67bb 3630 69b8
00000360: 859a 00bb f174 8abb 92c9 3dba 261f 083a
00000370: ddd1 39bb b34c 113b d83c 1fba f5dc a83a
00000380: 2517 083b 957f e4b9 c9aa eb3b c90e 7fbb
00000390: 3884 f43b b454 1d3c 606f 89bb baf4 943b
000003a0: c2de 1fba c10d d63b 363f 76b9 b778 58bb
000003b0: f7c7 dd3a fd89 30bb 6058 ac3b 67c0 a2bb
000003c0: 69b2 2a3b 608e 683b 706e a5ba 56b8 f73b
000003d0: 106e 803b be0a 3138 0e3a 913b 7cfc d13b
000003e0: 96bc 14bb a3af 263b c888 6f38 8d04 193a
000003f0: ea36 033b 94f2 4cbb 9652 acba 068f 0b39

gbrbm.b f4 [25]
-0.8568939 -0.69314754 0.14187388 -0.1433662 -0.6537728 -0.3406572 -0.7595757 -0.7278674
-0.82025224 -0.6049906 -0.40421206 -0.6546816 -0.16763915 -0.7862029 0.13553101 -0.25108626
-0.38484067 -0.043945804 -0.5416308 0.0622631 -0.83110285 -0.52474344 -0.6762667 -0.85737836
-0.28425786
00000000: 665d 5bbf 1e72 31bf 6347 113e 97ce 12be
00000010: a75d 27bf 9f6a aebe 8e73 42bf 8555 3abf
00000020: 0dfc 51bf aae0 1abf e2f4 cebe 3799 27bf
00000030: 99a9 2bbe 9844 49bf a4c8 0a3e 618e 80be
00000040: d609 c5be 8400 34bd 51a8 0abf 9807 7f3d
00000050: 28c3 54bf 9655 06bf d01f 2dbf 267d 5bbf
00000060: 3f8a 91be

gbrbm.mu f4 [50]
0.004371317 -0.012449058 -0.012354995 0.0022745992 -0.017376198 -0.0072738347 -0.0049359403 0.007656507
0.018655635 -0.020629603 -0.015379198 0.006959661 -0.008964686 -0.0011709436 -0.005962702 -0.031309213
0.02114456 -0.020858642 -0.009551784 -0.00080262875 0.008009928 0.0116923535 0.0072324737 -0.002605615
0.014557517 -0.0052835764 -0.01128172 -0.018543122 0.02976515 0.035002124 -0.009683987 0.006337935
0.005300604 -0.00033073948 0.00019696026 0.0019957281 0.019996878 0.0043114014 0.0031556257 0.0014504793
-0.017622855 0.0044907797 0.0005338595 -0.004082073 -0.0010097006 -0.0070571164 0.004547547 -7.962973e-05
0.003348507 0.0063845613
00000000: 443d 8f3b 22f7 4bbc 9b6c 4abc 7111 153b
00000010: 8758 8ebc 5959 eebb abbd a1bb 70e3 fa3b
00000020: b4d3 983c 6aff a8bc 08f9 7bbc de0d e43b
00000030: 9ee0 12bc 597a 99ba c562 c3bb 173e 00bd
00000040: 5b37 ad3c bedf aabc 167f 1cbc 8167 52ba
00000050: 133c 033c 4991 3f3c 63fe ec3b f7c2 2abb
00000060: a782 6e3c da21 adbb f7d6 38bc bfe7 97bc
00000070: 0bd6 f33c 635e 0f3d 96a9 1ebc 74ae cf3b
00000080: b0b0 ad3b 1a67 adb9 1e87 4e39 c3ca 023b
00000090: 7ed0 a33c a846 8d3b 9dce 4e3b 021e be3a
000000a0: ce5d 90bc 6427 933b b4f2 0b3a e9c2 85bb
000000b0: ee57 84ba 623f e7bb 9703 953b e3fe a6b8
000000c0: a072 5b3b 9535 d13b

gbrbm.log_var f4 [50]
-7.208738 -6.8547835 -7.1087103 -7.1501393 -7.1940866 -7.168261 -7.0744467 -7.0092597
-7.1238103 -6.7322392 -7.1379323 -7.1400986 -7.133636 -7.1440687 -7.1613526 -6.709902
-6.915992 -6.8482404 -6.927392 -7.1820526 -6.931545 -7.1309876 -7.0236025 -7.193632
-7.1260853 -7.0464563 -7.1579213 -6.81551 -6.7040677 -6.6051073 -7.1459303 -7.1477814
-7.0370526 -7.0486593 -7.1285696 -6.9356127 -7.1341953 -6.9633203 -7.0496116 -7.1452827
-7.1882067 -7.186651 -7.032594 -7.177312 -7.1762037 -7.13169 -7.149916 -7.162994
-7.088137 -7.0281343
00000000: fbad e6c0 635a dbc0 8e7a e3c0 f1cd e4c0
00000010: f535 e6c0 6562 e5c0 de61 e2c0 db4b e0c0
00000020: 41f6 e3c0 816e d7c0 f169 e4c0 b07b e4c0
00000030: bf46 e4c0 369c e4c0 cd29 e5c0 84b7 d6c0
00000040: ce4f ddc0 c924 dbc0 32ad ddc0 60d3 e5c0
00000050: 37cf ddc0 0d31 e4c0 5ac1 e0c0 3c32 e6c0
00000060: e408 e4c0 927c e1c0 b10d e5c0 a818 dac0
00000070: b987 d6c0 0a5d d3c0 76ab e4c0 a0ba e4c0
00000080: 892f e1c0 9e8e e1c0 3e1d e4c0 8af0 ddc0
00000090: 544b e4c0 85d3 dec0 6b96 e1c0 28a6 e4c0
000000a0: ca05 e6c0 0cf9 e5c0 030b e1c0 8aac e5c0
000000b0: 76a3 e5c0 ce36 e4c0 1dcc e4c0 3f37 e5c0
000000c0: 05d2 e2c0 7ae6 e0c0

gbrbm.linear_layer.weight f4 [1, 25]
0.6048432 0.66500276 -0.64579564 -0.30244654 0.5000744 -0.17009203 0.6029797 0.058781713
0.6710728 0.23477648 -0.16021207 0.16112736 -0.4959323 0.5519932 -0.7135651 0.02191762
-0.22170834 -0.4607544 -0.08220426 -0.3208962 0.58910453 0.20916794 0.34383485 0.96801305
-0.08687354
00000000: 01d7 1a3f 9f3d 2a3f dd52 25bf 46da 9abe
00000010: e004 003f 9b2c 2ebe e15c 1a3f 18c5 703d
00000020: 6dcb 2b3f 3f69 703e a20e 24be 92fe 243e
00000030: d7ea fdbe 6d4f 0d3f 34ac 36bf 958c b33c
00000040: 8307 63be 00e8 ebbe b55a a8bd 824c a4be
00000050: 8ecf 163f 1f30 563e 1f0b b03e b4cf 773f
00000060: c1ea b1bd
