models_weight/lstm-gbrbm_125.pt (torch, 69858 bytes, 10 tensors)

lstm_layer.lstm1.weight_ih_l0 f4 [200, 16]
-0.066909336 0.12925814 -0.07383655 0.026241224 0.117513835 -0.09999879 0.026991969 -0.054835126
0.12391379 0.10694109 -0.060831092 0.010060135 -0.14358488 0.013558998 0.0711623 0.13024282
0.061985407 -0.042618368 0.0874193 0.061817378 -0.06585098 0.056625146 -0.11415819 0.098736495
-0.03768526 0.09540312 -0.10782594 -0.032479096 -0.16950616 -0.08893173 0.056192115 -0.15411477
0.16524424 0.13072789 0.05988279 0.055000328 0.07247732 0.053735834 -0.008576152 0.12789087
0.0047225594 0.15888782 0.037256084 0.003677723 -0.03851296 0.047845736 -0.10712894 0.14900947
-0.05406297 0.12814583 0.013775111 0.11299724 0.07103881 -0.095040314 0.03433977 0.052383635
0.011385339 -0.035819743 0.014218003 -0.13004899 -0.009577742 -0.010716503 0.005525452 0.019886453
-0.15397298 0.036411226 0.011961509 0.040917344 -0.12463715 0.010903003 0.043077894 -0.14677575
0.040466152 -0.1092792 0.0040768674 0.08992077 0.039955497 -0.03914175 -0.17024195 -0.16371793
0.16310148 -0.080711395 -0.0038233926 0.0024351575 -0.016451905 -0.059272733 -0.12752846 -0.0061865575
0.11019017 -0.034719694 -0.0783894 -0.0059938324 0.00897149 0.1243565 0.12521718 -0.11317113
-0.15037175 -0.05740334 -0.100511685 -0.025328912 -0.15611303 0.022142913 -0.009200406 -0.11445807
0.06837368 -0.0021282923 0.044081043 0.121722616 0.0040597008 -0.12390846 0.0051732645 0.116493955
0.012529398 -0.004362967 -0.106652625 0.015747828 0.022964304 0.11226289 0.081511244 -0.1553838
-0.16651194 -0.031518742 0.07978452 -0.022469075 0.015797827 -0.0766732 -0.09322357 -0.16999058
0.042177115 -0.09665529 0.06291763 0.11273579 0.0057752654 -0.077610455 -0.017672874 -0.011808538
-0.087846994 0.053937435 -0.022522088 0.10083777 -0.03608837 0.10677663 -0.059728596 0.002622225
-0.059591215 0.04014888 -0.13150288 0.0052852174 -0.11165851 -0.09426374 0.06450043 -0.0075403904
-0.030423442 0.04274098 -0.07034255 0.01118047 0.0002597517 -0.07173107 0.07221625 0.00867334
-0.052813772 -0.10542194 0.09698644 -0.06890895 -0.09882048 -0.07318806 0.06975506 -0.0626522
-0.07383476 0.0345651 -0.1069584 -0.12646045 -0.07647505 -0.122338004 0.021697873 0.10580324
0.022544907 0.05527519 0.110696025 0.084616855 0.03957302 -0.059711065 0.073493205 -0.12354173
-0.13602114 0.1399943 -0.10217378 -0.049084503 -0.14055774 -0.11176287 -0.14948468 -0.15871598
0.033447437 -0.009740005 0.0030870682 -0.013191256 0.12519585 0.12647134 0.105475925 -0.070134036
-0.10574897 0.0159872 0.098920256 -0.12894933 0.056703594 0.124170996 0.02602282 -0.09195944
-0.14645194 -0.05848851 0.025474915 -0.0514846 -0.026684292 -0.03668937 0.06770459 0.061300185
0.09821039 0.09611228 -0.025769452 0.05701227 0.010561634 -0.07836002 0.024245856 -0.035733655
-0.14076313 0.059355136 -0.17729491 -0.013099025 -0.07863719 0.007460153 -0.077873684 -0.03219105
0.12519997 0.050617773 -0.021091802 -0.021492166 0.07873314 -0.044302974 -0.041475404 0.079373956
-0.09904766 -0.053529948 0.03610719 0.080286264 -0.021432754 0.059437625 -0.07447815 -0.028093286
0.031336743 0.075288974 0.16712639 -0.089924715 -0.07869072 -0.0560983 0.15964751 -0.100043
00000000: c307 89bd 3f5c 043e 9e37 97bd d6f7 d63c
00000010: 18ab f03d 2acc ccbd 431e dd3c cc9a 60bd
00000020: 83c6 fd3d ee03 db3d 062a 79bd 44d3 243c
00000030: ea07 13be 8f26 5e3c 8abd 913d 605e 053e
00000040: 69e4 7d3d 9990 2ebd e408 b33d 3834 7d3d
00000050: e1dc 86bd c5ef 673d c5cb e9bd 5c36 ca3d
00000060: dc5b 1abd b662 c33d d9d3 dcbd cd08 05bd
00000070: 0693 2dbe d721 b6bd b429 663d 43d0 1dbe
00000080: c935 293e 88dd 053e a847 753d 0648 613d
00000090: fd6e 943d 1b1a 5c3d fd82 0cbc d3f5 023e
000000a0: b3bf 9a3b 7db3 223e d699 183d f405 713b
000000b0: c4bf 1dbd e4f9 433d 6b66 dbbd f095 183e
000000c0: 2271 5dbd a938 033e 01b1 613c 196b e73d
000000d0: cc7c 913d 7fa4 c2bd dca7 0c3d 3990 563d
000000e0: 9389 3a3c b9b7 12bd a0f2 683c 902b 05be
000000f0: f6eb 1cbc 4594 2fbc da0e b53b eae8 a23c
00000100: 18ab 1dbe f023 153d 34fa 433c f298 273d
00000110: c341 ffbd 82a2 323c 7272 303d 624c 16be
00000120: d6bf 253d c6cd dfbd 3e97 853b 6128 b83d
00000130: 60a8 233d 1a53 20bd e853 2ebe aca5 27be
00000140: 1304 273e 044c a5bd e291 7abb 2a97 1f3b
00000150: 25c6 86bc f7c7 72bd d296 02be 9bb8 cabb
00000160: 62ab e13d 3d36 0ebd 9f8a a0bd e967 c4bb
00000170: 28fd 123c 9fae fe3d ef38 003e 44c6 e7bd
00000180: 0dfb 19be c41f 6bbd 12d9 cdbd 947e cfbc
00000190: 18dc 1fbe 0e65 b53c 4dbd 16bc fe68 eabd
000001a0: 8007 8c3d d27a 0bbb 538e 343d b549 f93d
000001b0: 3d07 853b b8c3 fdbd 7d84 a93b 6294 ee3d
000001c0: 1b48 4d3c 38f7 8ebb b16c dabd 9701 813c
000001d0: a31f bc3c 16ea e53d 5eef a63d ee1c 1fbe
000001e0: 1b82 2abe cc19 01bd 1166 a33d 1111 b8bc
000001f0: 726a 813c d706 9dbd 00ec bebd 0312 2ebe
00000200: e9c1 2c3d 35f3 c5bd f5da 803d 06e2 e63d
00000210: 703e bd3b 3bf2 9ebd b4c6 90bc 9978 41bc
00000220: 20e9 b3bd 80ed 5c3d 3e80 b8bc 0884 ce3d
00000230: 66d1 13bd b5ad da3d f9a5 74bd a3d9 2b3b
00000240: eb15 74bd 2773 243d b1a8 06be 9e2f ad3b
00000250: 38ad e4bd 590d c1bd cd18 843d 6115 f7bb
00000260: 953a f9bc 2a11 2f3d c10f 90bd 4a2e 373c
00000270: 482f 8839 bde7 92bd 1de6 933d a01a 0e3c
00000280: 4153 58bd 75e7 d7bd d4a0 c63d 2320 8dbd
00000290: 6462 cabd 9fe3 95bd bedb 8e3d cc4f 80bd
000002a0: ae36 97bd 2294 0d3d 010d dbbd d97e 01be
000002b0: f39e 9cbd 598c fabd bdbf b13c 5eaf d83d
000002c0: 19b0 b83c 3d68 623d 99b4 e23d 9a4b ad3d
000002d0: 5217 223d 9793 74bd 9b83 963d 7203 fdbd
000002e0: 2049 0bbe aa5a 0f3e 7d40 d1bd d50c 49bd
000002f0: 5eee 0fbe eee3 e4bd 8312 19be 7186 22be
00000300: 2e00 093d 8b94 1fbc 6950 4a3b 2320 58bc
00000310: 5733 003e b481 013e c303 d83d 6fa2 8fbd
00000320: ea92 d8bd 97f7 823c b496 ca3d 4b0b 04be
00000330: 0742 683d 5d4d fe3d cf2d d53c 3b55 bcbd
00000340: 7ff7 15be a691 6fbd c5b0 d03c 84e1 52bd
00000350: 0499 dabc 9847 16bd b4a8 8a3d e715 7b3d
00000360: 8722 c93d 84d6 c43d 751a d3bc b385 693d
00000370: b40a 2d3c 387b a0bd 3f9f c63c 745d 12bd
00000380: 3624 10be 5f1e 733d cc8c 35be 4b9d 56bc
00000390: 890c a1bd 4d74 f43b 3d7c 9fbd c3da 03bd
000003a0: 6c34 003e 9554 4f3d b7c8 acbc 5710 b0bc
000003b0: d73e a13d 0977 35bd 1de2 29bd d08e a23d
000003c0: 80d9 cabd 3842 5bbd 22e5 133d 206d a43d
000003d0: be93 afbc de74 733d 0088 98bd e423 e6bc
000003e0: f55a 003d 1b31 9a3d 2e23 2b3e 732a b8bd
000003f0: 9a28 a1bd 55c7 65bd a37a 233e 58e3 ccbd

lstm_layer.lstm1.weight_hh_l0 f4 [200, 50]
0.1258919 0.076517664 0.11032435 -0.121365264 0.12917191 -0.101930894 -0.006349137 -0.051930465
-0.043688238 -0.059841044 -0.0015293201 0.048739467 0.010910451 0.026196042 0.07524513 -0.023008967
-0.12834384 -0.13139452 0.009147418 0.115748234 -0.071255766 0.15919428 0.039115533 -0.1039588
0.013160828 0.015779745 -0.19917351 -0.09892078 0.109685436 -0.043634772 -0.075765565 0.12025793
0.009151928 -0.03989663 0.075810246 -0.06540282 0.017388122 -0.024884082 -0.036417905 -0.11930933
-0.013685259 -0.05314726 -0.0006377994 -0.069432124 0.04057484 0.027928986 -0.17466545 -0.115668714
-0.053084232 0.09238661 0.15698455 0.048902597 -0.06396802 0.14498541 0.10047984 -0.050591588
-0.15032607 0.117873706 0.040014975 0.04379739 0.016675187 0.123695254 -0.01806225 -0.12619272
-0.095093615 -0.00085264334 -0.029935071 -0.058394212 0.13582273 -0.015087827 0.07885799 -0.12307084
0.017697146 0.094660066 -0.027995361 0.06430573 -0.05396982 0.020484075 -0.049604334 0.022076614
-0.07579708 0.10044878 -0.02349501 -0.108228184 0.12557717 -0.017691923 -0.011185567 0.040455908
0.08442394 -0.09124683 0.15640016 -0.013854927 -0.056988932 0.1269162 -0.101860695 0.17898297
-0.047080435 0.031183131 0.025866939 -0.047834624 -0.08570654 0.10058078 -0.010059612 0.07147715
0.065289356 -0.1559937 -0.12636136 -0.09292246 0.10682575 -0.12184998 0.16394335 -0.03319949
0.075393446 -0.01445959 0.06583853 0.034252837 -0.036511775 0.05075277 -0.02204441 -0.02411111
-0.060075425 0.08706874 -0.029171271 0.12952954 0.08477558 -0.05898673 -0.029418362 0.025762193
0.034474153 0.15008411 -0.10517011 0.1621756 0.0679025 -0.014750403 0.1355145 0.10805066
-0.07192916 -0.066929266 0.036565784 -0.09854649 0.14249979 0.017411657 -0.08464788 0.09405766
0.079691656 -0.011416007 0.013393312 0.0476695 -0.0879762 -0.05188141 0.09068577 -0.1869672
0.14307433 -0.023148013 0.16961244 -0.031839762 0.05220667 0.13163224 -0.12013902 -0.21235053
-0.048129965 0.048425704 0.050140373 -0.0012712925 0.08162972 0.08746484 -0.00222818 -0.08396495
0.06134817 0.006177027 -0.017002095 0.0030708306 0.069089465 -0.13360186 -0.03337214 -0.03994683
-0.08393855 -0.028809458 0.18716395 -0.0752474 0.14832607 0.06834091 -0.053499166 0.059291214
-0.07079903 0.09312324 -0.0047932817 -0.081435375 -0.07479873 0.03185126 0.07512373 -0.007318082
0.05647291 -0.10825158 -0.15108117 0.05613599 0.025282932 0.06522976 -0.023418808 0.13509995
-0.06067751 -0.13492681 0.047721956 -0.042943608 0.006874562 0.10324978 0.06859231 -0.04011768
0.03870667 0.0764582 -0.059582014 0.15198995 -0.06779126 0.04228555 -0.055922776 0.033622008
-0.096436515 -0.0011033008 0.11719833 -0.026401807 -0.05262055 -0.004175341 -0.014898166 -0.13288286
0.05748989 0.0986313 0.032556355 -0.034919187 -0.11246422 0.04202308 0.0587194 -0.14307964
-0.0668643 0.14644088 0.12823896 0.17559938 0.094617076 -0.048151728 -0.01582569 -0.06764287
0.1270132 -0.006744883 -0.051668897 0.123123966 -0.03823869 0.10334976 0.07170071 0.020138394
-0.09503764 0.07945837 0.028070288 -0.035082344 0.055801284 -0.071188174 0.13909854 0.09906248
00000000: cee9 003e 4bb5 9c3d bcf1 e13d 5a8e f8bd
00000010: a445 043e 25c1 d0bd 6c0c d0bb 0ab5 54bd
00000020: 70f2 32bd e21b 75bd 7873 c8ba 09a3 473d
00000030: c0c1 323c 1599 d63c 1e1a 9a3d 4d7d bcbc
00000040: 916c 03be 498c 06be 0ddf 153c 690d ed3d
00000050: 8bee 91bd d303 233e 9c37 203d 5ae8 d4bd
00000060: 83a0 573c 8644 813c 24f4 4bbe fa96 cabd
00000070: c2a2 e03d 60ba 32bd fa2a 9bbd ca49 f63d
00000080: f8f1 153c a66a 23bd 6742 9b3d eaf1 85bd
00000090: 8971 8e3c b4d9 cbbc f12a 15bd 7358 f4bd
000000a0: 2338 60bc f1b0 59bd fe31 27ba 6e32 8ebd
000000b0: ce31 263d 54cb e43c 80db 32be b8e3 ecbd
000000c0: da6e 59bd 3135 bd3d 8fc0 203e 174e 483d
000000d0: aa01 83bd 0e77 143e 60c8 cd3d 2039 4fbd
000000e0: 14ef 19be c567 f13d bee6 233d e464 333d
000000f0: 679a 883c f053 fd3d 49f7 93bc aa38 01be
00000100: 71c0 c2bd ed83 5fba 653a f5bc c52e 6fbd
00000110: 1d15 0b3e ef32 77bc 4c80 a13d 910c fcbd
00000120: 9bf9 903c 23dd c13d 8756 e5bc b9b2 833d
00000130: 750f 5dbd 38ce a73c ea2d 4bbd 04da b43c
00000140: 803b 9bbd 17b8 cd3d 9b78 c0bc bda6 ddbd
00000150: 4d97 003e a7ee 90bc ab43 37bc 18b5 253d
00000160: 75e6 ac3d 9edf babd 5d27 203e c7ff 62bc
00000170: 3a6d 69bd 52f6 013e 579c d0bd 5047 373e
00000180: 6ad7 40bd c473 ff3c e7e6 d33c 3dee 43bd
00000190: e986 afbd 4cfd cd3d 12d1 24bc 9d62 923d
000001a0: 6db6 853d d0bc 1fbe df64 01be 214e bebd
000001b0: 75c7 da3d 7b8c f9bd c4e0 273e 30fc 07bd
000001c0: e167 9a3d ebe7 6cbc 5ad6 863d b44c 0c3d
000001d0: 5f8d 15bd 23e2 4f3d 7b96 b4bc aa84 c5bc
000001e0: a611 76bd 1851 b23d 97f8 eebc 64a3 043e
000001f0: d29e ad3d 129c 71bd c7fe f0bc 3c0b d33c
00000200: c534 0d3d a6af 193e 6d63 d7bd 5c11 263e
00000210: 7710 8b3d adab 71bc 50c4 0a3e aa49 dd3d
00000220: 984f 93bd 3612 89bd 01c6 153d bed2 c9bd
00000230: 77eb 113e e4a2 8e3c de5b adbd 4da1 c03d
00000240: 6135 a33d 340a 3bbc 9f6f 5b3c 1841 433d
00000250: de2c b4bd 9a81 54bd 76b9 b93d 5474 3fbe
00000260: 1482 123e e7a0 bdbc e2ae 2d3e 696a 02bd
00000270: a9d6 553d 9aca 063e 720b f6bd 6b72 59be
00000280: ed23 45bd 085a 463d fe5f 4d3d 7fa1 a6ba
00000290: 7c2d a73d c420 b33d a806 12bb d1f5 abbd
000002a0: 3848 7b3d a868 ca3b fa47 8bbc fd3f 493b
000002b0: c77e 8d3d edce 08be 3ab1 08bd 4a9f 23bd
000002c0: f9e7 abbd d001 ecbc e8a7 3f3e 4f1b 9abd
000002d0: cae2 173e 52f6 8b3d f121 5bbd 58db 723d
000002e0: 15ff 90bd 66b7 be3d f610 9dbb 97c7 a6bd
000002f0: 1430 99bd 7876 023d 78da 993d 85cc efbb
00000300: 2350 673d 01b3 ddbd 06b5 1abe daee 653d
00000310: 271e cf3c 2e97 853d cdd8 bfbc a457 0a3e
00000320: fb88 78bd 412a 0abe 1978 433d a3e5 2fbd
00000330: 0144 e13b 9f74 d33d 207a 8c3d 7052 24bd
00000340: e38a 1e3d 1e96 9c3d 450c 74bd 41a3 1b3e
00000350: 25d6 8abd 9d33 2d3d 480f 65bd 3bb7 093d
00000360: 8280 c5bd a29c 90ba ae05 f03d 9a48 d8bc
00000370: a588 57bd 4dd1 88bb 7017 74bc 7212 08be
00000380: 857a 6b3d 35ff c93d d059 053d 6c07 0fbd
00000390: a453 e6bd 6520 2c3d c183 703d 7883 12be
000003a0: 26f0 88bd 99f4 153e 1351 033e 53d0 333e
000003b0: 99c6 c13d bf3a 45bd e1a4 81bc 5888 8abd
000003c0: c00f 023e 2e04 ddbb c4a2 53bd 6b28 fc3d
000003d0: 2ca0 1cbd 0aa9 d33d d2d7 923d 46f9 a43c
000003e0: 18a3 c2bd 12bb a23d a9f3 e53c 81b2 0fbd
000003f0: e38f 643d 1bcb 91bd d96f 0e3e 45e1 ca3d

lstm_layer.lstm1.bias_ih_l0 f4 [200]
0.06828236 0.041759375 0.01260867 0.1306001 -0.059713587 0.13745192 -0.034407876 -0.09058713
0.17334987 -0.11368884 0.057767343 0.13079102 -0.00094582856 -0.07139431 0.016013296 0.14168279
-0.08810298 0.1537356 -0.013337042 0.10458928 -0.05660375 -0.018058304 0.085249275 0.139754
-0.09312074 0.024013193 0.07204904 0.08850908 0.060965676 -0.009436541 0.16351317 -0.01203536
-0.07279945 0.0012798046 0.07485734 0.10196068 0.12855884 0.10432139 -0.11712151 0.11697058
-0.013145585 -0.08623193 0.14090724 -0.096125074 -0.051517054 0.064961985 0.064052 0.11695046
-0.054305356 0.0077065886 0.11534142 0.09760174 0.13349956 0.049077258 0.064264916 -0.0914823
-0.10687412 0.038209394 0.06944976 -0.029095385 0.014133332 -0.036010083 -0.0853462 -0.018811535
0.10479433 0.1369128 -0.033652164 0.17568661 0.1311438 -0.11069322 0.015310642 -0.007868613
0.11023279 0.0980279 0.0688595 0.1354999 0.10612293 0.050815374 -0.09397171 0.04834687
0.042302694 0.06205562 -0.008699545 -0.03913462 -0.01995323 0.10822822 -0.07191865 -0.08896517
0.03415189 0.13216515 0.126213 0.020100998 -0.10297314 0.13489698 0.0961181 -0.10343214
0.11045366 -0.002138392 0.1356668 -0.030434914 -0.1426789 -0.10600546 0.014544879 0.044067986
0.12451372 -0.061818246 -0.11753335 -0.0071038995 -0.07751676 0.13642567 0.12874293 -0.1473155
0.009136469 -0.07118929 0.08058498 0.062006682 0.0656763 -0.026489465 -0.039638825 0.0012774229
0.057717197 0.042761896 0.12673277 0.10112777 -0.055521376 -0.04023884 -0.098432176 -0.063346304
0.06276305 0.07195559 -0.041020676 0.0063528568 -0.043579828 0.12740421 0.1359019 0.07798303
-0.058372658 -0.0050496208 -0.1371751 -0.02493275 -0.013484869 -0.123605184 -0.121375285 -0.07567309
-0.052508127 0.13177289 -0.1238062 0.002705186 -0.060763042 -0.060420755 0.022366643 -0.049914606
0.15087327 0.17278033 0.02783131 0.14984033 0.09661806 0.06632771 0.17759384 0.0191612
0.023119139 -0.035729054 0.053568356 0.16201808 0.009621488 0.12113611 -0.012935687 -0.019612454
0.018395731 -0.08302247 0.00047330247 0.09452768 0.12991631 0.056446806 0.15430512 0.10045605
-0.043481447 -0.07193845 0.04389429 0.09987597 0.1581888 0.13434546 -0.028324015 -0.06887694
-0.064024635 -0.033331394 0.18543509 0.17872186 -0.00488711 -0.023648724 0.12916784 0.15907755
0.0102329785 0.012644608 -0.06736927 -0.04378809 0.049085703 0.01747507 -0.024765288 -0.026887173
00000000: 9fd7 8b3d e10b 2b3d 9894 4e3c 08bc 053e
00000010: 3c96 74bd 32c0 0c3e 46ef 0cbd bf85 b9bd
00000020: a182 313e b2d5 e8bd 739d 6c3d 15ee 053e
00000030: 7bf1 77ba 2e37 92bd 512e 833c 4b15 113e
00000040: 566f b4bd dd6c 1d3e 9c83 5abc e832 d63d
00000050: 55d9 67bd 02ef 93bc 2c97 ae3d ac1b 0f3e
00000060: 16b6 bebd 51b7 c43c 728e 933d 4044 b53d
00000070: 25b7 793d b99b 1abc ff6f 273e f52f 45bc
00000080: e117 95bd 1ebf a73a ce4e 993d c3d0 d03d
00000090: eea4 033e 74a6 d53d 67dd efbd 458e ef3d
000000a0: 9460 57bc 5e9a b0bd fd49 103e 39dd c4bd
000000b0: 8c03 53bd ca0a 853d b22d 833d b983 ef3d
000000c0: 4b6f 5ebd 8d87 fc3b 1f38 ec3d 6ce3 c73d
000000d0: 1cb4 083e 3c05 493d 539d 833d 125b bbbd
000000e0: d2e0 dabd 7481 1c3d ad3b 8e3d 7259 eebc
000000f0: 7e8f 673c 4f7f 13bd fdc9 aebd a61a 9abc
00000100: 699e d63d de32 0c3e dad6 09bd 31e7 333e
00000110: 8f4a 063e 20b3 e2bd 7dd9 7a3c 5beb 00bc
00000120: bbc1 e13d dac2 c83d 3606 8d3d 7cc0 0a3e
00000130: fb56 d93d c823 503d 3d74 c0bd 5e07 463d
00000140: 9745 2d3d 092e 7e3d 8988 0ebc a04b 20bd
00000150: f574 a3bc c2a6 dd3d 164a 93bd 5f33 b6bd
00000160: dae2 0b3d 4d56 073e fb3d 013e d9aa a43c
00000170: 95e3 d2bd 6f22 0a3e 91d9 c43d 3bd4 d3bd
00000180: 8735 e23d 4424 0cbb 3dec 0a3e a452 f9bc
00000190: 6b1a 12be 6419 d9bd a54d 6e3c a280 343d
000001a0: 0d01 ff3d 2135 7dbd 53b5 f0bd d4c7 e8bb
000001b0: 1bc1 9ebd 2cb3 0b3e 30d5 033e e0d9 16be
000001c0: 21b1 153c b1cb 91bd bd09 a53d b8fa 7d3d
000001d0: 4c81 863d 6f00 d9bc 525c 22bd 336f a73a
000001e0: de68 6c3d 1927 2f3d 3cc6 013e 141c cf3d
000001f0: 626a 63bd 7bd1 24bd cf96 c9bd b5bb 81bd
00000200: ea89 803d 745d 933d 4c05 28bd a02b d03b
00000210: c380 32bd 4076 023e de29 0b3e 91b5 9f3d
00000220: 2b18 6fbd 4a77 a5bb a177 0cbe c43f ccbc
00000230: a4ef 5cbc b724 fdbd 9b93 f8bd 7efa 9abd
00000240: c312 57bd 79ef 063e 1b8e fdbd 7d49 313b
00000250: abe2 78bd c17b 77bd 403a b73c 4273 4cbd
00000260: 867e 1a3e 54ed 303e 7dfe e33c be6f 193e
00000270: b0df c53d d3d6 873d 29db 353e f3f7 9c3c
00000280: 5964 bd3c a158 12bd 7e6a 5b3d 11e8 253e
00000290: 72a3 1d3c 3516 f83d 34f0 53bc 4caa a0bc
000002a0: a5b2 963c af07 aabd 9525 f839 ba97 c13d
000002b0: c808 053e c434 673d 2902 1e3e e7bb cd3d
000002c0: 9a19 32bd 7754 93bd 80ca 333d c68b cc3d
000002d0: 3ffc 213e db91 093e c407 e8bc 5a0f 8dbd
000002e0: 591f 83bd 8086 08bd b2e2 3d3e dd02 373e
000002f0: 0d24 a0bb f8ba c1bc 9344 043e 3ae5 223e
00000300: 39a8 273c 542b 4f3c e6f8 89bd 245b 33bd
00000310: 170e 493d e127 8f3c 93e0 cabc 7d42 dcbc

lstm_layer.lstm1.bias_hh_l0 f4 [200]
-0.08655671 0.0024952 0.11926395 -0.058677714 -0.08466731 -0.07540341 0.13408981 -0.126931
-0.06958521 -0.056109257 0.08727541 0.092177205 0.1354771 0.1230124 -0.121382274 -0.06139324
-0.061825614 -0.008758709 0.06355833 -0.068036005 0.13998456 0.092670694 -0.0645046 0.14437968
-0.026951017 0.13149177 0.1560714 0.09615983 0.0062475502 0.0571308 0.044744156 0.017627954
-0.11587454 -0.09683483 -0.063298926 -0.044537205 0.12885562 0.1538815 -0.03479103 -0.06206386
0.061301008 0.075186506 0.12778623 0.06782159 0.09369948 -0.028615875 0.09501698 0.06019838
0.102576144 -0.0009189081 0.15553096 -0.07826149 0.041363988 0.1118209 0.14486547 0.13699624
0.046589043 0.113186926 0.088298894 -0.0034122851 -0.08533822 0.13511103 -0.11657718 -0.06080834
-0.072258145 0.031203099 0.13419348 -0.0064886846 0.085146286 0.049705666 -0.09323925 0.050140433
-0.10483398 0.11452362 -0.027071996 0.13295364 0.088188164 0.006563966 -0.04729022 0.08274144
-0.05624578 0.16426763 -0.05496425 0.019994412 0.025247961 0.0031038625 0.10965283 0.060914427
-0.059399962 0.12865923 0.016135182 0.1115134 -0.09039485 -0.07602985 -0.031645805 0.041240193
0.11937895 -0.012174839 0.12695552 0.04759349 0.06677983 0.04376163 -0.015419867 -0.007211622
0.07745839 0.06530485 0.047998406 -0.02298242 -0.018164122 -0.13523066 -0.0145672215 -0.0017034868
-0.09186602 0.13994244 0.058941673 0.055499136 -0.06088547 -0.092023306 -0.14446631 0.085591406
0.07124672 -0.1402186 -0.027050162 -0.024600623 0.0607842 0.096333824 0.044076905 0.041130736
-0.01911801 -0.1392404 0.07054056 0.07484472 -0.07626625 0.090129115 -0.0948866 0.011309925
0.08007714 -0.10037998 0.04396045 -0.017297592 -0.014364868 0.033812046 -0.0629739 0.052954208
-0.11664517 0.05827483 -0.08672612 -0.09011715 -0.11631333 -0.07101663 -0.0068846517 -0.05004085
-0.022226151 0.11291875 0.03593146 0.13397938 -0.08364547 0.040684007 0.08084061 -0.05326707
-0.022680374 0.15831473 0.11965861 -0.049199212 -0.10218636 -0.04045346 0.18912648 0.024124201
0.12142443 -0.029402062 0.1554239 0.06882061 0.18116266 -0.08669407 -0.06929921 -0.077356
0.10635701 -0.060180318 -0.044330128 0.11549382 -0.034881122 -0.063937135 -0.021218237 0.12779364
0.055891715 0.061485164 0.14306776 0.040060457 -0.11510455 -0.01520524 0.07375587 0.014568665
0.10703574 0.16493131 -0.05512908 -0.05652713 0.0984211 -0.0130380215 0.120566465 0.1181171
00000000: a544 b1bd 8286 233b a840 f43d 0b58 70bd
00000010: 0e66 adbd 1a6d 9abd d74e 093e 33fa 01be
00000020: b182 8ebd d2d2 65bd 73bd b23d 67c7 bc3d
00000030: 82ba 0a3e eded fb3d 4597 f8bd 7a77 7bbd
00000040: db3c 7dbd b080 0fbc df2a 823d 7656 8bbd
00000050: 1d58 0f3e 22ca bd3d fd1a 84bd 44d8 133e
00000060: 61c8 dcbc c7a5 063e 2ed1 1f3e 72ef c43d
00000070: 40b8 cc3b fc01 6a3d a645 373d 8068 903c
00000080: a14f edbd 5751 c6bd dea2 81bd a56c 36bd
00000090: baf2 033e 1d93 1d3e 0a81 0ebd ad36 7ebd
000000a0: c416 7b3d 62fb 993d 65da 023e 0ce6 8a3d
000000b0: 83e5 bf3d d76b eabc 4398 c23d 9492 763d
000000c0: 7113 d23d e1e2 70ba 8243 1f3e 8f47 a0bd
000000d0: 496d 293d 5b02 e53d 9d57 143e be48 0c3e
000000e0: 27d4 3e3d 8cce e73d 0dd6 b43d a5a0 5fbb
000000f0: cec5 aebd 8c5a 0a3e 04c0 eebd 2a12 79bd
00000100: 14fc 93bd a49d ff3c 046a 093e 089f d4bb
00000110: 2d61 ae3d 2b98 4b3d 38f4 bebd 0e60 4d3d
00000120: 33b3 d6bd 5c8b ea3d 17c6 ddbc 0025 083e
00000130: ff9b b43d 8a16 d73b 64b3 41bd 5874 a93d
00000140: fa61 66bd c635 283e 3222 61bd 52cb a33c
00000150: d0d4 ce3c 2c6a 4b3b aa91 e03d 6881 793d
00000160: 604d 73bd 3fbf 033e ee2d 843c 2361 e43d
00000170: ef20 b9bd 8ab5 9bbd 089f 01bd 7aeb 283d
00000180: f37c f43d fa78 47bc a100 023e 64f1 423d
00000190: ddc3 883d 653f 333d 9ca3 7cbc 784f ecbb
000001a0: 81a2 9e3d 8dbe 853d fa99 443d a145 bcbc
000001b0: edcc 94bc e879 0abe 5bab 6ebc 8847 dfba
000001c0: 4024 bcbd 124d 0f3e d36c 713d 1053 633d
000001d0: 0b63 79bd b776 bcbd faee 13be 8c4a af3d
000001e0: cde9 913d 7795 0fbe 4d98 ddbc 3f87 c9bc
000001f0: daf8 783d ab4a c53d fc89 343d b478 283d
00000200: 5f9d 9cbc 0995 0ebe 9277 903d 3048 993d
00000210: 7b31 9cbd 9d95 b83d e853 c2bd 434d 393c
00000220: 7cff a33d 0594 cdbd df0f 343d aeb3 8dbc
00000230: a05a 6bbc 807e 0a3d 76f8 80bd 83e6 583d
00000240: aae3 eebd 97b1 6e3d 779d b1bd 578f b8bd
00000250: af35 eebd 2b71 91bd a598 e1bb a2f7 4cbd
00000260: 9e13 b6bc f241 e73d de2c 133d e431 093e
00000270: 514e abbd 46a4 263d c38f a53d 922e 5abd
00000280: 31cc b9bc 421d 223e 930f f53d 1d85 49bd
00000290: 1547 d1bd 87b2 25bd 5faa 413e 1ea0 c53c
000002a0: 5fad f83d 98dc f0bc 7127 1f3e d2f1 8c3d
000002b0: b482 393e a98c b1bd bfec 8dbd d36c 9ebd
000002c0: b4d1 d93d a37f 76bd 8293 35bd 0688 ec3d
000002d0: 82df 0ebd 79f1 82bd ded1 adbc 56dc 023e
000002e0: b6ee 643d ded7 7b3d 5b80 123e 6f16 243d
000002f0: efbb ebbd 661f 79bc 510d 973d 69b1 6e3c
00000300: 8e35 db3d c1e3 283e 08cf 61bd fe88 67bd
00000310: 0091 c93d 6d9d 55bc 8deb f63d 61e7 f13d

gbrbm.W f4 [50, 50]
0.040957253 0.03388552 0.0062278765 0.023398057 -0.0072417203 -0.0654042 0.0029083572 -0.067115575
-0.008085691 0.032133777 0.02965793 0.026560562 -0.021473484 -0.023893964 0.023982823 -0.009340199
-0.024047052 -0.08363526 0.014449858 -0.0070520504 0.015046107 0.020308122 -0.060636763 0.017545773
0.01076963 -0.0067123612 0.119729325 -0.02853204 0.12267906 -0.0061840713 -0.011004157 0.019773288
0.008487288 -0.008495156 -0.030538682 -0.022039874 0.014131047 0.010827907 0.03114539 0.05048913
-0.004766629 0.025233814 0.07758967 -0.014344536 -0.070048384 0.012038398 -0.035859253 0.022814715
0.0088185035 -0.026600325 -0.0124648735 -0.01053923 -0.0062397816 0.0012573634 -0.007717129 -0.07428579
-0.006664276 -0.114283144 0.006504273 -0.0048018033 0.020950308 0.0029511175 -0.01141382 -0.0149736935
-0.0069921413 -0.0091571 -0.039648704 -0.05281727 -0.012751299 0.001380298 -0.009091199 0.0067041097
-0.07740176 0.0011937708 -0.016504591 0.0009450481 0.13176763 -0.017094325 0.11728452 0.019188106
-0.008284009 0.009106151 -0.0044795005 -0.016017638 -0.044601895 -0.018507436 -0.0018107286 -0.001507637
-0.0044015124 -0.009925319 -0.0081872195 -0.0017401021 0.052049756 -0.0053764703 -0.04989989 -0.010003473
-0.018942315 -0.0151575785 -0.0064279377 -0.011013265 0.038468838 0.022868287 0.004876918 -0.0011927477
-0.013749162 -0.033893794 -0.01782538 -0.077638894 0.009842492 0.0027409056 0.013701133 0.023764895
0.0005359501 -0.030757505 0.018736538 -0.0009487552 -0.011269552 -0.03207689 0.020855173 -0.009037257
-0.00027107022 0.0062025567 -0.05662682 0.014156089 0.0026120262 -0.00044524262 0.09251255 0.0017884193
0.094847694 0.0004349263 0.0025613937 0.015189459 0.011910205 -0.0036559643 -0.035605714 -0.00014963487
0.0021138983 0.0065677776 0.018679589 0.025833324 0.00162287 0.021208877 0.055299263 -0.0041420986
-0.05730438 0.008800043 -0.004215222 0.015691703 0.017769188 -0.018182417 -0.027612992 -0.031799473
0.021224465 0.0010995232 0.010158739 0.048482213 0.010936652 0.15342766 0.004197426 -0.02028202
-0.029286811 -0.028438091 0.01126274 0.018440155 -0.00013112821 0.0029368803 0.04636942 0.08778872
0.0038149722 0.021401186 -0.02740924 -0.017979253 0.09191432 -0.017684888 -0.003001104 0.012516884
-0.11309884 0.008468214 -0.11574578 0.0068780817 -0.0048285923 -0.04673324 -0.0015364937 0.0063006617
0.032131214 0.01913199 -0.015767056 -0.010425266 -0.030151682 -0.037901305 -0.0009946694 -0.009376252
-0.07278558 0.016743813 0.089904785 0.017590825 0.023445204 -0.02472524 0.0056459485 0.029987907
-0.00199859 0.021856561 -0.003473077 0.0034568978 0.008823632 0.06763439 -0.0034944825 0.09417673
0.00800959 -0.007639152 -0.009019265 0.00012847446 0.0005977817 -0.0026005874 0.0021419842 0.012702894
0.044665083 0.063900486 0.01261787 -0.0030177727 -0.003784845 -0.0027431212 0.055023324 -0.000871634
0.017456772 0.0055486774 -0.08478979 0.0023095696 -0.08949106 0.0026940627 6.109989e-05 -0.00042955868
0.009511534 0.018737357 0.008819632 0.0174393 0.0027769327 0.0018697684 -0.004176854 0.011716358
-0.0054399106 0.012824004 -0.02732754 0.012510855 0.039439347 0.0019788267 0.011096749 0.009448973
0.00654675 0.008742884 -0.024744675 -0.016777549 -0.010638847 -0.008976864 0.014105628 0.057546392
00000000: cbc2 273d 8bcb 0a3d 3713 cc3b 48ad bf3c
00000010: f44b edbb a3f2 85bd 239a 3e3b e473 89bd
00000020: d979 04bc b59e 033d 30f5 f23c 8995 d93c
00000030: 29e9 afbc 46bd c3bc a077 c43c a207 19bc
00000040: 53fe c4bc f748 abbd 19bf 6c3c e314 e7bb
00000050: f283 763c 385d a63c 415e 78bd 27bc 8f3c
00000060: 1a73 303c 5ef3 dbbb a634 f53d 06bc e9bc
00000070: 293f fb3d c0a3 cabb c84a 34bc 97fb a13c
00000080: 440e 0b3c 442f 0bbc 422c fabc f78c b4bc
00000090: e885 673c 8967 313c 9e24 ff3c b1cd 4e3d
000000a0: 6231 9cbb 25b7 ce3c 55e7 9e3d 5805 6bbc
000000b0: 8775 8fbd b33c 453c 27e1 12bd ede5 ba3c
000000c0: 7c7b 103c ede8 d9bc 7839 4cbc bcac 2cbc
000000d0: 1577 ccbb 1dce a43a f8df fcbb 2623 98bd
000000e0: 0060 dabb 480d eabd cc21 d53b 7258 9dbb
000000f0: fb9f ab3c 8967 413b 0801 3bbc 3954 75bc
00000100: 551e e5bb a907 16bc ae66 22bd ec56 58bd
00000110: d3ea 50bc 1eeb b43a 41f3 14bc 26ae db3b
00000120: d084 9ebd 4d78 9c3a a334 87bc 1bbd 773a
00000130: 18ee 063e 6609 8cbc de32 f03d 6030 9d3c
00000140: a7b9 07bc f731 153c c6c8 92bb 6c37 83bc
00000150: 7ab0 36bd e89c 97bc f855 edba e79b c5ba
00000160: 903a 90bb ce9d 22bc b023 06bc 2314 e4ba
00000170: 2032 553d 1a2d b0bb d463 4cbd 9be5 23bc
00000180: ea2c 9bbc 7e57 78bc 73a1 d2bb fb70 34bc
00000190: 8091 1d3d 4656 bb3c 8ece 9f3b f955 9cba
000001a0: 2a44 61bc 38d4 0abd 8806 92bc 2401 9fbd
000001b0: 6742 213c c4a0 333b b87a 603c 99ae c23c
000001c0: 017f 0c3a 2af7 fbbc 5e7d 993c e2b5 78ba
000001d0: eda3 38bc 0f63 03bd 78d8 aa3c 0111 14bc
000001e0: 6e1e 8eb9 d13e cb3b 86f1 67bd f1ee 673c
000001f0: 872e 2b3b 746f e9b9 3877 bd3d 6569 ea3a
00000200: 823f c23d d206 e439 0edd 273b 35dd 783c
00000210: 0523 433c e798 6fbb 4cd7 11bd 4ee7 1cb9
00000220: 5489 0a3b 8336 d73b f005 993c 68a0 d33c
00000230: 7bb6 d43a 3dbe ad3c 7b81 623d 71ba 87bb
00000240: ffb7 6abd 0e2e 103c d81f 8abb e38b 803c
00000250: b090 913c 4bf3 94bc a434 e2bc 2a40 02bd
00000260: eede ad3c e01d 903a d770 263c 4995 463d
00000270: a52f 333c 241c 1d3e 908a 893b 7b26 a6bc
00000280: e5ea efbc 00f7 e8bc 5b87 383c cf0f 973c
00000290: 767f 09b9 ad78 403b dced 3d3d 93ca b33d
000002a0: 9d04 7a3b 8a51 af3c 5889 e0bc 3a49 93bc
000002b0: 933d bc3d e6df 90bc 2cae 44bb 9e13 4d3c
000002c0: 5da0 e7bd 44be 0a3c 200c edbd 8861 e13b
000002d0: 2b39 9ebb 5b6b 3fbd 2c64 c9ba c875 ce3b
000002e0: 059c 033d b1ba 9c3c ea29 81bc bcce 2abc
000002f0: a900 f7bc 663e 1bbd 915f 82ba da9e 19bc
00000300: 9b10 95bd 522a 893c 0020 b83d a21a 903c
00000310: 2810 c03c 968c cabc a601 b93b 33a9 f53c
00000320: c7fa 02bb 880c b33c 909c 63bb 1f8d 623b
00000330: ff90 103c e683 8a3d b003 65bb bbdf c03d
00000340: a83a 033c da51 fabb 8ac5 13bc 1ab7 0639
00000350: 73b4 1c3a 9e6e 2abb 8860 0c3b cd1f 503c
00000360: bcf2 363d 42de 823d 2fbb 4e3c d3c5 45bb
00000370: 290b 78bb f0c5 33bb 2360 613d 5e7e 64ba
00000380: 8101 8f3c aed1 b53b 45a6 adbd 265c 173b
00000390: 1747 b7bd df8e 303b c122 8038 6436 e1b9
000003a0: 44d6 1b3c 167f 993c 3880 103c dddc 8e3c
000003b0: 33fd 353b 0413 f53a fedd 88bb f8f5 3f3c
000003c0: 4741 b2bb c51b 523c 01de dfbc 54fa 4c3c
000003d0: 278b 213d 34af 013b 24cf 353c decf 1a3c
000003e0: 1f86 d63b 503e 0f3c 58b5 cabc 1271 89bc
000003f0: 8f4e 2ebc b213 13bc 4b1b 673c c4b5 6b3d

gbrbm.b f4 [50]
-0.061995678 0.0064292857 -0.021198578 -0.02451448 -0.031570878 0.1287201 -0.031059738 0.2193511
-0.026183613 -0.0516371 -0.07152104 0.00626868 0.001612145 -0.04188511 0.012816282 0.03267241
0.05863806 0.14517727 0.030740244 -0.0025231917 0.012965363 -0.0022320235 0.13300245 0.030118857
-0.009190232 0.017804304 -0.26749262 0.017618734 -0.22225535 -0.040398933 -0.0012727686 -0.059282076
-0.037413243 0.008141238 0.0141028 0.036843352 -0.026599407 -0.06821098 -0.04916116 0.010980941
-0.07832352 -0.020292716 -0.08961339 0.011596533 0.09531936 -0.009594983 0.029546931 0.030227048
-0.0035520538 0.03063663
00000000: 2eef 7dbd c2ac d23b a4a8 adbc 97d2 c8bc
00000010: 7750 01bd 34cf 033e fe70 febc 939d 603e
00000020: 047f d6bc 6c81 53bd 9f79 92bd 8069 cd3b
00000030: 9c4e d33a b98f 2bbd 62fb 513c 81d3 053d
00000040: 762e 703d 5aa9 143e f7d2 fb3c 225c 25bb
00000050: ad6c 543c 2447 12bb cb31 083e d2bb f63c
00000060: a092 16bc 55da 913c cbf4 88be 2a55 903c
00000070: e896 63be 5a79 25bd 07d3 a6ba c3d1 72bd
00000080: a13e 19bd d462 053c 6e0f 673c 0ee9 163d
00000090: 00e7 d9bc 33b2 8bbd 365d 49bd 68e9 333c
000000a0: 1568 a0bd e93c a6bc 3a87 b7bd 62ff 3d3c
000000b0: cc36 c33d 4734 1dbc 680c f23c b79e f73c
000000c0: 93c9 68bb abf9 fa3c

gbrbm.mu f4 [50]
0.024750387 -0.006805983 0.036190607 -0.058586314 0.017702699 -0.041436777 -0.015170402 -0.007302928
-0.010030288 0.0063655637 -0.0017210486 -0.009858345 -0.0057784417 0.0017526693 0.04342298 0.039955966
-0.056114975 -0.019430809 -0.012207671 0.03490725 -0.006467014 0.023283478 -0.014517893 -0.022462199
-0.01569871 -0.008986685 -0.020287685 -0.016049016 0.046474457 0.01533901 0.00660177 0.025809214
-0.0028216152 0.013708267 -0.0075787785 -0.0065429457 -0.024039347 -0.004367343 -0.010838837 -0.015208841
0.026531573 -0.024353962 -0.06232786 -0.0065429066 -0.02386277 0.03652562 -0.039491218 -0.030238638
0.041102026 -0.018039841
00000000: 53c1 ca3c b904 dfbb 9a3c 143d 34f8 6fbd
00000010: 4005 913c 9cb9 29bd 478d 78bc 664d efbb
00000020: 1456 24bc 3896 d03b cf94 e1ba e584 21bc
00000030: 1559 bdbb d3b9 e53a 4bdc 313d dea8 233d
00000040: d1d8 65bd 5c2d 9fbc af02 48bc e8fa 0e3d
00000050: 3fe9 d3bb febc be3c 75dc 6dbc a502 b8bc
00000060: 959a 80bc e43c 13bc 5c32 a6bc 3a79 83bc
00000070: 005c 3e3d 7950 7b3c a953 d83b d86d d33c
00000080: d9ea 38bb a498 603c 6757 f8bb 3566 d6bb
00000090: 2aee c4bc ee1b 8fbb 6195 31bc 812e 79bc
000000a0: be58 d93c f681 c7bc 804b 7fbd e165 d6bb
000000b0: db7b c3bc e39b 153d 8bc1 21bd 05b7 f7bc
000000c0: 995a 283d 4ac8 93bc

gbrbm.log_var f4 [50]
-0.9911146 -1.0051124 -0.9845134 -1.0218127 -1.0007689 -1.0146873 -0.99805164 -0.99486357
-1.0006317 -1.0216582 -1.0138237 -0.9919361 -0.9948573 -0.9950702 -1.0077361 -0.99035656
-1.0115588 -1.0054165 -0.98795533 -0.99965876 -1.0130836 -0.98775554 -0.98951256 -0.9945078
-0.9978665 -0.9976573 -0.9894735 -1.0085032 -1.007106 -1.0017862 -1.0067308 -0.98914695
-0.9965955 -1.0085478 -0.9951028 -0.99656004 -0.9900254 -0.98711735 -0.9929079 -1.0064834
-0.9979121 -0.9929236 -0.9977297 -0.9962152 -1.0038933 -0.98316973 -0.99427176 -1.0010374
-0.9877391 -1.0017697
00000000: b0b9 7dbf 86a7 80bf 1209 7cbf c2ca 82bf
00000010: 3219 80bf 46e1 81bf 5080 7fbf 61af 7ebf
00000020: b314 80bf b2c5 82bf fac4 81bf 86ef 7dbf
00000030: f8ae 7ebf ecbc 7ebf 7ffd 80bf 0288 7dbf
00000040: c27a 81bf 7db1 80bf a4ea 7cbf a3e9 7fbf
00000050: b9ac 81bf 8cdd 7cbf b250 7dbf 1098 7ebf
00000060: 2e74 7fbf 7866 7fbf 234e 7dbf a216 81bf
00000070: d9e8 80bf 883a 80bf 8edc 80bf bc38 7dbf
00000080: e220 7fbf 1818 81bf 0fbf 7ebf 8f1e 7fbf
00000090: 4e72 7dbf b9b3 7cbf 362f 7ebf 73d4 80bf
000000a0: 2b77 7fbf 3e30 7ebf 376b 7fbf f607 7fbf
000000b0: 937f 80bf 03b1 7bbf 9888 7ebf fe21 80bf
000000c0: 78dc 7cbf fd39 80bf

gbrbm.linear_layer.weight f4 [1, 50]
0.08434398 0.04053097 0.025373148 0.057333264 -0.014886184 -0.087806925 0.03770812 -0.0746307
-0.027121415 0.01980125 0.095661245 0.05409672 -0.052688826 -0.06735264 -0.038004674 -0.057089865
-0.0448961 -0.08994807 0.019251687 -0.013110281 0.02558022 0.08939749 -0.08948962 0.03035479
-0.0018020428 -0.022494063 0.17800288 -0.06106366 0.19620238 -0.063504115 -0.016745122 0.112440705
-0.0008757271 -0.011858003 -0.038319755 -0.07618535 -0.044542417 0.042474467 0.097234234 0.062151812
-0.016538255 0.06317506 0.13406016 -0.08579628 -0.08815279 -0.042995017 -0.0873911 -0.0017442765
0.025611876 -0.06623467
00000000: 89bc ac3d cd03 263d 59db cf3c 49d6 6a3d
00000010: 2ee5 73bc 1ed4 b3bd d473 1a3d fbd7 98bd
00000020: bb2d debc 3b36 a23c 0bea c33d 8694 5d3d
00000030: 3dd0 57bd 2ef0 89bd caaa 1bbd 10d7 69bd
00000040: f9e4 37bd b236 b8bd b7b5 9d3c 81cc 56bc
00000050: 9c8d d13c 0816 b73d 5546 b7bd 9caa f83c
00000060: 8632 ecba 7845 b8bc 6346 363e e31d 7abd
00000070: 47e9 483e 720e 82bd 112d 89bc 5047 e63d
00000080: 0d91 65ba 1248 42bc 2df5 1cbd 1107 9cbd
00000090: 1c72 36bd b5f9 2d3d be22 c73d e692 7e3d
000000a0: 3c7b 87bc ed61 813d 1147 093e f6b5 afbd
000000b0: 7389 b4bd 8b1b 30bd 1bfa b2bd 35a0 e4ba
000000c0: ffcf d13c 0ba6 87bd

gbrbm.linear_layer1.weight f4 [1, 50]
0.0639234 -0.037475698 -0.016195953 0.053646713 -0.09507881 -0.03258545 -0.084607184 0.090169966
-0.031733073 0.016683355 0.12758885 -0.056090616 0.13077421 -0.056462534 -0.09370705 0.10545629
-0.041903645 -0.03942553 0.071121454 -0.13544104 0.09865908 0.012602299 0.06161371 0.089347556
0.0068273842 -0.088449515 -0.0021483153 0.020620361 0.0006765574 -0.108177714 0.017548263 0.010984018
-0.055215493 -0.017556287 -0.077563725 0.07177988 0.07146509 -0.040949106 -0.009396121 -0.020140022
-0.114064485 -0.1124082 0.00073459744 0.033246413 0.0072005093 0.10026488 -0.07381379 0.1238706
-0.057608187 0.01927723
00000000: 46ea 823d 1e80 19bd 60ad 84bc a8bc 5b3d
00000010: aeb8 c2bd 5278 05bd 8846 adbd 08ab b83d
00000020: 8afa 01bd 88ab 883c a7a6 023e 46bf 65bd
00000030: ade9 053e 4245 67bd 7be9 bfbd 78f9 d73d
00000040: 28a3 2bbd aa7c 21bd 20a8 913d 0eb1 0abe
00000050: c60d ca3d e079 4e3c a85e 7c3d dafb b63d
00000060: 40b8 df3b 0525 b5bd c0ca 0cbb 08ec a83c
00000070: 005b 313a 478c ddbd 60c1 8f3c 50f6 333c
00000080: a429 62bd 34d2 8fbc bbd9 9ebd 5401 933d
00000090: 4a5c 923d 40ba 27bd 30f2 19bc b0fc a4bc
000000a0: a49a e9bd 4536 e6bd 0092 403a 642d 083d
000000b0: 40f2 eb3b ac57 cd3d af2b 97bd deaf fd3d
000000c0: 90f6 6bbd 48eb 9d3c
