models_weight/lstm-gbrbm_113.pt (torch, 784674 bytes, 10 tensors)

lstm_layer.lstm1.weight_ih_l0 f4 [800, 16]
-0.0694152 0.059387013 0.004676091 -0.048232213 0.06392298 0.025770143 0.026548896 -0.011566926
-0.03278618 -0.00093089376 -0.01726633 0.04402753 0.03578224 0.08340739 0.036921013 -0.027303563
-0.040711697 0.02638178 -0.036184676 0.06325961 -0.033157084 -0.03828511 0.053740084 0.01630901
-0.06017269 -0.013748878 0.0073447097 0.0045562685 -0.056137115 0.059348978 0.02367916 -0.0683149
-0.01219733 -0.01566901 -0.027933363 0.027498638 0.0050972714 0.002200044 -0.029605404 -0.06694658
0.007390279 -0.051790603 -0.017132038 -0.0034912864 -0.058479737 0.00089816214 -0.045790616 -0.043653693
0.032544065 0.047443792 -0.0332051 0.029678123 0.057308663 -0.0631674 -0.069619164 -0.061710812
0.04332162 0.066424415 0.053006027 -0.03780689 -0.03727369 -0.07419177 -0.015915966 0.00889137
-0.0006077673 -0.017046303 0.01249422 -0.053133685 0.016873624 -0.054514904 -0.05646224 0.038778998
0.021918321 -0.034772187 -0.044795055 0.04886021 0.0052344417 -0.01795835 -0.06521506 -0.009875028
0.015025866 -0.0046572397 -0.0042049307 -0.0039372696 -0.064810626 0.013964918 0.013302872 -0.052498564
0.015627988 -0.033292316 0.006729051 0.023984676 -0.016457526 -0.055416413 0.037426066 0.04955906
-0.05966237 -0.04167257 0.049628768 0.06664146 -0.0057217274 -0.009421806 0.060630158 0.06726683
0.07849424 -0.04049043 -0.032851018 -0.070728965 0.028581597 -0.02556279 -0.04590135 0.04545712
-0.027154941 0.083240256 0.031089237 0.020243546 0.05241598 -0.041633457 0.05349528 0.028354838
-0.0038192281 0.046645027 0.029983882 0.036704313 -0.018084647 0.04496321 -0.041493688 -0.025332764
-0.022514507 0.04602565 0.08009082 0.016621716 0.04516074 -0.03741601 -0.0097168265 -0.028995471
-0.012684068 -0.039680574 -0.0041917535 -0.0064462577 -0.012660507 0.06221017 0.0793704 0.046361454
0.0011109606 -0.05756837 0.065262325 0.011641961 -0.010536412 -0.04447654 -0.020347835 -0.07011994
0.0060923514 0.06358296 0.018471157 0.0038721946 0.03639615 0.036365222 0.045179576 0.0597274
-0.006593365 -0.051778577 -0.004597437 0.026199812 0.017016057 -0.060370866 0.030655904 0.030913983
-0.046686407 -0.030061055 -0.027063143 -0.029866856 -0.04207184 -0.017884076 0.024844918 -0.053027038
0.03144292 0.054104783 -0.023533152 0.0027072646 -0.061782595 -0.043853786 -0.059755567 -0.0014308245
0.0073347776 0.060380787 -0.011122183 0.032263033 -0.08418981 0.037421905 -0.06361398 0.032824848
-0.05585813 -0.04279531 0.006952678 -0.03875597 -0.0029551028 -0.064325556 0.044713046 -0.034262292
0.048083883 -0.011909985 0.022318859 -0.041776437 0.044638157 -0.011618574 -0.017573921 -0.07917689
-0.03312968 -0.048308283 -0.057891376 0.031127032 -0.029732965 -0.04968219 -0.07477498 0.070440784
-0.032108217 -0.012862939 0.012666768 0.0022720448 0.05269086 -0.043363836 0.033212513 0.016535107
0.03510417 -0.03879367 -0.019893572 0.024212431 0.06978493 0.026093455 0.06504285 0.07301913
-0.0029012535 -0.05852453 0.038877275 0.010310532 -7.20168e-05 -0.02019484 -0.061838932 0.057584077
0.01767126 -0.025989244 -0.011248877 0.029201401 -0.08679807 -0.06856373 -0.02358462 -0.095118195
0.021664709 0.07467594 0.036217492 -0.049310066 0.05547739 0.0030660583 -0.011242588 0.06252128
00000000: 8e29 8ebd cc3f 733d e539 993b 248f 45bd
00000010: 0dea 823d e81b d33c 127d d93c 3483 3dbc
00000020: cd4a 06bd 3907 74ba 1e72 8dbc 3656 343d
00000030: 6690 123d 7ed1 aa3d 7d3a 173d b9ab dfbc
00000040: 4fc1 26bd 9a1e d83c 6236 14bd 418e 813d
00000050: b9cf 07bd d9d0 1cbd 901e 5c3d 799a 853c
00000060: a377 76bd f942 61bc e4ab f03b c04c 953b
00000070: 08f0 65bd ea17 733d ccfa c13c afe8 8bbd
00000080: 4fd7 47bc 4c5c 80bc 82d4 e4bc d344 e13c
00000090: 0307 a73b 9d2e 103b 0887 f2bc 4a1b 89bd
000000a0: 272a f23b 6222 54bd 7d58 8cbc 11ce 64bb
000000b0: 7388 6fbd a472 6b3a f18e 3bbd 37ce 32bd
000000c0: ed4c 053d 6c54 423d 1202 08bd 891f f33c
000000d0: 7dbc 6a3d e95d 81bd 7e94 8ebd 7ac4 7cbd
000000e0: 0372 313d 8609 883d d91c 593d 66db 1abd
000000f0: 4cac 18bd dbf1 97bd 3362 82bc 1cad 113c
00000100: 9352 1fba b0a4 8bbc 8fb4 4c3c b5a2 59bd
00000110: 8e3a 8a3c 054b 5fbd f344 67bd bad6 1e3d
00000120: 0d8e b33c 486d 0ebd 057b 37bd a521 483d
00000130: ae85 ab3b 641d 93bc 798f 85bd dfca 21bc
00000140: 0d2f 763c c29b 98bb 84c9 89bb 3604 81bb
00000150: 6fbb 84bd 1dcd 643c 4af4 593c bc08 57bd
00000160: 4406 803c 865d 08bd 5f7f dc3b 837b c43c
00000170: efd1 86bc 52fc 62bd 134c 193d 71fe 4a3d
00000180: 8760 74bd dbb0 2abd 8947 4b3d 517b 883d
00000190: 547d bbbb eb5d 1abc 5457 783d 31c3 893d
000001a0: 97c1 a03d 4bd9 25bd ca8e 06bd 59da 90bd
000001b0: f423 ea3c 0e69 d1bc 0e03 3cbd 3f31 3a3d
000001c0: 0a74 debc de79 aa3d dbae fe3c cbd5 a53c
000001d0: 23b2 563d d887 2abd de1d 5b3d 6848 e83c
000001e0: 044c 7abb db0e 3f3d c2a0 f53c 4357 163d
000001f0: 4126 94bc 582b 383d 49f5 29bd a886 cfbc
00000200: 5870 b8bc 6485 3c3d a806 a43d 442a 883c
00000210: 78fa 383d 8841 19bd 5333 1fbc e987 edbc
00000220: d6d0 4fbc 1988 22bd fa5a 89bb 213b d3bb
00000230: 046e 4fbc 17d0 7e3d f38c a23d 82e5 3d3d
00000240: a79d 913a d0cc 6bbd 41a8 853d ecbd 3e3c
00000250: eaa0 2cbc 082d 36bd 81b0 a6bc 0b9b 8fbd
00000260: 59a2 c73b c837 823d d350 973c a5c4 7d3b
00000270: 2114 153d b3f3 143d 380e 393d b8a4 743d
00000280: 280d d8bb c615 54bd 19a6 96bb fda0 d63c
00000290: 4265 8b3c 7147 77bd 1722 fb3c 523f fd3c
000002a0: 3f3a 3fbd 9a42 f6bc 86b3 ddbc 56ab f4bc
000002b0: 8653 2cbd a081 92bc 9287 cb3c e132 59bd
000002c0: 4bca 003d fa9c 5d3d 99c8 c0bc 5d6c 313b
000002d0: bf0f 7dbd 07a0 33bd 41c2 74bd 818a bbba
000002e0: 9358 f03b d851 773d d139 36bc 3e26 043d
000002f0: b56b acbd b647 193d 0c48 82bd 5973 063d
00000300: 7fcb 64bd 234a 2fbd 4ad3 e33b 94be 1ebd
00000310: 66aa 41bb 1ebd 83bd 0725 373d 9e56 0cbd
00000320: 9bf3 443d 1922 43bc 0ad6 b63c c51d 2bbd
00000330: 80d6 363d d55b 3ebc 2ff7 8fbc 7e27 a2bd
00000340: fdb2 07bd e8de 45bd 821f 6dbd 1efe fe3c
00000350: 8c92 f3bc 8d7f 4bbd a023 99bd 4243 903d
00000360: e883 03bd 14bf 52bc 4788 4f3c 96e6 143b
00000370: 5fd2 573d 479e 31bd d809 083d a274 873c
00000380: 64c9 0f3d 1ce6 1ebd d8f7 a2bc 2659 c63c
00000390: 67eb 8e3d f1c1 d53c 3035 853d 0e8b 953d
000003a0: f522 3ebb 6bb7 6fbd c73d 1f3d 81ed 283c
000003b0: ba07 97b8 a66f a5bc d24a 7dbd 48dd 6b3d
000003c0: 51c3 903c 65e7 d4bc 364d 38bc c737 ef3c
000003d0: 30c3 b1bd 246b 8cbd 8834 c1bc 54cd c2bd
000003e0: 307a b13c b3ef 983d cb58 143d 5af9 49bd
000003f0: 423c 633d ecef 483b d532 38bc 280b 803d

lstm_layer.lstm1.weight_hh_l0 f4 [800, 200]
-0.027953643 0.03834431 -0.03406014 0.065756865 -0.025147004 -0.03287341 0.024322923 0.014033606
-0.033239447 0.048791837 -0.043224607 -0.0637788 -0.0690494 0.042253014 0.008545307 -0.055341173
0.0700574 -0.026822915 -0.01605624 0.04228181 0.060269278 0.010642996 0.03261073 -0.065602556
-0.05311609 0.059105597 0.064474985 0.020445887 -0.025629692 -0.02480492 -0.00423368 -0.07279604
0.030983862 0.025044454 0.039104316 -0.017043734 -0.00037302548 -0.06955666 0.062502235 0.007947977
0.009459155 -0.0012471462 -0.026731884 -0.08562503 -0.056027137 0.06590723 0.077979 -0.0022933125
0.0700082 -0.051742528 0.040936474 -0.011454451 -0.054704763 0.06811794 0.0016362183 -0.07789423
0.043736678 0.04349715 0.052454982 -0.03829114 -0.025470465 0.052226637 0.020893913 -0.06865026
-0.012184954 0.058710795 -0.00027015747 -0.018089266 0.020190682 0.0101061 -0.026183851 0.025926674
-0.072383635 0.01181362 -0.0017914677 0.023085212 0.049437586 0.038146246 -0.025443519 -0.005424752
0.0364796 0.012181793 0.07830278 0.022836778 -0.0016219523 0.016057802 -0.044553384 0.020826705
0.010918343 0.05051053 -0.0012990135 0.059706062 -0.03543672 0.016550398 0.05934242 -0.0541526
0.059192177 -0.072318666 0.038506173 0.04790562 -0.05658087 -0.020245373 0.0045610564 0.012999407
0.025109747 -0.036150508 0.055601373 0.03890117 -0.03823372 -0.043118782 -0.06520838 -0.014596731
-0.023406917 0.054534715 0.021954194 0.03555736 -0.019443732 -0.018227618 0.036438834 0.0420149
-0.029235655 -0.0030343072 -0.015148038 0.05563731 -0.079379454 0.016825786 -0.054622743 0.008996343
-0.05242184 0.059772838 -0.07797012 -0.0035945047 0.055684652 0.01335438 -0.03137428 -0.010228076
0.027378868 0.05135601 0.06679031 0.025072534 0.0122605 0.014127759 0.068979196 0.015555287
0.017922275 0.027019348 0.044911806 -0.06441577 0.019768452 0.058100063 -0.024176423 -0.006916303
0.033387642 0.017916813 0.01740057 -0.018203244 0.02482269 0.0029163593 -0.04666938 -0.04371227
0.05394637 -0.022056228 -0.078547575 0.024154454 0.016952459 -0.083483726 0.07528762 0.02545329
0.033471435 0.012611241 0.07299122 -0.013642307 0.018618211 -0.028111054 -0.05884447 -0.03375319
0.05556498 0.025824651 0.03185928 -0.051691104 -0.07785421 -0.02812098 -0.04081565 0.05084746
0.033420656 -0.04410277 0.044358224 0.011244601 0.041180175 -0.039035518 0.020952566 -0.061200842
0.009190462 -0.028758606 -0.007071965 0.037268516 -0.07185484 -0.042406972 0.0747574 0.009671985
0.039580937 -0.05510309 -0.022830931 -0.00020486553 0.044181615 -0.032584794 -0.04905023 0.034893204
0.053137675 0.057442598 -0.040540084 0.0056379167 -0.04994731 -0.04762803 -0.027053166 0.06131375
0.044324603 -0.027480528 -0.03385865 -0.076543555 -0.03706904 -0.015842596 -0.03839595 -0.042759728
0.018565921 0.0058926833 -0.013008333 -0.034680758 -0.066079125 -0.06553036 -0.058358043 0.036150787
0.015279981 -0.017998427 -0.034199525 0.0256057 0.03521294 -0.0473787 -0.04617822 0.020520123
-0.022792377 -0.013566267 0.0054597296 -0.02642108 -0.07295072 -0.025972873 -0.045077514 0.018008722
-0.015692104 -0.031776525 0.025000045 0.071246445 -0.022144966 0.06130675 -0.06845941 0.05409473
00000000: 0aff e4bc ec0e 1d3d a582 0bbd 89ab 863d
00000010: 1701 cebc 45a6 06bd de40 c73c 36ed 653c
00000020: 1626 08bd f3d9 473d 490c 31bd 769e 82bd
00000030: c669 8dbd 7f11 2d3d 9e01 0c3c 6dad 62bd
00000040: 417a 8f3d bbbb dbbc 6088 83bc b12f 2d3d
00000050: ebdc 763d f65f 2e3c d492 053d a25a 86bd
00000060: 4290 59bd b618 723d 760b 843d 227e a73c
00000070: 5cf5 d1bc b033 cbbc afba 8abb 1716 95bd
00000080: ded1 fd3c 072a cd3c d92b 203d 4d9f 8bbc
00000090: a292 c3b9 b973 8ebd 2c01 803d 3b38 023c
000000a0: 92fa 1a3c 4877 a3ba d3fc dabc 2d5c afbd
000000b0: b67c 65bd 5ffa 863d 74b3 9f3d 664b 16bb
000000c0: 7660 8f3d f9ef 53bd 01ad 273d 73ab 3bbc
000000d0: 1a12 60bd 6b81 8b3d 6076 d63a 0387 9fbd
000000e0: 3b25 333d 112a 323d 09db 563d 2cd7 1cbd
000000f0: 70a7 d0bc 99eb 553d b629 ab3c 8298 8cbd
00000100: 67a3 47bc bb7a 703d eca3 8db9 f12f 94bc
00000110: ee66 a53c 0e94 253c 847f d6bc 2d64 d43c
00000120: df3d 94bd ea8d 413c aecf eaba 331d bd3c
00000130: 117f 4a3d 3d3f 1c3d ed6e d0bc 1ec2 b1bb
00000140: a26b 153d 2596 473c 355d a03d 3214 bb3c
00000150: b097 d4ba a78b 833c 9c7d 36bd c49c aa3c
00000160: dae2 323c 21e4 4e3d a943 aaba 588e 743d
00000170: 1826 11bd b394 873c 0a11 733d 1ecf 5dbd
00000180: 7f73 723d cf1b 94bd a6b8 1d3d af38 443d
00000190: 58c1 67bd a0d9 a5bc ea74 953b 77fb 543c
000001a0: f5b2 cd3c 8e12 14bd 44be 633d d556 1f3d
000001b0: f69a 1cbd 529d 30bd f98b 85bd 2127 6fbc
000001c0: ddbf bfbc cb5f 5f3d 48d9 b33c 98a4 113d
000001d0: 7648 9fbc 1652 95bc e340 153d d117 2c3d
000001e0: 9d7f efbc 3adb 46bb 7a2f 78bc f3e3 633d
000001f0: b291 a2bd 3bd6 893c 19bc 5fbd 6665 133c
00000200: 49b8 56bd 5dd4 743d ccae 9fbd c891 6bbb
00000210: 9715 643d 54cc 5a3c 5182 00bd a993 27bc
00000220: a649 e03c ae5a 523d 5cc9 883d ea64 cd3c
00000230: 44e0 483c 1e78 673c f744 8d3d 9adb 7e3c
00000240: bcd1 923c ae57 dd3c 71f5 373d 6aec 83bd
00000250: 73f1 a13c 55fa 6d3d a20d c6bc 28a2 e2bb
00000260: 7bc1 083d 48c6 923c a48b 8e3c f81e 95bc
00000270: f458 cb3c 6420 3f3b 6428 3fbd a30b 33bd
00000280: def6 5c3d 43af b4bc 8ddd a0bd 90df c53c
00000290: e2df 8a3c 84f9 aabd 6530 9a3d 6b83 d03c
000002a0: 5819 093d 619f 4e3c 6c7c 953d fc83 5fbc
000002b0: 3885 983c 2749 e6bc e606 71bd c940 0abd
000002c0: 1b98 633d 388e d33c e07e 023d 0dba 53bd
000002d0: 0772 9fbd f85d e6bc 502e 27bd 6d45 503d
000002e0: 19e4 083d 1ba5 34bd f8b0 353d 463b 383c
000002f0: 8bac 283d b5e3 1fbd b7a4 ab3c bcad 7abd
00000300: 9793 163c 2b97 ebbc f1bb e7bb dfa6 183d
00000310: a128 93bd efb2 2dbd 681a 993d 3f77 1e3c
00000320: 9f1f 223d c7b3 61bd ef07 bbbc 2cd1 56b9
00000330: c8f7 343d a277 05bd e5e8 48bd 2dec 0e3d
00000340: e4a6 593d ee48 6b3d 5c0d 26bd 46be b83b
00000350: 8d95 4cbd 9c15 43bd 9a9e ddbc 2024 7b3d
00000360: b78d 353d d81e e1bc 5eaf 0abd dec2 9cbd
00000370: b5d5 17bd 55c8 81bc 1245 1dbd d324 2fbd
00000380: 8f17 983c 6917 c13b e720 55bc 690d 0ebd
00000390: 7e54 87bd c834 86bd d808 6fbd d912 143d
000003a0: e358 7a3c 7071 93bc cd14 0cbd 0cc3 d13c
000003b0: 723b 103d 2b10 42bd 6025 3dbd d119 a83c
000003c0: 14b7 babc 0c45 5ebc 88e7 b23b 0571 d8bc
000003d0: 3067 95bd 10c5 d4bc 33a3 38bd 0787 933c
000003e0: ba8c 80bc 1a28 02bd e5cc cc3c a8e9 913d
000003f0: 5c69 b5bc c91c 7b3d 7234 8cbd 7092 5d3d

lstm_layer.lstm1.bias_ih_l0 f4 [800]
0.06015471 0.05651649 0.014946983 0.007219494 0.08029243 0.07122077 -0.021987835 -0.05062384
0.02449271 -0.024604019 0.023356708 -0.04510486 -0.00814 -0.0061037275 0.025649033 0.059785753
-0.025638616 0.087767914 -0.034352772 -0.040821802 0.052553244 -0.032417115 0.031013768 0.029113444
-0.061611593 0.009952981 0.032931034 0.0452104 -0.048162192 -0.057843894 0.03668347 -0.042987153
0.059399065 -0.060084786 -0.032452166 -0.022424914 0.017165331 -0.013176558 -0.05278622 0.06939636
-0.01517707 0.04254235 0.00040963455 0.08111637 -0.0594373 -0.058297016 -0.05634314 0.023371344
-0.008892382 0.05454101 0.06823555 0.05918742 0.045190774 0.03227691 -0.04533442 0.056700718
0.065263055 0.0043306192 0.04522568 0.009239346 -0.009202934 -0.042625923 0.051155522 0.024732586
0.057805683 -0.020376684 0.07514871 0.024515893 -0.009324082 -0.04356202 -0.032099366 -0.011989349
-0.053179283 -0.012839674 0.0042786347 0.07624059 0.0038657715 -0.026713997 0.03972889 -0.026218051
0.0667455 -0.049161885 -0.047874145 0.028993005 -0.047542926 -0.057194043 0.035101783 -0.042300627
-0.030037327 0.00733607 -0.06595532 0.0073664053 0.06112303 0.066585004 -0.012479011 -0.039280936
0.040419664 0.007305478 -0.03141285 0.08076986 -0.05608846 0.040280428 -0.023486441 -0.06288383
0.013046689 -0.0040573794 0.055212457 0.02508459 -0.05812568 -0.012720997 0.053511262 0.034441527
-0.015311152 0.02910343 0.000983454 0.043829303 -0.029136557 -0.032395985 0.055843674 0.007873336
-0.053246163 0.014844091 0.039111957 -0.06327269 0.06987744 -0.03593892 0.032278202 -0.0049471566
-0.031629175 -0.033980493 -0.003921895 -0.022920916 -0.034324333 -0.029147508 -0.011553783 0.005366806
0.07647319 -0.0573772 0.013174601 0.05553041 0.028573485 0.023147484 0.038084295 0.06958178
-0.0120316595 0.02055901 -0.056388307 -0.032927427 0.03146484 -0.033795692 -1.717805e-05 -0.039648447
-0.059732784 -0.015567169 -0.030224416 -0.0029791833 -0.060274716 0.012217887 -0.03450224 0.010985273
0.027122213 0.024487207 -0.011059666 0.05750928 -0.0034066867 -0.039378908 -0.039470732 -0.05886248
-0.013699335 0.023541218 8.264448e-05 0.010594004 0.02245455 -0.018887836 0.014619642 -0.035939936
0.06734758 0.027080175 0.05178975 0.044590637 -0.021306215 0.03335699 -0.01590869 0.054055247
-0.056323025 -0.051294174 -0.06456729 0.0063138977 0.06451635 -0.05985844 0.07120149 0.02745398
0.0032815041 -0.011839071 0.0029603657 -0.06097882 0.024643516 -0.040603403 0.004814493 -0.056577295
0.0070486558 -0.015282804 -0.020665077 0.03260043 -0.00085227384 -0.015286445 -0.0036157772 0.030589007
-0.045396976 -0.0163729 -0.026860043 -0.012491964 -0.019338733 0.03987193 0.07893578 0.030898176
-0.0060185646 0.06909375 -0.05986321 -0.055962708 0.069494784 0.071467794 -0.035753105 0.0038397904
0.058914106 -0.053798236 0.050914865 -0.008079369 -0.043264322 0.024420913 0.07315817 -0.026331034
0.060885716 -0.006914437 -0.020963956 0.053278465 0.050797086 -0.029671878 -0.04349293 0.039514195
-0.006788766 0.05410222 -0.0053070695 0.034030896 0.0049107284 -0.02398778 0.05589405 -0.005157041
0.049379546 0.056734893 0.0044503105 -0.01977915 0.0433907 -0.06091774 0.0069786105 -0.04453671
00000000: c964 763d d67d 673d 31e4 743c 8191 ec3b
00000010: 5c70 a43d 32dc 913d d51f b4bc f25a 4fbd
00000020: f0a4 c83c 5e8e c9bc 9156 bf3c e0bf 38bd
00000030: a25d 05bc c701 c8bb ec1d d23c e8e1 743d
00000040: 1308 d2bc aabf b33d 7eb5 0cbd c334 27bd
00000050: 1242 573d cfc7 04bd 9610 fe3c 517f ee3c
00000060: 705c 7cbd d411 233c b1e2 063d 8a2e 393d
00000070: b845 45bd b8ed 6cbd 6841 163d 4c13 30bd
00000080: 6f4c 733d 771b 76bd 90ec 04bd 74b4 b7bc
00000090: 4f9e 8c3c 7de2 57bc 5d36 58bd ae1f 8e3d
000000a0: 3fa9 78bc e340 2e3d 38c4 d639 5720 a63d
000000b0: 8774 73bd dac8 6ebd 10c8 66bd 4375 bf3c
000000c0: 5ab1 11bc 6566 5f3d 14bf 8b3d 826e 723d
000000d0: f619 393d cb34 043d 96b0 39bd 033f 683d
000000e0: a3a8 853d dee7 8d3b 903e 393d a060 173c
000000f0: e7c7 16bc 8598 2ebd 7488 513d fe9b ca3c
00000100: a7c5 6c3d 01ed a6bc 91e7 993d 8ed5 c83c
00000110: 09c4 18bc 176e 32bd a07a 03bd f96e 44bc
00000120: 85d2 59bd 7f5d 52bc ca33 8c3b 0724 9c3d
00000130: e258 7d3b 50d7 dabc c3ba 223d 3dc7 d6bc
00000140: ddb1 883d f95d 49bd ae17 44bd bd82 ed3c
00000150: 5fbc 42bd 4d44 6abd e3c6 0f3d 6c43 2dbd
00000160: d710 f6bc 6a63 f03b 9513 87bd e361 f13b
00000170: 245c 7a3d b85d 883d c474 4cbc 0ce5 20bd
00000180: 178f 253d cb62 ef3b c3aa 00bd ab6a a53d
00000190: 03bd 65bd 17fd 243d a366 c0bc 3dc9 80bd
000001a0: c8c1 553c c4f3 84bb 7526 623d 337e cd3c
000001b0: 3115 6ebd bb6b 50bc a02e 5b3d 8f12 0d3d
000001c0: a0db 7abc 516a ee3c 3ee7 803a 5b86 333d
000001d0: caaf eebc a7b1 04bd 56bc 643d 2aff 003c
000001e0: a618 5abd a134 733c dc33 203d 1d95 81bd
000001f0: e71b 8f3d b034 13bd 2636 043d c21b a2bb
00000200: 988d 01bd 212f 0bbd 3d83 80bb a5c4 bbbc
00000210: ac97 0cbd c1c6 eebc 144c 3dbc 08dc af3b
00000220: fa9d 9c3d 5b04 6bbd 48da 573c db73 633d
00000230: f112 ea3c cb9f bd3c 47fe 1b3d e480 8e3d
00000240: 7020 45bc 5e6b a83c 6df7 66bd e9de 06bd
00000250: 47e1 003d 5a6d 0abd 9519 90b7 6966 22bd
00000260: 5daa 74bd 700d 7fbc 3299 f7bc 673e 43bb
00000270: 9fe2 76bd 882d 483c 3952 0dbd 93fb 333c
00000280: 672f de3c 6599 c83c 9a33 35bc da8e 6b3d
00000290: b842 5fbb c74b 21bd 10ac 21bd c919 71bd
000002a0: 2d73 60bc 83d9 c03c 6b51 ad38 7992 2d3c
000002b0: 9bf2 b73c aaba 9abc 3987 6f3c c135 13bd
000002c0: 87ed 893d 3ed7 dd3c 7d21 543d aca4 363d
000002d0: 5f8a aebc 57a1 083d f152 82bc 0969 5d3d
000002e0: f9b2 66bd d719 52bd db3b 84bd d0e4 ce3b
000002f0: 2621 843d 202e 75bd 16d2 913d 2be7 e03c
00000300: 810e 573b aaf8 41bc b202 423b edc4 79bd
00000310: 33e1 c93c c14f 26bd e5c2 9d3b 98bd 67bd
00000320: 69f8 e63b ba64 7abc cf49 a9bc 0788 053d
00000330: 216b 5fba ff73 7abc adf6 6cbb cc95 fa3c
00000340: 2ef2 39bd 7620 86bc 9809 dcbc 18ab 4cbc
00000350: 436c 9ebc c050 233d 15a9 a13d 2c1e fd3c
00000360: 6137 c5bb 0681 8d3d 2033 75bd 2739 65bd
00000370: 4853 8e3d b55d 923d d971 12bd fea4 7b3b
00000380: eb4f 713d 8a5b 5cbd 1b8c 503d 545f 04bc
00000390: ee35 31bd 5e0e c83c f3d3 953d 2eb4 d7bc
000003a0: 4d63 793d 8092 e2bb 9abc abbc 853a 5a3d
000003b0: 9b10 503d 7012 f3bc a425 32bd a3d9 213d
000003c0: 4c74 debb 4a9a 5d3d ede6 adbb fb63 0b3d
000003d0: 2dea a03b 0582 c4bc 29f1 643d 65fc a8bb
000003e0: 3542 4a3d d962 683d e9d3 913b e207 a2bc
000003f0: 72ba 313d e184 79bd d4ac e43b 206c 36bd

lstm_layer.lstm1.bias_hh_l0 f4 [800]
-0.023001498 -0.056596823 0.01523962 -0.05123802 -0.05080757 0.080430634 0.015796257 0.023928989
-0.048748035 -0.027546234 0.03345001 0.046278752 -0.031346872 0.0677442 -0.014825991 -0.051179588
0.06518567 0.00652493 0.004583642 0.0341198 -0.02728741 0.07726915 -0.055461425 -0.044313934
-0.005180348 -0.05760531 0.06093297 0.011108089 0.07563849 -0.005217257 -0.038968004 0.06415574
-0.053053755 0.047537267 0.021140736 -0.036100112 0.0072114905 -0.044802584 0.06615684 -0.040112358
-0.063876964 0.030108757 -0.039261125 -0.0068802643 -0.032460686 0.025967397 -0.03875891 -0.038209453
0.0089333225 -0.013005609 0.05875641 0.015967462 0.05405455 -0.029069135 -0.008025475 -0.029730827
-0.032785736 -0.0701016 0.028416453 -0.05130182 -0.038964923 0.05120441 0.04367438 0.034362026
0.052685063 0.06738185 -0.00628304 0.04208297 0.033144943 -0.0014538291 0.013046729 -0.018126655
-0.030124918 -0.016339518 -0.069711484 -0.05443584 0.0102444 -0.039860908 0.048364107 -0.0069441535
-0.019704364 -0.05502865 0.035988525 -0.031613745 0.055079598 -0.06340184 -0.038795326 -0.030872744
-0.0063495464 0.06866845 -0.020616338 -0.009087562 0.08172067 -0.036200076 0.026648942 -0.014708793
-0.040511902 -0.008687782 0.056039922 0.056923296 -0.06102631 -0.0230011 -0.04685929 -0.03635865
0.055517398 0.007692042 -0.0014014051 -0.028672667 -0.027844822 0.019205559 0.042218044 -0.04536575
0.058180753 -0.023457663 0.073985994 -0.060057517 0.03956511 0.013396706 0.027695285 -0.035706874
0.03548506 0.03926195 -0.0161877 0.07591471 -0.011209961 0.07049788 0.011482981 -0.048189927
0.012861255 -0.009612 -0.02418686 0.04959618 -0.031362504 0.04002452 0.03562945 0.07381127
-0.016202886 -0.009624284 -0.029389637 0.0065830178 -0.016156657 0.007680753 -0.051265944 -0.04223793
-0.016757658 0.035459723 -0.024297094 -0.031240221 -0.036102563 -0.02986726 -0.01659564 0.007632718
0.07027032 -0.027100204 0.049778685 0.01697005 0.034128387 0.0011320986 0.07711832 -0.017617011
-0.058097303 0.014340582 0.06378805 0.020638054 0.052226156 0.02580228 0.018313333 -0.011433931
-0.017956221 0.062708706 0.01902787 0.050414406 -0.004385002 -0.04894167 0.046029586 0.015108596
0.0031483592 -0.020863615 0.048055034 -0.06822175 -0.008053936 0.06812885 -0.012330773 0.005246476
0.05139168 0.010235317 -0.03319937 -0.024655782 -0.050100755 0.071212366 -0.010333019 0.03850075
-0.007812801 -0.02166911 -0.0059422823 -0.061468195 0.07506565 -0.009869244 -0.0046108286 0.056249738
-0.040536992 0.027361263 0.05210975 0.07314844 0.024736896 0.062029276 0.082872786 0.027238255
0.019727787 -2.71931e-05 0.03077054 0.017372029 0.07233967 -0.044396445 0.020591244 -0.0021151544
-0.04004607 0.05734003 0.030267019 0.037027005 0.05751605 -3.991417e-05 0.063801505 0.046719674
-0.045300554 0.028777327 0.05328096 0.07895937 -0.024581982 -0.015154383 0.03385965 0.07663938
0.010683237 0.06937461 -0.0024166442 -0.03718211 -0.023240961 -0.048317913 0.063350834 -0.060038205
-0.009557547 -0.06829691 -0.010017855 -0.003457426 0.011648148 0.02745858 0.05704506 -0.044286568
-0.036211494 0.078086466 0.05289496 -0.03279742 0.054415457 0.053296078 0.006219592 -0.042988535
00000000: a36d bcbc 12d2 67bd 99af 793c f5de 51bd
00000010: 991b 50bd d1b8 a43d 2767 813c ba06 c43c
00000020: 05ac 47bd a4a8 e1bc e102 093d ca8e 3d3d
00000030: 9465 00bd 79bd 8a3d b7e8 72bc b0a1 51bd
00000040: 1180 853d 14cf d53b 6032 963b 34c1 0b3d
00000050: d989 dfbc 4a3f 9e3d 852b 63bd 8782 35bd
00000060: e9bf a9bb 8cf3 6bbd da94 793d b4fe 353c
00000070: 5ae8 9a3d 86f5 aabb ea9c 1fbd 1664 833d
00000080: e54e 59bd 70b6 423d 562f ad3c b6dd 13bd
00000090: 5e4e ec3b ea82 37bd 3d7d 873d db4c 24bd
000000a0: edd1 82bd a4a6 f63c 46d0 20bd d773 e1bb
000000b0: 7ff5 04bd 94b9 d43c aac1 1ebd 8481 1cbd
000000c0: 125d 123c 7a15 55bc 90aa 703d 32ce 823c
000000d0: 4e68 5d3d 6522 eebc 487d 03bc 108e f3bc
000000e0: 564a 06bd 6d91 8fbd 9fc9 e83c db21 52bd
000000f0: af99 1fbd b7bb 513d e8e3 323d 32bf 0c3d
00000100: 4bcc 573d 7fff 893d f6e1 cdbb 315f 2c3d
00000110: fec2 073d 698e beba f3c1 553c 5a7e 94bc
00000120: 88c8 f6bc 74da 85bc e5c4 8ebd 1ef8 5ebd
00000130: 21d8 273c 3145 23bd 7119 463d c88b e3bb
00000140: 0c6b a1bc b965 61bd b468 133d 6a7d 01bd
00000150: 259b 613d d3d8 81bd d9e7 1ebd d6e8 fcbc
00000160: db0f d0bb 0ba2 8c3d 98e3 a8bc ffe3 14bc
00000170: 2b5d a73d 8846 14bd e24e da3c 26fd 70bc
00000180: cfef 25bd 3357 0ebc 1e8a 653d 6728 693d
00000190: b9f6 79bd ce6c bcbc 87ef 3fbd cfec 14bd
000001a0: 3666 633d 860d fc3b 5aaf b7ba f1e2 eabc
000001b0: d31a e4bc fa54 9d3c d4ec 2c3d 70d1 39bd
000001c0: f14e 6e3d 492a c0bc f885 973d dffe 75bd
000001d0: 060f 223d dc7d 5b3c 39e1 e23c 5f41 12bd
000001e0: c858 113d 23d1 203d 119c 84bc 2c79 9b3d
000001f0: fca9 37bc 3161 903d 1d23 3c3c cd62 45bd
00000200: 03b8 523c a67b 1dbc 8623 c6bc 5d25 4b3d
00000210: f875 00bd c0f0 233d 30f0 113d 5d2a 973d
00000220: eabb 84bc 2caf 1dbc 89c2 f0bc 5bb6 d73b
00000230: f75a 84bc d3ae fb3b 3dfc 51bd ae01 2dbd
00000240: 5b47 89bc 373e 113d b30a c7bc 7eeb ffbc
00000250: 48e0 13bd 2fac f4bc 94f3 87bc e11b fa3b
00000260: e3e9 8f3d 3f01 debc bce4 4b3d c604 8b3c
00000270: 35ca 0b3d ed62 943a 36f0 9d3d 8d51 90bc
00000280: 70f7 6dbd c3f4 6a3c 4fa3 823d 2311 a93c
00000290: 18eb 553d 4e5f d33c d805 963c 6255 3bbc
000002a0: ed18 93bc 6c6d 803d 56e0 9b3c 567f 4e3d
000002b0: 10b0 8fbb 1077 48bd 8589 3c3d 0b8a 773c
000002c0: b454 4e3b 2cea aabc 5bd5 443d d8b7 8bbd
000002d0: a8f4 03bc 2387 8b3d 0307 4abc a1ea ab3b
000002e0: 1580 523d 08b2 273c 10fc 07bd ecfa c9bc
000002f0: 7336 4dbd cad7 913d d34b 29bc f6b2 1d3d
00000300: 4301 00bc 6b83 b1bc 7ab7 c2bb 13c6 7bbd
00000310: 05bc 993d 9cb2 21bc 6f16 97bb 2066 663d
00000320: 1e0a 26bd ba24 e03c 0971 553d d9ce 953d
00000330: 08a5 ca3c 6912 7e3d 35b9 a93d c322 df3c
00000340: 2b9c a13c bd1c e4b7 8012 fc3c c94f 8e3c
00000350: d226 943d 0cd9 35bd f8ae a83c 679e 0abb
00000360: 5907 24bd 61dd 6a3d 8af2 f73c a1a9 173d
00000370: f395 6b3d 8469 27b8 5daa 823d 215d 3f3d
00000380: 138d 39bd 6ebe eb3c 233d 5a3d 73b5 a13d
00000390: 2760 c9bc 174a 78bc 6bb0 0a3d 1bf5 9c3d
000003a0: be08 2f3c 4714 8e3d 9060 1ebb 454c 18bd
000003b0: d463 bebc 01e9 45bd 15be 813d 9fea 75bd
000003c0: 4297 1cbc 40df 8bbd ee21 24bc fc95 62bb
000003d0: e0d7 3e3c d1f0 e03c 15a8 693d d565 35bd
000003e0: 8152 14bd cceb 9f3d 63a8 583d 9656 06bd
000003f0: bee2 5e3d fd4c 5a3d b8cd cb3b bf14 30bd

gbrbm.W f4 [200, 100]
-0.0016233372 -0.003405246 -0.001589547 0.005441868 0.009505097 -0.0025998992 0.0018521736 0.0038760328
0.0060710297 0.0067388583 -0.003265893 -0.0009471276 0.005075392 0.0026043488 -0.005549615 -0.001553416
0.0007416048 -0.0012851615 0.002735977 -0.0069157546 -0.0035011112 4.0188555e-05 -0.010737726 0.001428825
-0.00840645 0.0018769436 -0.0011177995 -0.005087112 0.0011702932 -0.007011526 -0.0017423878 -0.0005693789
0.0035283412 -0.0030011977 -0.003407045 0.0031852007 -0.005833212 4.203297e-05 0.011246589 -0.0028095655
-0.0048957006 -0.0010967603 0.0033063248 0.0076688305 0.0084953 0.00047793362 -0.00085911417 0.0019301786
0.0052590566 -0.00014847191 0.0025538916 0.0006737228 -0.0051963353 0.002001068 0.0011199445 -0.0040469863
0.003861378 0.0018628846 -0.004030356 0.0074454187 -0.0018938062 0.0040925997 -0.0040986584 0.0028962959
0.004715218 0.0014035187 0.002852123 0.0105552375 0.00087241846 0.003193672 -0.00571899 -0.0029826458
-0.0019237787 -0.005613462 0.0008942429 -0.00070782757 -0.0033704855 0.0026238393 0.00014637136 0.0031515234
0.0011086463 -0.0019644261 -0.003950477 -0.0021290763 0.0021723465 -0.0021657194 0.0053945286 0.005431604
0.0029613087 0.0009000417 -0.0035907873 0.0015042942 0.0010371994 0.0027459078 0.0039692177 0.005784898
-0.0014357168 0.0014169622 0.002840048 -0.004297571 0.0019411263 0.001336163 0.007886944 -0.0071703414
6.47152e-06 0.00021681836 0.009498149 -0.0003569899 -0.00045898333 0.0007596357 -0.0049786437 0.012844798
0.0016730644 0.0015373224 0.0019625165 -0.0036420126 -0.0055155926 7.274518e-05 0.0011592585 -0.005511868
-8.056725e-05 0.0040055965 -0.0016991685 0.003664152 0.007311875 -0.0010545683 -0.0037751591 0.0028550257
-0.00024868757 0.0014947822 -0.0015968862 -0.0052212393 0.0020830429 -0.00034624586 0.0025801435 0.0006113543
0.0014690126 -0.000115668714 0.008555585 -0.005204591 -0.004843209 0.005944191 -0.0013995749 2.9229474e-05
-0.004000526 0.0026582924 0.0009837071 0.0028365399 -0.00010307404 -0.003399626 -0.006282524 0.0026637928
0.0011317966 -0.0010640421 -0.00090584904 0.004595911 -0.002557668 -0.0075748875 -0.0050099664 -0.00799178
5.570084e-05 -0.0002507575 0.00012948237 0.0031509206 0.0020395534 -0.0041781906 -0.00016557254 0.017331736
0.0016809191 -0.0053748973 0.0015163835 0.00062870275 0.0054098307 -0.006870681 -0.00533388 0.000412663
-0.0030261434 -0.0013249218 0.0008431496 0.005936679 -0.002646163 0.0020166044 2.379409e-05 0.00010971099
-0.00054120267 -5.7780966e-05 -0.0010100254 -0.00090829656 -0.0006272841 -0.0069758347 -0.0071809706 0.00037320217
0.0020436808 -0.0064343307 0.0032807656 0.0030934904 -0.008128783 0.0013942396 0.0012220426 -0.0043977527
-0.0055879303 -0.011223199 0.0039471183 -0.01405699 -0.023944026 0.005521229 -0.003007274 -0.0018639797
-0.01081624 -0.009866996 -0.006324556 -0.017909426 -0.0072970614 0.0006312283 -0.010513894 -0.00255564
-0.0042684563 0.010330207 -0.009670407 -0.0035301603 0.010801704 -0.005427324 -0.008137899 0.00074795075
-0.0070717935 -0.0009624213 0.004843061 -0.0024193588 0.00779857 0.00815068 -0.0027028266 0.0077058766
0.0054282793 0.0023365635 -0.0069484855 -0.009617776 0.0017286929 0.0019189235 -0.0028717741 -0.008598195
0.011128114 -0.014053141 0.014026575 -0.010375712 0.008753988 0.012704235 0.0003202053 -0.013070025
-0.007785111 0.0020656006 0.0064655086 -0.0039801854 0.0021032188 0.0053277235 0.005421518 0.012846713
00000000: 28c6 d4ba 8c2a 5fbb 5958 d0ba b351 b23b
00000010: 44bb 1b3c 1263 2abb a2c4 f23a 0a05 7e3b
00000020: 7def c63b a4d1 dc3b 9808 56bb a848 78ba
00000030: 794f a63b b9ad 2a3b 8bd9 b5bb fe9b cbba
00000040: 4168 423a dd72 a8ba 144e 333b 8e9d e2bb
00000050: e672 65bb 2290 2838 4aed 2fbc 6947 bb3a
00000060: 35bb 09bc c703 f63a 2183 92ba cab1 a6bb
00000070: 8664 993a f1c0 e5bb d560 e4ba 5f42 15ba
00000080: be3b 673b beaf 44bb bb48 5fbb cdbe 503b
00000090: 8724 bfbb 8f4c 3038 9d43 383c b020 38bb
000000a0: 1d6c a0bb 2bc1 8fba edae 583b d04a fb3b
000000b0: df2f 0b3c 2a93 fa39 2d36 61ba 0cfe fc3a
000000c0: 2a54 ac3b 20af 1bb9 315f 273b c69c 303a
000000d0: 0546 aabb 5a24 033b 1acb 923a 959c 84bb
000000e0: 2c0f 7d3b 092c f43a 1411 84bb b3f8 f33b
000000f0: 9739 f8ba 371b 863b 0a4e 86bb c8cf 3d3b
00000100: 1e82 9a3b 46f6 b73a afea 3a3b e0ef 2c3c
00000110: 03b3 643a ed4c 513b 5e66 bbbb 7e78 43bb
00000120: 4d27 fcba 22f1 b7bb a06b 6a3a 818d 39ba
00000130: 5de3 5cbb b8f4 2b3b 437b 1939 ca89 4e3b
00000140: ff4f 913a 9abd 00bb 0173 81bb f987 0bbb
00000150: ed5d 0e3b beee 0dbb 96c4 b03b 99fb b13b
00000160: 8412 423b c7f0 6b3a 6a53 6bbb bd2b c53a
00000170: a3f2 873a b0f4 333b 3610 823b 3e8f bd3b
00000180: a92e bcba 5db9 b93a 1920 3a3b a3d2 8cbb
00000190: 646d fe3a 3122 af3a 3e38 013c 2ff5 eabb
000001a0: ef25 d936 bc59 6339 209e 1b3c 602a bbb9
000001b0: b3a3 f0b9 4a22 473a e423 a3bb fd72 523c
000001c0: ba4a db3a fb7f c93a 909d 003b d5ae 6ebb
000001d0: 25bc b4bb c58e 9838 43f2 973a e69c b4bb
000001e0: 37f6 a8b8 6141 833b a2b6 deba 4522 703b
000001f0: 7498 ef3b 7139 8aba a968 77bb 621b 3b3b
00000200: 4862 82b9 91ec c33a 9c4e d1ba ee16 abbb
00000210: a983 083b 5588 b5b9 a017 293b 4b43 203a
00000220: e28b c03a 2b93 f2b8 b92c 0c3c 468b aabb
00000230: c8b3 9ebb 7dc7 c23b f171 b7ba d131 f537
00000240: d816 83bb bf36 2e3b bcef 803a 3ee5 393b
00000250: 7429 d8b8 42cc 5ebb a2dd cdbb 0793 2e3b
00000260: cb58 943a 5477 8bba 8076 6dba 4c99 963b
00000270: 8c9e 27bb c336 f8bb a52a a4bb f4ef 02bc
00000280: 52a0 6938 1a78 83b9 a9c5 0739 ad7f 4e3b
00000290: 07aa 053b 34e9 88bb 8a9d 2db9 49fb 8d3c
000002a0: 4952 dc3a e81f b0bb 63c1 c63a 87cf 243a
000002b0: f344 b13b 7323 e1bb d4c7 aebb b15a d839
000002c0: 4352 46bb 00a9 adba d006 5d3a 7988 c23b
000002d0: 406b 2dbb 0229 043b 6b99 c737 a414 e638
000002e0: 7fdf 0dba d759 72b8 d462 84ba c01a 6eba
000002f0: 5370 24ba 8b95 e4bb 594e ebbb 59aa c339
00000300: 46ef 053b 14d7 d2bb 1d02 573b 28bc 4a3b
00000310: 962e 05bc ebbe b63a f22c a03a 061b 90bb
00000320: f51a b7bb 82e1 37bc d456 813b 4a4f 66bc
00000330: 4326 c4bc 6deb b43b af15 45bb c850 f4ba
00000340: 9936 31bc 2ea9 21bc 393e cfbb cab6 92bc
00000350: 301c efbb 0479 253a 7842 2cbc 867c 27bb
00000360: 68de 8bbb 0740 293c a070 1ebc 435a 67bb
00000370: a1f9 303c b2d7 b1bb d354 05bc 2012 443a
00000380: 81ba e7bb 004b 7cba 8ab2 9e3b 1b8e 1ebb
00000390: 268b ff3b 6e8a 053c e821 31bb 9481 fc3b
000003a0: b5df b13b 0821 193b 1fb0 e3bb e093 1dbc
000003b0: 4f95 e23a 6384 fb3a 6034 3cbb 72df 0cbc
000003c0: b152 363c 253f 66bc b8cf 653c e4fe 29bc
000003d0: e36c 0f3c 6c25 503c 3ae1 a739 a823 56bc
000003e0: 3f1a ffbb 075f 073b 9edc d33b 376c 82bb
000003f0: 28d6 093b 2f94 ae3b fda6 b13b 057b 523c

gbrbm.b f4 [100]
-0.0021145267 0.019679712 0.0023733713 0.00020185485 0.32521343 -0.12628418 0.2799672 -0.0578396
-0.03090868 0.122375585 -0.033905596 0.27682704 -0.03875299 -0.030595833 0.31650263 -0.04202535
-0.04331938 -0.027629824 0.26982686 -0.093562044 -0.08657422 -0.001535589 -0.0021130012 -0.05006963
0.4709656 -0.010212501 -0.02653211 -0.06695508 -0.43484765 -0.16844037 0.020108791 -0.12351688
-0.013905904 -0.07623229 -0.0435639 0.2723778 -0.09367313 -0.0716385 -0.1051135 0.20610432
-0.4986182 0.109093145 -0.03710915 0.043926492 -0.28741518 -0.19549334 -0.04078954 0.20208138
-0.010567265 -0.4665583 -0.00016278311 0.09631749 -0.13108751 -0.2372875 -0.19858395 -0.07288977
-0.08574682 -0.12828328 -0.42297283 -0.07417902 -0.1668565 -0.045770172 -0.08646391 -0.04451661
0.18916054 -0.018125867 -0.06015936 0.5556071 -0.15782945 -0.09620378 -0.12547173 -0.14436679
-0.12532417 -0.10861377 -0.13013221 0.013491399 -0.10188612 -0.08824082 0.04610492 -0.08622708
-0.12258268 -0.08240878 -0.07211943 -0.10628194 -0.026829466 -0.09978787 0.2862337 0.026792731
-0.03682156 -0.24975377 0.06598897 -0.0043574376 -0.4414041 -0.6164418 0.05277779 0.05040011
-0.4111565 -0.15728344 0.006542491 -0.07007986
00000000: df93 0abb 5937 a13c 908a 1b3b 00a9 5339
00000010: 6082 a63e a450 01be dc57 8f3e 37e9 6cbd
00000020: 3334 fdbc 0da0 fa3d 98e0 0abd 46bc 8d3e
00000030: 75bb 1ebd 1da4 fabc a20c a23e c622 2cbd
00000040: aa6f 31bd f157 e2bc bf26 8a3e 759d bfbd
00000050: d34d b1bd d145 c9ba 477a 0abb d015 4dbd
00000060: 6722 f13e 5552 27bc de59 d9bc bf1f 89bd
00000070: 5aa4 debe a27b 2cbe 31bb a43c 6bf6 fcbd
00000080: 97d5 63bc ad1f 9cbd 0f70 32bd 1a75 8b3e
00000090: b3d7 bfbd 35b7 92bd bf45 d7bd 030d 533e
000000a0: e24a ffbe 3a6c df3d c4ff 17bd 44ec 333d
000000b0: 1528 93be 682f 48be ef12 27bd 6cee 4e3e
000000c0: 5222 2dbc bbe0 eebe c2b0 2ab9 1b42 c53d
000000d0: ce3b 06be 7ffb 72be 9759 4bbe 3b47 95bd
000000e0: 079c afbd b15c 03be e58f d8be 2ceb 97bd
000000f0: 6edc 2abe 8179 3bbd fe13 b1bd 0d57 36bd
00000100: 4db3 413e b37c 94bc a969 76bd 443c 0e3f
00000110: 0b9e 21be 7d06 c5bd a97b 00be e3d4 13be
00000120: fb54 00be e570 debd 6141 05be 070b 5d3c
00000130: aca9 d0bd 9ab7 b4bd 83d8 3c3d d397 b0bd
00000140: a10c fbbd efc5 a8bd 5ab3 93bd 59aa d9bd
00000150: 78c9 dbbc 955d ccbd 398d 923e 6e7c db3c
00000160: 34d2 16bd 74bf 7fbe 3a25 873d d6c8 8ebb
00000170: b8ff e1be 21cf 1dbf 862d 583d 5970 4e3d
00000180: 1b83 d2be e90e 21be 6462 d63b 0886 8fbd

gbrbm.mu f4 [200]
0.013261889 0.00594871 0.00048629253 0.039653867 0.015713701 -0.0015664039 0.0013256889 -0.0044186157
-0.023042424 -0.009046681 -0.022198537 -0.0073048784 -0.030908208 -0.020211065 0.0051904554 -0.00014867664
0.0032794396 -0.0040977667 -0.017048864 0.020726018 -0.011556117 -0.0020133813 0.01800466 -0.023006676
-0.007591315 -0.025859693 0.020696437 0.0011910597 -0.0037382285 -0.015961772 -0.023161985 -0.008549742
-0.01578567 0.00068079267 -0.02121444 0.022095345 -0.017507168 -0.011525613 0.024207579 0.00088975223
0.0075391075 0.022537613 -0.019974325 -0.015569371 0.02558386 0.018512819 -0.008293661 0.004267517
0.035169005 -0.010276451 0.00876111 -0.028865712 0.029765526 -0.016391817 4.6823698e-05 -0.010989049
-0.011596788 -0.012687196 0.008473176 0.0069621024 -0.012181972 0.017071513 0.0024639037 -0.020659242
-0.026486436 0.003014793 0.021881038 0.01602583 -0.011337343 -0.015444899 -0.023412677 -0.024990244
-0.023521231 0.008506649 0.0006029313 -0.019621732 0.021300944 -0.010441372 0.019059984 0.0075798593
0.015830757 -0.015131628 0.025742706 0.004802289 0.016260587 -0.01982196 -0.00973225 -0.026850177
-0.007547772 0.012141487 -0.029756809 0.016495176 -0.012098058 -0.0076349066 0.0003768066 0.0009904262
-0.019632522 0.007275384 -0.00013263425 0.007778617 -0.01720114 0.022010963 -0.019606058 -0.008889165
-0.02918667 -0.004613397 0.007827947 0.015894566 0.019983975 0.014342471 0.004548841 0.015814185
0.014769171 0.014439792 0.01322341 0.009735903 -0.008443586 0.016640045 0.018095579 0.0008729759
0.0065274853 -0.0010334774 0.018418258 -0.0076929945 -0.017621307 -0.006253422 -0.02080795 0.025255412
-0.026008412 0.040090445 0.008045589 0.0021450724 -0.038382165 -5.0374703e-05 -0.0004557178 -0.02652872
-0.015410491 0.0142414095 0.0064225732 -0.0034651845 -0.0027753732 0.0076549095 -0.023579912 -0.006872657
0.004291112 -0.010980313 0.0074953944 0.0037596754 0.015124983 0.0065765074 -0.0032776208 0.014326084
-0.017272918 -0.002799158 -0.00092548574 -0.0224564 -0.009693678 -0.006666178 0.015538979 0.010041402
-0.015139009 0.0139381215 -0.0054533496 -0.017331572 0.020756261 -0.019964049 0.017618641 -0.0074481806
-0.015116296 -0.017992161 0.009397725 -0.026954375 0.024996202 -0.01776439 -0.008155408 -0.001951815
0.00969263 0.006531798 0.009969311 0.029051285 0.018404214 -0.011383634 -0.0038125531 0.027438832
-0.025015842 0.004848123 -0.011920561 -0.00833397 0.013764811 0.020804493 0.018109042 -0.033600397
-0.0075332806 -0.025127234 0.0051213703 0.021955395 0.0021595862 -0.035105996 -0.0015638147 0.017811194
00000000: 6548 593c 65ed c23b 14f5 fe39 186c 223d
00000010: 05ba 803c cb4f cdba bdc2 ad3a 09ca 90bb
00000020: 77c3 bcbc 8838 14bc b5d9 b5bc c35d efbb
00000030: 3633 fdbc ad91 a5bc b214 aa3b 15e6 1bb9
00000040: deeb 563b 8f46 86bb 0faa 8bbc 9cc9 a93c
00000050: de55 3dbc eff2 03bb 827e 933c 7f78 bcbc
00000060: 91c0 f8bb b5d7 d3bc 938b a93c 551d 9c3a
00000070: 11fd 74bb 43c2 82bc 34be bdbc 3814 0cbc
00000080: f350 81bc 3977 323a e8c9 adbc 4c01 b53c
00000090: 316b 8fbc edd5 3cbc f94e c63c 433e 693a
000000a0: 9e0a f73b cda0 b83c 32a1 a3bc ad16 7fbc
000000b0: 3e95 d13c 32a8 973c 23e2 07bc 87d6 8b3b
000000c0: 600d 103d 8f5e 28bc c28a 0f3c c977 ecbc
000000d0: d5d6 f33c 2248 86bc 9064 4438 6a0b 34bc
000000e0: 7400 3ebc f5dd 4fbc 13d3 0a3c 5922 e43b
000000f0: e596 47bc 8fd9 8b3c 7279 213b 923d a9bc
00000100: 15fa d8bc d593 453b dd3f b33c 9a48 833c
00000110: 43c0 39bc 9a0c 7dbc f1cb bfbc 57b8 ccbc
00000120: 99af c0bc 795f 0b3c 090e 1e3a c1bd a0bc
00000130: 517f ae3c 4a12 2bbc af23 9c3c 7860 f83b
00000140: 81af 813c a6ea 77bc 5ee2 d23c 855c 9d3b
00000150: ec34 853c aa61 a2bc 0474 1fbc e7f4 dbbc
00000160: 4d53 f7bb 16ed 463c 8dc4 f3bc e420 873c
00000170: ef36 46bc 3d2e fabb 208e c539 30d1 813a
00000180: 62d4 a0bc 5866 ee3b bc13 0bb9 c5e3 fe3b
00000190: 68e9 8cbc 5650 b43c e29c a0bc dca3 11bc
000001a0: e218 efbc fb2b 97bb ca40 003c 5235 823c
000001b0: 6fb5 a33c affc 6a3c 720e 953b c08c 813c
000001c0: 65fa 713c e194 6c3c 00a7 583c 5683 1f3c
000001d0: f756 0abc b450 883c 2e3d 943c 6cd8 643a
000001e0: 84e4 d53b bf75 87ba e3e1 963c 8415 fcbb
000001f0: 8f5a 90bc 81e9 ccbb 6f75 aabc 70e4 ce3c
00000200: 980f d5bc e135 243d a5d1 033c 5894 0c3b
00000210: 9e36 1dbd 6d49 53b8 68ed eeb9 c252 d9bc
00000220: 497c 7cbc cd54 693c 7374 d23b 2618 63bb
00000230: 09e3 35bb 09d6 fa3b a92a c1bc 0734 e1bb
00000240: 759c 8c3b c5e6 33bc ed9b f53b e364 763b
00000250: c7ce 773c be7f d73b 5acd 56bb f4b7 6a3c
00000260: ef7f 8dbc 1472 37bb 4c9c 72ba 7cf6 b7bc
00000270: 3bd2 1ebc f46f dabb 3497 7e3c b184 243c
00000280: 9b09 78bc b85c 643c 03b2 b2bb f1fa 8dbc
00000290: 0909 aa3c a58b a3bc f854 903c de0f f4bb
000002a0: 57aa 77bc 4c64 93bc eaf8 193c 6ccf dcbc
000002b0: d6c4 cc3c a086 91bc 439e 05bc 0bd4 ffba
000002c0: d6cd 1e3c b108 d63b 5256 233c f6fc ed3c
000002d0: 6fc4 963c 6c82 3abc 07dc 79bb 67c7 e03c
000002e0: 06ee ccbc 01dd 9e3b 754e 43bc 348b 08bc
000002f0: cd85 613c 2f6e aa3c 6a59 943c 92a0 09bd
00000300: bdd9 f6bb a1d7 cdbc 2bd1 a73b cddb b33c
00000310: d887 0d3b 4ecb 0fbd eaf8 ccba c8e8 913c

gbrbm.log_var f4 [200]
-1.8114454 -1.8009262 -1.7773213 -1.7939569 -1.7757436 -1.7793877 -1.7768939 -1.7657497
-1.7642355 -1.7792224 -1.7810193 -1.7863797 -1.7980379 -1.7929394 -1.7919102 -1.8192788
-1.7907254 -1.7854937 -1.8103607 -1.7761825 -1.7747333 -1.7668767 -1.7643187 -1.7802758
-1.7745105 -1.7826905 -1.8001275 -1.7951658 -1.7783517 -1.7926922 -1.7932001 -1.8044311
-1.7704569 -1.8030897 -1.7771528 -1.7697777 -1.7910804 -1.7975993 -1.7732792 -1.7685486
-1.7749273 -1.8074517 -1.7830604 -1.8138007 -1.7849696 -1.7854307 -1.7813764 -1.760263
-1.8076133 -1.8019722 -1.7825586 -1.7928617 -1.7807727 -1.7799151 -1.7795665 -1.7704365
-1.7926381 -1.7852174 -1.7920016 -1.787419 -1.7634453 -1.7781985 -1.7878847 -1.7808996
-1.7938144 -1.7811189 -1.7850018 -1.797772 -1.7795807 -1.7866385 -1.8095721 -1.7731838
-1.7926402 -1.7915921 -1.8036505 -1.787651 -1.8060709 -1.791648 -1.7977428 -1.7921385
-1.7942998 -1.7844479 -1.7590517 -1.778 -1.8021716 -1.7858835 -1.7969611 -1.796281
-1.7794685 -1.7892674 -1.783613 -1.7717974 -1.7695432 -1.7758075 -1.7661477 -1.7860765
-1.7608079 -1.780499 -1.7892435 -1.7807102 -1.7682167 -1.7897308 -1.791223 -1.8018136
-1.7872093 -1.7922126 -1.7861134 -1.7964432 -1.76532 -1.7882012 -1.7868451 -1.7776932
-1.779785 -1.7830985 -1.7781068 -1.8117667 -1.7811844 -1.7726867 -1.8048788 -1.7863178
-1.7776561 -1.7733842 -1.7861713 -1.7639445 -1.7969687 -1.7798842 -1.7668822 -1.79429
-1.782656 -1.7907112 -1.7854007 -1.8137082 -1.7942953 -1.7754939 -1.7767535 -1.7804819
-1.784792 -1.7930686 -1.7987448 -1.8000143 -1.7800529 -1.7912505 -1.7692641 -1.7921468
-1.786049 -1.7788899 -1.7953961 -1.787439 -1.7706755 -1.775692 -1.7966548 -1.7719531
-1.7714257 -1.7999663 -1.7799803 -1.785654 -1.7856901 -1.796893 -1.7834114 -1.7725636
-1.7930866 -1.7949516 -1.7845232 -1.8233913 -1.7852024 -1.7897867 -1.7976838 -1.7878982
-1.7890737 -1.7873518 -1.7986705 -1.8007666 -1.7840184 -1.8074623 -1.7850766 -1.7879966
-1.7847971 -1.8001148 -1.7975414 -1.776451 -1.7825541 -1.7869701 -1.780227 -1.7682989
-1.792136 -1.8047372 -1.7762597 -1.7826577 -1.7908382 -1.7790815 -1.7912496 -1.8018643
-1.7750795 -1.7942768 -1.7833201 -1.7954721 -1.796711 -1.8105911 -1.7763656 -1.7968961
00000000: 71dd e7bf c084 e6bf 447f e3bf 61a0 e5bf
00000010: 914b e3bf fac2 e3bf 4271 e3bf 1604 e2bf
00000020: 78d2 e1bf 8fbd e3bf 71f8 e3bf 17a8 e4bf
00000030: 1b26 e6bf 0a7f e5bf 505d e5bf 21de e8bf
00000040: 7d36 e5bf 0f8b e4bf e6b9 e7bf f359 e3bf
00000050: 762a e3bf 0429 e2bf 32d5 e1bf 14e0 e3bf
00000060: 2923 e3bf 342f e4bf 946a e6bf fec7 e5bf
00000070: 07a1 e3bf f076 e5bf 9587 e5bf 99f7 e6bf
00000080: 559e e2bf a5cb e6bf be79 e3bf 1388 e2bf
00000090: 1f42 e5bf bc17 e6bf d0fa e2bf cd5f e2bf
000000a0: d130 e3bf 945a e7bf 533b e4bf 9f2a e8bf
000000b0: e279 e4bf fe88 e4bf 2404 e4bf 4c50 e1bf
000000c0: df5f e7bf 06a7 e6bf e12a e4bf 7e7c e5bf
000000d0: 5cf0 e3bf 42d4 e3bf d6c8 e3bf aa9d e2bf
000000e0: 2a75 e5bf 0182 e4bf 4f60 e5bf 25ca e4bf
000000f0: 93b8 e1bf 029c e3bf 68d9 e4bf 85f4 e3bf
00000100: b69b e5bf b4fb e3bf f07a e4bf 651d e6bf
00000110: 4dc9 e3bf 92b0 e4bf 0fa0 e7bf b0f7 e2bf
00000120: 3c75 e5bf e452 e5bf 05de e6bf bfd1 e4bf
00000130: 552d e7bf b954 e5bf 701c e6bf cb64 e5bf
00000140: 9eab e5bf ca68 e4bf 9b28 e1bf 8195 e3bf
00000150: 8fad e6bf d597 e4bf d202 e6bf 89ec e5bf
00000160: a0c5 e3bf b706 e5bf 6e4d e4bf 42ca e2bf
00000170: 6480 e2bf a94d e3bf 2111 e2bf 289e e4bf
00000180: 2762 e1bf 64e7 e3bf ee05 e5bf 50ee e3bf
00000190: ed54 e2bf e615 e5bf cc46 e5bf d4a1 e6bf
000001a0: 46c3 e4bf 3967 e5bf 5d9f e4bf daf1 e5bf
000001b0: 01f6 e1bf c7e3 e4bf 57b7 e4bf 738b e3bf
000001c0: ffcf e3bf 923c e4bf 0199 e3bf f9e7 e7bf
000001d0: dafd e3bf 66e7 e2bf 4506 e7bf 10a6 e4bf
000001e0: 3c8a e3bf 41fe e2bf 43a1 e4bf efc8 e1bf
000001f0: 1203 e6bf 3fd3 e3bf 3229 e2bf 4bab e5bf
00000200: 122e e4bf 0636 e5bf 0388 e4bf 9727 e8bf
00000210: 78ab e5bf 6243 e3bf a96c e3bf d5e6 e3bf
00000220: 1074 e4bf 4683 e5bf 453d e6bf de66 e6bf
00000230: c6d8 e3bf b247 e5bf 3f77 e2bf 1165 e5bf
00000240: 419d e4bf aab2 e3bf 8acf e5bf cdca e4bf
00000250: 7fa5 e2bf e049 e3bf c9f8 e5bf 5ccf e2bf
00000260: 14be e2bf 4c65 e6bf 65d6 e3bf 4f90 e4bf
00000270: 7e91 e4bf 9700 e6bf d346 e4bf 5de3 e2bf
00000280: dd83 e5bf f9c0 e5bf 426b e4bf e364 e9bf
00000290: 8381 e4bf bb17 e5bf 811a e6bf d9d9 e4bf
000002a0: 5e00 e5bf f2c7 e4bf d63a e6bf 857f e6bf
000002b0: b75a e4bf ed5a e7bf 647d e4bf 13dd e4bf
000002c0: 3b74 e4bf 296a e6bf d615 e6bf bf62 e3bf
000002d0: bc2a e4bf 70bb e4bf 7ade e3bf 9e57 e2bf
000002e0: b664 e5bf a101 e7bf 7a5c e3bf 212e e4bf
000002f0: 303a e5bf f1b8 e3bf ab47 e5bf 7da3 e6bf
00000300: ce35 e3bf ddaa e5bf d543 e4bf 08d2 e5bf
00000310: a0fa e5bf 73c1 e7bf f35f e3bf b100 e6bf

gbrbm.linear_layer.weight f4 [1, 100]
-0.037404902 -0.0018346617 -0.020763306 -0.024261868 -0.023153065 0.016784986 -0.025943823 -0.0050799805
-0.03089394 -0.027452912 -0.0065432326 -0.027030189 0.00370051 -0.019083753 -0.026408792 -0.021895932
0.0005302301 0.025444714 -0.025112882 0.0037712331 -0.027833937 -0.009285801 -0.02752619 0.00062448316
-0.023176396 -0.026565794 -0.002196313 -0.00819358 0.05389133 0.02864923 -0.007340044 0.008484282
-0.034070972 0.019848894 -0.030637497 -0.025845673 -0.011137961 0.017200626 -0.0014349648 -0.027706204
0.061135083 -0.030610088 -0.011218569 -0.01884241 0.036454964 0.029584406 0.006771426 -0.02804328
-0.0326585 0.056093145 0.011294008 -0.029468998 0.017225966 0.040723573 0.02506112 0.010733831
0.024748625 0.021577246 0.054156538 0.016554806 0.03169357 -0.028781718 0.023451375 -0.0056806183
-0.027774578 0.002903682 0.0038499674 -0.024487775 0.015099566 0.012429165 0.027244514 0.024392294
0.025123606 0.018388147 0.008939936 -0.0016775609 0.01014995 -0.013908913 -0.028734384 0.008488702
0.020062026 -0.00042780713 -0.022981498 0.019230247 -0.0010275041 -0.012793322 -0.022940606 -0.031446923
-0.02188034 0.03847453 -0.025141343 -0.014634199 0.055098016 0.06032578 -0.029075544 -0.03344765
0.048286043 0.029709492 -0.029559216 -0.015035944
00000000: e235 19bd 0879 f0ba cf17 aabc d3c0 c6bc
00000010: 7fab bdbc ab80 893c 2488 d4bc f775 a6bb
00000020: 4a15 fdbc eee4 e0bc 9d68 d6bb 6a6e ddbc
00000030: 4184 723b 8855 9cbc 4057 d8bc 195f b3bc
00000040: 24ff 0a3a 6f71 d03c 88b9 cdbc cb26 773b
00000050: ff03 e4bc 7923 18bc 9b7e e1bc 5bb4 233a
00000060: 6ddc bdbc 82a0 d9bc 05f0 0fbb 5e3e 06bc
00000070: 28bd 5c3d cab1 ea3c c084 f0bb a801 0b3c
00000080: 018e 0bbd 269a a23c 7dfb fabc 4eba d3bc
00000090: ff7b 36bc 54e8 8c3c 6e15 bcba 1ff8 e2bc
000000a0: c868 7a3d 02c2 fabc 17ce 37bc 665b 9abc
000000b0: cd51 153d ff5a f23c d7e2 dd3b 05bb e5bc
000000c0: ebc4 05bd edc1 653d 810a 393c f868 f1bc
000000d0: 781d 8d3c c3cd 263d fa4c cd3c f3dc 2f3c
000000e0: a1bd ca3c c4c2 b03c 3fd3 5d3d f29d 873c
000000f0: 1ed1 013d a3c7 ebbc 191d c03c 7b24 babb
00000100: 8387 e3bc b34b 3e3b bc4f 7c3b 969a c8bc
00000110: 2c64 773c b2a3 4b3c e32f df3c 59d2 c73c
00000120: 05d0 cd3c bda2 963c cf78 123c 9ae1 dbba
00000130: fa4b 263c 36e2 63bc 5f64 ebbc 3214 0b3c
00000140: 1e59 a43c 4d4b e0b9 b243 bcbc c088 9d3c
00000150: 51ad 86ba 159b 51bc f0ed bbbc 7dce 00bd
00000160: 663e b3bc 7897 1d3d 38f5 cdbc 48c4 6fbc
00000170: 75ae 613d 2a18 773d d62f eebc 6700 09bd
00000180: 96c7 453d 5261 f33c 2b26 f2bc 5259 76bc

gbrbm.linear_layer1.weight f4 [1, 50]
-0.017529972 0.06486991 0.10610996 0.03770928 0.10034396 0.092905596 -0.10414584 0.12829907
0.13851269 -0.08848727 0.0052030385 -0.020968057 -0.008524001 -0.0016392618 0.013105139 -0.11456807
-0.09575286 0.021254793 0.117078885 -0.08336888 0.088636085 0.112663105 0.042141408 -0.021437712
0.0824824 0.13921566 -0.0846473 -0.01465565 -0.061369285 0.0028594881 0.030956596 0.053605333
0.0054178387 0.067045406 0.045371637 -0.09500913 -0.12640043 -0.027052969 0.067417905 0.10943194
0.106767535 0.11610718 -0.031270705 -0.12011187 0.09808558 -0.012914762 0.051292837 -0.12630574
0.03440252 -0.045697704
00000000: 049b 8fbc 84da 843d 2e50 d93d 0c75 1a3d
00000010: 2281 cd3d 4a45 be3d 6a4a d5bd d560 033e
00000020: 45d6 0d3e d038 b5bd 407e aa3b 34c5 abbc
00000030: 40a8 0bbc 80dc d6ba f0b6 563c aaa2 eabd
00000040: 131a c4bd 881e ae3c 0ec7 ef3d 4ebd aabd
00000050: d686 b53d eabb e63d 789c 2c3d 249e afbc
00000060: 88ec a83d 8d8e 0e3e 905b adbd 401e 70bc
00000070: 5c5e 7bbd 4066 3b3b b098 fd3c 4491 5b3d
00000080: 2088 b13b 1a4f 893d 9cd7 393d 2694 c2bd
00000090: 1d6f 01be 309e ddbc 6612 8a3d da1d e03d
000000a0: f0a8 da3d 9ac9 ed3d b615 00bd 36fd f5bd
000000b0: 18e1 c83d 7098 53bc 7018 523d 4b56 01be
000000c0: a8e9 0c3d 842d 3bbd
