models_weight/lstm-gbrbm_133.pt (torch, 214690 bytes, 10 tensors)

lstm_layer.lstm1.weight_ih_l0 f4 [400, 16]
00000000: 3869 9cba c92f a1ba cd9b 9cba 7474 84ba
00000010: c0b0 45ba a015 d7ba 5126 94ba dfc6 5eba
00000020: c6b0 45ba e3dd 17ba 64c8 63ba 873b 95ba
00000030: 6ea5 f939 6257 80ba b605 9cba 25b7 99ba
00000040: 20c2 64b6 c9f6 3339 5cb9 5338 02e9 75ba
00000050: 4946 ef3b 4792 083c 9a7e 983b 8b88 1abb
00000060: 0646 ef3b b9a5 0dbc 3407 db3b e649 003a
00000070: 4561 0a3c 440f ecb8 275c 2439 7eaf 69b9
00000080: f23d 5fbb a7d4 5ebb d0e2 5fbb e3cb 3db9
00000090: 7164 2839 1a11 c03a e78e b439 be9c 7aba
000000a0: 7164 2839 50a2 61b9 5532 903a 92be c7b9
000000b0: d180 343a 54ef 0eba 405d 4ebb 5724 6cbb
000000c0: a82e 9eb9 b87d b3b9 2299 adb9 237a a5b9
000000d0: 442e 82ba 8548 50ba 4534 98ba 3ae6 e538
000000e0: 432e 82ba 60e7 d539 255c 3539 2077 15ba
000000f0: f071 afb9 2cf0 d2b9 b6bd b1b9 740c 88b9
00000100: fa9d 013b ad6a 093b 9d17 053b 1f8c 503b
00000110: 6f1a 8c3b 3cce 513b c023 f33a 7e26 263b
00000120: 6f1a 8c3b 541b 343a 1673 c23b b7ad 213b
00000130: 8eb6 32ba f699 3d3b ba5d 093b 7879 f33a
00000140: 28d4 e33a 8ec4 dd3a 433e dd3a e811 abba
00000150: 3a28 5fbb 9828 1a38 1816 9039 aa0d bd3a
00000160: 3828 5fbb 1f29 a9ba c2f7 1abb c031 a2b9
00000170: 2be5 da3a f9b8 1bba 57b6 e63a 4a77 dd3a
00000180: 8e25 403b 0337 483b 3e67 423b e4da ce3b
00000190: 7c27 5a3b e51e 683b b6ef 463b 2270 953b
000001a0: 3327 5a3b b1ff ae3b d0d3 193b c5d4 913b
000001b0: 24a3 b0bb df60 b13b 5712 363b cb33 4a3b
000001c0: 9d11 6b3b 63c1 693b c50a 653b 0c1b b2bb
000001d0: f6c3 33bb 0322 4039 7227 8e3a 6484 70b9
000001e0: f4c3 33bb 6c32 33bc 417d b13a 92ea bdba
000001f0: cb9c 2a3c 11d4 1ebb 9eba 783b 0a78 5c3b
00000200: 523c 4dbb ce42 47bb c0f1 47bb e25a 2d3b
00000210: fb35 c63b ff5b 303b ca45 6639 c182 11bb
00000220: fd35 c63b efed 053c 2d26 343c 87aa 983a
00000230: 3903 1ebc dafc 283b 42a1 57bb ec43 35bb
00000240: 8a80 2138 f42e 2938 80c4 9835 4b06 763a
00000250: f2fb 123a 1444 c2b9 6352 e439 35e6 293b
00000260: f8fb 123a 6bd4 193b ca77 ce3a 5512 313a
00000270: f579 0cbb 7a96 763a b48f 8138 1931 9738
00000280: 3e2a 91bb b346 8fbb 7c72 90bb e697 e2ba
00000290: 1fc2 2e3b 56f7 6a3b 663a 303b 4d9a e7ba
000002a0: 1cc2 2e3b 8d62 5bbb a2a0 aa3b b98e 2bba
000002b0: 8acb 7c3b 2b00 d0ba 90d0 86bb ed98 97bb
000002c0: 8030 0b39 12a9 2539 7abb 0239 cb8a ecba
000002d0: c74e 553a ea2e 2f3b a482 af3a a0a4 313a
000002e0: 834e 553a cc14 3fbb 1657 f23a 87b0 28b9
000002f0: 57af 213b ce35 a6b9 c6ed e239 0e6a 1fb9
00000300: 2a21 61b9 620a 94b9 4c32 85b9 a071 0239
00000310: 088d a3bb f52d 0abb df2d 54bb 73db 533a
00000320: f38c a3bb 1f0e 413b ec03 ecbb c981 a5ba
00000330: 7c3b 4bbb cc54 dcb9 e4b6 e7b9 b809 2a37
00000340: e338 213c 3686 223c db50 203c ee6c 803b
00000350: baa5 3c3b c4bf 9b3a 92ad 21ba 2f90 fc3b
00000360: 9aa5 3c3b 274f af3b e7f4 093b 2ccd 033b
00000370: 87be acbb d557 7f3b aa81 243c ccd6 1e3c
00000380: b600 533b a27d 503b f627 4d3b 705a 7438
00000390: c02e ebb8 fc0d a639 cc6b c639 2188 3c3b
000003a0: f62e ebb8 118b 1bbb 0e5d 3d3b cedd ad3a
000003b0: 1c61 bc3a d3c3 a73a 3c35 5e3b 3ce1 443b
000003c0: 4f0b 5038 dc3d 4b38 1ea9 1e38 2530 4eba
000003d0: 46a5 e0b9 96ce 1eb9 19a2 9638 d575 b6b8
000003e0: 36a5 e0b9 acb9 0cbb 2c62 d639 12a0 bbb9
000003f0: d6b5 fb3a acbe acb9 cccb 5639 8fa3 cfb8
-0.0011933213 -0.0012297566 -0.0011948288 -0.0010105507 -0.00075412914 -0.0016409643 -0.0011302923 -0.0008498262
-0.0007541295 -0.00057932566 -0.00086892233 -0.0011385538 0.00047616236 -0.0009791667 -0.0011903557 -0.0011727555
-3.4087643e-06 0.00017162705 5.047895e-05 -0.0009380729 0.00730208 0.0083356565 0.004653764 -0.002357992
0.0073020486 -0.008645468 0.0066842083 0.0004893824 0.008446042 -0.000112562004 0.00015674588 -0.00022285988
-0.0034064022 -0.0034001262 -0.003416229 -0.00018100398 0.00016059146 0.0014653534 0.00034438746 -0.00095600996
0.00016059146 -0.00021518138 0.0011001328 -0.00038098224 0.000688565 -0.0005452533 -0.0031488687 -0.0036032402
-0.0003017087 -0.00034235208 -0.00033111224 -0.0003156225 -0.0009932001 -0.00079453766 -0.0011612257 0.00010962454
-0.0009932 0.00040798914 0.00017295832 -0.000570165 -0.0003346349 -0.00040233263 -0.00033901416 -0.0002594922
0.0019778 0.0020968125 0.0020308264 0.00318218 0.004275612 0.0032013794 0.0018550083 0.0025352533
0.004275612 0.0006870527 0.0059341295 0.0024670193 -0.0006817364 0.002893088 0.0020960406 0.0018575629
0.0017381953 0.001691954 0.0016879517 -0.0013051601 -0.0034051077 3.6754267e-05 0.0002748228 0.0014423628
-0.0034051072 -0.0012905932 -0.002364621 -0.00030936114 0.0016700377 -0.0005940344 0.0017601949 0.0016896513
0.002931926 0.0030550368 0.0029663588 0.006312715 0.0033287695 0.0035418805 0.0030355281 0.0045604864
0.0033287525 0.0053405394 0.0023472197 0.004450413 -0.0053905416 0.0054131593 0.0027781927 0.0030853625
0.0035868653 0.0035668246 0.0034949046 -0.005435353 -0.0027430034 0.00018323217 0.0010845496 -0.00022937503
-0.002743003 -0.0109373145 0.0013541357 -0.0014489463 0.010413359 -0.0024235288 0.003795303 0.0033640885
-0.0031316471 -0.003040481 -0.0030509084 0.0026451875 0.0060489154 0.0026910303 0.00021960508 -0.002220318
0.0060489164 0.008174404 0.01099543 0.0011647501 -0.009644323 0.0025785477 -0.0032902514 -0.0027658893
3.8505103e-05 4.033647e-05 1.1382072e-06 0.0009385093 0.0005607001 -0.00037053286 0.00043548932 0.0025924568
0.0005607004 0.0023472558 0.0015752253 0.0006754746 -0.0021434997 0.0009406578 6.177966e-05 7.209386e-05
-0.0044300845 -0.0043724417 -0.004408179 -0.0017287701 0.0026665998 0.003585299 0.0026890277 -0.0017669887
0.0026665991 -0.003347549 0.005207137 -0.00065443997 0.0038573467 -0.0015869191 -0.004114218 -0.0046263845
0.0001327414 0.0001579861 0.00012467607 -0.0018046735 0.0008137044 0.0026730844 0.0013390374 0.0006776545
0.00081370043 -0.0029156683 0.0018489088 -0.0001608749 0.002467116 -0.00031702075 0.00043283234 -0.0001520293
-0.00021470027 -0.00028236496 -0.0002540521 0.00012440095 -0.0049911775 -0.0021084521 -0.0032375974 0.0008081712
-0.0049911677 0.002945788 -0.007202616 -0.001262718 -0.0031010797 -0.00042024849 -0.00044196018 1.0135052e-05
0.009840223 0.009919694 0.009784902 0.0039192354 0.0028785304 0.0011882712 -0.00061675266 0.0077076177
0.002878523 0.005350012 0.0021050514 0.0020111306 -0.005271736 0.0038962264 0.01004068 0.009694766
0.0032196469 0.0031813164 0.0031304336 5.825836e-05 -0.00011214381 0.00031672406 0.00037845818 0.0028767663
-0.000112144204 -0.0023734013 0.0028894576 0.0013264955 0.0014372203 0.0012799449 0.0033906242 0.0030041477
4.9601596e-05 4.8456583e-05 3.7827638e-05 -0.00078654505 -0.00042847748 -0.00015145013 7.1827504e-05 -8.700384e-05
-0.000428477 -0.0021472974 0.00040890404 -0.0003578668 0.0019203972 -0.00032948458 0.0002048455 -9.900994e-05

lstm_layer.lstm1.weight_hh_l0 f4 [400, 100]
00000000: a23f bb38 00be e438 29e6 9bb9 5e5a 8d38
00000010: 702c bd37 25a0 5fb8 d6ab 9c38 f032 0c37
00000020: 0545 0239 52c8 a338 7a5e f8b8 28cb f9b7
00000030: e03b a237 ce7f 103a 55de aab6 7a10 db37
00000040: ec7c fdb7 956b 5438 0976 f036 19f0 05b9
00000050: b6fb 80b9 3cbe 4b38 98d4 66b7 13a8 d4b9
00000060: 4298 96b9 2dcd e938 2a7a 9eb9 5721 b038
00000070: 32d3 dbb8 a8d0 71b8 225f 2cb9 7770 aeb7
00000080: a03c d439 f245 10ba 5176 9838 f6d8 3338
00000090: 379a 3538 7867 9c38 1673 1a39 56fa 5b39
000000a0: 0693 37b7 ed7f b6b8 3ab9 d137 50e1 aeb9
000000b0: 76ba 0238 f550 be38 c2e8 4239 fefd b9b8
000000c0: 0035 c934 2854 e537 b4ec c437 f5ac fdb9
000000d0: 9f0f 30b9 2c4f b2b8 5e47 35b8 94b2 9a38
000000e0: 35b7 97b8 b47c 28b8 b03d 0f37 62ac 1439
000000f0: 2e91 46b9 640f a3b8 c8ba d637 7253 84b7
00000100: 9728 d038 3aff 31b9 ea7c 8cb8 1e94 e738
00000110: 9270 9f38 f504 d4b9 c0e1 5bb9 8021 83b7
00000120: 78fc b339 5810 f938 a0cf 6738 2efd 0b39
00000130: 98e5 9db9 d821 1937 2aa9 c638 9032 4e37
00000140: d08f 5bb8 641a 3137 00be da35 0243 d938
00000150: 1e25 6939 9288 0739 13a6 51b7 e8b3 11b8
00000160: f78d 2c39 c3be 1839 7aaa a238 9296 8bb8
00000170: 17be a8b8 659a 46ba b26e feb7 b2e2 c6b9
00000180: 73d8 e838 9a65 3f39 41cb 4b38 a0ff 4eb6
00000190: 7c53 99b9 b4e2 75b9 0ee6 3e3a 9028 c2b9
000001a0: 421a 2d3a a027 2d3a 1e34 c0ba c04d 5d37
000001b0: e7d8 0c3b 6667 183a 3b01 843a 9eef 9a39
000001c0: b2ba 3939 4c0e b2ba ea1d 2db8 edb7 4539
000001d0: d872 e8b9 9870 353a ee15 36ba dc8b 213a
000001e0: b428 c439 9844 83b9 631f 9239 312b 24bb
000001f0: a6a6 d439 401c 06ba d836 a939 00fc 8536
00000200: ca76 5d39 c918 8639 d582 6fba 56a3 ab39
00000210: 54e9 253b a848 4d3b d4a2 abba c1f0 39ba
00000220: d89d 8fb8 48ab bd39 56ad f9b9 223f 8d3a
00000230: 829b afb9 98dd bab8 d1c0 50b9 611f ff3a
00000240: 9c8f fd39 a5fe 8fb9 9ab2 73ba dcfa 3439
00000250: 6930 3439 1718 8fba f4ca 8bb9 15a6 513b
00000260: 9962 a3b9 903b 8c3a a7c1 c539 46ba 86ba
00000270: 2870 99b9 4075 b73a a04a a8b7 2459 bfb9
00000280: 7e7e 583a 369c a039 1e66 9bb9 837a 8839
00000290: 9ef4 a8ba 06a5 473a 6fae e839 7ec8 c0b9
000002a0: d254 da39 4a94 843a de68 6cb9 9842 6fb9
000002b0: b6d6 8ab9 f22b b439 81ff 49ba ca72 5fba
000002c0: 30bb 8739 ca63 3b3a 18d3 1db9 6e84 3aba
000002d0: 3428 75b9 5fd0 c1b9 1479 69b9 8d4d 343a
000002e0: 4472 d4b9 4a36 e3ba 7aca b139 1015 bfb8
000002f0: 87dc ea39 1358 81ba 269f 1639 519a dd39
00000300: f05c c2b7 4150 6e3b c6b2 0b3a f097 90b9
00000310: f203 a3b9 1316 d8ba 109f 62b8 0afc 623a
00000320: d991 5638 eac4 ccba 97b2 99ba 92f8 7638
00000330: bcdc ad3a 2a50 e7b9 75d0 b2ba d505 14b9
00000340: 6a80 153b c5b8 623a 02bf 4dbb a54e b3b9
00000350: 6d37 383a a4ca eaba 7d71 583a 4762 e739
00000360: 5ec5 48ba d656 373a f935 d3ba cab2 15bb
00000370: 4dce 8d3b f0ec 333a 8e36 26bb a4e4 deb9
00000380: bba7 cb39 86b7 c53a e8b8 e839 59d3 b438
00000390: 0544 32ba b405 7cba f5fd 813a 7fa0 243a
000003a0: d03d b739 fe5c ddba e1bf ac39 e1c4 753b
000003b0: 6c4a 083a 7fe1 a3b9 58c3 943a 8421 9e38
000003c0: 687d a4ba b260 c7ba 6b20 823b a905 b0ba
000003d0: 4616 033b 788f 533b 829a 2b3a de8f 303a
000003e0: f977 993a 5324 15bb bfe4 a13a 3070 69bb
000003f0: f03f 5339 dcbc 39bb 0d5a 8c3a 55a5 9aba
8.9287074e-05 0.000109072775 -0.00029735386 6.740236e-05 2.2551249e-05 -5.331649e-05 7.4706666e-05 8.35651e-06
0.00012423478 7.809758e-05 -0.00011843159 -2.9777715e-05 1.9339786e-05 0.00055122084 -5.0922777e-06 2.6114507e-05
-3.0218122e-05 5.0644932e-05 7.1662985e-06 -0.00012773312 -0.00024601602 4.857614e-05 -1.3758567e-05 -0.00040561016
-0.0002872367 0.00011148523 -0.00030227128 8.398544e-05 -0.00010482072 -5.7653204e-05 -0.00016438638 -2.0794787e-05
0.0004048096 -0.0005503587 7.269963e-05 4.2878986e-05 4.3297387e-05 7.457932e-05 0.00014729457 0.00020978725
-1.0941882e-05 -8.702264e-05 2.5000994e-05 -0.00033355737 3.116807e-05 9.0749854e-05 0.00018587991 -8.868797e-05
3.747773e-07 2.7338116e-05 2.3475244e-05 -0.00048384783 -0.00016790487 -8.502448e-05 -4.322023e-05 7.376555e-05
-7.234366e-05 -4.017046e-05 8.537827e-06 0.00014178597 -0.00018936835 -7.7753124e-05 2.5597765e-05 -1.5774483e-05
9.925773e-05 -0.00016975115 -6.698987e-05 0.00011042527 7.602679e-05 -0.00040439484 -0.00020969566 -1.5632017e-05
0.00034329644 0.000118762895 5.5268058e-05 0.0001335039 -0.00030116434 9.1273905e-06 9.472885e-05 1.2290329e-05
-5.2347605e-05 1.0556167e-05 1.6297563e-06 0.000103598475 0.00022234439 0.0001292548 -1.2496038e-05 -3.4738245e-05
0.00016456084 0.00014566914 7.756516e-05 -6.6560824e-05 -8.046271e-05 -0.0007576107 -3.0330706e-05 -0.00037934404
0.00011102939 0.00018253029 4.8588267e-05 -3.0845185e-06 -0.00029244635 -0.00023449474 0.00072822056 -0.00037032785
0.0006603339 0.0006605331 -0.001466397 1.3190729e-05 0.0021491589 0.00058137474 0.0010071167 0.00029551698
0.00017712524 -0.0013584583 -4.1274274e-05 0.00018855902 -0.00044336054 0.000692138 -0.0006946017 0.0006162503
0.0003741436 -0.00025037373 0.00027870675 -0.0025050158 0.00040559954 -0.0005115904 0.00032275054 3.9930455e-06
0.00021120455 0.00025576938 -0.0009136622 0.00032737356 0.0025316076 0.0031323824 -0.0013094791 -0.0007093065
-6.848172e-05 0.00036176504 -0.00047622126 0.0010776261 -0.00033494463 -8.910446e-05 -0.00019908255 0.0019464308
0.00048362918 -0.0002746481 -0.0009296328 0.0001725959 0.00017184172 -0.0010917214 -0.00026663358 0.0031989862
-0.00031163244 0.0010698903 0.0003771905 -0.0010278902 -0.00029265997 0.0013996735 -2.006191e-05 -0.00036496774
0.0008258595 0.00030633964 -0.00029639987 0.0002603122 -0.0012890284 0.0007615838 0.0004438045 -0.00036770472
0.00041643396 0.0010114994 -0.0002254578 -0.00022817624 -0.00026481383 0.00034365017 -0.00077056146 -0.000852388
0.00025888672 0.00071483536 -0.00015051325 -0.00071150705 -0.00023379998 -0.00036967077 -0.00022265717 0.0006878011
-0.00040520926 -0.0017334905 0.00033910928 -9.111513e-05 0.00044796264 -0.0009868167 0.00014364402 0.0004226738
-2.316988e-05 0.0036363753 0.00053290685 -0.00027579023 -0.00031092722 -0.0016486071 -5.4030737e-05 0.00086587726
5.1157407e-05 -0.001562265 -0.0011726198 5.888247e-05 0.0013264637 -0.0004411948 -0.0013642447 -0.00014116552
0.0022812136 0.00086487486 -0.0031394367 -0.00034200135 0.0007027302 -0.0017913175 0.0008256657 0.00044132976
-0.00076588045 0.00069938356 -0.0016114108 -0.0022842162 0.0043275715 0.00068636145 -0.0025362107 -0.0004251349
0.00038844146 0.0015084601 0.00044388254 8.6224354e-05 -0.0006800297 -0.0009613887 0.0009917604 0.00062800193
0.00034950534 -0.0016888676 0.00032949357 0.0037501382 0.0005199078 -0.0003125779 0.0011349721 7.54027e-05
-0.0012549581 -0.0015211313 0.0039711497 -0.0013429421 0.002000229 0.003228156 0.0006546156 0.0006735305
0.0011708728 -0.0022757247 0.0012351497 -0.0035619847 0.00020146347 -0.0028341329 0.001070799 -0.001179854

lstm_layer.lstm1.bias_ih_l0 f4 [400]
00000000: c829 19ba 8f80 03bc d5a4 8c3a ecea 053a
00000010: d32c 503a c07f c4ba b8c0 b23b 7eee 48bc
00000020: d4e8 f83b 4dad 123b 8039 13bb 222a 67bb
00000030: 8c65 3c3b 6f31 c03b 2ea4 6cbb f8ad 17bb
00000040: a45f f9b8 b452 7bbb fbf0 84bb a15b 8639
00000050: de61 6a3b 3dbd caba 456d 84bb d891 433d
00000060: 9ce5 f13a 510f ba3b 357e dc3b 11fd 383a
00000070: 9dd5 dd3a 4351 69bc 105f 93bc a661 bcba
00000080: 7a55 213d dd22 b13a 073e 2ebc bf8b 3bbb
00000090: de0c 5ebb 1e37 3cbc ee16 1e3b 0d69 41bc
000000a0: aa2f a2ba d31a b3bb 88ce 29bb 1941 4abc
000000b0: c291 413a b45a aebb 9a44 0d3c e812 b739
000000c0: c3a2 92ba 0377 9dbb 7e34 4dbb 8fb5 f63a
000000d0: e27b 62ba 3f13 24ba 6266 6fb9 1d4f 41ba
000000e0: abad d0bb 1bab 03bc 9234 6ebc 30ec 03bb
000000f0: 163e 0ebb 6d0c eaba ebc8 4aba 1f49 4dba
00000100: 3805 0ebc fe26 fbbb 0f54 a0ba d7f8 4cbb
00000110: 0cf3 32bc d930 613b 7c42 4abc 4940 2b3c
00000120: a893 5f3b a722 e8ba 7118 3bba 20f8 5aba
00000130: ce5b 9d3b fbef ef3a b85f 8abb 7182 13ba
00000140: 27b7 b0bb 6079 4ebb 8fda 0bbc 1f39 acbb
00000150: 1b10 2dbb 447a 093c 9188 c6b9 ebcf e83a
00000160: c1c8 c8bb c57c b2bb 7dd7 1dbb 7fc0 063a
00000170: 3454 8aba 2e85 b1bb ca03 32ba 1b93 9cb9
00000180: d8e5 78bc 8231 2aba 7168 90ba 48ae 883a
00000190: 9303 b5b9 9313 3ebc c318 9f3a f61a 9a39
000001a0: 924a 0f3a 2deb 45bb 5fae b83b 490a 53bc
000001b0: 2e4f 293c 14b4 463b 2058 16bb 53e8 8abb
000001c0: d904 063a 91e5 cc3b 5b37 a2bb b6ad 10bb
000001d0: 35c5 14bb ef13 86bb 4f5d 87bb 6220 a7b9
000001e0: 5e5e 333b 9c7c bcba 2775 bcbb 0df2 8d3d
000001f0: a0a1 5c3b aa8c 783b 3032 023c a094 0a3a
00000200: a2c6 723a 83a1 6dbc ea03 85bc 7740 87ba
00000210: b982 593d 19e6 9d3a e2dc 2cbc eb70 83bb
00000220: 885b 89bb 84c8 2dbc a483 383b f94e 44bc
00000230: 9191 beba 30cd cdbb e09b bfbb 8a0d 50bc
00000240: c2ad 3639 b9a1 c7bb 2cc6 e83b c911 3d3a
00000250: 20fc 8fba 68ce c9bb 876e d5bb edcc 023b
00000260: 2893 d7ba a737 87ba 0bc5 92b9 01bb 62ba
00000270: f67a f4bb e45b 18bc 4792 6bbc 4b52 eeba
00000280: 45e2 24bb 9e55 0bbb 82c6 1cba a2d6 04ba
00000290: 8e13 1cbc 3958 1ebc d4b6 b8ba 38d7 4bbb
000002a0: 205e 3dbc cbd1 ae3b c3de 3abc c4ae 333c
000002b0: c0e8 08bb 4f5b d9bb daec f8b9 6188 acba
000002c0: 4c20 123b 58c7 953a 386a dcbb ced1 dfba
000002d0: 331e b9bb b4c9 bfbb b30e 03bc da06 bebb
000002e0: 8255 8abb db30 053c 0638 eeba 53e6 0eb9
000002f0: 1a7d d7bb b63a 08bc dfec 4dbb 562f 50ba
00000300: 310c f3ba 10ba a8bb bcff 30bb 8e83 38b9
00000310: 998c 7ebc 60f2 1039 ea0c 07bb 2afa 4a3a
00000320: 013c 39bc 0f6d 303c 6176 403d 2e8d da3a
00000330: f1e8 3fbc bfe9 90bb c5f0 923c f25d 853c
00000340: 0347 95bc 758b 6dbc 4c18 d83c 9c81 e7bb
00000350: 6b55 2b3c a8c8 f83c 44de d4bb b5bd dbbb
00000360: f65f 433b e978 14bc 0e64 ed3b 6635 b33c
00000370: 0317 eabc 0ccf 2dbc 1ffd ad3c 780e 133e
00000380: 2aa6 40bc 55d7 4fbb ea95 91bc 7a6d 9bbc
00000390: d221 15bb 2613 dd3b 9c63 463c eb73 b4bb
000003a0: ff0e 15be 4ade ec3c ea47 59bc cf35 efbc
000003b0: 16ca 15bb 9263 f0b9 84d3 eebc d631 5cbc
000003c0: d9b2 1e3c c8a0 683c 6057 43bc 4062 b63c
000003d0: 223f 50bc 7a2b 02bc ff8b 6c3c ddf2 243c
000003e0: d543 c93b d9df 873c 07dc 403c 6e64 0f3d
000003f0: 4fe4 c93b 382a 043d 9e6f 8ebb 0c86 be3b
-0.00058427127 -0.008026256 0.0010730276 0.00051085535 0.00079412496 -0.0014991686 0.005455103 -0.012263892
0.0075961147 0.0022381127 -0.0022464693 -0.0035272916 0.002874705 0.005865268 -0.00361086 -0.0023144465
-0.0001189106 -0.0038348855 -0.0040570474 0.0002562674 0.00357639 -0.0015467774 -0.0040413463 0.04774651
0.001845527 0.0056780954 0.0067289122 0.0007056753 0.0016924624 -0.014240566 -0.017989665 -0.0014372363
0.039388157 0.0013514418 -0.010634906 -0.002861723 -0.003388218 -0.01148775 0.0024122554 -0.011804831
-0.0012373824 -0.005465844 -0.0025910456 -0.012344622 0.00073840853 -0.0053208712 0.008622313 0.00034918566
-0.0011187423 -0.004805447 -0.0031311805 0.0018822419 -0.0008639676 -0.00062589714 -0.00022830957 -0.00073741545
-0.006368359 -0.0080364 -0.014538901 -0.0020129792 -0.0021704487 -0.0017856486 -0.00077356276 -0.0007831025
-0.008668236 -0.0076645603 -0.0012232083 -0.003127625 -0.010922205 0.003436139 -0.012344953 0.0104523385
0.003411511 -0.0017710523 -0.0007137126 -0.00083530135 0.0048022037 0.0018305773 -0.0042228363 -0.0005627042
-0.005392927 -0.003150545 -0.008535995 -0.005255833 -0.0026407305 0.008390967 -0.00037867253 0.001776216
-0.0061274474 -0.0054470026 -0.002408474 0.00051403785 -0.0010553659 -0.0054174876 -0.0006790726 -0.0002986424
-0.015191518 -0.00064923626 -0.0011017454 0.0010427916 -0.00034525673 -0.011601347 0.0012138117 0.00029393256
0.0005466129 -0.003019999 0.005636021 -0.01288087 0.010333819 0.0030319737 -0.002294071 -0.004239121
0.00051124167 0.0062529524 -0.0049504465 -0.0022076196 -0.0022700552 -0.0040917317 -0.0041309963 -0.0003187685
0.002736948 -0.0014380398 -0.0057512703 0.06930933 0.0033665672 0.003792564 0.007946536 0.0005286429
0.0009261166 -0.014503839 -0.016237218 -0.0010318895 0.053103182 0.0012046724 -0.010550709 -0.0040112636
-0.0041918196 -0.010606889 0.0028154636 -0.011981719 -0.0014539232 -0.006280564 -0.005847439 -0.01269854
0.00017421602 -0.006092277 0.007103702 0.0007212428 -0.0010985173 -0.0061586387 -0.00651342 0.001995857
-0.0016447054 -0.0010316268 -0.00027994098 -0.00086490816 -0.007460947 -0.009299252 -0.014378137 -0.0018182484
-0.0025159281 -0.0021260749 -0.00059805077 -0.0005067383 -0.009526147 -0.009664589 -0.0014092573 -0.0031103622
-0.011558086 0.005335068 -0.01140565 0.01096696 -0.0020890683 -0.0066331993 -0.00047478714 -0.0013163203
0.0022297082 0.0011427207 -0.0067265294 -0.0017076076 -0.005649352 -0.0058529023 -0.00799911 -0.0057991566
-0.004221619 0.008129324 -0.0018174655 -0.00013627978 -0.0065761926 -0.008314779 -0.0031421704 -0.0007941624
-0.0018543062 -0.0051491335 -0.0027007898 -0.00017596615 -0.015536451 0.00013823202 -0.0020607063 0.0007742966
-0.01130581 0.010768189 0.046987895 0.0016674155 -0.011713252 -0.004422396 0.017937073 0.016280148
-0.018222338 -0.014498581 0.026378773 -0.007065011 0.010457377 0.030369118 -0.0064962227 -0.0067059644
0.0029811836 -0.00906203 0.0072445935 0.021876048 -0.028575426 -0.010608446 0.021238862 0.14360988
-0.011758367 -0.0031714041 -0.01777168 -0.0189731 -0.0022755754 0.0067466674 0.01210871 -0.0055069826
-0.14556502 0.02891459 -0.013261775 -0.029200463 -0.0022856048 -0.00045850553 -0.029153593 -0.013439616
0.009686195 0.0141984895 -0.011922687 0.022263646 -0.012710365 -0.007944936 0.014437675 0.010067669
0.0061421194 0.016586231 0.011771209 0.035007887 0.0061612497 0.032266825 -0.004346802 0.0058143195

lstm_layer.lstm1.bias_hh_l0 f4 [400]
00000000: cb29 19ba 6980 03bc d5a4 8c3a ecea 053a
00000010: 1b2d 503a bb7f c4ba f8c0 b23b 6fee 48bc
00000020: d2e8 f83b 5bad 123b 8039 13bb 1d2a 67bb
00000030: 5365 3c3b 8731 c03b 26a4 6cbb faad 17bb
00000040: 855f f9b8 b952 7bbb 01f1 84bb ac5b 8639
00000050: da61 6a3b 3ebd caba 446d 84bb d891 433d
00000060: a4e5 f13a 520f ba3b 357e dc3b 08fd 383a
00000070: a8d5 dd3a 4351 69bc 095f 93bc af61 bcba
00000080: 7a55 213d f622 b13a 073e 2ebc b98b 3bbb
00000090: de0c 5ebb 2337 3cbc ee16 1e3b 0e69 41bc
000000a0: ad2f a2ba dd1a b3bb 88ce 29bb 1941 4abc
000000b0: e091 413a c45a aebb 9544 0d3c e812 b739
000000c0: d3a2 92ba fd76 9dbb 7d34 4dbb 80b5 f63a
000000d0: 1c7d 62ba 4213 24ba 6e66 6fb9 1d4f 41ba
000000e0: a9ad d0bb 1eab 03bc 9234 6ebc 37ec 03bb
000000f0: 173e 0ebb 770c eaba 1bc9 4aba 1e49 4dba
00000100: 3805 0ebc f026 fbbb 1f54 a0ba d7f8 4cbb
00000110: 23f3 32bc b930 613b 5142 4abc 4940 2b3c
00000120: a893 5f3b ad22 e8ba 7418 3bba 21f8 5aba
00000130: c85b 9d3b f2ef ef3a bf5f 8abb 7182 13ba
00000140: 29b7 b0bb 6079 4ebb 8fda 0bbc 2039 acbb
00000150: 1910 2dbb 477a 093c 168a c6b9 e2cf e83a
00000160: e2c8 c8bb ba7c b2bb 69d7 1dbb 7cc0 063a
00000170: 3454 8aba 3185 b1bb ba03 32ba 2793 9cb9
00000180: dce5 78bc 9631 2aba 7368 90ba 47ae 883a
00000190: 9303 b5b9 2314 3ebc c318 9f3a f11a 9a39
000001a0: a54a 0f3a 3eeb 45bb 6eae b83b 480a 53bc
000001b0: 2d4f 293c 0eb4 463b 1f58 16bb 2be8 8abb
000001c0: 1d05 063a 9ce5 cc3b 5c37 a2bb b6ad 10bb
000001d0: 37c5 14bb ef13 86bb 4a5d 87bb 6220 a7b9
000001e0: 5f5e 333b 9a7c bcba 2775 bcbb 0df2 8d3d
000001f0: 9ca1 5c3b c48c 783b 2632 023c a094 0a3a
00000200: 98c6 723a 92a1 6dbc ea03 85bc 7040 87ba
00000210: b982 593d 0ee6 9d3a e2dc 2cbc ec70 83bb
00000220: 885b 89bb 84c8 2dbc 9a83 383b f84e 44bc
00000230: 8f91 beba 37cd cdbb da9b bfbb 860d 50bc
00000240: c6ad 3639 bfa1 c7bb 2cc6 e83b de11 3d3a
00000250: 37fc 8fba 67ce c9bb 746e d5bb eccc 023b
00000260: e892 d7ba a837 87ba 0ac5 92b9 03bb 62ba
00000270: 097b f4bb ed5b 18bc 4892 6bbc 0854 eeba
00000280: 46e2 24bb 9955 0bbb 6ac6 1cba a2d6 04ba
00000290: b813 1cbc 1d58 1ebc d4b6 b8ba 32d7 4bbb
000002a0: 615e 3dbc abd1 ae3b bdde 3abc ccae 333c
000002b0: c0e8 08bb 4f5b d9bb ddec f8b9 6088 acba
000002c0: a41f 123b 45c7 953a 1f6a dcbb d6d1 dfba
000002d0: 5f1e b9bb bfc9 bfbb b00e 03bc c406 bebb
000002e0: 9f55 8abb ce30 053c 0638 eeba 89e6 0eb9
000002f0: f17c d7bb b73a 08bc c1ec 4dbb 442f 50ba
00000300: 420c f3ba 13ba a8bb e0ff 30bb 6c83 38b9
00000310: 958c 7ebc 66f2 1039 e90c 07bb 2efa 4a3a
00000320: fd3b 39bc 0f6d 303c 5b76 403d 2e8d da3a
00000330: f2e8 3fbc bfe9 90bb c4f0 923c f25d 853c
00000340: 0047 95bc 798b 6dbc 4c18 d83c 9481 e7bb
00000350: 6b55 2b3c a9c8 f83c 44de d4bb b5bd dbbb
00000360: fa5f 433b e478 14bc 0e64 ed3b 6635 b33c
00000370: 0317 eabc 10cf 2dbc 1efd ad3c 760e 133e
00000380: 2aa6 40bc 61d7 4fbb ea95 91bc 766d 9bbc
00000390: d221 15bb 1e13 dd3b 9c63 463c eb73 b4bb
000003a0: f70e 15be 4dde ec3c ea47 59bc d135 efbc
000003b0: 16ca 15bb 1263 f0b9 84d3 eebc d631 5cbc
000003c0: d9b2 1e3c c8a0 683c 6457 43bc 4062 b63c
000003d0: 223f 50bc 742b 02bc ff8b 6c3c ddf2 243c
000003e0: d643 c93b d9df 873c 07dc 403c 6e64 0f3d
000003f0: 4fe4 c93b 382a 043d 9e6f 8ebb 0886 be3b
-0.00058427145 -0.008026221 0.0010730276 0.00051085535 0.00079412916 -0.001499168 0.0054551326 -0.012263878
0.0075961137 0.002238116 -0.0022464693 -0.0035272904 0.0028746917 0.005865279 -0.0036108582 -0.002314447
-0.00011891037 -0.0038348867 -0.00405705 0.00025626773 0.003576389 -0.0015467776 -0.004041346 0.04774651
0.0018455279 0.005678096 0.0067289122 0.00070567476 0.0016924636 -0.014240566 -0.017989652 -0.0014372374
0.039388157 0.0013514447 -0.010634906 -0.0028617217 -0.003388218 -0.011487755 0.0024122554 -0.011804832
-0.0012373828 -0.005465849 -0.0025910456 -0.012344622 0.0007384103 -0.0053208787 0.008622308 0.00034918566
-0.0011187441 -0.0048054443 -0.0031311803 0.0018822402 -0.00086398586 -0.0006258973 -0.00022830974 -0.00073741545
-0.006368358 -0.008036403 -0.014538901 -0.0020129809 -0.002170449 -0.0017856498 -0.00077356555 -0.00078310247
-0.008668236 -0.007664554 -0.0012232101 -0.003127625 -0.010922226 0.0034361316 -0.012344913 0.0104523385
0.003411511 -0.001771053 -0.00071371277 -0.0008353014 0.004802201 0.0018305762 -0.0042228396 -0.0005627042
-0.005392928 -0.003150545 -0.008535995 -0.0052558333 -0.00264073 0.00839097 -0.00037868385 0.0017762149
-0.0061274627 -0.0054469975 -0.0024084693 0.0005140377 -0.0010553659 -0.005417489 -0.00067907164 -0.00029864276
-0.0151915215 -0.0006492374 -0.0011017456 0.0010427915 -0.00034525673 -0.011601481 0.0012138117 0.00029393242
0.000546614 -0.003020003 0.005636028 -0.012880869 0.010333818 0.0030319723 -0.0022940708 -0.0042391024
0.0005112456 0.0062529575 -0.004950447 -0.0022076196 -0.0022700557 -0.0040917317 -0.004130994 -0.0003187685
0.0027369482 -0.0014380396 -0.0057512703 0.06930933 0.0033665663 0.00379257 0.007946527 0.0005286429
0.000926116 -0.014503853 -0.016237218 -0.0010318886 0.053103182 0.0012046711 -0.010550709 -0.004011264
-0.0041918196 -0.010606889 0.0028154613 -0.011981718 -0.001453923 -0.006280567 -0.0058474364 -0.012698537
0.00017421608 -0.0060922797 0.007103702 0.000721244 -0.00109852 -0.0061586383 -0.006513411 0.0019958569
-0.001644698 -0.001031627 -0.00027994096 -0.0008649083 -0.007460956 -0.009299261 -0.014378138 -0.0018183002
-0.0025159284 -0.0021260737 -0.0005980494 -0.0005067383 -0.009526186 -0.0096645625 -0.0014092573 -0.0031103608
-0.011558146 0.005335053 -0.011405644 0.010966968 -0.0020890683 -0.0066331993 -0.00047478723 -0.0013163202
0.0022296691 0.0011427185 -0.006726518 -0.0017076086 -0.0056493725 -0.0058529074 -0.007999107 -0.0057991464
-0.0042216326 0.008129312 -0.0018174655 -0.00013628056 -0.0065761735 -0.00831478 -0.0031421634 -0.00079416134
-0.0018543082 -0.005149135 -0.0027007982 -0.00017596566 -0.015536447 0.0001382321 -0.002060706 0.0007742968
-0.011305806 0.010768189 0.046987873 0.0016674155 -0.011713253 -0.004422396 0.017937072 0.016280148
-0.018222332 -0.014498585 0.026378773 -0.0070650075 0.010457377 0.03036912 -0.0064962227 -0.0067059644
0.0029811845 -0.009062026 0.0072445935 0.021876048 -0.028575426 -0.01060845 0.02123886 0.14360985
-0.011758367 -0.003171407 -0.01777168 -0.018973093 -0.0022755754 0.0067466637 0.01210871 -0.0055069826
-0.1455649 0.028914595 -0.013261775 -0.029200466 -0.0022856048 -0.0004585018 -0.029153593 -0.013439616
0.009686195 0.0141984895 -0.011922691 0.022263646 -0.012710365 -0.00794493 0.014437675 0.010067669
0.00614212 0.016586231 0.011771209 0.035007887 0.0061612497 0.032266825 -0.004346802 0.0058143176

gbrbm.W f4 [100, 50]
00000000: 3a6e b53b 6abb e33b 8437 f3bb 6ef9 3db9
00000010: cecf 5b3b 9807 103b cbee d13a fd0c 9aba
00000020: c70a 99ba 30f7 993a f702 2abb 9227 19bb
00000030: 90ea 9ebb 4c2d 67bb 4d21 193b 3c82 d7bb
00000040: 0bf4 3dba 0b10 d83a 3981 6bbb 02a9 7aba
00000050: d0ed d5bb 80b1 a5bb 8fd3 c13a 59de 0dbb
00000060: cc6b 66bb bf9e dc3a bba3 b93b c561 baba
00000070: 2825 f2bb b0bb 233b 30fe 233a 5160 783b
00000080: db0c 7a3a 725c a73a f4e9 bb3a 585e 9fba
00000090: 787a d8ba 7f53 7c39 1a8e aa3a 6a5f b7b9
000000a0: f81c 4e3a f5e8 bab9 67c5 23ba 058b 6ebb
000000b0: 616e 3bb9 2b03 8a3b 5c5f 0ebc f28d 9a39
000000c0: 8862 923b 8ee7 2d39 c099 7b3b 12f3 c23a
000000d0: 669e 003c 2e66 d4ba 63c6 333b 4dc5 a53b
000000e0: bc17 a6ba 378a 903b 495e bdba ffc9 aebb
000000f0: 5319 faba fa94 f1ba 6050 d2ba 9268 3ab9
00000100: 3b41 f53a aa5e ffbb d0d6 feba 1d50 233b
00000110: 78a4 63bb ec91 13bb 88d5 273b 4708 a4ba
00000120: 2527 2e3b 99dc 46bb b6e9 faba d694 11bb
00000130: fc92 013b 0014 15bc eacd f7b9 73e3 223b
00000140: d5ee 4abb f931 363b aa24 963a 22c2 99ba
00000150: d809 15bb 86a9 0fbb 648b 33ba e7bf 0bba
00000160: 1268 2dbc e208 41ba abed 15bb a28b 873a
00000170: 3171 b03b d1cf b8bb f649 1f3b b0a4 8c3b
00000180: b9a6 a3ba 8ea2 dcba 30c4 f4ba 0c2f 45ba
00000190: 7d54 ae3b 325f 893b e1a5 e83b 397c c13a
000001a0: 6fd7 0f3c a4bd 393b 627c 193b 8581 51bc
000001b0: 234e 943b 8a43 133b f0db 9b3b 7ccd 5f3b
000001c0: dbac d93b 3d88 8c3b c7f2 2c3c 31f1 09bc
000001d0: 4c05 0c3c 7175 b53b 411c 80bb 551c 9e3b
000001e0: e988 2abc 1d7b 4eba 1b6f cd3b 7e7a d13b
000001f0: dac3 353b 5f69 fd3a 8c14 023c 81fd e8bb
00000200: 9cf6 adbb 2786 fdba 331b a3bb 48dd e53b
00000210: b26f a4bb 9f6b 89bb 39b7 e8bb b845 dc3b
00000220: a0a9 c7ba e89a a63a e871 c139 c0b5 813c
00000230: b510 0b3a d05c 253b d662 363a 83c6 90bb
00000240: 61df e4bb 1ccc c93a fdc4 9abb a3af 543b
00000250: f588 d03b 8051 393b d721 40bc 9ecf 85ba
00000260: 6ce0 05bb aa32 893a 5df8 3fbb c61e 72bb
00000270: 3c50 cd3a b07b 89ba 5062 b2b9 70c7 ae3a
00000280: 372f 4f3b 8b19 af3a 2892 d739 d739 833b
00000290: a91b 75bb 4e1b 4939 5877 63b9 d5f9 faba
000002a0: 1988 033b 4c51 543b d11d bb3a 1c3c 043b
000002b0: 8af1 1ebb 9ed1 1f3a 307c 2b3b c018 4839
000002c0: 9728 fbbb 4e89 6d3a f256 d93b ada0 3abb
000002d0: ba23 8038 ec41 71bb 3b31 b2ba 1e0f 1aba
000002e0: 97fb a6bb c615 f63a 3411 05b9 6eea f0b9
000002f0: 40d7 ccba 2a8f abba 982e 3439 72b9 1139
00000300: c251 8e3a 0486 e2ba a8c2 85bb c2ee 3dbb
00000310: 27ed 893b 0d03 253a 8369 61bb 24ac de38
00000320: 5b1e 25bb ff4d 613b 6869 a73a 706a b8ba
00000330: 5774 18bb 2f3a af3a 87e1 9739 da97 bbbb
00000340: a40b 17b9 29e4 943b 836c ab37 0d40 2aba
00000350: f7ae 5a3b 18c9 c9b9 478a 7c3b 2e67 2b3b
00000360: b88a a9ba e76e 3bbb 49e0 d4ba aab3 e0ba
00000370: a763 a3ba 65c3 a1ba 9979 48bb c944 c9ba
00000380: 0092 9ab6 1321 c8b9 f363 3ebb 1c66 fb3b
00000390: deed 8e3a 3427 2fbb d8a7 08bb 51b1 163b
000003a0: 3bf4 c53a c64d 97b9 e597 faba 3902 66bb
000003b0: ea61 90b8 035e 543a e668 d23b 0450 ae39
000003c0: bff4 a9ba 2837 833a 8de8 8b3b c37c 363a
000003d0: f277 b63a 5a68 87bb 9fe0 0bbb daba d3ba
000003e0: ad16 adba c391 8aba ded9 213c c904 153b
000003f0: b4f3 04ba fc2b 89ba 24a6 e437 f1cd 4c3a
0.0055368217 0.0069498317 -0.0074223895 -0.00018117364 0.003354061 0.0021977182 0.00160166 -0.0011753138
-0.0011676186 0.0011746641 -0.0025941709 -0.0023369533 -0.0048497394 -0.0035274802 0.0023365796 -0.0065768044
-0.0007246143 0.0016484273 -0.0035935177 -0.0009561927 -0.0065285936 -0.00505656 0.0014787781 -0.0021647422
-0.0035159467 0.0016831978 0.00566527 -0.0014219811 -0.0073896833 0.0024983697 0.00062558334 0.0037899206
0.0009538659 0.001276864 0.0014336691 -0.0012158854 -0.0016515991 0.00024063697 0.001301232 -0.0003497557
0.0007862593 -0.0003565025 -0.0006247372 -0.003639878 -0.00017874829 0.0042118034 -0.008689728 0.00029478926
0.0044673122 0.00016584827 0.0038391203 0.0014873466 0.007850265 -0.0016204768 0.002743148 0.0050589205
-0.0012671868 0.0044110077 -0.0014447655 -0.0053341384 -0.0019081034 -0.0018431239 -0.0016045682 -0.00017777298
0.0018711457 -0.0077932673 -0.0019442681 0.0024919577 -0.0034735482 -0.0022517396 0.0025609452 -0.0012514674
0.0026573625 -0.0030343889 -0.0019143138 -0.0022213957 0.0019771447 -0.009099007 -0.0004726493 0.0024854809
-0.003096511 0.0027800782 0.0011455019 -0.001173083 -0.0022741463 -0.0021921112 -0.0006849079 -0.0005331025
-0.010583894 -0.00073636894 -0.0022877257 0.0010341296 0.005384587 -0.005640008 0.0024305559 0.004292093
-0.00124856 -0.0016833113 -0.0018674191 -0.0007521964 0.0053201304 0.0041922564 0.0070998524 0.0014761753
0.008779391 0.0028341794 0.0023420085 -0.0127872275 0.004525916 0.0022470676 0.004756443 0.0034149578
0.0066429204 0.004288702 0.0105559295 -0.008419321 0.008546185 0.0055376817 -0.003909618 0.004825155
-0.0104086185 -0.00078766217 0.0062693483 0.006392776 0.0027735145 0.0019333771 0.007939469 -0.007110298
-0.005308939 -0.0019342349 -0.0049776076 0.007014904 -0.005018198 -0.0041937376 -0.00710192 0.0067221783
-0.0015233047 0.001271096 0.00036896695 0.015833735 0.0005304919 0.0025232323 0.0006957477 -0.0044181957
-0.0069846367 0.0015395912 -0.00472319 0.003245332 0.006363983 0.0028277338 -0.011726818 -0.001020897
-0.0020427955 0.001046737 -0.0029292323 -0.0036944612 0.001566417 -0.0010489132 -0.00034024054 0.0013334583
0.0031613836 0.0013359053 0.0004111689 0.004004698 -0.003740052 0.00019179026 -0.00021692866 -0.0019147942
0.0020070134 0.003239709 0.0014275854 0.002017743 -0.0024252855 0.0006096604 0.002616655 0.00019082706
-0.007664751 0.00090612925 0.006632679 -0.0028477118 6.11017e-05 -0.0036812974 -0.0013594994 -0.00058768864
-0.00509591 0.00187748 -0.00012690277 -0.0004595103 -0.0015628114 -0.0013088931 0.00017183495 0.00013897361
0.0010858106 -0.0017282371 -0.0040820427 -0.0028981422 0.004209179 0.0006294705 -0.0034395165 0.000106178486
-0.0025195095 0.0034378765 0.0012772502 -0.0014069807 -0.0023262703 0.001336878 0.00028968995 -0.005724889
-0.00014404819 0.0045438004 2.0435318e-05 -0.00064945297 0.0033368447 -0.00038487534 0.0038534568 0.002615403
-0.0012935018 -0.0028600038 -0.0016241159 -0.0017143388 -0.0012465612 -0.0012341557 -0.0030590056 -0.0015355583
-4.6065543e-06 -0.00038171615 -0.0029051274 0.0076720845 0.001090463 -0.0026726248 -0.0020851996 0.0022993872
0.0015102694 -0.0002885891 -0.0019118754 -0.003509654 -6.884693e-05 0.0008101167 0.0064211963 0.00033247482
-0.0012966617 0.0010010945 0.0042696656 0.000696134 0.0013921245 -0.0041323127 -0.0021343601 -0.0016153709
-0.001320561 -0.0010572005 0.009878604 0.0022738448 -0.0005071715 -0.0010465379 2.7257083e-05 0.000781267

gbrbm.b f4 [50]
00000000: 76a9 ffbf f036 e5bf 3903 dbbf 31f4 4240
00000010: 9e76 0bc0 8628 1cc0 ec1e 7440 e973 1dc0
00000020: c3eb 9cbf da8b 31c0 7e9d 2dc0 9e90 86bf
00000030: 1b0e afbf f497 14c0 307b 883f 118d 5ebf
00000040: a361 77bf e8fb 25c0 d7e9 f6bf 04d4 a2bf
00000050: d693 2dc0 343a ffbf 19a8 83bf 8b03 b4bf
00000060: ecc3 c5be dcd4 4c40 fb5c 1ec0 30bb d7bf
00000070: 57cf 44c0 b9ce 41bb d708 59bf 3593 29c0
00000080: aae3 b2bf 1593 97be 48ae 2ac0 85ef 5bbf
00000090: 174b f7bf 3b4e 48bd 87fa 30c0 4ef7 0bc0
000000a0: 8736 1140 835a f9bf b947 6d3f c257 6bc0
000000b0: 1b46 04c0 1313 30c0 e40e 1bc0 954f 6d40
000000c0: 0e81 a3bf b923 8640
-1.997359 -1.790739 -1.7110358 3.0461543 -2.1791148 -2.4399734 3.8143873 -2.4601996
-1.2259449 -2.7741609 -2.7127376 -1.0512884 -1.367618 -2.3217745 1.0662594 -0.86934
-0.96633357 -2.5935001 -1.9290112 -1.2720952 -2.7121482 -1.9939637 -1.0285674 -1.4063581
-0.3862604 3.200492 -2.474425 -1.6854 -3.075155 -0.002957268 -0.84779114 -2.6496098
-1.3975728 -0.29604402 -2.6668873 -0.8591235 -1.9319791 -0.04890273 -2.765291 -2.1869693
2.268953 -1.9480747 0.92687565 -3.6772313 -2.066779 -2.7511642 -2.4227839 3.7079823
-1.2773759 4.1918607

gbrbm.mu f4 [100]
00000000: 630b 0bba c540 c6b9 eabb 9abc 23b2 943c
00000010: a416 1cbc cbe6 d0bc d7e5 b53c de6e 423d
00000020: 23ff f93c 4758 73bc d8de 1fbc 2d60 48bd
00000030: 3db8 013d 89ae b33c af6e 003c 7f8e ffbb
00000040: da36 7fbc ccff a4bc 81fd bcba 8e88 96bc
00000050: 976d e73b b05a a73c 16d9 aebc 77ba 953d
00000060: decf a6bb 8083 133d a758 39bc fd14 a1bc
00000070: 1805 95bc 8e48 1e3d fe1e 123d 4f31 16bc
00000080: 370a 00be 8ad5 893d 4242 17bd acdd 0abc
00000090: 8eb1 7c3b 8bd5 96bc 141d a2bc d8ab 5dbc
000000a0: 5a11 31bc 7e37 05b8 baf3 1b3c a264 463d
000000b0: adfb 9ebc 4cc4 1bbb ad0f 133c db28 e5ba
000000c0: 2fd4 63bb eaa2 51ba 3d20 1d3d b8de f03c
000000d0: 0604 a9bb 8a59 3f3c 0a64 673b 5c43 863b
000000e0: 5c51 073d bbb0 5cba d063 4c3d ceff 45bc
000000f0: a319 07bb f1f9 b8bc c7e3 093c 76e0 cbbb
00000100: 7dd7 c03c 3d35 0dbc 4806 173c 230e c8bc
00000110: 4056 e7bc 35b4 1f3d e42c ab3c 7cc3 e93b
00000120: 91a4 ce3d af90 b2bb 97b7 853a 9adb 88bb
00000130: 138a 34bc 85c9 4d3b dd0f 063d 0732 0f3d
00000140: 5e87 833b 457d e8bc 6713 2b3c d235 093d
00000150: 357f eb3c 80c9 fcb7 a6db 0e3c 4d71 88bc
00000160: 05e5 33bc d492 c93b 51b9 2a3b c6b4 483a
00000170: b68f 7cbb d4f2 493d c650 78bc f34f 0a3d
00000180: 7147 72bc d0d7 2e3c 287b 113c 305e cebc
-0.0005304126 -0.0003781376 -0.018888433 0.018151348 -0.009526882 -0.025500676 0.022204323 0.047469012
0.030517166 -0.01485259 -0.00975772 -0.048919845 0.031669844 0.02193381 0.007838889 -0.0077989693
-0.0155770425 -0.020141505 -0.0014418812 -0.018375661 0.0070626247 0.020428985 -0.021343749 0.07310956
-0.0050906977 0.03601408 -0.01131264 -0.019663328 -0.018190905 0.038643412 0.035674088 -0.0091670295
-0.12503897 0.067301825 -0.036928423 -0.008475702 0.003855798 -0.018412372 -0.019789256 -0.01352974
-0.01080736 -3.1761352e-05 0.009518558 0.048435815 -0.019407118 -0.0023768125 0.008975905 -0.0017483489
-0.0034763922 -0.00079969934 0.038360823 0.029403076 -0.0051579503 0.011679063 0.003530743 0.0040973853
0.033036575 -0.0008418669 0.049899876 -0.012084914 -0.0020614646 -0.022580119 0.008416123 -0.006221826
0.023540253 -0.00861865 0.009217806 -0.024420803 -0.02823937 0.03899022 0.020895429 0.0071338993
0.10089982 -0.0054493765 0.0010201809 -0.004176569 -0.011019248 0.0031400633 0.032729972 0.03495982
0.0040139398 -0.028380046 0.010441638 0.033498593 0.02874718 -3.0134572e-05 0.00871936 -0.016655589
-0.0109798955 0.0061515365 0.0026050399 0.0007656332 -0.0038537807 0.049303845 -0.015155977 0.03376765
-0.014787541 0.010671571 0.00887946 -0.025191396

gbrbm.log_var f4 [100]
00000000: 08f1 05c1 21c1 0ac1 e59f ebc0 1e13 09c1
00000010: b97f 08c1 f3b2 07c1 2e20 08c1 e2d7 0bc1
00000020: 1609 05c1 866b 09c1 ba1f 04c1 0f70 06c1
00000030: 068f 0bc1 2a11 07c1 9ed0 10c1 2862 07c1
00000040: 58f8 07c1 9541 07c1 6ff7 02c1 c53c 03c1
00000050: 9816 04c1 deec 02c1 046d 05c1 6aaf 05c1
00000060: db72 08c1 3714 07c1 132c 07c1 0b54 07c1
00000070: 67d8 04c1 0ae2 0dc1 20c9 0cc1 984b 06c1
00000080: 2184 01c1 a284 0bc1 0c1a 0cc1 762c 04c1
00000090: f52f 08c1 a946 0cc1 de66 06c1 558e 09c1
000000a0: 70ec 04c1 24a1 08c1 77b8 02c1 5633 0cc1
000000b0: 04c8 06c1 2ff1 06c1 75ea 06c1 6944 08c1
000000c0: 89c9 04c1 ea7a 07c1 bc47 0ac1 ffba 0fc1
000000d0: 8af7 07c1 e84e 07c1 0000 08c1 4c14 06c1
000000e0: 401a 0bc1 62ca 03c1 acf3 0dc1 471b 08c1
000000f0: ee6f 0bc1 c73f 08c1 7fa2 0bc1 53d6 07c1
00000100: 3db1 06c1 ff99 06c1 b759 07c1 c027 ffc0
00000110: a45d 0dc1 df13 0dc1 ca80 0bc1 4767 07c1
00000120: e0f8 11c1 3d8d 09c1 5486 0ac1 7fff 03c1
00000130: 91ed 04c1 4d54 06c1 7390 0bc1 01a6 09c1
00000140: c54f 08c1 812f 07c1 4b94 07c1 a665 0ac1
00000150: 547f 08c1 264f 08c1 1c7f 03c1 cf8a 04c1
00000160: 56a4 09c1 e847 02c1 952c 05c1 3f56 09c1
00000170: 8deb 0ac1 d315 12c1 16be 04c1 48f7 0dc1
00000180: 5316 0fc1 ba3d 07c1 f749 05c1 90c8 07c1
-8.3713455 -8.672151 -7.3632684 -8.567167 -8.531182 -8.481189 -8.507856 -8.740206
-8.314718 -8.588751 -8.257746 -8.402358 -8.722418 -8.44169 -9.050932 -8.461464
-8.498131 -8.453511 -8.185409 -8.202336 -8.255516 -8.182829 -8.339115 -8.355326
-8.528041 -8.442435 -8.44826 -8.458018 -8.302833 -8.867685 -8.799103 -8.3934555
-8.094758 -8.719881 -8.756359 -8.260855 -8.511708 -8.767251 -8.400114 -8.597249
-8.307724 -8.539341 -8.170035 -8.762533 -8.423832 -8.433883 -8.4322405 -8.516702
-8.299203 -8.467508 -8.642513 -8.983153 -8.497934 -8.456764 -8.5 -8.379955
-8.693909 -8.23691 -8.87199 -8.5066595 -8.714827 -8.515571 -8.727172 -8.489825
-8.418271 -8.412597 -8.459403 -7.9736023 -8.8353615 -8.817351 -8.718943 -8.462714
-9.1232605 -8.596982 -8.657795 -8.249877 -8.308 -8.395581 -8.722766 -8.603028
-8.519475 -8.449098 -8.473704 -8.6498165 -8.531086 -8.519323 -8.218533 -8.283889
-8.602621 -8.142555 -8.323384 -8.583556 -8.6825075 -9.130328 -8.296408 -8.872871
-8.94295 -8.45257 -8.330558 -8.486465

gbrbm.linear_layer.weight f4 [1, 50]
00000000: fb44 9f3a 64fa bf3d 97be 443d cbf2 5dbc
00000010: ec9a b03d c9d2 083e fb08 d2bb 9091 babd
00000020: 4a4b f5bb 5eb4 a03d f492 b13c d25d 23bb
00000030: f765 a5bc f12f 2abc 435d 793d e306 9cbd
00000040: ab99 5dbb 135f e33d adad 29bd 6673 713b
00000050: 305f a2bd c932 b73c 61d2 db3d 3003 e73c
00000060: 44f6 13bd 64fa 2cbc 4f29 843d b34d 65bd
00000070: 2c4f ffbc d785 31bd 4c5b bebc 0a52 1f3e
00000080: 57b2 d23c 5b98 68bd 248c 033e 8daf 983b
00000090: 8f0c 073d fbeb 00bc 5562 183e 5a07 083e
000000a0: f9bd 5dbc 4e68 1dbc b68e 4d3d 27dc 063d
000000b0: db40 47bd bc4e 6d3e d4a4 75bd 3f28 64bc
000000c0: 59a3 e23c 2b3b 10bc
0.0012151295 0.0937393 0.048033323 -0.013546656 0.08623299 0.13361658 -0.006409762 -0.09109795
-0.007485782 0.07846902 0.021676518 -0.0024927747 -0.020190222 -0.010387407 0.060879957 -0.07618501
-0.0033813517 0.11102118 -0.041425396 0.0036842464 -0.07928312 0.022363083 0.10733486 0.028199762
-0.03612353 -0.010557745 0.064531915 -0.055982303 -0.031165682 -0.04334053 -0.023236893 0.15558639
0.025719805 -0.056785922 0.12846428 0.004659599 0.03297096 -0.007868762 0.1488126 0.13284054
-0.013534063 -0.009607388 0.050184928 0.032924797 -0.048645835 0.23174566 -0.059971645 -0.013925611
0.02766578 -0.008803169

gbrbm.linear_layer1.weight f4 [1, 50]
00000000: 3a58 fcbd e2aa b83d 20d1 203d 40b0 32bb
00000010: cebb d93d 2c15 67bd 0c0f aabc 80c1 f13a
00000020: 827c c8bd 2c02 6e3d 4ca9 87bc d8e2 c23c
00000030: 4ca4 933d a687 0ebd 0c41 43bd 3a09 923d
00000040: a645 f83d 3852 fe3c db4d 04be 5871 b7bd
00000050: 6888 81bc a4b2 bbbd 169d 02bd 028f 9fbd
00000060: 26fc b2bd 5055 063d 343a 7d3d 4c76 ddbc
00000070: 6ac8 8b3d a0c7 95bb 6485 e1bd 73b8 c3bd
00000080: de89 6cbd 4804 58bd db11 0f3e 8892 3bbd
00000090: 088a 363d 24ce 97bd 98b5 803d b491 6e3d
000000a0: a5a9 103e 8d9c 0fbe 6a8b e4bd 8e17 f23d
000000b0: 7af5 45bd 9913 cabd bb52 e6bd e2c9 61bd
000000c0: 36cc 993d a8b7 9a3c
-0.123215154 0.09016968 0.039261937 -0.0027265698 0.10631524 -0.056416675 -0.020759128 0.0018444508
-0.09789373 0.05810754 -0.01656022 0.023789808 0.072090715 -0.034797333 -0.047669455 0.07130666
0.121226594 0.031045064 -0.12920325 -0.089571655 -0.015812114 -0.09164932 -0.03188809 -0.077909485
-0.087395 0.032796204 0.061823085 -0.027033947 0.06825335 -0.0045709163 -0.1101177 -0.09556665
-0.057748668 -0.052738458 0.13971655 -0.04579404 0.04456523 -0.07412365 0.06284636 0.058244422
0.14127214 -0.14024563 -0.111594036 0.11820899 -0.048329808 -0.09867019 -0.11246248 -0.05512417
0.07509653 0.018886402
