models_weight/lstm-gbrbm_144.pt (torch, 69858 bytes, 10 tensors)

lstm_layer.lstm1.weight_ih_l0 f4 [200, 16]
000000 df 1d 8b bb 10 b8 36 bc ec 9f 8f bb c7 e5 6f bb
       -0.0042455043 -0.011152282 -0.004383078 -0.0036605464
000010 70 e5 cc 39 a9 6b ca ba c0 21 e6 b8 f5 21 20 bb
       0.00039080856 -0.0015443462 -0.00010973541 -0.0024434302
000020 cd 6f 8c 3b 34 c5 b7 b9 fc 3f 6a ba 5d d8 54 bb
       0.0042857886 -0.00035051408 -0.0008935926 -0.0032477595
000030 ec c7 18 3b 84 3c eb bb 6c f0 a6 ba f0 cc 1b bc
       0.0023312522 -0.007178845 -0.0012736446 -0.00950931
000040 44 ee 2e ba 68 7d 29 ba 16 fd 30 ba 06 cc a3 39
       -0.00066730776 -0.00064655254 -0.000675158 0.00031241792
000050 c4 13 44 39 29 e6 f0 b9 44 3d 00 3a 70 01 c0 b8
       0.0001869938 -0.0004594785 0.0004891942 -9.155541e-05
000060 34 a6 55 39 28 fd 3d ba b0 11 1d b9 d9 2f 2c ba
       0.00020375178 -0.0007247501 -0.00014979276 -0.0006568409
000070 01 e9 2b 3a bb 5d 24 ba d0 f4 07 ba 33 e7 2f ba
       0.00065578526 -0.00062700704 -0.0005186321 -0.00067101716
000080 c4 c0 99 b8 18 89 44 b8 78 70 75 b8 78 8d e9 b9
       -7.331514e-05 -4.685772e-05 -5.8517297e-05 -0.00044546626
000090 eb e0 c4 38 42 39 78 b9 b8 1f 54 b7 32 65 15 ba
       9.3879025e-05 -0.00023672453 -1.264357e-05 -0.0005698978
0000a0 19 89 44 38 74 c8 33 b9 d8 08 27 3a eb c6 3e b9
       4.6857724e-05 -0.00017145445 0.0006371862 -0.00018193915
0000b0 8c b0 01 37 e6 ec 63 39 a0 de 1e b7 4a 00 2b b9
       7.730105e-06 0.00021736659 -9.469368e-06 -0.00016307938
0000c0 ac fd 9a 3b 31 14 be 3b 1a 3f b8 3b 90 18 7a 3c
       0.004729947 0.005800747 0.0056227567 0.015264645
0000d0 e0 d1 17 3b b6 6c 9c 3b 93 4d 4b 3b a0 dd d5 ba
       0.0023165867 0.0047737015 0.003102158 -0.001631666
0000e0 18 05 1c 3b f0 7d 39 3c 34 f0 58 3b ac dd 6e 3c
       0.0023806747 0.01132153 0.0033102157 0.014579218
0000f0 54 29 25 bc ec 27 8d 3c 16 92 b3 3b e5 d2 a2 3b
       -0.010080654 0.01723095 0.0054800613 0.0049689882
000100 38 10 8c ba 40 6d 94 ba 38 d7 87 ba 80 be 5f 39
       -0.0010685986 -0.0011324063 -0.0010363823 0.00021337904
000110 2a 7f e5 3b ea 5c 9c bb 30 9a 59 bb 09 e1 8c bc
       0.0070036845 -0.0047718184 -0.0033203475 -0.017197149
000120 ed 93 12 3c 5c 3b e2 bb f4 2e b9 ba b3 54 02 bc
       0.008946401 -0.006904049 -0.0014128373 -0.007954764
000130 59 98 0f 3c 72 fe a7 bb 38 23 c6 ba f0 99 57 ba
       0.00876435 -0.005126768 -0.0015116697 -0.00082245376
000140 c0 3a 12 ba 4a 1a a0 3a 90 9a 5c ba 70 28 35 bb
       -0.00055782124 0.0012214866 -0.00084153656 -0.002764251
000150 9d 11 e7 bb f6 ca bc bb 1a 3d 26 bc 20 1d 05 b9
       -0.00705166 -0.0057614995 -0.010146404 -0.00012694718
000160 20 79 c5 bb bc 01 14 3c ac 6c 5a 3b 30 bb 63 3b
       -0.006026402 0.009033617 0.0033328934 0.0034749024
000170 c8 e8 e1 bb 1c e4 94 bb 40 ee 21 3a 88 5d b0 ba
       -0.0068942048 -0.0045437943 0.00061771646 -0.0013455609
000180 cf e7 0f ba 4f 65 e9 b9 78 84 f2 b9 ff af 7e 38
       -0.0005489559 -0.00044516704 -0.00046256534 6.072223e-05
000190 ee cc 1d b9 c6 34 ab b9 60 4f 67 b7 40 73 0c ba
       -0.00015049029 -0.0003265498 -1.3787154e-05 -0.000535775
0001a0 66 e8 1c b9 f2 cc e2 b9 d0 f9 10 b9 70 8d 2b 39
       -0.00014963895 -0.00043258775 -0.00013825973 0.0001636052
0001b0 f3 4f ec 39 60 17 65 39 64 9d e0 b9 a1 b2 0e ba
       0.00045072995 0.0002184785 -0.00042841875 -0.0005443488
0001c0 26 d8 07 bb 6a 98 ff ba ba f0 f1 ba 62 e0 c7 ba
       -0.00207282 -0.0019500379 -0.0018458583 -0.0015249366
0001d0 fe be 20 bb 82 09 93 ba 52 47 81 ba 58 46 44 bb
       -0.0024527903 -0.0011218044 -0.0009863174 -0.0029949155
0001e0 5a 29 08 bb 48 ee 55 ba 44 b6 5c ba 20 3b 0c ba
       -0.00207766 -0.0008160812 -0.00084194937 -0.00053493865
0001f0 ea c6 5d ba 1e ab dc ba 53 67 e3 bb c0 99 2c bb
       -0.00084601215 -0.0016835665 -0.0069398074 -0.002633676
000200 24 0a 5d bb 75 3a 87 bb f2 b8 79 bb 40 37 3d bc
       -0.0033727968 -0.0041268417 -0.003810462 -0.011548817
000210 60 a8 ec ba 5e fb 87 bc ea f1 76 bc 38 74 bd bb
       -0.0018055551 -0.016599353 -0.015072325 -0.0057816766
000220 f0 e4 42 bc 17 11 32 3c f2 5a 8f 3c 0c 74 8e bc
       -0.011895403 0.010868332 0.01749942 -0.01738932
000230 56 2f 59 bc 74 77 94 bc c8 c6 88 bb e2 9e 34 bb
       -0.013255915 -0.018123366 -0.004174087 -0.0027560522
000240 94 14 09 b9 e6 8c 11 b9 ae 9b 16 b9 9f bf 31 b9
       -0.00013073004 -0.00013880766 -0.0001436311 -0.0001695142
000250 a0 54 63 38 b3 81 92 b7 e4 39 be 37 e8 9d 2d 39
       5.419983e-05 -1.7464952e-05 2.2676722e-05 0.0001655739
000260 b4 b7 8c 38 40 db 48 b6 ff b7 53 b8 e8 28 90 b9
       6.7099376e-05 -2.9929943e-06 -5.047768e-05 -0.00027496298
000270 ab e6 bd 38 8c 68 b4 b9 9d 0e 34 b9 81 cc e6 b8
       9.0551875e-05 -0.0003441017 -0.00017171582 -0.000110053465
000280 c8 4d f0 b9 30 18 ee b9 58 7d d1 b9 00 16 93 b6
       -0.0004583432 -0.0004541292 -0.00039956975 -4.3835025e-06
000290 36 53 83 3a 31 11 02 bb f4 98 b7 ba b8 45 80 bb
       0.0010019306 -0.0019846673 -0.0014007376 -0.003914561
0002a0 88 a8 67 3a 0c 51 e4 ba 5d a0 5a ba d8 b4 d5 ba
       0.0008837064 -0.0017419173 -0.0008339936 -0.0016304506
0002b0 b6 b3 16 3b cb 36 85 ba 40 02 e0 b9 c0 9d e5 b9
       0.00229953 -0.0010163424 -0.00042726286 -0.00043795817
0002c0 59 1f f9 3b 67 30 09 3c db 67 10 3c 98 31 60 3c
       0.007602614 0.008373356 0.008813824 0.013683699
0002d0 b9 bf d3 3a 54 40 0c bb 70 58 fe ba 8c ec 0f 3c
       0.001615516 -0.0021400647 -0.0019405019 0.0087844245
0002e0 3e 78 39 3b e3 6a 7e 3c 25 26 38 3c f8 c3 79 3c
       0.002830043 0.0155284135 0.011239563 0.0152444765
0002f0 8a 40 87 bc 95 09 93 3c b5 a1 15 3c e0 de e4 3b
       -0.016510267 0.017948905 0.009132792 0.0069845766
000300 c1 46 cd 3b 67 8b d7 3b d6 52 d3 3b 20 91 87 3c
       0.006264538 0.0065778974 0.006449084 0.016548693
000310 80 ee 49 b9 a0 6d 04 bb c0 22 7c ba e6 76 cd 3b
       -0.00019257702 -0.0020206943 -0.0009618215 0.0062702773
000320 a0 9c 72 38 a0 1a 60 bb 70 2d f2 3b 62 d3 68 3c
       5.7843165e-05 -0.0034195557 0.0073906705 0.014210554
000330 f4 20 e6 3b cf 92 77 3c 1c 9b f3 3b 7c b9 a7 3b
       0.0070229713 0.0151106855 0.007434262 0.005118547
000340 16 4c 80 bb 24 8b 70 bb 09 cb 81 bb 0a 7b 05 bb
       -0.00391532 -0.0036704028 -0.0039609713 -0.0020367526
000350 ac c3 83 3a 21 56 a6 bb f4 ce 7e bb 1a e1 02 bc
       0.0010052822 -0.0050761853 -0.0038880678 -0.007988239
000360 a0 be ad 39 b6 13 f6 ba fa 47 15 ba 60 fd 92 bb
       0.00033139158 -0.0018774185 -0.0005694624 -0.004485771
000370 10 f0 03 3b 8a ff 8a bb ae 98 7c bb 92 1e 71 bb
       0.0020132102 -0.0042418884 -0.0038543153 -0.0036791903
000380 80 16 71 3a 20 a2 13 3b 3c a5 09 3b 3c a5 6a 3c
       0.0009196773 0.0022527054 0.0021003028 0.0143216215
000390 b7 6c e2 3b e1 cf 4f bb 60 e7 84 ba 1f 28 59 bc
       0.0069099325 -0.00317096 -0.0010139756 -0.0132541945
0003a0 ec 42 c1 3b 94 2e 10 bb 30 9c 6d 3b 0c 1d f4 3b
       0.0058978703 -0.002200042 0.0036256425 0.0074497517
0003b0 9c cb d6 3b 72 8d 68 3c a0 a6 5d 3a 18 4a e7 3a
       0.006555034 0.014193879 0.000845531 0.0017645983
0003c0 b5 fa a0 38 91 85 98 38 d2 b6 b9 39 1b 13 a7 3a
       7.676092e-05 7.2728035e-05 0.0003542216 0.0012746783
0003d0 ec 30 38 3a 58 68 41 39 cc c4 89 39 5c e2 54 ba
       0.0007026333 0.00018444785 0.000262773 -0.00081208884
0003e0 6a 22 39 3a ba 29 2c 38 ce 48 69 b9 50 db 0a 3a
       0.0007062318 4.1046856e-05 -0.00022247733 0.00052969623
0003f0 62 12 82 39 65 67 c5 3a 10 c4 96 39 05 bd 80 38
       0.00024809228 0.0015060721 0.00028756307 6.138723e-05

lstm_layer.lstm1.weight_hh_l0 f4 [200, 50]
000000 59 ac fb ba 14 31 a8 3a 1c 88 4c ba 56 0f 48 ba
       -0.0019201144 0.0012832009 -0.00078022643 -0.000763168
000010 17 cf 06 ba f8 ed 36 3a 00 b0 91 b8 69 32 b2 3a
       -0.0005142553 0.0006978209 -6.946921e-05 0.0013595346
000020 f0 70 31 3a ca 33 8c b9 d3 52 b5 3b 50 70 e8 38
       0.0006768843 -0.00026741467 0.005533555 0.00011083542
000030 6e 1b 9c bb 68 61 3d 39 c0 a6 bb 38 30 04 8c b8
       -0.004764012 0.00018060731 8.9479145e-05 -6.6765e-05
000040 72 59 cb 39 c6 6a af ba 06 ec b3 38 66 e3 7b ba
       0.0003878582 -0.0013383261 8.579348e-05 -0.0009608775
000050 ac e3 16 ba b8 60 16 39 39 ca 25 3b 04 04 50 ba
       -0.00057559717 0.00014341145 0.0025297536 -0.00079351687
000060 35 83 16 b9 e2 b9 50 b9 df 11 c4 39 70 53 ca b9
       -0.00014353993 -0.00019905673 0.00037397348 -0.00038590608
000070 b0 f6 75 3b 84 b4 c4 ba 1a bb 2a ba 51 24 97 3a
       0.003753107 -0.0015007411 -0.00065128657 0.0011531209
000080 7c 4d 94 3a 37 93 21 39 1c 21 5e 3a c1 a2 bd b9
       0.0011314596 0.00015408998 0.00084735616 -0.0003617015
000090 a6 40 87 3a fd 35 45 ba ca 74 14 ba 14 69 6c bb
       0.0010318949 -0.00075229985 -0.0005663155 -0.0036073374
0000a0 ee 2f 68 ba 00 e6 51 b6 e3 08 71 3a 1d 44 5c 39
       -0.000885724 -3.1277305e-06 0.00091947446 0.00021006209
0000b0 4e 1e d6 3a 1e fe f3 ba 4d aa d5 ba 76 d6 82 3b
       0.0016335936 -0.0018615162 -0.0016301364 0.003992851
0000c0 ed 64 9d ba 6c 9b 9d ba 86 57 1a 38 73 55 9a 38
       -0.0012008228 -0.0012024469 3.6797974e-05 7.3592084e-05
0000d0 ae 16 97 b8 9c cc d2 39 28 d2 19 3a 8c cf 33 39
       -7.2044655e-05 0.00040206767 0.00058678025 0.00017148087
0000e0 4c e0 18 38 dd f9 03 b9 6e 5a c0 37 f0 ed f0 b6
       3.6448517e-05 -0.00012586215 2.2930293e-05 -7.180257e-06
0000f0 9a fc 96 38 10 db f7 b9 7a 1d c1 39 cb 53 88 39
       7.199608e-05 -0.00047274726 0.0003683379 0.00026002372
000100 12 c7 43 b9 c7 4e e1 37 9e 1b dc 38 60 ec 96 39
       -0.00018670809 2.6858774e-05 0.000104955616 0.00028786343
000110 50 e4 8d b8 1f 37 c5 ba b8 0f 91 37 3c 28 c5 38
       -6.7659304e-05 -0.0015046335 1.7292667e-05 9.401186e-05
000120 92 34 d0 39 63 04 d3 b9 c7 4d 7d 39 5e 38 1b bb
       0.0003971202 -0.00040248325 0.00024156935 -0.002368472
000130 ec 98 99 b8 9c 7d 29 b8 4c c7 24 39 16 cf 4f b9
       -7.3240924e-05 -4.0409723e-05 0.00015714503 -0.00019818204
000140 78 56 22 b8 79 c5 3b ba 68 f8 9a 39 40 bb 85 b5
       -3.870434e-05 -0.00071629096 0.00029558246 -9.963769e-07
000150 2a 37 bc b8 28 55 18 39 df 4b 08 39 fc 82 0f b8
       -8.974814e-05 0.00014527573 0.00012998235 -3.4215846e-05
000160 04 33 1c b9 c0 46 07 39 78 90 86 b7 96 51 85 b8
       -0.00014896324 0.0001290096 -1.6041318e-05 -6.357131e-05
000170 fa 9f 1c b9 c4 e5 02 b9 74 ab 80 39 e6 a9 8f 39
       -0.00014936915 -0.0001248336 0.00024541805 0.0002740167
000180 1b 9c 54 ba d8 bc be 39 8e f5 80 b8 87 15 f9 b9
       -0.000811042 0.00036380324 -6.149254e-05 -0.0004750902
000190 3e 53 52 38 c3 c9 dc b8 54 a9 8b 38 3a 87 af 38
       5.0145427e-05 -0.000105279985 6.659576e-05 8.369838e-05
0001a0 0a 81 8c 38 0e 51 30 3a 20 0a 8c 37 b4 be 64 b9
       6.6997556e-05 0.0006725945 1.6694015e-05 -0.00021814817
0001b0 05 79 a4 39 18 89 9a b7 41 73 4e b8 1c 02 58 b9
       0.00031370684 -1.842207e-05 -4.9221566e-05 -0.00020600151
0001c0 70 53 0a 39 81 04 aa b7 97 c2 87 38 82 2a 8a b7
       0.00013191788 -2.0267677e-05 6.473547e-05 -1.6470676e-05
0001d0 5c ba af 38 92 72 e3 38 98 b9 02 b9 96 99 d8 b9
       8.3793624e-05 0.00010845544 -0.00012466905 -0.0004131316
0001e0 33 0f 0b b8 e0 34 ed b7 d6 fa 78 b8 02 5c 23 b8
       -3.3154338e-05 -2.8277223e-05 -5.9361417e-05 -3.8947917e-05
0001f0 b6 df 84 38 56 cd 12 b8 42 ad b7 b7 60 dc b4 38
       6.33592e-05 -3.5000347e-05 -2.189598e-05 8.624117e-05
000200 56 c8 b4 b8 54 7d 25 b9 99 79 59 b8 18 7f ee b7
       -8.620384e-05 -0.00015782315 -5.185008e-05 -2.8430994e-05
000210 44 12 b0 39 30 fe ac 35 7e 56 9c 38 98 38 56 b7
       0.00033582945 1.2888977e-06 7.45477e-05 -1.2768571e-05
000220 30 d6 af b7 14 70 65 b8 a2 2e 59 b8 32 63 29 3a
       -2.0961364e-05 -5.4702236e-05 -5.1780262e-05 0.00064616196
000230 09 a3 50 b8 c4 5f 00 38 5a 62 91 37 4b 51 a6 38
       -4.9742903e-05 3.0606767e-05 1.7331146e-05 7.930639e-05
000240 1c 12 db b8 d8 83 db 37 a0 a2 81 b8 40 08 65 b8
       -0.00010446107 2.6168229e-05 -6.1814906e-05 -5.4605538e-05
000250 54 a1 c5 38 a7 35 6e b9 48 8f 58 bb 21 6e a9 3a
       9.423742e-05 -0.00022717436 -0.0033044387 0.0012926498
000260 c1 1c c8 39 8a f1 98 bb af e2 19 3a 32 6f cd 3a
       0.00038168396 -0.0046674656 0.00058702653 0.0015673398
000270 e1 78 b2 39 dc fa 8b ba cc d5 17 bb d4 11 8e b9
       0.00034040867 -0.001067962 -0.0023168204 -0.00027097634
000280 04 38 a1 b9 9a 38 12 bb cc 13 14 bb 08 9b b1 3b
       -0.00030750048 -0.002231157 -0.0022594808 0.0054200925
000290 9e cb 87 3a 6d 1d 2b 3a 4a cc 9d bb 18 86 c8 b9
       0.0010360365 0.0006527517 -0.004815613 -0.0003824688
0002a0 2a 77 9f 39 c8 20 1d 3a 50 0a 00 3b fc a5 7c 3b
       0.00030415627 0.00059939595 0.0019537397 0.0038551083
0002b0 b9 14 00 bc 76 f0 d4 b8 d4 4d ce b9 cd 12 91 b9
       -0.007817441 -0.00010153737 -0.00039349368 -0.00027670563
0002c0 40 14 5c 38 d3 50 8e 3a 20 0b 09 ba b9 fa f4 ba
       5.2470947e-05 0.0010857828 -0.0005227793 -0.0018690444
0002d0 45 6d e1 3b 4b ff 68 3b 4e 04 64 bb 18 c3 79 b8
       0.006879481 0.0035552557 -0.0034792605 -5.954792e-05
0002e0 6c 4c b2 39 38 39 b5 3a cc 61 12 3a 8a 6e 12 39
       0.00034007744 0.0013826257 0.0005584031 0.00013964824
0002f0 ac 00 82 3a e3 f6 04 3b 1b fc 4d bb d0 c4 d5 38
       0.0009918413 0.0020288758 -0.0031430784 0.00010193291
000300 b7 be 3a bb 86 58 5d 3b e8 a0 01 bb fa 2d 3c 3a
       -0.0028495023 0.0033774688 -0.0019779745 0.0007178482
000310 06 35 a1 ba 5b 68 b4 39 8e b2 a4 3a 14 76 5e bb
       -0.0012299127 0.00034410026 0.001256542 -0.0033944892
000320 70 9f 63 ba 67 32 36 3a 20 c6 bf b9 23 fd 5d ba
       -0.0008683121 0.00069502596 -0.00036577974 -0.0008468201
000330 3f 9a 62 ba a8 c8 6e ba 06 50 31 39 f4 8d 80 3a
       -0.00086442 -0.00091088796 0.00016909846 0.000980793
000340 99 b6 1b bb 4e c7 41 38 06 37 9a 39 26 12 50 bb
       -0.002375996 4.6200403e-05 0.00029414165 -0.0031749099
000350 79 49 7b bb ae 8d 24 3a 4e cd b3 39 dd 23 b1 39
       -0.0038343354 0.00062772154 0.00034294504 0.0003378679
000360 68 5a 47 bb a8 ad f5 b9 9d 8a 37 ba 98 0f bc 3a
       -0.0030418877 -0.00046859425 -0.0007001551 0.0014347909
000370 88 ab 2c 3b c3 46 99 3a 95 88 6e 3a 2a 82 70 39
       0.0026347358 0.0011694062 0.0009099332 0.00022936673
000380 36 5c b0 39 1e 2a 5e bb 22 e8 a1 b9 a4 9c dc ba
       0.00033638038 -0.0033899616 -0.00030881265 -0.001683135
000390 56 e9 87 3a 8b 94 7d 3a bf 2c 0f 3b 77 16 22 3b
       0.0010369222 0.0009673319 0.002184674 0.0024732628
0003a0 ef 81 36 3a ca ad 9a 3a 85 27 52 3a 46 f1 f1 39
       0.00069621106 0.0011801061 0.0008016753 0.00046146865
0003b0 88 37 a1 38 0b 49 ed 3a 30 aa 23 3a b2 93 dd bb
       7.687422e-05 0.0018103434 0.00062433165 -0.0067619914
0003c0 5c 20 29 b9 f4 69 83 39 f6 60 46 bb 9b 68 67 ba
       -0.00016129151 0.00025065208 -0.0030270196 -0.0008827538
0003d0 4a c9 82 3a 88 af 89 b8 de bc 3a 3a 84 9f ac ba
       0.0009978202 -6.565364e-05 0.00071234803 -0.0013170098
0003e0 4c a2 d0 b9 5c 68 be b9 aa c4 91 b9 b5 2f b1 39
       -0.00039793772 -0.00036317378 -0.0002780308 0.00033795615
0003f0 ad 6c a3 39 82 c9 97 3a 92 d9 e0 b9 24 d8 97 3a
       0.00031170752 0.001158044 -0.00042886712 0.0011584801

lstm_layer.lstm1.bias_ih_l0 f4 [200]
000000 40 1d 75 39 cc e3 1e ba be 0a 21 b8 0d b1 5c bc
       0.00023375917 -0.0006061166 -3.8395396e-05 -0.013469947
000010 43 9f 79 bb 8a 89 89 3b 19 0a 96 b9 9c b6 8a ba
       -0.0038089312 0.004197304 -0.00028617753 -0.0010582986
000020 f0 d6 76 3c 12 c2 6b b8 06 6e fd ba fa c9 a2 bc
       0.0150658935 -5.6209108e-05 -0.0019335158 -0.0198717
000030 7c ce 86 bc 60 14 42 3a 33 21 e9 bb 90 e1 05 3a
       -0.016455881 0.0007403549 -0.0071145534 0.0005107159
000040 0e 65 47 3a 34 4c 04 bb 3e 2d 17 b9 30 9d 22 3c
       0.0007606306 -0.0020187022 -0.00014417336 0.009925172
000050 92 d5 1c 3a b0 06 2d 39 16 d9 3d 3c 98 de 51 bb
       0.0005982752 0.00016501057 0.011587402 -0.0032023545
000060 7a 62 43 ba ec bd 91 3a 97 00 a5 39 54 6c 32 3a
       -0.0007453334 0.0011119223 0.00031471692 0.0006806303
000070 40 a5 4f 38 42 26 0a bb b6 7f 95 39 c0 09 5a 39
       4.9506547e-05 -0.0021079932 0.00028514647 0.00020793732
000080 80 e2 af 39 df cf e2 b9 be 6c 82 39 bc ed 2f 39
       0.00033547357 -0.00043260955 0.00024876551 0.00016777863
000090 14 6b 03 ba 9e 76 05 3a 00 83 5c 39 49 da 44 3c
       -0.00050132093 0.00050912227 0.00021029636 0.012014934
0000a0 f2 3e aa 3a 97 a1 41 ba b0 9e 97 b8 ce ab bc 39
       0.001298873 -0.00073864445 -7.229799e-05 0.0003598616
0000b0 48 7d 63 b9 76 f1 8d ba 3c 54 ec 3a d4 f6 32 ba
       -0.00021695078 -0.0010829407 0.0018030475 -0.00068269414
0000c0 45 8c de 3a 1a dc b6 ba 40 e4 95 bb d8 3a 7b b9
       0.001697906 -0.0013951093 -0.0045743287 -0.00023959146
0000d0 06 5d 50 b9 7c c0 5c bc 92 5d 3e bb 6b c9 ab 3b
       -0.0001987108 -0.013473626 -0.0029047471 0.0052425168
0000e0 80 09 18 b9 df 23 09 3b ed c0 79 3c da 9f 39 38
       -0.00014499389 0.0020925922 0.015243751 4.425631e-05
0000f0 1c b9 ca ba f1 c8 b1 bc 4a a3 84 bc 30 b8 ff 3a
       -0.0015466544 -0.021702262 -0.016191144 0.0019509848
000100 b8 6a c4 ba 2a 9c b5 39 b5 08 19 3b 74 af d8 ba
       -0.0014985418 0.00034639362 0.0023351137 -0.0016531781
000110 30 0e 2f 38 06 6d 17 3c 69 e8 2d 3a 1c 88 84 3a
       4.1736464e-05 0.009242302 0.0006634058 0.0010111365
000120 23 6c 65 3c a0 73 26 bb 0e 1a 77 ba f2 b9 99 ba
       0.014002833 -0.0025398508 -0.00094261847 -0.001172839
000130 6c 43 d9 39 48 c5 70 39 0c ec 30 3a 14 b9 0d 3b
       0.00041439699 0.00022961677 0.0006749041 0.0021625208
000140 d5 f8 4e 39 a4 87 f1 ba 98 ac 7e 3a 62 68 44 b9
       0.00019738388 -0.0018427265 0.00097150495 -0.00018730902
000150 cf bb bd 3a 05 84 db 39 06 28 72 ba 2d e7 38 3b
       0.0014475527 0.00041869297 -0.00092375313 0.0028213963
000160 5a 31 fd 39 03 c8 6f 3c 49 2e f3 3a aa fb 01 ba
       0.0004829269 0.014635089 0.0018553223 -0.00049584603
000170 05 92 40 3a e8 44 77 3a 20 6f 14 b9 b8 d8 41 ba
       0.00073459774 0.000943257 -0.00014155777 -0.00073946593
000180 b1 ca ea 3a f6 53 6e ba 1c 41 29 bb 82 a7 ee ba
       0.001791319 -0.00090914906 -0.0025826162 -0.001820788
000190 2b 7b 48 bd 0e 08 cf bb 7e ab ed bb 0c 4e 68 3c
       -0.048945587 -0.006318099 -0.0072531095 0.014178764
0001a0 1a 00 30 3c fe 0d e1 bc a0 44 1b 3b 56 04 4f 3c
       0.010742212 -0.027472492 0.0023692027 0.012635311
0001b0 a0 ec 42 bd 5c 20 a2 39 c6 63 06 3b f8 d0 14 3b
       -0.047588944 0.00030923157 0.0020506247 0.0022707563
0001c0 4a db b7 3b f4 f8 2d 3c 01 cd d9 bb ba 6c 00 bb
       0.005610858 0.010618437 -0.006646753 -0.0019596056
0001d0 1c 7c 9a bc 01 d2 d6 bc ae f4 8c 3b ab ce 39 3d
       -0.018858008 -0.026223185 0.004301629 0.04536311
0001e0 1e 2f 07 bc ba 16 8a 3c d3 a7 ae bc 70 aa 56 3b
       -0.00825098 0.01685654 -0.02132026 0.0032755397
0001f0 98 97 a2 3a 9e e1 8d 3c ea 81 ee 3a 5d 53 5e bc
       0.0012404798 0.017319497 0.0018196676 -0.01356968
000200 f2 53 e7 bb 29 21 c1 3c 74 51 27 3b 63 6a 11 3d
       -0.0070595676 0.023575382 0.0025530728 0.03550185
000210 00 e3 de b9 0f 88 d3 bb bc 59 89 bc ac 91 51 ba
       -0.00042512268 -0.0064554284 -0.016766421 -0.0007994424
000220 ec 53 00 3c c0 ec a7 b9 7a 88 35 bc a2 57 52 bd
       0.0078325085 -0.00032029115 -0.011079902 -0.051353104
000230 ba e9 05 3c 6a 2f 56 3b 65 b6 fe bc 42 4e 11 bb
       0.008173401 0.003268207 -0.031092832 -0.002217189
000240 ee a1 b2 3c 85 32 ce 3b d2 ee d6 3c c6 96 61 3b
       0.02180573 0.0062926435 0.026236925 0.0034422143
000250 16 ff f1 3c ac 6d 48 bc c8 06 20 bb f3 b4 48 ba
       0.02954058 -0.012233179 -0.0024418104 -0.0007656358
000260 9e c6 56 39 73 59 2b bc 84 3b 91 bb e4 3f 56 3b
       0.00020482621 -0.010458338 -0.0044321436 0.003269189
000270 a0 9c b5 b7 5e 93 25 3b 00 41 8b 3c 46 80 14 39
       -2.1649816e-05 0.002526484 0.016998768 0.00014162165
000280 9a ec 72 ba 0e 98 bb bc b1 3f 6e bc 07 01 4e 3a
       -0.0009266824 -0.022899654 -0.014541552 0.00078584295
000290 70 2a 85 39 dc 90 ea 39 3a 47 0c 3b 22 01 9c bb
       0.00025399355 0.00044739887 0.002140476 -0.004760877
0002a0 e6 5c cf 39 ce 18 6e 3c 5f 55 07 3b b0 39 19 3a
       0.0003955133 0.014532281 0.002065025 0.0005845083
0002b0 d6 56 41 3c 75 66 10 bb 52 00 d4 b9 92 45 60 ba
       0.011800488 -0.0022033725 -0.0004043603 -0.00085552887
0002c0 36 49 1f 39 48 4f 9c 3a fa 11 4c 3a be 72 61 bb
       0.00015190695 0.0011925483 0.0007784661 -0.0034400667
0002d0 48 a7 6b 38 88 0e b4 39 80 7e 13 39 f8 53 9f 37
       5.618416e-05 0.00034343102 0.00014066137 1.8993378e-05
0002e0 28 04 6e 39 d7 71 46 39 06 1b 3b 3a ef 57 07 3b
       0.00022698997 0.0001892516 0.00071375107 0.0020651778
0002f0 c4 34 81 39 2e e1 77 3c 52 2c bd 3a ac f1 8e b9
       0.0002464411 0.015129371 0.0014432764 -0.0002726441
000300 30 7f 89 39 02 53 9d 39 ec 3c 94 3a e8 73 cd b9
       0.00026225438 0.0003000722 0.001130966 -0.00039187004
000310 37 4a 01 bb 90 63 94 ba f1 5c 54 bb f6 b4 2e ba
       -0.0019728073 -0.0011321176 -0.003240403 -0.00066645385

lstm_layer.lstm1.bias_hh_l0 f4 [200]
000000 82 00 0b 3c 6e d6 3a ba c2 2b 64 b9 84 24 64 bc
       0.008484008 -0.00071272894 -0.00021760075 -0.013924722
000010 a2 3c 8b bb b0 c5 50 3b 96 aa 94 b9 2d a8 0b 3b
       -0.0042491714 0.0031856112 -0.00028355856 0.0021309957
000020 9a f9 76 3c aa db 00 b8 b1 0f 00 bb c0 d6 a2 bc
       0.015074158 -3.0722156e-05 -0.0019540603 -0.019877791
000030 f1 d9 58 bc 38 8f 01 3a 4a 6a dc bb 74 96 1b 3a
       -0.013235555 0.0004942301 -0.006726538 0.00059352
000040 58 d3 27 3b 24 0e ea ba 80 92 14 b9 0a 65 2f 3c
       0.0025608148 -0.0017856997 -0.00014168955 0.010705242
000050 5d 67 93 39 68 b8 d5 39 e6 44 42 3c 98 43 48 bb
       0.00028115037 0.0004076392 0.011857247 -0.0030557867
000060 8b 61 43 ba 17 76 a0 ba 17 be aa 39 80 8e b4 3a
       -0.00074531947 -0.0012242225 0.00032566555 0.0013775378
000070 30 47 1b 38 80 b9 c6 ba 9a 44 3a 39 58 42 e0 b9
       3.702118e-05 -0.0015161484 0.00017763898 -0.0004277404
000080 10 af 29 3b 7e 7d 69 b9 95 57 e4 3a b8 43 30 39
       0.00258917 -0.00022267361 0.0017421121 0.00016809895
000090 94 97 26 ba 45 80 22 3b 2c 3f b7 39 64 79 53 3c
       -0.00063549844 0.0024795693 0.00034951547 0.01290736
0000a0 da c5 ac 3a 81 d8 42 ba e4 37 91 39 3c 68 75 3a
       0.0013181523 -0.00074327743 0.00027698197 0.00093615404
0000b0 38 1a 80 3a 9c 44 89 ba 20 34 21 3b 49 fc 36 ba
       0.0009773439 -0.0010472718 0.002459772 -0.00069803424
0000c0 8e 8c cc ba 16 05 a9 ba b0 59 8f bb e0 a7 d5 37
       -0.0015605853 -0.0012895192 -0.0043747053 2.5469752e-05
0000d0 04 0a 14 3a ce a2 3e bc c2 20 3d bb 24 ca 48 3b
       0.00056472444 -0.011635495 -0.0028858637 0.0030638063
0000e0 e4 d7 19 b9 82 79 40 3a 6d a7 79 3c 34 39 5c 38
       -0.00014671643 0.0007342325 0.015237671 5.2505362e-05
0000f0 1a 7c d6 ba e5 04 b2 bc 24 58 8b bc c2 9f 23 3b
       -0.001636389 -0.02173085 -0.017009802 0.002496705
000100 b4 92 ac ba 7b f2 a1 39 a0 3c d8 b8 ac 86 d2 ba
       -0.001316628 0.00030888975 -0.00010310975 -0.0016061864
000110 18 4c 27 38 7c 40 19 3c 40 42 c6 39 e4 50 13 3b
       3.988677e-05 0.009353753 0.00037814863 0.0022478634
000120 77 cb 75 3c ef e2 26 bb 4a f2 76 ba f2 26 5d 3a
       0.015002123 -0.0025464853 -0.0009420259 0.0008436284
000130 7c 8a da 39 bd b7 8e 3a cc b6 47 3a 00 5b 36 3a
       0.0004168338 0.0010888499 0.00076184864 0.0006956309
000140 70 b5 ca 39 28 88 a4 39 00 55 87 3a b0 45 98 b8
       0.00038663624 0.00031381962 0.0010325015 -7.260905e-05
000150 56 62 b1 3a 59 be d7 39 f0 75 73 ba e4 a5 37 3b
       0.0013533335 0.00041149816 -0.00092872884 0.0028022463
000160 4c ea f7 39 89 78 40 3c fc 93 ee 3a 0c c7 07 ba
       0.00047286076 0.011747488 0.0018202062 -0.00051795016
000170 e7 7a 60 3a a7 f6 4f 3a 5a 91 1e ba a8 7d c5 b9
       0.0008563236 0.00079331774 -0.0006048881 -0.0003766839
000180 38 d5 7f 3a c3 3a 1b ba a0 b7 0b bb d9 19 f0 ba
       0.000975925 -0.0005921537 -0.0021319166 -0.001831825
000190 fc 20 49 bd 09 e9 ce bb 6e 55 ed bb 0c 4d 68 3c
       -0.049103722 -0.006314401 -0.00724285 0.014178526
0001a0 33 f2 2f 3c d8 c4 db bc 5a 1b 1c 3b bc 61 52 3c
       0.010738897 -0.02682726 0.0023820014 0.0128406845
0001b0 78 e3 3f bd e9 9a a5 39 05 d0 05 3b 40 ef 14 3b
       -0.04684779 0.0003158667 0.0020418179 0.0022725612
0001c0 d2 2a b8 3b 1a 9c 2c 3c 80 ce d9 bb 02 0a fb ba
       0.005620339 0.010535264 -0.006646931 -0.0019152763
0001d0 83 d8 99 bc f3 43 d6 bc ec 48 8d 3b 6c 27 39 3d
       -0.018779999 -0.026155448 0.0043116715 0.04520361
0001e0 e4 51 07 bc a7 4f 81 3c 50 0c ae bc e2 2b 4c 3b
       -0.00825927 0.015785052 -0.021246105 0.0031154086
0001f0 9a 4c c4 3a 2c 2b 8e 3c 84 c4 ef 3a 33 d8 5e bc
       0.0014976442 0.01735457 0.0018292819 -0.013601351
000200 a0 d2 e6 bb 71 d7 bd 3c d0 d1 0b 3b 51 6a 11 3d
       -0.0070441514 0.02317402 0.0021334775 0.03550178
000210 e0 0a 22 ba c7 d6 d3 bb fb f2 88 bc bb 72 4f ba
       -0.000618143 -0.0064648124 -0.016717425 -0.00079135195
000220 3c e2 fd 3b 90 93 bc b9 8e 7d 35 bc 8a 54 53 bd
       0.0077479165 -0.00035968097 -0.011077298 -0.051594295
000230 5c d8 06 3c 99 6c 55 3b 6e d9 fe bc 94 f5 10 bb
       0.008230295 0.003256595 -0.031109538 -0.0022119032
000240 f0 7a b2 3c 52 ee d0 3b d4 4b d7 3c 9a 1f 61 3b
       0.021787137 0.0063760662 0.026281275 0.0034351111
000250 bf 58 f3 3c c2 36 45 bc f4 16 1d bb dc b3 40 ba
       0.029705403 -0.012036981 -0.002396998 -0.000735102
000260 38 43 89 38 74 b0 30 bc 8c ce 90 bb 14 91 54 3b
       6.5451895e-05 -0.010784257 -0.0044191536 0.0032435106
000270 b0 e3 bc b7 fb a0 fb 3a c9 3e 8b 3c 4c ed 19 39
       -2.2517372e-05 0.0019197756 0.016997712 0.00014679617
000280 19 97 89 ba 58 6d c1 bc 3b df 5e bc 3e a7 68 3a
       -0.0010497301 -0.02361171 -0.013603027 0.00088750187
000290 a4 5d 05 3a a6 ca c0 39 b8 76 cf 3a 54 f7 99 bb
       0.0005087501 0.0003677208 0.0015828228 -0.0046986733
0002a0 d0 24 d0 39 01 3c 4a 3c b8 10 f4 3a c8 e6 39 ba
       0.0003970028 0.012343408 0.0018620705 -0.0007091579
0002b0 4a dd 5c 3c b4 fe 2e bb a2 64 d0 b9 89 b7 8d ba
       0.013480494 -0.0026702108 -0.0003974783 -0.0010812144
0002c0 00 fd 24 39 ab d9 9c 3a 54 ab 50 3a 78 b0 c7 3a
       0.00015734509 0.0011966726 0.00079601 0.0015235087
0002d0 1c 0e b2 38 4c 7d 24 3a 48 8b 1e 3a c0 42 ec b6
       8.4903295e-05 0.0006274774 0.0006047976 -7.041119e-06
0002e0 3b fc ec 3a 22 f7 4a 39 28 ed 35 3a 0c 3b 83 39
       0.0018080542 0.00019356285 0.0006939941 0.0002503026
0002f0 d2 f0 a1 39 34 38 6b 3c ce 87 f8 3a 8d 6d b7 b9
       0.00030887738 0.014356662 0.0018961371 -0.00034986102
000300 78 8a fd 39 fa f4 a0 39 b4 4d d1 39 80 86 8e b7
       0.00048359088 0.000307001 0.0003992148 -1.699035e-05
000310 ba 7f f4 ba c2 9d 5c ba cc a6 d0 ba 10 71 2d ba
       -0.0018653788 -0.0008415842 -0.001591885 -0.0006616274

gbrbm.W f4 [50, 50]
000000 2f e2 b8 bb 2d dc b8 bb 3c ac 88 3a b8 d1 d4 3b
       -0.0056421976 -0.0056414814 0.0010427306 0.006494727
000010 f6 80 f2 3a 6e 9e 47 3c d2 e1 3a ba 9e 90 39 3c
       0.0018501568 0.012183769 -0.0007128987 0.011325983
000020 53 b8 d3 3b b0 9e 6a bb 60 48 c4 3a 87 d2 b9 3b
       0.006461182 -0.0035800152 0.0014975183 0.005670849
000030 ee aa 0e 3b 1c 1e 8a 39 1e 71 5d bb 31 80 89 3b
       0.0021769363 0.00026343844 -0.0033789347 0.00419619
000040 e0 e1 21 3b bb fa 21 bc 4f 90 e9 3b 63 49 4a 3c
       0.0024701282 -0.009886439 0.0071277986 0.012346598
000050 b0 64 99 b8 84 03 55 bb 6d 87 22 bb 69 e8 d7 3a
       -7.314363e-05 -0.0032503316 -0.0024799958 0.0016472462
000060 d5 b6 17 3b e0 86 c9 bb 70 ab 3d bc 5b 46 a2 bb
       0.0023149748 -0.0061501116 -0.011576518 -0.0049522347
000070 4b 78 09 3b c8 6b c1 bb 3b e9 57 3b 42 d3 e1 ba
       0.0020976241 -0.005902741 0.0032945413 -0.0017229097
000080 43 19 5e b9 3e 69 bd 3b a1 b4 54 bc cf ed 07 3b
       -0.0002118098 0.005780368 -0.012982518 0.002074111
000090 a2 eb 57 3a 69 eb 0c bb e8 74 9f 3a 30 da 04 bc
       0.0008236711 -0.002150262 0.0012165578 -0.008108661
0000a0 9c 72 85 b9 7e f5 0f bc ce b9 5d bb d0 4a 15 3b
       -0.00025453127 -0.008786557 -0.0033832672 0.0022780187
0000b0 cb b9 7f 3a 87 a5 eb bb bf 7c 2b 3b 38 6f d0 bb
       0.00097551633 -0.0071913633 0.0026166884 -0.0063609146
0000c0 ee 1f 42 bb aa 04 1f bc 04 3e 31 bb 46 01 b6 3a
       -0.0029621082 -0.009705702 -0.002704502 0.0013885878
0000d0 31 35 c2 3b fa d4 02 bc 38 06 43 bb 56 0c ae ba
       0.005926751 -0.007985348 -0.0029758345 -0.0013278823
0000e0 06 49 d0 38 64 77 bb ba 8e 93 93 3b 68 0d 88 3a
       9.9318146e-05 -0.0014302549 0.004503674 0.0010379972
0000f0 70 92 b9 bb 5f 64 13 3b c8 1c 94 bb d9 4b 13 bb
       -0.0056632087 0.0022490246 -0.0045200326 -0.0022475629
000100 97 cc c1 bb f1 69 1f 3b 7e 6d 8b bb 50 98 25 bc
       -0.0059142816 0.002432462 -0.004254996 -0.010107115
000110 b1 21 9e bb 2c 99 e1 ba 2e 20 74 3b 61 b1 b1 3a
       -0.0048257937 -0.0017211786 0.0037250626 0.0013556891
000120 83 d1 1d bb 65 00 e9 3b 37 ec 17 3c f0 b3 05 3c
       -0.0024081178 0.0071106427 0.009272627 0.008160576
000130 99 e6 d8 b8 e0 33 c8 3a 55 28 91 3a 17 c6 2c bb
       -0.00010342635 0.0015274249 0.0011074642 -0.0026363188
000140 6c 40 b5 bb 89 22 1a 3b 16 1d 05 bb d4 2d 4b bb
       -0.0055313613 0.002351912 -0.0020311526 -0.0031002657
000150 85 be 23 ba 38 ee 12 38 d4 0f df 3b 44 f6 7e 3b
       -0.0006246346 3.503097e-05 0.006807307 0.003890411
000160 26 80 a0 3b da 18 ed ba 30 7a ba 3b f9 c3 cf bb
       0.004898089 -0.0018089071 0.0056908354 -0.0063405004
000170 ed 6a f9 39 47 4a 11 bc ee a7 8c 3c 5f cc b6 3b
       0.00047572647 -0.008867807 0.017169919 0.005578562
000180 17 1d 1f bb d7 55 06 3b c2 69 75 3b 54 f1 49 3c
       -0.0024278814 0.0020497942 0.003744707 0.0123256035
000190 fa ac 35 3c f4 a7 2f 3c 4d df 0d bc a1 c1 af 39
       0.011088604 0.0107211955 -0.008659196 0.00033522866
0001a0 e9 e9 c5 ba f4 dd 92 3b eb 10 24 3b 61 bd a6 b9
       -0.0015099618 0.0044820253 0.0025034498 -0.00031803086
0001b0 c8 79 1a 3b e1 b7 88 ba e3 ce dd 39 e7 cf 33 3c
       0.0023571122 -0.0010430777 0.00042306547 0.010974861
0001c0 7c 67 5a 3b 2f 21 b5 bb 76 6a a2 3b d4 94 96 bb
       0.0033325842 -0.0055276374 0.004956539 -0.0045953784
0001d0 e8 06 fd b7 ac 4e e9 bb 85 9c 1b 3c a0 a9 09 39
       -3.0163166e-05 -0.007119974 0.009497766 0.00013128528
0001e0 42 77 c1 bb 66 c5 00 bb c7 04 58 3b ef 10 bb ba
       -0.005904109 -0.0019648909 0.0032961832 -0.0014272014
0001f0 c8 80 07 bb 9e 2a 6a bb ea a7 21 bb a6 f4 a6 bb
       -0.0020676125 -0.0035730968 -0.0024666735 -0.0050950823
000200 1f 04 04 3a 01 0e 91 bb a6 d5 fa 3a 52 9e 9b 3a
       0.00050360145 -0.004426718 0.0019137159 0.0011872745
000210 67 01 23 3b ed f9 2c 3b 07 02 50 bb df 02 b9 3b
       0.0024872662 0.0026394085 -0.003173949 0.005646094
000220 a7 4b 1f 3b 8e be 96 bb 13 36 a7 3b e6 6f d5 ba
       0.0024306567 -0.0046003526 0.0051028817 -0.0016283959
000230 bc 2c c0 ba 4f 6b 0c bc 23 be cc bb 4b d2 95 3b
       -0.0014661769 -0.008570506 -0.006248252 0.004572188
000240 1f 9d 36 3c 1e 5a 98 bb 5a 72 ba 3b 8f 2a 07 3b
       0.011145859 -0.0046494147 0.0056899013 0.0020624732
000250 81 60 52 bb ce 8e da 3b 20 98 4c bb f4 b3 a9 3a
       -0.0032100978 0.0066698557 -0.0031218603 0.0012947307
000260 c0 8c a7 bb 8f a2 6d bc 9a 0e c5 3a bf 63 45 3b
       -0.0051132143 -0.014504089 0.0015034259 0.0030119268
000270 a1 f2 14 bc 76 c1 ad 3b 75 2e 09 bb ac 94 c3 38
       -0.00909105 0.0053026034 -0.0020932232 9.326017e-05
000280 5b 1a ec 3b 33 2b d1 39 98 b9 47 38 21 1d df 3b
       0.0072052903 0.00039895772 4.7618145e-05 0.0068088924
000290 5b d3 ea bb 19 2f c9 3b ae 74 6b 3b 69 4b d0 3b
       -0.007166309 0.0061396477 0.00359277 0.006356646
0002a0 81 d0 4d 3c 15 ca de bb 6e d6 c3 3a 95 e5 44 3c
       0.012561918 -0.0067989924 0.0014941224 0.012017627
0002b0 cc 6f 35 bb 79 e9 32 3a 92 fd 9b 3b 5e dc c5 bb
       -0.0027685044 0.0006824951 0.0047604525 -0.0060382327
0002c0 5e 3b 0a bb 22 99 92 3b 77 84 7a 3a 2e 94 38 bc
       -0.0021092515 0.0044738213 0.0009556482 -0.011265798
0002d0 70 48 e1 bb f8 3a cc 3a 1e 32 d1 bb 46 cd 19 3b
       -0.0068750903 0.0015581539 -0.0063841483 0.00234683
0002e0 0a df ce bb 83 d4 2f 3c 94 1d 33 ba 14 21 5b 3b
       -0.0063132094 0.010731819 -0.00068327156 0.0033436464
0002f0 4a 02 08 3b 65 e8 8a 3a 5a 76 e1 3a 0d f5 1b bc
       0.0020753318 0.0010597823 0.0017201409 -0.009518874
000300 d0 f0 09 bc 06 e7 17 bc b6 a8 ac bb 59 ce 93 ba
       -0.008419231 -0.009271389 -0.0052691353 -0.0011276706
000310 79 0b b0 3b 09 e6 81 bb bc fc d3 3b c1 cb 91 bb
       0.0053724614 -0.00396419 0.0064693373 -0.004449338
000320 37 7d ff 3a 2a f9 22 3b 6f 4e 11 3c 93 51 65 3c
       0.0019492273 0.0024867752 0.008868798 0.0139965
000330 3a c7 6a bb f0 40 94 ba 1a cc fc bb 27 28 23 3c
       -0.0035824315 -0.0011310857 -0.0077147605 0.0099583035
000340 03 29 85 3b 5b 71 8c 3b 26 69 e1 3a d4 da ed 3a
       0.004063727 0.004285974 0.0017197474 0.0018146881
000350 19 dc 27 3a 81 3a b8 ba a0 2f 79 ba f4 28 90 3b
       0.00064033415 -0.0014055521 -0.0009505693 0.0043994132
000360 83 ea c4 ba f9 d5 d4 bb 88 dc 6b 3c b6 09 3c bb
       -0.0015023503 -0.006495234 0.0143958405 -0.0028692312
000370 55 de 65 bb af 2c 5a bb e7 9e fb bb 49 cf 7e 3b
       -0.0035075147 -0.0033290794 -0.0076788547 0.0038880876
000380 f0 fe 76 3b 44 a3 cc ba eb 86 12 bc ca 73 c1 3a
       0.0037688576 -0.0015612622 -0.0089433 0.0014759239
000390 06 1b 8d 39 f2 d7 97 bb 88 df 0b bb 2f ae 72 bc
       0.0002691375 -0.004633897 -0.0021342952 -0.014812036
0003a0 83 de 20 bc aa 57 07 bb da ba 4d bb 14 e5 1f 3c
       -0.009818676 -0.0020651617 -0.003139189 0.009759206
0003b0 85 2e 20 bb e0 f8 dc bb a8 6f 97 3b a0 83 88 3b
       -0.002444179 -0.0067435354 0.0046214648 0.0041660815
0003c0 74 06 35 3b e8 4c 36 b9 fc e6 a9 bb 06 1f c0 bb
       0.0027622255 -0.00017385522 -0.005185006 -0.0058630733
0003d0 1f 77 2f bc 12 bb 2b bb 08 e6 97 ba 75 2b b3 3a
       -0.010709553 -0.0026204032 -0.001158894 0.0013669567
0003e0 c6 11 a1 ba f6 f2 9b bb 0e 21 b3 3b 52 29 cf 3b
       -0.0012288622 -0.004759188 0.005466587 0.0063220644
0003f0 10 36 dc bb 17 c9 9b 3b b6 05 2e 3c f6 6d 46 bb
       -0.006720312 0.0047541964 0.010621479 -0.0030277944

gbrbm.b f4 [50]
000000 20 62 5a bd 35 5e 2e bd 74 8b cf bb aa e0 78 bd
       -0.053316236 -0.04257031 -0.006333763 -0.06076113
000010 07 b8 bb bc c4 72 16 3a 49 e6 d7 3c 03 f9 10 bd
       -0.0229149 0.00057391473 0.026354926 -0.035393726
000020 70 c3 bd bc f1 60 19 bc 1d 9c 60 3d 41 a3 2e bc
       -0.02316448 -0.009361492 0.05483638 -0.01065904
000030 e1 cd 68 3d a9 6c b9 bc ac ee 42 3d 90 96 0a bd
       0.056836966 -0.022634821 0.047590896 -0.033834994
000040 88 be ee bb 4c 5c 14 bd d3 5a b2 bd 6a b7 95 3c
       -0.0072858967 -0.036220834 -0.087087296 0.018275935
000050 43 b7 bc 3c 03 70 92 bc fd 95 ce bc ba 32 73 3b
       0.023036605 -0.017875677 -0.025218004 0.0037109093
000060 7b 5f 6b bd d2 b9 04 3d 58 ff 42 bd f7 45 a2 bc
       -0.057464104 0.032403775 -0.047606796 -0.019808752
000070 5f d1 82 bd f6 ce 30 bd 82 08 07 be c0 12 f3 3c
       -0.063875906 -0.043166123 -0.13186839 0.029672027
000080 e9 5e b4 bc 51 4f ea bc cb 0a a9 3c c6 8c 05 3c
       -0.022017913 -0.028602274 0.02063503 0.008151239
000090 b4 2e 40 bd dc 25 8c 3c ed d3 d5 3b aa 9d 3c 3d
       -0.04691954 0.017107897 0.0065255077 0.046048798
0000a0 61 7d 8a bc b3 c2 3b bd f2 6a 9a bd 92 1f 04 bd
       -0.016905488 -0.045839977 -0.075399294 -0.03225667
0000b0 72 6c 2b bb 87 4c 6b bd a0 32 59 bc f1 4c 17 3d
       -0.0026157168 -0.05744603 -0.013256699 0.03693861
0000c0 77 fa 1d bd 7a 4e bf bd
       -0.03856894 -0.0934114

gbrbm.mu f4 [50]
000000 44 4e a5 3b 52 c5 26 3c 3f 31 78 3b 38 50 b3 bb
       0.0050447304 0.010178881 0.003787115 -0.0054722093
000010 0b fd 47 3c ed 45 10 bb be 3c 52 3b 4e 66 29 3c
       0.012206326 -0.0022014335 0.0032079662 0.010339333
000020 b6 2d 38 bb bd f7 ca bc 2d 00 9e 3b 67 d5 4a bc
       -0.0028103418 -0.024776334 0.0048217983 -0.012379981
000030 f0 d6 38 3c 95 07 f9 3a c6 26 c6 bb e4 3a da 3b
       0.011281714 0.0018999452 -0.0060471026 0.0066598523
000040 01 22 61 bb 0f de 4f 39 ef 6b fe bc 7d b3 0f 3b
       -0.0034352543 0.00019823782 -0.031057326 0.0021927052
000050 6f c7 6d 3b 05 08 04 3b 5c 55 aa bb 1c 5c 00 bb
       0.0036282202 0.0020146382 -0.005198164 -0.0019586151
000060 c5 84 5f bc e8 a2 ac 3b 6f 90 56 bc e6 2f 72 bc
       -0.013642495 0.0052684434 -0.013095959 -0.014781928
000070 1c 60 dc 3b d3 fe c5 3b 1c 1d 1b bb 5f 40 7e bc
       0.0067253243 0.0060423403 -0.0023668474 -0.015518277
000080 19 7f a5 3c ff 71 30 3c 02 92 c4 3b 1c c0 8b bc
       0.020202206 0.010769366 0.005998851 -0.017059378
000090 bc 91 4a 3a 92 eb 5a 3c ca 90 eb 3a ff ad 84 3c
       0.00077274046 0.013361828 0.0017972228 0.016196249
0000a0 70 f4 b0 3b 00 7d 56 bc c0 39 1f 3c 3b 5d 86 3c
       0.005400233 -0.013091326 0.0097183585 0.016401878
0000b0 bc 0a 3c 3b 51 71 a2 3b 3d 14 9a bc 60 5a 80 3b
       0.0028692922 0.004957356 -0.018808478 0.0039170235
0000c0 29 76 c9 3a 07 30 ed bb
       0.0015370297 -0.0072383913

gbrbm.log_var f4 [50]
000000 fe 00 ca bf 0e 78 ca bf f3 2f c9 bf ec 0c c9 bf
       -1.5781553 -1.5817888 -1.5717758 -1.5707068
000010 99 d7 ca bf 5f c4 c7 bf 69 08 ca bf ee af c9 bf
       -1.5847045 -1.5606803 -1.5783817 -1.5756814
000020 c7 5b c9 bf ca b0 cc bf 6f 0a cb bf 0a 5c c9 bf
       -1.5731133 -1.5991452 -1.5862559 -1.5731213
000030 40 dc c7 bf 59 1d ca bf c9 52 c8 bf 01 67 ca bf
       -1.561409 -1.5790206 -1.5650264 -1.5812684
000040 ab 47 cb bf ab ae c6 bf 4e eb cd bf 43 64 c9 bf
       -1.5881246 -1.5522054 -1.6087434 -1.5733722
000050 52 dc cb bf 9a d2 c9 bf f3 d7 cb bf b9 be c9 bf
       -1.5926611 -1.5767395 -1.5925277 -1.5761329
000060 43 60 c9 bf b7 53 ca bf 90 24 ca bf 40 6d c9 bf
       -1.5732502 -1.5806798 -1.5792408 -1.5736465
000070 55 77 cc bf 9a a8 cc bf 1f 25 ca bf 5d 1f cc bf
       -1.5973917 -1.5988953 -1.5792578 -1.5947071
000080 de c2 cc bf 69 0f cc bf ce 23 c7 bf 69 49 ce bf
       -1.5996969 -1.5942203 -1.5557802 -1.6116153
000090 a7 ee c9 bf 65 72 ca bf 4c d2 cb bf e3 66 cc bf
       -1.5775956 -1.581616 -1.5923553 -1.5968899
0000a0 95 f0 c9 bf 7c ed cb bf 47 b2 cd bf b3 90 cb bf
       -1.5776545 -1.593185 -1.6070031 -1.5903534
0000b0 a5 71 c8 bf c7 5e ca bf f8 be c7 bf e4 ef c8 bf
       -1.5659682 -1.5810174 -1.5605154 -1.5698209
0000c0 99 8e c9 bf f3 44 cb bf
       -1.5746642 -1.5880417

gbrbm.linear_layer.weight f4 [1, 50]
000000 7e f8 46 3c 4b 4c 4f bd da c9 03 bd ef 74 4e bd
       0.012144206 -0.050609868 -0.032174923 -0.050404485
000010 0b 3a 09 3d 1f a5 6d 3d df ec 4a 3c 4b 33 25 bd
       0.03350262 0.0580188 0.012385576 -0.04033212
000020 17 16 5a bd d9 c3 48 bd 19 60 dc 3c 1f 17 02 3d
       -0.053243723 -0.0490149 0.026901292 0.03176033
000030 6a ad 9c 3d 91 9b a0 bb 67 51 b2 3b d0 6c 5d bd
       0.076502636 -0.0049013575 0.005441833 -0.05405885
000040 75 1e 82 3d 21 ed 39 3d 87 a6 c2 bd cd b5 34 3d
       0.063534655 0.04539216 -0.09504419 0.04411869
000050 d1 1e 6a 3d f7 a1 9a 3c 41 51 70 bc 71 0d ab bd
       0.057158295 0.018876059 -0.01466781 -0.08352173
000060 78 79 03 bd c7 47 bb 3d b2 0a 98 bc 5c 6e c5 3c
       -0.032098264 0.0914455 -0.018559787 0.024100475
000070 a8 ac a5 bd 7a de b5 3c 93 fd 6f 3d 2a 87 f0 bc
       -0.08089572 0.022200812 0.058591437 -0.029361326
000080 2e 46 13 bc 4d 9c 87 ba 91 63 82 bc 9d 3e 1e bd
       -0.0089889 -0.0010346264 -0.015916618 -0.03863393
000090 09 b1 8e bd 0a dd 34 bd 0f 8d 59 bc bd 73 5b 3d
       -0.069673605 -0.04415611 -0.01327826 0.053577174
0000a0 b9 be 8a bd 6d 59 62 ba f4 da 0b bb c5 1c 5c 3d
       -0.06774659 -0.00086345413 -0.0021340223 0.053738374
0000b0 47 a3 44 3d 05 57 51 3d 16 6f 8f bd 19 12 c5 bc
       0.048007276 0.05110838 -0.0700361 -0.024056481
0000c0 32 97 b5 bd 39 9c 12 3d
       -0.08866729 0.035793517

gbrbm.linear_layer1.weight f4 [1, 50]
000000 ad ef e1 bd ac 40 88 3d 28 0f 09 3d 1c 1d 51 bd
       -0.11032043 0.0665296 0.03346172 -0.05105315
000010 f6 cb bb bd 3a 27 e9 3d 04 4c b0 bc f6 cd 03 be
       -0.09169762 0.11384435 -0.021520622 -0.12871537
000020 ea 94 e9 bd 10 a4 08 3d c8 b0 cb bd ac e8 d0 bd
       -0.11405356 0.033359587 -0.09945828 -0.10200629
000030 80 00 52 bc c8 3d ae 3d cc ff 6a 3d eb 77 80 bd
       -0.012817502 0.085078776 0.057372853 -0.062728725
000040 f8 06 ee 3c a4 71 6b 3d b6 eb 48 bd 21 50 88 bd
       0.029056057 0.057481423 -0.049052916 -0.066559084
000050 63 89 91 bd 19 dd 04 3e 48 15 b8 bc 38 2c 91 3c
       -0.071062826 0.12974967 -0.022471085 0.01772128
000060 ac e0 71 bd 2a 7a 91 3d 68 75 60 bd 40 0f 70 3d
       -0.059052154 0.07103379 -0.054799467 0.058608294
000070 c0 f7 31 3c a0 89 04 3c 04 9e 65 3d f0 01 cf 3d
       0.010862291 0.008089453 0.0560589 0.101077914
000080 bc 7d b9 3d 96 a6 0b be d4 3d cb 3d 0e c6 b7 3d
       0.09057185 -0.13637766 0.09923902 0.08973323
000090 08 41 cc bd 08 cb c5 3d e1 96 e3 bd 14 62 4f 3d
       -0.09973341 0.09657866 -0.11112762 0.050630644
0000a0 9c 7b fa bd 0c ba 07 bd c0 92 57 3d d0 63 e1 bd
       -0.12230608 -0.033136413 0.052630186 -0.11005366
0000b0 10 c4 4f 3c 38 38 ba 3d e8 01 89 3d dc 38 a6 bd
       0.012681022 0.09092754 0.06689817 -0.08116314
0000c0 10 30 1f 3d e4 b7 8a 3d
       0.038864195 0.067733556
