final_project/lstm_gbrbm_H_per_2 (drop 0.2)/type1/lstm_gbrbm_W5_H50_B16.pt (torch, 78609 bytes, 9 tensors)

lstm_layer.lstm1.weight_ih_l0 f4 [200, 16]
0	0x3881bbc4	6.1861734e-05
1	0x38632809	5.4158303e-05
2	0x385364ae	5.0400085e-05
3	0xb9f0706e	-0.00045860134
4	0xba0aa2e7	-0.00052885566
5	0xb9c8a287	-0.00038268065
6	0xb9ece73f	-0.0004518572
7	0xb90e9e41	-0.0001360113
8	0xb9ffaa60	-0.0004876433
9	0xba0736e6	-0.0005158022
10	0xb9a35f36	-0.0003116072
11	0xb9368da2	-0.00017409635
12	0x3a1648e7	0.0005732909
13	0xb92ce977	-0.0001649017
14	0x387ce95b	6.029881e-05
15	0x381ee192	3.7880214e-05
16	0x3b2efe6f	0.0026701947
17	0x3b328a97	0.002724325
18	0x3b2ffed5	0.0026854773
19	0x3b05c5ed	0.0020412162
20	0x3b374fee	0.0027971226
21	0x3b55870a	0.003258171
22	0x3b591824	0.0033125961
23	0x3b720450	0.003692884
24	0x3b362fcb	0.0027799483
25	0xbb7e0a87	-0.00387636
26	0x3a798cf0	0.00095195975
27	0x3b29a09a	0.002588308
28	0x3b82e538	0.00399461
29	0x3b1de8c8	0.0024095047
30	0x3b35e07e	0.0027752216
31	0x3b246dc3	0.0025089837
32	0x3a615a0e	0.0008596488
33	0x3a58974e	0.0008262292
34	0x3a5cb37c	0.0008419079
35	0x3af9d047	0.0019059264
36	0x3b049cdc	0.0020235097
37	0x3b014b42	0.0019728695
38	0x3b10ee76	0.002211479
39	0x3ae1e92f	0.0017235632
40	0x3b023ec5	0.001987384
41	0xbada054a	-0.0016633656
42	0x39c494e0	0.00037494954
43	0x3b1bfde7	0.002380246
44	0x3af1f7e4	0.0018460718
45	0x3b27210c	0.0025501875
46	0x3a756cb8	0.00093622087
47	0x3a47d516	0.0007623
48	0x395eb543	0.00021239095
49	0x390aff6c	0.00013255858
50	0x394d9375	0.00019605256
51	0xba31ba3e	-0.00067797664
52	0xb922c119	-0.00015521458
53	0x39336d40	0.00017111469
54	0xb9e059fd	-0.00042791656
55	0xbb0bdcc7	-0.002134131
56	0xb9aa8396	-0.00032522966
57	0x3ac2f6e1	0.0014874601
58	0xba1090e0	-0.0005514752
59	0xba8d23bd	-0.0010768097
60	0xbb0864ed	-0.002081211
61	0xbac168ee	-0.0014756003
62	0x3940b9fc	0.00018379831
63	0x3909ccf1	0.00013141685
64	0xbaac920e	-0.0013166086
65	0xbaa7512b	-0.0012765279
66	0xbaac306c	-0.001313699
67	0x3a7047ad	0.0009165954
68	0x39ff39e7	0.0004868053
69	0x3a2e384b	0.00066459615
70	0x3a874e98	0.0010323105
71	0x3acc2cfb	0.001557737
72	0x39ff28f0	0.0004866789
73	0xbb1a35a9	-0.002353052
74	0x398d9737	0.0002700628
75	0x399ea0f2	0.00030256022
76	0x3b2a2c8a	0.0025966489
77	0x39c300ee	0.0003719399
78	0xba92bbc8	-0.0011194879
79	0xbac31000	-0.0014882088
80	0x3a8594a3	0.0010191392
81	0x3a86b16f	0.0010276268
82	0x3a876d9e	0.0010332351
83	0xb8bf1819	-9.112078e-05
84	0xb9ef0691	-0.00045590525
85	0xb8d9db40	-0.00010388205
86	0xb9a8a329	-0.0003216502
87	0x38ee419d	0.00011360946
88	0xb9e3b0b8	-0.0004342848
89	0xb7629ef1	-1.3507656e-05
90	0xb9642473	-0.00021757353
91	0xb962a715	-0.00021615282
92	0xb72fb4b8	-1.047289e-05
93	0xb8faa561	-0.00011951733
94	0x3a8a1feb	0.0010538077
95	0x3a7f5949	0.00097407826
96	0xb9934b6f	-0.00028094227
97	0xb9887d12	-0.00026033126
98	0xb98ff9af	-0.00027461114
99	0x3a0b1907	0.00053061586
100	0x3a5f3db9	0.00085159723
101	0x3a8a4855	0.0010550121
102	0x3a38b6ea	0.0007046299
103	0x3a302102	0.0006718786
104	0x3a5b50fa	0.00083662535
105	0xba33ac21	-0.00068539573
106	0x38fa44c5	0.00011933738
107	0x3a0a555d	0.00052770023
108	0x3a1306bd	0.0005608609
109	0x3a02858b	0.0004979006
110	0xb98bb544	-0.000266472
111	0xb990ffaa	-0.00027656305
112	0x3acd2585	0.001565144
113	0x3aeb49c7	0.0017951065
114	0x3ae7c36c	0.0017682142
115	0x3a807ca9	0.0009802777
116	0x3a71aba9	0.0009219
117	0x3a9d9a9c	0.0012024227
118	0x3a9b68a4	0.0011856747
119	0x3ad9a5ad	0.0016605161
120	0x3a897473	0.0010486975
121	0xbaa982a7	-0.0012932614
122	0x39b0ebeb	0.00033745109
123	0x3a6568fb	0.00087513
124	0x3aef8710	0.0018274505
125	0x3a9660e0	0.0011472963
126	0x3af2501c	0.0018487009
127	0x3ad273f6	0.0016056288
128	0xb8988b8c	-7.2739174e-05
129	0xb7189f8c	-9.097053e-06
130	0xb8059635	-3.1849562e-05
131	0xb9a1b767	-0.00030844958
132	0x3943ee01	0.00018685313
133	0xb8523e7d	-5.01261e-05
134	0x39344036	0.00017190058
135	0x390df377	0.00013537506
136	0x38ee409a	0.00011360757
137	0xba00d215	-0.0004914117
138	0x38276b2d	3.9915718e-05
139	0xb9124d2b	-0.00013952392
140	0x3a2b681f	0.00065386476
141	0xb95acd20	-0.00020866515
142	0xb82528e8	-3.9377162e-05
143	0x37e3e2f2	2.7166188e-05
144	0xbaf33409	-0.0018554936
145	0xbaf52225	-0.0018702192
146	0xbae230c1	-0.0017256961
147	0xb9734d0c	-0.00023202988
148	0x39a5f357	0.00031652555
149	0x39b245bc	0.00034002762
150	0x39413c7b	0.00018428445
151	0xb9a52cf5	-0.00031504748
152	0x3960575e	0.00021394852
153	0xba3df43b	-0.0007246171
154	0xb83c06ee	-4.4829147e-05
155	0xb9cec4cf	-0.00039438016
156	0x39e51976	0.00043697254
157	0xb9f1464f	-0.00046019486
158	0xbae7817b	-0.001766249
159	0xbae7c39a	-0.0017682195
160	0x37473c47	1.1875359e-05
161	0x378af24c	1.656371e-05
162	0x37712aec	1.4374713e-05
163	0x3a46e0e5	0.00075866125
164	0x3a27b8a5	0.00063980586
165	0x39bfbfe8	0.0003657334
166	0x3a1388d5	0.00056279945
167	0x393c84e5	0.00017978584
168	0x3a198a10	0.000585706
169	0xb986618d	-0.00025631153
170	0x3982768b	0.00024883854
171	0x3a85ff0a	0.0010223102
172	0x393a6924	0.0001777751
173	0x3a8865b6	0.0010406289
174	0x3766dab6	1.3759991e-05
175	0xb785fded	-1.5973079e-05
176	0x3916df4c	0.000143883
177	0x391bf9b1	0.00014874969
178	0x3920af5c	0.00015324116
179	0x399b1a70	0.000295836
180	0x399d87ac	0.00030046457
181	0x39633446	0.0002166788
182	0x398036a3	0.0002445477
183	0x37b19776	2.1170574e-05
184	0x39928926	0.00027949474
185	0x390081c4	0.00012255373
186	0x396501ba	0.00021839785
187	0x3982d4b6	0.00024954014
188	0xb910ac3c	-0.00013797072
189	0x399cb9b1	0.0002989299
190	0x3924708d	0.00015682187
191	0x38e6f109	0.00011012151
192	0xbb1a671c	-0.0023559993
193	0xbb186bd2	-0.0023257625
194	0xbb16ff27	-0.0023040266
195	0x3a8c8cc4	0.0010723104
196	0xbadae048	-0.0016698921
197	0xbaf8a2f5	-0.0018969463
198	0xbb83c845	-0.0040216767
199	0xbc59ec3e	-0.013300953
200	0xbadafab9	-0.0016706801
201	0x3c33ea7a	0.010981197
202	0xbad43d37	-0.001619256
203	0xbb87b831	-0.0041418304
204	0xbc9c2f81	-0.01906562
205	0xbba820a9	-0.0051308465
206	0xba9efd6a	-0.0012129967
207	0xbb6237a7	-0.0034518035
208	0xb9605fa2	-0.0002139793
209	0xb945f738	-0.0001887948
210	0xb94f6a6b	-0.00019780702
211	0x390cc477	0.0001342463
212	0x39d21932	0.00040073093
213	0x390218d4	0.00012407015
214	0x385f5490	5.3246098e-05
215	0xb9a8b738	-0.00032179966
216	0x39fd2e00	0.00048290193
217	0xb95a674e	-0.00020828584
218	0xb9046ba9	-0.00012628608
219	0x39e7d1bc	0.00044216018
220	0x3988a312	0.00026061438
221	0x3a0eb477	0.00054437615
222	0xb92f1238	-0.00016696088
223	0xb9ab04b0	-0.00032619154
224	0x3a235694	0.00062308577
225	0x3a210b75	0.000614337
226	0x3a25f586	0.00063308363
227	0x39492e43	0.00019186088
228	0x39c0ac82	0.00036749622
229	0x3896b8de	7.1869916e-05
230	0x393ad234	0.00017816649
231	0xb9e2b72a	-0.00043242547
232	0x39d636fd	0.0004085823
233	0x3a1921de	0.00058415334
234	0x39550e06	0.00020318487
235	0xb8d68280	-0.00010228623
236	0xba32ae0c	-0.0006816096
237	0x36de1b8f	6.619324e-06
238	0x3a2f4f1f	0.000668751
239	0x3a1b0dd4	0.00059148413
240	0xb991ed55	-0.0002783338
241	0xb970dc9c	-0.00022970367
242	0xb99eaef8	-0.0003026647
243	0xba2d4116	-0.0006609125
244	0xb9d3c3f1	-0.00040391044
245	0xb939e824	-0.00017729454
246	0xb9ccd7b2	-0.00039070618
247	0x3a1847eb	0.00058090565
248	0xb9dc99d5	-0.00042076284
249	0xba4361e4	-0.00074532465
250	0xba0df76d	-0.00054155925
251	0xb963925d	-0.00021702932
252	0x3a8afc48	0.001060375
253	0xba1b9f8c	-0.0005936555
254	0xb985b9e4	-0.00025506236
255	0xb9936381	-0.0002811216

lstm_layer.lstm1.weight_hh_l0 f4 [200, 50]
0	0xb8a0b47c	-7.6630124e-05
1	0xb8935dbe	-7.026967e-05
2	0xb81e3347	-3.771789e-05
3	0x383309f8	4.268621e-05
4	0x3814cbfb	3.547592e-05
5	0xb782088f	-1.5501193e-05
6	0x3629648a	2.5241484e-06
7	0x36f61871	7.3342167e-06
8	0xb7cb174d	-2.4210336e-05
9	0xb7d08b6a	-2.4860452e-05
10	0x373c5f92	1.1227925e-05
11	0xb7b04d12	-2.1016724e-05
12	0x395d4ef1	0.0002110561
13	0x3825690e	3.9436905e-05
14	0x37614bda	1.3428706e-05
15	0x38778391	5.901192e-05
16	0xb62333bc	-2.4319006e-06
17	0xb84fc7a3	-4.9538572e-05
18	0xb93186df	-0.00016930279
19	0x36dd41ea	6.5939867e-06
20	0x37dd26e3	2.6363361e-05
21	0x35ff5b94	1.9025633e-06
22	0x37c5ec84	2.3594366e-05
23	0xb90ff506	-0.00013728821
24	0xb5da3636	-1.6258043e-06
25	0x36f6088d	7.3323667e-06
26	0x375681c5	1.2785608e-05
27	0xb6ea9bc9	-6.991879e-06
28	0x37e097c8	2.677356e-05
29	0xb6c506f9	-5.8718692e-06
30	0xb6304739	-2.62675e-06
31	0x38208dd8	3.8279075e-05
32	0xb848cc23	-4.7873833e-05
33	0x3855ff26	5.1020783e-05
34	0x35994fa2	1.1422565e-06
35	0xb7e112b7	-2.6830805e-05
36	0xb6c047af	-5.730391e-06
37	0xb7472542	-1.1869999e-05
38	0xb6e6089f	-6.855538e-06
39	0xb8c0a644	-9.186243e-05
40	0xb8ec971b	-0.000112815025
41	0x384670b1	4.731183e-05
42	0x376ac0c2	1.3992367e-05
43	0xb7025c55	-7.770102e-06
44	0xb6c99f70	-6.0088278e-06
45	0x363bab31	2.7964818e-06
46	0x38032e94	3.1276213e-05
47	0xb8ed42a2	-0.00011313452
48	0x38ccc1bb	9.763563e-05
49	0xb8a8b323	-8.044231e-05
50	0x36bf78b1	5.706294e-06
51	0x38e2f6b0	0.00010822469
52	0xb8668e12	-5.4968586e-05
53	0xb88b4ba8	-6.6421286e-05
54	0xb8b183e8	-8.464587e-05
55	0xb7014683	-7.7054165e-06
56	0xb81c8ab4	-3.7322476e-05
57	0x38b20e1f	8.490332e-05
58	0x3838f93b	4.4101133e-05
59	0x38e0385f	0.00010691652
60	0xb5bc6d0b	-1.4038827e-06
61	0xb7481392	-1.19254855e-05
62	0xb6334409	-2.671268e-06
63	0x384ba9fb	4.855728e-05
64	0xb7795404	-1.4861118e-05
65	0xb85067e7	-4.968783e-05
66	0x3793ee47	1.7634722e-05
67	0xb7bb2392	-2.23087e-05
68	0x39207811	0.00015303517
69	0xb7af2893	-2.088052e-05
70	0xb673f39f	-3.6351628e-06
71	0xb7870e33	-1.6099866e-05
72	0x3875e6ff	5.8627684e-05
73	0x38826ba2	6.218931e-05
74	0x37371dad	1.0914559e-05
75	0x3666ebc3	3.4409902e-06
76	0x389875b9	7.269852e-05
77	0x36e79638	6.9018242e-06
78	0xb8cabaa7	-9.666877e-05
79	0x37bebfaa	2.2739016e-05
80	0x3811e584	3.4784447e-05
81	0x36c5d039	5.895298e-06
82	0x38981de4	7.2534924e-05
83	0xb747c38c	-1.1906854e-05
84	0xb6d871bb	-6.4505416e-06
85	0x389d8db2	7.512736e-05
86	0xb815485f	-3.559177e-05
87	0xb848462e	-4.7749076e-05
88	0xb70f739e	-8.550383e-06
89	0x370986f9	8.197262e-06
90	0x39d1d1b6	0.00040019833
91	0xb8573624	-5.1310417e-05
92	0xb67b61b3	-3.7458783e-06
93	0x359f1b9b	1.1854457e-06
94	0x360d2031	2.1029375e-06
95	0xb7d27336	-2.50876e-05
96	0x38744f0b	5.8247748e-05
97	0xb727cf90	-1.0002303e-05
98	0xb97e5d18	-0.00024258008
99	0x3609fdeb	2.056239e-06
100	0xb7378ef6	-1.0940936e-05
101	0x38259c0c	3.9484396e-05
102	0xb81bbbc5	-3.7129754e-05
103	0x385d47da	5.2757423e-05
104	0xb6fe430f	-7.5775965e-06
105	0xb7e82280	-2.767262e-05
106	0x38814731	6.16446e-05
107	0x3819f4be	3.6705977e-05
108	0xb6860c0c	-3.9949136e-06
109	0x381d826a	3.7553174e-05
110	0x36f51f8d	7.305242e-06
111	0xb723c34a	-9.761026e-06
112	0x39cae015	0.00038695397
113	0xb728761f	-1.00410825e-05
114	0x37563b7e	1.2769246e-05
115	0xb798b03f	-1.8201883e-05
116	0xb6ba2ab7	-5.5482046e-06
117	0xb79a18f9	-1.836986e-05
118	0xb9565641	-0.00020440762
119	0xb6f23dc2	-7.2193516e-06
120	0x35b67a1d	1.3595596e-06
121	0xb7088a16	-8.138382e-06
122	0x381bdc3c	3.715999e-05
123	0xb81d8d82	-3.7563506e-05
124	0xb7589ee1	-1.2911595e-05
125	0xb549f0fa	-7.5229e-07
126	0x378f5c71	1.7089975e-05
127	0xb6811fff	-3.8482244e-06
128	0xb816a2ff	-3.591459e-05
129	0xb6e2b9cf	-6.756956e-06
130	0x380f94d2	3.4232457e-05
131	0x3509921b	5.124909e-07
132	0x3762cbbe	1.3518087e-05
133	0xb6eb699a	-7.0158394e-06
134	0x383db558	4.523e-05
135	0x37a0633e	1.91197e-05
136	0xb7a817fe	-2.0038333e-05
137	0xb7aea795	-2.0820453e-05
138	0x3664fc21	3.4121406e-06
139	0xb774ea74	-1.4598121e-05
140	0x390e6f83	0.00013583717
141	0x3865c895	5.478466e-05
142	0x37c1a0c6	2.3082259e-05
143	0xb7e9666d	-2.782346e-05
144	0xb71b609b	-9.261213e-06
145	0xb73e28f3	-1.1334417e-05
146	0xb791d51a	-1.738458e-05
147	0xb7f53a53	-2.9233435e-05
148	0x39468721	0.00018933091
149	0xb71406d9	-8.823082e-06
150	0x38840063	6.2943225e-05
151	0xb767cdcf	-1.38165915e-05
152	0xb701b41b	-7.730933e-06
153	0x37bd4e42	2.2566997e-05
154	0x38ebf115	0.00011250578
155	0xb66bfb47	-3.5163991e-06
156	0x3808af54	3.2588214e-05
157	0xb8a4dd56	-7.8613564e-05
158	0x37655a92	1.3670551e-05
159	0xb7ca7391	-2.4134091e-05
160	0xb77ab57a	-1.49434145e-05
161	0xb796ab82	-1.7961258e-05
162	0x39f5b337	0.00046863567
163	0x376b182a	1.4012718e-05
164	0xb6b71efb	-5.4574316e-06
165	0x3810dd3b	3.4538312e-05
166	0xb787bb4d	-1.6180473e-05
167	0xb6c35abb	-5.8220153e-06
168	0xb86a6dac	-5.5892087e-05
169	0xb692154d	-4.353619e-06
170	0x36bb80af	5.588015e-06
171	0x378933c8	1.6355785e-05
172	0xb8b08847	-8.4177176e-05
173	0xb73e9785	-1.1360161e-05
174	0x373554f7	1.0808223e-05
175	0x369a45bd	4.5976763e-06
176	0xb7f49c8f	-2.915997e-05
177	0xb6eae9d4	-7.0009646e-06
178	0x38939b47	7.038429e-05
179	0x3709ab4b	8.205719e-06
180	0xb838678a	-4.3965447e-05
181	0x35c81c24	1.4909351e-06
182	0x3713f3bf	8.818634e-06
183	0x368169e0	3.856825e-06
184	0xb751448b	-1.247333e-05
185	0xb8133c1d	-3.5103516e-05
186	0x3773c4e7	1.4529774e-05
187	0x36a15de7	4.8091056e-06
188	0x381c2911	3.7231544e-05
189	0x36bafc03	5.57257e-06
190	0xb9c214e0	-0.00037018117
191	0x378757d1	1.6134147e-05
192	0x378e0e32	1.693433e-05
193	0xb6e77e35	-6.899029e-06
194	0xb7067dc9	-8.016309e-06
195	0x383c9e7d	4.4970297e-05
196	0x38334a58	4.2746164e-05
197	0x3713dd27	8.813374e-06
198	0x3948d76f	0.00019153742
199	0x3786a2c1	1.6049833e-05
200	0x36a18c91	4.814538e-06
201	0x37aff312	2.0974814e-05
202	0xb75d81a7	-1.32028135e-05
203	0xb7e5138e	-2.7308033e-05
204	0xb7f98ddc	-2.9749172e-05
205	0x3683e88b	3.931176e-06
206	0xb7b8d93c	-2.2035667e-05
207	0x37fbb989	3.0007928e-05
208	0xb72141b2	-9.611644e-06
209	0x37d0aba9	2.4875468e-05
210	0x3740a9d6	1.1483635e-05
211	0x3700ca81	7.676544e-06
212	0xb91bb6a7	-0.00014849995
213	0xb7a330e6	-1.9453884e-05
214	0x3696f20c	4.4985263e-06
215	0xb7907b79	-1.7223634e-05
216	0x369b7527	4.6329983e-06
217	0xb7d99238	-2.5936504e-05
218	0x38bc0c8f	8.966878e-05
219	0x36598c13	3.2417054e-06
220	0x369a8784	4.6053337e-06
221	0xb7f2b698	-2.8933675e-05
222	0x37e4cef2	2.7276084e-05
223	0xb5151002	-5.553012e-07
224	0x36a7d6b3	5.001982e-06
225	0xb6b85291	-5.4932393e-06
226	0x38292a4d	4.0332136e-05
227	0xb59f3b99	-1.1863768e-06
228	0xb81644c7	-3.582684e-05
229	0xb69d21ad	-4.682885e-06
230	0x3855b5ad	5.0952356e-05
231	0x35eead90	1.7782895e-06
232	0xb6ed6a53	-7.075528e-06
233	0x37088bc1	8.138771e-06
234	0x36bd568b	5.642714e-06
235	0x3733cf67	1.0717521e-05
236	0xb6d7d9b2	-6.4328424e-06
237	0xb61c356e	-2.3276912e-06
238	0xb5d810b4	-1.6098115e-06
239	0x371fdaf8	9.528121e-06
240	0x390772ee	0.00012917418
241	0xb786774e	-1.60296e-05
242	0xb7a64958	-1.9822895e-05
243	0xb5eab3f5	-1.7486733e-06
244	0x376d27c9	1.4135564e-05
245	0xb6917e2e	-4.336026e-06
246	0xb7992afa	-1.8259034e-05
247	0x36f6c295	7.3540236e-06
248	0xb87e494e	-6.062659e-05
249	0x36159a4e	2.2292547e-06
250	0x36e60a1d	6.8557115e-06
251	0x36ba3cb3	5.5502983e-06
252	0xb8888956	-6.510566e-05
253	0x38ea3eb4	0.00011169669
254	0xb7440014	-1.1682529e-05
255	0xb405ce85	-1.2461722e-07

lstm_layer.lstm1.bias_ih_l0 f4 [200]
0	0xb9cfbc47	-0.00039622394
1	0xbb82ce19	-0.003991854
2	0xbb14fd17	-0.002273386
3	0x3b078c3e	0.0020682956
4	0xbb5457a4	-0.003240087
5	0x379cf2a0	1.870963e-05
6	0xba18acb7	-0.00058240764
7	0xbb0210d5	-0.0019846458
8	0xba7c2608	-0.0009618704
9	0xba84de31	-0.0010137019
10	0xba011f72	-0.0004925645
11	0x393d06f1	0.0001802703
12	0x3c79487e	0.015215037
13	0xb9168632	-0.00014355106
14	0x3a2e982e	0.000666025
15	0xb9df51ca	-0.00042594812
16	0xba822040	-0.0009927824
17	0xbabc868e	-0.0014383362
18	0xbb1bdf6b	-0.002378429
19	0xb9165efe	-0.00014340502
20	0xba8d106a	-0.0010762338
21	0xb9aa336d	-0.00032463242
22	0xb980ca78	-0.00024564913
23	0x3ad8e72e	0.0016548389
24	0xbb2b3a51	-0.0026127289
25	0xba700a0e	-0.00091567717
26	0xbaa66f1d	-0.0012697909
27	0xba327ddc	-0.00068089156
28	0xbaa12ad0	-0.0012296084
29	0xb91e4230	-0.00015092711
30	0xba927025	-0.0011172338
31	0xb94b0548	-0.00019361556
32	0xba467085	-0.00075698673
33	0xb8bc5187	-8.979724e-05
34	0xbb188013	-0.0023269698
35	0xbac3a834	-0.0014927448
36	0xba03ecb6	-0.0005032526
37	0xbb871cfc	-0.0041233283
38	0xb9b5eedd	-0.00034700977
39	0x39d6b2e8	0.00040950556
40	0x3bfd2ec6	0.007726523
41	0x3b0f19df	0.0021835489
42	0xbaac74b2	-0.0013157337
43	0xba3e0df3	-0.00072500034
44	0xba9a153f	-0.0011755599
45	0xbaef1f18	-0.001824352
46	0x3b690a43	0.0035559095
47	0x39d47d97	0.00040529363
48	0xbb5317ce	-0.0032210234
49	0xbaafa2e9	-0.0013399991
50	0xb9eb9158	-0.00044930982
51	0xbb834f76	-0.004007275
52	0xbaf74514	-0.0018865191
53	0x3ad1c9d4	0.0016005584
54	0xbb2e052d	-0.0026553378
55	0xb68dc33c	-4.2248557e-06
56	0xba12c6db	-0.000559909
57	0xbae8510e	-0.0017724351
58	0xba172a55	-0.0005766501
59	0xba7a90db	-0.00095583283
60	0xb9da80c7	-0.00041676147
61	0x3945a100	0.00018847361
62	0x3c54e574	0.012994159
63	0xba095d23	-0.00052400137
64	0x3a0bb595	0.0005329487
65	0xba12fb84	-0.0005606937
66	0xba82a1c4	-0.0009966423
67	0xbaa117ac	-0.001229038
68	0xbb2aea7b	-0.0026079703
69	0xb752836f	-1.2547577e-05
70	0xba60a29a	-0.00085691514
71	0xb9962364	-0.00028636598
72	0xb926fb6a	-0.00015924653
73	0x3a9ea928	0.0012104856
74	0xbb17dad4	-0.0023171203
75	0xba48a7bf	-0.00076543906
76	0xba586fd0	-0.00082564075
77	0xba1c18af	-0.0005954606
78	0xbaaf4f50	-0.0013375077
79	0x399f603c	0.00030398543
80	0xba90f5e5	-0.001105961
81	0xb9584515	-0.000206251
82	0xba3a18c2	-0.0007099026
83	0x38c2edc4	9.294928e-05
84	0xbb019176	-0.001977054
85	0xbaa0d4d7	-0.0012270462
86	0xb9d77dbb	-0.00041101672
87	0xbb650f7f	-0.0034951863
88	0xb986ef44	-0.00025736738
89	0x3a031fcb	0.0005001991
90	0x3bccc3d4	0.0062489305
91	0x3adeb771	0.0016991926
92	0xba837885	-0.0010030424
93	0xb9d6b930	-0.00040955236
94	0xba92ccdd	-0.001119997
95	0xba9b51a6	-0.0011849895
96	0x3b0d8244	0.0021592537
97	0x3994a82a	0.00028354052
98	0xbb592e79	-0.0033139272
99	0xba86d2d1	-0.0010286217
100	0x3c0818ef	0.008306726
101	0xbada86fa	-0.0016672306
102	0xbb22a63b	-0.002481832
103	0xbb233991	-0.0024906138
104	0x3c5f2a0f	0.013620867
105	0x3ad35c22	0.001612548
106	0x3bf7d480	0.007563174
107	0xbbc26456	-0.005932371
108	0x3a9e05a7	0.0012056128
109	0xbb6cb1cf	-0.0036116724
110	0xbb100cf5	-0.002198038
111	0x3bb2dcac	0.005458435
112	0x3c540eac	0.012942951
113	0xb9b3b4e8	-0.00034276326
114	0xbae9ea2c	-0.0017846278
115	0xbac57ef8	-0.0015067747
116	0xbbb842aa	-0.0056231814
117	0x3bb02afe	0.005376219
118	0xbbf821f1	-0.0075724055
119	0x3b0e6ab3	0.0021731078
120	0xbb617707	-0.0034403221
121	0x3b8aec04	0.004239561
122	0xbc084593	-0.008317369
123	0x3bc64804	0.0060510654
124	0x3ba2bd26	0.004966396
125	0x3a941eca	0.001130068
126	0xbc2c04b0	-0.010499164
127	0xbb10e99f	-0.0022111905
128	0x3beabd7a	0.0071637006
129	0x3b576119	0.0032864271
130	0xbbbf2912	-0.0058337534
131	0x3aadda11	0.0013263841
132	0x3bd009c3	0.00634882
133	0xbc350b59	-0.011050069
134	0xbc0f675e	-0.008752672
135	0x3baaaf8f	0.0052089165
136	0x3b2d5b6c	0.0026452197
137	0xba086a02	-0.00052037847
138	0x3b9420d2	0.004520514
139	0x3ba70ea7	0.0050981822
140	0xbc2e4f91	-0.010639087
141	0xbb2de930	-0.0026536696
142	0x3b668a2f	0.0035177579
143	0x3a29f33d	0.00064830837
144	0xbbfd2b6a	-0.0077261226
145	0x3b20c1c6	0.002452956
146	0x3b5a6408	0.0033323783
147	0x3c4edadf	0.012625425
148	0x3bb5d1ea	0.0055487053
149	0x3c42985c	0.011877146
150	0xb9ac8264	-0.00032903545
151	0xbb875566	-0.0041300533
152	0xbb15e6cc	-0.0022873161
153	0x3b059d12	0.002038781
154	0xbb52bc6d	-0.0032155768
155	0x3784e041	1.5840053e-05
156	0xba148b59	-0.00056665164
157	0xbb039902	-0.0020080213
158	0xba62fcef	-0.0008658906
159	0xba941dbe	-0.0011300368
160	0xba06399c	-0.0005120279
161	0x391e0da6	0.00015073139
162	0x3ca17445	0.019708762
163	0xb93f6910	-0.00018254318
164	0x3a29d5ca	0.00064786954
165	0xba018641	-0.0004940965
166	0xba952e1c	-0.001138154
167	0xbab17666	-0.0013539314
168	0xbae2a868	-0.0017292621
169	0x38af1fd9	8.350582e-05
170	0xba8e9b3a	-0.0010880001
171	0xb9a4ed42	-0.00031457288
172	0xb993c63f	-0.0002818573
173	0x3ad49b95	0.0016220683
174	0xbb29952e	-0.0025876272
175	0xba6ff838	-0.0009154114
176	0xba9d436d	-0.0011998244
177	0xba32a1cc	-0.0006814271
178	0xbabc0b48	-0.0014346624
179	0x370619b6	7.993009e-06
180	0xba8b57ba	-0.0010631003
181	0xb94d1b63	-0.00019560526
182	0xba41d317	-0.00073938206
183	0xb932888d	-0.00017026272
184	0xbb174833	-0.0023083806
185	0xbac590c1	-0.0015073047
186	0xba0a1a29	-0.00052681804
187	0xbb8ea739	-0.0043534306
188	0xba034f59	-0.0005009077
189	0x39748d2f	0.00023322248
190	0x3c24e60d	0.010064614
191	0x3af8359f	0.0018936879
192	0xbaacbbc6	-0.001317852
193	0xba27029b	-0.00063709327
194	0xba8ce600	-0.0010749698
195	0xbb04a845	-0.0020241898
196	0x3b4aa5c7	0.0030921565
197	0x39d7c4c0	0.00041154586
198	0xbb31245c	-0.0027029729
199	0xbab05c5d	-0.0013455261

lstm_layer.lstm1.bias_hh_l0 f4 [200]
0	0xb9b9a0d2	-0.0003540577
1	0xbb7a180d	-0.0038161308
2	0xbb15baf0	-0.002284702
3	0x3b0f8dda	0.0021904618
4	0xbb545a52	-0.0032402468
5	0x3726c7bd	9.940876e-06
6	0xba18b13e	-0.0005824751
7	0xbb034188	-0.0020028073
8	0xba5eb21b	-0.0008495168
9	0xba98826d	-0.001163555
10	0xba0b3850	-0.00053108204
11	0x38d94959	0.000103610284
12	0x3c794878	0.015215032
13	0xb9b39d1b	-0.00034258593
14	0x3a2f1b7d	0.0006679816
15	0xb9d67254	-0.00040902442
16	0xba90a5ef	-0.001103578
17	0xbaaedade	-0.0013340374
18	0xbb1c8cd5	-0.0023887653
19	0xb8e9ac40	-0.0001114239
20	0xba8dadfe	-0.00108093
21	0xb9a80890	-0.00032049837
22	0xb999e666	-0.00029354094
23	0x3ada060d	0.0016633883
24	0xbb2b6b53	-0.00261565
25	0xba6bef53	-0.00090002007
26	0xbaa77739	-0.001277662
27	0xba33ad05	-0.000685409
28	0xbaa0cf9d	-0.0012268905
29	0x3965ffe6	0.00021934471
30	0xba9e6537	-0.0012084608
31	0xb94c3d5c	-0.00019477814
32	0xba467324	-0.0007570258
33	0xb8bc7414	-8.98616e-05
34	0xbb14a426	-0.0022680848
35	0xbacfbe22	-0.0015849511
36	0xba0d67ef	-0.00053942105
37	0xbb858108	-0.0040742196
38	0xb9de7f2b	-0.00042437887
39	0x39d9e371	0.00041558922
40	0x3bfd2e9a	0.0077265026
41	0x3b0ef018	0.0021810587
42	0xbaa9dbdb	-0.0012959199
43	0xba264367	-0.0006342441
44	0xba9a19c5	-0.0011756947
45	0xbaef0ba9	-0.0018237728
46	0x3b42adea	0.0029705712
47	0x39d3f24e	0.00040425587
48	0xbb5313f0	-0.0032207929
49	0xbaaf7ca7	-0.001338859
50	0xb9dcfdad	-0.00042150673
51	0xbb78cd42	-0.003796414
52	0xbb0146ab	-0.001972596
53	0x3af5b67e	0.0018746404
54	0xbb2dae03	-0.0026501424
55	0x36e74c51	6.893221e-06
56	0xba15b66f	-0.00057110836
57	0xbaccc9e2	-0.0015624131
58	0xba4e5f4b	-0.0007872476
59	0xba77a646	-0.0009447079
60	0xb9e8ceaa	-0.00044404465
61	0x3946246c	0.0001889632
62	0x3c5514be	0.013005434
63	0xb9f06ef8	-0.00045859045
64	0x3994b5a9	0.00028364107
65	0xb9d87748	-0.00041287602
66	0xba7ad6b2	-0.0009568735
67	0xbabda108	-0.0014467547
68	0xbb2b2a29	-0.0026117659
69	0x39360a2e	0.00017360665
70	0xba6032ef	-0.00085525116
71	0xb980970a	-0.00024526595
72	0xb9015d94	-0.00012337259
73	0x3a84882f	0.0010111387
74	0xbb150c04	-0.0022742758
75	0xba458e94	-0.00075361994
76	0xba8dc76c	-0.0010816879
77	0xba22b3ab	-0.0006206582
78	0xbaae84c8	-0.0013314718
79	0xb8203110	-3.8192666e-05
80	0xba93dddd	-0.001128133
81	0xb986eec8	-0.00025736378
82	0xba30ba25	-0.0006741605
83	0x39002b31	0.00012223121
84	0xbb018c00	-0.0019767284
85	0xbaa0a436	-0.001225597
86	0xb9d5dbf1	-0.00040790395
87	0xbb80c403	-0.0039296164
88	0xb95d5665	-0.00021108387
89	0x3a0018ea	0.0004886525
90	0x3bccc0f3	0.0062485873
91	0x3b0c6e8b	0.0021428193
92	0xba7a37cb	-0.0009545057
93	0xb9d695f7	-0.00040928993
94	0xba862a02	-0.0010235908
95	0xba977450	-0.001155505
96	0x3b4be1df	0.0031109971
97	0x398101ce	0.00024606142
98	0xbb596094	-0.0033169137
99	0xba899e28	-0.0010499405
100	0x3c08270e	0.008310093
101	0xbada86f2	-0.0016672297
102	0xbb22a637	-0.002481831
103	0xbb2314a3	-0.0024884127
104	0x3c5cdac0	0.013479888
105	0x3ad70968	0.0016406002
106	0x3bf2b32a	0.007406612
107	0xbbc26451	-0.005932369
108	0x3a9cd92a	0.0011966575
109	0xbb6c96fc	-0.0036100736
110	0xbb0f7ea2	-0.0021895547
111	0x3bb2dd70	0.0054585263
112	0x3c53f85a	0.01293763
113	0xb9b3e630	-0.00034313044
114	0xbaea17de	-0.0017859896
115	0xbac651d9	-0.0015130594
116	0xbbb833f4	-0.0056214277
117	0x3bb0241d	0.005375399
118	0xbc027e24	-0.007964645
119	0x3b0e5fc4	0.0021724561
120	0xbb61c684	-0.00344506
121	0x3b8aec03	0.0042395606
122	0xbc084b3f	-0.008318721
123	0x3bc655af	0.0060526947
124	0x3ba2bce5	0.0049663656
125	0x3a92f8f8	0.0011213114
126	0xbc2c0573	-0.010499346
127	0xbb109799	-0.0022063015
128	0x3beabc9c	0.0071635973
129	0x3b574eb2	0.0032853303
130	0xbbbf7be1	-0.005843625
131	0x3aae3550	0.0013291035
132	0x3bcf040e	0.006317622
133	0xbc3507b9	-0.0110492045
134	0xbc0f689d	-0.008752969
135	0x3baab355	0.0052093663
136	0x3b2d5c09	0.0026452562
137	0xba086f50	-0.0005204575
138	0x3b942165	0.0045205825
139	0x3ba6c4b2	0.005089366
140	0xbc296520	-0.0103390515
141	0xbb2ddf17	-0.0026530677
142	0x3b658c76	0.0035026348
143	0x3a29f7f1	0.00064837845
144	0xbbfc9256	-0.0077078743
145	0x3b20a5cf	0.0024512892
146	0x3b59eafd	0.0033251636
147	0x3c509543	0.012730899
148	0x3bb0d2a7	0.0053962055
149	0x3c426149	0.011864015
150	0xb989a3b5	-0.00026252648
151	0xbb89f8fd	-0.00421059
152	0xbb0b63fa	-0.0021269307
153	0x3b19361f	0.0023378206
154	0xbb52c7a8	-0.0032162461
155	0x37941672	1.7653427e-05
156	0xba1491c8	-0.0005667475
157	0xbb012a87	-0.0019709186
158	0xba7b91a0	-0.000959659
159	0xba84f902	-0.0010145011
160	0xb9fda8b9	-0.0004838163
161	0x390a6307	0.00013197596
162	0x3ca18550	0.019716889
163	0xb9cc5140	-0.00038970448
164	0x3a2e6496	0.0006652562
165	0xb9e5668d	-0.0004375469
166	0xba95446c	-0.0011388189
167	0xbaa2cd02	-0.0012420716
168	0xbae30954	-0.0017321506
169	0xb98d4f97	-0.00026952915
170	0xba8e7479	-0.0010868452
171	0xb9a2cf38	-0.00031053438
172	0xb95ed57e	-0.00021251102
173	0x3ad52c78	0.0016263863
174	0xbb2ac596	-0.0026057712
175	0xba7024fe	-0.00091607857
176	0xbaa75c22	-0.0012768547
177	0xba3295ee	-0.00068125024
178	0xbab85a00	-0.0014064908
179	0x39420199	0.00018501877
180	0xba9d9d27	-0.0012024984
181	0xb98a6a9a	-0.00026400835
182	0xba4189e1	-0.0007382911
183	0xb936fb02	-0.0001745038
184	0xbb174f01	-0.0023087861
185	0xbaca8f9c	-0.0015454176
186	0xba0a4850	-0.00052750576
187	0xbb8977bb	-0.004195181
188	0xb9efbf99	-0.00045728384
189	0x39c7ef90	0.00038134726
190	0x3c24ed94	0.010066409
191	0x3b0c84e5	0.0021441516
192	0xbaaca834	-0.0013172687
193	0xba2ed04d	-0.00066686125
194	0xba9327cf	-0.0011227074
195	0xbae79b5c	-0.0017670202
196	0x3b536110	0.0032253899
197	0x39dab49c	0.00041714765
198	0xbb30b580	-0.0026963651
199	0xbab08e60	-0.0013470165

gbrbm.W f4 [50, 100]
0	0xba6c124b	-0.00090054114
1	0xbb560590	-0.0032657124
2	0xbac6dd38	-0.001517213
3	0xba6e4ab9	-0.0009090114
4	0xbb37243d	-0.0027945184
5	0x39bc384e	0.00035900105
6	0x3aa11850	0.0012290571
7	0xb9c3e4ca	-0.0003736376
8	0x3a935d48	0.001124301
9	0xbaa62863	-0.0012676831
10	0x3b0f7f5d	0.0021895983
11	0x3a0b342a	0.0005310202
12	0xbb45c77f	-0.0030178723
13	0x39d09800	0.000397861
14	0x3a8acb77	0.0010589202
15	0xbaf51feb	-0.0018701529
16	0xbbc2400a	-0.005928044
17	0x39cde96a	0.00039274554
18	0xbaa43201	-0.0012527109
19	0xba8da954	-0.001080791
20	0xbab7cc4e	-0.001402268
21	0x3ae6f500	0.0017620623
22	0xbaf3b5bd	-0.0018593591
23	0x3b0ad141	0.0021181854
24	0xb9dfe620	-0.0004270533
25	0xbaf4d1da	-0.0018678263
26	0x39369d64	0.00017415505
27	0xba42df3d	-0.0007433778
28	0xbafef0a6	-0.0019450381
29	0xba8f3581	-0.001092598
30	0xbb5b21cf	-0.00334369
31	0xb99ca486	-0.00029877218
32	0xba6ae270	-0.00089601334
33	0xbadbf4e1	-0.0016781354
34	0xba754f84	-0.0009357857
35	0xbb250d44	-0.002518491
36	0x3b2179ec	0.0024639321
37	0xb99f01d5	-0.00030328208
38	0xba6bf9b4	-0.0009001747
39	0xbab55c26	-0.0013836666
40	0xb9cb922f	-0.00038828093
41	0x395cec33	0.00021068826
42	0xb96a2a44	-0.00022331724
43	0xbb22f7b9	-0.0024866892
44	0xbaa6d1d9	-0.0012727334
45	0x3b363c33	0.0027806878
46	0xbadb94a3	-0.0016752671
47	0xbb659ee9	-0.0035037345
48	0xbb102ea4	-0.0022000456
49	0xba1c58de	-0.000596417
50	0xb9826740	-0.0002487246
51	0xbad31064	-0.0016102907
52	0xba831594	-0.0010000938
53	0xb889df73	-6.57429e-05
54	0xbb4e4d23	-0.0031479083
55	0xb9e1311f	-0.00042951942
56	0xbaeff79a	-0.0018308044
57	0xb9b10669	-0.00033764847
58	0xbad6738c	-0.001636134
59	0x3a3eee8d	0.00072834716
60	0x3a017caf	0.0004939539
61	0xbb4a6c49	-0.0030887297
62	0x3a3b6fee	0.0007150163
63	0xb884e5ad	-6.337031e-05
64	0x3b0e7b46	0.0021740957
65	0xbab68788	-0.001392589
66	0xba2141b2	-0.0006151452
67	0x3b3906cf	0.0028232818
68	0xb98398d0	-0.0002510012
69	0xbb23fcca	-0.00250225
70	0xbb5012a1	-0.0031749385
71	0xba32bee2	-0.0006818605
72	0xbb0cc8a8	-0.0021481905
73	0xb93045f6	-0.0001681073
74	0xb91babc7	-0.00014845944
75	0xb9a7be1e	-0.0003199437
76	0x3b0b0955	0.002121528
77	0xbaf847c4	-0.0018942286
78	0xba2b828b	-0.0006542585
79	0xba9e39bb	-0.0012071648
80	0xbb0ea59d	-0.0021766194
81	0x3b2d8655	0.0026477773
82	0x3b3f8245	0.0029221934
83	0xb9f2ee33	-0.0004633531
84	0xb9861069	-0.00025570698
85	0x3a20880a	0.0006123787
86	0xba9109b2	-0.0011065511
87	0x3b568f94	0.0032739388
88	0xbb1a3f51	-0.0023536275
89	0xb99df309	-0.0003012645
90	0x3959ac58	0.00020758936
91	0x3b0b3b4a	0.0021245056
92	0xbae81ee5	-0.0017709403
93	0xba922f34	-0.0011152984
94	0xba2851aa	-0.00064208603
95	0xba9d780a	-0.0012013924
96	0x39f6ea02	0.00047095126
97	0x39a39d78	0.00031207106
98	0x3aced7ce	0.0015780868
99	0xb98d7a0c	-0.00026984548
100	0x3a2ff982	0.00067129
101	0xba98c281	-0.0011654646
102	0x3b61a463	0.0034430258
103	0xba303b91	-0.0006722743
104	0x39d66ab7	0.0004089677
105	0xb99df6a1	-0.00030129126
106	0x3a81e7bb	0.000991098
107	0x39ef27ac	0.0004561519
108	0x3b3b9433	0.002862227
109	0x3a91b6ee	0.0011117139
110	0xba9aed9c	-0.0011820081
111	0x3a66d50f	0.0008805552
112	0x3acbd4de	0.001555111
113	0x3a89f09b	0.0010523977
114	0xb83f8ded	-4.5670127e-05
115	0x3aeed6c6	0.0018221966
116	0x3a4b4bf5	0.0007755154
117	0x3aeefb23	0.0018232804
118	0x3a7289ba	0.000925209
119	0xbaecbc1c	-0.0018061432
120	0x39d68026	0.0004091274
121	0x3aaab9ed	0.0013025381
122	0xba89c73a	-0.0010511645
123	0x3a7c1dbc	0.0009617468
124	0x3ab6f073	0.0013957157
125	0xbb139c37	-0.0022523531
126	0x3acb058f	0.0015489327
127	0x3b661d19	0.0035112558
128	0xbace4b39	-0.0015738971
129	0x3a804796	0.0009786959
130	0xbb5bba60	-0.0033527836
131	0x3ae0214e	0.0017099769
132	0xb99423b6	-0.00028255366
133	0xbb3d70e4	-0.00289064
134	0x3b034f5f	0.0020036323
135	0x3937fec8	0.00017547153
136	0xba05f09b	-0.00051094004
137	0x3b52a993	0.003214453
138	0xba625d51	-0.0008635121
139	0xba9ab2d0	-0.0011802558
140	0x3a7aed29	0.0009572083
141	0x3b21bee0	0.002468042
142	0x3af17e92	0.0018424562
143	0x3b3df942	0.002898768
144	0xb946f650	-0.0001897451
145	0x3b0b0287	0.0021211223
146	0xbac7ce12	-0.0015243909
147	0xbabaf459	-0.0014263495
148	0xb9e758ab	-0.00044125816
149	0x3b221c1e	0.0024735997
150	0xbabbd70a	-0.0014331054
151	0x3a5b0c35	0.0008356006
152	0x3a878862	0.0010340328
153	0x3b29bfb8	0.0025901627
154	0xbabe7eb5	-0.0014533611
155	0xb9f0689d	-0.0004585431
156	0x39842117	0.00025201656
157	0x3a1f9b60	0.00060885213
158	0x3a9bfc23	0.0011900704
159	0x3b1e3cb4	0.0024145069
160	0x3b46cf8c	0.003033611
161	0xbabce187	-0.0014410474
162	0xb9e1983f	-0.00043028776
163	0x3a1b383b	0.000592116
164	0x3b3f36b1	0.0029176886
165	0x3abaa273	0.0014239087
166	0xb9971b02	-0.00028821087
167	0x3b21d261	0.0024692046
168	0xba2c015c	-0.0006561482
169	0xba3cb897	-0.0007199137
170	0xbae7548a	-0.0017649096
171	0x3b00e329	0.0019666648
172	0xb901c406	-0.00012375423
173	0x3b163e92	0.0022925478
174	0xbafbd82b	-0.0019214203
175	0x3b3e326c	0.0029021753
176	0x3ad7b4b2	0.001645705
177	0x39c58149	0.00037671093
178	0x3a4f55bb	0.0007909198
179	0x3992e609	0.0002801868
180	0x3aae09a8	0.0013278024
181	0x3b03fb3e	0.0020138766
182	0xb96b344a	-0.00022430826
183	0x3b571dec	0.0032824231
184	0x3a9c40b5	0.001192114
185	0xbad8b02f	-0.0016531999
186	0xbacc46e5	-0.0015585093
187	0xba598691	-0.0008297945
188	0x3ac27aea	0.0014837657
189	0xb772a023	-1.4461609e-05
190	0xba8609ca	-0.0010226306
191	0x3af1ab89	0.0018437962
192	0x3a41cce1	0.0007392895
193	0x3a06be19	0.0005140021
194	0x3a48b047	0.0007655662
195	0xbb173d4c	-0.0023077307
196	0x3a4e7b7a	0.0007876676
197	0x3aa59ff1	0.0012636167
198	0x3a31b915	0.00067795935
199	0xb96423d4	-0.00021757121
200	0xba308a9e	-0.0006734523
201	0xba970b56	-0.0011523764
202	0xba7ea046	-0.00097132137
203	0x3b0ede8f	0.0021800136
204	0xb9a94243	-0.0003228356
205	0x3ae70317	0.0017624822
206	0x3a421eee	0.00074051216
207	0x3a07ea5d	0.0005184764
208	0x3a0bcabf	0.0005332641
209	0x3ab1232a	0.0013514508
210	0xbb174037	-0.0023079047
211	0x3a5bd376	0.0008385697
212	0xbb1ac359	-0.0023614971
213	0xbae69272	-0.0017591252
214	0x3abe42a1	0.0014515707
215	0xb96d6635	-0.00022640156
216	0x39b5e4b4	0.00034693407
217	0x3a355b2f	0.00069181895
218	0x3ab9b252	0.0014167523
219	0xbafa6660	-0.0019103996
220	0xbad26ed3	-0.0016054757
221	0xb99566d9	-0.00028496122
222	0x3a989b60	0.0011642985
223	0x3aba402c	0.0014209799
224	0x3af8f73a	0.0018994578
225	0xba19b5d3	-0.0005863581
226	0xb892950c	-6.989585e-05
227	0x3b2da7bb	0.002649768
228	0xbae0d46e	-0.0017153153
229	0xbab3c54b	-0.0013715414
230	0xba379c42	-0.000700418
231	0xb88ba316	-6.6584136e-05
232	0xba2b6f0d	-0.000653968
233	0xbac6747c	-0.0015140916
234	0xbaceb254	-0.0015769699
235	0xb8ff9aad	-0.00012188158
236	0xba754ec2	-0.0009357744
237	0x3b1fb934	0.0024371864
238	0x3b664cde	0.0035141031
239	0x38b60f51	8.681289e-05
240	0xbab80a3f	-0.001404114
241	0x3abf5fb9	0.0014600671
242	0xbb2fce3d	-0.0026825808
243	0x3a979ec0	0.0011567697
244	0xbb2468e2	-0.002508693
245	0x3af70bdb	0.0018848138
246	0x3ae01bd6	0.001709814
247	0xba70f146	-0.0009191226
248	0xba92ae07	-0.001119078
249	0x3a631509	0.0008662497
250	0x38f6e840	0.00011773454
251	0x3b0d3099	0.002154386
252	0xb940e91f	-0.00018397391
253	0xba162323	-0.00057272817
254	0xba3336c1	-0.0006836467
255	0xbb105284	-0.002202184

gbrbm.b f4 [100]
0	0xbede36f9	-0.43401316
1	0xbe4d9379	-0.20075788
2	0xbdf6a68e	-0.120434865
3	0xbf0170cf	-0.5056276
4	0xbead98d6	-0.33905667
5	0xbec92729	-0.3928769
6	0xbe9a06df	-0.30083367
7	0xbeb03c16	-0.34420842
8	0xbecac6bd	-0.3960475
9	0xbf096716	-0.5367292
10	0xbeb7fbe2	-0.3593436
11	0xbef4696f	-0.4773669
12	0xbeb043a8	-0.34426618
13	0xbed2b48e	-0.41153377
14	0xbef81809	-0.48455837
15	0xbe5ed8df	-0.21762417
16	0xbec90b0f	-0.3926625
17	0xbf019be1	-0.5062848
18	0xbeee283b	-0.46515068
19	0xbeeff1b0	-0.4686408
20	0xbe89dee7	-0.26927873
21	0xbf3a0b1a	-0.7267319
22	0xbecc68bd	-0.3992366
23	0xbee96039	-0.45581225
24	0xbea39447	-0.31949064
25	0xbeed3750	-0.46331263
26	0xbe6b03ee	-0.22950718
27	0xbf71496e	-0.9425267
28	0xbef9e8d5	-0.4881045
29	0xbed83ac3	-0.42232332
30	0xbf4ee579	-0.808189
31	0xbece7633	-0.40324554
32	0xbec09113	-0.37610683
33	0xbed55ae9	-0.4167092
34	0xbf0834c1	-0.53205496
35	0xbe8c4a33	-0.2740036
36	0xbeeaa2c8	-0.45827317
37	0xbe546139	-0.20740213
38	0xbeb2f450	-0.3495202
39	0xbf0f3565	-0.5594085
40	0xbee15d84	-0.4401666
41	0xbf0eacfd	-0.5573271
42	0xbf222133	-0.6333191
43	0xbed3350c	-0.4125141
44	0xbed917fd	-0.42401114
45	0xbea049f5	-0.31306425
46	0xbee75340	-0.45180702
47	0x3fe6a523	1.8019146
48	0xbf09f149	-0.53883797
49	0xbed6319a	-0.41834718
50	0xbf0782b1	-0.52933794
51	0xbfa28cb1	-1.2699186
52	0xbec1013c	-0.37696254
53	0xbef83b2b	-0.48482642
54	0xbeede9a1	-0.46467307
55	0xbef0680a	-0.46954376
56	0xbee10d14	-0.4395529
57	0xbeb10c46	-0.34579676
58	0xbee6162c	-0.4493879
59	0xbf648e7f	-0.8927993
60	0xbef8094d	-0.48444596
61	0xbe1e5733	-0.15462951
62	0xbe7bcc03	-0.24589543
63	0xbed74db6	-0.42051476
64	0xbeba4662	-0.36381823
65	0xbeb907b1	-0.3613868
66	0xbe96cde2	-0.2945395
67	0xbed826f1	-0.4221721
68	0xbeb3cba8	-0.35116315
69	0xbebf0dc4	-0.3731519
70	0xbf024a7a	-0.5089489
71	0xbedfd687	-0.4371836
72	0xbe8eda72	-0.27901036
73	0xbe82e776	-0.25567216
74	0xbe942781	-0.2893639
75	0xbe91b72a	-0.28460056
76	0xbf0e1d58	-0.55513525
77	0xbedba3c0	-0.4289837
78	0xbeb411ea	-0.35169917
79	0xbebfc129	-0.37452057
80	0xbf2ba2cd	-0.6704529
81	0xbf002bac	-0.5006664
82	0xbea6d190	-0.32581758
83	0xbf12e3a3	-0.57378596
84	0xbed4cae9	-0.41561058
85	0xbf1b2976	-0.6061014
86	0xbf3b101c	-0.73071456
87	0xbeac0988	-0.33601022
88	0xbeca6352	-0.395289
89	0xbf116c59	-0.5680595
90	0xbec7368f	-0.38908812
91	0xbf029016	-0.5100111
92	0xbe59cda7	-0.21269856
93	0xbef0731a	-0.46962816
94	0xbeef64c4	-0.46756566
95	0xbeaee941	-0.34162334
96	0xbed5df27	-0.41771814
97	0xbf0b97c6	-0.5452846
98	0xbf026f69	-0.5095125
99	0xbeb1ac5e	-0.34701818

gbrbm.mu f4 [50]
0	0x3c70823c	0.014679488
1	0xbcd62b1e	-0.026143607
2	0xbc21f91a	-0.009886051
3	0xbb89d6cb	-0.0042065135
4	0x3d8309ed	0.063983776
5	0x3b0d407a	0.0021553324
6	0x3d050a7e	0.03248071
7	0xbcf01285	-0.029305706
8	0x3c4e244c	0.012581896
9	0xbb8723f9	-0.0041241613
10	0xbbdeb3c0	-0.00679633
11	0xbb5f1c06	-0.0034043803
12	0x3da62100	0.08111763
13	0x3c16e63f	0.009210168
14	0xbbeaae44	-0.0071618874
15	0xbadc5485	-0.0016809857
16	0xbb4e6a75	-0.0031496559
17	0x3c938f42	0.018012647
18	0xbd837848	-0.06419426
19	0x3ba6e5a6	0.005093294
20	0xbcae5a2b	-0.02128323
21	0x3ca510e0	0.020149648
22	0xbcff67dd	-0.031177456
23	0x3bdcdc91	0.0067401608
24	0x3ba88f5d	0.0051440434
25	0x3b808334	0.0039218906
26	0xbcf0450a	-0.029329795
27	0x3b070739	0.002060367
28	0x3cd7da63	0.026349252
29	0x3b627cf2	0.0034559336
30	0xbce6b014	-0.028160132
31	0xb95e0e68	-0.00021176937
32	0x3cf1d3fa	0.029520024
33	0xbd33239f	-0.043735143
34	0xbcd05422	-0.025430743
35	0x3c5ca5ae	0.0134672355
36	0x3b8ca118	0.004291665
37	0x3c5431aa	0.012951294
38	0x3c9b891c	0.018986277
39	0x3c54e871	0.0129948715
40	0xbd979826	-0.07402067
41	0x3be92d3e	0.007115989
42	0x3b904543	0.004402788
43	0x3caae3d1	0.020860584
44	0xbcd1a0bc	-0.02558934
45	0xbb05cafe	-0.0020415182
46	0x3c2c1f30	0.010505483
47	0x3cf3670d	0.029712224
48	0x3d6bf08c	0.05760245
49	0x3c62406e	0.013809307

gbrbm.log_var f4 [50]
0	0xc0e13988	-7.038273
1	0xc0e1b0cb	-7.052831
2	0xc0e26aef	-7.0755534
3	0xc0e32e93	-7.0994353
4	0xc0c9823d	-6.297148
5	0xc0e21889	-7.065495
6	0xc0dc7b84	-6.8900776
7	0xc0e41535	-7.1275887
8	0xc0e3e020	-7.121109
9	0xc0e2e080	-7.089905
10	0xc0e32eb6	-7.099452
11	0xc0e2d537	-7.088527
12	0xc0b61c13	-5.690927
13	0xc0e3c8e6	-7.1182737
14	0xc0e36b3f	-7.1068416
15	0xc0e1660a	-7.043706
16	0xc0e3ed82	-7.1227427
17	0xc0e204e4	-7.063097
18	0xc0c1c3df	-6.05516
19	0xc0e42ba6	-7.130328
20	0xc0e1d341	-7.057038
21	0xc0e420d7	-7.129009
22	0xc0e232d4	-7.0687046
23	0xc0e2df29	-7.089741
24	0xc0e2f4af	-7.0923686
25	0xc0e348f1	-7.102654
26	0xc0e3f578	-7.1237144
27	0xc0e40e10	-7.1267166
28	0xc0e43f39	-7.1327176
29	0xc0e3bf7e	-7.1171255
30	0xc0e2099b	-7.0636725
31	0xc0e4bed1	-7.148293
32	0xc0dacfe2	-6.8378763
33	0xc0cfac35	-6.4897714
34	0xc0e1c3db	-7.055158
35	0xc0e20b91	-7.063912
36	0xc0e4efc8	-7.15427
37	0xc0e2925a	-7.080365
38	0xc0e3f311	-7.123421
39	0xc0e29338	-7.080471
40	0xc0bb6ac8	-5.856785
41	0xc0e335fc	-7.10034
42	0xc0e3a75f	-7.114181
43	0xc0e2c3c2	-7.086396
44	0xc0e17aa1	-7.0462193
45	0xc0e20b0a	-7.0638475
46	0xc0e460f2	-7.136834
47	0xc0e02bb2	-7.005334
48	0xc0c28da0	-6.079788
49	0xc0de4d46	-6.946933

gbrbm.linear_layer.weight f4 [1, 100]
0	0x3b47d07b	0.0030489254
1	0xbe3318c1	-0.17489912
2	0xbdf7ff59	-0.121092506
3	0xbc593e91	-0.013259546
4	0xbdd12141	-0.10211421
5	0xbd767ce5	-0.060177702
6	0x3d1eede2	0.03880108
7	0x3d885586	0.06656937
8	0x3daab53b	0.08335348
9	0x3d9db818	0.07701129
10	0xbe25094c	-0.16116828
11	0x3ce9cdcb	0.028540513
12	0xbd3d675e	-0.046241157
13	0x3e54b0c4	0.20770556
14	0x3db47b15	0.088125385
15	0xbdf1afc9	-0.118011065
16	0xbc66fc2c	-0.014098208
17	0x3dd5cb19	0.104391284
18	0x3d897288	0.06711298
19	0x3d6926b0	0.05692166
20	0xbe8bf46b	-0.27334914
21	0x3ea3a6a4	0.31963074
22	0x3e148888	0.14505208
23	0x3d1a8b2b	0.037730377
24	0xbe1e6c8d	-0.15471096
25	0xbd1721b9	-0.036897395
26	0xbce088a1	-0.0274089
27	0x3ef2383b	0.47308525
28	0x3c6dc0e2	0.014511319
29	0x3dd068f7	0.101762705
30	0x3eb68015	0.35644594
31	0xbd310086	-0.04321339
32	0xbe22d321	-0.15900852
33	0x3c8ccdfb	0.017188063
34	0x3ccde06b	0.025131425
35	0xbc2a256c	-0.010384899
36	0x3d6b625d	0.057466853
37	0xbe1158bc	-0.14194006
38	0xbd5121d2	-0.051057644
39	0x3e434909	0.1907083
40	0xbd4784d9	-0.048710678
41	0xbcd958a7	-0.02653153
42	0x3e2ea944	0.17056757
43	0x3d491af9	0.04909799
44	0x3d7228a5	0.059120793
45	0xbddd2092	-0.10797228
46	0xbdc072b0	-0.09396875
47	0xbea09337	-0.31362316
48	0x3e86f23b	0.26356682
49	0xbd7a79a7	-0.061151173
50	0x3e4215af	0.18953584
51	0x3f59414e	0.8486527
52	0xbd333f7b	-0.04376171
53	0xbd1ee56a	-0.038793005
54	0xbd8b9aba	-0.06816621
55	0x3d3305ec	0.04370682
56	0x3e0c75e0	0.1371684
57	0xbd8bed1a	-0.06832333
58	0xbd5592c8	-0.052141935
59	0x3eed8051	0.4638696
60	0x3db93e60	0.090451
61	0xbe224427	-0.1584631
62	0xbd80ce66	-0.062893674
63	0xbd39cd97	-0.04536208
64	0x3dc214c4	0.09476617
65	0xbe69c446	-0.22828779
66	0xbd5ce099	-0.05392513
67	0xbcaf0442	-0.021364335
68	0x3db63cb6	0.088982984
69	0xbd186c54	-0.037212685
70	0x3d67092b	0.056405228
71	0x3decf5ad	0.115702964
72	0xbc48e90d	-0.012262595
73	0xbe2c1a2b	-0.16806857
74	0xbcb7cf22	-0.022437636
75	0xbe052c41	-0.13005163
76	0x3e72eac5	0.2372237
77	0xbdb8d2cf	-0.090245835
78	0xbe43ecf1	-0.19133355
79	0x3df62c08	0.12020117
80	0x3e658314	0.22413284
81	0x3c8ec6c1	0.017428758
82	0xbe06d9e8	-0.13169062
83	0x3e2b9041	0.16754247
84	0xbe1e98fd	-0.15488048
85	0x3d5563e1	0.052097205
86	0x3e2549c5	0.16141422
87	0xbdb71273	-0.08939066
88	0x3bd99d63	0.0066410764
89	0x3e4fd449	0.20295824
90	0x3c7c1fea	0.015388468
91	0xbceeedfa	-0.02916621
92	0xbdad4908	-0.08461195
93	0xbde9bdb2	-0.11413135
94	0x3d56070d	0.052252818
95	0xbcb3584a	-0.021892685
96	0xbe1f3106	-0.15546045
97	0x3dc71af5	0.097219385
98	0xbd8d46e4	-0.06898287
99	0x3da6e7f5	0.08149711
