final_project/lstm (drop 0.2)/type1/lstm_W20_H50_B16.pt (torch, 68196 bytes, 9 tensors)

lstm_layer.lstm1.weight_ih_l0 f4 [200, 16]
00000000: 51ef 373b dece 3e3b 990b 3d3b 1e5d 11b9
00000010: 8f0a b438 dfce 13ba adb1 31ba e153 abba
00000020: a9b5 df38 57ab 173b afb0 cb39 5e19 3bba
00000030: 6d6c 4cbb 2b45 c6b9 0f3c 4b3b 3816 2a3b
00000040: 5cfd 6e3b 8a55 703b 90ac 713b e330 3938
00000050: 64e6 e638 b7cd f7b8 b305 1eba 68e8 aeba
00000060: d9db df37 3e0d 483b e5c0 b138 85c6 1eba
00000070: afe4 6fbb 0167 45ba 57af 803b e57b 603b
00000080: 15df 77b8 9a2c 75ba b72c d439 bc30 8438
00000090: 5431 8eb8 5019 eb37 9760 f8b6 0518 88b8
000000a0: 80a0 85b8 ace6 9839 5c7a f1b7 4679 0f39
000000b0: 6b45 603a 2227 9e38 bf0e 45ba a53d 61ba
000000c0: f6d1 743b ef3b 793b 4698 753b 5372 0736
000000d0: 78c6 a439 f4b0 41b9 a480 c8b9 7f83 bcba
000000e0: a2df 9c39 5316 433b 71cf 9839 4b6b dcb9
000000f0: 0d19 65bb d7a8 b6b9 58c8 803b cb71 653b
00000100: 4e93 083b d9e6 023b e65b 023b 64dc 2639
00000110: dd3e f538 372f 7ab9 e8c2 b3b9 41f3 9dba
00000120: 7940 2439 e92c 0f3b b4a5 0639 d474 68b9
00000130: dae9 28bb efe5 93b9 8783 343b 9eb3 133b
00000140: 465d 513a 0fc0 e039 1746 4c3a 5f83 80b8
00000150: 5855 5a38 1fe2 2fb9 5890 86b8 34a8 bbb9
00000160: 7b28 2138 105a a339 ab7b 7338 650f c8b8
00000170: 3504 71b9 99a7 acb8 452f 8d3a b279 473a
00000180: 5f9f 9c3a 480d a03a 32ec 7b3a 0e8f 85b8
00000190: e76d 7eb7 4ce0 e4b9 13f4 8db9 2b5f 45ba
000001a0: 0595 06b8 e4ff 8a3a 787f 3138 470f d2b9
000001b0: 5c88 b9ba b8ca 8fb9 2119 883a 3eef 873a
000001c0: f4de 253a 37eb 253a 54bb 4f3a 7d74 d837
000001d0: f35f 2637 2875 72b8 0adb 38b9 5f37 fbb9
000001e0: 6893 dfb8 cb53 5a3a 1822 bc37 511d 17b9
000001f0: e9a4 80ba fc21 29b9 190c 4e3a 007f 453a
00000200: 6eb1 7f3a 5d9e 913a f103 7a3a 31e7 0d38
00000210: 4c41 fe38 8a16 b5b8 3bbe 93b8 ea53 aab9
00000220: 1119 e238 7625 3b3a d4af 1639 75c3 cfb8
00000230: abde 8cba 3499 bfb8 30d7 743a c1b6 2d3a
00000240: cad3 733b 2cf7 813b 7638 813b 8d56 aa38
00000250: 1e7f 8739 342e 3f38 5294 0eba d677 0ebb
00000260: 2f35 8839 832f 4b3b 3694 3239 80e6 1aba
00000270: 6589 81bb c09d 14ba 52f3 7f3b 5e69 6c3b
00000280: db38 0e3a d204 fe39 8609 753a f28e ab38
00000290: 30f5 2b39 d9b6 3db8 99c2 05b9 3730 43ba
000002a0: 5bbb 0639 ea69 0e3a a91a ec38 487d d1b8
000002b0: 4465 66ba 36c6 bdb8 38bb ba3a b0cd 8d3a
000002c0: b79d 643b 08af 643b d478 6b3b 63ad 2e39
000002d0: e9d6 8439 14a1 acb8 8fc4 d6b9 b6e3 b0ba
000002e0: 8066 6239 4a98 263b 4a6c eb38 cb21 51b9
000002f0: ab92 3fbb 34d1 12b8 f431 6e3b 3679 513b
00000300: 8bbb 393a b6f2 963a 78b4 833a 759f a1b7
00000310: d3d1 ae37 347b e4b8 e3fb 8ab9 c79a 58ba
00000320: c091 77b8 3d96 b33a 7260 0139 279f c0b9
00000330: 35e6 d6ba 9803 8fb9 e586 b83a 2378 c13a
00000340: 2d31 ad3a ad45 473a 5472 4b3a 481e 6c39
00000350: 8e56 0239 e004 5cb9 40da a8b8 b7e2 14ba
00000360: f46b d137 cacc 693a 329d 0339 61f1 6bb8
00000370: c6e5 81ba 7f4e ceb6 e133 603a fa0a 383a
00000380: 1faf 4b3b fc22 5d3b 45b0 4c3b 8511 b138
00000390: 5490 2a39 c00f 65b8 d002 aab9 e4e0 9bba
000003a0: 8a7a 7039 b9b6 213b d1b1 beb6 5efd bab9
000003b0: 5599 37bb 7375 dfb9 435d 5c3b ad17 3e3b
000003c0: 951a 653a 8145 9a3a e760 ad3a fb6c 8739
000003d0: b50d 3f37 d706 cb38 a850 00b9 3b47 42ba
000003e0: 05ba ddb7 2c7f ad3a 9151 1e39 3bd4 1db9
000003f0: f344 eaba 6eda 8038 b1c2 983a 6365 ec3a
0.0028066228 0.0029115002 0.0028846024 -0.00013862966 8.5850355e-05 -0.0005638431 -0.000677849 -0.0013071263
0.000106673055 0.0023142898 0.00038850817 -0.0007137264 -0.0031192556 -0.00037817037 0.003101114 0.0025953185
0.0036466932 0.003667208 0.0036876537 4.4152966e-05 0.00011010168 -0.00011816195 -0.0006028071 -0.0013344409
2.6686046e-05 0.003052547 8.475947e-05 -0.00060568034 -0.0036604812 -0.00075303024 0.003927152 0.0034253534
-5.909715e-05 -0.00093526545 0.00040469106 6.303328e-05 -6.780276e-05 2.802597e-05 -7.4022205e-06 -6.489459e-05
-6.37183e-05 0.00029163563 -2.8786417e-05 0.0001368272 0.0008555266 7.541316e-05 -0.0007517151 -0.00085922546
0.0037356592 0.0038030108 0.0037474795 2.0183113e-06 0.00031428388 -0.00018471834 -0.00038242817 -0.0014382451
0.00029921258 0.0029767945 0.00029146255 -0.0004204161 -0.0034957558 -0.0003483954 0.003930133 0.0035010453
0.0020839754 0.0019974022 0.0019891202 0.00015913096 0.000116942196 -0.00023859447 -0.00034286757 -0.0012050645
0.00015664277 0.0021846837 0.00012840965 -0.00022168766 -0.0025774152 -0.0002820934 0.0027544217 0.002253748
0.0007986616 0.00042867704 0.00077924266 -6.1279854e-05 5.2054733e-05 -0.00016773537 -6.416504e-05 -0.0003579274
3.842309e-05 0.00031156885 5.805089e-05 -9.5396106e-05 -0.00022985118 -8.2328166e-05 0.0010771534 0.00076093816
0.0011949352 0.0012210989 0.0009610086 -6.36858e-05 -1.5165168e-05 -0.00043654663 -0.00027075465 -0.0007529135
-3.2086875e-05 0.0010604826 4.2318803e-05 -0.00040065704 -0.0014155018 -0.00027426123 0.0010383466 0.0010370982
0.0006327473 0.00063293 0.00079243374 2.580345e-05 9.916711e-06 -5.7806406e-05 -0.00017629206 -0.00047915705
-0.00010660925 0.0008328526 2.2427223e-05 -0.00014411403 -0.0009814772 -0.00016129756 0.0007860079 0.0007533878
0.0009753917 0.0011109818 0.00095373305 3.3832333e-05 0.00012123826 -8.634951e-05 -7.0449394e-05 -0.00032487448
0.00010781189 0.0007139066 0.00014370616 -9.906936e-05 -0.0010747513 -9.136126e-05 0.0009339927 0.0006626659
0.0037205094 0.0039662328 0.0039434982 8.122353e-05 0.00025843916 4.558098e-05 -0.00054389716 -0.0021738908
0.00025979566 0.003100366 0.00017030616 -0.0005908981 -0.0039531463 -0.00056692585 0.0039054942 0.0036073546
0.0005425342 0.00048450247 0.00093474274 8.180541e-05 0.0001639917 -4.52314e-05 -0.00012756362 -0.0007445844
0.00012849031 0.00054326525 0.00011258323 -9.989232e-05 -0.00087888935 -9.049142e-05 0.0014246469 0.0010818746
0.0034884044 0.0034894366 0.0035930173 0.00016658525 0.00025337122 -8.231602e-05 -0.00040963708 -0.0013495598
0.00021591224 0.0025420361 0.000112258436 -0.00019944382 -0.0029231708 -3.5003948e-05 0.0036345692 0.0031963116
0.0007085136 0.0011516425 0.0010048291 -1.9266949e-05 2.0840123e-05 -0.000108948356 -0.0002650908 -0.000826281
-5.902513e-05 0.0013701391 0.00012338327 -0.00036739671 -0.0016395511 -0.00027277763 0.0014078288 0.0014760535
0.0013213508 0.000760163 0.00077608717 0.00022517995 0.0001243001 -0.00020982651 -8.0515165e-05 -0.0005679535
2.4965011e-05 0.00089187606 0.00012551693 -5.6253168e-05 -0.0009910397 -6.1484166e-06 0.00085526524 0.00070206786
0.0031079722 0.0033742776 0.0031232995 8.443281e-05 0.0001626623 -5.4612523e-05 -0.00032427022 -0.0011892584
0.00022933833 0.0024675562 -5.683142e-06 -0.00035665458 -0.0028014977 -0.0004262138 0.0033624924 0.002900581
0.0008739618 0.0011769981 0.0013227732 0.00025830403 1.1387679e-05 9.681068e-05 -0.00012237078 -0.0007411127
-2.6431875e-05 0.0013236753 0.0001509844 -0.00015051749 -0.0017873332 6.144201e-05 0.0011654702 0.0018035587

lstm_layer.lstm1.weight_hh_l0 f4 [200, 50]
00000000: d8bf 05ba db12 5239 f6a5 cd38 481e 52b9
00000010: e95e 2bb9 b1e9 dbb8 3f2e 3339 29ae c438
00000020: 1f72 8f39 8f1b a3b9 0404 6039 2191 a9b9
00000030: 78c3 0739 94b0 deb8 545e b9b9 7a6d 21b9
00000040: 82cb 8539 1834 5139 edc4 3bb9 e403 0739
00000050: a9f6 f139 eb3f 5339 c3c3 6e39 d3e5 3539
00000060: b6e6 8bb9 98e4 58b9 5129 e139 f1c9 90b9
00000070: dcb2 a938 5dbe ca35 ee84 9b39 f878 1739
00000080: 6f2b b6b8 c19c 2fb9 9dfe 1539 954c a4b9
00000090: b864 fbb8 90f4 113a 970e 89b8 8a12 d5b8
000000a0: e10a 82b9 cfed 5d39 2775 07ba 9b09 aeb7
000000b0: b076 93b9 af60 3239 c1cc 9538 e124 6d39
000000c0: 9176 3239 bd2f b6b9 ca5e 7bb9 1860 e639
000000d0: 0c34 8139 30a7 acb9 0981 6cb9 340f 0cb9
000000e0: e5db 2b39 69f3 0e39 dc10 8339 aa62 91b9
000000f0: 3fc2 4d39 3795 c1b9 dbb7 3d39 b72e 81b9
00000100: 60c1 78b9 1439 90b9 dd16 6339 b970 2239
00000110: efcd 80b9 bb24 9339 a6d5 8739 b58d 3d39
00000120: 776a 6739 7bd7 8439 6be4 a2b9 c81a 99b9
00000130: cdab 4839 5ad5 b0b9 4686 2239 38c6 3237
00000140: 4e3c 9c39 639d 6539 1f85 09b9 dd1c d7b9
00000150: 0ee2 5339 3272 87b9 9f47 8bb9 ff79 9939
00000160: e32a 72b8 ea24 15b9 73be a3b9 56ae 8d39
00000170: 55cb 56b9 e5b7 c5b7 957d a1b9 46ce 8039
00000180: f26d 9838 f9b4 8839 1859 8339 c0ab f4b9
00000190: 850a b637 3b34 51b9 3dd5 1cb8 9ef9 4839
000001a0: 62e7 cb38 f695 2238 fe23 5bb8 b8ff 06b8
000001b0: 35ba 59b8 bffd 1e39 9edb 85b8 30a8 8338
000001c0: fde7 a9b7 a646 4438 fb9f 8f37 5a69 ba38
000001d0: a539 20b8 2265 80b7 8e1d 0b38 3f41 e2b8
000001e0: 72a5 c9b8 cc6b d7b7 e81a 21b9 8285 8cb8
000001f0: 200f 6438 6937 e638 c51a a0b8 9b1a 9638
00000200: 75b4 2cb8 7b95 bab5 c7e9 8ab8 e2be beb8
00000210: 8495 7638 3995 2838 7fe3 dbb6 e35d 1338
00000220: 5453 1fb7 ee48 74b8 6da9 d536 d76d e437
00000230: 094a de37 ae1e dab8 06c9 84b7 c9fd 9436
00000240: 8c4b 3739 0d94 53b8 bf91 1bb6 4fb6 0d39
00000250: 5452 2eb9 f081 7d38 7542 56b9 4457 4f39
00000260: cbae c338 47f7 88b9 04b8 7ab9 4695 10b9
00000270: a619 8639 a770 0839 23dc a738 3b37 bab9
00000280: 3425 4d39 68f6 5eb9 8d2c 4039 08d3 9eb9
00000290: 4653 48b9 f1e2 2fb9 ca7d 0f39 20a0 1a39
000002a0: 5bd9 41b9 75c9 6939 1543 8c39 de26 1039
000002b0: 5684 ab39 b229 8639 9e27 a3b9 e28f 90b9
000002c0: 135c 3939 a602 44b9 121e 5e39 1e50 c637
000002d0: 0c3d 8339 10f2 4f39 17b0 97b9 5890 8bb9
000002e0: 09ae 3a39 9971 51b9 48de 81b9 c4e2 9739
000002f0: e01b b5b8 e90f 1ab9 e6c0 74b9 1b99 8e39
00000300: fa32 46b9 240d 73b7 05b9 38b9 0d85 6c39
00000310: 56b0 b938 af11 5939 8f62 a239 9231 7eb9
00000320: 7052 f0b8 4db2 cc38 f9fd 0438 3c23 16b9
00000330: 1b93 a3b8 553b 9db8 4c11 b638 aa5e b838
00000340: 47d0 d337 a278 0cb9 ef8d 6138 9c9c 0fb9
00000350: 578f 8d38 362d 9cb8 1396 d1b8 17c4 feb8
00000360: 15a4 bc38 9a9a aa38 d533 ebb8 2d0a 0038
00000370: d884 0b39 1b69 c638 8fb0 eb38 407b c738
00000380: 20e7 d8b8 0c7e eeb8 f603 8c38 3bab dbb8
00000390: b014 f638 71f4 3337 094a 0639 84b1 0339
000003a0: c2c4 7cb8 5bf9 ceb8 392d b438 ceb3 03b9
000003b0: e893 7bb8 ee03 8639 4e3a ccb7 f1a5 04b9
000003c0: d171 a7b8 e510 1f39 7068 aeb8 efa2 0db7
000003d0: 756b e3b8 ca94 c938 0864 5637 0cd2 2a39
000003e0: b349 b838 0320 0db9 e90e 38b8 dbbc 2e35
000003f0: 8576 ccb8 93eb d937 6597 2038 e4e7 d3b8
-0.00051021343 0.00020034185 9.8060744e-05 -0.00020038441 -0.00016343188 -0.00010486262 0.00017087998 9.378448e-05
0.00027360112 -0.00031110315 0.000213638 -0.0003234232 0.00012947421 -0.00010618675 -0.0003535623 -0.0001539494
0.00025519362 0.000199512 -0.0001790707 0.00012876053 0.00046150878 0.0002014634 0.00022770376 0.00017347121
-0.0002668404 -0.00020684523 0.00042946127 -0.00027616278 8.091863e-05 1.5105576e-06 0.00029662944 0.00014445547
-8.6865264e-05 -0.00016747696 0.00014304598 -0.00031337576 -0.00011987373 0.00055677537 -6.535387e-05 -0.00010160085
-0.00024803638 0.00021164793 -0.00051672984 -2.074689e-05 -0.00028126454 0.0001701142 7.143012e-05 0.0002261582
0.00017019572 -0.00034749313 -0.00023972537 0.00043940614 0.00024643575 -0.0003293096 -0.00022554783 -0.00013357104
0.00016389748 0.00013632853 0.00024998828 -0.00027730066 0.00019622686 -0.00036923002 0.00018092936 -0.00024639603
-0.00023723161 -0.00027508347 0.00021656924 0.00015491516 -0.00024567495 0.0002806539 0.00025908387 0.00018077235
0.00022069538 0.00025337547 -0.00031069233 -0.00029202388 0.00019137487 -0.00033728295 0.00015499545 1.0655778e-05
0.0002979957 0.00021897773 -0.0001311493 -0.000410295 0.0002020674 -0.0002583429 -0.00026565508 0.00029273328
-5.7737238e-05 -0.00014223499 -0.00031231678 0.00027023506 -0.00020484377 -2.3569863e-05 -0.0003080188 0.00024567748
7.268404e-05 0.00026074777 0.00025052647 -0.0004666727 2.170099e-05 -0.0001995125 -3.7391892e-05 0.00019166476
9.722893e-05 3.8763472e-05 -5.224719e-05 -3.2186246e-05 -5.191025e-05 0.00015162582 -6.382841e-05 6.277894e-05
-2.0254398e-05 4.6795838e-05 1.7121425e-05 8.8887944e-05 -3.820066e-05 -1.5305883e-05 3.3167707e-05 -0.00010788673
-9.6152435e-05 -2.5680194e-05 -0.0001536418 -6.700588e-05 5.4373522e-05 0.000109775756 -7.634381e-05 7.157513e-05
-4.117606e-05 -1.3901584e-06 -6.623897e-05 -9.095461e-05 5.8790218e-05 4.0193296e-05 -6.5531926e-06 3.513497e-05
-9.49654e-06 -5.8242054e-05 6.3676184e-06 2.7230866e-05 2.6498938e-05 -0.000104007646 -1.5829235e-05 4.440288e-06
0.00017480383 -5.0444203e-05 -2.3181635e-06 0.00013514723 -0.00016624603 6.0440914e-05 -0.00020433388 0.00019773567
9.330882e-05 -0.00026124177 -0.00023910409 -0.00013788519 0.0002557758 0.00013011937 8.004184e-05 -0.00035517834
0.00019564183 -0.00021263363 0.00018327143 -0.0003029334 -0.00019104508 -0.00016773843 0.00013684403 0.00014746236
-0.00018486886 0.0002229566 0.0002675286 0.0001374739 0.0003271426 0.00025589537 -0.000311193 -0.0002757302
0.00017677275 -0.00018693003 0.00021182772 2.3640747e-05 0.0002503175 0.00019831234 -0.00028932162 -0.0002661969
0.00017803175 -0.00019974112 -0.0002477041 0.00028969918 -8.635945e-05 -0.00014692511 -0.00023341514 0.00027198423
-0.00018901742 -1.4486988e-05 -0.00017616533 0.00022556279 8.8543326e-05 0.0002070132 0.0003097248 -0.00024241794
-0.00011459447 9.760689e-05 3.1707783e-05 -0.0001431824 -7.799846e-05 -7.497395e-05 8.681658e-05 8.791436e-05
2.5250147e-05 -0.0001339638 5.3776366e-05 -0.00013695884 6.750103e-05 -7.447081e-05 -9.99385e-05 -0.000121481884
8.995101e-05 8.1350285e-05 -0.00011215328 3.0527055e-05 0.00013305561 9.460953e-05 0.0001123856 9.5120165e-05
-0.00010342733 -0.000113722024 6.676458e-05 -0.00010474628 0.000117340474 1.0726145e-05 0.00012806816 0.00012559263
-6.0264727e-05 -9.8692915e-05 8.591492e-05 -0.00012560116 -5.998081e-05 0.000255614 -2.4345845e-05 -0.00012650319
-7.9843805e-05 0.00015169715 -8.3164196e-05 -8.442191e-06 -0.00010844219 9.612141e-05 1.2778684e-05 0.00016290712
8.787531e-05 -0.00013458733 -4.3882905e-05 6.509487e-07 -9.749554e-05 2.5978114e-05 3.828797e-05 -0.00010104457

lstm_layer.lstm1.bias_ih_l0 f4 [200]
00000000: 77be 853b 41ad 9c3b f394 e8b7 d589 9f3b
00000010: 4b80 783b 5a16 bd39 d9a1 f93a 6f20 bf3a
00000020: 0659 d33a 1c0b b23b eaeb b33a 3cdc 883b
00000030: 923c 193b 1ce9 b93a 4f9d 893b f92d 343b
00000040: 13bd 3a3a c363 0a3b b68f 893b 348c 813a
00000050: 3af9 b63b f221 053b 35db 753b 0f50 883b
00000060: fcb5 e03b f143 973b 5ce8 bd3a 9715 983b
00000070: d32d acb8 d352 1637 2bd6 c53b 9062 533b
00000080: 8cfb 573a ca4e 933b 1fb6 d03a 6310 9c3b
00000090: 2d08 f53a da40 b23b b13d 9438 d214 3e3a
000000a0: ed60 993b 947c a53b 88a6 813b c59c 12b9
000000b0: dfd7 b13b 0a21 553b 8b14 283a 6331 bf3b
000000c0: ae18 903b ec4c 7e3b 9d06 823b cf7d a93b
000000d0: a202 81ba a319 a33b a33f 7a3b e804 193a
000000e0: ef03 ec3a 7e78 bb3a ed4b 973a e26c c13b
000000f0: c37c b53a 16f3 973b b75d 1a3b d931 c93a
00000100: fd8d 7d3b 4a6b fd3a 13dd b839 e12f 0c3b
00000110: 065a 843b 622d 943a 0e36 b73b 8a5f 063b
00000120: 07fd 7c3b 8d2e 7b3b d567 eb3b 6f57 9f3b
00000130: 12c2 023b d875 a33b 4faf 7db8 8b7e 0a38
00000140: e5b2 c63b 3bc2 543b d275 733a e097 983b
00000150: 0e2f ef3a a585 9a3b a1d6 023b 0c63 b23b
00000160: 19bf acb9 b73a 603a db46 ac3b 3450 a63b
00000170: 1c8a 513b c8ca d9b5 0131 c73b 6ccc 5b3b
00000180: 0b82 9f38 9fba c13b fd21 933b f2f1 983b
00000190: a5be 693c 769c 76bc 304f 21bc 501b 873c
000001a0: e2b1 843c cd18 163c ea11 46bc 93a6 24bc
000001b0: 4020 33bc b01b 5e3c b50c 6bbc c387 403c
000001c0: 019e 40bc 87cc 483c d5dd 7b3c 0ddc 6b3c
000001d0: 2002 d8bb 5307 31bc 803a 803c 422a ffbb
000001e0: 4eaa 9ebc ddd4 37bc 05d9 64bc f6b8 5fbc
000001f0: 5262 993c 1e27 693c 99e9 2dbc 8888 733c
00000200: 8f41 dfbb d951 3fbb ae25 95bc 76b8 71bc
00000210: 8879 c33b fdbb 8b3c 646a 33bc 267a 863c
00000220: 3564 3b3c c46c 6fbc b944 473b dff6 ec3b
00000230: 2e9b 843c e97d 6ebc 5967 373c 7e05 87ba
00000240: 9273 723c f7cb 29bc 7172 19bc 647d 7ebc
00000250: 24ba 6cbc b218 3d3c 8b3a 9e3b d0e6 b53b
00000260: be50 63ba 516a b23b dc46 873b 4edd 633a
00000270: 4b4e 193b a106 b63a 770b a93a 8cf5 d43b
00000280: 9aea 133b 18f7 993b 8d32 283b c998 c13a
00000290: 65c3 8b3b cd93 0a3b 95e4 9239 c503 083b
000002a0: 1ab8 9a3b c52d 833a 5f92 cc3b ab8e 083b
000002b0: 367b 873b c4e8 8f3b e2d1 033c a28b aa3b
000002c0: 2dff 093b 6df1 b33b 07fb 873a aca7 3c38
000002d0: 457c d63b 1961 663b 7bec 733a 5ee2 a43b
000002e0: 9a47 f33a 1a26 b03b 4482 0b3b f8e7 c63b
000002f0: 9f27 9bb9 cc63 253a fff2 ba3b 81ba af3b
00000300: a28f 5f3b 1990 8eb8 893f d73b 22d5 6a3b
00000310: 9fb0 76b8 3ac9 d33b 0f52 9e3b 4788 a73b
0.004081543 0.0047813957 -2.7725915e-05 0.004868726 0.0037918265 0.00036065542 0.0019045427 0.001458181
0.0016124554 0.0054334532 0.0013726924 0.0041766446 0.002338205 0.0014183852 0.004199661 0.0027493222
0.0007123511 0.0021116592 0.00419804 0.0009883703 0.0055839093 0.0020314422 0.003751469 0.0041599344
0.0068576317 0.0046162535 0.0014488804 0.0046412456 -8.2101345e-05 8.959981e-06 0.0060374937 0.0032254793
0.00082390825 0.0044954764 0.0015923417 0.0047626956 0.0018694453 0.00543986 7.068681e-05 0.0007251027
0.004680744 0.0050502513 0.0039566197 -0.00013982046 0.005427345 0.0032520914 0.00064117525 0.005834745
0.0043974733 0.0038803173 0.0039680735 0.0051724683 -0.0009842704 0.0049774214 0.0038184903 0.0005837218
0.0018006543 0.0014302877 0.0011543013 0.0059028724 0.0013846386 0.0046371324 0.0023554394 0.0015349939
0.0038689368 0.0019334343 0.00035259928 0.0021390843 0.004039052 0.0011305029 0.0055911606 0.0020503723
0.0038602964 0.0038327307 0.0071840086 0.004862718 0.00199521 0.0049884133 -6.048317e-05 3.3019616e-05
0.0060638064 0.0032464403 0.0009287271 0.004656777 0.0018248276 0.0047156387 0.0019964355 0.005443936
-0.00032948775 0.0008553671 0.00525747 0.005075479 0.0031973189 -1.6226777e-06 0.00607884 0.0033538593
7.605933e-05 0.0059121395 0.0044901357 0.004667514 0.014266645 -0.015051952 -0.00984554 0.016492516
0.016198102 0.009161186 -0.012089232 -0.01004948 -0.010932982 0.013556406 -0.014346291 0.011751118
-0.011756421 0.012255794 0.015372713 0.014395726 -0.00659205 -0.010804969 0.015652895 -0.00778702
-0.019368317 -0.011220184 -0.013967757 -0.013654938 0.01872364 0.014230518 -0.010614776 0.014864095
-0.006813235 -0.0029193072 -0.018206444 -0.014753452 0.0059654154 0.017057413 -0.0109506585 0.016415667
0.011437465 -0.014613334 0.0030405952 0.0072315778 0.016187277 -0.0145563865 0.011194074 -0.0010301319
0.014798062 -0.01036357 -0.009365664 -0.015532825 -0.014448676 0.011541532 0.004828756 0.0055511966
-0.00086713943 0.005444803 0.00412832 0.000869234 0.0023392614 0.0013887474 0.0012897094 0.006498998
0.0022570253 0.0046986453 0.0025664896 0.0014770265 0.004265236 0.0021145225 0.00028017597 0.00207542
0.0047216536 0.0010008147 0.0062430347 0.002083699 0.004134561 0.0043917615 0.008045645 0.005204634
0.0021056638 0.0054914267 0.0010374495 4.497885e-05 0.006545576 0.003515309 0.00093049527 0.005031868
0.0018560768 0.005375636 0.002128736 0.0060701333 -0.00029593424 0.00063091214 0.005705237 0.005362809
0.0034112711 -6.797928e-05 0.0065688533 0.0035832603 -5.881546e-05 0.006463197 0.0048315595 0.005112681

lstm_layer.lstm1.bias_hh_l0 f4 [200]
00000000: 8f85 9a3b 9cae a93b 103e 39ba a2f8 9f3b
00000010: 1680 783b 7b2f 233a 29ea 173b 1357 bd3a
00000020: 0b19 d93a 34a5 bb3b 0d54 b13a b3dc 953b
00000030: 1e61 1f3b 89ba eb3a 2f1e 853b 9f86 183b
00000040: 5570 473a f3ad 053b 9a8d 803b a507 9c3a
00000050: 5c48 b83b 247c 0d3b 3505 703b f82d 783b
00000060: 5985 023c 8968 9c3b b6a9 c53a 8a9f a63b
00000070: b3dc 2139 4846 ed36 2b3d b73b a6d6 533b
00000080: 5019 3f3a 4f39 913b 5c00 ef3a 943a 9c3b
00000090: 1bde 033b be52 af3b 7aa1 14b9 bab3 8439
000000a0: 3096 a03b 1a81 a33b 57be 833b 7cfa 4eb8
000000b0: 4928 ba3b 37c7 533b 6214 273a f418 ba3b
000000c0: bf11 903b e8e3 9a3b bafe 9a3b a291 9f3b
000000d0: 0b8c f9b9 f91d a33b 8564 773b 6d24 913a
000000e0: 9d3a 0e3b 6bc5 b73a 5044 cc3a 9b42 b73b
000000f0: 50b6 ba3a 2f72 983b 5bc0 1a3b 8157 c23a
00000100: 56af 7c3b 2a0a 3c3b 79b8 5e3a 0d42 003b
00000110: 9c6c 8c3b 3c33 8d3a 6e13 b93b a244 083b
00000120: dded 783b 1cac 873b ec05 f83b 361e 9c3b
00000130: 5f88 023b c563 a83b 3119 5ab8 122d 4738
00000140: d0ba c13b dd5f 5a3b ecb6 633a 97a8 933b
00000150: b9a4 d83a 66af 9c3b 9e0c 003b cbc2 b23b
00000160: 7922 1238 3fd2 693a b858 9b3b 330e a73b
00000170: d665 453b b27a 04b8 813a b93b 717d 513b
00000180: c911 503a dbea b73b 651f 8a3b 2b2b 9c3b
00000190: 6157 693c d479 76bc e942 21bc 03aa 833c
000001a0: 22de 803c 8abd 153c efaf 46bc f0c8 24bc
000001b0: c13e 33bc d1ad 5e3c a189 6bbc 4241 4b3c
000001c0: 7d91 48bc bd10 4a3c 0f94 863c a1b8 643c
000001d0: 9907 c8bb 3496 2ebc 0f9e 753c 5653 06bc
000001e0: e9d5 a5bc 4d16 37bc 7f2b 60bc 7e74 5fbc
000001f0: 7d9e 8f3c 7236 683c a1c3 31bc 4058 733c
00000200: 3e4c f6bb 281b 4bbb 6994 94bc aa41 72bc
00000210: 5780 bc3b 0f98 8b3c 081f 34bc 4bf7 853c
00000220: af4f 3b3c f43e 53bc ace6 463b e566 de3b
00000230: ff2e 853c e9c9 82bc cdab 1c3c 4b16 75ba
00000240: 7b06 743c a1eb 1fbc cb7f 19bc bb91 7ebc
00000250: adf4 7abc 9ae1 3c3c 6e4f 8d3b 5d54 bb3b
00000260: cae4 e539 b03e b23b c1d4 883b 3db8 cf39
00000270: bef0 023b 04d7 c53a 2a97 db3a e8ac d23b
00000280: 2a35 dd3a de1c a43b a315 223b d331 c23a
00000290: 1d7c 8b3b 6e53 283b 66a4 503a 4ec3 073b
000002a0: 4ec1 973b 3cb8 863a 0220 ce3b b0de 0e3b
000002b0: 5c0a 873b 2c2a 923b 9baf 0f3c f151 ac3b
000002c0: 7303 093b 9ba8 a23b 38d1 82b8 8d2c 0238
000002d0: fee7 db3b b426 673b e58f 473a 9934 a83b
000002e0: 191b 2a3b d243 ad3b 8815 0a3b 6fdf c63b
000002f0: 3f7c 9bb9 8369 8eb8 2833 aa3b b229 b53b
00000300: 1f2d 853b 59c4 deb8 6c21 d73b 870a 6a3b
00000310: ee5b 86b8 65cf d33b 2e77 9e3b 7477 923b
0.0047156285 0.0051782858 -0.0007066438 0.0048819343 0.0037918142 0.00062250317 0.0023180342 0.0014445506
0.001656325 0.005726481 0.0013529077 0.0045734285 0.002431936 0.0017984669 0.004062436 0.00232736
0.00076079863 0.0020397871 0.00392313 0.0011904134 0.0056238603 0.0021588886 0.0036624197 0.0037869196
0.007966363 0.0047732037 0.0015080485 0.0050849365 0.00015436373 7.071332e-06 0.0055920086 0.0032323985
0.00072898436 0.0044318805 0.001823436 0.0047677252 0.00201214 0.00535044 -0.00014174535 0.0002531091
0.0049007162 0.0049897553 0.004020493 -4.934751e-05 0.005681072 0.0032314786 0.0006373582 0.005679244
0.0043966467 0.0047268756 0.004730073 0.0048696557 -0.0004759732 0.0049779383 0.0037749123 0.0011073478
0.0021702417 0.0014020627 0.0015584324 0.005592657 0.0014245007 0.0046522836 0.0023613188 0.0014827104
0.0038556657 0.0028692582 0.00084961165 0.001957062 0.004285408 0.0010772715 0.005648068 0.0020792861
0.0037983574 0.00414039 0.0075690653 0.0047643436 0.001991771 0.0051388466 -5.199871e-05 4.7487272e-05
0.0059121624 0.00333213 0.000868662 0.0045061815 0.0016528583 0.0047816513 0.001953877 0.00545535
3.4841218e-05 0.0008919574 0.0047408007 0.005098128 0.0030120513 -3.158552e-05 0.005652726 0.0031965638
0.00079372205 0.0056127138 0.0042151683 0.004765888 0.014242024 -0.0150436945 -0.009842613 0.016072279
0.015730921 0.009139428 -0.012126907 -0.010057673 -0.010940255 0.013591246 -0.014376075 0.012405695
-0.012241718 0.012333092 0.016428022 0.013960035 -0.0061044213 -0.010655928 0.014991297 -0.00819858
-0.020243602 -0.0111747505 -0.013682245 -0.013638614 0.017531628 0.014173137 -0.010849864 0.014852583
-0.007516413 -0.0030991528 -0.018137174 -0.014786163 0.005752604 0.01704028 -0.010993727 0.01635327
0.011432572 -0.012893427 0.0030349893 0.0067871683 0.016257761 -0.015965419 0.009562445 -0.000934933
0.014894123 -0.009760768 -0.009368847 -0.015537675 -0.015317124 0.011528397 0.0043124473 0.005716844
0.00043848745 0.005439602 0.004175753 0.00039619385 0.001997992 0.0015093987 0.0016753424 0.0064293034
0.0016876806 0.005008324 0.0024732135 0.0014815874 0.004256739 0.0025684494 0.00079590676 0.0020715776
0.004631198 0.0010278295 0.0062904367 0.0021800213 0.004121108 0.0044605937 0.008769895 0.0052587916
0.0020906597 0.004963947 -6.237853e-05 3.1035906e-05 0.0067110052 0.0035270872 0.00076126895 0.0051332233
0.0025956093 0.005287626 0.0021069963 0.006069116 -0.00029656474 -6.790741e-05 0.0051940866 0.005528652
0.0040642167 -0.000106223575 0.0065652635 0.0035711841 -6.406741e-05 0.0064639323 0.0048359847 0.0044698063

gbrbm.W f4 [50, 50]
00000000: 9c4c 9e3b 167e f9b8 ac34 2d3b 1e4c 23bb
00000010: d155 ddb9 9fa7 803b dada 60bc cc0f 323c
00000020: c1e4 6639 2f6b e2ba 2a7c a7ba 1e68 e0bb
00000030: 72f8 2d3c 3fa1 8e3b 040d ad3b 350e 5c3c
00000040: bb96 d33b 5cee 70bb 5195 963b c303 52bc
00000050: 8a54 6f3c 3c09 5bbb 4ed2 0f38 fbc1 163c
00000060: 7102 0f3b ae40 5c3a 30c1 9abb 1890 fabb
00000070: 47fe b3bb 4885 bfbb 526a 243b bb6c 0abc
00000080: 16c2 75bb 04da f2bb 3075 8ebb 4911 6e3c
00000090: 69c3 3dbb cd2a a23b fa9f 3ebc beb7 593d
000000a0: aa7a 05bc beb8 12bc 4da2 5fbc 864e ceba
000000b0: 4743 273c 058d 683b 9050 08bc 3ec0 aeba
000000c0: 2e08 633a 937e 95ba ddbf cebb f28f 02bc
000000d0: 9503 95ba 9e92 b33b 3914 653b 5a04 bdbb
000000e0: 5d58 a83c 1cee 85bb 4288 87bb cfa7 e23a
000000f0: 8bd5 bb3a da80 443c 176d 36bc b7ac cebb
00000100: 0d70 ecbb 53be 6ebc 97a0 13bc 1cd3 ee39
00000110: 5b06 96ba 1c1b 9d3c 422e 30bc d39e b33b
00000120: fcdf 833b 94d5 81bc 2802 5eba 3a5c f2bb
00000130: 814b dc3a 2df6 003c 9519 0c3c a3a6 9b3b
00000140: 4e42 8dbb 6b1a 453c 2f71 b4ba 593f 153c
00000150: 1ae7 4e3b b77c 3bbc da90 b73b d765 f3bb
00000160: 28ab 803c 7bf9 52bd e0c2 b63b 10f5 183b
00000170: 03e8 ec3b 60ea f13b 0938 66bc 124d 5e3b
00000180: 7f32 fe3b 9481 8c3b 4362 fe3a 9563 873b
00000190: 9085 073a 21d8 36bb 7f32 e2bb 58fa f936
000001a0: 6118 e63b 6d1e a1bb 8d1e 093c cd86 57bb
000001b0: 9551 8e3b 7e65 d738 8c2f 3db8 3dc2 663b
000001c0: bf15 1cbb 99eb 6ebb d896 b1ba f21e 04bc
000001d0: f07b 64bb 5def 6a3b 09c1 e63a eaf3 1d3c
000001e0: 210e 1ebb 9d7c 183b 90a6 393b d64d 54bb
000001f0: 0bf7 1abb 2dbb 27bb 76a4 f53b e030 5f3b
00000200: c89d 9a3a e53a 0abb 2bdb 43b9 ce8b d83b
00000210: 07fa 9cba 3925 8e3b 1027 333c f26a 3fbb
00000220: 77bd 05b9 130e 77bb 3602 ee3b 314b bfbc
00000230: afd7 963b 6d84 043b 8c2b 153b 434b 383b
00000240: 6d04 d0bb 5437 82ba fbbe b03b ef05 c0ba
00000250: 4f7e 5e3b bfa5 f03a 9602 9b3b 70a3 e93b
00000260: f93f d0ba d52c edbb becd afbb dbdd 723b
00000270: 9535 9fbc c906 d83a 959f 8b39 d59d 9bbb
00000280: ea2e a03a bf27 4cbc c064 1c3c a486 3a3c
00000290: 7349 8aba 399b a53c a852 3b3c f8a0 203b
000002a0: a0c3 b33b 43e0 9bbc 3103 4a3c ab8d 1dbc
000002b0: fb18 b63a b24a 6a3c d3ac ae3a f38e 033b
000002c0: 006f 1abc 0bb2 a9bb f045 21bc aba7 d6bb
000002d0: dcf0 e0ba 7a0e 0abc 5893 2eba 8b44 c7bb
000002e0: 0dc8 9cbb cf30 423c aad4 b3bb b673 db3b
000002f0: 71d3 6cbc 1c7c 6e3d 2a50 3cbc e358 30bc
00000300: 9a40 29bc dd54 24bc 75eb ad3b d40f 3e3b
00000310: b7bc 1cbc b0b2 b738 7e50 c03a b9a6 10bc
00000320: 462e 1a3c 82e3 2c3b 5363 9cba 4404 53bb
00000330: 2171 643a e5b5 e83b 223d 95bc f7b6 f43b
00000340: c138 9b3a f7ac 15bc f5b2 ed3a 44c3 2cbc
00000350: 8661 203c d9be ef3b f8f9 263b 814b 843c
00000360: cc78 b73b 5295 7f39 c9b9 fcba 86ff 83bc
00000370: 4e25 343c 6b43 ffbb f487 ea3a b4b4 313c
00000380: 6685 613a 832b 893b 65d4 c4bb 99e8 ecbb
00000390: 928c 4fbc bfa8 76bb f57a 113b a023 bebb
000003a0: 3933 2e3b 7cd4 cebb 4116 95ba 4795 ee3b
000003b0: 9ac0 d4ba 4c4e 573c bb7e 2bbc 233c 533d
000003c0: 1b4a 07bc 1ca7 cabb 9e54 ffbb 80a0 1bbb
000003d0: 2b5c 1b3c 247a 943b 1cad debb 6b61 17bb
000003e0: 5376 06bb 7e1a ffbb 51a6 953b 8b49 793b
000003f0: 65bd 0b3a c41a 853b afbd f3bb d058 2b3c
0.00483091 -0.000118967306 0.00264291 -0.0024917196 -0.00042216343 0.003926232 -0.013724053 0.010868024
0.00022019727 -0.0017274375 -0.0012778093 -0.0068483492 0.010618316 0.004352718 0.0052810926 0.013431122
0.0064571775 -0.0036763167 0.0045954366 -0.01281828 0.014607558 -0.0033422252 3.428972e-05 0.009201522
0.0021821524 0.0008401972 -0.004722737 -0.007646572 -0.0054929587 -0.005844746 0.0025087786 -0.008448775
-0.0037499717 -0.0074112434 -0.004347466 0.014530488 -0.0028955585 0.00494895 -0.011634821 0.053153746
-0.008146921 -0.008955179 -0.013649535 -0.0015739955 0.010208911 0.0035484445 -0.008319989 -0.0013332439
0.00086605817 -0.001140552 -0.006309493 -0.00796889 -0.0011368865 0.0054801246 0.003495468 -0.005768341
0.020549947 -0.0040872227 -0.0041361162 0.0017292442 0.0014330609 0.011993611 -0.0111344075 -0.0063072103
-0.007215506 -0.014571744 -0.009010456 0.00045552186 -0.0011445986 0.019177966 -0.010753216 0.00548158
0.0040245038 -0.015848912 -0.0008468949 -0.007396248 0.001680717 0.007871193 0.008551021 0.0047500893
-0.0043108827 0.012030224 -0.0013766641 0.009109342 0.0031570853 -0.011443309 0.0056019844 -0.0074279117
0.015706614 -0.051507454 0.00557743 0.0023339428 0.0072298064 0.007382676 -0.014051446 0.003392045
0.0077574844 0.004287908 0.0019407946 0.004131744 0.00051697437 -0.002789982 -0.0069029923 7.449922e-06
0.007021949 -0.004916957 0.0083691 -0.0032886744 0.0043432214 0.00010270903 -4.5105393e-05 0.003521099
-0.0023816673 -0.0036456345 -0.0013548983 -0.008064019 -0.0034863912 0.0035848238 0.0017605136 0.009640673
-0.0024117308 0.0023267635 0.0028328039 -0.0032395027 -0.0023645784 -0.0025593743 0.007496412 0.0034056231
0.001179629 -0.0021092233 -0.00018678296 0.006608463 -0.001197637 0.0043379334 0.010934606 -0.0029208031
-0.0001275445 -0.0037697598 0.007263447 -0.023351284 0.004603348 0.0020220533 0.0022761552 0.0028121031
-0.006348184 -0.0009934702 0.0053938604 -0.0014650206 0.0033949798 0.0018359943 0.004730533 0.007130079
-0.0015888206 -0.0072380104 -0.0053651026 0.0037058506 -0.01943473 0.0016481514 0.00026631044 -0.0047490397
0.0012221013 -0.012460648 0.009545505 0.01138464 -0.0010550454 0.020215617 0.011433281 0.0024510007
0.005485967 -0.019027835 0.012329862 -0.009616296 0.0013892943 0.014300035 0.0013326652 0.0020074218
-0.0094258785 -0.005178695 -0.009843335 -0.0065507493 -0.0017161625 -0.008426303 -0.0006659529 -0.006081169
-0.00478459 0.011852457 -0.005487998 0.0066971434 -0.014454708 0.05822383 -0.011493722 -0.01076338
-0.010330344 -0.010029999 0.0053076097 0.0029001134 -0.0095664775 8.759403e-05 0.0014672426 -0.008828812
0.0094104465 0.0026380722 -0.0011931456 -0.0032198587 0.0008714367 0.0071017616 -0.018217627 0.0074681
0.0011842476 -0.009135476 0.0018134998 -0.010544602 0.009788876 0.007316452 0.0025478583 0.016149284
0.005599117 0.00024374321 -0.0019281443 -0.016113054 0.010995222 -0.0077900193 0.00178933 0.010846306
0.0008602947 0.004186095 -0.0060067647 -0.0072298762 -0.012667792 -0.0037637202 0.0022198532 -0.0058025867
0.0026580824 -0.006311951 -0.001137443 0.007280979 -0.0016231716 0.013141226 -0.010467227 0.051571023
-0.008257414 -0.006184472 -0.0077920696 -0.0023746789 0.009482424 0.004531162 -0.0067955386 -0.0023098837
-0.0020517304 -0.0077851405 0.0045669456 0.003803822 0.0005330651 0.0040620286 -0.0074383835 0.010458186

gbrbm.b f4 [50]
00000000: f159 18be 36f4 14be dc58 fdbd aa42 12be
00000010: f5c9 613d 66ab a2bd 96c1 e2be 2fd4 a63c
00000020: c8f7 883d d5cc 783d cb4e a6bd ea31 73be
00000030: 4f4b 18bd 027c 35bd f527 33bd 402f 163e
00000040: 554e e1bd e49b 2bbc 52b6 6f3e 5e91 69be
00000050: add5 3fbb 4f02 10be cd06 12be d32e 813d
00000060: 47f9 b6bd 007c 88bd c717 f9bd 04b8 703d
00000070: bd68 52bd ee57 d3bd 8cbd b4bc f06b 6abe
00000080: efb7 4cbe 805a 0e3c 31b0 11be 86c2 bfbd
00000090: 322b 4bbd 00d0 b03d c6ec 00be 547e 583f
000000a0: 1f08 12be 1d74 4abd 202c 0bbd ce85 a5bd
000000b0: a638 083d b7f2 993d 2716 783d f668 2ebe
000000c0: 1c7a 8c3d 22c0 72bc
-0.1487806 -0.14546284 -0.12370464 -0.14283243 0.05512424 -0.07942848 -0.4428832 0.020364849
0.066878855 0.060742218 -0.08120497 -0.2374951 -0.037181195 -0.044307716 -0.043739278 0.14666462
-0.11001269 -0.010474179 0.23409393 -0.2280936 -0.0029271648 -0.1406338 -0.14260407 0.06307759
-0.08934265 -0.06664276 -0.12162738 0.05876924 -0.051369417 -0.10319506 -0.02206304 -0.22892737
-0.1999204 0.008688569 -0.14227368 -0.09363274 -0.04960174 0.08633423 -0.12590322 0.8456776
-0.1426091 -0.04942714 -0.033977628 -0.08082162 0.03325715 0.07516997 0.060568 -0.17032227
0.06859228 -0.014816316

gbrbm.mu f4 [50]
00000000: 66e6 fb3b 06e6 bebb 3865 50bc 11aa 0d3b
00000010: 44da 48bb 7f61 a339 a448 3bbc 3b13 48bc
00000020: ca0f 47bc 7dd2 6f3b cc0d 29bc 8110 d5bb
00000030: 12b0 adba 0589 103c e899 363c d1b0 cc3a
00000040: 2d3a d83b 701f bebb f816 0a3c 3199 84bb
00000050: 0fcf 81bb 9b77 b2bb 85c0 4ebc 9444 8dbb
00000060: 7b54 9839 a0fd c93b 7e39 23bc 95a1 433c
00000070: 54db fb3b 1055 d6b9 29c6 64bb 79fc 3bbc
00000080: f4f6 b0bb b6d6 093c fa90 9cbb 8cca 123c
00000090: db3c 9c3b 4873 a73c fee6 723a 0350 c63b
000000a0: 22a4 903c 7b11 7fbb ff5f 77b9 e0f5 353b
000000b0: 0db4 bebb 5770 1f3c 071c 9ebb ee40 ecbb
000000c0: 80c3 79b8 e8fd 5bbb
0.0076873777 -0.005825761 -0.012719445 0.002161626 -0.0030647675 0.00031162423 -0.011430893 -0.012211616
-0.0121497605 0.0036593967 -0.010318231 -0.0065022116 -0.0013251326 0.0088217305 0.011145093 0.001561666
0.006598732 -0.0058020875 0.008428328 -0.004046582 -0.003961451 -0.005446387 -0.012619142 -0.0043111537
0.00029054642 0.0061642677 -0.009962438 0.01194038 0.007686058 -0.00040880637 -0.0034908152 -0.011473768
-0.005400533 0.0084130075 -0.0047780247 0.008959424 0.0047679967 0.020440713 0.0009265988 0.0060520186
0.01765639 -0.0038920331 -0.00023591517 0.002776496 -0.0058198036 0.009731374 -0.0048251185 -0.0072098887
-5.95483e-05 -0.0033568088

gbrbm.log_var f4 [50]
00000000: 5db9 64c0 34f1 62c0 e0b9 65c0 58c6 64c0
00000010: db59 66c0 dbca 65c0 c277 64c0 e6e6 66c0
00000020: 16e4 66c0 3174 64c0 b788 63c0 b583 66c0
00000030: 664e 66c0 b824 65c0 aedf 65c0 1ef4 64c0
00000040: ecb5 67c0 488e 66c0 6005 65c0 b4cf 64c0
00000050: e86b 64c0 ffd5 65c0 6b2f 66c0 0f53 64c0
00000060: 52a0 63c0 0028 64c0 bf30 67c0 e7c0 64c0
00000070: 9aa0 65c0 df79 66c0 dbb8 64c0 7383 65c0
00000080: 5a71 69c0 f930 65c0 b156 64c0 f45b 63c0
00000090: f888 68c0 1afc 64c0 7d10 6ac0 373e 65c0
000000a0: 2a53 66c0 a23f 63c0 8463 66c0 88d5 66c0
000000b0: deb5 64c0 2e0f 68c0 efb2 66c0 72fb 63c0
000000c0: b414 63c0 8ae4 64c0
-3.5738137 -3.5459719 -3.58947 -3.574606 -3.5992343 -3.5905063 -3.5698094 -3.607843
-3.6076713 -3.5695918 -3.5552194 -3.6017888 -3.598535 -3.5803661 -3.5917773 -3.5773997
-3.6204786 -3.6024342 -3.578453 -3.5751772 -3.569086 -3.5911863 -3.5966442 -3.5675695
-3.5566602 -3.5649414 -3.6123502 -3.5742738 -3.5879273 -3.6011884 -3.5737827 -3.586148
-3.6475434 -3.581114 -3.5677912 -3.5524874 -3.63336 -3.577887 -3.6572564 -3.5819223
-3.598826 -3.5507588 -3.599824 -3.606783 -3.5736003 -3.6259265 -3.6046712 -3.562222
-3.5481386 -3.576449

gbrbm.linear_layer.weight f4 [1, 50]
00000000: 92da b53d a16c 293e 9c6d c33e 436c 8f3e
00000010: 77c3 893c c4b4 363e 642c 153f 2aa9 7cbe
00000020: 8470 a7be 6303 0ebd 3b4d 26be f9de 703e
00000030: 8c28 86be b066 1a3e 2c35 ddbd 4b91 b3bd
00000040: 0a95 9bbc dd33 7f3e 14cc c3be 0f4b c63e
00000050: 2044 d2bd 750b 91bd 4d5d 663d cece 3b3c
00000060: 61e8 003d e6e7 e7bc 831c 3bbe a32e 04be
00000070: 7fa3 863e 61dc aa3e 9c16 fabd 40af 813e
00000080: 3eeb 8c3e 8e2c 9fbe ce17 41bd b7fd b5bc
00000090: 84a8 e53d dc7e d3bd 3afb 113e ff3f d7be
000000a0: f97e 573e 2b20 e73d 86b1 3abc 2a26 7c3e
000000b0: 0b18 e4bd 055b 35be 09df 24bd 3708 b13e
000000c0: 60eb 08be 02f2 5fbe
0.088795796 0.16545345 0.38169563 0.28012285 0.016816838 0.17842394 0.5827086 -0.24673906
-0.3270303 -0.0346712 -0.16240399 0.23522557 -0.2620281 0.15078235 -0.10801157 -0.08767947
-0.018991966 0.24922128 -0.38241637 0.3872914 -0.102669 -0.070822634 0.056241322 0.01146288
0.031471614 -0.02830882 -0.18272595 -0.12908415 0.26296613 0.3337126 -0.12211344 0.25329018
0.27523226 -0.3108868 -0.047141843 -0.022215707 0.112137824 -0.10326931 0.14255992 -0.42041013
0.2104453 0.112854324 -0.011394864 0.24623933 -0.11137398 -0.17710502 -0.040251765 0.3457658
-0.13371038 -0.21869662
