final_project/lstm (drop 0.2)/type1/lstm_W15_H200_B16.pt (torch, 863725 bytes, 9 tensors)

lstm_layer.lstm1.weight_ih_l0 f4 [800, 16]
-2.2430395e-05 -3.127569e-05 -3.2991535e-05 -2.332004e-05 -1.6600922e-06 -1.8801478e-05 -1.1558201e-05 1.911143e-06
-1.1766991e-05 -6.808508e-05 2.5663493e-07 -3.4114168e-05 6.8604946e-05 -2.043288e-05 -2.6151216e-05 -3.6300367e-05
5.111155e-05 5.04894e-05 -1.661027e-05 2.4551093e-06 -4.2257e-06 -1.1544131e-05 -2.7456297e-05 -1.9161842e-05
-9.916773e-06 1.0535458e-05 -8.713663e-06 -9.127737e-07 6.997344e-07 -9.487942e-06 2.5839627e-05 1.2460552e-05
-0.00044501788 -0.00050795 -0.0005129699 0.00012287019 9.818848e-05 3.7382873e-05 0.00016933905 0.0001349076
0.000100386715 -0.00019996827 7.369225e-05 0.00011038061 0.00040628458 0.00019063904 -0.0005597616 -0.0005066477
0.00032366483 0.0003559215 0.000288022 -4.505406e-06 6.129669e-05 -0.00013166024 -6.7591434e-05 -0.00025661988
0.00015805068 0.00023964544 -6.5136046e-05 -9.901709e-05 -0.00032604474 5.2685755e-05 0.00028782102 0.00035758052
-0.00019626442 0.0001984245 -0.0001643918 -0.00010096703 -0.00010698666 -1.5947791e-05 -7.761306e-05 -2.267808e-05
-6.474405e-05 0.00019898887 -4.2915817e-05 -9.276215e-05 -0.00022515732 -0.00010073324 0.000276458 -8.425475e-05
2.4072067e-05 2.5708923e-05 2.095651e-05 -5.3461076e-06 2.918624e-05 6.273848e-05 4.66385e-05 1.9623856e-05
1.2382478e-05 -1.5959065e-05 -4.3611544e-06 7.628665e-05 8.659768e-05 3.5127156e-05 -3.1868727e-05 -1.3276527e-05
0.0007727084 0.0008435458 0.00075797277 -0.00012202576 -2.7529659e-05 -7.881895e-05 -0.00023194255 -0.00030750004
-6.346827e-05 0.0009510893 -0.00029895286 -0.00017519637 -0.0011918576 -0.00015010807 0.00080262625 0.00085782714
5.880156e-05 4.3259683e-05 4.6314803e-05 -8.946378e-06 -3.0925043e-05 -1.06570915e-05 -4.5512188e-05 -9.1056936e-05
-3.0542174e-05 0.00017125855 -5.2554442e-05 -3.8335864e-05 -0.0001630876 -7.4602426e-06 5.3716907e-05 7.442449e-05
0.0014225909 0.0013091912 0.0013253395 -0.00015357473 3.1810107e-06 0.00021279205 9.677794e-06 -0.00012695653
2.231028e-05 0.00030166857 -0.00019749645 -0.00021947459 -0.00080852275 -0.00012938866 0.0015515696 0.0013205885
-0.0003584974 -0.00035498565 -0.00030105765 0.0001478232 0.00013187117 0.00011507966 0.00023514885 0.00012510916
0.00013279829 -0.00043672172 0.00015117289 0.00013585314 0.0006361149 0.00014304859 -0.00032369935 -0.0003514818
0.0011677211 0.0012464635 0.000827423 -0.00015856308 1.43282305e-05 0.000115656214 -0.00010326848 -0.00052083866
-0.00011360659 5.348331e-05 -0.0002673594 -0.00025580148 -0.0008034285 -0.00018012991 0.0012911533 0.0011768306
-4.8014157e-05 -9.186588e-05 -0.00010173507 5.8634687e-06 3.7879967e-05 5.6736768e-05 2.5595453e-05 5.8384816e-05
-2.8718883e-05 -5.4661978e-05 2.514108e-05 6.9531816e-05 8.1509286e-05 3.5292975e-05 -9.343155e-05 -7.834314e-05
0.0007699516 0.0008054984 0.0008514873 -0.00026661495 -0.00016115546 -0.0003822317 -0.00022055954 -0.00030365685
-0.00012229892 0.0005233855 -3.587608e-05 -0.00028364055 -0.00085639174 -0.0002537837 0.00068932207 0.0008157796
6.48404e-05 6.3825886e-05 5.7495676e-05 -3.588602e-05 -3.6750593e-05 -7.513903e-06 -1.806929e-05 -2.7184074e-05
-3.708751e-05 7.340549e-05 -4.0222818e-05 -7.146021e-05 -6.6741326e-05 -2.6373978e-05 3.8067807e-05 6.3877334e-05
0.00014278726 0.00016174039 8.25162e-05 3.7869297e-05 3.6713613e-05 5.311771e-05 2.6617065e-05 7.4825286e-05
3.492568e-05 -0.0001369646 -1.3394433e-05 -1.7950582e-05 0.00017023004 -1.7811415e-05 0.00018198811 6.902077e-05
0.00010266899 -5.282691e-06 -1.6097447e-05 1.0464684e-05 3.921121e-05 1.8239314e-05 -3.3482836e-05 -5.1130282e-05
-2.8731447e-05 6.4691867e-06 2.788461e-05 -1.6778804e-05 -9.148528e-05 1.9315868e-05 8.196492e-05 5.965068e-06
00000000: e828 bcb7 042e 03b8 6460 0ab8 689f c3b7
00000010: 55d0 deb5 deb7 9db7 18ea 41b7 3041 0036
00000020: d76a 45b7 e6c8 8eb8 a3c7 8934 cf15 0fb8
00000030: 00e0 8f38 4767 abb7 4f5f dbb7 3941 18b8
00000040: 9c60 5638 95c4 5338 4956 8bb7 75c2 2436
00000050: 7dca 8db6 aaad 41b7 f351 e6b7 bebd a0b7
00000060: 3760 26b7 73c1 3037 e630 12b7 5505 75b5
00000070: 62d5 3b35 672e 1fb7 2dc2 d837 aa0d 5137
00000080: 4a51 e9b9 f327 05ba d478 06ba b7d6 0039
00000090: 8aea cd38 8ecb 1c38 9b90 3139 fc75 0d39
000000a0: b586 d238 93ae 51b9 3a8b 9a38 247c e738
000000b0: 9802 d539 47e6 4739 f7bc 12ba 8dd0 04ba
000000c0: 8fb1 a939 fa9a ba39 a901 9739 252d 97b6
000000d0: 698c 8038 470e 0ab9 e0bf 8db8 f08a 86b9
000000e0: 68ba 2539 5549 7b39 a699 88b8 65a7 cfb8
000000f0: fcf0 aab9 e6fa 5c38 afe6 9639 a579 bb39
00000100: 54cc 4db9 2c10 5039 9660 2cb9 43be d3b8
00000110: 075e e0b8 9fc7 85b7 32c4 a2b8 ce3c beb7
00000120: 32c7 87b8 aba7 5039 8200 34b8 4d89 c2b8
00000130: 3518 6cb9 bf40 d3b8 91f1 9039 edb1 b0b8
00000140: 5fee c937 7ea9 d737 c3cb af37 b762 b3b6
00000150: f9d4 f437 7792 8338 b59d 4338 e99d a437
00000160: 57be 4f37 d5df 85b7 0856 92b6 15fc 9f38
00000170: c79b b538 7f55 1338 c9aa 05b8 40be 5eb7
00000180: 958f 4a3a 6621 5d3a b1b2 463a 15e8 ffb8
00000190: 7eef e6b7 9a4b a5b8 9b35 73b9 f537 a1b9
000001a0: 451a 85b8 8652 793a c6bc 9cb9 ebb4 37b9
000001b0: 1b38 9cba 5466 1db9 5667 523a cedf 603a
000001c0: b2a1 7638 bb71 3538 2442 4238 6718 16b7
000001d0: 83b5 01b8 dccb 32b7 57e4 3eb8 d2f5 beb8
000001e0: 691a 00b8 de93 3339 e76d 5cb8 d2ca 20b8
000001f0: 7f02 2bb9 ff52 fab6 174e 6138 5814 9c38
00000200: 3b76 ba3a 2b99 ab3a 04b7 ad3a e708 21b9
00000210: 5979 5536 ee20 5f39 cf5d 2237 a21f 05b9
00000220: f626 bb37 4529 9e39 0d17 4fb9 c322 66b9
00000230: 0bf3 53ba 81ac 07b9 095e cb3a 9917 ad3a
00000240: b5f4 bbb9 5e1d bab9 46d7 9db9 fd00 1b39
00000250: e646 0a39 ec56 f138 4a92 7639 bc2f 0339
00000260: c53f 0b39 ccf7 e4b9 2a84 1e39 cd73 0e39
00000270: f3c0 263a 50ff 1539 31b6 a9b9 1747 b8b9
00000280: 380e 993a 6060 a33a 6be7 583a f443 26b9
00000290: 4863 7037 758c f238 d891 d8b8 e488 08ba
000002a0: 1340 eeb8 4453 6038 5f2c 8cb9 181d 86b9
000002b0: 2d9d 52ba 41e1 3cb9 ea3b a93a e23f 9a3a
000002c0: cf62 49b8 1ea8 c0b8 9a5a d5b8 d0be c436
000002d0: 4ee1 1e38 a4f8 6d38 d1b5 d637 38e2 7438
000002e0: 55e9 f0b7 da44 65b8 0fe6 d237 9cd1 9138
000002f0: f7ef aa38 8b07 1438 aef0 c3b8 274c a4b8
00000300: 94d6 493a 1528 533a 5836 5f3a 74c8 8bb9
00000310: d7fb 28b9 4566 c8b9 0046 67b9 2234 9fb9
00000320: 5e3d 00b9 ce33 093a a679 16b8 97b5 94b9
00000330: 7a7f 60ba 460e 85b9 9fb3 343a 0bda 553a
00000340: edfa 8738 43da 8538 8327 7138 5284 16b8
00000350: a624 1ab8 ef1f fcb6 8193 97b7 5b09 e4b7
00000360: 698e 1bb8 46f1 9938 ecb4 28b8 e8dc 95b8
00000370: 7af7 8bb8 b03d ddb7 ffaa 1f38 e2f5 8538
00000380: 2ab9 1539 db98 2939 8c0c ad38 d9d5 1e38
00000390: f1fc 1938 b5ca 5e38 b647 df37 85eb 9c38
000003a0: 2a7d 1238 289e 0fb9 a7b8 60b7 9594 96b7
000003b0: c77f 3239 b969 95b7 10d4 3e39 3ebf 9038
000003c0: ff4f d738 f841 b1b6 0109 87b7 7a91 2f37
000003d0: b776 2438 a100 9937 ec6f 0cb8 b974 56b8
000003e0: 5004 f1b7 e411 d936 bee9 e937 35c0 8cb7
000003f0: c9db bfb8 8308 a237 95e4 ab38 8b27 c836

lstm_layer.lstm1.weight_hh_l0 f4 [800, 200]
4.15594e-07 5.8561852e-08 -1.342519e-07 -2.5217693e-07 -3.0650034e-07 -7.2528707e-07 -1.6546312e-07 4.971023e-07
-1.7081245e-06 1.1310702e-06 1.1198964e-06 1.7825412e-08 1.2182786e-06 1.4744376e-07 5.1523326e-08 -1.2765948e-06
2.9746536e-08 1.5476713e-08 -2.6214e-07 2.5682039e-07 6.0975015e-07 -2.8832508e-06 -3.212598e-07 6.087467e-07
3.9720653e-06 2.435192e-07 9.1062896e-07 -8.2982905e-07 2.5704483e-07 -1.2721496e-07 2.58422e-07 9.1233005e-07
5.3965454e-07 -1.02844005e-07 1.2441288e-06 1.9344295e-08 -3.7205328e-07 1.4517421e-09 3.8900657e-07 -1.6625437e-07
2.9789948e-07 6.4572966e-08 -4.3899408e-07 2.1539397e-06 7.712888e-08 -6.264692e-07 -4.1989372e-07 -3.556354e-06
3.0184884e-07 7.6337574e-07 3.988996e-08 1.0487596e-07 -4.3742403e-07 -1.3872435e-07 -1.3065188e-07 -7.396535e-07
-2.1797148e-07 -3.2146731e-06 5.0519528e-08 -1.02857946e-07 -3.7795448e-07 -9.644866e-07 3.0546892e-07 -5.617167e-07
1.512031e-06 -1.282371e-07 -1.421061e-07 4.5165316e-07 -4.4209088e-07 -2.9683437e-07 -6.889493e-07 4.6183672e-07
6.866893e-08 6.747629e-07 -2.8318092e-07 1.03672534e-07 1.7958442e-07 2.5527065e-06 -2.2411723e-07 -2.434091e-07
-1.1673964e-06 -1.3860618e-07 -1.0179901e-06 -6.564811e-07 -1.6843777e-07 -4.5007204e-07 8.5854754e-07 1.9284322e-07
1.5920393e-06 -1.1027102e-07 -1.1854425e-07 1.5691344e-06 5.491187e-07 4.693053e-07 -7.233998e-07 -4.1425583e-08
1.4189133e-07 1.8986826e-08 -4.4620842e-06 5.206187e-07 1.237397e-07 7.8262445e-07 -8.4147496e-07 -4.7773733e-07
-9.3188255e-08 -3.4755607e-07 8.688252e-07 3.4078207e-07 -6.9161797e-07 -3.85664e-06 -2.3785125e-07 -3.5366358e-07
1.2821055e-06 3.458683e-08 4.3632166e-08 -5.5943786e-07 -4.264083e-07 -2.2173963e-07 -3.3972004e-08 -2.3971675e-06
-2.6295285e-07 6.5032225e-07 -2.4258594e-07 1.2191765e-06 8.48391e-08 2.4450305e-06 4.98336e-06 -1.9825443e-07
1.2274208e-07 1.138917e-06 1.2102883e-07 -2.8150867e-08 -4.589608e-07 2.1297008e-07 -3.034995e-07 -2.4258594e-07
4.4488584e-07 -9.652824e-07 -3.532462e-09 -6.8554533e-07 -6.398279e-07 3.0476752e-07 -6.885155e-08 2.893982e-07
-1.055021e-07 -1.0182023e-06 -1.3661851e-07 8.229842e-08 -3.0360514e-08 2.1062745e-07 -1.0997709e-07 1.8136711e-07
-3.1753186e-07 1.3314533e-06 -5.5554636e-07 1.5727411e-06 1.2209302e-06 -6.443881e-07 3.05655e-07 -4.544432e-08
4.94658e-07 -8.142265e-09 1.6100573e-07 -3.9450072e-07 -4.2133004e-07 3.7996622e-07 1.7190206e-06 3.998529e-06
-1.5837011e-06 3.5693353e-07 -1.2129726e-08 8.0883046e-07 3.7878664e-07 -2.4810456e-06 -8.444723e-07 1.4422358e-07
2.2163526e-06 -3.2750005e-08 6.8704543e-07 3.492422e-07 3.1168506e-07 1.5417612e-07 -4.709115e-07 -1.7274411e-06
2.2211402e-06 -1.0080663e-06 -3.083167e-07 4.6829703e-07 -6.441745e-08 -9.564203e-07 8.697356e-07 2.7409627e-07
-7.596118e-07 -5.39753e-07 8.91167e-08 3.8505016e-07 3.6660376e-07 -2.3681385e-07 5.7850633e-07 4.314377e-08
8.3623e-08 -3.3940773e-07 1.2315454e-07 1.3367575e-06 -1.2163315e-06 1.1120286e-06 1.6319109e-06 -4.1176986e-07
-2.6015305e-06 -5.7197553e-07 9.725247e-07 -6.538232e-07 -7.442432e-07 3.403892e-07 1.0755164e-06 -1.0498701e-06
3.448274e-07 -6.005001e-07 1.4490884e-07 -1.3604001e-07 9.3533424e-07 3.0649173e-06 8.9620876e-08 -4.1607038e-07
-4.2018837e-06 -4.7397714e-07 -1.874049e-06 -1.1404743e-06 -5.5644097e-07 5.0811934e-08 -4.82765e-07 5.015736e-07
-1.761473e-07 -6.7348175e-08 -1.1644014e-06 1.0849942e-07 2.1723555e-07 -1.6965835e-07 4.4224194e-08 -6.187306e-07
-3.7932284e-06 -2.3175051e-08 1.2850253e-07 1.7977529e-06 -7.498842e-07 1.8065266e-07 2.0490793e-06 -3.7062055e-06
-1.1071984e-06 5.002096e-06 1.0231509e-07 2.4206437e-07 1.4195393e-06 -5.5228075e-08 5.7852645e-07 6.7038843e-07
00000000: ce1e df34 7085 7b33 e226 10b4 ef62 87b4
00000010: 168d a4b4 59b1 42b5 28aa 31b4 9c70 0535
00000020: b642 e5b5 47cf 9735 594f 9635 7f1e 9932
00000030: bc83 a335 0851 1e34 7f4a 5d33 7757 abb5
00000040: 5385 ff32 a7f1 8432 3fbc 8cb4 20e1 8934
00000050: b6ad 2335 df7d 41b6 9c79 acb4 c168 2335
00000060: c847 8536 06bd 8234 f271 7435 6bc1 5eb5
00000070: f9ff 8934 9598 08b4 40bd 8a34 d8e6 7435
00000080: c7dc 1035 17db dcb3 f1fb a635 8e2a a632
00000090: 9dbe c7b4 a286 c730 a8d8 d034 a783 32b4
000000a0: feee 9f34 5dab 8a33 e3ae ebb4 678c 1036
000000b0: 0da2 a533 a32a 28b5 c16d e1b4 b2a9 6eb6
000000c0: ca0d a234 c8ea 4c35 7a53 2b33 2b38 e133
000000d0: 1ad7 eab4 42f4 14b4 5149 0cb4 9a8c 46b5
000000e0: 8b0b 6ab4 aabb 57b6 cffa 5833 c1e2 dcb3
000000f0: abe9 cab4 8273 81b5 54ff a334 e1c8 16b5
00000100: fdf0 ca35 8cb1 09b4 d495 18b4 bd7a f234
00000110: 8258 edb4 9b5c 9fb4 3cf0 38b5 5bf2 f734
00000120: 2577 9333 5a21 3535 1708 98b4 94a2 de33
00000130: cad3 4034 2a4f 2b36 e0a4 70b4 e4ad 82b4
00000140: 6faf 9cb5 c7d3 14b4 e0a1 88b5 0a39 30b5
00000150: d2db 34b4 6ea1 f1b4 f076 6635 5710 4f34
00000160: 0eae d535 22ce ecb3 6492 feb3 0c9b d235
00000170: 2667 1335 d4f4 fb34 a82f 42b5 e9eb 31b3
00000180: cb5a 1834 7918 a332 03b9 95b6 a5c0 0b35
00000190: 4fdd 0434 8b15 5235 b8e1 61b5 dc3d 00b5
000001a0: c91e c8b3 be97 bab4 3739 6935 bbf4 b634
000001b0: a0a7 39b5 4968 81b6 0e64 7fb4 27df bdb4
000001c0: cf14 ac35 9f8c 1433 1366 3b33 472c 16b5
000001d0: 1ced e4b4 5317 6eb4 9de8 11b3 06df 20b6
000001e0: f72b 8db4 ce91 2e35 c23c 82b4 96a2 a335
000001f0: ca30 b633 4e15 2436 bd36 a736 c3df 54b4
00000200: 16cb 0334 e4dc 9835 27f4 0134 69d0 f1b2
00000210: 1867 f6b4 c5ac 6434 a7f0 a2b4 c23c 82b4
00000220: a5d8 ee34 da8e 81b5 bbbf 72b1 5106 38b5
00000230: a3c0 2bb5 ee9e a334 8adb 93b3 965e 9b34
00000240: 6590 e2b3 2aa9 88b5 69b1 12b4 09bc b033
00000250: bd65 02b3 d528 6234 8b2c ecb3 d0bd 4234
00000260: 3f79 aab4 63b4 b235 db20 15b5 f916 d335
00000270: d8de a335 03fa 2cb5 e718 a434 8f2e 43b3
00000280: a4c8 0435 0fe2 0bb2 ebe0 2c34 c4cb d3b4
00000290: 2933 e2b4 29fe cb34 19b9 e635 1a2b 8636
000002a0: 8e8f d4b5 92a0 bf34 1963 50b2 681e 5935
000002b0: 0a5c cb34 0a80 26b6 b2af 62b5 e0db 1a34
000002c0: a6bc 1436 03a9 0cb3 676d 3835 7c7f bb34
000002d0: ab55 a734 9c8b 2534 95d1 fcb4 6dda e7b5
000002e0: e60e 1536 e54c 87b5 b986 a5b4 416a fb34
000002f0: de55 8ab3 5a5e 80b5 c677 6935 8127 9334
00000300: 20e8 4bb5 8be3 10b5 6d60 bf33 e4b8 ce34
00000310: a3d1 c434 e546 7eb4 a74a 1b35 144d 3933
00000320: 3b94 b333 d837 b6b4 763c 0434 a36a b335
00000330: d540 a3b5 0341 9535 0808 db35 3811 ddb4
00000340: f495 2eb6 dc89 19b5 b287 8235 6382 2fb5
00000350: 01c8 47b5 bcbe b634 765a 9035 43e9 8cb5
00000360: b820 b934 0d32 21b5 3d98 1b34 6512 12b4
00000370: ae13 7b35 e1ae 4d36 9975 c033 4760 dfb4
00000380: e8fd 8cb6 ec76 feb4 d587 fbb5 6612 99b5
00000390: 555e 15b5 503c 5a33 5c97 01b5 e0a3 0635
000003a0: 0023 3db4 0da1 90b3 8748 9cb5 3000 e933
000003b0: 4141 6934 552b 36b4 04f1 3d33 d816 26b5
000003c0: 2b8f 7eb6 7a12 c7b2 82fa 0934 524a f135
000003d0: a64b 49b5 6df9 4134 ea82 0936 20b8 78b6
000003e0: 0c9b 94b5 add7 a736 51b8 db33 13f5 8134
000003f0: 0087 be35 e933 6db3 094c 1b35 bef4 3335

lstm_layer.lstm1.bias_ih_l0 f4 [800]
-8.4203006e-05 2.6719546e-05 -0.000669889 0.0002087507 -0.00017223388 -8.410527e-05 0.001152311 0.00017375896
0.0010958202 -0.00069822377 0.0009554894 -9.0259935e-05 0.00094138045 6.634437e-05 -7.174744e-05 0.000118958254
-0.00020259627 -0.00012379941 8.781536e-06 -0.00019419684 0.0006259982 0.0036775118 -4.883914e-05 0.00082889077
0.0019559334 0.00014733526 0.0013390424 -9.7357544e-05 -8.3038445e-05 5.0824514e-05 -2.3003484e-05 -2.8262461e-06
4.331265e-05 -2.2220116e-05 2.6832802e-05 5.6775785e-05 6.267847e-05 0.0002372135 -8.360319e-05 0.00017786869
3.077744e-05 -0.000110808556 1.3161272e-05 0.00043356777 -0.00010244883 -0.00017320154 0.00029969533 0.0030893523
0.000101931895 0.0027985545 -6.105027e-05 0.00013577219 -0.00026082984 2.9014049e-05 -1.562901e-05 0.0004439417
0.0002915089 0.0021314523 -2.2348575e-05 -0.00027305886 -7.401124e-06 -2.4026784e-05 -0.00052394613 -9.051454e-05
-0.0011696173 6.202636e-06 2.2089975e-05 -6.4454565e-05 0.00046791663 0.0003276052 0.00012497784 -1.0044862e-05
1.4454578e-05 -0.00024921919 -8.147624e-05 -3.5667632e-05 7.184816e-05 -0.00011993797 -6.9794754e-05 -2.4718867e-05
0.0002340874 -2.2939636e-05 0.00043982954 -0.00041670282 -6.8948735e-05 -0.00018253746 0.00020084913 0.00028122592
0.00023768586 -0.0001434828 3.695458e-05 0.0017934879 0.00013262079 0.0005581417 -2.72601e-05 2.0856434e-05
8.58567e-06 -0.00015526744 0.006597624 0.0015548851 -0.00067591673 0.0003528834 0.00071556005 0.00018252888
-9.795316e-05 -0.00016992756 0.0001429331 6.387522e-05 0.0003959641 0.0038814829 -0.00035933833 0.004913602
0.001006863 4.6726793e-05 3.917425e-06 -8.095135e-05 0.00021242125 -3.347325e-05 0.00048083276 0.010096681
0.00013682287 -0.0001803779 -0.00011530073 0.0003389087 -2.0276457e-05 0.0015998691 0.010354394 4.2036325e-05
-5.0474424e-05 0.0031592837 7.835e-05 -6.594246e-06 0.00030151583 -0.00016037202 -1.6243188e-05 -0.0001934225
0.0001851974 0.00082653516 5.792101e-06 0.0014480051 -9.184784e-05 4.987045e-06 2.1643466e-05 0.00027081268
-7.6800054e-05 0.0010173584 1.1845988e-05 -3.8216822e-05 -0.00018949236 0.00021443101 4.024157e-05 3.850526e-05
4.673049e-05 0.00028791558 0.007906982 0.00047185904 0.0011621809 0.00064689957 -2.0200843e-05 3.09641e-05
0.00027493224 3.8579485e-05 6.2621664e-05 6.3760424e-05 -9.190763e-06 7.0084636e-05 0.010725439 0.010765601
0.0003372741 -3.0561466e-06 0.00036765935 0.003699252 8.38523e-06 0.005483643 -0.00035016527 2.6928159e-05
0.004166649 0.00017180006 -3.6252575e-05 0.00096645055 1.7080885e-05 0.0005793977 0.00075925345 0.00095210766
0.0012111287 0.0020908907 -0.00011669918 0.00020292224 -0.0001267418 0.0024496901 0.00015186047 -7.955818e-05
0.00029327214 0.0006935915 0.010557499 0.00037374272 -0.00016258881 -4.2187196e-05 0.00063751946 6.462469e-05
-0.000106867425 -5.983842e-05 -0.00020686949 0.00020854197 0.00033749026 -7.650194e-05 0.001119448 0.00016448415
0.0006691792 -0.0006193296 0.00081870344 -8.419166e-05 0.00089861936 2.8698525e-05 -6.805826e-05 0.00013074721
-0.000100405814 -0.000119821394 4.456527e-05 -0.00018471494 0.000690402 0.0037123284 -5.2573854e-05 0.0010318905
0.0020772167 0.0001428911 0.0012916534 0.0008396553 -8.3366336e-05 0.00020322889 -1.8868048e-05 -9.260022e-05
-1.3832953e-05 9.9940735e-06 8.1896214e-05 5.951146e-05 -6.0065763e-06 0.00020456416 3.3727058e-05 0.00018389507
2.9939873e-05 -8.522396e-05 1.7781409e-05 0.0005326848 -7.705223e-05 -0.00021093157 0.00027432977 0.00311427
7.373496e-05 0.0027868561 -7.504751e-05 7.498038e-05 -1.3382074e-06 1.49510015e-05 -3.075528e-05 0.00034737942
00000000: 2596 b0b8 ca23 e037 7d9b 2fba 17e4 5a39
00000010: ae99 34b9 ac61 b0b8 2409 973a 1133 3639
00000020: a0a1 8f3a 0109 37ba cf79 7a3a ef49 bdb8
00000030: f9c6 763a 5d22 8b38 1d77 96b8 3a79 f938
00000040: 0670 54b9 27d0 01b9 6954 1337 51a1 4bb9
00000050: 071a 243a 6902 713b a1d8 4cb8 eb49 593a
00000060: 1e2f 003b 027e 1a39 cf82 af3a 6f2c ccb8
00000070: ed24 aeb8 682c 5538 9bf7 c0b7 8aaa 3db6
00000080: 9baa 3538 5665 bab7 0117 e137 8922 6e38
00000090: 3f72 8338 84bc 7839 1f54 afb8 4382 3a39
000000a0: 0617 0138 e461 e8b8 3ccf 5c37 7b50 e339
000000b0: ccd9 d6b8 6f9d 35b9 6d20 9d39 bb76 4a3b
000000c0: 45c4 d538 f467 373b 1d08 80b8 125e 0e39
000000d0: fdbf 88b9 3263 f337 0b1b 83b7 d9c0 e839
000000e0: aad5 9839 d6af 0b3b 3379 bbb7 5729 8fb9
000000f0: 2c57 f8b6 208d c9b7 6e59 09ba a0d2 bdb8
00000100: d84d 99ba 3d20 d036 dc4d b937 c82b 87b8
00000110: b552 f539 6dc2 ab39 7c0c 0339 5b86 28b7
00000120: f181 7237 a2a9 82b9 39de aab8 d499 15b8
00000130: 30ad 9638 3587 fbb8 c65e 92b8 5d5b cfb7
00000140: 5c75 7539 7e6e c0b7 ec98 e639 e878 dab9
00000150: 9298 90b8 8767 3fb9 079b 5239 8171 9339
00000160: 503b 7939 df73 16b9 aeff 1a38 7813 eb3a
00000170: 1f10 0b39 4150 123a 9eac e4b7 daf4 ae37
00000180: 2c0b 1037 49cf 22b9 e230 d83b 49cd cb3a
00000190: 0130 31ba 3503 b939 6c94 3b3a 3965 3f39
000001a0: 346c cdb8 952e 32b9 50e0 1539 bff4 8538
000001b0: 6799 cf39 7a60 7e3b 9365 bcb9 4802 a13b
000001c0: b7f8 833a 83fc 4338 6d72 8336 6dc4 a9b8
000001d0: 65bd 5e39 a165 0cb8 4818 fc39 8d6c 253c
000001e0: 1c78 0f39 d323 3db9 9ccd f1b8 8eaf b139
000001f0: 5c17 aab7 b3b2 d13a 7aa5 293c 2950 3038
00000200: 80b4 53b8 fc0b 4f3b d64f a438 2444 ddb6
00000210: c514 9e39 8929 28b9 fb41 88b7 75d1 4ab9
00000220: 8c31 4239 d6ab 583a c559 c236 fdca bd3a
00000230: 6f9e c0b8 6456 a736 fd8e b537 ddfb 8d39
00000240: b70f a1b8 e258 853a 22be 4637 004b 20b8
00000250: 78b2 46b9 e3d8 6039 0fc9 2838 b580 2138
00000260: 7b00 4438 60f3 9639 498c 013c d963 f739
00000270: 5254 983a b294 293a fb74 a9b7 73df 0138
00000280: c824 9039 68d0 2138 c053 8338 1eb7 8538
00000290: 0732 1ab7 67fa 9238 c0b9 2f3c 3462 303c
000002a0: 2ad4 b039 3318 4db6 67c2 c039 266f 723b
000002b0: 4aae 0c37 22b0 b33b 6396 b7b9 c8e3 e137
000002c0: 6388 883b 3a25 3439 e80d 18b8 6659 7d3a
000002d0: ec48 8f37 b9e2 173a a308 473a dd96 793a
000002e0: bcbe 9e3a 5307 093b 65bc f4b8 86c7 5439
000002f0: fee5 04b9 fb8a 203b bc3c 1f39 79d8 a6b8
00000300: 52c2 9939 23d2 353a 5cf9 2c3c e6f2 c339
00000310: 9a7c 2ab9 28f2 30b8 351f 273a 1e87 8738
00000320: 031e e0b8 04fb 7ab8 1beb 58b9 0fac 5a39
00000330: 2df1 b039 ab6f a0b8 71ba 923a 6179 2c39
00000340: db6b 2f3a 825a 22ba 429e 563a 0e90 b0b8
00000350: 5391 6b3a 9dbd f037 80ba 8eb8 3019 0939
00000360: f690 d2b8 9f48 fbb8 98eb 3a38 0ab0 41b9
00000370: 18fc 343a 894a 733b bf82 5cb8 8040 873a
00000380: ea21 083b 0ad5 1539 b24c a93a 501c 5c3a
00000390: f6d4 aeb8 d719 5539 d346 9eb7 5d32 c2b8
000003a0: 1514 68b7 38ac 2737 b2bf ab38 f29b 7938
000003b0: 198c c9b6 4680 5639 2776 0d38 f5d3 4039
000003c0: 6327 fb37 44ba b2b8 4929 9537 dfa3 0b3a
000003d0: 1a97 a1b8 832d 5db9 ebd3 8f39 c818 4c3b
000003e0: 28a2 9a38 b0a3 363b d362 9db8 c93e 9d38
000003f0: 759c b3b5 10d6 7a37 3bff 00b8 7a20 b639

lstm_layer.lstm1.bias_hh_l0 f4 [800]
-0.000107593136 4.4526492e-05 -0.0006740383 0.00020589956 -0.00034496246 -5.086439e-05 0.0012827934 0.00019210466
0.0013014098 -0.00061133615 5.969755e-06 -9.615457e-05 0.0009527981 2.554485e-05 -0.00012659778 -1.1700997e-05
-0.00021978244 -7.8426965e-05 5.035299e-06 -0.00016643011 0.00024273587 0.0035454007 -5.4810916e-05 0.00060512585
0.0021030495 0.00014311682 0.0013988583 0.00034050547 -2.5377316e-05 0.00015167592 -3.6020512e-05 -6.4658925e-05
-1.485985e-05 -3.771763e-05 7.4268755e-05 5.8123303e-05 -1.7845885e-05 0.0001929927 6.42649e-05 0.00026940025
2.8366918e-05 -0.0001247499 1.8217761e-05 0.00050407776 -7.240076e-05 -0.00021435981 0.00015511236 0.0030970885
0.00012021303 0.002797329 -5.146125e-05 0.00013016135 -0.00024013159 3.4553505e-05 -7.269276e-06 0.00043194677
0.00025447446 0.002139182 1.4711777e-06 -0.0003121249 3.184911e-05 -6.1517194e-06 -0.00030201743 -9.714346e-05
-0.0014231064 0.0007371318 4.0314353e-05 -9.2555674e-05 0.0005308329 0.00039441526 -0.00039579172 1.4248578e-05
-4.0973555e-06 -0.00024150024 -0.00010414069 -2.1699103e-05 -4.551091e-06 -0.00011700609 -6.691112e-05 1.909912e-05
0.00025462022 -1.2886767e-05 0.0005038776 -6.185715e-05 -5.5588545e-05 -0.00018198932 0.00020243897 0.00031599886
0.0002515966 -0.00021266399 4.9221384e-05 0.0018483861 0.0001355776 0.0008777223 2.7640863e-05 3.57586e-05
8.621242e-06 -5.185222e-05 0.006595235 0.0017878794 -0.0003746842 0.0004223587 0.0005588814 0.00015641405
-5.325923e-05 -0.00017720579 -0.00026549184 4.9030614e-06 0.00040345284 0.0038248743 -0.0004330669 0.004915053
0.00050832116 3.2468935e-05 4.560092e-06 -2.3514915e-05 8.0249105e-05 -7.761064e-05 0.0004254362 0.010098148
0.00015995768 -0.0001915966 -0.00013981422 0.00035700935 -5.4846576e-05 0.0018263988 0.0103990855 5.9497575e-05
-5.6028995e-05 0.0032235805 7.7876204e-05 -1.0588034e-05 0.0003014252 -3.6881793e-05 2.0781963e-05 -0.00019654617
0.0001230369 0.0012060012 1.1880259e-05 0.0014703281 0.00022506237 2.2388317e-06 -2.3148446e-05 0.0002631193
-9.5546726e-05 0.0006084621 1.00343705e-05 -3.1260035e-05 -0.00028597107 0.00020922834 -3.926255e-05 4.0305124e-05
6.7081396e-06 0.00027060314 0.0079174675 0.00041778074 0.0013109912 0.0005852783 -7.993633e-05 2.2950351e-05
0.00022165757 -5.4271266e-05 2.0128868e-05 6.971255e-05 -5.4648437e-05 7.835197e-05 0.010725766 0.010767253
0.0008582237 -9.0163536e-07 0.00040116193 0.0037013765 1.8385726e-05 0.005454946 -0.00036440376 -3.3025908e-06
0.004235473 0.00011104216 0.00019362119 -4.536019e-05 -1.9940975e-05 0.00068758853 0.0007396122 0.0009346733
0.0010903811 0.0020988851 -0.00013962922 0.0002182333 -0.00010686388 0.002817856 0.00014111542 -3.4773825e-06
0.0005638747 0.0005754721 0.010557604 0.0003487926 -0.00015897256 -2.1979438e-05 0.00054097385 6.1842846e-05
-9.1092916e-05 -5.9257207e-05 -0.00022438738 0.0002971857 0.0003301137 -7.229885e-05 0.001270512 0.00010814499
0.0006601624 -0.0005297209 6.762523e-05 -0.00012369751 0.00034069852 6.9168826e-05 0.00010239252 -2.8427965e-05
-0.00012914167 -0.00012065537 3.8704067e-05 -0.0001928953 0.00060991687 0.0035889554 -1.554801e-05 0.0010413539
0.0019099438 0.00014048489 0.001328389 0.00082987663 -7.1374934e-06 0.00019338212 -3.5097153e-05 -3.6221281e-06
-3.1377487e-05 -2.7894057e-05 4.7281555e-05 3.6834306e-05 -2.9870333e-05 0.0003307569 0.000128558 0.00026447832
2.9873374e-05 -0.00015394717 -3.0429517e-06 0.000694998 -7.2389514e-05 -4.627822e-05 0.0002924708 0.0031142675
9.004173e-05 0.0027875397 -3.5930036e-05 6.637221e-05 -3.8511538e-05 1.9292405e-05 -1.09504235e-05 0.00037895754
00000000: a0a3 e1b8 f5c1 3a38 f2b1 30ba bee6 5739
00000010: 14dc b4b9 3957 55b8 6723 a83a b46f 4939
00000020: 1194 aa3a 1342 20ba ce4f c836 97a6 c9b8
00000030: 33c5 793a 2649 d637 55bf 04b9 664f 44b7
00000040: 6675 66b9 2879 a4b8 e4f4 a836 be83 2eb9
00000050: ea86 7e39 f459 683b c6e4 65b8 4fa1 1e3a
00000060: 51d3 093b a111 1639 e559 b73a df85 b239
00000070: 5fe1 d4b7 320b 1f39 bb14 17b8 7f99 87b8
00000080: 924e 79b7 ff32 1eb8 bcc0 9b38 6cc9 7338
00000090: bfb3 95b7 155e 4a39 f5c5 8638 4a3e 8d39
000000a0: 7ef5 ed37 4ccf 02b9 58d2 9837 1624 043a
000000b0: ddd5 97b8 c6c5 60b9 a8a5 2239 86f8 4a3b
000000c0: e11a fc38 6553 373b 19d8 57b8 ec7b 0839
000000d0: d5cb 7bb9 8bed 1038 9bea f3b6 ea76 e239
000000e0: fc6a 8539 8531 0c3b 4875 c535 b2a4 a3b9
000000f0: b995 0538 de6a ceb6 1858 9eb9 7fb9 cbb8
00000100: 8787 baba 143c 413a 3517 2938 731a c2b8
00000110: 9827 0b3a 85c9 ce39 4482 cfb9 2d0d 6f37
00000120: 047c 89b6 3a3b 7db9 1b66 dab8 7806 b6b7
00000130: 93b5 98b6 2b61 f5b8 a252 8cb8 0c37 a037
00000140: 8c7e 8539 3e34 58b7 a716 043a 4eb9 81b8
00000150: bf27 69b8 63d4 3eb9 cc45 5439 a6ac a539
00000160: b9e8 8339 8efe 5eb9 0f73 4e38 8c45 f23a
00000170: d629 0e39 f216 663a 4dde e737 81fb 1538
00000180: f4a3 1037 e67b 59b8 d71c d83b 4757 ea3a
00000190: 4371 c4b9 0670 dd39 e581 123a 1403 2439
000001a0: aa62 5fb8 51d0 39b9 b631 8bb9 fa84 a436
000001b0: 8686 d339 beaa 7a3b 410d e3b9 740e a13b
000001c0: db40 053a 412f 0838 e402 9936 e541 c5b7
000001d0: 694b a838 e5c2 a2b8 150d df39 b472 253c
000001e0: 50ba 2739 52e7 48b9 189b 12b9 fc2c bb39
000001f0: 100b 66b8 c663 ef3a ed60 2a3c 098d 7938
00000200: ad00 6bb8 b542 533b 7851 a338 42a3 31b7
00000210: 9b08 9e39 86b1 1ab8 ed54 ae37 f617 4eb9
00000220: 7703 0139 af12 9e3a 5351 4737 06b8 c03a
00000230: b8fe 6b39 d63e 1636 e92e c2b7 46f3 8939
00000240: 4260 c8b8 3381 1f3a 4b59 2837 351d 03b8
00000250: 63ee 95b9 4e64 5b39 d8ad 24b8 4c0d 2938
00000260: 7b16 e136 bddf 8d39 44b8 013c 9509 db39
00000270: 91d5 ab3a 5d6d 193a 7ea3 a7b8 8185 c037
00000280: c06c 6839 54a1 63b8 6ada a837 a432 9238
00000290: 5036 65b8 e550 a438 20bb 2f3c 2269 303c
000002a0: 6bfa 603a e907 72b5 0b53 d239 cb92 723b
000002b0: 0c3b 9a37 67bf b23b 720d bfb9 14a2 5db6
000002c0: b9c9 8a3b 4edf e838 cb06 4b39 2241 3eb8
000002d0: eb46 a7b7 493f 343a 89e2 413a dd04 753a
000002e0: 1eeb 8e3a 738d 093b 6f69 12b9 8ed5 6439
000002f0: 1c1c e0b8 c7ab 383b 62f8 1339 fa5c 69b6
00000300: fed0 133a 47db 163a cdf9 2c3c 26de b639
00000310: dfb1 26b9 7c60 b8b7 24d0 0d3a a0b1 8138
00000320: 2309 bfb8 f18a 78b8 8749 6bb9 97cf 9b39
00000330: 1c13 ad39 269f 97b8 4f87 a63a e6cb e238
00000340: c00e 2d3a f8dc 0aba 05d2 8d38 ccb4 01b9
00000350: c89f b239 bb0e 9138 91bb d638 9778 eeb7
00000360: 346a 07b9 5c08 fdb8 2d56 2238 f043 4ab9
00000370: d4e2 1f3a ae34 6b3b 196d 82b7 0a7e 883a
00000380: 1457 fa3a 204f 1339 571d ae3a 148c 593a
00000390: 9a7e efb6 9ec6 4a39 4835 13b8 b013 73b6
000003a0: 529b 03b8 08fe e9b7 2f50 4638 897e 1a38
000003b0: 0d92 fab7 7169 ad39 86cd 0639 aea9 8a39
000003c0: 9598 fa37 e16c 21b9 8335 4cb6 8730 363a
000003d0: d3cf 97b8 dc1a 42b8 c456 9939 bd18 4c3b
000003e0: c9d4 bc38 28af 363b 95b3 16b8 4f31 8b38
000003f0: 7387 21b8 20d6 a137 b6b7 37b7 d2ae c639

gbrbm.W f4 [200, 200]
0.0031523802 -0.0027734737 0.0017108347 -0.0014173447 0.00041882534 0.0021274104 -0.001254638 0.00075574673
0.0003715351 -0.00042800594 -0.0017882594 0.0013129839 0.0031098467 0.0022691893 -0.0002917643 0.0036451598
0.00026597688 0.0027034092 -0.0007281554 0.0028534378 -0.0014053428 0.0015572221 0.0010984624 -0.0005382602
0.0015755058 0.0052771126 0.004043113 -0.0023510796 0.004659931 0.0036382643 0.0026865301 -0.0002830454
0.0011850811 -0.0006570725 -0.005566576 0.00034982344 0.000603389 -0.00095537823 -0.0025652442 0.0023006715
0.00048429813 0.003414344 -0.0014290911 -0.00058850157 -0.00036288626 -0.0019103189 -0.0022381952 0.0037033716
0.00015311684 0.005472392 -0.0031629323 -0.0010320987 -0.0012810751 -2.5482962e-06 0.0016030066 0.0023110546
0.0029094073 -0.006932322 0.0021787689 -0.0011133689 0.0025441097 3.4298115e-05 0.00077897054 -0.0028587491
-0.00194056 0.0023786093 0.0021425597 -0.0022603392 1.8138271e-05 0.0029411437 -0.002916395 0.0026647272
0.0043409267 0.0014354816 -0.0020653082 -0.0032118368 0.0019653854 -0.0007336434 -0.0010404855 0.002981061
0.002656118 -0.0024270485 -0.002355438 0.0035109515 0.00068202784 0.004215443 -0.00028021232 0.0007516379
-4.964874e-05 -0.0017180283 -0.0011788848 -0.0051779877 0.000300479 0.0025480646 -0.00017833138 -0.0028136116
0.0015715328 0.0029065032 -0.0035518229 -0.0033941695 -0.0008246723 0.002071109 -0.0022519585 0.0018154803
0.0024501835 -0.0034579276 0.0003651949 -0.00014441862 0.003947484 -6.410807e-05 -0.0005966352 -0.002359403
0.00032056367 -0.0036268744 -0.0005375652 -0.0042541362 -0.00062111916 -0.001589916 -0.00023422309 0.0025876577
0.0019756535 -0.0020028835 -0.0043579894 -0.0046684765 -0.0019574377 0.0040224246 -0.002308782 -0.0017726006
0.0019378988 0.0014773499 0.0012097949 0.0012480594 0.0016163068 -0.0011818679 -0.0010776463 0.0013856099
0.002016567 0.001922019 0.0004890945 0.0027584936 0.00074532075 0.003095009 0.0016305948 0.00055062235
0.0008958673 -0.0008129721 0.001928318 -0.0032593315 -0.004082442 0.00034956972 -0.0027226151 0.008981119
-0.004215719 -0.0027673333 0.00046766206 -0.0034683968 0.002722238 0.0010701895 -0.0016057342 0.0028483632
-4.532115e-05 -0.003069982 0.0037920813 -0.0035530843 0.0023252433 0.0018996997 0.002679596 -0.0017510082
0.00069472764 0.0024981555 -0.00056696916 0.0044100527 0.00095222646 -0.0012336858 -0.0025318388 0.0033245517
0.0025941376 0.0018642239 -0.0013290942 0.00019050954 0.0071807555 -0.00012449938 0.0027967398 -0.00090734183
-0.001895894 -0.0006346026 -0.0007742906 -0.0036729046 -0.00091991544 0.0009849181 0.0058330228 -0.0017333492
0.0026343332 0.006283361 -0.007562354 0.0047460976 -0.0009531492 -0.0024826606 0.0008336982 -0.002422066
-6.6391454e-05 -0.0005387073 0.0052769682 -0.0035645952 -0.00013738456 0.0041469955 -0.0019262782 -0.0015446317
-0.0038787003 0.0013168439 1.005966e-05 0.0014755229 -0.0051923622 -0.0014604235 -0.0035329363 0.00069698103
-0.0016355684 0.001469871 -0.0014277481 -0.0032840574 -0.0036243743 0.00477352 -0.0010044943 0.003029118
-0.00036312378 -0.00050093327 -0.0007798997 0.0014860024 -0.0027686262 -0.0010050102 -0.004449426 -0.0017049744
-0.0043116915 0.0021669648 -0.0032063029 -0.0022022915 -0.0020071564 -0.0008832475 -0.0031378332 -0.003892632
0.0014836625 -0.0026120446 -0.00020080477 -0.002805503 0.0010574266 0.0016410402 -0.0019122699 0.0014573352
-0.0024236175 -0.00024402152 -0.00036851273 -0.0032994365 -0.0025822415 0.0013285136 0.0016621093 -0.0030661623
00000000: 2a98 4e3b 2bc3 35bb 163e e03a 32c6 b9ba
00000010: c995 db39 066c 0b3b aa72 a4ba 4e1d 463a
00000020: 99ca c239 fc65 e0b9 0764 eaba 6e18 ac3a
00000030: 92ce 4b3b aeb6 143b f1f7 98b9 a2e3 6e3b
00000040: d072 8b39 ae2b 313b afe1 3eba be00 3b3b
00000050: 7b33 b8ba b41b cc3a 48fa 8f3a 081a 0dba
00000060: 3481 ce3a a1eb ac3b 177c 843b 9214 1abb
00000070: 56b2 983b f26f 6e3b 7f10 303b b665 94b9
00000080: b954 9b3a 643f 2cba d367 b6bb 8268 b739
00000090: c02c 1e3a 5972 7aba a81d 28bb ddc6 163b
000000a0: 65e9 fd39 30c3 5f3b 5750 bbba ac45 1aba
000000b0: c541 beb9 aa63 faba afae 12bb 44b4 723b
000000c0: fd8d 2039 c051 b33b 3349 4fbb 7c47 87ba
000000d0: bfe9 a7ba 6503 2bb6 fa1b d23a 1075 173b
000000e0: c1ab 3e3b 8828 e3bb adc9 0e3b 76ee 91ba
000000f0: 14bb 263b 52db 0f38 d433 4c3a da59 3bbb
00000100: 635a feba 71e2 1b3b 306a 0c3b 3322 14bb
00000110: a427 9837 34c0 403b fd20 3fbb b4a2 2e3b
00000120: 553e 8e3b c526 bc3a 1f5a 07bb ae7d 52bb
00000130: b2cd 003b fa51 40ba e660 88ba e85d 433b
00000140: 4412 2e3b 1e0f 1fbb b15d 1abb fe17 663b
00000150: 1dca 323a b321 8a3b 76e9 92b9 9109 453a
00000160: ee3d 50b8 772f e1ba cf84 9aba 1cac a9bb
00000170: 9c89 9d39 6efd 263b 77fe 3ab9 9264 38bb
00000180: e4fb cd3a 087b 3e3b b3c5 68bb b770 5ebb
00000190: d22e 58ba 71bb 073b 9895 13bb 69f5 ed3a
000001a0: 4293 203b 669e 62bb a177 bf39 146f 17b9
000001b0: e559 813b c271 86b8 8367 1cba 37a0 1abb
000001c0: 5411 a839 dbb0 6dbb 64eb 0cba 4866 8bbb
000001d0: 9ad2 22ba ba64 d0ba c899 75b9 b195 293b
000001e0: f779 013b cf42 03bb 77cd 8ebb 05fa 98bb
000001f0: 5b48 00bb 8bce 833b ef4e 17bb 9b56 e8ba
00000200: 1801 fe3a a3a3 c13a fb91 9e3a ed95 a33a
00000210: 42da d33a e8e8 9aba cf3f 8dba 5a9d b53a
00000220: 6128 043b 41ec fb3a 9436 003a d8c7 343b
00000230: a161 433a a2d5 4a3b afb9 d53a a457 103a
00000240: a3d8 6a3a a21d 55ba 9dbf fc3a 829a 55bb
00000250: 01c6 85bb 7446 b739 e76d 32bb 8b25 133c
00000260: 0424 8abb 265c 35bb 8a30 f539 0b4e 63bb
00000270: 9367 323b 9a45 8c3a 8077 d2ba 9bab 3a3b
00000280: 3717 3eb8 c031 49bb 9184 783b ddda 68bb
00000290: 1c63 183b 58ff f83a 299c 2f3b 1682 e5ba
000002a0: 621e 363a 18b8 233b a8a0 14ba 3482 903b
000002b0: d69e 793a a0b3 a1ba 35ed 25bb b9e0 593b
000002c0: 6802 2a3b f958 f43a 0035 aeba 84c3 4739
000002d0: 8b4c eb3b 0c8c 02b9 8249 373b aeda 6dba
000002e0: a57f f8ba 765b 26ba c3f9 4aba 1db5 70bb
000002f0: 7b26 71ba 5e18 813a f122 bf3b 8c31 e3ba
00000300: c7a4 2c3b a7e4 cd3b a0cd f7bb 2785 9b3b
00000310: c3dc 79ba 22b4 22bb 8a8c 5a3a 86bb 1ebb
00000320: a43b 8bb8 0938 0dba 6bea ac3b fc9b 69bb
00000330: e30e 10b9 85e3 873b 2c7b fcba 3d75 caba
00000340: cb31 7ebb f399 ac3a e9c5 2837 5566 c13a
00000350: b124 aabb ae6b bfba d688 67bb 9bb5 363a
00000360: 9260 d6ba b0a8 c03a 4723 bbba 5739 57bb
00000370: e986 6dbb 306b 9c3b 3ca9 83ba 2b84 463b
00000380: a661 beb9 1051 03ba 2f72 4cba f7c5 c23a
00000390: d771 35bb 8cba 83ba 7ecc 91bb 7379 dfba
000003a0: 1749 8dbb a303 0e3b d620 52bb 5254 10bb
000003b0: 7f8a 03bb bd89 67ba 1ba4 4dbb 871b 7fbb
000003c0: 7477 c23a d62e 2bbb 1f8f 52b9 88dc 37bb
000003d0: 5999 8a3a 2c18 d73a 21a5 faba 0e04 bf3a
000003e0: 8ed5 1ebb 07e0 7fb9 f134 c1b9 5c3b 58bb
000003f0: d33a 29bb 8521 ae3a 22db d93a abf1 48bb

gbrbm.b f4 [200]
-0.108006895 -0.11141923 0.032289527 -0.2799441 -0.24494447 -0.23944512 -0.15029506 -0.08070793
-0.07833565 -0.27369064 -0.26245514 -0.14667155 -0.14794333 -0.119861014 -0.14191584 -0.15669775
-0.2370983 -0.22536542 -0.12522362 -0.054539964 -0.20740247 -0.17718479 -0.31019 -0.06205995
-0.07884855 -0.22497295 -0.066352025 -0.10926037 -0.058629747 -0.24073869 -0.13088539 -0.09112944
0.005348998 -0.15089335 -0.2496699 -0.21364573 0.06257222 -0.17955704 -0.1765544 -0.28178856
-0.092310876 -0.2644257 -0.15379833 -0.122058764 -0.13476838 -0.18006495 -0.25125918 -0.09805278
-0.1292729 -0.085501365 -0.16708109 -0.15314616 -0.045057286 -0.043125898 -0.08575555 -0.16756131
-0.16305026 -0.10443163 -0.22588135 -0.19548126 -0.15752856 -0.16625875 -0.14691287 -0.029799357
-0.10818357 -0.119824775 -0.23242837 -0.20412119 -0.17898013 -0.08145104 -0.23280022 -0.19628085
-0.13223891 -0.041481532 -0.18856114 -0.18044224 -0.20658375 -0.17233695 -0.07605371 -0.13120496
-0.005240386 -0.06791794 -0.3370714 -0.038326934 -0.16827676 -0.25424892 -0.26214144 -0.12842532
-0.056441527 -0.10998066 -0.09426644 -0.11965027 -0.15937287 -0.12553526 -0.18615136 -0.21011336
-0.2190928 -0.069662616 -0.111245856 -0.18777196 -0.18723825 0.004159409 -0.07277132 -0.04745913
-0.14057547 -0.1648363 -0.17480046 -0.16610967 -0.14448012 -0.09225655 -0.107020214 -0.17806502
-0.14710091 -0.06348213 -0.2696113 -0.123408794 -0.21709663 -0.28493908 -0.13744512 -0.04580191
-0.1609815 -0.14648636 -0.19679506 -0.07887069 -0.098927796 -0.06595815 -0.041423697 -0.10493163
-0.018204607 -0.056404505 -0.22693725 -0.23432125 -0.1054452 -0.14371091 -0.15623741 -0.08905555
-0.24214703 -0.19678806 0.015102198 -0.12557474 -0.13376406 -0.07268702 -0.09822191 -0.083573945
-0.105983384 -0.08838987 -0.088676766 0.023669701 -0.13286602 -0.09008634 -0.04715061 -0.24999914
-0.1434677 -0.13226713 -0.10583582 -0.24533916 -0.1586098 -0.056096625 -0.1213689 -0.22941141
-0.15072797 -0.14478491 -0.146407 -0.2915968 -0.11528641 -0.18479283 -0.18793066 -0.1142393
-0.14773871 -0.17923932 -0.16134185 -0.17299686 -0.1568105 -0.09774451 -0.2142004 -0.21408127
-0.17788182 -0.71443737 -0.1527252 -0.08436492 -0.096626595 -0.091568924 -0.07108152 -0.058291286
-0.11209211 -0.17823641 -0.16033237 -0.1580308 -0.23034073 -0.07239115 -0.22426891 -0.115952864
-0.22834565 -0.13721652 -0.30600965 -0.05216464 -0.19058688 -0.13043183 -0.24076559 -0.12143261
00000000: b832 ddbd c42f e4bd 0642 043d d554 8fbe
00000010: b9d2 7abe 1a31 75be f3e6 19be 334a a5bd
00000020: 716e a0bd 2e21 8cbe 8560 86be 1131 16be
00000030: 757e 17be b179 f5bd 6352 11be 6075 20be
00000040: e6c9 72be 31c6 66be 9f3a 00be 4c65 5fbd
00000050: 5061 54be ee6f 35be 39d1 9ebe 9332 7ebd
00000060: 597b a1bd 4f5f 66be 92e3 87bd e7c3 dfbd
00000070: bf25 70bd 3484 76be d206 06be 12a2 babd
00000080: a646 af3b c983 1abe 77a9 7fbe f2c5 5abe
00000090: dd25 803d cddd 37be adca 34be 9746 90be
000000a0: 7c0d bdbd ce62 87be 4f7d 1dbe f2f9 f9bd
000000b0: b900 0abe f262 38be 0ba5 80be e5cf c8bd
000000c0: 1d60 04be 571b afbd 4e17 2bbe 59d2 1cbe
000000d0: fd8d 38bd c8a4 30bd 9ba0 afbd 3195 2bbe
000000e0: a6f6 26be 40e0 d5bd 714d 67be 3d2c 48be
000000f0: 2b4f 21be bc3f 2abe 5470 16be c81d f4bc
00000100: 598f ddbd b166 f5bd b401 6ebe 2505 51be
00000110: 9146 37be cecf a6bd 2e63 6ebe d9fd 48be
00000120: a369 07be 8ae8 29bd 2c16 41be dac5 38be
00000130: b18a 53be 1979 30be 0cc2 9bbd 985a 06be
00000140: 8bb7 abbb 9018 8bbd 9f94 acbe b4fc 1cbd
00000150: be50 2cbe ea2c 82be 6737 86be ed81 03be
00000160: 3b2f 67bd 8a3d e1bd c30e c1bd 330b f5bd
00000170: a432 23be 518c 00be 769e 3ebe f527 57be
00000180: dd59 60be 46ab 8ebd ded4 e3bd 4b47 40be
00000190: 62bb 3fbe a74b 883b 2109 95bd 8164 42bd
000001a0: 04f3 0fbe d9ca 28be e4fe 32be a718 2abe
000001b0: 99f2 13be 01f1 bcbd 6a2d dbbd ad56 36be
000001c0: 9fa1 16be eb02 82bd 7e0a 8abe c0bd fcbd
000001d0: 944e 5ebe 89e3 91be 6abe 0cbe c99a 3bbd
000001e0: 56d8 24be 8500 16be a584 49be f586 a1bd
000001f0: a89a cabd 1115 87bd e5ab 29bd 65e6 d6bd
00000200: d421 95bc 6908 67bd 3d62 68be e9f1 6fbe
00000210: a7f3 d7bd f428 13be b3fc 1fbe c262 b6bd
00000220: 64f5 77be cf82 49be 366f 773c aa96 00be
00000230: 72f9 08be efdc 94bd 9228 c9bd d128 abbd
00000240: d10d d9bd c005 b5bd 2a9c b5bd f6e6 c13c
00000250: 080e 08be 307f b8bd ff20 41bd c6ff 7fbe
00000260: 32e9 12be 0971 07be 73c0 d8bd 303a 7bbe
00000270: 9b6a 22be 93c5 65bd 4290 f8bd d3ea 6abe
00000280: 6f58 1abe 7f42 14be b7eb 15be 2d4c 95be
00000290: 481b ecbd 553a 3dbe e570 40be 4bf6 e9bd
000002a0: d148 17be 838a 37be cc36 25be 1726 31be
000002b0: ef92 20be 462e c8bd 5a57 5bbe 1f38 5bbe
000002c0: a726 36be 5ee5 36bf ff63 1cbe 84c7 acbd
000002d0: 2ae4 c5bd 7d88 bbbd 3093 91bd d8c2 6ebd
000002e0: 8c90 e5bd 9b83 36be 2b2e 24be d3d2 21be
000002f0: 71de 6bbe d041 94bd c0a6 65be b278 edbd
00000300: 71d3 69be 7d82 0cbe 4cad 9cbe 97aa 55bd
00000310: 3529 43be ec8f 05be 418b 76be a9b1 f8bd

gbrbm.mu f4 [200]
-0.007928829 -0.007459023 0.0025140927 0.010506638 -0.0051540816 0.00018979066 -0.018098019 -0.009010057
0.00069145794 -0.014785061 0.0027958131 -0.0012471604 -0.008836818 -0.013197421 0.0066750385 0.007904634
-0.0151084205 0.0047520124 0.0027030457 0.0011454318 -0.0062823305 0.018529747 0.00015854584 0.004801284
-0.014792671 0.0072625605 -0.010023898 0.0018840336 -0.0029222025 -0.0053777415 -0.012030337 -0.001299086
-0.022375943 0.00662921 -0.015703954 0.0019905597 -0.0015041233 -0.0030391098 -0.0037179892 -0.0052430774
-0.001782403 -0.006766179 0.004261496 -0.014639276 0.0058067986 -0.0061213817 0.0021491365 0.02186399
-0.004342631 0.014158184 0.003942659 0.0015829296 -0.0011133165 0.0016462904 -0.0061122677 -0.0024332558
-0.010075716 0.01420713 -0.0008571186 0.0013527004 -0.004796189 0.010658999 -0.013386368 -0.0007158349
0.0027408586 0.009763819 0.009241109 -0.005520207 0.0015625808 -0.0010218043 -0.0016377536 -0.0054198056
0.0036691902 -0.01939418 0.01217677 0.00081789435 0.0025341522 -0.017190004 0.017637609 -0.012191963
0.01654714 -0.0009100618 0.009790263 -0.0016656764 -0.01318269 0.007395385 0.003195559 -0.0055322074
-0.017965082 0.0055859545 0.00090886716 -0.019866282 -0.010207399 0.00448024 0.01598784 0.0072265686
-0.0012487663 -0.004946808 0.025456032 0.012447409 0.0047618635 0.014506951 -0.0033554558 -0.008722631
-0.01216831 0.006380835 -0.0065383506 0.0075935675 0.011555593 0.020288013 -0.00598714 -0.026342664
-0.012302817 -0.0032134156 0.0046671177 0.0013821747 -0.0013629283 0.008384891 -0.0095281815 0.025347326
0.014073495 -0.004912458 0.015044898 0.010200166 -0.012069772 -0.021748012 -0.020140477 -0.009950813
-0.0069140145 0.014853766 0.0054469965 -0.00058069394 -0.0011192966 -0.01085122 -0.006603251 -0.00734288
-0.007303413 0.015321279 -0.0063825604 0.002026597 -0.0021978945 -0.0015172857 -0.0092779705 0.011231717
-0.011500195 0.005693312 -0.0027969298 0.005724663 0.002029343 -0.01341859 -0.0045573143 0.0064665615
-0.009307088 -0.003386662 -0.012930413 0.002981681 -0.0019882272 0.0077457493 -0.0032341424 -0.0024876236
0.006247248 0.006484416 -0.00062288705 0.0012822866 -0.006992957 -0.00060816004 0.018479064 -0.02340269
0.004605083 -0.009037125 0.0019863157 -0.015326165 -0.01366477 0.014387624 0.02296833 -0.0039656414
-0.018275587 -0.0075910185 -0.0072336406 0.0014299979 -0.00495098 0.01324904 0.0048794337 0.021727663
-0.021703282 0.020758327 0.00030752594 -0.0093776295 0.0041443976 0.019465817 -0.016796999 0.009612007
-0.0050126463 0.010887414 0.015963593 0.0013545053 -0.017103069 0.010239846 -0.004056051 0.00076173403
00000000: ebe7 01bc d26a f4bb 7ac3 243b 0924 2c3c
00000010: 92e3 a8bb 8b02 4739 4c42 94bc eb9e 13bc
00000020: f542 353a 0a3d 72bc f639 373b c277 a3ba
00000030: 4dc8 10bc ff39 58bc 48ba da3b 7082 013c
00000040: 4f89 77bc c5b6 9b3b 9525 313b 5022 963a
00000050: 02dc cdbb b2cb 973c 533f 2639 1754 9d3b
00000060: f65c 72bc c6fa ed3b 473b 24bc adf1 f63a
00000070: 6c82 3fbb c437 b0bb e41a 45bc 1846 aaba
00000080: c14d b7bc d839 d93b 94a5 80bc 0d74 023b
00000090: 0126 c5ba cd2b 47bb 82a9 73bb 1fce abbb
000000a0: 859f e9ba d3b6 ddbb 05a4 8b3b 93d9 6fbc
000000b0: f546 be3b df95 c8bb 87d8 0c3b 1c1c b33c
000000c0: a14c 8ebb baf7 673c 6c31 813b 4e7a cf3a
000000d0: b4ec 91ba 57c8 d73a 6b49 c8bb 4277 1fbb
000000e0: 9e14 25bc 06c5 683c 41b0 60ba 184d b13a
000000f0: 5929 9dbb 15a3 2e3c 7f52 5bbc dea6 3bba
00000100: fa9f 333b 6df8 1f3c 0568 173c dae2 b4bb
00000110: 83cf cc3a 10ee 85ba e4a9 d6ba a098 b1bb
00000120: cc76 703b 8be0 9ebc 1381 473c f667 563a
00000130: 0514 263b 0dd2 8cbc bf7c 903c cdc0 47bc
00000140: de8d 873c 3791 6eba 5767 203c d352 daba
00000150: 36fc 57bc fc54 f23b 956c 513b 8547 b5bb
00000160: 822b 93bc 620a b73b 0b41 6e3a 9dbe a2bc
00000170: ef3c 27bc face 923b eef8 823c dacc ec3b
00000180: a5ad a3ba d518 a2bb 2b89 d03c 38f0 4b3c
00000190: 6809 9c3b 90ae 6d3c 35e7 5bbb 5ee9 0ebc
000001a0: 975d 47bc 5316 d13b a93f d6bb 76d3 f83b
000001b0: ac53 3d3c 0c33 a63c c52f c4bb 92cc d7bc
000001c0: c191 49bc 2b98 52bb 9fee 983b 162a b53a
000001d0: 49a4 b2ba c860 093c 171c 1cbc 32a5 cf3c
000001e0: 8494 663c aff8 a0bb e07e 763c 991e 273c
000001f0: 4bc0 45bc e328 b2bc a4fd a4bc bc08 23bc
00000200: f58e e2bb 365d 733c b87c b23b b639 18ba
00000210: 5db5 92ba 51c9 31bc 1660 d8bb 8b9c f0bb
00000220: 7851 efbb 1a06 7b3c cc24 d1bb a8d0 043b
00000230: 8d0a 10bb a9df c6ba a102 18bc 3c05 383c
00000240: 506b 3cbc f68e ba3b b24c 37bb f495 bb3b
00000250: bafe 043b a5d9 5bbc 8655 95bb 73e5 d33b
00000260: c27c 18bc c3f2 5dbb 15da 53bc 4e68 433b
00000270: eb4c 02bb 0ed0 fd3b e8f3 53bb 6607 23bb
00000280: b7b5 cc3b 397b d43b 3e49 23ba 6612 a83a
00000290: 2d25 e5bb ee6c 1fba 6861 973c 00b7 bfbc
000002a0: 3ce6 963b 7310 14bc d92c 023b 981a 7bbc
000002b0: 33e2 5fbc 12ba 6b3c 1428 bc3c 36f2 81bb
000002c0: afb6 95bc 14be f8bb 2d08 edbb c46e bb3a
000002d0: d53b a2bb 8012 593c a8e3 9f3b 36fe b13c
000002e0: 15cb b1bc 5e0d aa3c 6f3b a139 a1a4 19bc
000002f0: bacd 873b c776 9f3c dc99 89bc ae7b 1d3c
00000300: 2041 a4bb 2061 323c 15c6 823c a889 b13a
00000310: bc1b 8cbc 07c5 273c 9fe8 84bb 1baf 473a

gbrbm.log_var f4 [200]
-3.6317904 -3.639461 -3.6409118 -3.6309218 -3.6538973 -3.6418402 -3.6069489 -3.6444883
-3.6263442 -3.6010647 -3.6452518 -3.6386364 -3.6536362 -3.6216145 -3.6410148 -3.6501923
-3.6340084 -3.637478 -3.6432242 -3.6356015 -3.640902 -3.552322 -3.6406581 -3.648734
-3.5755916 -3.638188 -3.640547 -3.650014 -3.6439035 -3.632668 -3.6313403 -3.6496832
-3.6330943 -3.6285503 -3.6236668 -3.6253757 -3.636428 -3.6363895 -3.630627 -3.642315
-3.6377318 -3.6337035 -3.6379042 -3.5958009 -3.6374176 -3.6482294 -3.6386335 -3.5586069
-3.6477156 -3.5896535 -3.633606 -3.6520684 -3.633359 -3.6418784 -3.6507506 -3.6406553
-3.6187778 -3.5969155 -3.6452868 -3.6357617 -3.6316564 -3.6427774 -3.6172957 -3.626096
-3.6286373 -3.6308918 -3.6387293 -3.6324804 -3.618141 -3.6321146 -3.6339638 -3.6374695
-3.6286352 -3.6274662 -3.667129 -3.6459007 -3.6307993 -3.6051178 -3.641596 -3.6418571
-3.5917807 -3.657281 -3.622898 -3.6365776 -3.632301 -3.660216 -3.6505537 -3.6388855
-3.6036952 -3.6414351 -3.6540315 -3.5912967 -3.6420407 -3.6278803 -3.6133056 -3.6414895
-3.6279392 -3.6270494 -3.536846 -3.618361 -3.6283932 -3.622734 -3.6411517 -3.6408913
-3.6288772 -3.6482737 -3.6503017 -3.661026 -3.6467652 -3.5502822 -3.649712 -3.5618687
-3.639046 -3.6255267 -3.663711 -3.635937 -3.638256 -3.6309123 -3.6671617 -3.5093925
-3.6113796 -3.6356084 -3.6413176 -3.6448743 -3.6249318 -3.5634995 -3.4891112 -3.6401293
-3.6425734 -3.5819776 -3.6394267 -3.6547635 -3.6598685 -3.6387608 -3.6474144 -3.6263075
-3.64254 -3.5695846 -3.6331973 -3.6455574 -3.6410787 -3.6419399 -3.6483305 -3.654913
-3.6536424 -3.6461785 -3.6528814 -3.6364267 -3.631805 -3.6385305 -3.650513 -3.6326137
-3.6455898 -3.6364658 -3.5358357 -3.64241 -3.6448593 -3.6134818 -3.6625557 -3.6404023
-3.6484544 -3.6353233 -3.6398783 -3.6396449 -3.6464312 -3.62606 -3.497575 -3.5110686
-3.6303537 -3.6503034 -3.647702 -3.5766838 -3.6229231 -3.5513148 -3.6105049 -3.6432548
-3.5554593 -3.6371615 -3.6399965 -3.6484976 -3.6366332 -3.6524944 -3.6461122 -3.637594
-3.5646977 -3.6019335 -3.6436744 -3.650642 -3.636542 -3.5891345 -3.6240666 -3.6344922
-3.6221914 -3.6360543 -3.5141244 -3.626628 -3.62288 -3.6358964 -3.6376936 -3.6287796
00000000: 416f 68c0 eeec 68c0 b304 69c0 0661 68c0
00000010: 74d9 69c0 e913 69c0 40d8 66c0 4c3f 69c0
00000020: 0616 68c0 d877 66c0 ce4b 69c0 6bdf 68c0
00000030: 2dd5 69c0 88c8 67c0 6306 69c0 c09c 69c0
00000040: 9893 68c0 71cc 68c0 962a 69c0 b2ad 68c0
00000050: 8a04 69c0 3e59 63c0 8b00 69c0 dc84 69c0
00000060: 7ed6 64c0 12d8 68c0 b9fe 68c0 d499 69c0
00000070: b735 69c0 a27d 68c0 e167 68c0 6994 69c0
00000080: 9e84 68c0 2b3a 68c0 28ea 67c0 2806 68c0
00000090: 3dbb 68c0 9bba 68c0 315c 68c0 b01b 69c0
000000a0: 99d0 68c0 998e 68c0 6cd3 68c0 9a21 66c0
000000b0: 73cb 68c0 977c 69c0 5fdf 68c0 37c0 63c0
000000c0: 2c74 69c0 e2bc 65c0 008d 68c0 7dbb 69c0
000000d0: f488 68c0 8914 69c0 e6a5 69c0 7f00 69c0
000000e0: 0e9a 67c0 dd33 66c0 614c 69c0 52b0 68c0
000000f0: 0f6d 68c0 4423 69c0 c681 67c0 f511 68c0
00000100: 983b 68c0 8860 68c0 f1e0 68c0 8f7a 68c0
00000110: 9f8f 67c0 9174 68c0 dd92 68c0 4dcc 68c0
00000120: 8f3b 68c0 6828 68c0 3eb2 6ac0 7056 69c0
00000130: 045f 68c0 40ba 66c0 e90f 69c0 3014 69c0
00000140: bcdf 65c0 e410 6ac0 90dd 67c0 b0bd 68c0
00000150: 9f77 68c0 fb40 6ac0 aca2 69c0 80e3 68c0
00000160: f1a2 66c0 460d 69c0 a7db 69c0 ced7 65c0
00000170: 3217 69c0 312f 68c0 6640 67c0 2a0e 69c0
00000180: 2830 68c0 9421 68c0 af5b 62c0 3a93 67c0
00000190: 9837 68c0 e0da 67c0 a108 69c0 5d04 69c0
000001a0: 863f 68c0 517d 69c0 8b9e 69c0 404e 6ac0
000001b0: 9a64 69c0 d337 63c0 e294 69c0 a8f5 63c0
000001c0: 21e6 68c0 a108 68c0 3e7a 6ac0 31b3 68c0
000001d0: 30d9 68c0 de60 68c0 c7b2 6ac0 e399 60c0
000001e0: d820 67c0 cfad 68c0 590b 69c0 9f45 69c0
000001f0: e2fe 67c0 6010 64c0 994d 5fc0 e1f7 68c0
00000200: ec1f 69c0 1f3f 65c0 5eec 68c0 a5e7 69c0
00000210: 493b 6ac0 75e1 68c0 3d6f 69c0 6c15 68c0
00000220: 601f 69c0 1374 64c0 4e86 68c0 d050 69c0
00000230: 6f07 69c0 8b15 69c0 3f7e 69c0 18ea 69c0
00000240: 47d5 69c0 fd5a 69c0 cfc8 69c0 37bb 68c0
00000250: 7e6f 68c0 afdd 68c0 01a2 69c0 be7c 68c0
00000260: 5851 69c0 dbbb 68c0 224b 62c0 3f1d 69c0
00000270: 6045 69c0 4943 67c0 5067 6ac0 5afc 68c0
00000280: 4780 69c0 23a9 68c0 c4f3 68c0 f1ef 68c0
00000290: 215f 69c0 5e11 68c0 45d8 5fc0 59b5 60c0
000002a0: b757 68c0 929e 69c0 f373 69c0 63e8 64c0
000002b0: f9dd 67c0 be48 63c0 8312 67c0 162b 69c0
000002c0: a58c 63c0 41c7 68c0 b4f5 68c0 fc80 69c0
000002d0: 99be 68c0 78c2 69c0 e759 69c0 57ce 68c0
000002e0: 0224 64c0 1486 66c0 f631 69c0 1ea4 69c0
000002f0: 1bbd 68c0 61b4 65c0 b5f0 67c0 859b 68c0
00000300: fcd1 67c0 1db5 68c0 6ae7 60c0 ac1a 68c0
00000310: 44dd 67c0 87b2 68c0 f9cf 68c0 ed3d 68c0
