final_project/lstm (drop 0.2)/type1/lstm_W5_H100_B32.pt (torch, 233380 bytes, 9 tensors)

lstm_layer.lstm1.weight_ih_l0 f4 [400, 16]
0.002182461 0.002037043 -0.0002977138 0.00012740018 0.00024137793 0.00016092208 -0.0006120768 -0.0011969595
0.00023940187 0.0013051096 0.0016217377 -4.3230364e-05 -0.0013006564 -0.00036089646 0.0023094101 0.0019588794
0.0016274631 0.0031625074 0.0016359347 0.0005352865 0.000120320394 -0.0003862083 -3.112208e-05 -0.00026768993
-0.0028659385 0.00092341006 0.002910197 -0.00014956474 -0.0010480841 -0.00046015298 0.0016571161 0.0017005901
7.612001e-05 7.350709e-05 0.00025203248 -7.99058e-06 2.9275054e-05 7.8598205e-05 -2.4136141e-05 0.0008937285
1.0191678e-05 6.666567e-05 -3.2852643e-06 -0.00045738847 -0.0001250513 -2.6463877e-05 0.0002491365 0.0033171936
0.0070133056 0.0069793346 0.003462788 -0.0009438857 -0.0020727187 -4.792644e-05 -0.00027027124 -0.0013094656
0.000719137 0.0042431634 -0.0020559533 -0.00025603018 -0.0071017225 -0.0005788847 0.007544689 0.0067200884
0.006491701 0.006512894 0.00652629 -0.00012812472 0.0006734783 -2.1195865e-06 -0.00067694107 -0.0011284444
0.00077430205 0.003698822 1.597089e-05 -0.00010104061 -0.0047714156 -0.00019205132 0.006852453 0.006409207
0.0011054822 0.0010313859 0.0012502125 5.2819698e-05 0.00016914686 0.00040691654 -3.9097653e-05 -0.00013796517
-1.5449486e-05 0.0034621188 -0.0029752795 -0.00027232 -0.000600017 0.000119397926 0.0011315831 0.0016960667
0.006243938 0.00742094 0.0048441063 0.00033820543 0.00052618777 0.00047603226 0.00033547205 0.0006753322
0.0006242402 0.0039753485 3.476976e-05 -0.0004462993 -0.0038847683 -0.00035238132 0.006343541 0.0060327193
0.0012210475 0.004460115 0.0045946706 0.00060922763 0.0005269688 -3.6368343e-05 -0.00010073465 -0.003950426
-0.0013420141 0.0025413982 5.97219e-05 0.002400205 -0.0030697223 8.951497e-06 0.004362781 0.0033970205
0.004536253 0.0019956392 0.0020014823 3.735982e-05 0.00019445125 0.0015804947 -0.0016019308 -0.00056125905
0.00013936184 3.3132204e-05 -1.2259208e-05 -0.00018850986 -0.00079978275 0.00085316616 0.0018068874 0.0027172707
0.0034200586 0.003056755 0.0032047587 0.00014362768 0.00028914644 0.0002815663 0.0017473713 -0.0006043937
0.00029726565 0.0019099107 -0.0017014629 0.0013957388 -0.001848124 -0.0010004463 0.0007533255 0.003508217
0.002317723 0.0033358824 0.0032116836 0.00030246258 7.5928285e-05 0.0030461755 -0.0005316622 -0.0007046748
0.00052347453 0.0018416707 6.708292e-05 -0.0024472831 -0.0018116838 -0.00038015467 0.0034175373 0.0032002113
0.0032688116 0.0030252216 0.0052235713 0.0008390547 -5.6354114e-05 0.0008393284 -0.00035934968 -0.00084902346
9.74985e-05 0.0022021595 -0.0001257986 -5.6745703e-05 -0.001876761 -0.00057423103 0.0020212426 0.0029287522
0.0039178566 0.0069456017 0.003866049 -0.0002523987 0.00030858204 0.0003432569 -0.002667651 -0.00127758
0.00030872694 0.0033381884 4.4827328e-05 -0.00054382824 -0.0025283506 -0.00031024584 0.003945559 0.003847715
0.0022605455 0.00043486163 -0.0017271822 3.6655303e-05 3.0142764e-06 5.8162368e-05 -0.00012418779 -2.4545632e-05
0.00012327846 0.0002213957 0.00059121486 -0.0009826636 -0.0001901013 -5.335116e-05 0.0004121533 0.00039691856
0.0025523957 0.0013846797 0.0016167762 0.00051143515 -0.00072184816 0.00018397307 -8.2183426e-05 -0.00033885002
0.00012271287 0.0010946852 1.8663342e-05 0.000289053 0.0010770498 -9.031285e-06 0.0014318487 0.0014588936
0.0049331146 0.003992172 0.003988969 -8.9369576e-05 0.00033402914 0.00034701597 -0.00041068345 -0.0013088192
0.00036305728 0.0033003592 0.00010769479 0.0016990954 -0.0027066416 0.00016238762 0.0055106594 0.004818927
00000000: 9f07 0f3b e97f 053b 7816 9cb9 ba96 0539
00000010: 651a 7d39 31bd 2839 c773 20ba 4ce3 9cba
00000020: f307 7b39 3610 ab3a 7d90 d43a 4052 35b8
00000030: c97a aaba b436 bdb9 7959 173b 8b60 003b
00000040: 9a50 d53a 1242 4f3b dc6c d63a 7852 0c3a
00000050: 8554 fc38 007c cab9 1489 02b8 bc58 8cb9
00000060: 78d2 3bbb 0011 723a 01b9 3e3b 7bd4 1cb9
00000070: de5f 89ba b040 f1b9 9733 d93a 56e6 de3a
00000080: 9fa2 9f38 d227 9a38 3a23 8439 480f 06b7
00000090: b393 f537 17d5 a438 f877 cab7 1b49 6a3a
000000a0: ecfc 2a37 dcce 8b38 6978 5cb6 a4cd efb9
000000b0: 3420 03b9 befe ddb7 899e 8239 4665 593b
000000c0: dfcf e53b e7b2 e43b f1ef 623b 196f 77ba
000000d0: 73d6 07bb a004 49b8 31b3 8db9 60a2 abba
000000e0: 7884 3c3a 3c0a 8b3b 2cbd 06bb ca3b 86b9
000000f0: 91b5 e8bb 4bc0 17ba 7039 f73b 3034 dc3b
00000100: 56b8 d43b 1d6a d53b 7dda d53b 3859 06b9
00000110: 5d8c 303a 383e 0eb6 bf74 31ba 50e8 93ba
00000120: 88fa 4a3a f067 723b 3af9 8537 c4e5 d3b8
00000130: 8959 9cbb 6261 49b9 8b8a e03b 5304 d23b
00000140: d4e5 903a 912f 873a 2cde a33a b88a 5d38
00000150: 045d 3139 6a57 d539 c9fc 23b8 beaa 10b9
00000160: 8599 81b7 b7e4 623b e8fc 42bb 2cc6 8eb9
00000170: 764a 1dba 4665 fa38 a151 943a 8e4e de3a
00000180: f399 cc3b 5b2b f33b 4fbb 9e3b 2a51 b139
00000190: ddef 093a f893 f939 4ce2 af39 c708 313a
000001a0: 0da4 233a a443 823b bfd5 1138 47fd e9b9
000001b0: 9997 7ebb d2bf b8b9 7bdd cf3b 1eae c53b
000001c0: 8e0b a03a 2826 923b e48e 963b 93b4 1f3a
000001d0: 4724 0a3a 368a 18b8 8141 d3b8 9372 81bb
000001e0: 85e6 afba 968d 263b e77d 7a38 c24c 1d3b
000001f0: 652d 49bb 632e 1637 a9f5 8e3b 8ca0 5e3b
00000200: d9a4 943b 45c9 023b 4d2b 033b cdb2 1c38
00000210: 9ce5 4b39 9a28 cf3a e1f7 d1ba 7521 13ba
00000220: a921 1239 6ff7 0a38 e6ac 4db7 bbaa 45b9
00000230: 83a8 51ba 03a7 5f3a 15d5 ec3a 3d14 323b
00000240: 1023 603b d753 483b ee06 523b c39a 1639
00000250: 9498 9739 309f 9339 0d08 e53a 2d70 1eba
00000260: 52da 9b39 f855 fa3a 9f03 dfba 39f1 b63a
00000270: c03c f2ba 6821 83ba d27a 453a 1dea 653b
00000280: f0e4 173b d29e 5a3b 1c7b 523b d793 9e39
00000290: b03b 9f38 58a2 473b 3f5f 0bba edb9 38ba
000002a0: c839 093a 3764 f13a deae 8c38 9962 20bb
000002b0: 0576 edba 7f4f c7b9 c3f8 5f3b a3ba 513b
000002c0: 8f39 563b cc42 463b 7e2a ab3b 02f4 5b3a
000002d0: c55d 6cb8 6006 5c3a 1967 bcb9 0091 5eba
000002e0: 1c78 cc38 1b52 103b cee8 03b9 3c02 6eb8
000002f0: a6fd f5ba fe87 16ba d376 043b 4ff0 3f3b
00000300: 5d61 803b ee97 e33b 8a5d 7d3b 6154 84b9
00000310: 2ec9 a139 29f7 b339 c2d3 2ebb 7974 a7ba
00000320: a1dc a139 82c5 5a3b fa04 3c38 b28f 0eba
00000330: afb2 25bb 7ea8 a2b9 bf49 813b f229 7c3b
00000340: a925 143b 24fe e339 9e62 e2ba 55be 1938
00000350: e048 4a36 5ef3 7338 6838 02b9 58e7 cdb7
00000360: 4f44 0139 7526 6839 c2fb 1a3a b8cc 80ba
00000370: ee55 47b9 5fc5 5fb8 4816 d839 8219 d039
00000380: 1846 273b 247e b53a 02ea d33a d511 063a
00000390: 693a 3dba e5e8 4039 e459 acb8 aea7 b1b9
000003a0: 7cac 0039 8a7b 8f3a 398f 9c37 098c 9739
000003b0: cb2b 8d3a 1385 17b7 dfac bb3a 5938 bf3a
000003c0: f7a5 a13b c4d0 823b e6b5 823b ed6b bbb8
000003d0: a220 af39 b2ef b539 0051 d7b9 af8c abba
000003e0: b958 be39 d74a 583b 33da e138 2eb4 de3a
000003f0: e961 31bb 9846 2a39 c392 b43b 17e8 9d3b

lstm_layer.lstm1.weight_hh_l0 f4 [400, 100]
-0.00011059349 -9.297669e-05 -1.7752713e-05 -0.00021764218 -0.0034174647 -8.711175e-06 0.00018554511 -0.002619922
0.0020798952 0.00012932965 0.0022083067 -0.0012338274 -0.00018578935 -1.565388e-05 0.001871392 0.00015665121
-0.0002548674 0.0011337808 8.696861e-05 8.053584e-06 0.000117219824 0.0004039302 -0.00017275356 0.00016232344
0.0010665879 0.0001896538 0.0006864037 -0.00011477008 -0.00014386684 -9.1786154e-05 0.0006284719 0.000178299
0.0010663328 -0.002531963 -0.00014556402 0.00017281473 6.0323127e-06 -0.003020113 -0.000111550115 -0.0021230516
-0.00017160372 -0.0001426139 -0.00075022684 0.00037541744 -7.583612e-05 0.0001815253 -0.00016772216 -7.509448e-05
0.0001460468 -0.00018396486 -0.000268952 0.00017782759 0.00037870332 -0.00061801384 -1.4503767e-05 -0.000184225
-0.00026208517 0.0015669736 0.00018818842 -0.00016695322 -0.0001659488 -0.00021311668 0.0005016707 3.3805005e-05
-0.0001578145 -0.00015260506 -4.6406323e-05 0.00088515895 -0.00018659582 -0.00015844259 -1.0931454e-05 -8.058064e-05
-0.00015237274 0.00043468425 0.00017034297 -0.0011757215 -5.900015e-05 0.00015923915 0.00018351233 0.0011299622
-0.00013458722 0.00014304902 -0.0002480292 -0.00017325954 0.0009421455 -0.00012326727 8.301461e-05 -0.00017645826
-0.0012561372 0.0001316868 0.00062792544 -3.1591746e-05 -0.0018595513 -0.0006490174 -0.00046917997 -0.00016475083
-0.0029222642 0.00012175597 0.00024121648 0.00012978658 -0.000105155654 -7.188737e-05 -3.5162397e-05 -0.00015518766
-0.00016353665 -0.00010111168 -0.00023686604 -0.00011639766 0.00010466396 0.00090166304 0.000100026395 0.000100212885
-0.00024281973 -4.2059783e-05 -5.8428643e-05 -0.0012116001 -0.00014341819 0.00187444 6.531417e-05 -0.0001390837
8.134281e-05 -0.00014204386 0.000109432185 0.0016812775 7.330816e-05 0.00016421863 -0.00013087102 8.4773055e-06
0.0023591544 0.0001322933 0.00010756967 0.00013806678 0.0022503377 -0.0006700176 -0.0012081267 -0.00033594732
-0.00070553186 -0.00015201374 -9.917913e-05 0.0028866837 -0.000118118034 -0.00014621446 0.0030637323 -0.0006829484
-5.372412e-05 0.00015277494 -0.0003500592 1.0577658e-05 0.0034689007 -0.00013115029 0.00015674965 0.00013634088
3.4588957e-05 0.00033191367 -1.10149995e-05 -0.0024365406 -0.0001241441 -0.00013365477 0.00013077981 -0.00013220236
-0.00013865848 -0.0021745362 0.00012527376 3.1931675e-05 -0.00016433514 0.0011918898 0.00021536894 0.0001270521
-0.0032402754 -0.00020169707 -7.0686016e-05 -6.903689e-05 -0.00014290167 -0.0007832887 0.000117705196 0.00012462624
-7.9993435e-05 0.00015780554 0.000259551 -0.0001785469 -9.990898e-05 0.000110830006 -0.00011900267 -0.00013170387
0.003038485 1.0157394e-05 6.383946e-05 -0.00015187883 0.0011853707 0.00014165061 -9.458617e-05 -0.00013688172
-0.00011909631 5.1772495e-05 -0.0014691394 -0.00011738639 -9.453696e-05 -3.4805441e-06 7.3558884e-05 0.000105618885
-1.2858882e-05 -1.0293103e-05 -0.0033544966 0.002119686 -1.51858685e-05 -0.00041701287 -0.001270773 -1.70597e-05
1.1533622e-05 0.0005244667 1.5236977e-05 0.0004910954 -1.6928188e-05 -5.313424e-06 9.464521e-06 1.7722183e-05
-1.8170755e-05 -1.713592e-05 1.09059065e-05 0.0008502776 -0.0002900459 0.00056876533 -0.00075955765 -0.003122327
0.00025099437 1.8620576e-05 -2.0597448e-05 -0.0019621013 5.961444e-06 -0.0013729254 1.6278584e-05 1.7960967e-05
-1.5264108e-05 5.0577933e-06 -1.692848e-05 1.9232812e-05 2.8223087e-07 -2.3407683e-05 -0.0031876315 2.2147386e-05
-4.0708364e-05 -0.0005964825 0.0028829644 -4.8466654e-06 -0.0018836022 2.0590138e-05 -1.8638486e-05 0.00040241395
4.1743027e-05 -1.969156e-05 7.341241e-05 -0.00036228428 1.6483255e-06 -9.640718e-08 2.9239749e-05 -0.0025309708
00000000: 6eee e7b8 7bfc c2b8 a9eb 94b7 e136 64b9
00000010: 8bf7 5fbb 3626 12b7 e38e 4239 ffb2 2bbb
00000020: da4e 083b aa9c 0739 3db9 103b 61b8 a1ba
00000030: 73d0 42b9 7450 83b7 7f49 f53a bd42 2439
00000040: b99f 85b9 5f9b 943a eb62 b638 e11d 0737
00000050: ead3 f538 98c6 d339 2e25 35b9 5e35 2a39
00000060: c0cc 8b3a cedd 4639 c6ef 333a b8b0 f0b8
00000070: f6da 16b9 517d c0b8 09c0 243a c6f5 3a39
00000080: 31c4 8b3a 4aef 25bb 8ba2 18b9 9a35 3539
00000090: 2c69 ca36 17ed 45bb 03f0 e9b8 e522 0bbb
000000a0: 86f0 33b9 a18a 15b9 dfaa 44ba add3 c439
000000b0: 350a 9fb8 d457 3e39 93de 2fb9 0b7c 9db8
000000c0: 2424 1939 b1e6 40b9 2002 8db9 3b77 3a39
000000d0: b38c c639 3502 22ba 3455 73b7 862c 41b9
000000e0: 7a68 89b9 e962 cd3a 7254 4539 2a10 2fb9
000000f0: 8b02 2eb9 1378 5fb9 8d82 033a d9c9 0d38
00000100: 027b 25b9 9c04 20b9 69a4 42b8 030a 683a
00000110: efa8 43b9 9c23 26b9 3d66 37b7 67fd a8b8
00000120: 3fc6 1fb9 55e6 e339 189e 3239 ab1a 9aba
00000130: ee76 77b8 6ff9 2639 376d 4039 3d1b 943a
00000140: fb1f 0db9 6eff 1539 ea09 82b9 01ad 35b9
00000150: 50fa 763a 4e41 01b9 2118 ae38 a707 39b9
00000160: f8a4 a4ba 6815 0a39 5d9b 243a 6181 04b8
00000170: 30bc f3ba d222 2aba 45fc f5b9 f7c0 2cb9
00000180: 7583 3fbb 3d57 ff38 0eef 7c39 5217 0839
00000190: 0387 dcb8 3dc2 96b8 567b 13b8 dfb9 22b9
000001a0: 097b 2bb9 eb0b d4b8 3e5f 78b9 851a f4b8
000001b0: 097f db38 955d 6c3a 43c5 d138 6229 d238
000001c0: 6d9d 7eb9 5969 30b8 4711 75b8 8ece 9eba
000001d0: 8762 16b9 c5af f53a 47f9 8838 ffd6 11b9
000001e0: 9796 aa38 9cf1 14b9 f57e e538 505e dc3a
000001f0: 05bd 9938 1a32 2c39 6c3a 09b9 c039 0e37
00000200: 0b9c 1a3b 36b8 0a39 0797 e138 05c6 1039
00000210: 677a 133b 1fa4 2fba 015a 9eba 1622 b0b9
00000220: 71f3 38ba e165 1fb9 64fe cfb8 842e 3d3b
00000230: 23b6 f7b8 2551 19b9 e6c8 483b e407 33ba
00000240: d655 61b8 3632 2039 2788 b7b9 b276 3137
00000250: 7f56 633b 6385 09b9 2a5d 2439 baf6 0e39
00000260: 9c13 1138 b304 ae39 10cd 38b7 5eae 1fbb
00000270: ae2c 02b9 ae25 0cb9 f021 0939 cd9f 0ab9
00000280: da64 11b9 aa82 0ebb eb5b 0339 60ee 0538
00000290: 6151 2cb9 2f39 9c3a a9d4 6139 4a39 0539
000002a0: cd5a 54bb a57e 53b9 443d 94b8 e6c7 90b8
000002b0: e0d7 15b9 9d55 4dba 7fd8 f638 1aae 0239
000002c0: 26c2 a7b8 9a78 2539 5814 8839 5238 3bb9
000002d0: 3a86 d1b8 686d e838 1291 f9b8 fd19 0ab9
000002e0: 5221 473b ad69 2a37 8de1 8538 aa41 1fb9
000002f0: 715e 9b3a 0c88 1439 905c c6b8 e887 0fb9
00000300: 58c3 f9b8 4b26 5938 2390 c0ba 572d f6b8
00000310: 2542 c6b8 4b93 69b6 a043 9a38 b57f dd38
00000320: 7abc 57b7 8ab0 2cb7 1dd7 5bbb 6eea 0a3b
00000330: cfc6 7eb7 85a2 dab9 1190 a6ba 6d1b 8fb7
00000340: 8780 4137 5d7c 093a 51a2 7f37 dbbc 003a
00000350: 0201 8eb7 f749 b2b6 cfc9 1e37 19aa 9437
00000360: 666d 98b7 1cbf 8fb7 83f8 3637 2ae5 5e3a
00000370: 4d11 98b9 3219 153a 0d1d 47ba f49f 4cbb
00000380: e597 8339 6233 9c37 afc8 acb7 9996 00bb
00000390: 6a08 c836 bbf3 b3ba fe8d 8837 e2aa 9637
000003a0: 6c0b 80b7 1db6 a936 a201 8eb7 2656 a137
000003b0: 8485 9734 9e5b c4b7 95e7 50bb 26c9 b937
000003c0: 46be 2ab8 435d 1cba 1ef0 3c3b 8aa0 a2b6
000003d0: 34e3 f6ba fcb8 ac37 d859 9cb7 16fb d239
000003e0: 3c15 2f38 4e2f a5b7 fdf4 9938 f9f0 bdb9
000003f0: 083c dd35 6808 cfb3 e247 f537 a5de 25bb

lstm_layer.lstm1.bias_ih_l0 f4 [400]
0.0024584762 0.0026542766 -0.002246641 0.006743488 0.006490147 0.0010143061 0.0057638288 0.0025869918
0.002507323 0.0034266538 0.0029620742 0.0036899785 0.0037113263 0.00033112604 -0.00041664104 0.0037634585
0.0046427054 0.004458845 0.0038278776 0.0058944626 0.0023530212 0.0062978547 0.004076066 0.0054054772
0.0048994315 0.004411471 0.00476285 0.0020947552 0.0017468819 0.005448414 0.003507185 0.0036005473
0.003910986 0.0021304174 0.003979304 0.0050415383 3.4768973e-06 0.007477437 0.0019315018 0.0055155177
0.006674733 0.0035764137 0.0043763183 0.0011413877 0.0034063475 0.0062147677 0.0074374285 0.0011410508
0.0041549155 0.0063168625 0.0021612914 0.00450494 0.00021465341 -2.2647664e-06 4.6844612e-05 0.0040948577
0.004712119 0.005857859 0.0055586407 0.004982243 0.003986552 0.004258919 0.002257263 -1.4281552e-05
0.0053859577 0.0042167697 0.0059187333 0.004072237 0.0047912933 0.0044618677 3.5699904e-05 0.0038078458
0.0045678765 0.0048646033 0.004032246 0.0046830284 0.0013215475 0.0044690017 0.0055849603 0.005474867
0.0042210487 0.001453034 0.004461016 0.0046639936 0.0045489185 0.0027443492 0.0014944387 0.0051585045
0.004334471 0.0029763028 0.0025557007 0.0058515747 0.004186212 0.0014161647 0.004015782 0.0039575133
0.002795591 0.0029013816 0.0037123284 0.0022674266 0.0016630639 0.0012389113 0.00029426892 0.005456854
0.0057065557 -0.0008475765 0.0024075124 0.003882143 0.0014348888 0.0006075652 0.0014513421 0.002885438
0.0031209784 0.00042352674 0.0011231417 0.0041060285 0.0038928834 0.0033061712 0.00090716593 0.004388751
0.002132071 0.0049400856 0.0025522753 0.003880396 0.0037354527 0.0035737786 0.0037898049 0.0017512352
0.0026916063 0.0044330657 0.0028739038 0.0034038138 0.0028945964 0.004123064 0.0036056293 0.0045245546
0.00018701811 0.0059124297 0.001674017 0.0048894277 0.0035603899 0.002845769 0.0027778351 0.0019291118
0.0004643245 0.004661482 0.0034789948 -3.9401948e-05 0.005746912 0.004537924 0.0017696812 0.0034106474
-0.0031340753 -2.669457e-06 2.7317421e-05 0.0036785328 0.0037766097 0.0036727358 0.0054862876 0.004013827
0.0036341303 0.0034165294 0.0054360824 0.00033097714 0.0064325747 0.004318133 0.004870225 0.0031123809
0.0010517893 0.0040061814 0.0018573878 0.0006376087 0.003395874 0.0013504977 0.0033830686 0.0036187752
0.0025677606 0.003327546 0.004976723 0.0019627642 0.0031463788 0.002102161 0.0038892652 0.0038829702
0.004428938 0.0021788166 0.00044032853 0.0038858086 0.004062839 0.003531895 0.0048851008 0.0061105588
0.0058317147 0.0010114437 0.0013043811 0.0030714567 0.0043796576 0.0021741316 0.0017604713 0.002394857
0.005878539 0.0046630814 0.0018137137 0.0077944836 0.01136964 0.0006572586 -0.011627853 0.00775821
0.005200359 -0.006149704 -0.0034471324 -0.006212963 0.008822135 0.0014123124 -0.004036 -0.003974496
0.00840023 0.00994835 -0.005944054 0.010407844 -0.00486612 0.010747859 0.00827251 -0.010700504
-0.012534025 -0.009219025 0.010192386 0.0050912974 0.0070726653 -0.010225934 -0.006991977 -0.007419865
0.0020849444 -0.007908551 0.0069142757 -0.009240562 0.0004642133 0.012569909 0.0037377407 -0.011875593
0.009094452 0.0077930256 0.0064432393 -0.0047662784 0.0032280541 -0.009188824 0.008827964 0.0031997878
-0.009028301 0.008857984 -0.0047970195 -0.008695651 -0.0014282794 0.0010872356 0.0004939541 0.008844332
00000000: 631e 213b 5ff3 2d3b 623c 13bb 7af8 dc3b
00000010: 4dab d43b 77f2 843a 80de bc3b 858a 293b
00000020: e651 243b b691 603b 5c1f 423b 91d3 713b
00000030: b939 733b fc9a ad39 9d70 dab9 5ba4 763b
00000040: d621 983b 811b 923b 21dd 7a3b 5626 c13b
00000050: 2535 1a3b 3c5e ce3b 8590 853b 6e20 b13b
00000060: 698b a03b 1a8e 903b ae11 9c3b 2948 093b
00000070: a1f7 e43a 9c88 b23b cdd8 653b 29f7 6b3b
00000080: ba27 803b 799e 0b3b d264 823b 7d33 a53b
00000090: a454 6936 4a05 f53b 722a fd3a 84bb b43b
000000a0: b8b7 da3b 4462 6a3b 3867 8f3b 9e9a 953a
000000b0: 073d 5f3b 40a5 cb3b acb5 f33b 508f 953a
000000c0: f525 883b affd ce3b 74a4 0d3b 2d9e 933b
000000d0: 9614 6139 64fc 17b6 057b 4438 282e 863b
000000e0: 1e68 9a3b 48f3 bf3b 4225 b63b 1542 a33b
000000f0: 9fa1 823b 678e 8b3b 97ee 133b cc9a 6fb7
00000100: b07c b03b d42c 8a3b eff1 c13b 6670 853b
00000110: 4800 9d3b dc34 923b 7bbc 1538 0d8d 793b
00000120: 20ae 953b 4067 9f3b ee20 843b 1774 993b
00000130: c737 ad3a b470 923b 0b02 b73b 8366 b33b
00000140: b950 8a3b bb73 be3a b72d 923b 6ad4 983b
00000150: 180f 953b 8ada 333b 0be1 c33a ac08 a93b
00000160: 2e08 8e3b 130e 433b 8b7d 273b 91be bf3b
00000170: 7e2c 893b 9a9e b93a d296 833b 07ae 813b
00000180: 3c36 373b 1b25 3e3b 894a 733b 1b99 143b
00000190: 2afb d93a f762 a23a 1b48 9a39 69cf b23b
000001a0: 0ffe ba3b e52f 5eba 5bc7 1d3b 8d6b 7e3b
000001b0: e112 bc3a 0345 1f3a f63a be3a 9e19 3d3b
000001c0: 5489 4c3b cc0c de39 6236 933a dd8b 863b
000001d0: bf1f 7f3b 59ac 583b e0ce 6d3a 83cf 8f3b
000001e0: 37ba 0b3b 71e0 a13b 1344 273b 3e4e 7e3b
000001f0: 7fce 743b 0e36 6a3b 605e 783b b489 e53a
00000200: a965 303b 4043 913b 1b58 3c3b 8512 5f3b
00000210: 45b3 3d3b c51a 873b 6c4c 6c3b b742 943b
00000220: 4b1a 4439 0ebd c13b b16a db3a 7e37 a03b
00000230: 6e55 693b 1580 3a3b 570c 363b 40da fc3a
00000240: 9470 f339 58bf 983b d9ff 633b 8543 25b8
00000250: 9850 bc3b deb2 943b a6f4 e73a 2b85 5f3b
00000260: 0f65 4dbb ec24 33b6 b727 e537 8a13 713b
00000270: ff80 773b 48b2 703b 51c6 b33b 6c86 833b
00000280: 972a 6e3b dae7 5f3b 2a21 b23b 0087 ad39
00000290: 59c8 d23b 207f 8d3b 6996 9f3b 16f9 4b3b
000002a0: 31dc 893a 4946 833b 9873 f33a 3225 273a
000002b0: 508d 5e3b 2f03 b13a 79b6 5d3b f928 6d3b
000002c0: e047 283b f512 5a3b c713 a33b b8a1 003b
000002d0: 7a33 4e3b 69c4 093b 0be3 7e3b 6e79 7e3b
000002e0: a020 913b 7aca 0e3b e5db e639 0da9 7e3b
000002f0: 9021 853b 5e77 673b 3213 a03b 153b c83b
00000300: f817 bf3b 6b92 843a c4f7 aa3a 7e4a 493b
00000310: 3b83 8f3b e07b 0e3b 9dbf e63a 08f3 1c3b
00000320: c2a0 c03b c3cc 983b 22ba ed3a de68 ff3b
00000330: ba47 3a3c e14b 2c3a c082 3ebc 9538 fe3b
00000340: c667 aa3b 7583 c9bb 49e9 61bb 1c96 cbbb
00000350: b78a 103c 571d b93a 6c40 84bb 7d3c 82bb
00000360: 1ea1 093c 67fe 223c 57c6 c2bb a985 2a3c
00000370: f973 9fbb ca17 303c 6c89 073c 2b51 2fbc
00000380: 835b 4dbc 650b 17bc f7fd 263c e6d4 a63b
00000390: d1c1 e73b ad8a 27bc f41c e5bb 5722 f3bb
000003a0: 90a3 083b de92 01bc 2691 e23b ba65 17bc
000003b0: a861 f339 05f2 4d3c e2f4 743b d991 42bc
000003c0: e500 153c a35c ff3b cf21 d33b 712e 9cbb
000003d0: c38d 533b b98c 16bc 2aa3 103c 88b3 513b
000003e0: 70eb 13bc 1421 113c 5130 9dbb 3478 0ebc
000003f0: 1b35 bbba 9381 8e3a b37c 013a d1e7 103c

lstm_layer.lstm1.bias_hh_l0 f4 [400]
0.0021879429 0.001441202 0.00039241565 0.006768502 0.0062583205 0.0009230427 0.006044767 0.001795351
0.0017884809 0.002681189 0.003017132 0.0027720376 0.006066971 0.00032930623 -0.0020859747 0.0019450823
0.0048787864 0.005436354 0.0010183575 0.006019994 0.0021342097 0.0062905652 0.0044753044 0.003842771
0.004668816 0.004545581 0.0047431807 0.001978882 0.0032626363 0.005259372 0.0040318235 0.0048079453
0.002607887 0.0033879005 0.0040601995 0.0051117074 0.00058247865 0.00691526 0.0023376585 0.006139609
0.0041418592 0.0040563494 0.003996638 0.0021984265 0.0005727726 0.0056997156 0.004323482 0.0009833841
0.0043661087 0.004807625 0.0020790722 0.0040592235 0.0005117285 -2.625927e-06 4.4625613e-05 0.0045522605
0.0042711836 0.005808574 0.005533827 0.0048200074 0.0046512643 0.0043030963 0.003520243 -0.0015019513
0.004710926 0.0013428185 0.008668921 0.003058427 0.0049501318 0.0041251443 3.824666e-05 0.0008375153
0.005742149 0.0048713074 0.0026561262 0.004772523 0.0009197055 0.004084487 0.00629865 0.005311603
0.0029088273 0.002271936 0.0044374657 0.0045740916 0.0076138303 0.0028806708 -0.0006376055 0.004823159
0.0042303703 0.0038804458 0.0024282204 0.006382619 0.0065114107 0.0021758464 0.0017221597 0.003819507
0.0022788264 0.00089921925 0.0024090428 0.0033331623 0.0003349987 0.0013576747 0.00016957773 0.0053705014
0.0052499394 0.00037815797 0.0048494306 0.0029127554 0.001427778 0.0021048526 0.0025534257 0.0023138435
0.0032736624 0.0002192427 0.0009287152 0.004453176 0.003956187 0.002540212 0.0015076303 0.0048077526
0.0019721838 0.0073026866 0.0034459431 0.002428731 0.003779785 0.0042510824 0.0015287637 0.0012883727
0.0023569956 0.0043445197 0.002833128 0.0034047128 0.0022249373 0.002778251 0.0028845118 0.0040270817
-6.761545e-05 0.005851668 0.0017374762 0.0048551825 0.0033492101 0.0032650607 0.003226332 0.0018847388
0.00073807326 0.00465498 0.0042794095 -0.0020892145 0.0035375925 0.0044687307 0.0016898765 0.0035675436
0.0001906518 2.9898936e-05 2.439564e-05 0.0032550653 0.0057353256 0.0044260207 0.004661739 0.0041060853
0.0037429102 0.0034044692 0.0031328767 0.000221741 0.004708133 0.0034316513 0.0045453 0.0035535025
0.0042114663 0.002570491 2.8478518e-05 0.0006365289 0.0035456242 0.0008825092 0.0033301283 0.003657621
0.0006133424 0.00610889 0.004433676 0.0023075226 0.0023879483 0.0030078953 0.0018296246 0.003945483
0.0036913708 0.0022639602 0.0011298617 0.004119525 0.0034508589 0.0011947707 0.0019145533 0.0036298903
0.0029875895 0.0011175039 0.0013303529 0.0030002864 0.0021803102 0.0017036203 0.0023038695 0.0022029362
0.005686026 0.0047598453 0.0018330952 0.013085492 0.008541637 0.0033355309 -0.011591015 0.007761767
0.0043364665 -0.0037995314 -0.009339364 -0.006397546 0.008853534 0.0017054535 -0.0038364972 -0.007153182
0.00994561 0.008489523 -0.0036137116 0.010628433 -0.0049584033 0.010708339 0.0082003325 -0.008326967
-0.0097729005 -0.009246177 0.010191279 0.005120617 0.007687928 -0.010539803 -0.0067689368 -0.007835489
0.0064623277 -0.007535082 0.007153547 -0.010096231 0.0006873051 0.012204892 0.0037302568 -0.009924531
0.00909361 0.0077141593 0.0069508883 -0.004761613 0.0028703967 -0.009509387 0.0087800445 0.0041536596
-0.005044534 0.008744294 -0.0008813043 -0.007228039 -0.0013625082 0.0005649016 0.00041137356 0.008954547
00000000: 9763 0f3b b7e6 bc3a 23bd cd39 4fca dd3b
00000010: 9912 cd3b 59f8 713a 2e13 c63b fc51 eb3a
00000020: 766b ea3a e3b6 2f3b 13bb 453b 13ab 353b
00000030: 71cd c63b bca6 ac39 d9b4 08bb 22f2 fe3a
00000040: 3ade 9f3b 7123 b23b 687a 853a 5f43 c53b
00000050: 19de 0b3b 1621 ce3b 93a5 923b 00d7 7b3b
00000060: defc 983b 19f3 943b af6c 9b3b 21b0 013b
00000070: f4d1 553b cf56 ac3b 631d 843b f88b 9d3b
00000080: 15e9 2a3b 8a07 5e3b 6c0b 853b 1c80 a73b
00000090: 7bb1 183a 6899 e23b 6733 193b c62e c93b
000000a0: 6fb8 873b 20eb 843b 3bf6 823b 7a13 103b
000000b0: 1e26 163a aec4 ba3b ffab 8d3b e5e4 803a
000000c0: 9311 8f3b 4889 9d3b 0b41 083b 3c03 853b
000000d0: 8525 063a 1539 30b6 632c 3b38 212b 953b
000000e0: 49f5 8b3b da55 be3b 1b55 b53b 27f1 9d3b
000000f0: a269 983b fd00 8d3b e1b3 663b 1fdd c4ba
00000100: 1d5e 9a3b 8301 b03a 1708 0e3c e46f 483b
00000110: b734 a23b 382c 873b 0a6b 2038 b38c 5b3a
00000120: a328 bc3b 7d9f 9f3b 6712 2e3b d362 9c3b
00000130: 6418 713a 29d7 853b e864 ce3b f50c ae3b
00000140: 06a2 3e3b c3e4 143b 2968 913b 43e2 953b
00000150: 707d f93b a3c9 3c3b fb24 27ba 970b 9e3b
00000160: eb9e 8a3b 144f 7e3b c722 1f3b 4a25 d13b
00000170: ac5d d53b a598 0e3b 17ba e13a b250 7a3b
00000180: 5d58 153b 95b9 6b3a 08e1 1d3b 2f71 5a3b
00000190: c4a2 af39 01f4 b13a add0 3139 08fb af3b
000001a0: af07 ac3b 8143 c639 f9e7 9e3b ede3 3e3b
000001b0: 4824 bb3a 91f1 093b 6057 273b daa3 173b
000001c0: f18a 563b 84e4 6539 0675 733a f3eb 913b
000001d0: e7a2 813b af79 263b ae9b c53a 5a8a 9d3b
000001e0: c13f 013b 604b ef3b 55d5 613b 582b 1f3b
000001f0: 45b6 773b aa4c 8b3b cc60 c83a 9dde a83a
00000200: d377 1a3b 795c 8e3b 00ac 393b 9a21 5f3b
00000210: 41d0 113b 5113 363b 140a 3d3b 9cf5 833b
00000220: c5cc 8db8 59bf bf3b 07bc e33a 3918 9f3b
00000230: 6c7e 5b3b a1fa 553b de70 533b 5709 f73a
00000240: 427b 413a cd88 983b 4a3a 8c3b 34eb 08bb
00000250: f4d6 673b 6e6e 923b d97e dd3a 73cd 693b
00000260: b4e9 4739 7acf fa37 3da5 cc37 ef52 553b
00000270: 66ef bb3b 2708 913b 80c1 983b 578c 863b
00000280: 9d4b 753b 841d 5f3b f350 4d3b 2583 6839
00000290: af46 9a3b 8ee5 603b bdf0 943b e1e1 683b
000002a0: 5700 8a3b af75 283b 27e5 ee37 bbdc 263a
000002b0: b45d 683b 3158 673a 483e 5a3b b3b4 6f3b
000002c0: b6c8 203a 152d c83b 5f48 913b ce39 173b
000002d0: 207f 1c3b 1c20 453b 04d0 ef3a 1c49 813b
000002e0: edea 713b f35e 143b de17 943a 15fd 863b
000002f0: ce27 623b da99 9c3a c0f1 fa3a 74e3 6d3b
00000300: 6fcb 433b 3579 923a 3c5f ae3a 74a0 443b
00000310: 89e3 0e3b 034c df3a 84fc 163b 235f 103b
00000320: d851 ba3b 7af8 9b3b 7844 f03a 8864 563c
00000330: 39f2 0b3c ec98 5a3b 3ee8 3dbc 6c56 fe3b
00000340: eb18 8e3b 8f01 79bb 2204 19bc 81a2 d1bb
00000350: 6a0e 113c 8689 df3a be6d 7bbb 3d65 eabb
00000360: e9f2 223c a417 0b3c 05d4 6cbb e122 2e3c
00000370: 1a7a a2bb 0772 2f3c b05a 063c d56d 08bc
00000380: 841e 20bc 477d 17bc 53f9 263c d9ca a73b
00000390: 04eb fb3b 23af 2cbc f5cd ddbb 6c60 00bc
000003a0: efc1 d33b d9e8 f6bb 4d68 ea3b a96a 25bc
000003b0: 442c 343a 07f7 473c 5377 743b 809a 22bc
000003c0: 5dfd 143c 0fc7 fc3b 47c4 e33b 4e07 9cbb
000003d0: 441d 3c3b 43cd 1bbc 2dda 0f3c 6c1b 883b
000003e0: 9e4c a5bb 3a44 0f3c 5507 67ba 30d9 ecbb
000003f0: 3096 b2ba e815 143a a0ad d739 18b6 123c

gbrbm.W f4 [100, 100]
-7.4326184e-05 0.006647098 0.0026317406 0.00019607085 -0.0069832318 0.0014340857 -0.009203419 -5.604668e-05
0.0045921383 -0.00059281586 0.0024351052 0.0037672636 0.0038891316 -0.017405 -0.0022763775 -0.0066342233
-0.0040561976 -0.0073524127 -0.010025176 -0.0047414326 -0.0021868437 -0.012776149 -0.0053215334 -0.0008312036
0.0025635425 0.0036442706 0.0058302167 0.0062524565 -0.0062982133 -0.006916737 -0.016033435 -0.014908327
0.0014808569 0.019396767 -0.000576992 0.00033461573 -0.008821605 0.0008572364 -0.005068319 0.010414096
0.0096769715 0.0049814656 0.0027150896 0.00865803 0.0040458646 -0.004003222 -0.001749449 -0.0013519629
-0.0024684255 -0.0014541587 0.004350293 0.00015922273 0.001991952 0.008021426 0.0048285415 0.003444729
0.009665757 -0.011465988 0.007864659 0.003997369 0.005928612 0.0063229725 0.0039974 0.0076812957
0.003071935 0.0016318633 0.0027269835 -0.0014643205 -0.0063497545 -0.006152949 -1.240332e-06 0.012903237
-0.0028605678 0.006990489 0.0025895638 -0.0047931867 0.01298088 0.004133267 -0.0045420863 0.004379044
0.0059689353 0.010022832 0.0043866034 -0.0041037 -0.005120849 -0.0025626342 0.0009849297 -0.022354495
0.009837309 -0.003432434 0.00039536488 0.006766153 -0.0028449378 -0.010869953 -0.009750827 0.0011565929
0.007421981 -0.015663339 0.010927784 -0.017680345 -0.0039384915 0.0019900561 -0.00072188367 0.0019462645
0.00076983665 -0.0031735804 -0.008354425 0.003092762 0.0011530204 -0.00097655266 0.0016259778 -0.0010479587
0.0023513148 -0.009967541 0.007007475 0.0035774542 -0.0023733436 -0.003032191 0.006753448 0.00032992128
0.0055081374 -0.003984243 -0.002376726 0.010128905 -0.005250623 0.005497789 0.0013217577 -0.0040933243
-0.0025182709 -0.0011222598 -0.023418702 -0.016282152 0.0029890838 0.0080387425 -0.010958301 0.004934303
-0.0044363327 0.0028178568 -0.008386259 -0.00052149215 0.007533092 0.0010010795 0.007072099 0.0023357747
0.008635301 -0.0013215183 -0.0037986245 -0.0036882495 -0.0062066186 -0.0021504776 0.004883397 0.0025288104
-0.002120994 0.004386681 -0.0021328733 0.0013035394 0.0050348057 -0.01066431 0.00634212 0.01264264
-0.0010602943 0.0058839936 -0.00069115014 0.005364755 -0.0061561586 0.004894483 -0.0048289364 -0.0012093511
0.00071103376 -0.006452923 -0.0017293198 0.014784213 -0.002287529 0.0070375134 0.006783024 -0.0047201714
0.009922259 0.0030735494 -0.009576648 0.0037280608 0.0025025161 0.002054606 0.0032206406 -0.014800292
-0.0023508756 0.00810717 -0.00417147 -0.025948541 0.0076840343 0.0014558613 -0.0041728746 0.0011980532
-0.0022130527 -0.008931635 -0.0022411384 0.005870462 0.002834636 -0.014309139 0.010005131 -0.01042735
-0.008073059 0.007468927 -0.0044225794 -0.0064578573 -0.007007485 -0.0073321564 0.0052612345 0.0012818547
0.0022828337 -0.0054352474 -0.00688357 0.0021987471 -0.00021844823 -0.0049412386 0.0014890465 -0.009660283
0.003790289 -0.004754821 0.004275 -0.010637053 -0.0040955637 -0.004001855 0.0027907582 0.008334943
-0.003657833 0.0021855887 0.0030197187 -0.0023534668 -0.0062294183 0.005695475 -0.01445232 -0.012807505
0.0065796115 -0.004758549 0.00037754685 0.0033759135 -0.004760367 -0.000306108 0.002817617 0.0067912354
0.0022284833 0.0024223877 0.0006817151 0.0022588817 0.001923412 0.0005910503 0.0025284016 -0.0025056645
0.0034443915 0.0024461267 0.0024412207 0.0007775687 0.0022790825 0.006503315 -0.0032594046 -0.011014627
00000000: 91df 9bb8 e6cf d93b 4879 2c3b 5e98 4d39
00000010: 98d3 e4bb eef7 bb3a f0c9 16bc aa13 6bb8
00000020: a679 963b 3367 1bba 4996 1f3b 32e4 763b
00000030: cde0 7e3b ee94 8ebc 472f 15bb e663 d9bb
00000040: dae9 84bb 82ec f0bb a340 24bc 055e 9bbb
00000050: 2651 0fbb 0e53 51bc 4260 aebb 21e5 59ba
00000060: 1b01 283b b7d4 6e3b 670b bf3b 68e1 cc3b
00000070: 3e61 cebb cca5 e2bb 8d58 83bc 0e42 74bc
00000080: 5019 c23a f8e5 9e3c 4741 17ba 5d6f af39
00000090: 7e88 10bc 29b8 603a 2414 a6bb e29f 2a3c
000000a0: 298c 1e3c 903b a33b a5ef 313b 69da 0d3c
000000b0: 2c93 843b 762d 83bb c44d e5ba 5934 b1ba
000000c0: 4fc5 21bb 7899 beba e78c 8e3b 07f5 2639
000000d0: 698b 023b 4d6c 033c be38 9e3b f6c0 613b
000000e0: 205d 1e3c d7db 3bbc c5da 003c 5dfc 823b
000000f0: cd44 c23b f030 cf3b 9ffc 823b 61b3 fb3b
00000100: 8452 493b 3fe4 d53a 31b7 323b 71ee bfba
00000110: 9a11 d0bb ad9e c9bb 7c79 a6b5 1968 533c
00000120: 5d78 3bbb 7910 e53b acb5 293b 2a10 9dbb
00000130: c2ad 543c 5b70 873b c8d5 94bb 157e 8f3b
00000140: 0f97 c33b ce36 243c 7fbd 8f3b 5578 86bb
00000150: cbcc a7bb def1 27bb c218 813a c620 b7bc
00000160: aa2c 213c b0f2 60bb fa48 cf39 9bb6 dd3b
00000170: 2372 3abb e317 32bc efc1 1fbc d198 973a
00000180: 1734 f33b 6750 80bc 730a 333c 5fd6 90bc
00000190: 760e 81bb 9a6b 023b cb3c 3dba cd19 ff3a
000001a0: ddce 493a d8fb 4fbb 00e1 08bc f0af 4a3b
000001b0: f220 973a 57ff 7fba c31e d53a a95b 89ba
000001c0: 8418 1a3b e64e 23bc f69e e53b b973 6a3b
000001d0: 198a 1bbb b9b7 46bb 074c dd3b 49f9 ac39
000001e0: 9b7d b43b 418e 82bb d8c2 1bbb b5f3 253c
000001f0: 6b0d acbb cc26 b43b d43e ad3a 4b21 86bb
00000200: 9309 25bb ca18 93ba 94d8 bfbc 2662 85bc
00000210: 81e4 433b eeb4 033c 728a 33bc efaf a13b
00000220: a85e 91bb cbab 383b 8566 09bc bfb4 08ba
00000230: 28d8 f63b a736 833a 11bd e73b cc13 193b
00000240: 147b 0d3c cc36 adba 58f2 78bb 8fb6 71bb
00000250: e460 cbbb 07ef 0cbb e704 a03b 66ba 253b
00000260: 6000 0bbb 26be 8f3b adc7 0bbb 86db aa3a
00000270: 03fb a43b 5cb9 2ebc 8fd1 cf3b 1323 4f3c
00000280: 93f9 8aba 84ce c03b 4d2e 35ba d4ca af3b
00000290: 9ab9 c9bb e661 a03b 0e3c 9ebb 1783 9eba
000002a0: ab64 3a3a 0b73 d3bb 58aa e2ba 7c39 723c
000002b0: 5eea 15bb f19a e63b 2144 de3b abab 9abb
000002c0: f890 223c 9a6d 493b 5fe7 1cbc 7b52 743b
000002d0: 4101 243b 92a6 063b 6211 533b ed7c 72bc
000002e0: 2611 1abb f0d3 043c d4b0 88bb 0992 d4bc
000002f0: 5aca fb3b 99d2 be3a 9cbc 88bb ff07 9d3a
00000300: dd08 11bb fe55 12bc 10e0 12bb 015d c03b
00000310: 4dc5 393b e170 6abc 90ec 233c 7ad7 2abc
00000320: dd44 04bc e7bd f43b 49eb 90bb 6f9c d3bb
00000330: 0b9f e5bb 9642 f0bb 6f66 ac3b e803 a83a
00000340: 989b 153b 291a b2bb 928f e1bb db18 103b
00000350: 400f 65b9 1dea a1bb 1c2c c33a 2a46 1ebc
00000360: 7f66 783b 54ce 9bbb 4d15 8c3b 0947 2ebc
00000370: 1434 86bb fe21 83bb 27e5 363b 498f 083c
00000380: 41b8 6fbb 183c 0f3b 79e6 453b 9f3c 1abb
00000390: 2620 ccbb 1ba1 ba3b 6cc9 6cbc 92d6 51bc
000003a0: c899 d73b 9aed 9bbb 7bf1 c539 6e3e 5d3b
000003b0: dafc 9bbb 1f7d a0b9 c5a7 383b 0389 de3b
000003c0: bf0b 123b ecc0 1e3b 20b5 323a bf09 143b
000003d0: ff1a fc3a b7f0 1a3a 8ab3 253b 1336 24bb
000003e0: 4dbb 613b 324f 203b e3fc 1f3b c1d5 4b3a
000003f0: a95c 153b c319 d53b bc9b 55bb b276 34bc

gbrbm.b f4 [100]
-0.068555504 0.023051739 0.039585304 -0.04733186 -0.010262439 0.0011218236 -0.046114404 -0.033731677
0.026588028 -0.0308542 0.02911684 0.012059177 0.02063573 -0.023909027 -0.07037324 -0.018114334
-0.06807096 -0.0015153824 -0.11195618 -0.008436233 0.0017523196 -0.051116575 -0.011850779 -0.03610459
-0.045720994 -0.054761272 -0.13754137 -0.033403877 0.016787589 -0.011144509 -0.23746231 -0.07381518
0.06332371 0.014235186 -0.08182385 -0.117449395 -0.018195903 0.030208683 -0.00869255 0.09070606
-0.061290074 -0.012032612 -0.049141783 -0.04879628 -0.06337907 -0.0135955 -0.0018094108 -0.04024559
-0.05931309 -0.1097148 -0.021994162 -0.014080215 -0.06004059 0.019249067 -0.13390346 -0.052625228
-0.043362264 -0.08781943 0.01206208 0.01781832 -0.010727951 0.036759347 -0.08303414 0.0149082225
0.050913554 0.0049498333 0.075780995 -0.030029943 -0.056952767 -0.10359208 -0.05358745 0.03252415
-0.029955558 -0.028240403 -0.0034168577 0.033163827 0.06606378 -0.008590053 -0.14216569 -0.018791018
0.0020337636 -0.07446993 -0.044954624 0.012868614 0.03512438 -0.085542984 -0.12361583 -0.22092934
0.05320093 0.03298695 -0.06994989 -0.066818364 -0.046581786 -0.087311015 -0.12718645 0.02212354
-0.089810655 -0.13992389 0.0064675272 -0.10952734
00000000: d466 8cbd 00d7 bc3c 3324 223d 0ddf 41bd
00000010: ca23 28bc 270a 933a 75e2 3cbd 3a2a 0abd
00000020: 23cf d93c f2c1 fcbc 7086 ee3c db93 453c
00000030: 430c a93c dddc c3bc d81f 90bd 8364 94bc
00000040: ca68 8bbd cc9f c6ba 4849 e5bd 2038 0abc
00000050: 17ae e53a 9d5f 51bd c529 42bc 68e2 13bd
00000060: f045 3bbd 5b4d 60bd a5d7 0cbe 81d2 08bd
00000070: 2086 893c 7597 36bc 5229 73be 6a2c 97bd
00000080: dcaf 813d b33a 693c 4393 a7bd 4f89 f0bd
00000090: 930f 95bc 3378 f73c 326b 0ebc 19c4 b93d
000000a0: 4d0b 7bbd 6f24 45bc e548 49bd 9cde 47bd
000000b0: e3cc 81bd a9bf 5ebc c029 edba 8fd8 24bd
000000c0: 48f2 72bd 27b2 e0bd 1a2d b4bc b4b0 66bc
000000d0: 1fed 75bd 38b0 9d3c fd1d 09be 8d8d 57bd
000000e0: a19c 31bd acda b3bd 08a0 453c baf7 913c
000000f0: 4ac4 2fbc f890 163d ce0d aabd 9e41 743c
00000100: bb8a 503d 3632 a23b 1133 9b3d 5b01 f6bc
00000110: 4e47 69bd 1628 d4bd 847e 5bbd 0b38 053d
00000120: 5c65 f5bc 6b58 e7bc 5ced 5fbb cbd6 073d
00000130: 724c 873d 4bbd 0cbc e293 11be 9fef 99bc
00000140: e448 053b b183 98bd 5722 38bd e1d6 523c
00000150: 95de 0f3d 2931 afbd 4c2a fdbd 4d3b 62be
00000160: 38e9 593d 531d 073d e341 8fbd 11d8 88bd
00000170: 8bcc 3ebd 1ed0 b2bd 2a3d 02be 6d3c b53c
00000180: a6ee b7bd 3548 0fbe 8ded d33b df4f e0bd

gbrbm.mu f4 [100]
0.0039236885 0.0017026633 0.00023336419 -0.014179007 -0.003994619 -0.0007359786 -0.011441564 0.000695315
-0.0039796936 0.001233598 -0.012092926 -0.0054988926 0.0030622212 0.004230142 0.0026642526 -0.0006588795
0.0018507075 0.013543421 -0.0046621044 0.015153493 -0.010687251 0.0064625046 0.004561379 0.004251071
-0.011383853 0.0019241534 0.0026927744 -0.002472052 0.009294456 -0.0023686385 -0.005268027 -0.00031123703
0.0054857563 -0.013150667 0.0033953637 -0.0010718768 0.004858117 0.010854779 0.0027081566 -0.013580093
0.012761909 0.0014880593 0.004065957 0.008487379 -0.0061881486 -0.0023193117 -0.0038844338 0.00020877614
0.0017042526 -0.0036131495 0.011106663 0.012784523 0.004138603 -0.0040499656 -0.00477548 0.013250539
0.0015107022 -0.013492069 -0.006152088 -0.008448991 0.010747858 0.00761204 0.005024736 0.0065287226
0.0091947345 0.0009564313 -0.002388859 0.0023386306 0.015681043 0.0021648717 -0.001132767 -0.0054328027
0.015719263 -0.003738007 -0.0040845154 -0.0076300027 -0.0015968322 0.0073807263 0.00053342275 0.0017969813
0.01288447 -0.011947395 0.015956255 0.0016051249 -0.014793797 0.010313463 0.0051009734 0.009468633
-0.0035373352 -0.0060608448 0.006535362 0.0003170437 0.0082951 -0.0062108836 -0.009660793 -0.0021553899
0.006078954 -0.008488007 -0.006076726 0.0012125841
00000000: 4992 803b e62b df3a 39b3 7439 114f 68bc
00000010: 4be5 82bb b0ee 40ba 6675 3bbc cd45 363a
00000020: 1768 82bb aeb0 a13a 6821 46bc 0e30 b4bb
00000030: 8caf 483b 019d 8a3b be9a 2e3b a8b8 2cba
00000040: 7093 f23a 3ae5 5d3c 91c4 98bb 5b46 783c
00000050: 9419 2fbc 6bc3 d33b 9f77 953b 914c 8b3b
00000060: 5783 3abc e033 fc3a 4279 303b 2602 22bb
00000070: c647 183c 293b 1bbb 6a9f acbb 872d a3b9
00000080: dcc1 b33b e575 57bc c084 5e3b 387e 8cba
00000090: d730 9f3b 3ed8 313c 547b 313b 0a7f 5ebc
000000a0: 5317 513c fc0a c33a b83b 853b a60e 0b3c
000000b0: f4c5 cabb 98ff 17bb fc91 7ebb ebea 5a39
000000c0: 3a61 df3a 97ca 6cbb b9f8 353c 2d76 513c
000000d0: 1e9d 873b 93b5 84bb a17b 9cbb ca18 593c
000000e0: c102 c63a d70d 5dbc 7497 c9bb a36d 0abc
000000f0: c917 303c 6b6e f93b 8aa6 a43b e5ee d53b
00000100: 83a5 163c 05b9 7a3a 678e 1cbb b643 193b
00000110: 8875 803c 85e0 0d3b 5a79 94ba a705 b2bb
00000120: afc5 803c 5af9 74bb 66d7 85bb 1a05 fabb
00000130: cc4c d1ba 05da f13b 65d5 0b3a b088 eb3a
00000140: 6219 533c 02bf 43bc b1b6 823c 0e63 d23a
00000150: af61 72bc cdf9 283c 1126 a73b 5322 1b3c
00000160: a3d2 67bb 0d9a c6bb 9726 d63b e338 a639
00000170: 2ce8 073c ab84 cbbb 4d48 1ebc 7141 0dbb
00000180: f631 c73b 4811 0bbc 461f c7bb 92ef 9e3a

gbrbm.log_var f4 [100]
-1.8717159 -1.8619494 -1.8694614 -1.8789723 -1.8581808 -1.8658094 -1.8599724 -1.8678212
-1.8669815 -1.8761306 -1.8622391 -1.8717673 -1.855318 -1.8567561 -1.8697172 -1.8629375
-1.8857923 -1.8794043 -1.8706697 -1.8705181 -1.8705133 -1.8779653 -1.8631396 -1.8875316
-1.8676797 -1.8719302 -1.8636233 -1.8924402 -1.8611248 -1.8667861 -1.8670588 -1.8701239
-1.8728309 -1.8621167 -1.8736532 -1.8564394 -1.8742094 -1.8832041 -1.8617988 -1.8849791
-1.8736534 -1.86728 -1.8568494 -1.8829587 -1.9044849 -1.8637285 -1.8700806 -1.871506
-1.8665543 -1.8721567 -1.8631134 -1.8840866 -1.8767364 -1.879395 -1.8735017 -1.8894675
-1.8579414 -1.8923761 -1.8638675 -1.8964392 -1.8705782 -1.8611393 -1.8673139 -1.8728029
-1.8730547 -1.8736485 -1.8607432 -1.8623656 -1.8662375 -1.8619944 -1.8831978 -1.8687109
-1.8840437 -1.8647491 -1.8706967 -1.8655913 -1.8678864 -1.864141 -1.8684124 -1.8596864
-1.8724279 -1.8759335 -1.8982471 -1.862774 -1.8729112 -1.8661417 -1.8771901 -1.8807743
-1.8709185 -1.8696427 -1.8757356 -1.8601701 -1.8681097 -1.8817389 -1.8867183 -1.8600972
-1.8615775 -1.890389 -1.8665868 -1.8583053
00000000: 6394 efbf 5c54 eebf 834a efbf 2a82 f0bf
00000010: ded8 edbf d8d2 eebf 9313 eebf c414 efbf
00000020: 40f9 eebf 0c25 f0bf da5d eebf 1296 efbf
00000030: 0f7b edbf 2faa edbf e552 efbf bc74 eebf
00000040: a461 f1bf 5290 f0bf 1b72 efbf 236d efbf
00000050: fb6c efbf 2b61 f0bf 5c7b eebf a39a f1bf
00000060: 2110 efbf 699b efbf 358b eebf 7b3b f2bf
00000070: 5639 eebf d9f2 eebf c8fb eebf 3860 efbf
00000080: ecb8 efbf d759 eebf ded3 efbf ce9f edbf
00000090: 18e6 efbf d50c f1bf 6c4f eebf ff46 f1bf
000000a0: e0d3 efbf 0803 efbf 3ead edbf ca04 f1bf
000000b0: 29c6 f3bf a88e eebf cd5e efbf 828d efbf
000000c0: 40eb eebf d5a2 efbf 807a eebf c029 f1bf
000000d0: e638 f0bf 0490 f0bf e7ce efbf 12da f1bf
000000e0: 06d1 edbf 6139 f2bf 3693 eebf 85be f2bf
000000f0: 1b6f efbf d039 eebf 2404 efbf 01b8 efbf
00000100: 42c0 efbf b7d3 efbf d52c eebf ff61 eebf
00000110: dfe0 eebf d555 eebf a00c f1bf eb31 efbf
00000120: 5828 f1bf 19b0 eebf fd72 efbf b2cb eebf
00000130: e716 efbf 2c9c eebf 2328 efbf 340a eebf
00000140: b8ab efbf 971e f0bf c3f9 f2bf 616f eebf
00000150: 8ebb efbf bbdd eebf c447 f0bf 36bd f0bf
00000160: 427a efbf 7450 efbf 1b18 f0bf 0e1a eebf
00000170: 381e efbf d2dc f0bf fc7f f1bf aa17 eebf
00000180: 2c48 eebf 44f8 f1bf 51ec eebf f3dc edbf

gbrbm.linear_layer.weight f4 [1, 100]
0.06307053 0.0885141 0.13350345 -0.036860637 -0.15804318 0.06033342 0.2921118 0.067485295
0.116157986 0.0029282887 8.094882e-05 0.0143756 -0.028126769 0.08583438 -0.156105 0.15718587
0.073341355 -0.15334488 -0.06173969 -0.024732389 -0.14142239 0.08219255 -0.010180873 0.060302697
0.24959502 -0.058708504 0.11899947 -0.13940154 0.18040882 0.08810428 0.35055533 0.28579012
-0.3374769 -0.15115297 -0.038458254 -0.19686677 0.049256116 0.049481094 -0.023114746 0.122830205
0.04291825 0.04185161 0.06412533 -0.083245 -0.30466688 0.06629853 -0.096868455 -0.09747356
0.12805134 0.06722046 -0.3125309 0.10825521 -0.14242114 -0.23963131 -0.1371283 0.13715829
-0.13095921 -0.14020044 0.16301094 -0.07943078 -0.016779417 0.09117176 0.035700493 -0.12714611
-0.119271435 -0.34213024 0.08881801 0.15108314 -0.03751714 -0.06983036 -0.090598665 -0.0936408
0.21027844 -0.10783339 -0.21664207 0.12336216 -0.25876087 -0.08184687 0.15373918 -0.038443677
0.0096440455 0.081493095 -0.02325568 -0.11345013 -0.1830726 0.16566668 0.19108507 0.35923776
-0.22927585 -0.004593171 -0.017014226 -0.093856044 0.22338003 0.24657324 0.06195513 -0.15076189
-0.00015383004 0.2838084 0.063317046 0.3276099
00000000: 1f2b 813d e146 b53d 21b5 083e 2efb 16bd
00000010: 12d6 21be 2d20 773d ae8f 953e bb35 8a3d
00000020: 3de4 ed3d 88e8 3f3b 11c3 a938 a387 6b3c
00000030: 1c6a e6bc efc9 af3d fdd9 1fbe 55f5 203e
00000040: fe33 963d 7106 1dbe c2e2 7cbd 949b cabc
00000050: 08d1 10be 9154 a83d adcd 26bc f6ff 763d
00000060: d695 7f3e 5478 70bd feb5 f33d 47bf 0ebe
00000070: 17bd 383e 0470 b43d fd7b b33e 1553 923e
00000080: c6c9 acbe d8c7 1abe 6786 1dbd 7197 49be
00000090: c8c0 493d b0ac 4a3d 235b bdbc 678e fb3d
000000a0: 0ccb 2f3d 986c 2b3d 2454 833d 5b7c aabd
000000b0: 4cfd 9bbe 86c7 873d f862 c6bd 38a0 c7bd
000000c0: e41f 033e e1aa 893d 0d04 a0be e8b4 dd3d
000000d0: d9d6 11be e961 75be 5c6b 0cbe 3973 0c3e
000000e0: 2c1a 06be b490 0fbe 57ec 263e 9bac a2bd
000000f0: fd74 89bc 42b8 ba3d ae3a 123d 9732 02be
00000100: 9544 f4bd b22b afbe 38e6 b53d 8ab5 1a3e
00000110: 93ab 19bd 3803 8fbd cb8b b9bd bfc6 bfbd
00000120: 3b53 573e c1d7 dcbd 6bd7 5dbe 4da5 fc3d
00000130: 4e7c 84be 559f a7bd ce6d 1d3e 1e77 1dbd
00000140: 0f02 1e3c dae5 a63d b282 bebc 8b58 e8bd
00000150: 6277 3bbe 87a4 293e ceab 433e 03ee b73e
00000160: 4ac7 6abe 5082 96bb 6b61 8bbc 9937 c0bd
00000170: bcbd 643e b27d 7c3e aac4 7d3d 5361 1abe
00000180: 704d 21b9 564f 913e 5eac 813d 7cbc a73e
