final_project/gru_gbrbm_H_div_2 (drop 0.1)/type1/gru_gbrbm_W20_H200_B16.pt (torch, 608666 bytes, 9 tensors)

lstm_layer.lstm1.weight_ih_l0 f4 [600, 16]
000000 4c e9 50 36 1a 9b 0b b9 18 d1 b7 b8 aa 6b b2 b7
       3.1130212e-06 -0.00013313853 -8.765067e-05 -2.1269389e-05
000010 28 29 ec b7 f3 b0 20 b9 bf 91 55 b8 d5 b9 da b7
       -2.8152557e-05 -0.00015324708 -5.0918894e-05 -2.607416e-05
000020 35 b9 dc b7 63 ec a1 b8 5e ba c1 38 de bb 23 b8
       -2.6312287e-05 -7.721109e-05 9.237671e-05 -3.9037193e-05
000030 68 8b 7a 38 b5 c5 28 b8 43 33 05 b9 05 2b 17 b9
       5.9734477e-05 -4.023845e-05 -0.00012702965 -0.00014416508
000040 b4 8d db b9 ca b2 c2 b8 66 ee 94 b9 bc b5 2c 39
       -0.00041876512 -9.283943e-05 -0.0002840638 0.000164709
000050 44 3d e5 b7 ac 2c 78 39 71 78 9b 36 aa bf c9 b8
       -2.7327456e-05 0.00023667765 4.633381e-06 -9.620127e-05
000060 fb e8 00 b8 0b 83 ec 38 72 05 c5 b8 10 36 50 39
       -3.0734558e-05 0.000112777656 -9.394706e-05 0.00019856566
000070 b6 d3 08 b9 dd 92 82 38 f9 0c d5 b9 b4 82 bd b8
       -0.00013048839 6.2262385e-05 -0.0004063619 -9.036568e-05
000080 bf 0a 7a b7 26 9f e5 b7 40 c8 72 b7 d4 2d 36 38
       -1.4903663e-05 -2.7373037e-05 -1.4470948e-05 4.3434862e-05
000090 2f 7d 13 37 e7 47 c9 37 a9 74 a5 b6 04 29 13 37
       8.791029e-06 2.399455e-05 -4.930964e-06 8.7714325e-06
0000a0 2d e5 52 b7 49 b3 01 37 08 3a 27 b7 b9 d4 02 37
       -1.2570335e-05 7.730742e-06 -9.967487e-06 7.798132e-06
0000b0 47 4a 17 b7 65 c1 db 36 bd 94 85 b7 b4 02 63 b7
       -9.017595e-06 6.5492227e-06 -1.5924097e-05 -1.3530884e-05
0000c0 10 cb 8e b8 1f 3c 85 b8 70 33 89 b8 d7 6f 0c 38
       -6.808911e-05 -6.3531326e-05 -6.54225e-05 3.348276e-05
0000d0 0b f2 af 37 db 6d ac 38 0d 48 19 38 52 45 b7 b8
       2.0974336e-05 8.222061e-05 3.6545145e-05 -8.739032e-05
0000e0 4b 5e 23 37 be 97 2a 39 7b c8 55 b8 cc 0f fa 38
       9.737511e-06 0.00016268992 -5.096987e-05 0.00011923871
0000f0 19 6b 36 b9 d0 4a 3b 38 28 ba 98 b8 41 59 83 b8
       -0.0001739677 4.465395e-05 -7.282599e-05 -6.2631916e-05
000100 95 f2 b0 37 a4 aa c1 37 4a 3f 8f 37 2e 76 a2 37
       2.1093796e-05 2.3086854e-05 1.70764e-05 1.9366937e-05
000110 7f a7 df 37 43 af da 37 53 8f 9f 37 44 7a e1 b5
       2.6661668e-05 2.6069238e-05 1.9021018e-05 -1.679939e-06
000120 84 e9 af 37 20 3b 83 38 71 58 9e b7 8e 88 ac 37
       2.0970365e-05 6.25758e-05 -1.8876251e-05 2.0567586e-05
000130 7d c0 83 b8 b8 8a aa 37 67 7a 82 37 f0 9b a4 b7
       -6.2824205e-05 2.0330175e-05 1.5554206e-05 -1.9622938e-05
000140 fb ec 03 b8 bf 9b 0f b8 1c 81 b2 37 a5 4f a7 38
       -3.145354e-05 -3.4238907e-05 2.1279375e-05 7.9780155e-05
000150 d7 2d 3f 38 0b b8 8a 38 f0 56 bc 38 52 d4 c8 38
       4.558064e-05 6.6146335e-05 8.980732e-05 9.576291e-05
000160 2a 04 3d 38 f2 ee 41 b8 a8 74 06 37 25 18 b5 38
       4.506499e-05 -4.623732e-05 8.014184e-06 8.63525e-05
000170 b8 e5 82 38 1d ba 56 38 f0 6d 56 37 41 d9 11 36
       6.2416715e-05 5.1194907e-05 1.2780991e-05 2.1733142e-06
000180 c0 b3 25 39 d8 3d 29 39 69 eb 25 39 0f 4d be 38
       0.00015802588 0.00016140135 0.00015823323 9.074259e-05
000190 f9 4a 5f 38 30 a1 f0 38 dd b6 89 38 8e 4d 4d 38
       5.3237167e-05 0.00011474115 6.56673e-05 4.8948037e-05
0001a0 70 de 7c 38 73 67 9f 38 9b be 04 b8 d8 6e 7a 38
       6.0288643e-05 7.60098e-05 -3.1648768e-05 5.9707876e-05
0001b0 48 e9 e8 b7 06 9e 76 38 53 82 2e 39 47 e0 1c 39
       -2.7765185e-05 5.879814e-05 0.00016642483 0.00014960869
0001c0 ed 0c a3 b7 6a e8 5e b7 31 72 9b b7 de fb 78 36
       -1.9437133e-05 -1.3286344e-05 -1.8530614e-05 3.7101486e-06
0001d0 30 a0 f6 37 8e cd 0e 38 7e af 04 38 b6 bc 0d 38
       2.9400078e-05 3.4046876e-05 3.1634692e-05 3.379277e-05
0001e0 9b 55 ad 37 0d 63 a1 38 9a d7 bc b6 69 65 71 38
       2.066307e-05 7.695528e-05 -5.627936e-06 5.7553323e-05
0001f0 d1 e9 ad b8 88 f7 68 38 80 2f 60 b7 8c 6c 8a b7
       -8.2928345e-05 5.554364e-05 -1.33625e-05 -1.6501428e-05
000200 10 60 8c 38 da 59 8b 38 5a 3d 8b 38 9a ad 72 36
       6.693613e-05 6.644773e-05 6.639464e-05 3.616186e-06
000210 78 ff 07 37 24 ed 84 36 a2 1a 8c 36 59 98 e4 b6
       8.106108e-06 3.9615134e-06 4.1754256e-06 -6.812665e-06
000220 77 b8 8d 36 e8 ed 94 38 d2 e3 a5 b3 28 a7 af b6
       4.223602e-06 7.1015034e-05 -7.7248515e-08 -5.234866e-06
000230 b2 a7 2e 37 78 cd a6 36 b3 a1 8e 38 d6 f8 71 38
       1.0410253e-05 4.971105e-06 6.8012065e-05 5.7690624e-05
000240 5b 2f 94 b9 73 59 93 b9 61 7a e4 b8 08 a5 c3 b7
       -0.00028264042 -0.0002810467 -0.00010894682 -2.332266e-05
000250 98 b7 a3 b7 84 41 cd b7 c5 b9 e2 37 00 ad 02 37
       -1.9516607e-05 -2.4468412e-05 2.7027805e-05 7.7888835e-06
000260 0a c5 b2 b7 5d f0 51 b9 b5 08 c2 38 e6 68 8f 37
       -2.1311007e-05 -0.00020021336 9.252263e-05 1.7095776e-05
000270 75 f8 5a 39 19 67 eb 35 ea 60 93 b9 f6 e7 8d b9
       0.00020882658 1.753887e-06 -0.00028110232 -0.0002706644
000280 3c a8 3a b9 2d 9f 3c b9 89 c5 44 b9 ed f6 4b b9
       -0.00017801014 -0.00017988375 -0.00018765604 -0.00019451576
000290 32 e9 12 b9 8d b9 0b b8 2d 39 50 b9 ed 40 4b b8
       -0.00014010517 -3.331299e-05 -0.00019857725 -4.845944e-05
0002a0 ce e9 0b b9 cf 3a 19 39 8b 14 f0 38 f6 33 17 39
       -0.00013343172 0.00014613125 0.00011447918 0.00014419839
0002b0 66 74 4d b9 c6 f4 9e 38 04 84 83 b9 71 2e 37 b9
       -0.00019593685 7.57962e-05 -0.00025084626 -0.00017469541
0002c0 d0 e6 75 b7 f7 14 40 b8 64 36 09 b7 a2 8b 30 38
       -1.4656878e-05 -4.5795892e-05 -8.1785e-06 4.2091713e-05
0002d0 a3 ec ff 37 89 ec 58 39 69 1e 91 37 5a 4e f7 b7
       3.0508561e-05 0.00020687481 1.7299508e-05 -2.948118e-05
0002e0 f3 9c 2f 39 0c 86 90 38 87 89 9d b8 76 58 45 39
       0.00016747769 6.891423e-05 -7.51196e-05 0.00018820338
0002f0 9a 60 83 b8 09 78 cd 36 be c3 4e 38 61 d2 84 38
       -6.26456e-05 6.12345e-06 4.9296526e-05 6.3334366e-05
000300 02 96 6c b7 63 a0 d1 b8 a0 67 46 b7 89 ca 6d 39
       -1.4101623e-05 -9.995771e-05 -1.1825847e-05 0.00022677532
000310 65 4e 05 39 24 75 11 39 f5 65 95 38 6c d2 93 b8
       0.00012713073 0.00013871916 7.1238646e-05 -7.0487e-05
000320 ff 9a ba 38 45 ed 02 39 b9 df 76 b8 55 08 1b 39
       8.8980414e-05 0.00012486156 -5.885933e-05 0.00014785056
000330 9a fa 06 b9 34 9b 5e b6 cf a2 ef b8 22 96 1b b8
       -0.00012872592 -3.3170918e-06 -0.000114267335 -3.7094702e-05
000340 36 b2 0e 39 f8 17 de 38 66 ff 05 39 46 78 17 39
       0.00013608564 0.000105902494 0.00012779012 0.00014445288
000350 c3 20 b0 37 91 74 a4 38 4d 2d db 38 a6 24 ec 37
       2.099609e-05 7.8418416e-05 0.00010451172 2.8150458e-05
000360 11 04 da 37 a2 f5 36 38 c9 ae 03 b5 83 a2 04 39
       2.5989519e-05 4.3620945e-05 -4.905565e-07 0.00012649041
000370 cf 1b 30 38 52 79 54 38 43 2f 18 39 a5 d8 8e 38
       4.198757e-05 5.0657727e-05 0.00014513456 6.811441e-05
000380 f0 23 78 b7 a6 09 0c 38 27 14 0e 38 6c 94 dd b7
       -1.4790319e-05 3.3387587e-05 3.3874207e-05 -2.6414367e-05
000390 67 0a 7c b7 da 93 a0 b7 75 fe b0 b7 e8 fd 0e b8
       -1.50227925e-05 -1.9142335e-05 -2.1099326e-05 -3.4091907e-05
0003a0 4a f9 53 b7 ce 15 8f 37 20 58 01 36 20 17 85 b7
       -1.2634622e-05 1.7057082e-05 1.9273793e-06 -1.5865604e-05
0003b0 6a 2b 1d b8 e6 fd 20 b8 fd 11 87 b7 0e 2b 19 38
       -3.747215e-05 -3.8383434e-05 -1.610163e-05 3.651814e-05
0003c0 ed 50 c7 b8 cf cc 93 b8 37 75 ab b8 02 6c 35 b8
       -9.504133e-05 -7.047655e-05 -8.1757484e-05 -4.3254353e-05
0003d0 ce ee 1c b6 63 41 87 b8 29 77 bb b7 55 94 b8 b7
       -2.3384814e-06 -6.449481e-05 -2.2347625e-05 -2.2003582e-05
0003e0 a6 45 0b b7 63 65 fd b8 5a 63 0d 38 18 80 d1 b7
       -8.301262e-06 -0.00012082865 3.3709548e-05 -2.497439e-05
0003f0 06 97 ee b7 bb 31 78 b7 6a 7c b9 b8 4f 72 d7 b8
       -2.8442137e-05 -1.4793531e-05 -8.844661e-05 -0.000102732905

lstm_layer.lstm1.weight_hh_l0 f4 [600, 200]
000000 2b ba 1f 36 29 5d ff b6 b7 4d ee 36 19 40 9e b5
       2.380121e-06 -7.6104375e-06 7.102e-06 -1.1790572e-06
000010 97 20 c6 b4 36 51 02 b6 3b 10 95 b5 da 60 02 b6
       -3.6904086e-07 -1.941878e-06 -1.1106089e-06 -1.9427885e-06
000020 fd 83 c2 b5 65 3e 73 b6 ca 07 ed b4 e4 49 b7 b3
       -1.449254e-06 -3.624614e-06 -4.4150357e-07 -8.535042e-08
000030 6a d2 4c b5 68 c4 67 35 1f 78 f0 b5 7a 59 d2 34
       -7.6302115e-07 8.6340015e-07 -1.7916353e-06 3.918065e-07
000040 04 23 e9 35 cb 96 a3 b5 5e 00 97 b5 82 80 60 36
       1.7370044e-06 -1.2188333e-06 -1.1250484e-06 3.3453402e-06
000050 f4 48 5c 34 9b 5f 76 b5 c2 52 3d 36 9f 73 d4 36
       2.0515637e-07 -9.1781266e-07 2.8211366e-06 6.3315524e-06
000060 e1 8f 04 35 8d 0e 07 36 3a f1 b8 b6 f5 8b 59 34
       4.9383203e-07 2.0125037e-06 -5.51171e-06 2.0260616e-07
000070 9f 78 42 b3 60 25 53 36 e3 ee 29 38 ab 63 91 36
       -4.527885e-08 3.1463205e-06 4.051522e-05 4.3329396e-06
000080 ed e1 9c b4 4a 9e 2d b5 f6 68 53 b5 c8 7b f5 36
       -2.9221647e-07 -6.4677863e-07 -7.8756364e-07 7.315979e-06
000090 9f 4f 82 36 5f 8c dc b4 ff 1f 14 35 ff 58 5a 36
       3.883571e-06 -4.1080327e-07 5.5180857e-07 3.2536334e-06
0000a0 57 c5 9a 36 c3 96 4e 34 7c d7 13 b4 a7 a8 d5 34
       4.612531e-06 1.9240092e-07 -1.3768835e-07 3.9797052e-07
0000b0 6f d9 cd b6 f5 99 8a 36 57 d5 30 35 57 f9 a1 b6
       -6.1347887e-06 4.1306434e-06 6.587556e-07 -4.827201e-06
0000c0 a9 f8 52 36 b6 52 c2 35 94 34 26 b6 18 f9 8b b6
       3.1437178e-06 1.4478198e-06 -2.4766532e-06 -4.171521e-06
0000d0 19 94 e3 37 24 c8 f3 b3 3d 96 21 36 51 e8 2f b6
       2.7129472e-05 -1.1351975e-07 2.407832e-06 -2.6212258e-06
0000e0 75 ba 0f 37 e8 a2 29 35 e8 50 97 b5 d4 40 09 b5
       8.566877e-06 6.3194466e-07 -1.1273924e-06 -5.1130814e-07
0000f0 e0 08 c8 b5 ba ee ab b6 f1 d6 d2 b4 42 4e 66 b6
       -1.4903744e-06 -5.1239886e-06 -3.927194e-07 -3.4318223e-06
000100 28 14 06 36 bd 1f f3 b6 e9 8b fd b5 82 62 bd b6
       1.9979288e-06 -7.245659e-06 -1.8890688e-06 -5.6441067e-06
000110 67 e9 22 35 03 c2 4a b5 bf 42 11 35 7b 20 17 36
       6.068935e-07 -7.553319e-07 5.411384e-07 2.251966e-06
000120 2c 58 39 b5 28 2d 84 35 a0 fb 91 35 46 7d e9 36
       -6.904618e-07 9.847909e-07 1.0876574e-06 6.958525e-06
000130 24 0c 1a 36 6c ba 4b 34 5d ca 89 34 3a 90 43 36
       2.2954855e-06 1.8973668e-07 2.5665477e-07 2.9141215e-06
000140 62 e6 83 36 1c 2b 0c 36 11 f3 03 36 30 ad e7 b4
       3.9309243e-06 2.0886719e-06 1.9662004e-06 -4.3153113e-07
000150 2e 4e 35 b5 b4 6e 5c 36 75 64 09 35 c1 d5 29 b6
       -6.754152e-07 3.2846992e-06 5.118266e-07 -2.5307384e-06
000160 cf 7d dd b6 58 76 02 b7 11 cc 1d b4 83 d1 eb b4
       -6.6009593e-06 -7.776158e-06 -1.4696003e-07 -4.39246e-07
000170 30 e8 69 b5 01 36 50 b4 e1 b3 1c b5 c9 12 4f 36
       -8.713714e-07 -1.9391156e-07 -5.8376287e-07 3.0856338e-06
000180 b6 e9 89 b5 86 e5 6f b5 73 0f bb b5 17 d6 24 b6
       -1.0275314e-06 -8.936844e-07 -1.3937082e-06 -2.456252e-06
000190 18 fa 02 b7 d5 6a d1 b4 6b 19 59 35 ab 6f b9 36
       -7.806833e-06 -3.9007014e-07 8.087579e-07 5.5264295e-06
0001a0 98 27 e0 b5 39 73 29 35 73 3a b4 36 90 c6 2e b5
       -1.6700824e-06 6.3125077e-07 5.3712224e-06 -6.5109e-07
0001b0 c8 fa 1b b6 5c 52 0a b6 68 5a 7f b6 3e 08 d3 36
       -2.3242774e-06 -2.0611542e-06 -3.8050584e-06 6.2892495e-06
0001c0 2c 30 09 b6 3b 99 8c 34 35 4e 9f 35 bc 5e 03 36
       -2.044263e-06 2.6188522e-07 1.1869184e-06 1.9575664e-06
0001d0 7e 5c 7d b5 13 2c e4 31 7e a1 82 b4 ce 42 e5 35
       -9.438444e-07 6.640684e-09 -2.4331888e-07 1.7081272e-06
0001e0 d2 bb 09 b6 64 99 63 b6 f9 a7 e0 b4 6e 44 27 37
       -2.0523917e-06 -3.391492e-06 -4.1845468e-07 9.969908e-06
0001f0 5b 5c f4 34 4d e0 7a b7 85 78 ba b6 af ea 54 b6
       4.551574e-07 -1.4953385e-05 -5.5572623e-06 -3.1727066e-06
000200 28 57 00 b7 9f 64 61 b5 c6 f2 d3 35 46 58 9f 35
       -7.649687e-06 -8.3965455e-07 1.5791381e-06 1.1872114e-06
000210 fd e8 68 36 65 b0 7a 36 f2 5e 28 35 52 31 ad b6
       3.470631e-06 3.7355578e-06 6.272304e-07 -5.1615434e-06
000220 1a b5 6e 37 e8 c8 ae b4 e7 39 26 b6 03 6e 05 b5
       1.4228071e-05 -3.2556204e-07 -2.4769631e-06 -4.970645e-07
000230 bd 19 0f b6 7b 00 09 36 db f6 3e 36 01 a9 5b 35
       -2.1323642e-06 2.041487e-06 2.8455895e-06 8.182979e-07
000240 37 d7 1d b7 69 80 33 35 61 09 3b 36 55 e7 8e b6
       -9.408038e-06 6.686956e-07 2.787063e-06 -4.2588604e-06
000250 ff 90 57 36 28 ce 0b 36 0b c5 d5 32 5a 08 24 36
       3.2121895e-06 2.0832613e-06 2.4886068e-08 2.4442766e-06
000260 a6 37 28 36 6c 0f c0 b5 e0 6b 5d b5 f4 48 77 b6
       2.5066342e-06 -1.4309603e-06 -8.2485894e-07 -3.6848332e-06
000270 b1 b4 c0 b4 3f 37 16 36 ba bc 07 b7 dc 4d b8 36
       -3.5894257e-07 2.23839e-06 -8.090568e-06 5.4926913e-06
000280 b4 b9 6f b4 61 94 00 b6 a6 2d d0 b5 19 cb d4 b6
       -2.2326168e-07 -1.9159854e-06 -1.5510493e-06 -6.341736e-06
000290 98 0a be b6 17 c7 a3 b5 0f 4a ef b6 b9 f1 99 35
       -5.6636745e-06 -1.2202389e-06 -7.1313766e-06 1.1469739e-06
0002a0 b6 3a 92 b6 1b 91 1a b6 98 25 08 37 a6 90 b3 b5
       -4.357974e-06 -2.303225e-06 8.114985e-06 -1.3378638e-06
0002b0 41 54 c5 b5 3b 61 2b b6 8a 38 5b b4 94 ef e6 35
       -1.4702165e-06 -2.5537581e-06 -2.0416533e-07 1.7206062e-06
0002c0 3c d4 eb 35 22 ec 86 35 53 3c 38 b6 31 ed 7b b4
       1.7570633e-06 1.0052502e-06 -2.745325e-06 -2.3462486e-07
0002d0 9f f0 2c b6 38 33 37 b5 68 46 08 36 b5 e7 e2 b4
       -2.5770057e-06 -6.8247346e-07 2.030656e-06 -4.226437e-07
0002e0 11 4f 91 35 a3 b5 4b 35 8c 50 25 b6 5e aa 10 b6
       1.0826353e-06 7.588771e-07 -2.46338e-06 -2.155684e-06
0002f0 b0 d9 b7 b5 01 33 04 35 12 e3 41 b8 07 c6 85 b5
       -1.3697918e-06 4.924805e-07 -4.622626e-05 -9.966906e-07
000300 ec 70 e3 b4 1c cb 9f 35 dc b6 01 b5 5b 04 79 36
       -4.2364206e-07 1.1905536e-06 -4.832234e-07 3.7106427e-06
000310 f8 cb c1 b6 96 62 9f 36 c4 71 1d b4 b3 83 c8 34
       -5.7755933e-06 4.750046e-06 -1.4663152e-07 3.7348727e-07
000320 42 38 c5 37 93 f2 17 37 29 ba 2c b6 77 ae 11 38
       2.3510427e-05 9.05678e-06 -2.5738357e-06 3.4733177e-05
000330 86 f8 72 b4 76 c1 a5 36 1c e9 82 b7 f6 95 f6 b5
       -2.2628419e-07 4.939905e-06 -1.5605758e-05 -1.8372073e-06
000340 1e 82 f9 b6 3d ab 02 35 5e 1c 95 b7 d3 36 9a 37
       -7.435926e-06 4.867796e-07 -1.7775394e-05 1.838376e-05
000350 d5 51 25 36 d1 f9 75 35 2f 74 65 36 5f 81 cd b7
       2.4634548e-06 9.1633143e-07 3.4191287e-06 -2.4498147e-05
000360 c4 36 61 37 27 fe fc b7 c2 a1 02 37 ef 0e b6 b5
       1.3423796e-05 -3.015909e-05 7.786266e-06 -1.3564403e-06
000370 3b dc 35 36 2e f2 89 b6 7c da 18 35 45 7a 6a b6
       2.7099293e-06 -4.1111116e-06 5.694235e-07 -3.4939887e-06
000380 5a dc ff b5 b0 35 a2 b6 59 d4 a4 35 8b e3 b3 b6
       -1.9063111e-06 -4.8342263e-06 1.2280753e-06 -5.361105e-06
000390 76 43 6b b7 99 05 96 37 07 a5 6f 38 c7 30 65 b6
       -1.40227985e-05 1.7884e-05 5.7135734e-05 -3.4152051e-06
0003a0 6f 15 b1 34 30 db 73 b5 06 6f 53 b5 b1 41 33 b6
       3.2984414e-07 -9.0843514e-07 -7.8765186e-07 -2.6711316e-06
0003b0 c5 b0 50 b6 35 db ce 35 5b fd 4f b5 ca 82 60 37
       -3.1097309e-06 1.5411994e-06 -7.748219e-07 1.3381892e-05
0003c0 e8 24 fd 35 91 39 c2 b5 db b3 1b 34 1d 70 97 b4
       1.886071e-06 -1.447088e-06 1.4500931e-07 -2.8207515e-07
0003d0 cf e7 7d b6 11 79 b7 36 10 dd 04 b7 08 61 7b b6
       -3.7834868e-06 5.467919e-06 -7.919283e-06 -3.7458394e-06
0003e0 e8 b9 1d 37 93 2b 3c 36 79 a2 aa 35 4a 77 21 36
       9.401214e-06 2.8039547e-06 1.2713273e-06 2.4060305e-06
0003f0 46 f8 8e b6 f1 3c 1f 38 da 33 5b 36 00 fb de b6
       -4.2608326e-06 3.796531e-05 3.2663725e-06 -6.645336e-06

lstm_layer.lstm1.bias_ih_l0 f4 [600]
000000 6b b2 b5 b8 e8 c3 c9 38 59 19 bf 36 31 2b 4e b8
       -8.6639855e-05 9.620917e-05 5.6951944e-06 -4.9154452e-05
000010 6e 65 5a 38 41 de 49 b8 2a 9d c6 37 9e a0 59 b7
       5.2069714e-05 -4.8129124e-05 2.3676625e-05 -1.29716045e-05
000020 52 3d 73 37 8e 09 44 b8 5b 7b 34 39 e8 26 96 b8
       1.4498206e-05 -4.673894e-05 0.00017212091 -7.159804e-05
000030 f0 f5 33 39 2e e0 ef b7 6b b4 10 38 2e d0 c2 b8
       0.00017162389 -2.8595412e-05 3.4500303e-05 -9.289417e-05
000040 9e b9 43 38 59 9e 90 b8 d6 0c 14 b8 08 74 aa 37
       4.6664492e-05 -6.8959496e-05 -3.5297904e-05 2.031961e-05
000050 40 44 8e 37 1e 63 9f 39 55 1c b2 b7 18 83 8a 38
       1.69595e-05 0.0003040069 -2.1232447e-05 6.604771e-05
000060 73 22 19 38 49 28 06 b8 ba 4d 44 39 73 4f b0 38
       3.6510126e-05 -3.1985608e-05 0.00018720972 8.4071326e-05
000070 bf 81 53 b6 53 88 29 b9 e3 cc 98 3a 89 f9 bc 38
       -3.1516972e-06 -0.0001616788 0.0011657741 9.011018e-05
000080 ea d0 c7 37 cd cd 3b 39 e9 5f c1 37 54 e0 6d b8
       2.3819932e-05 0.00017910376 2.3052055e-05 -5.6714125e-05
000090 51 9a 03 38 e5 bc 22 37 ff 1a aa b8 32 70 49 b7
       3.1376552e-05 9.699933e-06 -8.11126e-05 -1.2006656e-05
0000a0 dd 25 48 38 bb ac 5f b8 d7 ad 48 b8 aa 42 cd 37
       4.771898e-05 -5.332821e-05 -4.7845617e-05 2.4468947e-05
0000b0 cf a7 0e 3a 58 83 a1 38 9c a9 8e 36 b6 58 06 38
       0.00054418755 7.701543e-05 4.251675e-06 3.2030708e-05
0000c0 42 a4 e0 37 55 58 2d 39 77 e0 c9 b8 dc b8 28 38
       2.677937e-05 0.00016531472 -9.626237e-05 4.0226485e-05
0000d0 94 40 f9 39 d0 c4 8e 39 fa e4 0c 37 95 d8 ef b6
       0.00047541095 0.00027230987 8.397963e-06 -7.1479685e-06
0000e0 30 7d 54 b8 26 75 a7 37 38 d9 3e b8 49 31 1a 37
       -5.066133e-05 1.9962503e-05 -4.550183e-05 9.19059e-06
0000f0 9d 80 53 b8 0f a9 85 b6 7d e3 94 37 55 2c 3c b8
       -5.04261e-05 -3.98339e-06 1.7748907e-05 -4.486398e-05
000100 6a 17 1a b9 fe 77 ba 38 68 a8 be 39 e8 2d 10 b9
       -0.00014695307 8.8915214e-05 0.00036365096 -0.00013750012
000110 b3 ad 89 b7 5b 84 80 38 a9 9e f4 b6 d6 56 b5 36
       -1.6412558e-05 6.128169e-05 -7.290237e-06 5.4043294e-06
000120 82 64 3f b5 02 b4 85 b8 f8 81 2c 38 a0 53 2a 39
       -7.12993e-07 -6.375463e-05 4.112904e-05 0.00016243616
000130 e4 68 2e b6 46 8a 1d 37 c9 4f a6 b8 b1 e1 9a b7
       -2.5989075e-06 9.3901235e-06 -7.930358e-05 -1.8463326e-05
000140 aa 7a d1 37 6f 3c 69 39 9e 8f 40 b8 e3 d7 72 b8
       2.4971861e-05 0.00022243125 -4.591012e-05 -5.7898356e-05
000150 07 67 9e 38 94 0c 3d 37 cd c1 07 38 27 5c df b5
       7.5532174e-05 1.1268206e-05 3.2367e-05 -1.6641615e-06
000160 21 24 6a b9 2b 0b cd b7 a4 07 a2 37 e8 5c 56 36
       -0.00022329438 -2.4443105e-05 1.9315463e-05 3.1942564e-06
000170 78 19 c1 b7 1f 58 48 b7 b9 6a 2e b6 50 28 8e 37
       -2.3019253e-05 -1.1941446e-05 -2.5990141e-06 1.6946491e-05
000180 44 9c 01 37 38 1e 3b b8 f3 59 09 38 e2 98 0c 37
       7.725383e-06 -4.4612418e-05 3.2747117e-05 8.380246e-06
000190 f6 a2 e7 39 c8 85 c4 37 e3 68 a6 37 1b 9c b2 37
       0.0004418117 2.3427318e-05 1.9837584e-05 2.1291946e-05
0001a0 35 5d b1 b7 1b 94 0a 39 c3 fa ac 39 25 a1 72 38
       -2.1143447e-05 0.00013215879 0.00032993229 5.7847374e-05
0001b0 c5 9d 00 38 c6 fd 62 36 fd ce 00 38 57 ee 28 39
       3.0664512e-05 3.382434e-06 3.071035e-05 0.00016110517
0001c0 a4 69 b8 38 73 dd 2b 37 ac e3 16 b8 2f 6f 6e 38
       8.793481e-05 1.0243954e-05 -3.5974823e-05 5.684717e-05
0001d0 a0 67 0e b8 bb 05 c7 38 82 46 8f 37 0f cb 9a 36
       -3.3951947e-05 9.490127e-05 1.7079761e-05 4.613197e-06
0001e0 b9 15 7b 38 c0 09 3e 37 5d d4 f3 37 cb 58 12 b9
       5.9863294e-05 1.1327153e-05 2.9066747e-05 -0.00013956723
0001f0 0c de ba 37 65 ce 84 38 c8 c9 11 b7 25 66 e3 37
       2.2276326e-05 6.3326945e-05 -8.689654e-06 2.7108073e-05
000200 4f 1c 7d b8 50 25 d3 33 ba 77 a5 39 e0 d8 5b 38
       -6.0346265e-05 9.83224e-08 0.00031560456 5.241565e-05
000210 6e c1 ec b7 d6 2c 3f 39 47 94 94 39 48 b5 c6 b8
       -2.8223465e-05 0.00018231882 0.00028339235 -9.475142e-05
000220 35 b0 8e 3a cc e0 8a 37 7d 29 d2 36 4b f0 b6 b7
       0.0010886254 1.6555561e-05 6.2633176e-06 -2.1807986e-05
000230 ee 51 af b6 5f 58 b5 b9 a3 e7 b6 38 7a ce e4 b6
       -5.2249443e-06 -0.00034588852 8.721582e-05 -6.8189665e-06
000240 91 24 25 b5 f7 e6 9a 38 34 a6 6d 38 b1 e3 29 39
       -6.15205e-07 7.386313e-05 5.6659992e-05 0.00016201918
000250 7a 6a fb 38 b6 31 5b 38 a9 40 66 b8 6f 9a 8e 38
       0.000119884455 5.2259966e-05 -5.4896493e-05 6.799853e-05
000260 9f 8c ee b7 de 57 a2 b5 dc 7a a3 b7 58 57 83 b6
       -2.8437293e-05 -1.2095513e-06 -1.9488325e-05 -3.9142724e-06
000270 bd 5b fa b7 1b 29 a2 b8 06 ab 63 39 24 99 c2 37
       -2.9845041e-05 -7.7324185e-05 0.00021712118 2.3197914e-05
000280 9e ba 96 39 4d ee 55 b6 ca 09 5b b8 b1 83 0f 39
       0.0002874927 -3.1878183e-06 -5.2222786e-05 0.00013686602
000290 2c 44 ad 35 9a 5f 00 38 14 fb aa b8 31 0e b7 34
       1.2909345e-06 3.0606614e-05 -8.1529986e-05 3.4096732e-07
0002a0 dc 35 35 39 9a 11 80 b8 c2 23 85 39 b7 68 08 38
       0.0001728157 -6.106794e-05 0.00025394378 3.252245e-05
0002b0 b0 9c f2 37 60 74 eb b8 b6 47 53 b7 cb 96 3d 36
       2.8921611e-05 -0.0001122735 -1.2593277e-05 2.8250968e-06
0002c0 02 ed c1 b7 74 41 f5 38 6d 3e 13 37 f5 6f 28 b8
       -2.3117758e-05 0.00011694702 8.776417e-06 -4.015859e-05
0002d0 19 e4 0d b8 9f 70 9d 37 46 8c 36 b9 f1 4c f6 36
       -3.3829452e-05 1.8768302e-05 -0.00017409128 7.3403285e-06
0002e0 d9 fb 15 b9 a4 a7 c0 b7 81 57 11 3a 87 a7 08 39
       -0.00014303568 -2.2966247e-05 0.000554435 0.0001303238
0002f0 7a db a4 38 bc fd 4d 38 19 aa 05 3a b3 7b aa b5
       7.86101e-05 4.9112117e-05 0.0005098894 -1.2701988e-06
000300 fe 66 87 39 97 e4 3c 37 b8 d4 28 39 c2 a1 0f 39
       0.00025825942 1.1258896e-05 0.00016100972 0.00013697802
000310 0c 71 5b b9 94 6c 4b 37 9d 75 98 38 6a 44 7a 39
       -0.00020927581 1.2125023e-05 7.269832e-05 0.00023867344
000320 32 64 5f b9 c3 e1 67 39 47 04 a9 38 63 72 27 39
       -0.00021304263 0.0002211398 8.059345e-05 0.00015968973
000330 8f 74 8e 38 cf ef 1f 37 a6 d7 4a 38 e3 21 ca b6
       6.7927984e-05 9.532973e-06 4.836139e-05 -6.024014e-06
000340 37 b9 30 39 f5 4c 89 b7 aa 21 a4 b7 49 a4 41 b9
       0.00016853666 -1.6367509e-05 -1.9566e-05 -0.00018467115
000350 dd 10 f0 b8 0f 65 60 b9 2f fd 0d b8 80 22 b7 b8
       -0.00011447233 -0.00021399952 -3.3852815e-05 -8.732546e-05
000360 c9 87 f6 36 1e 05 42 b9 17 1b 94 b8 4f 28 e9 b6
       7.347179e-06 -0.00018503188 -7.062236e-05 -6.9486337e-06
000370 eb 44 47 38 b2 1c ec b9 eb c1 a1 b8 42 0a 21 39
       4.7509482e-05 -0.00045034807 -7.713198e-05 0.00015357978
000380 82 54 93 b6 4c f1 cd 39 1d 78 8c 37 1e 78 28 39
       -4.3907794e-06 0.00039280427 1.6745233e-05 0.00016066476
000390 25 e0 d8 b7 aa 9d 22 b9 5f f3 8f b9 6d ca 28 3a
       -2.5853582e-05 -0.00015508258 -0.0002745641 0.0006438855
0003a0 48 1d ca 37 b3 1e 70 38 ef 43 82 b8 50 6b 4e 37
       2.4093912e-05 5.724905e-05 -6.211537e-05 1.23035425e-05
0003b0 b7 a0 c2 b9 f3 9e 46 b8 07 ab 93 39 80 5f 1f b9
       -0.00037122305 -4.735491e-05 0.0002816545 -0.00015198998
0003c0 8e 77 0b 38 23 62 4a b9 d9 40 03 38 77 6d c0 37
       3.3251526e-05 -0.0001930078 3.1293228e-05 2.2939157e-05
0003d0 03 ce dc b8 99 48 d9 b9 12 f2 29 38 31 f2 2b 37
       -0.0001052879 -0.00041443555 4.0518185e-05 1.0248784e-05
0003e0 62 0b 0a b8 57 f4 70 b9 80 fb ac 37 6c b1 23 39
       -3.2912365e-05 -0.00022979207 2.0621112e-05 0.00015610986
0003f0 4c 5b c8 38 bd 88 d3 38 4e eb b3 b7 31 eb a3 b9
       9.5537485e-05 0.000100867335 -2.1448035e-05 -0.00031265014

lstm_layer.lstm1.bias_hh_l0 f4 [600]
000000 a7 af ab b8 8d 0b 84 38 b8 a8 5f b6 38 53 34 b8
       -8.186633e-05 6.296402e-05 -3.3327797e-06 -4.2992848e-05
000010 f9 f1 cd 36 34 b3 3d b8 db 9c da 37 9a 7c 63 b7
       6.1376454e-06 -4.5228007e-05 2.6060667e-05 -1.3559265e-05
000020 c5 1b 81 37 0f c5 e3 b8 56 8d 0a 39 c1 cd c0 b8
       1.539093e-05 -0.000108609085 0.00013213357 -9.193598e-05
000030 83 45 3a 39 e9 90 2d b8 eb 39 ba 37 57 3d e8 b8
       0.00017764237 -4.1381372e-05 2.2199898e-05 -0.000110740475
000040 a9 1e 4a 38 25 88 1c b8 75 77 16 b8 b8 84 57 39
       4.8189107e-05 -3.7320093e-05 -3.587404e-05 0.0002055344
000050 15 e8 a0 b8 0b f3 82 39 50 5b 00 b8 4c e3 9e b8
       -7.672623e-05 0.00024976613 -3.060262e-05 -7.5763644e-05
000060 38 2b 0c 38 0f f5 fe 36 85 78 15 39 34 cd 27 b8
       3.341885e-05 7.5983185e-06 0.00014254644 -4.0007013e-05
000070 09 af ff 34 2c e9 0c 37 fc 35 99 3a 67 b2 b0 38
       4.7624806e-07 8.39894e-06 0.0011689062 8.425564e-05
000080 fc a5 8f 37 24 46 31 39 19 af f5 37 82 f2 86 38
       1.712422e-05 0.00016906165 2.9287812e-05 6.4347885e-05
000090 05 f9 d9 39 c0 6e b4 35 8b 38 b7 b8 ac a5 de 37
       0.00041575 1.3443278e-06 -8.736652e-05 2.654161e-05
0000a0 c8 c1 0b 38 07 50 53 b8 9a b4 e1 37 09 c9 b9 b7
       3.3320655e-05 -5.038085e-05 2.690619e-05 -2.2147333e-05
0000b0 a4 aa 0e 3a 1c 9f a7 38 7e 53 5a 38 2f 0e 1d b7
       0.00054422976 7.992817e-05 5.205301e-05 -9.361232e-06
0000c0 78 5d 9a 37 d3 4e 5d b7 55 65 cb b8 3e 5d 95 37
       1.8401755e-05 -1.3190979e-05 -9.698669e-05 1.7805603e-05
0000d0 cf b8 f9 39 5f ff 8a 39 cf 13 23 37 2e 32 42 36
       0.00047630674 0.00026511677 9.720169e-06 2.8937461e-06
0000e0 59 54 79 b8 b8 eb ae b7 9f 28 05 b8 85 b9 f1 37
       -5.944478e-05 -2.0852181e-05 -3.1747502e-05 2.8815828e-05
0000f0 79 72 8a b7 e2 3a e7 b6 0a a6 c0 b6 f8 e0 3e b4
       -1.6504187e-05 -6.8911913e-06 -5.7413754e-06 -1.7776972e-07
000100 9b 16 19 b9 33 44 a9 38 14 a0 be 39 fc 8f 00 b9
       -0.00014599638 8.071251e-05 0.00036358892 -0.0001226067
000110 b7 b8 86 b7 ed 69 5a 38 94 e9 33 b4 42 ba 93 36
       -1.606006e-05 5.20739e-05 -1.675565e-07 4.4026247e-06
000120 99 b4 4f b7 a5 82 fc 37 3d 00 45 37 0e 56 15 39
       -1.238021e-05 3.0101577e-05 1.17421705e-05 0.00014241805
000130 1a 37 81 36 98 0d 3e 37 b3 9b bf b8 2c f9 92 b8
       3.8509143e-06 1.1328048e-05 -9.136591e-05 -7.0082344e-05
000140 c3 4b aa 37 73 77 42 39 4f 09 ad b6 0e 59 8b b8
       2.0300859e-05 0.0001854578 -5.1568854e-06 -6.644624e-05
000150 a1 8d f7 37 44 17 80 b8 b2 4d 07 38 43 ea 48 b7
       2.9510646e-05 -6.107849e-05 3.2258868e-05 -1.1975472e-05
000160 25 fd 1a b9 f6 68 96 b8 38 c2 a6 38 10 64 21 37
       -0.00014780888 -7.172108e-05 7.951673e-05 9.619645e-06
000170 78 9e ae b7 74 b9 cc b7 1f 01 3e 38 4b 2d 79 37
       -2.081621e-05 -2.4405053e-05 4.5300574e-05 1.4852102e-05
000180 cf e0 6c 35 a9 86 30 b8 3e 72 93 b8 80 53 96 b7
       8.824399e-07 -4.2087082e-05 -7.0307855e-05 -1.7920276e-05
000190 0c e6 18 39 fa 79 46 37 a3 d5 ec b6 cf c4 5f 37
       0.00014581549 1.183012e-05 -7.0582187e-06 1.3337659e-05
0001a0 76 c6 34 38 b1 80 bc b7 1c cc a3 38 9c bc a6 37
       4.3100175e-05 -2.2471273e-05 7.810464e-05 1.987657e-05
0001b0 4c c7 e7 37 1c c8 2b b7 f4 58 ad 36 f9 77 1a 39
       2.763015e-05 -1.0238986e-05 5.1661573e-06 0.00014731278
0001c0 3f 2a de 38 2b e7 18 b7 e5 81 32 b8 9c e8 66 38
       0.00010593654 -9.113729e-06 -4.255948e-05 5.5052908e-05
0001d0 21 ff b1 b8 fd 5a db 38 1f 8b b4 38 e8 bd ad b5
       -8.487539e-05 0.00010459682 8.608982e-05 -1.2944774e-06
0001e0 88 9a 2c 39 b2 51 c1 b6 c2 ed 9a 36 be 45 50 b9
       0.00016460766 -5.761359e-06 4.6172363e-06 -0.00019862407
0001f0 79 28 c1 37 c0 56 7c 38 ce d5 dd b6 f1 b2 67 38
       2.302624e-05 6.0162274e-05 -6.6112034e-06 5.5241344e-05
000200 c8 0e 80 b8 5a 5e e2 34 fa 79 52 39 4f 8a 6c 38
       -6.106269e-05 4.216443e-07 0.000200726 5.6395595e-05
000210 7f 30 85 38 c2 c2 32 38 4c b3 92 39 72 c4 9b b8
       6.350967e-05 4.261989e-05 0.00027980877 -7.427567e-05
000220 10 c9 8c 3a 4d 23 83 37 67 4d 3b 37 bb 34 01 b8
       0.0010741074 1.5632855e-05 1.116409e-05 -3.0805106e-05
000230 2d ac 72 37 0a 89 d3 b8 76 18 59 38 73 86 03 b8
       1.4464412e-05 -0.000100867896 5.1759613e-05 -3.135805e-05
000240 9b 71 0f 35 5b 84 6b 38 91 3d 3a b7 9a f1 29 39
       5.343697e-07 5.615163e-05 -1.11007985e-05 0.000162071
000250 aa ac 43 39 e9 43 7f 38 29 4b bb b6 91 94 8c 38
       0.00018660972 6.0859984e-05 -5.581784e-06 6.703393e-05
000260 bd 17 4d 36 5e 12 88 b6 34 2e d8 b7 63 03 0c 36
       3.0561198e-06 -4.055254e-06 -2.5770722e-05 2.0863597e-06
000270 41 0b cb b8 b1 53 a0 b8 34 7e 64 39 70 45 68 b4
       -9.6818905e-05 -7.644983e-05 0.00021790789 -2.1631945e-07
000280 79 0a 8f 39 40 0e 64 b6 4a 83 6d b8 06 44 f6 38
       0.00027282888 -3.3982942e-06 -5.6627476e-05 0.000117428644
000290 eb 6b 36 37 e6 e1 f8 37 fe 4f 6d 37 16 ad ec 34
       1.0873172e-05 2.9669096e-05 1.4144925e-05 4.4084362e-07
0002a0 5f 45 a6 38 27 71 5c 39 55 39 78 39 5e 45 2c 39
       7.928418e-05 0.00021022987 0.00023672481 0.0001642904
0002b0 68 eb 85 38 1e 7a dc b7 95 2c 8c b7 4b e8 4d 38
       6.385782e-05 -2.6282909e-05 -1.671006e-05 4.909215e-05
0002c0 f9 1b 00 b7 37 8b d7 38 9f 4c 82 b7 6a cb 3b b8
       -7.635907e-06 0.0001027793 -1.5532887e-05 -4.477372e-05
0002d0 22 44 1e b9 72 00 41 36 f2 dc 90 39 2a 58 12 37
       -0.00015093436 2.87595e-06 0.00027630437 8.722805e-06
0002e0 41 6e 74 b8 5b 89 52 b7 3f d2 8c 3a cb 6f 08 39
       -5.8276815e-05 -1.2548956e-05 0.001074381 0.00013011617
0002f0 86 78 8a b8 e4 24 4f 38 b5 d2 09 3a 69 8e ce b5
       -6.602802e-05 4.9387003e-05 0.0005257533 -1.5389643e-06
000300 d2 d9 83 36 23 de 40 b6 be 07 87 37 a0 0e 83 b8
       3.929462e-06 -2.873953e-06 1.609686e-05 -6.249291e-05
000310 28 67 54 b9 0d 19 71 35 24 ce d4 38 dc 3a 5f 39
       -0.00020256324 8.981595e-07 0.000101473444 0.00021288864
000320 ed ad 73 b9 fc 64 30 39 13 b4 39 38 63 1a 48 39
       -0.00023239078 0.00016822288 4.4275144e-05 0.00019083316
000330 82 c6 22 38 ac d8 0e 38 94 0f 33 38 47 87 00 b8
       3.8808685e-05 3.405723e-05 4.2691434e-05 -3.0643565e-05
000340 c2 5a 26 39 f9 90 a1 b7 34 b3 20 37 00 ed 4b b9
       0.00015864804 -1.9260204e-05 9.578467e-06 -0.00019447878
000350 1d 51 c1 b8 95 3c 4d b9 c8 c2 0a b8 f0 1e 0f b9
       -9.218066e-05 -0.00019572892 -3.3083168e-05 -0.00013649068
000360 8c 4f 10 b4 a9 c9 86 b9 35 d6 fb b8 b9 87 3e 37
       -1.3439984e-07 -0.0002570872 -0.00012008512 1.1356483e-05
000370 2c 94 9e 38 e5 46 eb b9 9a 68 84 b8 c5 62 20 39
       7.561626e-05 -0.00044875513 -6.313734e-05 0.00015295584
000380 26 fb 8a b6 b1 48 fd 39 3b 64 3b 38 9a 57 0a 39
       -4.141958e-06 0.0004831008 4.467762e-05 0.0001319334
000390 2d 60 e4 b7 b6 89 32 b9 d0 f8 90 b9 06 82 f0 39
       -2.7224503e-05 -0.00017026704 -0.000276512 0.00045873242
0003a0 6d 59 4b 38 15 75 68 37 d4 40 3b b7 f3 3b 9e 37
       4.8482256e-05 1.3855538e-05 -1.1161163e-05 1.8862984e-05
0003b0 a1 3d cf b9 90 9f 33 b8 a8 b3 85 39 1b 16 0f b9
       -0.00039528034 -4.282553e-05 0.0002550159 -0.00013645778
0003c0 af 76 20 38 61 0b ba b9 19 3f cd 37 53 1d 6c b7
       3.8257505e-05 -0.00035485163 2.4467286e-05 -1.4073524e-05
0003d0 60 cc a6 b8 98 b4 cd b9 c0 6e 1f 38 96 d9 3f b7
       -7.953565e-05 -0.000392352 3.8011698e-05 -1.1435148e-05
0003e0 14 78 a3 b7 0d c6 14 b9 5e 8c c7 37 03 2b bd 38
       -1.948703e-05 -0.0001418816 2.3788012e-05 9.020234e-05
0003f0 5e 4b c6 38 2f 33 10 39 66 0a 38 b7 a9 fd a4 b9
       9.455414e-05 0.00013751978 -1.0969676e-05 -0.0003146951

gbrbm.W f4 [200, 100]
000000 e5 c2 f1 ba f4 1f 84 bb a1 fe 2d ba 48 87 1b 3b
       -0.0018444924 -0.0040321294 -0.0006637369 0.0023731757
000010 60 37 e6 3a 44 f0 da 3a 9a ff d4 b5 08 f0 10 3a
       0.001756411 0.0016703685 -1.5869621e-06 0.00055289315
000020 ee 8e ef 37 60 90 02 3b 96 ee fb 3a d7 fd a6 bb
       2.8557577e-05 0.001992248 0.0019220884 -0.005096178
000030 33 d5 87 ba 84 9d 88 3a 67 e0 12 3b 56 43 63 bb
       -0.0010363221 0.001042292 0.0022411586 -0.0034677587
000040 a1 1b cd 39 ae 50 38 bb 44 08 78 bb 1f 43 b8 ba
       0.00039121232 -0.002812426 -0.0037846724 -0.001405809
000050 3e 3f 1c bb 97 cf 86 b9 88 f3 3e ba 20 e7 03 3b
       -0.0023841406 -0.00025713138 -0.0007284214 0.0020126775
000060 80 fb bf 39 34 31 31 39 45 2c 1c 3b bc c8 19 bb
       0.0003661774 0.00016898365 0.0023830098 -0.0023465594
000070 3d 4f 69 bb 00 2d c0 ba 75 2d 93 b8 56 fe a6 bb
       -0.0035600208 -0.0014661849 -7.017973e-05 -0.005096237
000080 76 71 e1 39 ae 13 6b ba e7 9f 9a 3a 23 0b 8b b8
       0.0004299988 -0.0008967471 0.0011796922 -6.630111e-05
000090 24 14 2f b9 16 a2 f3 ba 28 59 43 bb 96 c0 32 bb
       -0.00016696804 -0.0018587734 -0.002980778 -0.0027275435
0000a0 28 a7 3f 3a 3b 32 94 bb c9 65 2d bb 70 56 84 ba
       0.000731098 -0.0045225895 -0.0026458374 -0.0010096561
0000b0 be 0f 8b ba 2c 6a f8 ba 74 2b 90 3b 88 60 cb 3a
       -0.001060955 -0.001895254 0.0043997113 0.001551644
0000c0 31 a8 65 3b 8c 3b be bb 3b 5d 22 3a 3e df fe 3a
       0.0035042877 -0.0058054384 0.0006193702 0.0019445193
0000d0 8c 63 9d ba 4a 0a 98 39 3e e9 ed 39 55 d5 93 bb
       -0.0012007817 0.00028999365 0.00045377942 -0.004511515
0000e0 89 f4 c0 3a 98 27 a6 ba 01 7f ce b9 98 7b 05 39
       0.0014721315 -0.0012676595 -0.00039386007 0.0001272991
0000f0 ae 43 81 bb a6 19 85 bb 9c 65 34 37 68 d9 ef ba
       -0.0039448356 -0.0040618954 1.0752494e-05 -0.0018299045
000100 4d a8 12 bb 69 d8 6a bb 3d 4b 27 ba 46 5e 40 bb
       -0.0022378147 -0.0035834557 -0.0006381756 -0.0029353066
000110 f7 bd 39 3a b6 dc 5e bb 1a b8 40 ba f5 bf 4b bc
       0.0007085497 -0.0034006066 -0.0007351652 -0.012435903
000120 77 e7 e8 ba c8 30 fc ba fa 13 b9 b8 3b 4c 6d 3b
       -0.0017769177 -0.0019240612 -8.825208e-05 0.0036208767
000130 d8 d2 8c ba 2a 61 b1 ba 88 6e 98 bb 68 8e 92 b8
       -0.0010743989 -0.0013532985 -0.004651848 -6.988348e-05
000140 07 63 a9 39 41 37 f0 ba 12 d2 bf 3a 68 eb 01 ba
       0.00032307973 -0.0018327014 0.0014634749 -0.0004956038
000150 e2 19 08 3b 00 06 0b bb eb 59 e0 b8 1c ae 18 3a
       0.002076738 -0.0021213293 -0.00010697901 0.0005824284
000160 c7 f0 8f 39 10 d0 8e 39 0d 2f 13 bb a8 3b 83 b9
       0.0002745448 0.0002723937 -0.0022458464 -0.00025030714
000170 45 13 4e 3a 65 88 ad ba a6 51 18 bb 7d 46 12 ba
       0.0007861148 -0.0013239501 -0.0023242026 -0.00055799616
000180 b6 9d 75 3b 16 ef 10 3a a7 2f 7a 3a 0d 18 2a bb
       0.0037478036 0.00055287906 0.0009543844 -0.0025954277
000190 8c b9 5b 3b 87 b0 5e bb 0a 47 05 3b f1 64 fa ba
       0.0033527343 -0.003397973 0.0020336532 -0.0019103569
0001a0 31 2f fe 39 9c 50 80 bb 68 18 38 3a 6d 95 74 3b
       0.00048481816 -0.0039158594 0.000702268 0.003732051
0001b0 3a 68 22 bb e2 fb f4 39 d9 ae 1f bb 63 b2 1c bb
       -0.0024781362 0.00046726974 -0.0024365692 -0.0023910038
0001c0 d4 b7 55 3b 34 d2 82 bb 91 03 67 bb eb eb 8d bb
       0.003261079 -0.0039923433 -0.0035249928 -0.004331102
0001d0 96 2c 88 3a 7e a3 d1 3a f0 c8 d7 b9 cb 64 00 3b
       0.0010389264 0.0015994159 -0.00041157706 0.0019591327
0001e0 74 0c 20 3b 84 ec fe ba 54 21 56 ba ed 8a 3e bb
       0.0024421485 -0.0019449149 -0.00081684184 -0.0029074505
0001f0 fb ca 45 3a 86 34 6b 3a 2c 46 ef 39 65 ad 0c b9
       0.00075452 0.0008972365 0.00045637914 -0.00013416035
000200 80 92 2f ba 38 8c 2f ba e7 09 47 ba ab 29 e1 ba
       -0.00066975504 -0.00066966144 -0.0007592723 -0.0017178556
000210 bb e0 ba bb af 70 60 b9 2a fd 36 3a 26 c6 af 3a
       -0.0057030595 -0.00021404283 0.00069804734 0.0013410493
000220 15 f7 57 bb c4 82 2d bb da 6b 84 ba 96 77 b5 bb
       -0.003295367 -0.0026475647 -0.0010102943 -0.0055379374
000230 24 c0 96 bb 11 03 14 ba 2a c4 69 3a a1 64 a8 bb
       -0.0046005417 -0.0005646209 0.00089174754 -0.005138949
000240 aa d8 a3 bb 61 2a d2 ba eb d1 32 3a 82 7e aa bb
       -0.0050001936 -0.0016034358 0.00068214413 -0.005203069
000250 55 7e 4d 39 f5 df a4 ba ea 3e 1d bb 3d 06 03 ba
       0.00019597386 -0.0012578951 -0.0023993799 -0.0004998183
000260 5e f8 15 3b bb 2a fc ba 4e 26 35 3b ab ea 35 bb
       0.0022883634 -0.0019238809 0.002764124 -0.0027758281
000270 26 6f c0 b9 e6 97 35 39 f5 6d 79 bb be 2e b6 3a
       -0.00036703906 0.00017318092 -0.0038059924 0.0013899428
000280 cc 12 47 ba a4 4a 49 3b 07 eb 2d bb a3 95 6c bb
       -0.00075940485 0.0030714655 -0.0026537792 -0.0036099933
000290 c5 83 17 3a 0b e0 72 3a b3 0f 2a 39 b2 0a a6 bb
       0.0005779828 0.00092649524 0.00016218312 -0.005067193
0002a0 0e cc a6 ba 16 e1 36 ba 28 e9 32 bb 24 86 24 3c
       -0.0012725608 -0.00069762894 -0.0027299616 0.010041747
0002b0 77 c5 f0 ba b9 29 81 3a fc c2 1d bb 3f 97 38 bb
       -0.0018369396 0.0009854353 -0.0024072519 -0.0028166322
0002c0 3e 94 23 bb 32 73 14 ba 07 e2 82 3a 76 df a5 38
       -0.0024960185 -0.00056629174 0.0009985574 7.909436e-05
0002d0 20 1f 3c bb ca 66 18 bb 21 1e 18 bb 26 eb 46 ba
       -0.0028705075 -0.0023254626 -0.0023211318 -0.00075881404
0002e0 59 4d 7c 3b 12 08 c0 bb 28 e1 d2 3a 5a 6e 84 bb
       0.0038498251 -0.005860337 0.001608883 -0.0040414752
0002f0 33 28 5b bb f6 9b 02 bb 3d 27 a5 3b 5f 2a 4c 3b
       -0.0033440709 -0.0019929386 0.005040078 0.0031153185
000300 01 b8 ed ba 14 7e 02 bc 3f dc da 3a bc 34 34 bb
       -0.0018136502 -0.00796463 0.0016697719 -0.0027497252
000310 4b b8 ac ba 00 81 fc 3a 24 40 26 3a 1f ec 07 bb
       -0.0013177482 0.0019264519 0.0006341955 -0.0020740104
000320 40 29 6a 3a c9 0c 33 3a b9 46 85 ba a6 59 19 3b
       0.00089325383 0.0006830213 -0.0010168172 0.0023399382
000330 e6 01 9e 3a 10 40 92 ba 3a a5 32 3b 8d 93 7b ba
       0.0012055009 -0.0011158008 0.0027259127 -0.0009596877
000340 e2 74 97 39 45 b4 5c 3a 75 98 15 3a cd 35 b0 39
       0.0002888805 0.0008419196 0.0005706617 0.0003360942
000350 52 8b f7 3a d9 f4 89 3b 99 8c 5e 3b 5d 04 34 39
       0.0018886125 0.0042100963 0.0033958314 0.00017167763
000360 28 43 ae 3a a3 82 b4 3a 8a d5 86 ba 3a ae 4b bb
       0.0013295161 0.0013771843 -0.0010287028 -0.003107919
000370 b1 f7 15 39 08 43 b1 3a ef 10 e8 ba ad fa 7e 39
       0.0001430202 0.0013524005 -0.0017705242 0.00024316712
000380 b5 3c 8a ba c2 39 76 b9 aa 88 02 ba 16 92 c3 ba
       -0.0010546657 -0.00023481905 -0.0004979471 -0.0014920856
000390 e5 da 43 bb b1 ad 5f 3b 70 3e 16 bb f9 f0 e6 b9
       -0.002988511 0.0034130628 -0.00229254 -0.00044048557
0003a0 db 7a 00 39 f6 11 70 ba 0e 46 cf 3a 5c 1f 15 bb
       0.00012252798 -0.000915795 0.0015813725 -0.0022754287
0003b0 e0 d7 ba ba 95 72 e7 ba 66 e9 a9 3a b0 99 a3 ba
       -0.001425501 -0.001765805 0.0012963235 -0.0012481716
0003c0 55 88 9b 39 80 9b e9 ba 06 1e 98 ba 06 fd 0c ba
       0.0002966548 -0.0017822832 -0.0011605627 -0.00053782796
0003d0 8b 4d 98 39 f4 af 00 bb 96 6a 03 3b 69 3a 4e 3a
       0.00029049473 -0.0019636126 0.0020052544 0.000786698
0003e0 80 06 10 3b ab 85 95 3a 82 3b 63 3b e5 62 61 3a
       0.002197653 0.0011407634 0.003467292 0.0008597805
0003f0 2d ad aa b9 ae ba 6c 3a d7 dc e9 ba 85 f1 ac b9
       -0.00032553953 0.0009030503 -0.0017842305 -0.00032986343

gbrbm.b f4 [100]
000000 7e 00 e8 3f 3b 9f e2 bf 24 e2 d3 bf e2 6a c5 bf
       1.812515 -1.7704843 -1.6553388 -1.5423243
000010 4a eb e4 bf 9d 6e dc bf 31 10 d9 bf 67 38 d6 bf
       -1.7884305 -1.7221256 -1.6958066 -1.6735963
000020 5c bc 59 bf 85 bc d0 bf e8 9d 05 c0 bb 71 f2 bf
       -0.8505304 -1.6307532 -2.0877628 -1.8940958
000030 6d a7 c7 bf 90 d8 e2 bf 5b ea d0 bf 9d 04 c8 bf
       -1.5597969 -1.772234 -1.632152 -1.5626408
000040 98 55 d6 bf cc 73 df bf 29 78 82 bf 29 94 ad bf
       -1.6744871 -1.7457213 -1.019292 -1.356084
000050 0a 7e da bf 21 ea 1f c0 dd e4 d6 bf 2d 89 e0 bf
       -1.7069714 -2.498665 -1.6788594 -1.7541863
000060 ba ea cd bf 52 06 c0 bf ad ac d7 bf 89 0d e1 bf
       -1.6087258 -1.5001929 -1.6849571 -1.7582256
000070 f7 e0 c4 bf 5a 75 ad bf 26 9e d2 bf 32 05 d5 bf
       -1.5381154 -1.3551438 -1.6454513 -1.664221
000080 0e 67 e4 bf a4 73 cb bf 38 b5 b6 bf 15 54 c5 bf
       -1.784395 -1.5894666 -1.4274054 -1.5416285
000090 e1 ab d1 bf 50 49 b7 bf bf cc bb bf d5 08 d9 bf
       -1.6380578 -1.4319248 -1.4671859 -1.695582
0000a0 5e 46 c9 bf 30 04 ee bf ae e2 9c bf c5 7c d8 bf
       -1.5724599 -1.8595028 -1.2256677 -1.6913077
0000b0 87 3f ec bf 72 40 dd bf 6a 62 d7 bf 31 a1 a6 bf
       -1.8456887 -1.7285292 -1.6826909 -1.3017942
0000c0 fa 1e d7 bf e3 c1 be bf 6c eb b0 bf 0c e1 c2 bf
       -1.6806328 -1.490292 -1.3821845 -1.5224929
0000d0 01 a0 dc bf 44 66 df bf f1 67 dd bf b8 76 bc bf
       -1.7236329 -1.7453084 -1.7297345 -1.472373
0000e0 0c 8c cc bf 47 82 9d bf 7e 38 f0 bf 2e 35 b9 bf
       -1.5980239 -1.2305382 -1.876724 -1.4469354
0000f0 22 c0 de bf b1 ef b5 bf 81 a6 be bf cd 2d e5 bf
       -1.7402384 -1.4213773 -1.4894563 -1.7904602
000100 5d 2b c2 bf 64 fd d8 bf b3 45 d5 bf 47 ee d6 bf
       -1.5169483 -1.6952329 -1.6661896 -1.6791466
000110 d7 0a cb bf 74 8c c6 bf 16 62 b3 bf ea 7d 0a 3e
       -1.5862683 -1.5511613 -1.4014308 0.13524595
000120 ac bc c5 bf ec 47 d5 bf 1b 0c e7 bf 79 43 b7 bf
       -1.5448203 -1.6662574 -1.8050569 -1.4317466
000130 23 58 b5 bf 37 47 ca bf 98 19 cc bf 0b 70 da bf
       -1.4167522 -1.5802983 -1.594531 -1.7065443
000140 fc a9 d0 bf 68 67 dd bf 28 68 e5 bf 53 bb c4 bf
       -1.6301875 -1.7297182 -1.7922411 -1.5369667
000150 0b af 08 40 c9 b0 c3 bf 65 e7 b5 bf 1a eb c8 bf
       2.1356838 -1.5288326 -1.4211241 -1.5696747
000160 d8 69 d2 bf 3e 89 e3 bf d6 90 b4 bf 8d a7 c4 bf
       -1.6438551 -1.7776258 -1.41067 -1.5363632
000170 38 3f cb bf 6d e7 c1 bf 0b 93 de bf 72 7d cf bf
       -1.5878668 -1.514875 -1.7388624 -1.6210158
000180 b8 73 e9 bf 30 40 d9 bf 1b 1e d4 bf 42 8c 1d c0
       -1.823844 -1.6972713 -1.6571687 -2.4616857

gbrbm.mu f4 [200]
000000 30 9d 26 3d 6f 3b 2e 3d 27 0d d1 bc 95 5b 3a 3d
       0.04067725 0.04253715 -0.025518967 0.045497496
000010 69 f9 29 bc a8 24 ff 3c e5 39 23 bd a4 58 2d bc
       -0.010374405 0.031145409 -0.039850134 -0.010580216
000020 b5 d8 3a 37 97 cf 5f 3c 85 ab ac 3c 8e ae 12 3d
       1.113692e-05 0.013660333 0.02107788 0.035811
000030 fd 64 88 3c c0 3f e2 3c 4a e2 2b 3c 67 d1 f9 bb
       0.016649717 0.027618289 0.010490963 -0.0076238397
000040 9b 9c a7 bc 3d 5f 8d bc 42 2b 3f 3b 2a 62 dd bc
       -0.020460417 -0.017257327 0.002917007 -0.027024347
000050 62 2a e4 bb af 6a 18 bc ef ec 69 3c 62 3b 2c bd
       -0.0069630602 -0.009302779 0.014277681 -0.04204882
000060 0f 85 7f bc 2a 43 75 bd 4e 4b 66 3c 09 7e 39 bd
       -0.0155956885 -0.059878506 0.01405604 -0.045286212
000070 cb 30 ae bc be 43 19 3d b6 9e bc 3d fc c3 92 bc
       -0.0212635 0.03741812 0.09209959 -0.017915718
000080 3a c7 03 3c e5 b2 b6 bb 7b 81 9b 3c 62 2e 03 bd
       0.008043105 -0.005575525 0.01898264 -0.032026656
000090 0d 07 c4 bc 94 6f b7 3b 65 8b 42 bc c7 46 6a 39
       -0.023929143 0.005598018 -0.011874055 0.00022342346
0000a0 3d 28 b1 bc e6 f7 3e bc a6 a3 dd bb 11 e5 f5 bb
       -0.021625632 -0.011655783 -0.006763893 -0.0075041135
0000b0 e9 79 90 bd 3a dd 8d 3d 58 5e 95 bc 70 e9 38 bb
       -0.070545025 0.06926961 -0.018233463 -0.0028215311
0000c0 79 fe 86 bc 8c b0 ca 3c 6c d6 a3 3c e0 2c 07 3d
       -0.016478764 0.024742387 0.019999705 0.03300178
0000d0 17 d4 48 bd a1 a7 34 3d 0c 62 95 3b cd 22 d8 bc
       -0.04903039 0.044105176 0.0045588072 -0.026383782
0000e0 05 4a 58 bb 22 21 31 bb 0b 66 1a bd bd e2 04 bd
       -0.0033003103 -0.0027027805 -0.037694972 -0.032442797
0000f0 c8 3c f9 3b 1f b0 ee 3c 1a 6f 73 3c 50 b2 81 3c
       0.0076061226 0.029136715 0.014858032 0.015832096
000100 82 53 1f bd 50 eb 93 bd af d5 b0 3c df dc a9 3d
       -0.038898 -0.07222617 0.021586267 0.08294081
000110 e9 5a ff bb 36 79 88 3d 48 54 50 ba be 16 30 bd
       -0.0077928198 0.06663744 -0.0007947129 -0.04299044
000120 8d 6b 42 3c f9 27 68 3c 7f 2f 83 bc 3f 47 bb 3c
       0.011866462 0.0141696865 -0.016013859 0.022861121
000130 f5 35 5e 3d f5 35 57 bc a4 1e 67 ba ca 2c 5f bd
       0.054250676 -0.013135423 -0.00088165165 -0.054486074
000140 86 54 1a 3d 08 e3 87 bd 35 f3 8e bc a2 f3 d9 3b
       0.037678264 -0.066351 -0.017449955 0.0066513577
000150 2f f7 49 3d f7 48 94 3b 25 e8 0e 3b 1f c9 d1 3c
       0.049308 0.0045252996 0.002180585 0.025608597
000160 3a 2b ef 3a ba 6c 5c 3c be 95 86 3d e5 12 39 bd
       0.0018247135 0.013453657 0.0657153 -0.045184035
000170 cd 12 10 bd 2a 05 1d bc e2 33 d9 3c 8e 2a 12 3d
       -0.03517418 -0.009583751 0.026513997 0.035685115
000180 7f 6a a1 3b 82 81 fa 3b 73 a6 e6 3b 42 51 90 3b
       0.0049260254 0.007644833 0.0070388853 0.004404218
000190 59 0a 5e 3d 25 d3 2c ba 66 5b 23 bd 93 ce 0e 3c
       0.054209087 -0.0006592742 -0.039882086 0.008716243
0001a0 57 f0 eb 3c 03 3a fd bc 2c f6 06 bd 4e 2d 77 ba
       0.028801126 -0.030911451 -0.03294961 -0.0009429053
0001b0 de 85 3d bc ca e0 bd bb 93 28 3d bc a2 ad 6d 3d
       -0.011567561 -0.005794619 -0.011545318 0.058026917
0001c0 f8 bf 18 bd 55 8f a4 bc 94 25 1a bd ee fc 2e 3a
       -0.03729245 -0.020087877 -0.037633494 0.00066752627
0001d0 75 a0 c0 3c bc cf 6a bc d4 1c 8c bc 75 ce d2 bc
       0.023514012 -0.014331754 -0.01710359 -0.025733212
0001e0 c2 43 9a 3b 6d ce 44 3b 4c 3f 58 bc 03 27 cb bc
       0.0047077844 0.0030030266 -0.013198685 -0.024798876
0001f0 c7 2f 49 3c c3 bb 95 bb ab dc 99 bd 42 55 99 bc
       0.012279457 -0.004569502 -0.07512792 -0.018717412
000200 21 40 62 3d e4 da 04 3d 2a 36 e3 bc 10 c0 12 bc
       0.05523694 0.032435313 -0.027735788 -0.008956924
000210 0d dd 6f bc b3 ee bc bc e0 98 71 bc e7 6e c8 3c
       -0.014640105 -0.02306304 -0.014745921 0.024466945
000220 85 68 af 3c 80 b8 8c bc 48 44 49 bd a2 a9 9d bb
       0.021412143 -0.01717782 -0.049137384 -0.0048114816
000230 4f 57 80 3c b3 85 fe 3c de b7 cc 3c 36 5e 24 bd
       0.015666632 0.031069612 0.024990018 -0.04012891
000240 9f cf bf 38 9b 97 7a 3b b6 ad 42 3d b8 ea bd 3c
       9.146262e-05 0.0038237337 0.047528945 0.023183212
000250 8e 1a 94 bc f5 a0 48 bd 98 75 aa bc e1 3c 91 3d
       -0.018079069 -0.048981626 -0.020808026 0.0709169
000260 6a 60 19 bc f7 9f 19 3d ad 1b 9e 3c 00 c7 12 3d
       -0.009361366 0.03750607 0.019300306 0.035834312
000270 2f 7d 1e 3c 1d c2 ca bb ea cb d3 bc 69 1d 3d bd
       0.009673401 -0.006187691 -0.02585407 -0.046170626
000280 47 9e 05 3c 8c 2a dc 3c 10 f9 09 3c e2 c6 6b bc
       0.008155412 0.026875757 0.0084211975 -0.014390679
000290 b3 ba bf bc 1b e2 e5 bc ea b2 27 bd d8 81 71 3d
       -0.023404455 -0.028061917 -0.04094211 0.05896172
0002a0 da 6e e4 bb 2a b3 ed bc 0a 57 05 3c 2a 07 d9 3b
       -0.0069712223 -0.029016096 0.0081384275 0.0066231685
0002b0 8f b8 16 3d d2 18 c8 3a 7b 56 70 bc 22 29 88 bc
       0.036797103 0.0015266186 -0.014669056 -0.016621176
0002c0 fa 3b 60 bd 56 3d 12 3c 9d 5e 09 3d e7 4b a6 3c
       -0.054744698 0.008925756 0.033537496 0.020299865
0002d0 4e 84 b7 bd bc fa 3d 3c 3c 10 1b 3d b9 8b 76 bc
       -0.08960782 0.011595424 0.03785728 -0.015047961
0002e0 23 94 7a 3c bc 86 7d 39 1c cf 90 3d e6 98 b5 3c
       0.015294108 0.00024178153 0.07070753 0.022167634
0002f0 84 0a e6 ba 05 7f 1f bc 44 74 27 3c a9 03 00 bd
       -0.0017550741 -0.009734874 0.010220591 -0.03125349
000300 0e 88 19 bc d6 f9 5e 3b 11 33 38 bc e5 a2 9e bc
       -0.009370817 0.0034023426 -0.011242644 -0.019364784
000310 5f 39 04 3c 2b 61 50 bd 32 e0 1e bc d1 40 a3 bc
       0.008070319 -0.050873917 -0.009697007 -0.019928368
