final_project/lstm_gbrbm_H_div_2 (drop 0.2)/type1/lstm_gbrbm_W15_H200_B32.pt (torch, 783075 bytes, 9 tensors)

lstm_layer.lstm1.weight_ih_l0 f4 [800, 16]
00000000: 8dcf 013b 036c 013b 6f31 fd3a 071a 4d39
00000010: f942 c639 cdb0 6539 2c95 6bb8 67b9 bfba
00000020: 54d5 ca39 956a 273b db29 d038 b05f 8bb9
00000030: ee0b 57bb 2d01 08ba 7398 083b 7c78 f23a
00000040: 4f6c ba39 32c8 c539 9bbc e439 5e23 3c37
00000050: ca3b 2138 dae3 3138 e9d4 aa38 1453 c8b9
00000060: 1cdd 2938 2712 2eb9 9c75 8638 2764 92b9
00000070: a628 a438 cd96 61b9 9467 9139 fcd9 b438
00000080: d793 a13a 2c05 a83a 3023 a33a cf97 da37
00000090: 6533 9339 7a8d a539 cbd6 87b8 fca7 a2ba
000000a0: a812 a739 f652 bb3a 3781 9439 7100 9ab9
000000b0: 25a7 0abb cfa1 a5b9 8c69 ad3a e981 973a
000000c0: 946b 9639 74e4 9539 6c1e 9439 cbf0 ca38
000000d0: a089 1b39 2f6b ed37 7df7 1638 636e b6b9
000000e0: 4e41 1c39 f920 013a dc3e 6837 bfe1 03b8
000000f0: 5503 33ba 87ce 13b8 5375 9d39 42a0 8039
00000100: 3d61 dfb7 df50 70b7 6496 acb6 45f7 1c37
00000110: fc9b df36 7262 f836 a108 0d35 b99e 09b7
00000120: 7cbe 3637 5821 cf37 f56e 44b6 e058 0a37
00000130: f5aa ad37 d629 de36 4474 b3b6 aa56 dfb7
00000140: 6124 6838 3c95 9c38 6177 8938 e86e 7b37
00000150: 4378 a837 ce63 5838 2672 af37 d43e 29b8
00000160: a404 1837 4035 c038 679d 57b7 4a39 28b7
00000170: 7bbb f2b8 b962 72b7 1cdf 9f38 3882 6a38
00000180: b289 b43a e8ed b33a 86df b33a 4d67 0839
00000190: 287a 9d39 5834 cd39 22d5 51b8 4859 8dba
000001a0: fc95 a139 02d9 ad3a 7dca 4b38 ec0a 56b9
000001b0: 4e9a e0ba 1368 77b9 6aee b63a f34c a93a
000001c0: e868 5bb9 bb3f 11b9 c97a 48b9 f2b9 1238
000001d0: 8af4 1937 532f 4db7 e950 8236 4c3f bcb6
000001e0: 4687 e2b7 8e02 3db9 349f a437 809f 1038
000001f0: 3add 4d39 aa96 2a38 eace 60b9 dcbc 22b9
00000200: 8304 0039 a5a9 d938 cd0b f938 aa50 a037
00000210: fd5f 1538 7194 bd37 7e28 8d37 abe7 6ab8
00000220: 1f37 1c38 d2e3 0239 25aa 8b38 b7a3 a136
00000230: ff5f 06b9 ac4c 57b6 9142 1339 8dea 2b39
00000240: 53ee a138 0924 b438 a332 b538 0138 b3b6
00000250: 17dc 4337 a1e3 04b7 8ec1 24b7 9a7f 9eb8
00000260: 3c79 3e34 c463 e138 86ed a837 04ca f1b7
00000270: f19c 11b9 adb4 9bb7 5ca0 a038 653e 9838
00000280: bb01 8638 f3fe 8338 5f5a 8b38 e7be 8437
00000290: 339f 6837 c1e8 5738 b893 9e37 f133 8d38
000002a0: 3e74 1838 e33c da37 ee6b fa37 a080 bc36
000002b0: 0884 30b8 8384 4237 4887 8138 8441 8038
000002c0: cdad 0539 33b8 5138 ec7e c137 ccb7 ea38
000002d0: 91c7 4839 5c35 1139 c7ab b538 377d 4637
000002e0: 3028 0839 2770 5f39 8e9b fb38 3c51 11b8
000002f0: 27b7 13ba b5a3 fdb5 4422 2b39 9d15 1e39
00000300: 0a9a ff38 c19c 8bb7 8e4a 1837 66ed 9738
00000310: 6431 9638 4444 0a39 8e4b 5737 bb2d 1b38
00000320: 6989 4538 e3cf 6939 b2f4 af37 bef4 cb38
00000330: e526 4ab8 7581 c138 e7d6 a738 9f19 c3b7
00000340: f415 5db6 9fe0 39b6 62a7 5f37 03ff 6738
00000350: 4f05 b637 725a 8438 11ec c637 8973 bab8
00000360: c27d b537 f7b7 8438 b857 1238 d113 dc36
00000370: 2c45 5cb9 c518 4db6 c579 a237 babc ea36
00000380: 4816 79b8 3c72 62b8 9828 23b8 32aa 8e37
00000390: 0142 9d37 f886 f337 38d8 b537 0461 9236
000003a0: 031d 9a37 9528 8cb8 b968 7d37 0aa2 9a38
000003b0: 2972 9738 340e 4c38 a7a4 76b8 1592 78b8
000003c0: 259e 843a 0a32 313a 23b6 bb39 686b 5bb8
000003d0: db67 b436 86f4 a7b6 699e 85b8 48c1 85b9
000003e0: 0ce3 2a39 dfb6 4b3a 93e8 dfb7 ad3d 1eb9
000003f0: 3e8d 62ba 1f02 31b8 717f 333a 5e58 7e3a
0.0019807548 0.0019748218 0.00193171 0.0001956002 0.000378154 0.00021905005 -5.6167293e-05 -0.0014627398
0.00038687384 0.0025545706 9.926009e-05 -0.0002658344 -0.0032813507 -0.00051881635 0.002084282 0.0018499042
0.0003555738 0.00037723925 0.0004362807 1.1213908e-05 3.8441074e-05 4.241229e-05 8.145889e-05 -0.0003820887
4.0498664e-05 -0.00016600695 6.4115244e-05 -0.0002792191 7.827701e-05 -0.0002151385 0.00027733727 8.6236716e-05
0.0012327385 0.0012818924 0.00124464 2.6058317e-05 0.00028076317 0.0003157666 -6.47731e-05 -0.0012409682
0.00031866622 0.0014291692 0.00028325032 -0.00029373498 -0.0021156755 -0.0003159181 0.0013230308 0.0011559102
0.0002869038 0.00028589705 0.00028251426 9.676962e-05 0.00014833221 2.8302513e-05 3.599328e-05 -0.0003479599
0.00014901647 0.0004925873 1.3842913e-05 -3.1443076e-05 -0.00068288046 -3.5239875e-05 0.00030032787 0.00024533464
-2.6628952e-05 -1.4323944e-05 -5.143507e-06 9.3558965e-06 6.664077e-06 7.4024365e-06 5.253915e-07 -8.202792e-06
1.0892396e-05 2.469185e-05 -2.9270861e-06 8.246134e-06 2.0702815e-05 6.620986e-06 -5.348151e-06 -2.6624028e-05
5.534699e-05 7.466457e-05 6.554905e-05 1.4986588e-05 2.0083162e-05 5.1591363e-05 2.091478e-05 -4.0351253e-05
9.0609865e-06 9.165192e-05 -1.2851647e-05 -1.0026919e-05 -0.0001157438 -1.444731e-05 7.623268e-05 5.5911223e-05
0.0013773947 0.0013727518 0.0013723231 0.00013008453 0.00030036387 0.00039139646 -5.002798e-05 -0.0010784054
0.0003082006 0.0013263526 4.8587553e-05 -0.00020412699 -0.001713583 -0.00023594526 0.0013956551 0.0012916609
-0.00020924548 -0.00013852019 -0.00019119227 3.4982288e-05 9.176447e-06 -1.2229971e-05 3.883721e-06 -5.6102053e-06
-2.7004291e-05 -0.00018025396 1.9624458e-05 3.448082e-05 0.00019632737 4.0671475e-05 -0.00021439386 -0.0001551988
0.00012208712 0.00010378965 0.00011875443 1.9111048e-05 3.5613764e-05 2.259968e-05 1.6827365e-05 -5.6005705e-05
3.7244634e-05 0.00012482636 6.6597284e-05 4.817233e-06 -0.00012814997 -3.2082125e-06 0.0001404381 0.00016395208
7.7214696e-05 8.589781e-05 8.6401844e-05 -5.3411354e-06 1.1674149e-05 -7.920812e-06 -9.820227e-06 -7.557795e-05
1.7739234e-07 0.00010747419 2.0137766e-05 -2.882351e-05 -0.00013886743 -1.8561574e-05 7.659264e-05 7.259547e-05
6.38994e-05 6.294055e-05 6.6448694e-05 1.5824522e-05 1.3865344e-05 5.1476763e-05 1.8903855e-05 6.733079e-05
3.6347883e-05 2.6015978e-05 2.9852581e-05 5.6178105e-06 -4.2084634e-05 1.1594154e-05 6.1763974e-05 6.115719e-05
0.00012748614 5.0001032e-05 2.3066495e-05 0.00011192224 0.0001914783 0.00013848156 8.6627486e-05 1.18308735e-05
0.00012984942 0.00021308717 0.00011997587 -3.464635e-05 -0.0005634897 -1.8897614e-06 0.00016320596 0.00015076106
0.000121880395 -1.6643085e-05 9.077265e-06 7.24446e-05 7.161757e-05 0.00013186136 1.283259e-05 3.699747e-05
4.7096433e-05 0.00022298055 2.097557e-05 9.725381e-05 -4.8196776e-05 9.2270704e-05 8.003209e-05 -2.3257742e-05
-3.2944345e-06 -2.7697895e-06 1.3330808e-05 5.531219e-05 2.1698563e-05 6.311097e-05 2.3713366e-05 -8.890691e-05
2.1635442e-05 6.3285166e-05 3.4890807e-05 6.558818e-06 -0.00021006603 -3.0561798e-06 1.9368608e-05 6.995714e-06
-5.9386977e-05 -5.3988988e-05 -3.8900034e-05 1.7006972e-05 1.8746594e-05 2.9030707e-05 2.1677566e-05 4.362433e-06
1.837174e-05 -6.683279e-05 1.5104358e-05 7.373474e-05 7.221505e-05 4.8650618e-05 -5.8804315e-05 -5.9263857e-05
0.0010117932 0.00067594706 0.00035803122 -5.23137e-05 5.3765084e-06 -5.005454e-06 -6.3714404e-05 -0.00025511743
0.00016297045 0.00077710854 -2.6691972e-05 -0.0001509103 -0.00086422625 -4.2202064e-05 0.00068472984 0.0009702499

lstm_layer.lstm1.weight_hh_l0 f4 [800, 200]
00000000: ded3 b9b8 d487 c2b7 d683 adb8 c5fe 4cb8
00000010: 96bf ecb6 b0f3 9d37 b3c5 bfb8 bf1f 0d38
00000020: becf 5a36 202e bab7 247d d9b7 c0a3 9338
00000030: 6b3c 6137 4d0c 11b8 5a0b 44b7 670c 1838
00000040: a101 74b7 fc9e 0f37 d3c4 fcb8 1ace 3538
00000050: 5adc 0f37 43f0 a2b7 1ff5 9d35 5f36 68b7
00000060: e5dc 8438 9330 0037 751d 4238 9923 91b8
00000070: 182c cb35 3601 47b8 6574 22b8 4902 c237
00000080: 8a30 beb7 b139 ccb8 1a19 9f38 863d 9b36
00000090: ee96 8fb8 396a 25b8 a895 9ab7 fae9 7fb8
000000a0: 3601 ee35 738c 9237 3016 93b7 1f52 d538
000000b0: 0f7c 9c37 a526 b537 342d 38b7 edf3 0937
000000c0: f709 acb6 2706 6837 f72c 2938 261e cfb7
000000d0: 48aa 00b8 08ae 5838 19fd 04b8 21aa 8f37
000000e0: d9eb 0a38 1dac 3338 8ebe b4b8 b739 cab7
000000f0: 605a 96b8 2bf3 bf38 5453 e3b7 2e44 52b8
00000100: cb9c f037 58f5 ca38 bdcb d0b8 27e5 ef37
00000110: a317 ff37 9d44 93b7 5e07 6336 3121 2638
00000120: 454e b8b7 75cc 31b6 3c2a 5737 d949 bd37
00000130: 6f20 beb7 152e 0b38 9c96 b0b7 9853 7237
00000140: 2a7f 2938 8762 9e36 7049 4e37 dc56 0839
00000150: 06cd 0c35 ffab abb8 71ae 9e37 1c3c 71b8
00000160: d1e8 03b8 8e4c 44b6 a77e 3cb8 d664 80b8
00000170: 5689 4eb8 0cd0 d437 0d9e 13b8 6e5b c738
00000180: 7ec6 b0b7 e2fd c0b8 8d98 0bb6 3c48 9238
00000190: c127 9935 e7ce 8137 77ae 5837 5ec5 c4b8
000001a0: ec34 d237 21b1 abb8 831b bab7 5a0c 0a37
000001b0: 3390 0337 618d 92b7 c220 9437 953e ec37
000001c0: f927 adb8 eab3 a637 c32d 8338 c0ec 2f38
000001d0: 88cd 06b8 2f36 f4b7 aa12 58b8 68bf 7437
000001e0: d87d 9338 bd2d 8338 3d22 29b7 e65d eb36
000001f0: 55a8 1ab6 8e2c d437 a41b 84b7 5145 4bb8
00000200: 0721 1d37 bbeb 56b7 cef2 1438 6bf3 2737
00000210: db5c 97b7 952a bdb7 45bc 13b9 9352 8138
00000220: c445 b0b6 5143 e8b7 b468 a9b8 726f df37
00000230: 0e8d 99b7 f838 79b9 d05e cab7 8712 0b38
00000240: 51a6 3238 e102 01b8 5185 acb8 0c66 49b8
00000250: 2105 6cb8 9ba5 a138 997e eeb7 9579 4d37
00000260: 6083 8ab8 e157 49b7 620a 71b8 fda1 2338
00000270: 833c a5b7 1e7d 32b7 efc2 23b8 da43 5237
00000280: d618 d3b7 5f88 7db8 08db d536 e842 b3b8
00000290: 7d3f c2b8 5049 1cb8 d11e f3b6 3371 2e38
000002a0: 0608 0e38 4d8d e1b7 edec 0238 461a 7fb8
000002b0: b3b8 29b8 4c3c 4938 90f3 4eb7 73f7 2db8
000002c0: 260a 7938 ff1a 20b5 dace 2c38 66d5 f4b7
000002d0: f578 f438 b364 b9b6 220d 51b8 71ce 0e38
000002e0: 12c2 1938 5f2a 03b8 af05 d6b6 ca53 fdb7
000002f0: c988 9eb8 cfa6 bb36 c49b 9a38 1822 9537
00000300: 34a5 eeb7 2996 c237 17c2 6937 3010 bcb7
00000310: 54b5 9ab8 b201 03b7 27b6 9537 ed71 f537
00000320: 2412 2eb7 ade3 d2b6 b062 3cb7 5a3f 87b8
00000330: 890c b6b5 b5e3 6536 bdfd 85b7 95cc aa36
00000340: 722c deb5 9e46 26b6 860c 3eb6 2d37 abb7
00000350: d9f1 01b7 a638 dbb6 f4fc 6737 631d 0635
00000360: 94f7 4634 e87f 1635 22a9 33b9 ac9b 8e36
00000370: 4fdc 6536 9317 0935 8ec3 3034 43c1 4437
00000380: c5d2 e136 5bd0 24b5 2d38 5237 0f62 dc35
00000390: ed2e 2637 b7f1 e3b6 1537 a3b6 47a6 4eb6
000003a0: 8a8c 42b6 8ddf 53b7 93ea 0137 c29a 8bb5
000003b0: 8d69 f6b5 4f47 ce35 1d8a 4237 5e09 6cb7
000003c0: efe2 94b6 e92b 6e37 097d 31b6 ba85 3439
000003d0: 0cd4 4736 90cc 3436 6da6 53b7 9896 0537
000003e0: fc2d 16b5 36c7 9e36 d62f 9f36 2754 aab6
000003f0: 5182 09b6 e332 6cb7 83b8 1835 165d e136
-8.860951e-05 -2.3189852e-05 -8.273839e-05 -4.8874663e-05 -7.0556516e-06 1.8829334e-05 -9.144414e-05 3.3646586e-05
3.2605453e-06 -2.2194406e-05 -2.5926689e-05 7.040007e-05 1.3425112e-05 -3.458215e-05 -1.1685153e-05 3.6251175e-05
-1.4543913e-05 8.560481e-06 -0.00012052958 4.334571e-05 8.574769e-06 -1.9423785e-05 1.1768751e-06 -1.3840937e-05
6.335395e-05 7.640704e-06 4.628064e-05 -6.9207694e-05 1.5137512e-06 -4.7446425e-05 -3.873221e-05 2.3127666e-05
-2.2672368e-05 -9.738224e-05 7.586386e-05 4.6265222e-06 -6.846884e-05 -3.9437993e-05 -1.842792e-05 -6.1014645e-05
1.7732734e-06 1.7469958e-05 -1.7534097e-05 0.00010171928 1.8654418e-05 2.1594877e-05 -1.0977779e-05 8.22263e-06
-5.1271595e-06 1.382971e-05 4.0334617e-05 -2.4690362e-05 -3.0676165e-05 5.1660492e-05 -3.1706968e-05 1.712615e-05
3.3121414e-05 4.283722e-05 -8.6185624e-05 -2.4107152e-05 -7.169391e-05 9.152883e-05 -2.7099311e-05 -5.01314e-05
2.8683242e-05 9.6778094e-05 -9.956162e-05 2.8597728e-05 3.0409376e-05 -1.7555716e-05 3.3829924e-06 3.9608396e-05
-2.1970956e-05 -2.6494065e-06 1.2824832e-05 2.2564944e-05 -2.2664868e-05 3.31831e-05 -2.1050968e-05 1.4443787e-05
4.041117e-05 4.720237e-06 1.2295655e-05 0.00013002328 5.245241e-07 -8.185952e-05 1.8916298e-05 -5.751486e-05
-3.144966e-05 -2.9250837e-06 -4.4940647e-05 -6.122298e-05 -4.924213e-05 2.5369249e-05 -3.5194727e-05 9.5060896e-05
-2.1073265e-05 -9.202563e-05 -2.080141e-06 6.975277e-05 1.1410958e-06 1.5474345e-05 1.2915224e-05 -9.382771e-05
2.5058594e-05 -8.186908e-05 -2.2185739e-05 8.228317e-06 7.8417825e-06 -1.7470391e-05 1.7658229e-05 2.8162534e-05
-8.256728e-05 1.9872521e-05 6.2550906e-05 4.1943742e-05 -3.2139505e-05 -2.9112298e-05 -5.1515795e-05 1.4588099e-05
7.0329465e-05 6.255086e-05 -1.0081157e-05 7.014477e-06 -2.304577e-06 2.5293117e-05 -1.5748497e-05 -4.8463527e-05
9.365619e-06 -1.2810279e-05 3.551208e-05 1.0010651e-05 -1.8043842e-05 -2.2550385e-05 -0.00014089148 6.16658e-05
-5.2533305e-06 -2.7687902e-05 -8.0780505e-05 2.6635567e-05 -1.8304705e-05 -0.00023767713 -2.4124427e-05 3.3157437e-05
4.25934e-05 -3.0758678e-05 -8.226431e-05 -4.8017173e-05 -5.627156e-05 7.707925e-05 -2.8430763e-05 1.224726e-05
-6.604823e-05 -1.20009945e-05 -5.7468547e-05 3.901309e-05 -1.969771e-05 -1.0638758e-05 -3.9043774e-05 1.2532773e-05
-2.5164725e-05 -6.0446906e-05 6.3733933e-06 -8.5478474e-05 -9.2624665e-05 -3.7261576e-05 -7.245552e-06 4.1590258e-05
3.386291e-05 -2.6887888e-05 3.121507e-05 -6.0821207e-05 -4.0464754e-05 4.797829e-05 -1.2335266e-05 -4.147687e-05
5.9375678e-05 -5.964393e-07 4.120064e-05 -2.9186438e-05 0.00011657357 -5.5251526e-06 -4.9841714e-05 3.40477e-05
3.6658785e-05 -3.1272295e-05 -6.3783586e-06 -3.0198968e-05 -7.559505e-05 5.5924534e-06 7.372306e-05 1.777806e-05
-2.844874e-05 2.3196526e-05 1.3933072e-05 -2.2418884e-05 -7.377067e-05 -7.808603e-06 1.7847005e-05 2.9259327e-05
-1.0375432e-05 -6.2849927e-06 -1.1228651e-05 -6.449102e-05 -1.3563705e-06 3.4256202e-06 -1.5972992e-05 5.0902113e-06
-1.6553224e-06 -2.4777032e-06 -2.8319496e-06 -2.0410482e-05 -7.745309e-06 -6.5333033e-06 1.3827568e-05 4.9961653e-07
1.8530255e-07 5.606548e-07 -0.00017133777 4.2500524e-06 3.4251896e-06 5.107078e-07 1.646242e-07 1.1727508e-05
6.7300593e-06 -6.139796e-07 1.2530055e-05 1.6419816e-06 9.905297e-06 -6.7932665e-06 -4.864191e-06 -3.0793178e-06
-2.8990057e-06 -1.26286295e-05 7.743615e-06 -1.0401347e-06 -1.8359148e-06 1.536895e-06 1.1595458e-05 -1.4068877e-05
-4.4371623e-06 1.4196129e-05 -2.6447835e-06 0.00017215955 2.9776738e-06 2.6941161e-06 -1.2615329e-05 7.962481e-06
-5.594627e-07 4.731958e-06 4.744138e-06 -5.0761914e-06 -2.0490445e-06 -1.4078544e-05 5.689291e-07 6.716359e-06

lstm_layer.lstm1.bias_ih_l0 f4 [800]
00000000: ba9a 7f3b 8cbf bf39 1d50 243b ab0a 523a
00000010: a3b0 6837 5379 2939 2efd 153b a3b5 8eb9
00000020: eeef 1339 a60d 2439 cf60 4d38 2758 f439
00000030: 1fd0 4938 6a0e 2439 4686 36b8 c025 c239
00000040: 698a dd37 e06b 9037 5fc9 1d3b 5934 333a
00000050: f63a de38 ee30 0f39 e011 deb7 f6fe 033a
00000060: 5129 80b9 8dd7 0038 3df5 963a 6dc8 6e3b
00000070: c5d0 1eb8 4a67 c538 200b 3a38 0f2d 03ba
00000080: 775c 12ba e191 5f3b 9934 c63a 5ef2 163a
00000090: dcae 0039 16b2 973a 4716 6f39 36ee 1c3b
000000a0: d07b 1cb7 2426 263b cd76 92b8 2f46 6d3b
000000b0: 4ca7 b035 5f26 97b7 43b8 4338 872d 023b
000000c0: 1fc2 88b7 8aa8 b837 7161 423a f27b c4b9
000000d0: bfd9 b939 6b84 f7b8 2d3a f338 be87 9039
000000e0: cc03 b3b9 a8b4 763b 09ed 213b e02f 9539
000000f0: 0064 ad3a 0826 1f3b 145f a7b9 8934 dbb8
00000100: eea7 a239 8d5c 5c3a cf7d 433b 5019 0738
00000110: 0ae8 e639 73ed 7f38 a453 beb6 b6eb 1c3a
00000120: 6e78 c039 f733 b13a 488a d8b9 f318 8839
00000130: 3883 ac38 3d60 ebb9 d02a 10b8 8e8c bb39
00000140: 3c36 5938 8e97 a6b7 2738 d537 a7dc 70b7
00000150: 422c 9c39 2fa6 083b 7306 563a 1e04 463a
00000160: 981e 00ba ecb9 2d39 81f9 4cba 1b1f fe39
00000170: fb80 263a 9f5c b3b9 0999 f4b8 4a51 803a
00000180: 4b6f 9238 6dda 173b 1514 d238 60da 803a
00000190: c394 1eb8 a002 ce38 6cce 153a f56a 9c39
000001a0: 6415 8538 69d5 ef3a 297d bfb8 0fe2 03b9
000001b0: b17d 053b 2d81 6cb8 a307 6938 27c2 4d39
000001c0: f992 833a 89cb 323a 8283 fa3a 042b 6238
000001d0: fc72 1db9 db9b 40b8 41ac be3a 54b0 5d39
000001e0: 8285 553b 6e14 a03a 262b ccb8 3fc4 4bb9
000001f0: d16e a8b8 45bd 1b3a 922d 86b9 1fcc 52b9
00000200: ec30 10b9 943f c8b8 5b5e 95b8 4a6a 1cb8
00000210: 5897 82b9 e33c 99b8 b0b4 63b7 feda 9639
00000220: d075 1a3a 3064 c238 8f39 193b 316d fab9
00000230: 05a2 4339 b440 e439 3dcd 263a 7123 9ab9
00000240: 6b3c 113a 9926 7a39 a46c 663a 797c a339
00000250: 2882 56b9 8508 8a3a fb6a bc39 6989 5e36
00000260: ac2a 8f3a 7f94 c339 e85d c9b8 81c3 b038
00000270: 1756 753a 9b95 53b8 39a9 a83a 30b3 2d39
00000280: 6c5d 6237 d642 4c3a 6332 1839 10d0 c03a
00000290: 17c3 153a bdff 6d39 e4e6 a7b7 bb27 5f3a
000002a0: 98a2 7c3a 221a 033a 8a1a aa39 66b0 a83a
000002b0: 0db5 f539 108a e239 a331 f439 7680 efb8
000002c0: 14c3 9d3a f8fa 9c39 7c37 453a 19f5 fb36
000002d0: 48b0 5b3b 8b4f 7f39 aca9 4b39 9528 013a
000002e0: 0fc4 5f3a 005e 4e3a e414 2039 f22a 25b9
000002f0: 247d 9b3a 85a7 a5b9 1a6e 8ab8 db8c 9738
00000300: 1c36 efb7 c3dc b6b9 8017 ef39 3aab c637
00000310: ad98 ad3a c844 cdb7 f8ec 463a ed4d 18ba
00000320: d8ce 7b3b cfd7 1c3a 496d 1f3b 2859 3e3a
00000330: 8efb 36b7 796f 0a39 f36b 133b 48f8 4db9
00000340: 7ee8 7039 da85 1639 e752 fe37 8122 083a
00000350: 1cde 9039 2ac9 e338 553b 2fb8 3a1a 193a
00000360: 3fa6 d537 74eb 0538 6a2a 243b 4fc1 dd39
00000370: c932 9238 d914 e838 121e 44b8 72a9 4639
00000380: b418 beb8 079e 9337 cbba fd3a cf03 703b
00000390: 1cbb beb7 1ef8 fc37 6cf2 3e39 4694 02ba
000003a0: ee9d bcb9 12c7 5e3b 1052 cd3a 250c 0239
000003b0: 3b3c 2039 7488 953a f81e a838 62a4 033b
000003c0: 24f8 9cb7 6af3 2a3b 9718 deb8 9fec 683b
000003d0: b66c 4db5 2719 8139 55a0 3239 7fc9 f93a
000003e0: 0d8b bfb7 d293 9438 974d 553a 5b19 88b9
000003f0: e958 5739 9b98 12b9 db54 8db9 425b b639
0.0039002136 0.00036573072 0.0025072165 0.0008012454 1.3869404e-05 0.00016162293 0.0022886503 -0.0002721968
0.00014108393 0.00015645343 4.896597e-05 0.00046604985 4.8115962e-05 0.00015645628 -4.3517233e-05 0.0003703069
2.6409705e-05 1.721637e-05 0.0024076325 0.00068361085 0.00010596767 0.0001365577 -2.6472786e-05 0.00050352456
-0.00024444846 3.0718325e-05 0.0011517179 0.003643538 -3.7864567e-05 9.412931e-05 4.4356217e-05 -0.00050039677
-0.00055832363 0.003411405 0.0015121876 0.00057581614 0.00012272171 0.001157346 0.00022801115 0.0023945696
-9.327152e-06 0.0025352323 -6.983951e-05 0.0036205163 1.3161712e-06 -1.801847e-05 4.666323e-05 0.0019863562
-1.6302858e-05 2.2012991e-05 0.00074150326 -0.0003747638 0.00035448183 -0.000118025426 0.00011597979 0.00027566956
-0.0003414437 0.00376443 0.0024707934 0.00028455164 0.0013228655 0.0024284143 -0.0003192356 -0.00010452519
0.00031024165 0.0008406125 0.0029829626 3.2210082e-05 0.000440419 6.101788e-05 -5.6721783e-06 0.00059860514
0.0003671082 0.0013519515 -0.00041301758 0.0002595853 8.2260405e-05 -0.00044894396 -3.4372148e-05 0.0003577214
5.178734e-05 -1.9859315e-05 2.5417727e-05 -1.4356489e-05 0.00029787613 0.0020851006 0.0008164413 0.0007553714
-0.00048873713 0.00016567827 -0.00078191614 0.0004846983 0.0006351617 -0.0003421055 -0.00011663332 0.0009789851
6.9825524e-05 0.0023170963 0.00010017321 0.0009830706 -3.780868e-05 9.8233344e-05 0.0005714658 0.00029834328
6.3459185e-05 0.0018297854 -9.1309026e-05 -0.00012577347 0.0020369107 -5.638709e-05 5.555864e-05 0.00019622651
0.0010038308 0.000682049 0.0019112679 5.392266e-05 -0.00015015522 -4.592152e-05 0.0014547185 0.0002114189
0.0032580798 0.001221312 -9.735515e-05 -0.00019432696 -8.0315054e-05 0.0005940984 -0.00025592424 -0.00020103202
-0.00013751135 -9.5485855e-05 -7.122449e-05 -3.7292288e-05 -0.00024908292 -7.3069496e-05 -1.3572324e-05 0.0002877339
0.0005892189 9.269302e-05 0.0023380255 -0.0004776507 0.00018657006 0.00043535756 0.00063629803 -0.00029399575
0.0005540314 0.00023856237 0.00087899924 0.00031182522 -0.00020457117 0.0010531103 0.0003593786 3.316056e-06
0.0010922751 0.00037303937 -9.601918e-05 8.4287494e-05 0.00093588367 -5.044565e-05 0.0012867815 0.00016565318
1.3492401e-05 0.0007791942 0.0001451462 0.0014710445 0.00057129696 0.00022697351 -2.0015468e-05 0.0008512695
0.00096372655 0.00050011475 0.000324447 0.0012869954 0.00046864935 0.00043208944 0.0004657629 -0.00011420336
0.0012036287 0.00029941625 0.00075232214 7.508916e-06 0.003352182 0.00024348327 0.00019422796 0.00049270067
0.000853599 0.00078722835 0.00015266571 -0.00015751625 0.0011862856 -0.00031596064 -6.600861e-05 7.2264775e-05
-2.8516217e-05 -0.00034878225 0.0004560314 2.3683173e-05 0.0013244353 -2.4469933e-05 0.00075884117 -0.00058099517
0.003842285 0.0005983086 0.0024326614 0.000726121 -1.0906615e-05 0.00013202232 0.0022494763 -0.00019642815
0.00022974794 0.00014354978 3.0317764e-05 0.000519313 0.00027631305 0.00010861673 -4.177851e-05 0.0005840395
2.5468993e-05 3.1928954e-05 0.0025049695 0.0004229643 6.971282e-05 0.00011066505 -4.6758047e-05 0.00018945875
-9.064507e-05 1.7597353e-05 0.0019358037 0.0036623364 -2.2736895e-05 3.015628e-05 0.00018210121 -0.0004981201
-0.0003597582 0.0033993167 0.0015664715 0.0001240229 0.00015281227 0.0011408464 8.016633e-05 0.0020086993
-1.8712199e-05 0.0026085027 -0.00010590365 0.0035541428 -7.6526646e-07 0.00024623537 0.00017035131 0.0019057243
-2.2833725e-05 7.0847236e-05 0.0008136867 -0.00025958833 0.0002053712 -0.00013980495 -0.00026956838 0.00034781737

lstm_layer.lstm1.bias_hh_l0 f4 [800]
00000000: 7c00 803b 1cf0 3c3a dd63 223b b053 463a
00000010: 9f09 a437 cfc4 1139 ede6 1d3b c829 29b9
00000020: 4517 7339 6e68 1939 c050 c1b8 00bf 0a3a
00000030: fec3 3939 f97f f738 bce8 41b8 354f ca39
00000040: 640e f537 8a11 06b8 a62b 113b a32d fe39
00000050: 3db9 9938 b1d8 1039 a22b 30b8 5fe2 c839
00000060: 8602 68b9 e075 c335 19e4 e53a 501d 4a3b
00000070: 9189 1bb8 511d acb9 2c24 85b7 1133 18ba
00000080: 8ecf d2b9 7527 5b3b c0ed bc3a da30 a839
00000090: e9e9 9e39 6f79 933a edd4 6e39 1cc1 fe3a
000000a0: 87cd 4fb5 a524 253b 17eb 09ba 9692 6c3b
000000b0: b82d ad37 8672 b238 37a0 0b38 0125 bf3a
000000c0: 8ef4 a8b7 04e6 f537 2ac9 263a bb73 a2b9
000000d0: e0a6 bb39 485c 2cb9 1346 8938 05fa 9439
000000e0: a593 b1b9 a265 753b 3899 203b 2aea 233a
000000f0: 8e90 ad3a 2c5a 223b 402f a7b9 a01f 0eba
00000100: b5ee af39 75a5 dd39 29e8 443b 0c26 50b8
00000110: bca1 0a3a 2b24 8138 a0d2 2eb7 4de5 3b3a
00000120: 0e9c 233a ebb0 f53a fa58 fbb8 979c 8939
00000130: 2893 a738 5348 8bb8 be56 92b8 c29a 4d3a
00000140: 6c2d 47b6 e0cb a3b7 79d5 b438 9e18 8cb7
00000150: 6b7c 1139 3a3b ff3a cdf5 0d3a 7e82 433a
00000160: fe0e ccb9 0aaf 4b37 ae64 b4ba bb0f df39
00000170: fa30 a238 531c bfb9 aef9 00b9 30c6 9c3a
00000180: d259 cc37 41e1 1b3b 2e32 2539 ee5e 833a
00000190: 0646 64b8 1a30 9638 0f45 463a 1a13 9d3a
000001a0: 8662 9db8 4ce0 eb3a 35cb d4b7 f50a 58b9
000001b0: d17e 053b 08c4 9d38 fa4f 8438 b8c5 0839
000001c0: 4db1 833a 1727 523a 0a23 ff3a 77ad 9eb9
000001d0: 38a0 0237 8754 05ba 9feb 9e3a 5c85 ba39
000001e0: 71f0 653b 9ac0 a03a 73b3 06b9 f94a 45b9
000001f0: 3d80 af36 57ec 113a 360b 86b9 aeda 18ba
00000200: 7607 3238 ddfc 2db5 eea2 27b8 d879 04b8
00000210: 5d83 4bb9 0df3 25b7 9caf 32b7 29e5 2e3a
00000220: 3eeb 2c3a c486 0539 6046 103b 27b3 f3b9
00000230: 08c6 b439 ad32 2e3a 3694 d239 4ccd a2b9
00000240: 53d9 123a ea27 3e39 2754 5c3a f5f8 6b39
00000250: 2cc2 9db9 3ec0 873a 7254 7539 5641 84b8
00000260: aeb6 8e3a 370e f339 792a 2cba 4f94 bf38
00000270: 8fea 373a 5792 e8b7 069f 9d3a 569e 7239
00000280: 1a02 0d38 2fbf 523a 1667 4539 d499 d43a
00000290: 941b 563a f326 bb38 4ae4 1937 1e68 4f3a
000002a0: 0564 853a 23a2 3a3a 7142 033a e4f8 a03a
000002b0: 855c d339 43a3 e139 a8ca 8439 77fb 98b8
000002c0: 9329 3e3a 0659 a939 5c19 453a 1b6e 0839
000002d0: 299a 593b 9717 b939 2e6c 56b9 af51 033a
000002e0: 0bd7 543a 8b79 df39 ddac ad38 7abe 3bb9
000002f0: f508 8c3a 9b5e d4b9 7fda 133a f53d 3c37
00000300: d787 3a37 6448 c938 69fc e439 df3a ee37
00000310: b563 7e3a f895 9c37 274a 063a 72a2 04b8
00000320: bb2a 7c3b 83d4 80b9 1e1f 203b 06c4 483a
00000330: e2c0 d0b7 6039 2839 9ca5 1c3b 4096 55b9
00000340: a63c 6f39 98f8 1b39 932d bdb8 1d38 bb39
00000350: 2e41 2db8 1a8c 4239 5ffb 3fb8 6879 093a
00000360: b519 8f38 248b 94b4 ad3d 123b 32c7 263a
00000370: 7ba5 3039 1474 d537 2736 93b8 a116 0e3a
00000380: 6e23 01ba 4980 b137 1ee6 ff3a 393b 6e3b
00000390: ecb9 07b7 15b5 d439 20e8 6a38 d12b a5b9
000003a0: 8c87 61b8 c2a6 5b3b 5737 ae3a aa77 8e3a
000003b0: 2e4a 6739 999d 973a 56e4 4139 e1d0 273b
000003c0: 9670 35b7 1280 213b 1fcc 06ba 090e 693b
000003d0: af2f 8f38 afe7 f8b7 7255 8839 015f b63a
000003e0: 25ce 1137 6fe2 c638 19c5 063a 69f0 a9b9
000003f0: 2b74 fa39 8699 2eb9 90a6 dbb9 ead5 8b39
0.0039063077 0.000720741 0.0024778761 0.0007565571 1.9554804e-05 0.00013901595 0.0024093941 -0.0001613266
0.00023182954 0.0001463012 -9.217998e-05 0.00052927434 0.00017715988 0.000118017146 -4.6231537e-05 0.00038587456
2.9212977e-05 -3.1964424e-05 0.002215126 0.00048480657 7.330112e-05 0.00013813634 -4.2002306e-05 0.00038315632
-0.00022126184 1.4562938e-06 0.0017539292 0.0030840226 -3.7083e-05 -0.0003282824 -1.587168e-05 -0.00058059493
-0.00040208962 0.0033440266 0.0014414117 0.00032079854 0.00030310385 0.00112514 0.0002277677 0.0019436213
-7.741259e-07 0.0025198844 -0.00052611664 0.0036098114 2.0644497e-05 8.509033e-05 3.3289394e-05 0.0014583172
-2.014104e-05 2.9313385e-05 0.0006362373 -0.00030985274 0.0003579175 -0.00016437576 6.5457214e-05 0.0002841504
-0.00033870075 0.003744461 0.0024505388 0.00062528497 0.0013241933 0.0024772985 -0.00031887926 -0.00054215826
0.00033556452 0.0004227568 0.0030045605 -4.96265e-05 0.00052883825 6.157936e-05 -1.0420248e-05 0.00071676524
0.00062412105 0.0018744742 -0.00011985186 0.00026247345 7.9905905e-05 -6.641508e-05 -6.9779795e-05 0.000784319
-2.967975e-06 -1.952605e-05 8.622831e-05 -1.6700764e-05 0.00013874627 0.0019472607 0.00054153503 0.00074581045
-0.00038921082 1.2140497e-05 -0.0013762915 0.00042545595 7.7338846e-05 -0.00036451462 -0.00012300044 0.001196092
2.4360521e-05 0.0023785385 0.0001575432 0.0010022798 -5.442465e-05 7.161517e-05 0.0007563391 0.0011983842
-7.504695e-05 0.0017995923 -2.5366995e-05 -0.00020603447 0.0020369778 7.522857e-05 6.309147e-05 0.00013043627
0.0010047347 0.0008016689 0.0019465399 -0.0003026535 7.785908e-06 -0.0005086143 0.0012124664 0.00035576045
0.0035085941 0.0012264431 -0.00012846086 -0.00018815314 5.2303353e-06 0.00055665284 -0.00025566824 -0.00058309257
4.2445456e-05 -6.4815487e-07 -3.9967643e-05 -3.158473e-05 -0.00019408525 -9.891356e-06 -1.0650514e-05 0.0006671721
0.0006596333 0.00012734073 0.0022014603 -0.0004648205 0.0003447982 0.00066451245 0.00040164747 -0.00031052006
0.0005601842 0.00018134681 0.00084048737 0.0002250409 -0.00030090043 0.0010356975 0.00023396479 -6.30642e-05
0.0010888183 0.00046359163 -0.0006567608 9.135214e-05 0.0007015848 -2.77247e-05 0.0012025542 0.00023137903
3.3618977e-05 0.0008039353 0.00018825787 0.0016220161 0.00081675616 8.92411e-05 9.172663e-06 0.0007911938
0.0010176903 0.0007119497 0.0005007154 0.0012281206 0.0004031399 0.00043036984 0.00025327993 -7.294764e-05
0.000725412 0.0003230052 0.00075187325 0.00013010988 0.003320346 0.00035303526 -0.0002044893 0.0005009425
0.0008119202 0.0004262443 8.281481e-05 -0.00017904668 0.0010683822 -0.00040506278 0.00056401634 1.1220099e-05
1.1118092e-05 9.597911e-05 0.0004367561 2.8399225e-05 0.00097041886 1.8666484e-05 0.0005122744 -3.162254e-05
0.0038477618 -0.00024572396 0.002443261 0.00076586043 -2.488535e-05 0.00016043102 0.0023902422 -0.00020369235
0.0002281541 0.0001487456 -9.020711e-05 0.00035709227 -4.1307117e-05 0.00018553474 -4.5772056e-05 0.0005244226
6.82356e-05 -2.7668386e-07 0.0022314594 0.000636208 0.00016846314 2.5445632e-05 -7.019593e-05 0.0005420242
-0.0004926239 2.1159782e-05 0.0019523536 0.0036351217 -8.089915e-06 0.00040570708 5.600613e-05 -0.00031503898
-5.3770418e-05 0.0033516143 0.0013291639 0.0010869403 0.00022057511 0.0011567354 0.00018490976 0.002560668
-1.0814654e-05 0.0024642986 -0.0005142111 0.0035561344 6.827653e-05 -2.967179e-05 0.00026003603 0.0013913811
8.69067e-06 9.483552e-05 0.0005141064 -0.0003241331 0.00047770268 -0.00016651125 -0.00041895034 0.00026671524

gbrbm.W f4 [200, 100]
00000000: c62c 6cbb dd76 6bbb fe11 ca3b 2966 57bb
00000010: 5dc1 2f3a 9633 17bb 83be 7ebc 202e dfba
00000020: f872 973b a2b7 bbb9 e800 c7bb 6cf2 57bb
00000030: 0fa7 c53b 83d9 43bb 61b7 2ebb cd0c 093b
00000040: 6146 123b 099a 2d3a 55d2 353b 47ea 8dbb
00000050: 4285 78bb f4c9 a83b e4ad 9538 5315 cb3b
00000060: 2e02 b43b 1570 f13b d4d3 8dbb 76a4 8839
00000070: c9dd 7bbb b25b 00bc 3e03 23ba c99c 013b
00000080: 1235 d93a e7da 323b 690b 2d3a 3d24 0e38
00000090: 4b46 b7bb 2702 663b b993 5dbc c4eb e7bb
000000a0: a94b 7439 af6c 083b e532 863b fee9 273b
000000b0: badb 16ba 991a 4a3b e4bc 71bb 5ae8 653c
000000c0: eb54 a83a 9f6e 843b e63d 9abb b4bc 6b3b
000000d0: 2af5 37bb cf27 00bc e7dc d9ba b230 54bb
000000e0: 6150 ac3b 6d2a 883b eef7 a73b 21db 943b
000000f0: 4f5a caba 72bc 2137 50f8 e4ba 6ef4 663a
00000100: 6bb9 25bc faa9 5cba 1d67 603c 974f bc3b
00000110: da0c c13b 4c33 a03b 2e12 b83b 61c9 43bb
00000120: 8790 c5bb 53b8 e43b 15e8 cebb d72d 46ba
00000130: 6d5f 5ebb bef3 88ba dadd 21bb 2706 203d
00000140: 5130 433a a8fb 213a 6158 babc 21b2 d0bb
00000150: 2896 f03a 55ae 66bc 3df0 bebb e4e7 fabb
00000160: 49a5 38bc 94c5 cdba 9d79 183b 52ef d43b
00000170: 63e3 a8bb cb6a f63a 7ee6 94bb 2207 c2bb
00000180: f096 59bb 6ceb 0f3b a05b 7b3b b92c 413b
00000190: 3659 00bc 9b6c 65bb ae32 253b c228 88bb
000001a0: 61eb 5bbb 68af 96bb 9dde 28bc 0aa2 563a
000001b0: 03c4 6cba f3c3 65bb dd28 8abb 4977 8db9
000001c0: f737 993a e204 faba c51d 28ba 8bdd a3bb
000001d0: b08b aaba 0262 95ba ba23 013b 93f8 4ebb
000001e0: 18d0 373b a073 353b 59dc 86bb 3601 ecba
000001f0: 4944 a63b 0ff9 523b 07a9 2838 a0ed f23a
00000200: 9998 b9b9 91a9 afbb 7317 b23b d892 7a3b
00000210: b866 353b dc9a 483b 1c01 5d3a a259 b53a
00000220: d2c0 c13a cb7f 373b dfa4 12bc 2e92 cbba
00000230: 98da 753b c5bb 83b9 8aa8 ae3b dace 1d3b
00000240: fa09 0ebb 091a 0b3a 4dba a2ba 0924 2e3c
00000250: 2cd9 443a 2471 993a ec94 fdba ec89 3bbb
00000260: acf4 42bb c888 43bb 44a2 083b 7911 f23a
00000270: 0aef aab8 7be4 b73a 2a8f 803a ccc8 82b9
00000280: 89d7 04b9 e199 c8b8 fa96 533a 30e6 10ba
00000290: ca07 54ba 2a1d a33b ab69 cb3b bfb9 833b
000002a0: b76a dcb9 68e8 383a 4f4f 593b f75e f7bb
000002b0: 6f72 81bb dddb 363b 62e5 95bb 730a ebbb
000002c0: 4f87 14bc 2654 923b 1009 543b 78a8 863c
000002d0: 8806 243b f16b 92ba 379d 9bbc a34f 81bb
000002e0: e06c 54bb d500 67bc 43a8 8e38 8a26 88ba
000002f0: e568 e6bb 18b7 97bb 32dd 5c3a 6272 433b
00000300: 8443 ab3a a11b b53a bb11 df39 66ac dd3a
00000310: 7380 423b 7928 ed3a fba3 33ba 0063 d63b
00000320: b2fa bebb 0b9e 58bb ddd0 913a a949 5cbb
00000330: 6f80 11bb 9da0 1eb8 a94a 13bc 3362 10bb
00000340: 8882 d53b f8bd 7a3a 623b 24bb 6b97 23bb
00000350: aee8 dc3b 035c 95b8 97ed 49bb 6db3 5cbb
00000360: 602c a43a a8a0 0c3b 8383 e63b e2b5 a6bb
00000370: 83dc aa39 babd e13a eda4 c2ba 2817 923b
00000380: a88d 343b 8f20 823b 43a7 9dbb 357c b6bb
00000390: 98bd 14bb f3e6 b1bb a73b ef3a eb46 013b
000003a0: a8ca 9c3b 5729 5abb 7413 a33a 232b a63b
000003b0: 14ac 74bb e065 213c ea4b 1bbc 6e8c 99bb
000003c0: cc92 853b 6006 523b 7b97 f73b 2e56 573b
000003d0: 2318 0e3b 4557 ca3b 5ed5 a6b9 b356 613c
000003e0: 7023 8c3a e9cd 453a cb01 14bc 79dd a9ba
000003f0: 4f59 d1bb d7ac 8ebb 960a 84bb 7b39 65bb
-0.003603743 -0.0035929002 0.0061666956 -0.0032867289 0.00067045336 -0.002307152 -0.015548351 -0.0017027296
0.0046218596 -0.00035804237 -0.006073106 -0.0032950891 0.006031878 -0.0029884286 -0.0026659595 0.002091217
0.002231978 0.00066223793 0.0027743776 -0.0043309066 -0.0037921225 0.005151028 7.137263e-05 0.0061976104
0.005493424 0.0073680975 -0.0043282304 0.00026062474 -0.0038431755 -0.007834362 -0.00062184397 0.001977729
0.0016571602 0.002729112 0.00066011265 3.3889188e-05 -0.0055930964 0.0035096498 -0.013523989 -0.007077666
0.00023297839 0.0020816734 0.0040954226 0.0025621648 -0.00057547877 0.0030838607 -0.003688627 0.014032448
0.001284269 0.0040415074 -0.004707086 0.003597063 -0.0028069713 -0.007821991 -0.001662162 -0.0032377657
0.0052586053 0.004155448 0.005125991 0.0045427238 -0.0015438291 9.640224e-06 -0.0017469022 0.00088102266
-0.010115008 -0.00084176625 0.013696459 0.0057467925 0.0058914246 0.0048889276 0.0056174016 -0.002987467
-0.006029192 0.006979981 -0.0063142874 -0.0007559931 -0.003393139 -0.0010448617 -0.0024698884 0.039068367
0.00074458594 0.00061791623 -0.02274722 -0.006368891 0.0018355297 -0.01407965 -0.0058269785 -0.007657038
-0.011269876 -0.0015699142 0.0023265847 0.0064982558 -0.0051540597 0.0018800137 -0.0045440784 -0.0059212605
-0.0033201538 0.002196039 0.0038354173 0.002947612 -0.00783377 -0.003500736 0.002520721 -0.0041552493
-0.0033557045 -0.004598547 -0.010306981 0.0008187598 -0.00090318936 -0.0035059422 -0.004216297 -0.0002698249
0.0011689652 -0.0019074942 -0.00064131274 -0.005000775 -0.0013011601 -0.0011397006 0.0019705133 -0.0031581267
0.0028047618 0.0027687326 -0.004115623 -0.0018005732 0.005074058 0.0032191908 4.021174e-05 0.0018533953
-0.00035399644 -0.00536079 0.0054349243 0.0038234498 0.0027679633 0.0030609882 0.0008430646 0.0013835917
0.0014782196 0.0027999755 -0.008950441 -0.0015531236 0.0037514325 -0.00025126166 0.00533015 0.0024079592
-0.0021673427 0.0005306309 -0.0012415141 0.010628709 0.0007509168 0.0011706692 -0.001934675 -0.0028616143
-0.0029747887 -0.0029836167 0.002084867 0.0018468342 -8.150756e-05 0.0014029884 0.0009808291 -0.00024945138
-0.00012668794 -9.565405e-05 0.00080715085 -0.00055274647 -0.0008088319 0.004977842 0.006207665 0.0040199454
-0.0004204118 0.0007053674 0.0033158844 -0.0075491625 -0.003950409 0.0027902045 -0.0045744637 -0.0071728765
-0.009065463 0.0044655977 0.0032354034 0.016437754 0.0025028307 -0.0011171085 -0.018995864 -0.003946261
-0.0032413527 -0.014099319 6.802429e-05 -0.0010387462 -0.0070315474 -0.004629981 0.00084252947 0.0029822816
0.0013066386 0.0013817438 0.00042547085 0.0016912341 0.0029678612 0.0018093727 -0.0006852743 0.0065425634
-0.005828225 -0.0033053185 0.0011124868 -0.003361324 -0.0022201797 -3.781972e-05 -0.008989968 -0.0022031188
0.0065158047 0.0009565051 -0.002505981 -0.0024962078 0.006741605 -7.122012e-05 -0.003081178 -0.0033676282
0.0012525432 0.0021458063 0.0070347204 -0.0050876 0.0003258922 0.0017222681 -0.0014850177 0.004458327
0.0027550254 0.0039711664 -0.004811199 -0.005569006 -0.0022696014 -0.0054291426 0.0018252031 0.0019726108
0.0047849007 -0.00332888 0.001244171 0.0050710603 -0.0037334012 0.009850949 -0.009478549 -0.00468593
0.0040763374 0.0032047257 0.0075558997 0.0032857764 0.0021681867 0.006174954 -0.00031820958 0.013753581
0.0010691714 0.00075456366 -0.009033631 -0.0012959681 -0.0063888202 -0.0043541 -0.0040295823 -0.0034976888

gbrbm.b f4 [100]
00000000: 91ba 8dbd b714 80be c62a 8cbe c1c0 7dbe
00000010: fe40 90be 2d6f 6dbe 64cf 10bf 961f 6bbe
00000020: 29ce 6dbe c793 d5bd cd8a 85be 259d 33be
00000030: d987 5fbe 6474 83be 0275 41be d322 1dbe
00000040: 32dc 61be 20e2 04be 6dbc 9fbe f14a 81bc
00000050: a17b 88be ac10 84be 0b71 f8bd cdc6 0fbe
00000060: 1f24 8cbe 0f51 15be 83d3 b5be 364f 5ebe
00000070: 50aa 9ebe 934c 4dbe ac2c b4be 9c38 46be
00000080: 5320 82be e1b3 3dbe 0d3c 12be 0947 5ebe
00000090: f0b0 b0be c0d7 a2be 1b56 8fbe 153b 8fbe
000000a0: d3a0 60be 338b cdbd 246a 26be 0dbc b6bd
000000b0: 9c95 53be 908a 38be f208 44be e7da 40be
000000c0: e575 4fbe 8157 20be aa3e 31be 79e4 14be
000000d0: 77d6 60be 8abc 13be 92be 78be b6c6 2bbe
000000e0: 0c01 58be 4ac4 85be 1aae 3fbe 5edb cebd
000000f0: d119 10be f30d 4ebe a8b3 a5be d9f1 05be
00000100: 564f 7dbe 9e34 ddbd a482 0abe fd34 56be
00000110: bf3d 48be b7e4 12be 5805 5fbd c783 9dbe
00000120: 6948 2abe d79f 66be 5ff8 a6bd 5fce 73be
00000130: 1a64 2abe b49e 07be 4f05 66be 2508 713f
00000140: b1c5 73be 3885 93be ac2f 87bf a8c1 6cbe
00000150: 5f8f 3abe 4bce a0be 3072 5fbe aed9 21be
00000160: 053f 3abe 4f93 94be dcec 3abd 1013 41be
00000170: 6944 8bbe d686 b0be bd51 6abe 7cd4 55be
00000180: 7eaf 74be e4a4 eabd a78a 85be 4773 8bbe
-0.0692035 -0.25015804 -0.27376384 -0.24780561 -0.28174585 -0.23186941 -0.5656645 -0.22961268
-0.23223175 -0.10428577 -0.2608246 -0.17540415 -0.21829166 -0.25674736 -0.18892291 -0.15345316
-0.22056654 -0.12976885 -0.31198445 -0.015782805 -0.2665682 -0.2579397 -0.12130936 -0.1404068
-0.27371308 -0.14581703 -0.35512933 -0.21709904 -0.30989313 -0.20048742 -0.35190332 -0.19357532
-0.25415286 -0.1852565 -0.1428072 -0.21706785 -0.34509993 -0.3180523 -0.2799538 -0.27974764
-0.2193635 -0.10036316 -0.16251427 -0.089225866 -0.2066254 -0.18021607 -0.19144037 -0.18833505
-0.20259817 -0.1565838 -0.1730906 -0.1454028 -0.21956812 -0.1442739 -0.24291447 -0.16775021
-0.2109415 -0.2612632 -0.18718758 -0.10100435 -0.14072348 -0.20122509 -0.3236363 -0.13080539
-0.24737296 -0.108010516 -0.13526398 -0.20918651 -0.19554804 -0.1434506 -0.054448456 -0.307646
-0.16629185 -0.22521912 -0.08152842 -0.23809193 -0.16639748 -0.13244134 -0.22462963 0.9415305
-0.23805882 -0.28812575 -1.0561423 -0.23120749 -0.18218754 -0.3140739 -0.21820903 -0.15805694
-0.18188103 -0.29018638 -0.045636043 -0.18854928 -0.2720063 -0.34477872 -0.22882743 -0.20881838
-0.2389507 -0.11457232 -0.26082346 -0.27236387

gbrbm.mu f4 [200]
00000000: d848 dd3c 7890 3b3c e502 e63c 1604 8b3c
00000010: 991b 043c 2b8a 12bc 8e60 d43c 7606 ee39
00000020: ee69 6f3c 801e 2e3c e161 7b3c a9a1 9fbb
00000030: 4da1 6dbc 1496 d93c 5962 92ba c462 1dbb
00000040: 5810 573c f834 e33b a935 1a3c 7f3d b33b
00000050: 7c7d c9bc 4ce4 92bc 4c93 d9ba 4931 923c
00000060: 5953 47ba 4607 6e3c 83e8 923b f196 6e3c
00000070: e2fa 89bc 0b5b 0cbb 927e 25b9 2260 b63b
00000080: 5b6d 623c 30df 8f3c a06d 4ebc 1f4b 953c
00000090: 6f27 8bbb 7e2c a03c 01a9 443c f586 1abb
000000a0: 10bb fbbb 3625 8dbc a8b0 383c df6b cabc
000000b0: 9c86 7fbb 1dbe 86bc 0bb3 51bc 28e3 79bc
000000c0: ebc6 3b3c 62ad fc3b bf3d 77bc 888b 813c
000000d0: 7cbb 02bc b223 0dbb b6a1 0e3c 237b c8bc
000000e0: 0a0c b23b d5a2 40bc 4bc1 bd3c fc75 c63c
000000f0: 5c66 b73c 3780 cebc 99b0 2fbc 9e54 ee3b
00000100: 880f 7dbc a06f edbb c232 a13c f6c4 6f3c
00000110: 8b05 2e3b 9b98 dbbb 50c5 6fbb 7fd1 b6bc
00000120: 25e3 74bb 221a 123b b878 dab8 6c5a 5c3c
00000130: 7a7c 47bc c247 9fba 2b2c 243c e2ac ff3b
00000140: 77ae a83c 96c4 4aba de91 973c 4f22 b0bb
00000150: 08fa 70bc 7269 c53b e979 3cbc 77bc dbbb
00000160: 2363 cf3c e367 a43c 35fc 313b 6635 fcba
00000170: f9c0 2c3b fe46 873c 78ef 2cba 7e69 bcbc
00000180: 929e a5bc 0397 893c 3747 493c ba92 dbbb
00000190: 91ff 96bc 9ad3 ad3a 79cc 153c 8e0b 593c
000001a0: 403e 6bbc 9171 9c3c e49c 7fbb b1a6 903c
000001b0: c130 c0bc b9a0 57bc 0b58 dc3b a941 8d3c
000001c0: 85ca 533c 38dd 30bc ea1f 7bbc ec2e fb3b
000001d0: 90c0 553c 50d6 963b aa37 c63c 7900 a4bc
000001e0: 80ab 45bc 848a afbc 3865 92bc f304 c13a
000001f0: ee71 803c 4136 54bb 6c59 3bba 522a e93c
00000200: 77ba a73b 8633 693c 285f 69bc 730e fb3b
00000210: 0f1d 8abc 66d4 9d3a 6163 503b e102 a6bc
00000220: b317 8f3c a286 573c f113 c13c f3e1 5ebc
00000230: deab 45ba b608 9337 7eec 723c 8e2a 86bc
00000240: 7f6e 71bb e496 323c bcab 6c3c ab49 bb3a
00000250: 7914 633b a825 b8bc 3478 893c 4c6e 4d3b
00000260: 47f3 b13b ff12 6b3c 91fd 203c 0773 a4bc
00000270: 0860 e3bb fd84 5e3b 9fc3 ac3c a803 ea3b
00000280: 4403 ac3b f5e9 083d 15f5 acbc f0e1 32bb
00000290: c5c2 3d3c 143e 03bb 92e2 8bbc e0f0 93bc
000002a0: 20b6 a0bc 074b e13b 37ed 4a3b 5f80 933c
000002b0: 0889 b93c 50df d2bb 66e2 2ab9 b5fe 58bb
000002c0: 0e75 b6bc 3b1b 2abc 99fd 58bc 849c 663b
000002d0: 3777 c6bc 1275 713c b5e9 45bc 6f66 95bc
000002e0: 4146 03bc 8f87 343c 0aad 47bc 3a0c 343c
000002f0: dddf 6e3b 100b dbbc 00ec 683b 0b9a 483c
00000300: 1d13 d8bb d23a f9bb a97b 9ebc 1755 71ba
00000310: c308 813c b5f3 143c 9486 e739 aa2e 8f3c
0.027012274 0.011448018 0.028077552 0.016969722 0.00806322 -0.008944075 0.025924947 0.0004539971
0.014612658 0.010627389 0.01534316 -0.0048715663 -0.014503789 0.02656082 -0.0011168226 -0.0024015168
0.013126455 0.0069338046 0.009412208 0.0054699774 -0.024595968 -0.017931126 -0.0016599684 0.017845767
-0.00076036673 0.014528101 0.004483284 0.014562354 -0.016843263 -0.002141657 -0.00015782777 0.005565659
0.013820018 0.017562479 -0.012599379 0.018224297 -0.004246644 0.019552466 0.012003184 -0.0023578976
-0.0076822117 -0.017229658 0.011272587 -0.02470964 -0.0038990146 -0.016448075 -0.012799035 -0.015251912
0.011461 0.0077110985 -0.015090405 0.015813604 -0.00797927 -0.0021536169 0.008705547 -0.024472779
0.005433564 -0.011757572 0.023163458 0.024226181 0.022387676 -0.025207622 -0.0107232565 0.0072732707
-0.0154455975 -0.0072459728 0.019677524 0.0146343615 0.0026553597 -0.0067015416 -0.0036586113 -0.022316692
-0.0037366834 0.0022293408 -0.00010417536 0.013449293 -0.012175674 -0.0012152123 0.010020296 0.0078025917
0.020591004 -0.0007734982 0.018502172 -0.0053751837 -0.01470805 0.006024533 -0.011503675 -0.0067058164
0.025315827 0.020069068 0.0027158384 -0.0019241988 0.0026360138 0.016513344 -0.0006596963 -0.022999521
-0.020217214 0.01679564 0.012285045 -0.006700841 -0.01843241 0.0013261915 0.009142988 0.013247384
-0.014358103 0.019097121 -0.0039003426 0.01765761 -0.023460748 -0.013160878 0.0067243627 0.017243223
0.012926702 -0.01079493 -0.015327433 0.0076655056 0.013046399 0.0046031848 0.024196465 -0.020019757
-0.012064815 -0.021428354 -0.01787053 0.0014726206 0.015679326 -0.003238097 -0.0007146809 0.028462563
0.005118664 0.014233476 -0.014243878 0.0076616346 -0.01685956 0.0012041449 0.0031797516 -0.020265045
0.017467355 0.013154658 0.02356908 -0.013603675 -0.0007540564 1.7527822e-05 0.014826892 -0.016377714
-0.0036839542 0.010900233 0.014445242 0.0014288923 0.0034649654 -0.022478893 0.01678095 0.003134626
0.0054306122 0.014347791 0.00982608 -0.02007438 -0.006938938 0.003395378 0.021089373 0.007141549
0.0052494127 0.033426244 -0.021112958 -0.0027295314 0.011582081 -0.0020026015 -0.01707581 -0.018059194
-0.019618094 0.006875399 0.0030964145 0.018005548 0.02264835 -0.0064353123 -0.00016296803 -0.0033110802
-0.022272613 -0.010382469 -0.013244056 0.0035188505 -0.024226768 0.014737384 -0.012079646 -0.01823732
-0.008012355 0.011018648 -0.012187252 0.010989243 0.003644935 -0.026738673 0.0035541058 0.012243758
-0.0065940754 -0.007605889 -0.019346075 -0.00092061 0.015751248 0.009091307 0.00044160022 0.017478306

gbrbm.log_var f4 [200]
00000000: 908b 6ac0 674e 6cc0 571f 6bc0 6af0 6bc0
00000010: 213b 6bc0 7f0e 6cc0 a6d0 6ac0 fe9a 6bc0
00000020: 3acb 6ac0 6625 6dc0 ef90 6cc0 e788 6bc0
00000030: 11a6 6bc0 62c9 6bc0 fd20 6dc0 8bb7 6cc0
00000040: 4c7c 6bc0 9061 6bc0 fc9a 6ac0 868b 6bc0
00000050: aa03 6cc0 2c66 6bc0 4c1f 6cc0 c5e5 6bc0
00000060: af8a 6bc0 a334 6cc0 cf3d 6cc0 e704 6cc0
00000070: b96c 6cc0 5398 6bc0 e1d4 6bc0 1c6d 6bc0
00000080: 1698 6bc0 246c 6ac0 7bfa 6bc0 f39b 6ac0
00000090: 51cc 6bc0 ac24 6dc0 1c7d 6dc0 e95f 6bc0
000000a0: ca87 6bc0 9c52 6bc0 9cec 6ac0 8b32 6bc0
000000b0: 1dc3 6bc0 03cb 6bc0 12c8 6cc0 9f12 6bc0
000000c0: d663 6bc0 2bc9 6bc0 ea1d 6cc0 946a 6bc0
000000d0: 1614 6cc0 060b 6bc0 4073 6bc0 118b 6bc0
000000e0: 2171 6cc0 eed9 6bc0 4ca2 6ac0 cf9d 6ac0
000000f0: 11b6 6bc0 4853 6bc0 3e7e 6ac0 8ccf 6ac0
00000100: 3276 6cc0 367c 6bc0 6bb9 6ac0 7a2f 6cc0
00000110: 15e7 6ac0 6230 6cc0 7df3 6bc0 ee17 6bc0
00000120: ecb4 6bc0 a1bb 6bc0 95a5 6cc0 bacd 6bc0
00000130: 608d 6bc0 a074 6bc0 7020 6cc0 bcb5 6bc0
00000140: dd50 6cc0 130f 6bc0 7f3c 6bc0 3548 6cc0
00000150: 067c 6bc0 1f6e 6bc0 4d3c 6bc0 b794 6bc0
00000160: 9728 6cc0 6831 6cc0 7edc 6bc0 da26 6bc0
00000170: 34ee 6bc0 5a9f 6bc0 c859 6bc0 9d30 6bc0
00000180: 7ac3 6cc0 f1a2 6bc0 8a14 6bc0 023a 6bc0
00000190: 7ffd 6bc0 ed46 6bc0 28a9 6bc0 4ee9 6ac0
000001a0: 81ac 6bc0 099b 6ac0 43ef 6bc0 a87e 6bc0
000001b0: c3a7 6cc0 e677 6cc0 5301 6bc0 510e 6bc0
000001c0: 2cee 6ac0 1f0c 6cc0 4e63 6cc0 4513 6dc0
000001d0: 7b34 6cc0 6f13 6cc0 6ed8 6bc0 7103 6cc0
000001e0: ee69 6cc0 d5e3 6bc0 a5e7 6bc0 16c2 6dc0
000001f0: ba05 6cc0 22e9 6bc0 1205 6cc0 41b2 6bc0
00000200: 4988 6cc0 598d 6bc0 a499 6cc0 32da 6ac0
00000210: cc98 6bc0 2799 6bc0 9e6d 6cc0 0347 6ac0
00000220: 78d3 6bc0 8e9a 6bc0 4f90 6ac0 9414 6bc0
00000230: 585b 6bc0 b0ab 6bc0 c72a 6cc0 9cd3 6bc0
00000240: 6c1a 6bc0 1552 6bc0 4c4e 6bc0 e52a 6bc0
00000250: 9c16 6bc0 f55c 6ac0 2daa 6bc0 c4a8 6bc0
00000260: a9c8 6bc0 16ba 6bc0 65ed 6ac0 4d60 6bc0
00000270: ded7 6bc0 68ac 6bc0 6be4 6ac0 5dae 6bc0
00000280: f7d1 6bc0 c827 6cc0 9e29 6bc0 89ac 6bc0
00000290: 1448 6bc0 2721 6bc0 9ac2 6ac0 d5d9 6bc0
000002a0: 5a75 6bc0 939e 6bc0 beef 6ac0 10a0 6bc0
000002b0: 7053 6bc0 c916 6cc0 71a1 6bc0 c17b 6bc0
000002c0: 6c13 6cc0 42d8 6bc0 6c97 6bc0 07e9 6ac0
000002d0: 739e 6ac0 98fe 6ac0 b4d0 6cc0 960a 6bc0
000002e0: c9fc 6ac0 5435 6bc0 e4db 6cc0 4785 6bc0
000002f0: 71a9 6bc0 d946 6bc0 be29 6bc0 21fa 6cc0
00000300: b2af 6bc0 f491 6bc0 97d9 6ac0 d6a9 6cc0
00000310: 178b 6bc0 37fe 6ac0 fc91 6bc0 5a6c 6bc0
-3.6647682 -3.6922853 -3.6737878 -3.6865487 -3.675484 -3.6883848 -3.668985 -3.681335
-3.668654 -3.7054076 -3.696346 -3.6802309 -3.682011 -3.6841664 -3.7051384 -3.6987026
-3.6794615 -3.6778297 -3.6657095 -3.6803908 -3.6877236 -3.678111 -3.6894102 -3.685899
-3.6803396 -3.6907127 -3.6912725 -3.6877992 -3.694136 -3.6811721 -3.684868 -3.6785345
-3.6811576 -3.6628504 -3.687163 -3.6657684 -3.6843455 -3.7053633 -3.710761 -3.677729
-3.680163 -3.676917 -3.6706915 -3.67496 -3.6837838 -3.6842659 -3.6997113 -3.6730115
-3.6779685 -3.6841533 -3.6893258 -3.67838 -3.688726 -3.6725478 -3.6789093 -3.680363
-3.6944048 -3.6851764 -3.6661558 -3.6658819 -3.6829875 -3.676958 -3.6639552 -3.6689177
-3.694714 -3.6794562 -3.667567 -3.6903977 -3.6703541 -3.690453 -3.6867363 -3.6733356
-3.6829176 -3.683327 -3.6976063 -3.6844316 -3.6805038 -3.6789932 -3.6894798 -3.6829672
-3.6924355 -3.672795 -3.6755674 -3.6919072 -3.6794448 -3.6785963 -3.6755555 -3.6809518
-3.6899774 -3.6905155 -3.6853328 -3.6742463 -3.6864138 -3.681601 -3.6773548 -3.6748421
-3.699431 -3.6818202 -3.6731286 -3.6754155 -3.6873472 -3.676204 -3.6821995 -3.6704898
-3.6824038 -3.6657126 -3.6864784 -3.6796055 -3.6977394 -3.694818 -3.6719558 -3.6727488
-3.6707869 -3.6882398 -3.693561 -3.704301 -3.6907032 -3.6886861 -3.6850848 -3.68771
-3.6939654 -3.6857808 -3.6860135 -3.714971 -3.6878495 -3.6861043 -3.6878095 -3.6827548
-3.6958182 -3.6805022 -3.6968775 -3.6695676 -3.681201 -3.6812227 -3.6941905 -3.6605842
-3.684782 -3.6813083 -3.665058 -3.673131 -3.6774502 -3.682354 -3.690111 -3.6847906
-3.6734877 -3.676885 -3.6766539 -3.674493 -3.673255 -3.6619236 -3.6822617 -3.6821756
-3.6841223 -3.6832328 -3.6707394 -3.6777527 -3.6850505 -3.6823978 -3.6701915 -3.6825173
-3.6846902 -3.689928 -3.674415 -3.6824057 -3.6762743 -3.6738985 -3.6681275 -3.6851704
-3.6790376 -3.6815536 -3.6708827 -3.6816444 -3.6769676 -3.6888907 -3.6817286 -3.6794283
-3.6886854 -3.6850743 -3.681117 -3.6704729 -3.665921 -3.6717892 -3.7002382 -3.672521
-3.6716788 -3.67513 -3.700921 -3.6800096 -3.682217 -3.6761992 -3.6744227 -3.7027667
-3.6825986 -3.6807833 -3.6695306 -3.697866 -3.6803644 -3.671766 -3.6807852 -3.6784883

gbrbm.linear_layer.weight f4 [1, 100]
00000000: f680 493d 3ce3 163e 3855 603e 2488 b9bc
00000010: 5512 f5bd fc08 183d 9c12 253f 3b89 253d
00000020: ac17 bebd 282e 84be 17b6 633e 3e37 be3c
00000030: de75 b6bd 0454 613d 42ca 303c 51e5 08bd
00000040: 9dc5 05bd e015 1ebe 0338 f93d cc90 5cbd
00000050: b9dd 543e f812 cebc 450e 35be f639 35be
00000060: 1326 513e 3dff 12be aa61 b23d 2e36 0fbd
00000070: d0a6 423e efc1 aebd 9ea3 003e 6fa7 c03d
00000080: eba9 8e3e ccad 3a3a 90d9 01be 3065 a0bd
00000090: debc 4e3e 42eb 853e 693b 873d 4065 313e
000000a0: 609f 0b3e 57a6 80be d0bc ddbc fed0 a0bd
000000b0: 18a6 aabd 7273 ce3b 67cf 15be 0779 99bd
000000c0: 5845 10bd ef36 0dbe 0c07 d3bc 4f97 debd
000000d0: 2480 133e afda 123e 4754 3abd 49a8 08bd
000000e0: 1cbd c23d 8585 b23c a9bd 823d 251f 36be
000000f0: 2d08 b2bd b59f 8a3e d268 4b3d 446d 47bd
00000100: 5590 c83d e0a9 0ebe 6797 aebd fa75 70bd
00000110: 6679 a03c b397 38bd 6028 cbbd d835 23bd
00000120: 5071 ee3c 44a8 953d 02eb a3be ed55 5b3d
00000130: 12ce 69bc 5a52 81be 998c a5bd 436a e1be
00000140: 25be e33c 96da 973e f63d 613f d214 043e
00000150: dc9c 46bd e0ca 41bd 67a4 643d f2a1 f03d
00000160: 0e49 50bd 69de 74b9 ad4f 82be 60ec 36bd
00000170: 54a8 cf3d 7378 6fbd 1582 9e3d 2e41 353e
00000180: 44bf 0ebe 8324 4bbe bbd1 333d ed73 e63d
0.049195252 0.1473512 0.21907508 -0.022647925 -0.11966387 0.037117943 0.6448152 0.040414076
-0.09281859 -0.25816464 0.2223743 0.0232197 -0.089092 0.055011764 0.0107904095 -0.03342182
-0.03265916 -0.15438032 0.121688865 -0.053849027 0.20787705 -0.02515553 -0.17681225 -0.17697892
0.2042468 -0.14355178 0.08710034 -0.03496378 0.19008946 -0.08533084 0.12562415 0.094069354
0.27864012 0.00071212347 -0.1268065 -0.078318 0.20189235 0.2615605 0.066031285 0.1732378
0.13635015 -0.25126907 -0.027067572 -0.07852362 -0.08332461 0.0063003832 -0.14629899 -0.07493787
-0.03522238 -0.13790487 -0.025760196 -0.108687036 0.1440435 0.14341234 -0.04549053 -0.033363614
0.09508726 0.021792183 0.06383831 -0.17785318 -0.08692966 0.27074972 0.04966051 -0.04868819
0.09793154 -0.1393199 -0.085249715 -0.05870626 0.019589137 -0.045066547 -0.0991981 -0.03984627
0.029106766 0.07307485 -0.32015234 0.053548742 -0.014270322 -0.25258142 -0.080834575 -0.44026384
0.027800629 0.29658955 0.8798517 0.12898567 -0.048489437 -0.047312617 0.05582085 0.117496386
-0.05085092 -0.00023352508 -0.25451413 -0.04465902 0.10139528 -0.05846448 0.07739655 0.17700645
-0.1394015 -0.19838147 0.043901186 0.1125258
