final_project/lstm_gbrbm_H_div_2 (drop 0.1)/type2/lstm_gbrbm_W15_H100_B16.pt (torch, 201891 bytes, 9 tensors)

lstm_layer.lstm1.weight_ih_l0 f4 [400, 9]
0	0xb9d808c4	-0.0004120526
1	0xbb83d042	-0.004022629
2	0x3990f95c	0.00027651608
3	0x39aab04a	0.00032556272
4	0xb98224cf	-0.00024822957
5	0x3936ebac	0.00017444667
6	0x39ecbc91	0.0004515392
7	0x3a30e70e	0.0006748297
8	0x3a3957a0	0.0007070247
9	0x395b61b0	0.00020921859
10	0xb75ef1e6	-1.32885525e-05
11	0x39a84257	0.00032092884
12	0x3993e960	0.00028211903
13	0x3997cb78	0.0002895256
14	0x399fef99	0.00030505357
15	0x39b3ad90	0.00034270855
16	0x39b243ea	0.00034001406
17	0x399b09aa	0.00029571104
18	0xb930761b	-0.00016828666
19	0xba9914b3	-0.0011679142
20	0xba30ee39	-0.0006749365
21	0x383f973c	4.5678797e-05
22	0xba233f5c	-0.0006227398
23	0xba2eacc5	-0.0006663318
24	0xba46e077	-0.00075865485
25	0xba1b467e	-0.0005923285
26	0xb95c751d	-0.00021024463
27	0xba88a6e4	-0.0010425714
28	0xbb5b219b	-0.0033436778
29	0x3a44b5f7	0.00075039215
30	0x39ca0df3	0.00038538835
31	0x3a24bb25	0.000628399
32	0x3a511a62	0.00079766486
33	0x3a4c3e55	0.00077912706
34	0x3a1f4d37	0.00060768746
35	0x393d2fc5	0.0001804224
36	0x3a11314e	0.0005538658
37	0x3977b625	0.0002362361
38	0x3a46c205	0.0007582012
39	0x3994aa01	0.00028355423
40	0x3a3e3037	0.00072551094
41	0x3a3b7a8c	0.0007151745
42	0x3a18f64c	0.0005835041
43	0x3a28d46c	0.0006440345
44	0x39f9f33b	0.00047674202
45	0x3a36ab03	0.0006968232
46	0x3b25508c	0.0025225012
47	0x39e5709a	0.00043762178
48	0x394d83a8	0.00019599369
49	0x39f28e0c	0.0004626367
50	0x39d6ff38	0.00041007414
51	0x39d950b7	0.00041449603
52	0x399fc6af	0.00030474874
53	0xb7bd12ae	-2.2539254e-05
54	0xb95f3a0a	-0.00021288558
55	0xbbbf325f	-0.005834862
56	0xba902440	-0.0010997131
57	0xb9d5f2d6	-0.00040807453
58	0xba8b4ccf	-0.0010627749
59	0xba95c859	-0.0011427506
60	0xba8be884	-0.0010674153
61	0xba4d9b2e	-0.0007843253
62	0xb997c468	-0.00028947298
63	0x3996be51	0.00028752026
64	0xb8b5fdc7	-8.678022e-05
65	0x39766eef	0.00023501714
66	0x39300142	0.00016785137
67	0x39317ed1	0.00016927278
68	0x39218953	0.00015405314
69	0x3954348b	0.0002023747
70	0x397e930f	0.00024278111
71	0x398c287a	0.00026733038
72	0x39504632	0.00019862576
73	0xbb358f38	-0.0027703773
74	0xba3cc307	-0.0007200692
75	0xb9c8129b	-0.00038160835
76	0xba5f6ac6	-0.00085226854
77	0xba24809f	-0.00062752696
78	0xba23903a	-0.0006239448
79	0xba1cc0f0	-0.00059796777
80	0xb9b4626e	-0.0003440561
81	0xb9b1ba0f	-0.00033898695
82	0xb8133743	-3.5098998e-05
83	0xba5cf48f	-0.0008428776
84	0xb8a09efb	-7.659007e-05
85	0xba35c83f	-0.0006934441
86	0xba4cebd4	-0.00078171236
87	0xba566b07	-0.00081794005
88	0xba83b43e	-0.0010048223
89	0xba54415c	-0.00080968975
90	0xbad16dd9	-0.0015978172
91	0xbbf82c47	-0.0075736376
92	0xba286579	-0.0006423812
93	0x3aa528fa	0.0012600713
94	0xba3e0c3d	-0.00072497485
95	0xba37ad09	-0.000700668
96	0xba2d6647	-0.0006614667
97	0xb9b3a832	-0.00034266856
98	0xb956a820	-0.00020471262
99	0x3a7a3faa	0.000954623
100	0x3aaaa655	0.0013019542
101	0x38fdbb00	0.000120988116
102	0x39244dc8	0.00015669235
103	0x392b4ecd	0.00016337186
104	0x38295544	4.037215e-05
105	0x38943ab2	7.068123e-05
106	0x38d65f95	0.00010222119
107	0x37dc83af	2.6287364e-05
108	0x398039af	0.0002445704
109	0x39a4a0d7	0.00031400353
110	0x3a1982c1	0.00058559707
111	0x39beab08	0.00036367052
112	0x3a0366ad	0.00050125533
113	0x39da2530	0.00041607907
114	0x3a113c0d	0.00055402593
115	0x3a180d03	0.0005800279
116	0x3a28630f	0.0006423452
117	0xba66aff9	-0.00088000257
118	0xb9a90b9c	-0.00032242842
119	0x39253880	0.00015756674
120	0xb95fb174	-0.00021333044
121	0x37b8aeeb	2.2015962e-05
122	0x398a48bc	0.00026375602
123	0x39581c8f	0.00020610004
124	0x392ebb3f	0.00016663688
125	0x3986514c	0.00025619043
126	0xb8728d82	-5.7829086e-05
127	0xb98dade1	-0.00027023166
128	0xbab57f8d	-0.0013847217
129	0xba02afd9	-0.000498531
130	0xbaa62185	-0.0012674785
131	0xbabeedd8	-0.0014566733
132	0xbac611c0	-0.0015111491
133	0xbab22007	-0.0013589867
134	0xba89bee8	-0.0010509165
135	0x3a0c669e	0.00053558673
136	0xb878b58e	-5.9296894e-05
137	0x3aa40db5	0.0012516292
138	0x3a59bc68	0.0008305968
139	0x3aa2a6da	0.0012409345
140	0x3aa6c2e7	0.001272288
141	0x3a9261c3	0.0011168051
142	0x3a8566eb	0.0010177767
143	0x3a2301cc	0.00062182243
144	0x39d5e57d	0.00040797508
145	0x3a990871	0.0011675489
146	0xba4b8507	-0.0007763658
147	0xba155a40	-0.0005697347
148	0xba2553ea	-0.00063067547
149	0xba414a11	-0.00073734025
150	0xba48958d	-0.00076516793
151	0xba475cfe	-0.00076051045
152	0xba5a1dd6	-0.0008320486
153	0x3a37be2c	0.0007009234
154	0x3a8e8c13	0.0010875486
155	0x363e127c	2.8322966e-06
156	0x39b61e62	0.00034736382
157	0x37eceb2b	2.8242901e-05
158	0xb8c48644	-9.371017e-05
159	0xb866615b	-5.4926943e-05
160	0xb6472d27	-2.9679593e-06
161	0x385a4e8e	5.204841e-05
162	0xb9be5ded	-0.00036309604
163	0xb8e007f9	-0.000106826374
164	0xb9fdbf53	-0.00048398468
165	0xba5a34b7	-0.0008323895
166	0xba0d0ea8	-0.0005380907
167	0xb9cee6a5	-0.00039463225
168	0xb9cc9b44	-0.00039025594
169	0xb9cd39e8	-0.0003914379
170	0xb9b4ae40	-0.00034462102
171	0xb9da8da4	-0.0004168573
172	0x399d08a6	0.00029951817
173	0x3a4b887e	0.00077641744
174	0x3a7081b4	0.0009174601
175	0x3a66aaa0	0.0008799229
176	0x3a49f734	0.00077043776
177	0x3a2e00bc	0.00066376827
178	0x3a1cbccc	0.00059790607
179	0x39267849	0.00015875803
180	0xbceb54d5	-0.028726975
181	0x3bd4dc26	0.0064959703
182	0xbad73a16	-0.0016420509
183	0xbc005198	-0.0078319535
184	0xbb35d67b	-0.0027746249
185	0xbae1062a	-0.0017167975
186	0xba8a7ea1	-0.0010566303
187	0xba8e5927	-0.001086031
188	0xbac48edd	-0.001499619
189	0xb77d41f1	-1.5095328e-05
190	0x3b0725fb	0.0020622003
191	0xb8eed794	-0.00011388879
192	0x399f5801	0.0003039241
193	0x3770e02a	1.4357307e-05
194	0xb898758b	-7.269819e-05
195	0xb96a21dd	-0.00022328594
196	0xb957eb8e	-0.00020591749
197	0xb99a70c4	-0.00029457186
198	0xb8f1be02	-0.00011527167
199	0xb9c5f27b	-0.0003775543
200	0xb888c994	-6.522532e-05
201	0xb98c8161	-0.00026799276
202	0xb8860d8d	-6.392142e-05
203	0xb7a40dce	-1.9556752e-05
204	0xb8818840	-6.176578e-05
205	0xb8cdb566	-9.80895e-05
206	0xb809c04d	-3.284244e-05
207	0x39d8d3d7	0.00041356563
208	0x3b8063c4	0.003918143
209	0xb992b72b	-0.0002798376
210	0x39ec0132	0.00045014318
211	0xb9b5e66a	-0.00034694682
212	0xb99865fa	-0.00029067678
213	0xb9b08b05	-0.00033672914
214	0xb981c0e5	-0.00024748515
215	0xb93ed381	-0.00018198603
216	0x3994f242	0.00028409256
217	0xba963635	-0.0011460247
218	0x3a5b302f	0.0008361367
219	0x3a3eea57	0.0007282844
220	0x3a477d35	0.0007609905
221	0x3a3a07f8	0.00070965244
222	0x3a1f5eb0	0.0006079478
223	0x3a4aadcd	0.0007731587
224	0x3a363e33	0.00069520174
225	0x39970a7f	0.00028808785
226	0xbb3e941d	-0.0029079982
227	0x3a6e5d6b	0.00090929
228	0x3a95ba92	0.00114234
229	0x3a2f4f58	0.00066875434
230	0x3a5f121f	0.0008509475
231	0x3a2f93d6	0.00066977495
232	0x3a641425	0.00087005115
233	0x3a3e3e6d	0.0007257227
234	0xb836f9fb	-4.3624994e-05
235	0xbaabc5a2	-0.0013105164
236	0x39e7893b	0.00044161998
237	0x3973b1ca	0.00023240517
238	0x399cf303	0.00029935697
239	0x3a0b5c42	0.00053161767
240	0x39d634a9	0.00040856496
241	0x39f5a0ec	0.00046849938
242	0x3962f75c	0.00021645188
243	0xb9292f9f	-0.00016134836
244	0xb89458f2	-7.073757e-05
245	0xb94c23a9	-0.0001946824
246	0xba435627	-0.00074514974
247	0xb957ad23	-0.00020568496
248	0xb8942c52	-7.065445e-05
249	0xb908e411	-0.00013054932
250	0xb96ed1dc	-0.00022775627
251	0xb9a18305	-0.0003080593
252	0xbab64dce	-0.0013908686
253	0xbafdcde5	-0.001936373
254	0xba9c0810	-0.0011904258
255	0xb9d3bc5d	-0.00040385398

lstm_layer.lstm1.weight_hh_l0 f4 [400, 100]
0	0x329266e5	1.7043428e-08
1	0xb33e0414	-4.424153e-08
2	0x3879223f	5.939812e-05
3	0xb7975541	-1.8040302e-05
4	0x37a3d34a	1.9529503e-05
5	0x388a332b	6.5898836e-05
6	0x3686f939	4.0225245e-06
7	0x37017703	7.716709e-06
8	0x3774708c	1.4569738e-05
9	0x3799667c	1.8286744e-05
10	0xb84b8362	-4.852133e-05
11	0x37b6b292	2.1779244e-05
12	0x36fa8f93	7.467295e-06
13	0xb7ca9688	-2.4150373e-05
14	0xb7b6923e	-2.176419e-05
15	0x3798a7ef	1.8198012e-05
16	0x3897db25	7.24106e-05
17	0xb83119a6	-4.2223975e-05
18	0xb7806106	-1.530397e-05
19	0x38b4ccab	8.621191e-05
20	0x3a17a1a9	0.0005784282
21	0xb7652433	-1.3657892e-05
22	0x370c3c67	8.358714e-06
23	0xb8252c1f	-3.9380157e-05
24	0x365c13df	3.279412e-06
25	0xb741b9f7	-1.1546995e-05
26	0x36b2c312	5.3275226e-06
27	0xb7a40b4b	-1.9555582e-05
28	0x36bda343	5.651645e-06
29	0xb7fba8ee	-3.0000196e-05
30	0xb7b199e1	-2.11717e-05
31	0xb6d287cb	-6.274296e-06
32	0x389414ec	7.061087e-05
33	0xb7d38c5c	-2.521852e-05
34	0xb698a03a	-4.548606e-06
35	0x37809d04	1.5331905e-05
36	0x3740cc97	1.1491727e-05
37	0x373da388	1.1303353e-05
38	0xb8191b5f	-3.6503534e-05
39	0xb805996f	-3.1852567e-05
40	0xb7e79678	-2.7607413e-05
41	0x379a9552	1.8427763e-05
42	0xba0d287e	-0.0005384757
43	0xb833dc5a	-4.2882144e-05
44	0xb860357b	-5.345557e-05
45	0x387fccfd	6.0987648e-05
46	0x37078dc0	8.079631e-06
47	0xb6d38c10	-6.3045954e-06
48	0xb7ae8445	-2.080401e-05
49	0x37da0658	2.599058e-05
50	0xb79c3110	-1.8619496e-05
51	0xb8fb8132	-0.00011992677
52	0x3593e6d0	1.1019529e-06
53	0xb8cd39ff	-9.785964e-05
54	0xb6fa696c	-7.4628533e-06
55	0xb805b186	-3.1875003e-05
56	0xb8ef058e	-0.00011397443
57	0xb5a8041b	-1.251817e-06
58	0xb6314f7a	-2.6421317e-06
59	0xb78027e6	-1.5277368e-05
60	0xb6d7bdc4	-6.429591e-06
61	0x38f7dca9	0.00011818979
62	0xb7d7d731	-2.5730204e-05
63	0xb7345ea3	-1.075087e-05
64	0xb8445305	-4.680736e-05
65	0x36aebdbc	5.207692e-06
66	0xb672a5fc	-3.6157426e-06
67	0xb7824e3d	-1.553364e-05
68	0xb945cc24	-0.00018863432
69	0xb56d79aa	-8.8466425e-07
70	0xb7aee7c5	-2.0850342e-05
71	0xb7a4d1bf	-1.9647994e-05
72	0x3650c677	3.1109937e-06
73	0x391fc563	0.00015236954
74	0xb794e258	-1.7748374e-05
75	0x380f0a85	3.4103654e-05
76	0x37985035	1.8157161e-05
77	0xb85b87ef	-5.2340267e-05
78	0xb83b7462	-4.4692664e-05
79	0xb63af073	-2.785612e-06
80	0x383a2df6	4.438866e-05
81	0x3a0e6b2d	0.00054328406
82	0xb8ac67a7	-8.220906e-05
83	0xb782e519	-1.560389e-05
84	0x37c3cce1	2.3341216e-05
85	0xb882b442	-6.232459e-05
86	0xb7197afb	-9.148144e-06
87	0xb6723b53	-3.6095341e-06
88	0xb77f91dd	-1.5233146e-05
89	0xb890d4c6	-6.906087e-05
90	0xb7b3a2fa	-2.1414355e-05
91	0xb97f9fcb	-0.00024378223
92	0xb7e597f8	-2.7369693e-05
93	0xb6fae285	-7.476951e-06
94	0x3772c5f4	1.4470414e-05
95	0x37784b6f	1.4799515e-05
96	0xb6340394	-2.6824173e-06
97	0x386ae6e7	5.6004992e-05
98	0xb6e42fd4	-6.8004974e-06
99	0x385fd493	5.336532e-05
100	0x3662dc1e	3.380475e-06
101	0xb5822b05	-9.698275e-07
102	0x3544e915	7.335487e-07
103	0xb6693ed0	-3.4756267e-06
104	0x36199e3d	2.2890883e-06
105	0x37ad9926	2.0694522e-05
106	0xb6859c59	-3.98191e-06
107	0xb6659046	-3.4207637e-06
108	0x36b544f2	5.4022466e-06
109	0x361355fb	2.1954754e-06
110	0x36ace32a	5.152445e-06
111	0x36550549	3.174255e-06
112	0x34e3fd85	4.2466505e-07
113	0xb5035630	-4.892672e-07
114	0x35a515e5	1.229983e-06
115	0xb5f24c31	-1.805258e-06
116	0x35d25695	1.5671418e-06
117	0x34814ff3	2.4086293e-07
118	0x366c9456	3.5253083e-06
119	0x36aefbbb	5.2149094e-06
120	0x3581f0e3	9.681356e-07
121	0x35ccadb1	1.5249735e-06
122	0xb5d3edfd	-1.5789989e-06
123	0x375bee10	1.3108845e-05
124	0x34889199	2.543791e-07
125	0x372562f4	9.857806e-06
126	0xb5fe6b0e	-1.8955632e-06
127	0xb7088dc8	-8.139243e-06
128	0x363573f4	2.7038595e-06
129	0x35cd3b97	1.5291033e-06
130	0x370f5aa2	8.544566e-06
131	0x35bd8294	1.41196e-06
132	0x353e4a01	7.0888206e-07
133	0x36032e75	1.9547563e-06
134	0xb61bcc4b	-2.3215714e-06
135	0x36747cb8	3.643143e-06
136	0x35897c29	1.0243431e-06
137	0xb723040c	-9.716499e-06
138	0xb6f29c16	-7.230333e-06
139	0xb685825d	-3.978885e-06
140	0x360e1033	2.1169078e-06
141	0x362986a0	2.5261324e-06
142	0xb7372851	-1.0917037e-05
143	0xb7f2b352	-2.893215e-05
144	0x3596fbef	1.1249193e-06
145	0x364ec111	3.0808771e-06
146	0x3716d5ef	8.990507e-06
147	0xb5a61287	-1.2373356e-06
148	0xb7890137	-1.6332238e-05
149	0x36023c64	1.9406662e-06
150	0xb7346537	-1.0752402e-05
151	0x3684d8a6	3.9591278e-06
152	0xb4944fb3	-2.7625137e-07
153	0xb71d54fa	-9.377714e-06
154	0xb6c6ab97	-5.9208355e-06
155	0xb662373e	-3.370878e-06
156	0xb6ae5f16	-5.1966736e-06
157	0xb4a6e685	-3.1087635e-07
158	0x3731b0ab	1.0591156e-05
159	0xb519923e	-5.720975e-07
160	0x35e7e99a	1.7278828e-06
161	0xb702e6ed	-7.80237e-06
162	0x3422ae6a	1.5150877e-07
163	0x359b4573	1.1568612e-06
164	0xb5b228a9	-1.3273867e-06
165	0xb6a94243	-5.0443064e-06
166	0xb6db1bdb	-6.5299514e-06
167	0x36c16751	5.763876e-06
168	0x36fb97dc	7.4980617e-06
169	0xb5ab6a3d	-1.2771412e-06
170	0xb6e98ab0	-6.9600865e-06
171	0x35fc2ac1	1.8787906e-06
172	0x33d174a8	9.7535406e-08
173	0xb70b0ba3	-8.287755e-06
174	0x365161a6	3.1200266e-06
175	0x369020eb	4.2953666e-06
176	0xb6605bac	-3.343196e-06
177	0xb4a4b90e	-3.0682025e-07
178	0xb6423286	-2.8937661e-06
179	0x35579945	8.031678e-07
180	0x3403a969	1.2261957e-07
181	0xb7383455	-1.0979439e-05
182	0x363f0275	2.8462648e-06
183	0xb55116ba	-7.789164e-07
184	0xb748366c	-1.19336e-05
185	0xb5b77cf7	-1.3670932e-06
186	0x36e234d4	6.741475e-06
187	0x35c34805	1.4549593e-06
188	0xb6abc1b3	-5.1187467e-06
189	0x37f85602	2.9603954e-05
190	0x35e84d61	1.7307867e-06
191	0xb5e3d660	-1.6975209e-06
192	0x3528db2b	6.290381e-07
193	0x37f24b26	2.8883642e-05
194	0xb6c12016	-5.7555835e-06
195	0xb68506bf	-3.964494e-06
196	0x36b7d55a	5.4786624e-06
197	0x35ee0148	1.7732755e-06
198	0xb62e27fd	-2.5951297e-06
199	0x37876e7b	1.61447e-05
200	0x382a2582	4.056609e-05
201	0x3645ec96	2.9492999e-06
202	0xb88610d7	-6.3927546e-05
203	0xb738526f	-1.0986448e-05
204	0xb891657e	-6.933043e-05
205	0x371910b0	9.123396e-06
206	0x3792ea10	1.751355e-05
207	0x369c9e25	4.6675727e-06
208	0x35007e29	4.7867303e-07
209	0x359801c8	1.1325401e-06
210	0x386b23cc	5.6061705e-05
211	0xb7d41ecc	-2.528671e-05
212	0xb63432fa	-2.6851762e-06
213	0x37118345	8.673237e-06
214	0x35876753	1.0088355e-06
215	0x34d45801	3.9552108e-07
216	0xb7300e62	-1.0493766e-05
217	0xb79cf899	-1.8712411e-05
218	0x35dc7bca	1.6427305e-06
219	0xb8a44857	-7.833604e-05
220	0x38ba4120	8.8813016e-05
221	0x3830ce0d	4.215357e-05
222	0xb7828e51	-1.5563479e-05
223	0x382cb6b6	4.117816e-05
224	0xb742e25c	-1.16160045e-05
225	0x36e5597a	6.8351483e-06
226	0xb52cef7c	-6.442349e-07
227	0x331e9bb5	3.6928856e-08
228	0x37e8e902	2.7765058e-05
229	0xb6e83216	-6.9199696e-06
230	0xb81eee2c	-3.789195e-05
231	0x36abf0e4	5.1242405e-06
232	0xb8375c59	-4.3716605e-05
233	0x379fa939	1.9033077e-05
234	0x379ef273	1.8947967e-05
235	0x34a23638	3.02143e-07
236	0x37fe805f	3.0338937e-05
237	0xb89fcf72	-7.6203505e-05
238	0x379dafe8	1.8797771e-05
239	0x37642ae4	1.3599845e-05
240	0x33a2701b	7.564105e-08
241	0xb6fc704f	-7.5232597e-06
242	0x399b0722	0.00029569218
243	0x392917d4	0.00016125973
244	0x36dbf42a	6.555133e-06
245	0x38af52ab	8.3600484e-05
246	0xb81ee834	-3.788639e-05
247	0x374762b0	1.1884302e-05
248	0x3594c58c	1.1084353e-06
249	0xb487be8a	-2.5284345e-07
250	0x38094f05	3.2736938e-05
251	0x36ff3f1c	7.606939e-06
252	0x3626c8e5	2.4852864e-06
253	0x3702fe9d	7.807886e-06
254	0xb824e1be	-3.9310886e-05
255	0x36ddf46c	6.6147677e-06

lstm_layer.lstm1.bias_ih_l0 f4 [400]
0	0x3aaa0cfe	0.0012973843
1	0xb96018bf	-0.00021371523
2	0x3a414f0f	0.00073741464
3	0x3ad7fbff	0.0016478299
4	0xba1e70c5	-0.00060440256
5	0xbab54b09	-0.0013831566
6	0x3a557da5	0.00081440277
7	0xba436896	-0.0007454244
8	0x3a0780e0	0.0005169045
9	0x39e48865	0.0004358917
10	0x3b0d0439	0.002151741
11	0xbac79ba9	-0.0015228885
12	0xba0c8a76	-0.00053612085
13	0x3abdbdbd	0.0014476102
14	0x37f5d4bf	2.9305344e-05
15	0xba4d2a0c	-0.0007826395
16	0xba1e05f8	-0.0006028111
17	0xbaa2041a	-0.0012360842
18	0x39dca3d0	0.0004208372
19	0x3ac61f01	0.0015115441
20	0x3d002578	0.031285733
21	0xb99455b2	-0.00028292608
22	0xb8a3e1c5	-7.8144985e-05
23	0xb9dc9906	-0.0004207568
24	0xba5465a6	-0.0008102305
25	0x399d2a47	0.00029976873
26	0xb9ea2eb3	-0.00044666752
27	0x38e76185	0.00011033103
28	0x3b0b5b74	0.0021264227
29	0xba74ab60	-0.0009333398
30	0xba443b31	-0.0007485627
31	0xb7f6e6a3	-2.9432884e-05
32	0x3a291e84	0.00064513856
33	0xb8b62e01	-8.687005e-05
34	0x39dfc09f	0.00042677388
35	0x39e9151c	0.0004445695
36	0xba037207	-0.0005014245
37	0x397c09a4	0.00024036184
38	0x3aa20d55	0.0012363592
39	0xbab1f397	-0.0013576624
40	0x3996e6ca	0.0002878218
41	0x3af649d8	0.0018790318
42	0x3c93db7b	0.018048992
43	0xb86bc3dc	-5.6210774e-05
44	0x39ce2313	0.00039317514
45	0x3aa08201	0.0012245775
46	0xb9a39ee0	-0.00031208154
47	0xbaba5174	-0.0014214949
48	0xb71b9c77	-9.27515e-06
49	0xba916c8c	-0.0011094972
50	0x3adba8ef	0.001675872
51	0x3bba79ca	0.005690788
52	0x39cec88f	0.0003944081
53	0xba880966	-0.0010378778
54	0xb8726e58	-5.780006e-05
55	0xbadcff13	-0.0016860686
56	0x3b00d451	0.00196578
57	0x39532252	0.00020135313
58	0xba94f991	-0.001136588
59	0xba01f074	-0.000495679
60	0x38b58421	8.6553635e-05
61	0x3c006388	0.00783623
62	0xba1d77f5	-0.00060069497
63	0x39175705	0.000144329
64	0xba8b9b84	-0.0010651206
65	0xb84f7867	-4.946478e-05
66	0xb9eb4a9d	-0.00044878284
67	0x3b3769e4	0.00279867
68	0xbb46a4d5	-0.003031065
69	0xbac542bf	-0.0015049799
70	0x380016b9	3.053874e-05
71	0x39f63c1e	0.00046965567
72	0xb9f99789	-0.00047605883
73	0x3c2f3af1	0.010695205
74	0xb92c0f53	-0.00016408907
75	0xb9d371c3	-0.00040329815
76	0x392eef5f	0.00016683106
77	0x3aa039b3	0.0012224227
78	0x3b473eef	0.0030402502
79	0xbabb92cd	-0.0014310718
80	0xb97d99e6	-0.00024185292
81	0x3c6db962	0.014509531
82	0x3b98e91e	0.0046664616
83	0xb8f6e535	-0.00011772887
84	0x3a12f9af	0.0005606664
85	0x3ae007ec	0.0017092205
86	0x3916a753	0.00014367448
87	0xba3ad7ac	-0.00071274745
88	0x38a95a92	8.075418e-05
89	0xb98bfbb8	-0.0002669969
90	0xba5ae83e	-0.0008350647
91	0x3baf52da	0.005350453
92	0x3a08d0f5	0.00052191253
93	0xba1f3fac	-0.00060748565
94	0xbacf8534	-0.0015832544
95	0x3a056aef	0.0005089482
96	0x39c37ea9	0.00037287668
97	0xba918b3d	-0.0011104118
98	0xb92ec209	-0.00016666217
99	0xbb510fa7	-0.0031900199
100	0x3aa9ae09	0.0012945543
101	0xb9880988	-0.00025947043
102	0x3a486781	0.0007644818
103	0x3adde1c4	0.0016928245
104	0xba140276	-0.00056461187
105	0xbab92dcd	-0.001412803
106	0x3a5a9549	0.0008338285
107	0xba3e4ea1	-0.00072596414
108	0x3a01456c	0.0004931304
109	0x3a020c4d	0.00049609394
110	0x3b151a12	0.0022751135
111	0xbac4f4fa	-0.0015026622
112	0xb9be575c	-0.00036304712
113	0x3abca0c5	0.0014391175
114	0x3881e3a6	6.193602e-05
115	0xba16fbcb	-0.0005759566
116	0xba180263	-0.00057986955
117	0xba9c57ea	-0.0011928056
118	0x39df05d1	0.00042538208
119	0x3ac7ee61	0.0015253538
120	0x3d06fe8f	0.03295761
121	0xb928dc63	-0.00016103829
122	0xb88c22e3	-6.6822184e-05
123	0xb9b46c5e	-0.00034413015
124	0xba3f9930	-0.00073088985
125	0x3a02b7a1	0.0004986469
126	0xb92269af	-0.00015488894
127	0x39151096	0.00014215926
128	0x3b107d82	0.0022047465
129	0xba62f4b1	-0.00086576777
130	0xba39d0f5	-0.0007088327
131	0xb7e52cd7	-2.7319807e-05
132	0x3a407eb2	0.0007343098
133	0xb8a8b369	-8.044282e-05
134	0x39ee2e8b	0.00045429575
135	0x39ff5e1c	0.00048707507
136	0xb9da8e76	-0.00041686342
137	0x39bf2fbc	0.00036465924
138	0x3aa5c189	0.0012646179
139	0xba9860c5	-0.0011625519
140	0x39e0e8fb	0.00042898193
141	0x3af0b394	0.0018364065
142	0x3c985348	0.0185944
143	0x37e30889	2.7064483e-05
144	0x39ed4207	0.00045253357
145	0x3aae85e0	0.0013315044
146	0xb9ad1b27	-0.0003301736
147	0xbab18e17	-0.0013546374
148	0xb7c94f08	-2.3997869e-05
149	0xba96da2b	-0.0011509111
150	0x3afe21bb	0.0019388715
151	0x3bbfa128	0.0058480687
152	0x39bd804f	0.00036144487
153	0xba80270e	-0.0009777264
154	0x38848b80	6.3202344e-05
155	0xbad36961	-0.0016129428
156	0x3b080119	0.0020752607
157	0x3967c585	0.00022103458
158	0xba87ecfd	-0.0010370311
159	0xb9ea60bd	-0.00044704034
160	0xb7548c69	-1.26688765e-05
161	0x3c024995	0.007952114
162	0xba0218a9	-0.0004962781
163	0x3953338c	0.00020141731
164	0xba89d0fd	-0.0010514554
165	0x36f2e411	7.2387124e-06
166	0xb9cc7837	-0.0003899948
167	0x3b44adb4	0.0030010762
168	0xbb386905	-0.0028138768
169	0xbac01d22	-0.001465712
170	0x38895d44	6.550041e-05
171	0x39cd3e95	0.00039147274
172	0xba095f81	-0.00052403664
173	0x3c32caad	0.0109125795
174	0xb8d1e3aa	-0.00010008302
175	0xb9917aab	-0.0002774795
176	0x394e6906	0.00019684815
177	0x3aac4d01	0.0013145508
178	0x3b47425a	0.003040454
179	0xbab08c0c	-0.0013469472
180	0xb98ae189	-0.00026489448
181	0x3c770b37	0.015078357
182	0x3b9c7ee1	0.0047758673
183	0xb8533fbb	-5.0365674e-05
184	0x3a2c805c	0.00065804063
185	0x3adb0669	0.0016710284
186	0x38f161a5	0.00011509963
187	0xba1dd437	-0.0006020697
188	0x390dd5b7	0.00013526423
189	0xb9821f7d	-0.00024818993
190	0xba605ffc	-0.00085592247
191	0x3bb25787	0.005442563
192	0x3a1650ab	0.00057340664
193	0xb8baa290	-8.899451e-05
194	0xbad3a233	-0.0016146362
195	0x3a4e0576	0.000785909
196	0x39480f4c	0.00019079185
197	0xba90bc3b	-0.0011042425
198	0xb92de51a	-0.00016583913
199	0xbb525bdb	-0.0032098207
200	0xbc351bd1	-0.011053995
201	0x3923323d	0.00015563607
202	0x3c115512	0.00887038
203	0x3c77abc8	0.015116639
204	0xbbf2f23b	-0.00741413
205	0xba863fc2	-0.001024239
206	0x3c69b103	0.014263394
207	0xbb73502b	-0.0037126641
208	0xbc5739ea	-0.013136366
209	0xbb5489f1	-0.0032430852
210	0xbc89b2de	-0.016808923
211	0xbb0eb4f5	-0.002177534
212	0xbb57179b	-0.0032820466
213	0xbbe17f8e	-0.006881661
214	0xbb2a1a75	-0.002595571
215	0x3be4400c	0.006965643
216	0xbba0b687	-0.0049045715
217	0x3a1becf5	0.000594809
218	0xbbf775e1	-0.007551894
219	0x3bf142fb	0.007362721
220	0xbc454ff4	-0.012042988
221	0xbbff8709	-0.00779808
222	0x3b0105fc	0.0019687405
223	0xb91a0cfe	-0.00014691424
224	0xbb98ec53	-0.004666844
225	0xbc42fab0	-0.011900589
226	0x3bf6b6bb	0.0075291074
227	0x3c060f02	0.008182289
228	0xbc1383d2	-0.009003596
229	0xbb72afce	-0.0037031057
230	0xbc196bca	-0.009364078
231	0x3a9890e9	0.0011639866
232	0x3b5e72dc	0.0033942973
233	0xbc0dc16a	-0.008652071
234	0x3bb337eb	0.0054693124
235	0xbc01bd95	-0.007918735
236	0xbbc03100	-0.0058652163
237	0x3cb7a05f	0.022415338
238	0xbb8eba70	-0.004355721
239	0x3bbf3a53	0.00583581
240	0xbbcb0e75	-0.006196792
241	0x3c210afb	0.009829278
242	0xbaf70a73	-0.0018847719
243	0xb73b2f46	-1.1157075e-05
244	0xbbc5d783	-0.006037654
245	0xbc4fc3f3	-0.012680995
246	0xbba75a87	-0.0051072272
247	0xbab53412	-0.0013824722
248	0x3bfab4ce	0.007650948
249	0xbb9eb654	-0.0048435125
250	0x3ccee40a	0.025255222
251	0xbcb0f8e5	-0.021603057
252	0xbbab9a8e	-0.00523693
253	0x38bb947e	8.944514e-05
254	0x3ca813cc	0.020517252
255	0x3b0e8d40	0.0021751672

lstm_layer.lstm1.bias_hh_l0 f4 [400]
0	0x3aaa0cc1	0.0012973772
1	0xb96cc5a2	-0.00022580338
2	0x3a57f6b5	0.00082383613
3	0x3ad7dea2	0.0016469548
4	0xba1f7440	-0.0006082691
5	0xbab4230a	-0.0013743353
6	0x3a55a672	0.00081501075
7	0xba377386	-0.00069981103
8	0x39f4cbec	0.0004669124
9	0x39d61881	0.00040835518
10	0x3b101238	0.0021983515
11	0xbac96aea	-0.0015366946
12	0xb9f213db	-0.0004617263
13	0x3ac30cec	0.001488117
14	0x37f5b60b	2.9291046e-05
15	0xba63dfb0	-0.0008692695
16	0xba1bc176	-0.00059416087
17	0xbaa0320a	-0.0012221944
18	0x39dba647	0.0004189482
19	0x3ac62557	0.0015117329
20	0x3d0024e8	0.031285197
21	0xb994559e	-0.0002829255
22	0xb8a9ccc2	-8.096687e-05
23	0xb9dad1d1	-0.00041736526
24	0xba505a9a	-0.0007948071
25	0x39e10416	0.00042918388
26	0xb9de9992	-0.00042457558
27	0x38ba6dac	8.889599e-05
28	0x3b0a610d	0.0021114976
29	0xba7315dc	-0.00092729717
30	0xba34abda	-0.0006892063
31	0xb75a59d9	-1.3014732e-05
32	0x3a1c83f1	0.00059705885
33	0xb8b49f12	-8.612698e-05
34	0x39dad726	0.00041740498
35	0x39fbac72	0.00048002932
36	0xb9e106e0	-0.00042920467
37	0x396b5543	0.00022443109
38	0x3aa20af5	0.0012362885
39	0xba8a0b28	-0.0010531889
40	0x39975eae	0.00028871506
41	0x3af7cc36	0.0018905464
42	0x3c93d9f0	0.018048257
43	0x38c85c77	9.553966e-05
44	0x39cfa67c	0.00039606157
45	0x3aa0b74b	0.0012261657
46	0xb9ab48a5	-0.00032669786
47	0xbab82601	-0.0014049412
48	0xb851679a	-4.992597e-05
49	0xba9268a6	-0.0011170104
50	0x3adbac25	0.0016759677
51	0x3bba9c46	0.005694899
52	0x39c58d13	0.00037679877
53	0xba87ed54	-0.0010370412
54	0xb8727c67	-5.7813155e-05
55	0xbadd4deb	-0.0016884183
56	0x3b0138a2	0.0019717594
57	0x39745360	0.00023300713
58	0xba9c99d9	-0.0011947706
59	0xb9c83445	-0.00038185916
60	0x3826f698	3.9807142e-05
61	0x3c0042da	0.007828439
62	0xb9b68a5f	-0.0003481684
63	0x3887936c	6.464761e-05
64	0xba8f48e6	-0.001093176
65	0xb89c0fab	-7.441578e-05
66	0xb9b6a6c1	-0.00034837986
67	0x3b37ed48	0.0028065015
68	0xbb46a692	-0.0030311686
69	0xbac6a123	-0.0015154224
70	0x38023689	3.1045205e-05
71	0x39990855	0.00029188642
72	0xba087d1c	-0.0005206631
73	0x3c30e0c7	0.010795779
74	0xb91afdfa	-0.00014781198
75	0xb96134bb	-0.00021477316
76	0x39290c42	0.00016121662
77	0x3a9dc9df	0.0012038312
78	0x3b479d94	0.0030458914
79	0xbabe79a6	-0.0014532104
80	0xb98340f1	-0.00025034652
81	0x3c6db2c1	0.01450795
82	0x3b9b4fa6	0.0047397194
83	0xb96d98a6	-0.00022658947
84	0x3a284007	0.0006418232
85	0x3ade6d71	0.0016969872
86	0x394ada8e	0.00019345639
87	0xba3b196b	-0.00071372715
88	0xb75b9b4c	-1.3089575e-05
89	0xb99cd8e3	-0.00029916232
90	0xba60dcf0	-0.0008577844
91	0x3bafe76a	0.005368163
92	0x3a1a88ba	0.00058950076
93	0xba1f4a5c	-0.0006076449
94	0xbae154bf	-0.0017191394
95	0x3a25732a	0.0006311411
96	0x399d5817	0.00030011006
97	0xbaa169f1	-0.0012314898
98	0xb9321736	-0.0001698405
99	0xbb4fa5d3	-0.0031684532
100	0x3aaa2d14	0.0012983405
101	0xb981968d	-0.00024716966
102	0x3a401f78	0.0007328908
103	0x3ad7b81a	0.0016458065
104	0xba1a0896	-0.0005875913
105	0xbab9257c	-0.0014125551
106	0x3a5bf8fe	0.000839129
107	0xba3e47d0	-0.00072586257
108	0x3a05bffb	0.00051021547
109	0x39e17d58	0.00043008733
110	0x3b166641	0.0022949132
111	0xbac1a0cc	-0.0014772653
112	0xb9a874b6	-0.00032130413
113	0x3abab49a	0.0014244497
114	0x3840aa31	4.593487e-05
115	0xba587e0c	-0.00082585285
116	0xba144625	-0.00056562043
117	0xba9e39e2	-0.0012071694
118	0x39dd7d2b	0.00042245662
119	0x3ac75841	0.0015208797
120	0x3d06fe40	0.032957315
121	0xb932070c	-0.00016978028
122	0xb880e6d3	-6.14651e-05
123	0xb9aa1b78	-0.00032445393
124	0xba3cac36	-0.0007197292
125	0x39b90efb	0.0003529711
126	0xb9bc9a30	-0.00035973033
127	0x390d5f07	0.00013482208
128	0x3b0d4f44	0.0021562139
129	0xba60574b	-0.00085579295
130	0xba2db6d5	-0.00066266704
131	0xb7b9c000	-2.2143126e-05
132	0x3a432683	0.00074443984
133	0xb8b40743	-8.5844214e-05
134	0x39ca404c	0.00038576347
135	0x3a0b594d	0.0005315736
136	0xb9ee57db	-0.00045460355
137	0x39b9453f	0.00035337542
138	0x3aa8e2f2	0.0012885018
139	0xba97aea0	-0.0011572428
140	0x39e10bac	0.0004292404
141	0x3af54675	0.0018713014
142	0x3c9858b1	0.018596979
143	0xb89405ad	-7.058247e-05
144	0x39eda1ec	0.00045324804
145	0x3ab02f9a	0.0013441921
146	0xb9ac01a6	-0.00032807625
147	0xbaab5ef6	-0.0013074565
148	0xb90d57f7	-0.00013479577
149	0xba959b1b	-0.0011414023
150	0x3afe202f	0.0019388254
151	0x3bbe1e08	0.00580192
152	0x39dfea98	0.0004270866
153	0xba822ede	-0.000993218
154	0x3883448a	6.259333e-05
155	0xbad3741e	-0.0016132628
156	0x3b09cedd	0.002102784
157	0x390b38ed	0.0001327728
158	0xba984c60	-0.0011619441
159	0xb9cf0cbf	-0.00039491613
160	0x387fa94e	6.0954415e-05
161	0x3c022a1e	0.007944612
162	0xba1cd334	-0.00059823995
163	0x39554174	0.00020337646
164	0xba8ab018	-0.0010581044
165	0x372e1524	1.037613e-05
166	0xb9d7c494	-0.00041154458
167	0x3b44c4ee	0.0030024606
168	0xbb37cd1d	-0.002804584
169	0xbac443d5	-0.0014973829
170	0x3886b650	6.423576e-05
171	0x39e4af38	0.00043618097
172	0xba00838e	-0.00049024157
173	0x3c338699	0.010957384
174	0xb8dcfeef	-0.000105379026
175	0xb92921a7	-0.00016129632
176	0x39570464	0.00020505633
177	0x3ab3056b	0.0013658231
178	0x3b35a292	0.0027715308
179	0xbaadfedc	-0.0013274807
180	0xb9890591	-0.00026134824
181	0x3c7708d2	0.0150777865
182	0x3b9f3ab5	0.0048592933
183	0xb852b20c	-5.023372e-05
184	0x3a413f1a	0.00073717686
185	0x3adc000a	0.001678468
186	0x3941637f	0.0001844298
187	0xba35bc30	-0.0006932644
188	0x39812009	0.00024628665
189	0xb98152db	-0.0002466653
190	0xba60668b	-0.0008560202
191	0x3bb263e9	0.005444039
192	0x3a00e9e7	0.00049176667
193	0xb8cad431	-9.671634e-05
194	0xbad0d876	-0.0015933651
195	0x3a145a3d	0.00056591985
196	0x39beee0d	0.00036416986
197	0xba9252f2	-0.0011163636
198	0xb92e0137	-0.00016594386
199	0xbb429fd7	-0.0029697323
200	0xbc351b19	-0.011053824
201	0x3923caa3	0.0001562038
202	0x3c11556d	0.008870465
203	0x3c77b16f	0.015117987
204	0xbbf2f279	-0.007414159
205	0xba858b1d	-0.0010188554
206	0x3c69b0a3	0.014263305
207	0xbb72eca4	-0.0037067318
208	0xbc5739f7	-0.0131363785
209	0xbb548552	-0.0032428098
210	0xbc89bedd	-0.016814644
211	0xbb0e9dab	-0.0021761458
212	0xbb570d3c	-0.0032814285
213	0xbbe172df	-0.006880149
214	0xbb2a26ff	-0.0025963185
215	0x3be4400c	0.006965643
216	0xbba0d41b	-0.0049080974
217	0x3a1bdb46	0.0005945455
218	0xbbf77981	-0.007552326
219	0x3bf142ed	0.0073627145
220	0xbc454b87	-0.012041933
221	0xbbff926a	-0.0077994363
222	0x3b010d88	0.0019691903
223	0xb91a4c05	-0.00014714904
224	0xbb98f837	-0.0046682614
225	0xbc42faa3	-0.011900577
226	0x3bf6b6bb	0.0075291074
227	0x3c061d04	0.008185629
228	0xbc13821f	-0.009003191
229	0xbb726754	-0.0036987858
230	0xbc196641	-0.009362758
231	0x3a986e40	0.0011629537
232	0x3b5e62d9	0.003393343
233	0xbc0df7e8	-0.0086650625
234	0x3bb31220	0.005464807
235	0xbc01bd71	-0.0079187015
236	0xbbc02f23	-0.005864994
237	0x3cb7c013	0.022430455
238	0xbb8eba42	-0.0043556998
239	0x3bbf3989	0.005835716
240	0xbbcb0e36	-0.0061967624
241	0x3c210b2d	0.009829325
242	0xbaf97533	-0.001903212
243	0xb763b45d	-1.35722485e-05
244	0xbbc5de0e	-0.006038434
245	0xbc4fc3dd	-0.012680975
246	0xbba75846	-0.0051069586
247	0xbab51d0b	-0.001381786
248	0x3bfab291	0.0076506813
249	0xbb9eb5ad	-0.004843435
250	0x3ccf26ff	0.02528715
251	0xbcb0ebca	-0.021596808
252	0xbbab9a5e	-0.005236908
253	0x38bdccbd	9.050358e-05
254	0x3ca83d72	0.020537112
255	0x3b0eb89d	0.0021777519

gbrbm.W f4 [100, 50]
0	0x3b634efc	0.003468453
1	0xbb085cde	-0.0020807306
2	0xba96c575	-0.0011502939
3	0x3acbc824	0.0015547317
4	0xba6a239d	-0.00089316984
5	0x3886ad68	6.421917e-05
6	0xbad3a3b7	-0.0016146813
7	0xba8357fc	-0.0010020728
8	0x3acc6c14	0.0015596175
9	0xb9b6ada6	-0.00034843123
10	0xbb14a65a	-0.002268216
11	0x3bb11009	0.005403523
12	0xb9036389	-0.00012530213
13	0xbb031d08	-0.0020006318
14	0xbb1b95d0	-0.0023740418
15	0x3b4ab6e6	0.003093177
16	0xb9cd5629	-0.0003916484
17	0x3872b917	5.7869674e-05
18	0x3b5129f5	0.0031915877
19	0x3abe31aa	0.0014510651
20	0x3aacf44b	0.0013195364
21	0xbb05bc43	-0.0020406402
22	0xba55c73a	-0.0008154992
23	0x3aac8a5e	0.0013163795
24	0x3a8073c0	0.0009800121
25	0xb9487e76	-0.00019120597
26	0xba80c376	-0.0009823877
27	0xbb818ceb	-0.0039535663
28	0x39a05d44	0.00030587066
29	0x3adb9f16	0.0016755785
30	0xba939c44	-0.0011261781
31	0x3b2b4c91	0.0026138166
32	0xbabced6f	-0.0014414022
33	0xb95346d3	-0.00020148912
34	0x3aa4449b	0.0012532653
35	0xbb0d5fd8	-0.002157202
36	0xba83c6a9	-0.0010053712
37	0x3b223e7a	0.0024756477
38	0x39f3cc00	0.00046500564
39	0x3b5eaa21	0.0033975916
40	0x399f26ad	0.0003035566
41	0xba1be8b9	-0.0005947459
42	0x39986500	0.0002906695
43	0xba91aa79	-0.0011113427
44	0xbaa9d263	-0.0012956377
45	0xba18a5af	-0.00058230286
46	0x39be4543	0.00036291228
47	0xbb10b0e8	-0.00220781
48	0x3b6e3af5	0.003635106
49	0xba2bd765	-0.00065552286
50	0xba5fafac	-0.0008532952
51	0x3a6fe697	0.0009151487
52	0x3a91ba16	0.001111808
53	0x39118bff	0.0001388043
54	0xb7ad7979	-2.0679772e-05
55	0xbb22eb26	-0.0024859398
56	0xba09746c	-0.00052434835
57	0x3b1c729d	0.0023872026
58	0x3a560848	0.0008164686
59	0xb76f10c0	-1.424941e-05
60	0x3a4886cf	0.00076494826
61	0xba172afb	-0.00057665975
62	0x3acfc155	0.0015850464
63	0x39e429e8	0.0004351877
64	0xba99fd8c	-0.0011748536
65	0x3a9ce558	0.0011970205
66	0xbab5732d	-0.0013843529
67	0x3a50876f	0.00079547515
68	0x3a0b7d06	0.0005321059
69	0x3ab738a3	0.0013978671
70	0x3a69a068	0.0008912147
71	0xbb8e658f	-0.004345603
72	0xb940bac7	-0.00018380127
73	0x3aba828c	0.001422958
74	0x39ce57ce	0.000393568
75	0xbb720034	-0.003692639
76	0xbb0c2e40	-0.0021389872
77	0x3a32687b	0.000680573
78	0xb8d37e2e	-0.00010084767
79	0x3b6eb2ac	0.0036422415
80	0x3a1e63c5	0.00060420885
81	0x3a93f8ac	0.001128932
82	0x3a86345a	0.0010238991
83	0xb92d6277	-0.00016535247
84	0xba471dd1	-0.00075956905
85	0x39988b1c	0.00029095344
86	0xba8e2be4	-0.0010846821
87	0xbad752d9	-0.0016427889
88	0x3b0cc304	0.0021478543
89	0x396ef1be	0.00022787505
90	0xbad1aa4a	-0.0015996185
91	0x3b50f9d7	0.0031887197
92	0xb9c7638f	-0.00038030415
93	0x3a8ac025	0.0010585828
94	0xba63810c	-0.0008678592
95	0xb912d0d1	-0.00014001435
96	0x3aa34cfe	0.0012458859
97	0x3af3d8cd	0.001860404
98	0x3ace28da	0.0015728727
99	0xbaeb90b7	-0.0017972206
100	0xbb9916a8	-0.0046718903
101	0x3b157ab8	0.0022808742
102	0xbadb3a7a	-0.0016725801
103	0xbb6959d1	-0.0035606513
104	0xbb22a1ce	-0.0024815681
105	0x399b95fd	0.00029675654
106	0xbb06b4c1	-0.0020554515
107	0x39aae5db	0.00032596182
108	0x3b19fecc	0.0023497818
109	0x38fc8514	0.00012041084
110	0xb961dc55	-0.00021539752
111	0xba080f28	-0.0005190247
112	0x39aad959	0.00032586863
113	0xbabcac78	-0.0014394661
114	0x3b1089fa	0.0022054897
115	0xbb81c90f	-0.0039607356
116	0xba87a825	-0.0010349794
117	0xba581474	-0.0008242794
118	0xb8740b38	-5.818458e-05
119	0xba6019a4	-0.00085487426
120	0xbb3d6694	-0.0028900253
121	0xbb18cd76	-0.0023315824
122	0xb9f1186e	-0.00045985304
123	0xba4cef53	-0.00078176445
124	0xbb7fcbca	-0.003903138
125	0xbad2e51b	-0.0016090007
126	0xba9234f6	-0.00111547
127	0xbaa52da3	-0.0012602102
128	0xbb1c4093	-0.00238422
129	0xb9e17d9a	-0.00043008925
130	0x3a4be9ac	0.0007778655
131	0x3abf793f	0.0014608278
132	0x3aa7b3ec	0.001279471
133	0xbb2c629c	-0.0026303893
134	0xbadeabc5	-0.0016988447
135	0x3a25a823	0.0006319305
136	0xbb258734	-0.002525759
137	0xbb1d6263	-0.0024014942
138	0xbac82564	-0.0015269932
139	0x3b3aac83	0.0028484173
140	0x3a332d8b	0.00068350945
141	0x3a00c46a	0.00049120805
142	0x3ad273c6	0.0016056232
143	0xbbaba81e	-0.005238547
144	0xbb7b6129	-0.0038357473
145	0x39a10831	0.00030714416
146	0x37a6c293	1.9879348e-05
147	0x393765d9	0.00017490181
148	0xb91313a3	-0.00014026328
149	0x3a33667d	0.000684358
150	0xbb5e9251	-0.0033961723
151	0xbac04e32	-0.0014671742
152	0xbb2eca7b	-0.002667098
153	0xbaa70b6d	-0.0012744494
154	0xbb861c45	-0.0040927255
155	0x3a8677e0	0.0010259114
156	0xb999be63	-0.00029324283
157	0x388cc1a7	6.711791e-05
158	0xbabe9d0a	-0.0014542651
159	0x392e4360	0.00016619032
160	0xbb42f039	-0.0029745235
161	0xbabd5cac	-0.0014447174
162	0xbbb2da67	-0.0054581645
163	0xba9e75f5	-0.0012089597
164	0xb8fa6e8f	-0.00011941522
165	0xbb197abb	-0.00234191
166	0xbb4e8659	-0.0031513183
167	0xbab23b53	-0.0013598002
168	0xbb1527f7	-0.0022759417
169	0xb981903c	-0.0002471226
170	0x36bfa076	5.7109237e-06
171	0xbb1aea74	-0.002363828
172	0xbababe5a	-0.0014247403
173	0x3a6746ec	0.0008822519
174	0xbb99b67d	-0.0046909438
175	0xbb7adb3b	-0.0038277644
176	0x3aed4d78	0.0018104753
177	0xba81d96b	-0.0009906715
178	0xbaadbe4f	-0.0013255569
179	0xbb621b85	-0.0034501266
180	0xbb0ae153	-0.0021191433
181	0xbad60152	-0.0016327298
182	0xb8bd46e5	-9.0254274e-05
183	0x38edff94	0.00011348646
184	0xbad76baf	-0.001643529
185	0x3b03b88f	0.002009902
186	0xbb8159ef	-0.0039474885
187	0xbb21869a	-0.002464688
188	0xbb3818eb	-0.0028091024
189	0xbb9601d6	-0.0045778556
190	0xbb3e5c73	-0.0029046803
191	0xb8c5218a	-9.399939e-05
192	0xb9c6a1e4	-0.0003788612
193	0x3a2a087e	0.0006486251
194	0xbb65f4d9	-0.0035088568
195	0xbaa2a40f	-0.0012408512
196	0xbb5df1a5	-0.0033865955
197	0x39dce4c1	0.00042132105
198	0xbb354272	-0.0027658013
199	0xb9cd336e	-0.00039138965
200	0xba8313dc	-0.0010000425
201	0xba92ef11	-0.0011210163
202	0x3a481997	0.0007633208
203	0x3a01d8c4	0.000495326
204	0xba2a0d31	-0.0006486951
205	0xb9415b47	-0.00018439918
206	0xba718c23	-0.00092143024
207	0xbb4f2002	-0.0031604772
208	0x3b0908b1	0.0020909721
209	0xba814c94	-0.0009864741
210	0xbb5593d5	-0.0032589335
211	0x38f17a20	0.00011514523
212	0xbb4a5b31	-0.0030877108
213	0xbbc1f29d	-0.0059188143
214	0xb856acf7	-5.1182662e-05
215	0x3b646e64	0.0034855837
216	0x3abcf24f	0.0014415475
217	0xb9b57809	-0.00034612443
218	0xba4539f4	-0.00075235893
219	0xbae4d237	-0.0017457668
220	0xb989b3ce	-0.0002626464
221	0x3b27f8e3	0.0025630526
222	0xbb4e48e5	-0.0031476554
223	0xbb72d229	-0.0037051535
224	0xb97b4741	-0.0002396377
225	0x39ac841a	0.0003290482
226	0x3a506079	0.0007948946
227	0xba617236	-0.00086000876
228	0xbb304461	-0.0026896226
229	0x394f71ab	0.00019783403
230	0xbb9b0f27	-0.004732031
231	0x3a8f002c	0.0010910085
232	0x3a3f5194	0.0007298228
233	0xbb91ad83	-0.004445733
234	0xbb08b325	-0.0020858732
235	0x3a5e252f	0.0008474169
236	0xba29756b	-0.0006464335
237	0x3afb90cf	0.0019192937
238	0xba11ea46	-0.00055662205
239	0x3aa29836	0.0012404982
240	0xb9536aa9	-0.00020162262
241	0x3a82d48a	0.0009981554
242	0xba653151	-0.00087430055
243	0xbae63672	-0.0017563833
244	0x3b087f4a	0.0020827823
245	0xb78d65a7	-1.6855845e-05
246	0x3b088d58	0.00208362
247	0xba1ee5ba	-0.00060614536
248	0x3ae038d1	0.0017106776
249	0xbb0c6070	-0.0021419786
250	0x3b18aae8	0.0023295227
251	0x3b1956f2	0.002339777
252	0x3a954c40	0.0011390522
253	0xbb8259af	-0.0039779763
254	0x39dfd938	0.00042695715
255	0x3a85ca7e	0.0010207442

gbrbm.b f4 [50]
0	0xbf77ab89	-0.96746117
1	0x3f939a26	1.1531417
2	0xbf521c62	-0.8207456
3	0xbf68891d	-0.9083422
4	0xbf4b426d	-0.7939823
5	0xbf73ab03	-0.9518282
6	0xbf661138	-0.89870024
7	0xbf59edd3	-0.85128516
8	0xbf88872e	-1.0666254
9	0xbf7d6ad7	-0.9899115
10	0xbf72129c	-0.94559646
11	0xbf56b21a	-0.8386551
12	0xbf694f19	-0.9113632
13	0xbf78009c	-0.9687593
14	0xbf1f9967	-0.6234345
15	0xbf367777	-0.7127604
16	0xbef201bf	-0.47266957
17	0xbf7d559f	-0.9895877
18	0xbf54dca6	-0.8314918
19	0xbf49946f	-0.78742117
20	0xbf3a70e4	-0.7282851
21	0xbf45e9d8	-0.7730994
22	0xbf586ce5	-0.8454116
23	0xbf59e1cf	-0.8511018
24	0xbf5cee7e	-0.8630141
25	0xbf2f0f6a	-0.68382895
26	0xbf46063c	-0.7735326
27	0xbdd5e955	-0.10444895
28	0xbf2b3536	-0.6687807
29	0xbf2da7d6	-0.6783422
30	0xbf618ea1	-0.8810826
31	0xbf76ce79	-0.964088
32	0xbf82ba63	-1.0213131
33	0xbf6cc433	-0.92486876
34	0xbf7ab7a6	-0.97936475
35	0xbf58af06	-0.84642065
36	0xbf55abb7	-0.8346514
37	0xbf82064e	-1.0158174
38	0xbf2f983b	-0.6859166
39	0xbf733b05	-0.9501193
40	0xbf6c777f	-0.92369837
41	0xbf097841	-0.5369912
42	0xbf636407	-0.88824505
43	0xbf50aede	-0.81516826
44	0xbf7ff215	-0.9997876
45	0xbf70d7f0	-0.94079494
46	0xbf4d4ca3	-0.80195063
47	0xbf8679d1	-1.0505925
48	0xbf62d04f	-0.88599104
49	0xbeffbe80	-0.49950027

gbrbm.mu f4 [100]
0	0xbc63dac9	-0.013907143
1	0x3a890fa7	0.0010456935
2	0x3c8fe41a	0.017564822
3	0x3d05012a	0.032471813
4	0xbb65990a	-0.0035033845
5	0xbc40de00	-0.011771679
6	0x3cb1d4a3	0.021707838
7	0xbc096b2f	-0.008387371
8	0xbc83a60d	-0.01607039
9	0xbc11b2d3	-0.008892733
10	0xbceb71de	-0.02874082
11	0x3b914f75	0.004434521
12	0x3b4649c0	0.003025636
13	0xbc27caab	-0.010241191
14	0xbba940ab	-0.0051651797
15	0x3ba5cb1a	0.005059612
16	0x3af1732a	0.0018421162
17	0x3c100ec6	0.008792585
18	0xbc57fc97	-0.013182781
19	0x3c9f0548	0.019411698
20	0xbddfe444	-0.1093221
21	0xbce3b8b3	-0.027798032
22	0x3bfc6b96	0.007703255
23	0xbc86672f	-0.016406624
24	0xbc3e2d95	-0.011607547
25	0xbcab5203	-0.02091313
26	0x3c915b75	0.017743805
27	0x3c127c0f	0.008940711
28	0xbc65c6f3	-0.014024484
29	0xbad7db10	-0.0016468484
30	0xbc7faeef	-0.015605672
31	0xba937303	-0.0011249486
32	0x3c8a919c	0.016915135
33	0xbc68d297	-0.014210365
34	0x3c15ae7d	0.0091358395
35	0xbc785d6e	-0.015158994
36	0xbcb61b3c	-0.022229783
37	0x3d168cf6	0.036755525
38	0xbc0529bb	-0.008127625
39	0x3c1fca10	0.009752765
40	0xbc333cb8	-0.010939769
41	0x3c9e829d	0.01934939
42	0xbd8fabf6	-0.07015221
43	0xbb337954	-0.002738555
44	0xbc975cc9	-0.01847686
45	0xbcf9082f	-0.03039941
46	0xbc0fac71	-0.008769141
47	0xbbad3022	-0.005285279
48	0x3c571f83	0.013130072
49	0xbb9b693f	-0.004742771
50	0x3c52884d	0.012849879
51	0xbd489675	-0.048971612
52	0xbbc73ed6	-0.0060804887
53	0xbc47c47b	-0.012192841
54	0x3cd36be8	0.02580829
55	0xbb805807	-0.0039167437
56	0xbca9db5d	-0.020734483
57	0xba21172a	-0.00061451143
58	0xbb8ad1d7	-0.0042364406
59	0xbb14faa8	-0.002273241
60	0xbc2f359a	-0.010693932
61	0x3d4f89fc	0.0506687
62	0x3c4c8486	0.012482768
63	0xbc12ed5a	-0.008967722
64	0x3aa12e7f	0.0012297182
65	0x3cb5620f	0.022141485
66	0xbb55b0e0	-0.0032606646
67	0xbcb098bb	-0.021557203
68	0xbba38d7f	-0.004991233
69	0x3c3c5af3	0.011496293
70	0x3ba78765	0.005112576
71	0xbc3c9459	-0.011509978
72	0xba9596bf	-0.0011412724
73	0xbd5512d2	-0.0520199
74	0xbc2b5f06	-0.010459667
75	0xbbfb2573	-0.0076643764
76	0x3c9713bd	0.01844203
77	0x3cc5952a	0.024118979
78	0x3c8ab470	0.016931742
79	0xba9b8f36	-0.0011868242
80	0xbbd89a91	-0.0066102226
81	0xbd41d5cd	-0.047323037
82	0xbcf59e08	-0.029982582
83	0xbc3c4bf2	-0.011492716
84	0x3c829dfb	0.015944472
85	0xbae1db23	-0.0017231446
86	0x39120338	0.00013924844
87	0x3a0453b6	0.00050478743
88	0x3bdcb7d6	0.006735782
89	0x3c0a113c	0.008426961
90	0xbc4304c8	-0.011902995
91	0x3d2f2f86	0.04276993
92	0xbc14131b	-0.009037758
93	0xbd3b34e2	-0.04570473
94	0x3c86af88	0.016441122
95	0xbbe81065	-0.0070820325
96	0xbc3a081b	-0.011354472
97	0xbb0c10da	-0.002137235
98	0x3c036ab2	0.008021044
99	0x3a81b289	0.0009895127

gbrbm.log_var f4 [100]
0	0xc0e80c4e	-7.251502
1	0xc0e83969	-7.257008
2	0xc0e7a6c2	-7.239106
3	0xc0e56861	-7.1689916
4	0xc0e6eeb3	-7.216638
5	0xc0e68039	-7.203152
6	0xc0e6d619	-7.213635
7	0xc0e6feed	-7.218619
8	0xc0e767f6	-7.2314405
9	0xc0e8312e	-7.2560034
10	0xc0e66332	-7.199609
11	0xc0e82046	-7.2539396
12	0xc0e7a356	-7.2386885
13	0xc0e83b20	-7.2572174
14	0xc0e86544	-7.2623615
15	0xc0e85cb8	-7.261318
16	0xc0e6d35e	-7.2133017
17	0xc0e807b5	-7.250941
18	0xc0e6cdbe	-7.212615
19	0xc0e6b7ce	-7.209937
20	0xc0be92ed	-5.9554353
21	0xc0e6c824	-7.211931
22	0xc0e855c2	-7.2604685
23	0xc0e734d7	-7.2252
24	0xc0e7e05d	-7.246138
25	0xc0e7b231	-7.240502
26	0xc0e7d637	-7.2448993
27	0xc0e61ded	-7.191153
28	0xc0e75653	-7.2292876
29	0xc0e6f6aa	-7.2176104
30	0xc0e7c14c	-7.242346
31	0xc0e8c45a	-7.2739687
32	0xc0e7e55e	-7.246749
33	0xc0e51623	-7.158952
34	0xc0e7a816	-7.2392683
35	0xc0e7abb0	-7.239708
36	0xc0e5c38a	-7.1801195
37	0xc0dfdcf2	-6.995721
38	0xc0e7bde5	-7.2419305
39	0xc0e84905	-7.2589135
40	0xc0e819a8	-7.253132
41	0xc0e69de2	-7.206773
42	0xc0cb9ecf	-6.363136
43	0xc0e71fd5	-7.2226357
44	0xc0e6bb5b	-7.2103705
45	0xc0e52bd1	-7.1615987
46	0xc0e808e7	-7.2510867
47	0xc0e84b97	-7.2592273
48	0xc0e813b0	-7.2524033
49	0xc0e7843b	-7.2348914
50	0xc0d5e304	-6.683962
51	0xc0e3d23e	-7.1194143
52	0xc0e831bf	-7.2560725
53	0xc0e7b48f	-7.240791
54	0xc0e28b31	-7.079491
55	0xc0e663ad	-7.1996675
56	0xc0e6f9a8	-7.2179756
57	0xc0e8a09a	-7.2696047
58	0xc0e86ce4	-7.2632923
59	0xc0e7800f	-7.234382
60	0xc0e79e6c	-7.2380886
61	0xc0e43460	-7.1313934
62	0xc0e8f4b3	-7.2798705
63	0xc0e80d97	-7.251659
64	0xc0e7b238	-7.240505
65	0xc0e7515a	-7.2286806
66	0xc0e899ef	-7.2687907
67	0xc0e79f6d	-7.238211
68	0xc0d63203	-6.693605
69	0xc0e7dceb	-7.2457175
70	0xc0e81236	-7.252223
71	0xc0e87c5e	-7.2651815
72	0xc0e61c80	-7.190979
73	0xc0e80fa9	-7.2519116
74	0xc0e81e76	-7.2537184
75	0xc0e7cc74	-7.2437077
76	0xc0e6ef82	-7.216737
77	0xc0e625bc	-7.1921062
78	0xc0e7e109	-7.24622
79	0xc0e76cd6	-7.2320356
80	0xc0e7dc9d	-7.2456803
81	0xc0c8c37f	-6.2738643
82	0xc0e78112	-7.2345057
83	0xc0e82821	-7.2548985
84	0xc0e784b7	-7.2349505
85	0xc0e73c55	-7.2261147
86	0xc0e8bed5	-7.273295
87	0xc0e79bf8	-7.237789
88	0xc0e82878	-7.25494
89	0xc0e6a5f6	-7.207759
90	0xc0e7a9a2	-7.239457
91	0xc0e5bd8f	-7.1793895
92	0xc0e92845	-7.2861657
93	0xc0db8448	-6.8598976
94	0xc0e75bc9	-7.2299542
95	0xc0e84512	-7.2584314
96	0xc0e83468	-7.2563972
97	0xc0e8436a	-7.2582293
98	0xc0e70a45	-7.2200036
99	0xc0e7bcc7	-7.241794

gbrbm.linear_layer.weight f4 [1, 50]
0	0x3e5c0fd8	0.21490419
1	0xbf1b089b	-0.60560006
2	0xbdac1ff5	-0.08404533
3	0x3e50a8e7	0.20376931
4	0x3cee42b7	0.029084546
5	0x3e93163e	0.28727907
6	0x3e7034a7	0.23457585
7	0x3e869300	0.26284027
8	0x3db7a831	0.08967627
9	0x3e2c6f6f	0.16839384
10	0x3e73641a	0.23768654
11	0xbb98f13e	-0.00466743
12	0x3e466f6c	0.19378442
13	0x3ddf9ba8	0.10918361
14	0xbd1c2c42	-0.038128145
15	0x3dee80f4	0.116456896
16	0xbe08e76e	-0.13369533
17	0x3edb8757	0.42876694
18	0xbb9fff73	-0.004882747
19	0x3e8125fa	0.25224286
20	0xbc0c3aa4	-0.008558903
21	0xbda43a6b	-0.08018955
22	0xbd96a24f	-0.07355177
23	0x3ea37411	0.3192449
24	0x3e13d90b	0.14438264
25	0xbd61b9c5	-0.055108804
26	0x3bd193a6	0.006395775
27	0xbec3483a	-0.38141042
28	0x3e3433de	0.17597911
29	0x3dd575ed	0.10422883
30	0x3e670bed	0.22563143
31	0x3c41a2a5	0.011818563
32	0x3eb1b1c0	0.34705925
33	0x3e43a0db	0.1910433
34	0x3e70e51f	0.23524903
35	0x3e8a3743	0.26995286
36	0x3e2b14bf	0.16707133
37	0x3eb94160	0.3618269
38	0xbb202172	-0.0024433997
39	0xbd699aa4	-0.057032242
40	0x3e452585	0.19252594
41	0xbc08f6ef	-0.008359655
42	0x3d2a19d3	0.041528534
43	0xbcdbc6d3	-0.026828205
44	0x3e61e018	0.22058141
45	0x3d64e26c	0.055879995
46	0x3dd53a73	0.10411539
47	0x3e31f7bd	0.17379661
48	0x3de52c5c	0.111901015
49	0xbcef080d	-0.029178644
