final_project/gru_gbrbm_H_div_2 (drop 0.2*o.2)/type1/gru_gbrbm_W5_H100_B16.pt (torch, 165777 bytes, 9 tensors)

lstm_layer.lstm1.weight_ih_l0 f4 [300, 16]
000000 4b 69 07 b9 d9 31 eb b9 bf 98 00 b9 ac 45 ff 38
       -0.00012913828 -0.00044859832 -0.00012263934 0.00012172325
000010 e1 8e bc b8 c1 fd 0a 39 c9 42 22 38 54 23 f6 37
       -8.991152e-05 0.00013255236 3.868601e-05 2.9341936e-05
000020 8a 98 81 37 bc 53 40 39 ab b4 02 39 e2 10 5b 39
       1.544903e-05 0.0001834174 0.0001246507 0.00020891757
000030 8b 5f 86 b9 a4 b7 53 b8 e0 26 0e b9 ff fc dc b9
       -0.00025629657 -5.047735e-05 -0.00013556657 -0.00042150167
000040 bc 41 12 39 e0 c2 0e 39 9e 89 9f 38 d8 92 e1 b8
       0.00013948133 0.00013614772 7.607344e-05 -0.00010756188
000050 c0 21 4b b5 cc 78 94 b8 ff af b3 b6 90 d4 3f b7
       -7.5672506e-07 -7.07969e-05 -5.3551043e-06 -1.1433978e-05
000060 8f 6a 24 b8 ff 94 d1 37 e5 a3 c8 36 d1 ea bc b8
       -3.9199887e-05 2.4984123e-05 5.9795443e-06 -9.0082765e-05
000070 84 56 d5 b7 fc f7 a3 b8 a4 af 0d 38 bd 54 8c 37
       -2.5431866e-05 -7.8186364e-05 3.3780598e-05 1.672876e-05
000080 b5 4e 32 ba ef f9 66 ba 90 9b 56 b9 05 51 e6 38
       -0.00068018894 -0.0008811047 -0.00020466582 0.00010982346
000090 3b f7 e0 b7 2f 2d e5 38 59 f8 29 38 84 72 5b b8
       -2.6818007e-05 0.00010927987 4.052403e-05 -5.232032e-05
0000a0 07 42 99 38 29 de 31 b8 c5 ba 05 39 e5 bf 44 38
       7.307907e-05 -4.240699e-05 0.00012753445 4.6908757e-05
0000b0 12 ba 51 38 d6 ff cf 38 1d fe 12 ba de ba 9a b9
       5.0002775e-05 9.918182e-05 -0.0005607324 -0.00029512396
0000c0 35 07 3b b9 a3 60 e4 b9 07 cf 51 b9 52 3e ca 39
       -0.00017836395 -0.0004355955 -0.00020008917 0.00038574875
0000d0 09 74 be 39 16 45 90 39 8b 9e 40 b9 39 99 c2 b9
       0.00036326077 0.00027517293 -0.00018369609 -0.00037116723
0000e0 a7 8f 09 39 6e 4c 0e 3a 4e 88 e0 38 d7 2d 7e 39
       0.00013118853 0.0005428259 0.00010706541 0.00024240404
0000f0 b2 fb 19 ba ad 8a b6 39 63 86 50 b9 6e 9e e5 b9
       -0.00058739923 0.00034817067 -0.00019886489 -0.00043796323
000100 84 d8 35 39 b0 f0 65 38 88 ab 16 39 c0 20 93 39
       0.00017342163 5.4822012e-05 0.00014369015 0.00028062426
000110 48 81 91 39 67 88 30 3a ac 8c ad 39 a7 71 33 3a
       0.00027752877 0.0006734193 0.0003310194 0.00068452436
000120 3a 81 67 39 79 e0 61 b9 e3 98 32 b9 81 00 e9 39
       0.00022078017 -0.00021541295 -0.00017032358 0.000444416
000130 57 d3 0b 39 83 89 3e 38 f5 a6 af 36 85 56 3e 39
       0.00013334803 4.5427598e-05 5.234843e-06 0.00018152043
000140 60 04 ac b8 a9 b4 87 b7 1b d7 27 b8 11 ad f3 37
       -8.202414e-05 -1.617738e-05 -4.0016235e-05 2.9048448e-05
000150 be 2b 1c 38 12 8c 12 38 23 a7 45 37 33 e3 65 38
       3.7234036e-05 3.4939563e-05 1.178103e-05 5.480945e-05
000160 c8 8c 0a 38 28 17 70 38 7f c3 b0 36 6a 0f f8 37
       3.3032877e-05 5.7242025e-05 5.2679675e-06 2.9571082e-05
000170 9b 40 2b 38 7c ec 90 37 81 f3 bb b8 0c 70 a0 b8
       4.0829746e-05 1.727626e-05 -8.962211e-05 -7.650265e-05
000180 54 cf 86 39 41 0e a8 39 97 0a 9e 39 85 c1 4e b8
       0.00025712943 0.00032054077 0.00030143998 -4.9294456e-05
000190 9f 71 f9 36 c4 0a c8 b7 a8 db 8f b7 3d 90 47 38
       7.4340055e-06 -2.3846871e-05 -1.7149214e-05 4.757963e-05
0001a0 f8 b7 bd b7 06 7b 3d 39 d5 73 57 b8 06 26 40 b8
       -2.2616223e-05 0.00018070274 -5.136787e-05 -4.581178e-05
0001b0 73 8e 2b b9 a8 2d a8 37 13 f3 b0 39 6f a9 ec 39
       -0.00016360897 2.0048421e-05 0.0003375044 0.00045139666
0001c0 18 58 72 b8 c0 39 5f b8 aa 59 2f b9 21 7b 87 37
       -5.777934e-05 -5.3221127e-05 -0.00016722703 1.615059e-05
0001d0 e7 90 c3 38 e7 93 81 38 99 6a 08 39 ee 51 95 38
       9.325315e-05 6.178748e-05 0.00013009681 7.120134e-05
0001e0 52 45 27 38 87 8b f7 b7 7d ee 10 38 c1 b5 25 38
       3.9880462e-05 -2.9509667e-05 3.4554385e-05 3.9508337e-05
0001f0 e6 45 84 37 8c fe b2 37 ab ef 2f b9 ce 8d 2e b8
       1.5768175e-05 2.1337786e-05 -0.00016778584 -4.16169e-05
000200 38 05 bd b9 88 9a 8c b9 6a d7 15 ba dd c8 61 39
       -0.00036052777 -0.00026818016 -0.0005715998 0.000215325
000210 ad f1 17 39 e0 cb dc 39 e8 11 a7 39 ae dd 82 b7
       0.00014490513 0.0004211357 0.00031866063 -1.5600435e-05
000220 15 a3 a2 36 c2 49 87 39 29 a4 42 38 23 00 1c 3a
       4.8469615e-06 0.0002580416 4.640609e-05 0.0005950948
000230 7e c9 82 b9 e2 2c 8c 39 54 be a1 b9 9e dd 35 ba
       -0.00024945656 0.0002673632 -0.00030850118 -0.00069376256
000240 a0 9b ab 36 3c b9 42 36 95 b8 a9 b7 5a 27 4e 37
       5.1143143e-06 2.9016073e-06 -2.0232323e-05 1.2287719e-05
000250 41 03 0d 37 a0 ee 02 38 cc 78 9d 37 26 4e 68 38
       8.4050125e-06 3.1216652e-05 1.8772109e-05 5.538589e-05
000260 32 a5 0f 37 98 d0 d6 37 0b 26 89 35 33 8e 19 37
       8.561927e-06 2.5607922e-05 1.0218367e-06 9.152619e-06
000270 2d 31 bd b6 ce 53 c2 36 0b fa dc 36 37 2d f1 36
       -5.6383637e-06 5.7914067e-06 6.5856198e-06 7.1876234e-06
000280 34 3d 03 39 5d 5e 69 38 41 7a 29 39 f9 ef 06 39
       0.00012515933 5.563941e-05 0.00016162639 0.00012868633
000290 fb 99 00 39 f5 39 09 b9 88 3f 59 38 1c fd 5b 37
       0.00012264393 -0.00013086929 5.1796e-05 1.3112349e-05
0002a0 5d 5d 4d b8 5a b7 5e 38 99 8f 24 38 ad 4d e1 38
       -4.896276e-05 5.3099684e-05 3.9234383e-05 0.00010743304
0002b0 4a 2c 3a b9 c5 ea d3 38 f7 70 3a 39 61 5d 11 39
       -0.00017754841 0.00010104993 0.00017780425 0.00013863064
0002c0 5e f1 52 ba 14 53 59 ba 93 69 5b ba 2e 07 ac 38
       -0.0008046831 -0.00082902727 -0.0008369919 8.2029364e-05
0002d0 5c 2b 8f 37 7c 01 5f 39 0b f7 bb 39 c2 02 19 b8
       1.706712e-05 0.0002126749 0.0003585148 -3.648061e-05
0002e0 96 59 aa 37 f8 49 04 3a bf c3 af b8 13 5b c6 39
       2.0307296e-05 0.00050464226 -8.381111e-05 0.00037833359
0002f0 10 10 3d ba 81 10 ac 39 f6 0e 52 ba 3c 54 44 ba
       -0.00072121713 0.00032818693 -0.00080130936 -0.00074893585
000300 30 c8 d8 37 1f 1b b3 37 d7 f3 a4 37 94 10 4b b7
       2.5842426e-05 2.1351092e-05 1.966387e-05 -1.2103603e-05
000310 42 56 8a b7 3f db 55 b8 c2 fd 37 b8 1d 5f 94 b5
       -1.6491049e-05 -5.0987346e-05 -4.386693e-05 -1.1054541e-06
000320 d9 11 0c b8 8e f8 8a b5 0d 53 c4 36 ca 32 13 b8
       -3.3395223e-05 -1.035414e-06 5.8509236e-06 -3.5094832e-05
000330 c0 90 31 b6 bc 49 93 b7 f3 14 9c 37 d2 9c 63 37
       -2.645931e-06 -1.75581e-05 1.8606404e-05 1.3566767e-05
000340 3f c1 20 39 00 e4 1e 39 ce ce 8a 38 ba ab b1 b8
       0.00015330779 0.00015152991 6.618873e-05 -8.472004e-05
000350 60 a8 66 37 5b 33 fe 37 05 6b a1 b8 6e 2f d2 38
       1.3748271e-05 3.0303074e-05 -7.697012e-05 0.00010022415
000360 25 ac 4f b8 1a cc 82 38 04 fe a2 b6 c3 ad 67 37
       -4.9512968e-05 6.2369e-05 -4.8575475e-06 1.380913e-05
000370 f5 ff f5 b8 ec f5 c5 37 eb 77 84 38 32 89 d7 38
       -0.00011730186 2.3598746e-05 6.316587e-05 0.000102775535
000380 ed c7 2d 3a e9 f8 30 3a ce ff 37 3a c5 ac 35 39
       0.00066292175 0.00067509577 0.0007019014 0.00017325867
000390 9a cb a4 38 e0 f6 08 b8 94 14 e4 38 7d c3 74 b9
       7.858053e-05 -3.2654847e-05 0.0001087572 -0.00023342478
0003a0 63 e2 50 39 8a f7 a5 39 31 11 70 38 f3 e6 04 39
       0.00019920761 0.00031655683 5.723647e-05 0.00012674536
0003b0 10 2f 1d ba c8 99 9f 39 c0 a9 d4 39 b0 91 43 39
       -0.00059960876 0.0003044142 0.00040562265 0.00018650922
0003c0 c8 25 08 3a 6a 75 28 3a 10 92 29 3a 21 2a ec b8
       0.0005193618 0.00064261875 0.00064686034 -0.00011261204
0003d0 e9 97 16 b9 f4 cb 8b b9 09 ca 1c b9 5f e0 71 b8
       -0.00014361706 -0.00026664103 -0.00014952583 -5.766784e-05
0003e0 ba 49 0f b9 b5 85 b2 39 8c 9a 0c 37 4f 9d a1 b8
       -0.00013665008 0.00034050425 8.3806335e-06 -7.706379e-05
0003f0 f8 fc 36 b9 e6 b3 cb b5 ec 26 30 39 b6 02 2a 3a
       -0.00017451111 -1.5177036e-06 0.00016799167 0.00064853893

lstm_layer.lstm1.weight_hh_l0 f4 [300, 100]
000000 9f 04 8f 36 97 a3 ae b4 04 7e 19 36 49 66 72 b6
       4.26227e-06 -3.2529053e-07 2.2872127e-06 -3.6120348e-06
000010 62 bc 1e 36 8c 0f 48 35 2b 5d 44 b6 aa ed 86 36
       2.3653488e-06 7.452843e-07 -2.9260507e-06 4.021179e-06
000020 34 38 ea b6 c1 99 0a 37 a1 e7 b7 36 d4 20 3e 36
       -6.9802863e-06 8.26124e-06 5.48079e-06 2.8331315e-06
000030 19 5f 60 b6 f4 1a b5 35 d8 42 39 b7 29 de 5f b6
       -3.3433955e-06 1.3493395e-06 -1.1042423e-05 -3.3358904e-06
000040 48 9d 0f 37 04 d8 35 b6 d4 4b 8f b6 4e 03 ae 34
       8.560084e-06 -2.709684e-06 -4.2705597e-06 3.241243e-07
000050 4a 13 89 36 c4 bd a2 b5 c2 d4 5e 36 8b fc 1d b6
       4.0851637e-06 -1.212517e-06 3.320442e-06 -2.3541822e-06
000060 18 90 b0 36 ab 8e d9 35 d6 ca a3 37 e1 fc 21 b4
       5.2619835e-06 1.6209282e-06 1.9525567e-05 -1.508629e-07
000070 61 17 19 37 ef a9 2a b7 07 60 1a b5 48 b8 b9 36
       9.124954e-06 -1.0172355e-05 -5.750921e-07 5.534883e-06
000080 5c 08 1d 37 b0 bd 7e 36 1d 91 ae b6 c5 05 14 36
       9.359876e-06 3.7959362e-06 -5.2024975e-06 2.2057077e-06
000090 fd 84 15 b7 a5 ba 2d b7 97 42 2c 33 cc bc 77 37
       -8.912056e-06 -1.035506e-05 4.0107434e-08 1.4766305e-05
0000a0 46 0b 38 34 49 2a 22 b7 f7 95 4d 37 84 d4 c5 b7
       1.7140437e-07 -9.665798e-06 1.2253869e-05 -2.358319e-05
0000b0 46 8d 66 36 08 b2 0e b7 37 50 9c 36 d3 57 57 35
       3.4354903e-06 -8.505311e-06 4.6585005e-06 8.022154e-07
0000c0 22 3f aa b4 68 a2 9b b6 cd 7e fc b6 97 7b 0a 38
       -3.1710903e-07 -4.6382665e-06 -7.524947e-06 3.3016866e-05
0000d0 d3 ae d0 b6 c8 8a 4f b6 74 81 46 37 82 4d c8 36
       -6.2192353e-06 -3.0926185e-06 1.183186e-05 5.9694876e-06
0000e0 3d 50 ea 36 27 87 5d b6 ac dc e7 b6 77 5a 85 36
       6.9830844e-06 -3.3010235e-06 -6.910026e-06 3.9742404e-06
0000f0 a4 60 cf b6 95 b9 f0 36 35 42 6f 36 ef 97 0e b6
       -6.180331e-06 7.174162e-06 3.5652313e-06 -2.1248086e-06
000100 8b d0 e8 36 e9 48 aa b6 f1 19 42 37 7c 17 78 b6
       6.9384164e-06 -5.0748827e-06 1.1569341e-05 -3.696855e-06
000110 64 cb 1f 36 41 35 fb b5 d7 d0 0a 37 bc 30 67 b4
       2.3811235e-06 -1.8716456e-06 8.274065e-06 -2.1531281e-07
000120 f3 10 0c 36 7f a9 16 b7 fb e9 bc 36 0b b2 a2 36
       2.0871491e-06 -8.980161e-06 5.6300755e-06 4.848703e-06
000130 87 6a cd b7 fb 0b 65 36 3d ad 50 b5 5c aa 09 b7
       -2.448751e-05 3.4130633e-06 -7.7738133e-07 -8.205501e-06
000140 dc cd 23 36 54 18 04 37 25 36 9b b6 12 ab c1 36
       2.4408719e-06 7.873477e-06 -4.625663e-06 5.7717634e-06
000150 32 4d d6 37 07 f3 c8 b6 9b e5 05 b7 67 1f 0b b7
       2.5546735e-05 -5.9887566e-06 -7.980877e-06 -8.292357e-06
000160 8c 86 4f 36 22 99 36 b3 2b d6 62 36 ee e2 93 b7
       3.092372e-06 -4.251445e-08 3.3801286e-06 -1.7629438e-05
000170 19 0a c0 b6 1f d9 76 36 ac 90 24 b7 79 ec 66 b6
       -5.7232214e-06 3.6783238e-06 -9.808846e-06 -3.4410316e-06
000180 59 86 db b3 b5 39 a8 35 2a 78 b2 b6 f0 b3 14 36
       -1.022242e-07 1.253377e-06 -5.3188023e-06 2.2158456e-06
000190 75 9b 89 b4 b0 cd d9 33 5c 8c ba b4 05 f4 a6 b6
       -2.5631348e-07 1.0142264e-07 -3.4747325e-07 -4.975593e-06
0001a0 51 e8 60 b5 e9 a2 90 b4 7e ce 88 35 10 ff 07 34
       -8.378457e-07 -2.6940623e-07 1.0192887e-06 1.2665646e-07
0001b0 5f 13 8d 35 66 39 bc b5 f3 4d 03 b6 2f c8 ef b5
       1.0510956e-06 -1.4023797e-06 -1.9565894e-06 -1.7865149e-06
0001c0 ac 7d df 34 ca 5c 17 b4 78 fd 85 34 0d 4d 0f 34
       4.1628425e-07 -1.4096727e-07 2.4957603e-07 1.3345944e-07
0001d0 24 dd 62 b5 27 d0 74 35 3b d2 03 b6 b6 49 73 b5
       -8.451336e-07 9.1199985e-07 -1.9642891e-06 -9.063182e-07
0001e0 2d 86 06 b5 b9 22 88 b5 ca 7a 9d b5 b3 51 72 35
       -5.011414e-07 -1.0142895e-06 -1.1733148e-06 9.0270913e-07
0001f0 32 bd 3f 36 96 d1 c6 33 52 ed 88 b6 da 75 8a 35
       2.8571344e-06 9.258217e-08 -4.0807436e-06 1.03161e-06
000200 6c 47 71 b6 4d fb 2b 35 70 6a 1e b5 7b 16 dd b3
       -3.5953371e-06 6.4068155e-07 -5.9014474e-07 -1.02952036e-07
000210 65 ae 1c b5 ed 5f 82 b1 b9 0c 4d 36 ea 7c bb b4
       -5.8368306e-07 -3.7944035e-09 3.0554786e-06 -3.492235e-07
000220 02 cc 36 36 c2 8d 1e 36 b8 d3 da 33 1b 61 7b 36
       2.7238862e-06 2.3626349e-06 1.01899275e-07 3.7458437e-06
000230 24 ca d2 35 34 cf 98 36 03 ee 4c b6 f0 77 b6 36
       1.570505e-06 4.5540746e-06 -3.053691e-06 5.4379852e-06
000240 c7 d4 bb 34 3d 51 8b 35 c1 24 54 b5 67 41 36 35
       3.498628e-07 1.037995e-06 -7.902964e-07 6.7895456e-07
000250 3a ec 92 b5 c2 2a 50 35 a9 a9 2d b5 fb d7 92 b6
       -1.0946599e-06 7.754826e-07 -6.469441e-07 -4.3762825e-06
000260 4c a5 f1 b4 75 7f 68 35 4b fc ae b5 37 7e 2b b6
       -4.5010017e-07 8.661221e-07 -1.3037437e-06 -2.5554452e-06
000270 74 fc c9 b6 39 15 2d b5 4b 9b 3b 36 cb df 98 b6
       -6.019656e-06 -6.4478405e-07 2.7955564e-06 -4.556006e-06
000280 72 84 2d b0 90 94 de 34 39 d6 ba b6 dd 2a 1f b4
       -6.312525e-10 4.1458816e-07 -5.5681708e-06 -1.4823623e-07
000290 aa 88 54 b4 9c 15 db 34 3d fc cb b4 05 5c 12 35
       -1.9793757e-07 4.0807652e-07 -3.7995224e-07 5.4523144e-07
0002a0 99 0d ff b5 dc 97 e0 35 ee 32 21 35 2a e5 6a b5
       -1.9002938e-06 1.6733497e-06 6.0051286e-07 -8.750527e-07
0002b0 16 23 04 35 3a 3b 5b 36 00 4b 84 36 f6 3c 92 35
       4.922489e-07 3.2668017e-06 3.9426377e-06 1.089559e-06
0002c0 aa 22 a7 b6 5c 8e 3a 35 d2 cb 34 b6 ff 72 a8 35
       -4.9810233e-06 6.949756e-07 -2.694073e-06 1.2550444e-06
0002d0 26 7e 0f 34 1b e4 19 b2 33 61 8c b5 08 ee 22 b6
       1.3363805e-07 -8.957637e-09 -1.0459102e-06 -2.4278434e-06
0002e0 a9 aa 55 b6 af f5 2a 34 fa 7a 37 b5 6b 86 3b 35
       -3.183881e-06 1.5921863e-07 -6.8351767e-07 6.985853e-07
0002f0 a2 e0 ff b3 ce d8 c5 b5 c2 26 75 b6 82 44 c1 35
       -1.1915223e-07 -1.4740742e-06 -3.6530405e-06 1.4399559e-06
000300 15 03 0f 35 6c a6 32 35 57 af 93 b6 2a 40 b2 35
       5.3276136e-07 6.6552343e-07 -4.4013536e-06 1.3280708e-06
000310 04 46 75 35 41 4e 97 34 c9 14 dc 33 dc d8 09 35
       9.13715e-07 2.818288e-07 1.0248329e-07 5.135205e-07
000320 98 fd 05 36 9b 8c 12 b7 ae 60 e3 b4 8a 25 35 37
       1.9966155e-06 -8.735015e-06 -4.235239e-07 1.0797181e-05
000330 21 f5 bd 37 56 2a dc 36 dc 39 6e b7 68 e9 62 36
       2.2644703e-05 6.5614395e-06 -1.4199377e-05 3.3812485e-06
000340 16 8c e2 b6 f2 88 1a 36 c9 78 94 37 c1 f7 5c b5
       -6.751633e-06 2.30275e-06 1.769922e-05 -8.2316916e-07
000350 e8 3f 8b b6 a2 62 40 35 da 4e 5a b7 b8 0e 73 b6
       -4.1499625e-06 7.1669103e-07 -1.3012172e-05 -3.621839e-06
000360 34 6e 9c 37 df 38 a9 b5 c3 fd 9d b5 91 07 51 36
       1.8647966e-05 -1.2608033e-06 -1.1771266e-06 3.114783e-06
000370 e9 c2 1d 36 86 34 31 34 17 51 91 36 05 d9 8d b4
       2.3508276e-06 1.6503517e-07 4.330777e-06 -2.64212e-07
000380 57 e0 2b b6 e1 ad a4 35 38 d1 f5 37 69 e8 87 b5
       -2.5611569e-06 1.2269558e-06 2.9303701e-05 -1.0125924e-06
000390 63 6b 9b 37 9a 3b 08 b8 00 4c 43 37 e9 f0 93 b6
       1.8527446e-05 -3.2480435e-05 1.1640601e-05 -4.408987e-06
0003a0 79 13 c2 37 11 59 32 b7 34 5c 71 34 cc 1e 0c 36
       2.313567e-05 -1.0630364e-05 2.2478417e-07 2.0879552e-06
0003b0 3e 04 94 b7 4c 08 a3 b7 b5 45 eb b4 74 78 09 b7
       -1.764495e-05 -1.9434978e-05 -4.382288e-07 -8.1938815e-06
0003c0 30 f4 2e 36 be 8f de b7 fe 00 27 38 9f 03 a7 37
       2.6070156e-06 -2.6531397e-05 3.9816827e-05 1.9909638e-05
0003d0 cc 50 4c b5 83 59 79 b7 7e f7 fa 36 9f fe d0 b5
       -7.6113497e-07 -1.4862398e-05 7.4793925e-06 -1.5571312e-06
0003e0 ce d7 b4 36 79 49 40 b7 02 dd bb 36 0d a0 8d 37
       5.389541e-06 -1.14611985e-05 5.598763e-06 1.688304e-05
0003f0 27 57 a5 b5 24 da 05 b7 eb af 80 37 aa 91 d4 36
       -1.2318823e-06 -7.978208e-06 1.5340707e-05 6.33505e-06

lstm_layer.lstm1.bias_ih_l0 f4 [300]
000000 07 0b 80 39 08 c2 7a 38 4f 0a 58 38 fc 00 20 3a
       0.00024422279 5.978535e-05 5.1508014e-05 0.00061036623
000010 eb 84 cd b9 5a 5f cb 38 0e 69 85 39 d0 f9 8b b7
       -0.0003919968 9.697555e-05 0.0002544601 -1.668642e-05
000020 42 d1 a9 39 5f cc 21 37 d5 25 24 39 63 89 47 3a
       0.000323901 9.643932e-06 0.00015654352 0.000761172
000030 80 18 59 b7 e5 28 8b 37 e4 74 43 39 27 ca aa 39
       -1.2939912e-05 1.6589134e-05 0.00018640194 0.00032575542
000040 66 ba bb 38 1a 5b ed 38 b4 60 ba b6 e4 c8 11 39
       8.951574e-05 0.0001131801 -5.5544897e-06 0.00013903115
000050 61 47 da 38 9b 1a 87 b8 f6 4d 27 39 ca 9d 08 3a
       0.000104083454 -6.442257e-05 0.00015955404 0.00052115007
000060 3c 68 e1 3a 01 75 b3 3a 00 03 ce 38 e0 cd f4 b7
       0.0017197202 0.0013691486 9.823404e-05 -2.9182935e-05
000070 fe b6 83 3a 98 e5 14 39 24 97 dc b8 49 1e 94 39
       0.0010049043 0.0001419991 -0.000105185696 0.00028251324
000080 40 43 58 b9 02 5b 00 39 db 30 3c 39 2a 8a 08 3a
       -0.00020624418 0.00012240934 0.00017947277 0.00052085763
000090 7d 64 0b 39 40 3c 27 38 4e 15 3a b8 04 44 99 b7
       0.00013293508 3.9872015e-05 -4.4365697e-05 -1.8270694e-05
0000a0 f3 a1 ab b8 86 6a 5f 3a bf 26 5b 39 08 08 19 39
       -8.184081e-05 0.0008522648 0.00020899902 0.00014594209
0000b0 2f b6 a4 b9 07 dd c7 39 88 27 3c b9 61 45 d1 37
       -0.00031416255 0.00038120916 -0.00017943804 2.4947049e-05
0000c0 5d 46 e8 b7 34 55 31 b9 39 88 4e b9 01 94 db 39
       -2.768932e-05 -0.00016911776 -0.00019696438 0.00041881207
0000d0 12 fb 66 3a cd 82 7a 39 00 14 db 39 3a 74 8c b9
       0.0008811216 0.00023890585 0.00041785836 -0.00026789476
0000e0 ca c8 55 3a 68 73 70 b8 f3 88 02 3a 7e a6 c1 3a
       0.0008155225 -5.732794e-05 0.00049795135 0.001477435
0000f0 32 89 3a b8 67 d6 af 39 cd c2 e1 39 33 f8 e4 b7
       -4.447363e-05 0.00033538343 0.00043060482 -2.7295295e-05
000100 99 69 c4 b8 28 fc c7 38 94 61 dd b6 a4 52 85 38
       -9.3656774e-05 9.536027e-05 -6.597673e-06 6.357327e-05
000110 29 7b 15 38 2d a5 a7 39 86 e6 df 37 00 d0 d5 b9
       3.563907e-05 0.00031975788 2.6691017e-05 -0.00040781498
000120 a2 2f 65 39 53 93 8d 38 4b 85 88 b8 4e ec 94 39
       0.00021856886 6.750845e-05 -6.509813e-05 0.0002840482
000130 86 d3 58 3a e5 ae 66 39 7e 0c ed 39 a5 41 a4 38
       0.00082712655 0.00021999663 0.0004521347 7.832357e-05
000140 f1 58 10 b7 39 78 46 38 14 a8 cd b8 a9 2e 18 39
       -8.603777e-06 4.7318845e-05 -9.806469e-05 0.00014513232
000150 66 bc 00 39 10 0a 13 b9 ee c8 b7 39 27 13 58 3a
       0.00012277215 -0.00014022761 0.00035054184 0.00082426
000160 f1 3f a0 39 9b f5 58 38 b9 96 2a 3a 0e a8 e0 b9
       0.00030565218 5.172715e-05 0.0006507445 -0.0004284982
000170 02 2b e9 38 9b cd d2 39 f6 9c ae 39 0f 12 11 3a
       0.000111183166 0.0004020751 0.0003330481 0.0005534002
000180 5d f8 d8 39 12 94 1e 3a 3b 96 f8 38 04 77 06 3a
       0.00041383776 0.0006049286 0.00011853544 0.0005129429
000190 bb fc 9e 39 90 e6 47 b9 53 c9 a2 b8 01 48 3a 39
       0.00030324407 -0.0001906401 -7.7622615e-05 0.00017765166
0001a0 e6 76 95 39 25 02 83 39 31 47 62 38 af 89 40 37
       0.0002850808 0.00024987865 5.39489e-05 1.1476149e-05
0001b0 8f 76 e3 b8 da 7c 82 38 39 d8 2e b9 4d 1b 95 b9
       -0.00010846287 6.2221385e-05 -0.00016674482 -0.00028439835
0001c0 9a d6 ce b8 3e 0a 62 37 d3 6f 1d ba 0e 9b 21 ba
       -9.862818e-05 1.3473034e-05 -0.0006005738 -0.00061647675
0001d0 7e 92 ca 39 e9 9f 59 b9 60 17 3f 39 1b aa 35 38
       0.00038637588 -0.00020754304 0.00018223887 4.3312186e-05
0001e0 f4 09 20 b9 1e eb 87 38 4b 47 32 39 62 40 3a b9
       -0.00015262497 6.4810956e-05 0.00017001962 -0.00017762327
0001f0 3e 20 7d ba 74 cb ee 35 42 96 68 39 09 27 a3 39
       -0.00096559885 1.7791594e-06 0.0002218122 0.00031118866
000200 a5 c0 a8 38 b6 ad 77 b9 ed da 99 b8 4d 63 3d b8
       8.046747e-05 -0.00023620468 -7.3363866e-05 -4.5153593e-05
000210 89 cf a8 39 c9 61 2e 3a 3f 96 87 39 0d c3 fe 39
       0.00032198083 0.00066521444 0.0002586115 0.0004859198
000220 c9 ba bc 39 3c 65 ba b7 64 c1 a3 38 23 74 17 39
       0.0003599732 -2.2220069e-05 7.8084675e-05 0.00014443746
000230 e4 08 c3 b9 44 a5 9d 38 75 0c 85 b9 b5 f8 5e b8
       -0.00037199922 7.5171265e-05 -0.00025377018 -5.316055e-05
000240 e1 50 32 b8 13 90 09 b8 c2 3d 76 b9 1e 8c 74 b8
       -4.251383e-05 -3.2797525e-05 -0.00023483395 -5.8304628e-05
000250 9d 27 43 b9 2d f8 56 b9 01 54 b9 38 4e 5c 6d 3a
       -0.00018611406 -0.00020501083 8.8371344e-05 0.0009054587
000260 f2 db 7b ba ed 88 68 39 35 da dc ba 2d 6b 6b 39
       -0.00096076645 0.00022176253 -0.0016849699 0.00022451273
000270 d6 d4 86 39 99 67 c0 b9 0f cf 30 39 00 7f 81 39
       0.00025717047 -0.0003669828 0.00016861803 0.0002469942
000280 e5 0c 63 39 3d 4c d2 39 28 a1 cd b9 85 c5 d4 37
       0.0002165321 0.00040111123 -0.00039220718 2.5364347e-05
000290 6b 09 6b b8 f1 64 0d b9 55 f4 92 b8 b9 46 9c b9
       -5.6037137e-05 -0.00013484411 -7.007333e-05 -0.0002980733
0002a0 dc 73 a8 b8 1a 45 0e b9 81 6c 0e 39 09 43 a1 39
       -8.032445e-05 -0.00013567918 0.00013582596 0.00030758258
0002b0 0e 77 97 b8 f7 11 d9 39 2d f9 bf 38 89 8d 5b b8
       -7.222417e-05 0.0004140285 9.154002e-05 -5.2345484e-05
0002c0 b3 d2 c6 b9 7a c9 83 39 47 97 72 38 41 8f 00 3a
       -0.00037922486 0.0002513638 5.7838184e-05 0.0004904159
0002d0 e0 39 f4 b9 da 6c 84 b9 7e af 04 ba 36 04 e4 39
       -0.00046582427 -0.00025258103 -0.0005061551 0.00043490686
0002e0 6a ee e3 39 79 d9 0d 39 63 40 15 ba e8 56 8b b9
       0.00043474446 0.00013527823 -0.00056934933 -0.00026576896
0002f0 8e 28 7b b9 20 24 26 38 aa c8 19 39 3d a6 89 b9
       -0.00023952333 3.9611128e-05 0.0001466597 -0.00026254533
000300 83 44 bc 39 fc f2 a1 ba 80 c8 02 ba 64 99 8e b8
       0.000359092 -0.001235574 -0.0004988983 -6.799659e-05
000310 4f b3 83 b9 37 f4 a8 38 78 27 d6 b8 68 f1 4f b9
       -0.00025119862 8.056353e-05 -0.00010211667 -0.00019830989
000320 52 28 98 3b 32 ab 68 3b 4a 25 94 bb 73 15 64 bb
       0.0046434784 0.003550243 -0.0045210468 -0.0034802824
000330 36 53 0f 3c 66 b4 22 ba c0 a6 e1 bb ec 65 ab 3b
       0.008747866 -0.0006206691 -0.006886333 0.005230656
000340 d1 3f ad 3b d7 b9 d0 3b 24 ad 7a ba 8b b6 4f 3c
       0.0052871485 0.00636981 -0.0009562543 0.012677799
000350 19 e1 b7 37 45 c6 c0 3b ad 7d 03 bb c5 e5 ee b9
       2.192012e-05 0.0058830106 -0.0020063922 -0.0004556609
000360 ef 4b bc ba 6a 7f 01 bb 38 61 3c bb 4e 12 bb b6
       -0.0014365892 -0.0019759783 -0.002874447 -5.5751652e-06
000370 f8 31 00 3a 10 a2 ca bb eb 63 a7 b9 97 6f 81 3a
       0.00048902584 -0.00618387 -0.00031927167 0.0009875175
000380 67 8c c9 3c d1 d9 7f bb 27 f7 a3 3b a9 fe 20 ba
       0.024603082 -0.003903974 0.005003828 -0.0006141463
000390 46 ea c1 bb 5e c8 c8 bb 0e da 22 3b f7 5b 2a bb
       -0.00591782 -0.0061274013 0.002484921 -0.0025994757
0003a0 c4 51 dd 3b 40 79 a9 bb bb 57 1e 3a 8e 39 75 bb
       0.006754132 -0.005171925 0.00060402945 -0.0037418338
0003b0 30 d6 14 3b 2c 84 8b 38 89 7e 11 3a 6a 6e e4 ba
       0.0022710674 6.6526554e-05 0.0005550166 -0.0017427925
0003c0 e9 59 19 bb 35 6d 98 3b 9f 47 00 3b 6e c3 95 ba
       -0.0023399538 0.0046516904 0.001957394 -0.001142604
0003d0 14 b2 d6 3b 96 4e dc 3b 47 a8 12 3b 59 4b 7e 3a
       0.0065519903 0.0067232354 0.0022378133 0.0009700559
0003e0 e4 b6 77 ba 3d ef 10 bb 76 7f ac ba b8 00 ea bb
       -0.0009449555 -0.0022115253 -0.0013160545 -0.007141199
0003f0 6e c4 22 ba 35 f6 48 3b 1b 57 0b 3c e6 bb 93 3b
       -0.000620908 0.003066433 0.008504654 0.004508483

lstm_layer.lstm1.bias_hh_l0 f4 [300]
000000 c6 19 76 39 7c 09 44 38 f1 1b a9 38 1d 62 67 3a
       0.0002346999 4.6738875e-05 8.0637525e-05 0.00088265707
000010 c2 d1 b0 b9 7c ca af 38 52 86 86 39 e4 db 4e 38
       -0.00033725618 8.382366e-05 0.00025658548 4.9319016e-05
000020 12 bb ed 39 cc 70 e2 36 77 03 95 39 5d 33 46 3a
       0.0004534354 6.748456e-06 0.00028422076 0.00075607543
000030 d5 7d 92 b7 66 1f 12 39 9b 01 40 39 ee 80 82 39
       -1.7463151e-05 0.00013935342 0.00018311145 0.00024891592
000040 1c 4f b4 39 e5 3b d7 38 bb fc 05 b6 7b c3 08 39
       0.00034391216 0.00010263155 -1.9965653e-06 0.00013042793
000050 26 6c 74 b8 ac 7f 75 b9 51 60 42 39 0c 30 6b 39
       -5.8274854e-05 -0.00023412582 0.00018537162 0.00022429245
000060 59 6c e5 3a 5c 4e 44 3a 3a c7 a7 39 00 84 7f b8
       0.0017503604 0.0007488483 0.00032001158 -6.0919672e-05
000070 b0 49 7d 3a db 2f 13 39 e2 4d e9 b8 c5 72 95 39
       0.00096621644 0.0001403684 -0.000111248126 0.00028505005
000080 0f 67 6f b9 b7 fb a4 38 31 63 13 b9 b4 ac 52 39
       -0.00022831208 7.867015e-05 -0.00014055964 0.00020091498
000090 68 92 9e 38 eb 9c ee 36 10 95 a2 b8 ee ad a5 b7
       7.5612974e-05 7.1112204e-06 -7.752527e-05 -1.9750525e-05
0000a0 59 9f e3 36 e6 63 9c 3a 90 99 29 39 37 7a f0 38
       6.7836777e-06 0.0011931628 0.00016174302 0.00011466856
0000b0 57 43 8b b8 4a 6d 1d 3a 51 2e 42 b9 f5 03 d1 37
       -6.6405795e-05 0.000600536 -0.00018518536 2.4916584e-05
0000c0 ff 97 dd b7 75 7a 30 b9 6f 6a ae b9 81 a8 57 39
       -2.6416032e-05 -0.00016830287 -0.00033267165 0.0002056677
0000d0 83 65 aa 38 1c ae e8 39 0f 4c 7b 3a 51 fb 8d b9
       8.12514e-05 0.0004438021 0.0009586224 -0.0002708086
0000e0 60 31 55 3a 4d 8d 21 38 b9 06 1c 3a 48 c8 9d 3a
       0.00081326626 3.8516988e-05 0.00059519295 0.0012037838
0000f0 07 b9 5f 36 ba 0f 4b 3a b2 d3 01 3a 62 e7 f4 38
       3.333729e-06 0.0007746179 0.00049525045 0.00011677925
000100 cf 68 c4 b8 1c e2 b9 38 1e d9 86 b7 01 43 c5 b7
       -9.3655304e-05 8.8636036e-05 -1.6075148e-05 -2.3515431e-05
000110 ad 46 09 38 20 b5 b7 39 68 22 91 38 ff ae 8a b9
       3.2729167e-05 0.0003503943 6.9205475e-05 -0.00026451793
000120 d8 6e a3 39 fb 71 a0 38 7a 2a 88 b8 e0 ef b5 39
       0.00031172368 7.650625e-05 -6.492897e-05 0.0003470173
000130 11 58 43 3a 03 91 b7 38 5b 46 cb 39 df ad b4 38
       0.00074517826 8.7531305e-05 0.00038771596 8.615455e-05
000140 63 14 96 39 9d 1b 0c 38 7e 3f 01 b9 7c e5 9d 39
       0.0002862542 3.3404318e-05 -0.00012326051 0.00030116353
000150 81 ee fe 38 cd 32 2e b9 b9 b3 b7 39 34 3a 62 39
       0.000121560886 -0.00016612858 0.00035038384 0.00021574722
000160 3f ef fc 39 0e 3e eb 37 bb 88 29 3a e8 af e0 b9
       0.00048243438 2.804308e-05 0.0006467213 -0.0004285567
000170 ea 51 9c 38 88 80 c4 39 29 75 b1 39 80 28 10 3a
       7.453917e-05 0.00037479796 0.00033847362 0.0005499199
000180 dc 37 e5 39 d2 ec 2c 3a 46 07 49 39 f3 a4 ec 38
       0.00043719902 0.0006596568 0.00019171563 0.00011284081
000190 1d 44 a6 39 70 55 c5 b9 7c c4 a1 b8 43 e6 8b 39
       0.00031712736 -0.00037638424 -7.713676e-05 0.00026683704
0001a0 6d 93 95 39 b9 86 40 39 0f 1e 68 38 b8 c0 be 36
       0.00028529335 0.00018360735 5.5341105e-05 5.6848767e-06
0001b0 80 2d e2 b8 ce a9 7b 38 0b ba 08 b9 81 bf 79 b9
       -0.00010784995 6.0001206e-05 -0.00013039277 -0.00023817831
0001c0 df ec cf b8 26 5c e8 b8 43 ce c8 b9 32 e0 21 ba
       -9.91465e-05 -0.00011079786 -0.0003830065 -0.00061750703
0001d0 22 b7 ab 39 9e cc 26 b9 b0 e5 3b 39 53 ea 1c 38
       0.00032752106 -0.0001590722 0.00017919275 3.741153e-05
0001e0 54 9f 8c b9 b6 df 8b 38 27 36 39 39 44 02 4f b9
       -0.0002682159 6.669706e-05 0.00017663148 -0.00019741902
0001f0 90 d4 80 ba 0a 09 f3 37 66 8c 64 39 e5 98 86 39
       -0.0009828974 2.8972067e-05 0.00021796077 0.00025672387
000200 7e 3b 4b 39 90 95 74 b9 2e 44 02 b9 81 2c 16 b8
       0.00019381751 -0.0002332537 -0.00012423165 -3.5804234e-05
000210 12 f2 51 39 51 fa 14 3a cd 24 82 39 57 f7 05 3a
       0.00020021971 0.0005683052 0.0002482295 0.0005110404
000220 3c 6a 01 3a 9d bd 2d b8 99 c3 ad 38 36 10 72 39
       0.00049367896 -4.1423005e-05 8.285716e-05 0.00023084958
000230 fe 21 c7 b9 ce 3e 99 38 d6 09 85 b9 69 30 34 b8
       -0.00037981564 7.307307e-05 -0.00025375065 -4.296043e-05
000240 8f 3d 1c b8 09 e6 c4 b8 94 c4 9c b9 de 8f 74 b8
       -3.725063e-05 -9.388856e-05 -0.000299011 -5.830812e-05
000250 7a 4c f6 b8 2f e1 22 b8 2b 9e b8 38 1c 37 72 3a
       -0.00011744439 -3.883353e-05 8.803265e-05 0.00092397793
000260 37 1e 6d ba e7 f9 66 39 77 4d e1 ba 1e c9 68 39
       -0.0009045335 0.00022027605 -0.0017189224 0.00022200166
000270 e6 d4 86 39 3a b0 c7 b9 b9 ca 35 39 a1 24 82 39
       0.00025717093 -0.00038087537 0.00017337025 0.00024822823
000280 71 42 15 39 ff 8c 8f 39 b3 a0 b8 b9 e4 ca 86 37
       0.00014234499 0.00027380136 -0.00035214945 1.6068523e-05
000290 55 cc 6a b8 50 93 28 b9 95 0e 93 b8 e8 55 9a b9
       -5.5980247e-05 -0.00016076607 -7.012222e-05 -0.00029437174
0002a0 80 13 b6 b8 c8 19 12 b9 d7 73 0b 39 16 7f a1 39
       -8.6820684e-05 -0.0001393325 0.00013299227 0.00030803
0002b0 cc 43 97 b8 3a 27 d9 39 07 3d db 38 a1 9c 7c 38
       -7.212869e-05 0.0004141869 0.00010454101 6.0227354e-05
0002c0 74 dc 03 ba 25 be 83 39 79 0c 7a 38 d5 70 0e 3a
       -0.00050301035 0.00025127936 5.961626e-05 0.00054336834
0002d0 04 b1 e6 b9 c5 07 85 b9 de eb eb b9 7c 88 e3 39
       -0.00044000905 -0.00025373526 -0.00044998428 0.00043398503
0002e0 27 52 0c 3a 85 33 02 39 3e 4c 11 ba d5 91 05 b9
       0.0005352818 0.00012416959 -0.0005542672 -0.00012738195
0002f0 a7 61 62 b9 b4 9e 52 38 79 19 33 39 68 50 8d b9
       -0.00021589418 5.0215705e-05 0.0001708026 -0.00026953523
000300 e8 94 b9 39 88 f2 8f ba dc 94 01 ba 47 f2 cb b8
       0.00035396894 -0.0010982314 -0.0004943141 -9.724922e-05
000310 ae 78 7d b9 f4 cf 31 b7 a2 87 f0 b8 b2 17 35 b9
       -0.00024172917 -1.059844e-05 -0.000114693554 -0.00017270332
000320 58 c5 b4 3b 57 90 02 3b 69 74 b9 bb 11 91 a4 bb
       0.0055166893 0.001992246 -0.005659629 -0.005022176
000330 19 62 f7 3b 30 6b d4 3a 0c 3f 3c bb 5f 21 11 3b
       0.007549536 0.0016206261 -0.0028724102 0.0022145135
000340 f5 b2 96 3b fb 64 e1 3a bc 56 5b bb 18 09 3e 3c
       0.00459897 0.0017196232 -0.0033468446 0.011598848
000350 3e cb e6 3a 05 21 8c 3b f8 d0 e3 b7 3c 67 0e 3b
       0.0017608178 0.004276397 -2.7157817e-05 0.0021729013
000360 56 57 e4 ba a5 55 36 bb 38 2f 97 ba b1 0a 4e bb
       -0.0017421048 -0.0027822044 -0.0011534458 -0.0031439478
000370 7e a7 26 3b fc 69 83 bb 45 bb 1b 3a 56 32 a0 3b
       0.0025429423 -0.004010437 0.0005940686 0.004888813
000380 4f 99 95 3c e0 18 81 bb cc 00 b0 38 76 37 21 bb
       0.01826158 -0.003939733 8.3924824e-05 -0.0024599708
000390 49 fc 0d bc 88 6e 2f bb ca 3f 4e 3b 7a b6 39 bb
       -0.0086661065 -0.0026768763 0.0031471127 -0.0028337524
0003a0 62 07 9b 3b e7 2a ed b9 aa b7 da b9 29 1f 51 39
       0.0047311047 -0.00045236127 -0.0004171704 0.00019943401
0003b0 00 62 17 3b 74 53 db b8 b0 2a ca ba 64 d6 b3 ba
       0.0023099184 -0.00010458278 -0.0015424099 -0.001372051
0003c0 00 34 05 bb 9d c3 cf 3b ec d8 8a b9 a2 1e 45 bb
       -0.0020325184 0.0063404576 -0.0002648303 -0.0030078073
0003d0 1b 32 cd 3b 47 cd 7d 3b 5e 82 6b 3b bc 57 55 ba
       0.0062620766 0.003872709 0.003593586 -0.00081383786
0003e0 c0 0a 92 3a ef 05 55 bb 3a 90 0a bb 0c f9 b7 bb
       0.001114212 -0.0032504757 -0.0021143095 -0.0056144055
0003f0 cd 05 11 3b 4f ae 53 3b 22 fe ba 3b ad 0e 8a 3a
       0.0022128702 0.003229994 0.0057065645 0.0010532938

gbrbm.W f4 [100, 50]
000000 9d 64 08 3b 1f cf f3 b9 27 83 a5 ba 5c e1 4a 39
       0.0020811923 -0.0004650289 -0.0012627587 0.00019348174
000010 3d e1 56 b9 ca a8 07 3b 22 21 4c bb b7 75 b2 ba
       -0.00020492538 0.0020699971 -0.0031147678 -0.0013615404
000020 53 a2 fa 39 de 61 47 b8 54 89 11 3b 83 31 32 3b
       0.00047804657 -4.7536443e-05 0.0022207098 0.0027190156
000030 90 9d 20 ba ff 90 b3 ba f2 6f 4b 3b 9d 9b 88 b8
       -0.0006126994 -0.0013699828 0.0031042066 -6.5139706e-05
000040 50 08 0a bb d8 48 b1 3a c6 86 fc 3a 0f ac d0 b9
       -0.0021062084 0.0013525737 0.001926624 -0.00039801045
000050 03 b5 1c bb fd b1 e0 ba 1b 57 37 b8 93 c6 e6 ba
       -0.0023911602 -0.0017142888 -4.3711723e-05 -0.0017606787
000060 55 2f 13 3a c1 39 93 bb 9c 34 85 bb 70 96 10 ba
       0.0005614658 -0.004492969 -0.0040651094 -0.0005515581
000070 bd 32 d3 ba da 0c 31 39 ac e7 04 3b 2d 09 2c 3b
       -0.0016113144 0.00016884823 0.0020279689 0.0026250586
000080 20 d8 17 bb f6 bc 50 ba 1f 7f 2a bb 42 cd a0 3a
       -0.0023169592 -0.00079627277 -0.0026015711 0.0012268203
000090 1a 29 27 bb c8 e2 ae ba eb 15 8e ba 50 a1 f4 ba
       -0.0025506676 -0.0013342733 -0.0010840272 -0.0018663798
0000a0 0e 07 0e bb 5e 7b 15 ba aa a7 86 b8 6a 3b 09 3b
       -0.0021671685 -0.0005702282 -6.420848e-05 0.0020939955
0000b0 18 a0 8e 3b b1 55 8a 3b 02 7e 87 3a 93 39 92 3b
       0.0043525808 0.004221641 0.0010337236 0.00446243
0000c0 25 37 87 ba 45 43 07 bb 19 3d 5e ba 96 ba ce ba
       -0.0010316117 -0.002063946 -0.0008477732 -0.001577216
0000d0 09 a3 65 3b fb fd a7 39 e2 20 c8 ba 01 34 9b 3a
       0.0035039803 0.00032041952 -0.0015268589 0.001184106
0000e0 fe 09 e1 ba f0 81 ca 3a 8f 9a b0 3b 7c 7f aa 38
       -0.0017169116 0.0015450101 0.0053895186 8.1299775e-05
0000f0 13 98 9b bb 1a ed 05 bb 18 e7 14 39 1b 0f dd 3a
       -0.0047483533 -0.0020435513 0.00014200469 0.0016865464
000100 4a 78 13 38 b3 7b 00 bb ed 3f 23 3b a1 35 3f bb
       3.515956e-05 -0.001960498 0.002490993 -0.0029176252
000110 74 9f 80 39 d9 5c 4a 3b 01 80 ae bb 30 13 8d bb
       0.00024532864 0.0030878095 -0.005325318 -0.004305266
000120 26 d0 9e 38 9f f2 a9 3b 7b f4 ed 3a 8a 46 86 ba
       7.572798e-05 0.0051863934 0.0018154526 -0.0010244411
000130 78 e2 8b 38 91 b4 ed 3a 2f 07 a0 3a 8b f4 25 bb
       6.6702196e-05 0.0018135478 0.0012209172 -0.002532276
000140 f5 45 1a 3b df 5e bc 39 97 a9 6e ba c8 04 42 3b
       0.0023540233 0.0003592884 -0.00091042503 0.00296049
000150 65 e3 38 3b 15 b3 0f 3b 53 73 27 3a 24 3f 67 ba
       0.002821171 0.002192681 0.0006387729 -0.00088213594
000160 1a 68 ba bb 95 3a 17 3b 35 54 ed 39 8a 50 9d 3a
       -0.0056886794 0.002307569 0.00045266902 0.0012002152
000170 62 d0 1e 3b dc 72 b0 ba 47 fc de ba 1b 28 f7 38
       0.0024233093 -0.0013461965 -0.001701244 0.00011785348
000180 70 c1 b9 3a 7d 2f 58 bb 2d d2 b4 b9 97 dc be ba
       0.0014172029 -0.003298729 -0.0003448887 -0.001456159
000190 f8 de c1 3a b2 31 ae 3a f3 b0 27 3a 8e 8c dc ba
       0.0014791181 0.0013289957 0.0006396912 -0.0016826557
0001a0 2f 0e 49 3b 88 15 fe 3a f2 d5 36 3b 7a 42 05 3b
       0.003067862 0.0019385079 0.0027898517 0.0020333813
0001b0 6f b8 30 3b e0 04 ba 3a 5e e5 cc ba a4 d9 99 3a
       0.00269654 0.0014192127 -0.0015632322 0.0011737836
0001c0 d5 e0 a7 3a 32 7d 59 3b eb 7d 4c 3b a0 a3 1e bb
       0.0012808094 0.0033186194 0.0031202983 -0.0024206415
0001d0 7b 59 11 3b 95 4c b6 bb d7 42 4c ba 3e 50 52 3b
       0.0022178579 -0.0055633285 -0.00077919423 0.0032091285
0001e0 31 8a 7d bc db a6 7e bb 2d 6b 2b 3a e7 75 0a 3b
       -0.015474842 -0.0038856778 0.0006539103 0.0021127404
0001f0 6e df 88 bb 89 db 0c ba 42 9f a0 3a 22 a7 b8 3a
       -0.0041770255 -0.00053732895 0.0012254494 0.0014087895
000200 73 ae 93 bb e1 0c a2 3a aa 57 5d ba 0c 66 97 3b
       -0.00450688 0.0012363457 -0.0008443544 0.004620319
000210 2c 0d cc bb a9 4b f0 3a 6c 0d 0a bb 52 65 a5 3b
       -0.006227156 0.0018333095 -0.002106513 0.0050474787
000220 18 90 12 3a 73 aa 2d ba 06 00 f4 ba 0b 4d 8c 3a
       0.00055909296 -0.0006624825 -0.001861573 0.0010704113
000230 e5 0b be ba ed d5 35 bb b6 2e 14 3b bf a7 1e bb
       -0.0014499394 -0.0027745918 0.002261085 -0.0024208871
000240 00 43 11 bc 42 d0 74 bb b9 29 4c 3b 42 12 83 bb
       -0.008866072 -0.0037355577 0.0031152798 -0.0039999792
000250 6e a2 9b 36 99 e9 4b 3a 52 88 70 ba ef 49 f4 b9
       4.6382693e-06 0.0007778644 -0.0009175587 -0.00046594391
000260 20 42 b8 bb b0 7d 00 39 bc dc 07 ba 17 44 5c ba
       -0.005623117 0.00012253853 -0.00051827333 -0.000840248
000270 4f 5b 8b 3a 48 8a 0c 3b 6e 0f 8d bb bf 65 e2 bb
       0.001063207 0.0021444727 -0.004304818 -0.0069091017
000280 16 bf a1 bb 4a bd 84 bb e4 bb ad ba 10 d0 fc bb
       -0.0049361093 -0.0040508853 -0.0013254848 -0.0077152327
000290 d9 35 64 39 02 4f 34 bb fc c9 4d bb c4 41 40 bb
       0.00021763834 -0.0027512913 -0.003140091 -0.0029336074
0002a0 5c dc 8e bb 24 f8 40 3b 16 0b 0c bc b8 a9 da 38
       -0.004359765 0.0029444778 -0.008547565 0.000104266626
0002b0 a1 52 90 bb 66 fa 06 bb 31 1c 8f bb ed a5 f2 bb
       -0.0044043814 -0.0020596026 -0.0043673743 -0.007405034
0002c0 fb 07 3a bb 6d 1c 35 bb f8 79 dd bb 28 38 1e bb
       -0.0028386104 -0.0027635351 -0.0067589246 -0.0024142358
0002d0 75 b4 5c 3b ce 12 b7 3b 94 79 8f bb 8f 89 8a bb
       0.0033676897 0.0055869585 -0.004378507 -0.004227824
0002e0 2d df 0c 3b d0 c7 1a bb 09 f5 26 bc fd bf ae b8
       0.0021495328 -0.0023617633 -0.010190257 -8.332727e-05
0002f0 eb 74 34 ba 0d 67 30 3b 0b 24 ec bb 53 7a 2e b7
       -0.0006883877 0.0026916892 -0.007206445 -1.0399689e-05
000300 91 d8 19 3b 6c af 86 3b 32 91 92 b9 68 8a 26 3a
       0.002347503 0.0041102674 -0.0002795547 0.00063530216
000310 e8 d3 ae b9 6f 29 8f b9 80 31 0c 3b ba ec 96 39
       -0.0003334575 -0.00027305956 0.002139181 0.00028786605
000320 99 95 af bb 69 3a 8c bb 7d 9c fc ba b5 2b db ba
       -0.0053584096 -0.004279424 -0.0019272711 -0.00167214
000330 33 14 d2 bb 5f 09 68 bb b3 1a 88 bb 3b 6e 21 ba
       -0.0064110993 -0.0035405976 -0.0041535734 -0.0006158088
000340 40 f5 8f bb 9f 4d d1 3a b7 42 55 bb 84 c2 91 3a
       -0.0043932498 0.0015968567 -0.0032540986 0.0011120592
000350 9a 45 da 3b 49 db 88 bb 79 3b 99 bb 78 d9 53 bb
       0.006661129 -0.0041765315 -0.004676279 -0.0032325666
000360 91 88 03 3a 3b 67 5d ba e4 0c df bb 01 ba 48 3a
       0.00050176034 -0.00084458635 -0.0068069566 0.0007657111
000370 e8 7d d0 3b c3 98 e7 3a cf 03 78 bb b4 6c 14 3b
       0.0063626654 0.0017669428 -0.0037844067 0.00226478
000380 86 3b 7e ba e2 c0 80 bb 3b b7 bd bb e0 bf 84 ba
       -0.0009698201 -0.0039292434 -0.005789665 -0.0010127984
000390 2d 67 1f bb 65 7e e2 ba 27 e2 ca ba 95 98 07 bb
       -0.0024322972 -0.00172801 -0.0015478776 -0.0020690311
0003a0 9a 2e a4 ba ff 43 65 3b 65 d8 d7 bb ca 91 a8 ba
       -0.0012526095 0.0034983156 -0.0065870755 -0.0012860831
0003b0 64 23 35 bb 9f 5b ac bb 9e 19 d0 3a f9 d1 89 3a
       -0.0027639503 -0.0052599455 0.0015876775 0.0010514847
0003c0 43 c0 ac ba b2 6a a7 b9 3f b6 08 3b 01 b5 ab ba
       -0.0013179857 -0.00031932216 0.002086058 -0.0013100208
0003d0 e6 14 20 3c 97 c6 f2 3a 26 7e 4a bb 41 2f 2c 3c
       0.009770608 0.0018522319 -0.0030897944 0.010509313
0003e0 6c 11 eb ba 82 2a df b9 c7 c2 4d bb a0 d0 97 39
       -0.0017934269 -0.00042565545 -0.0031396614 0.00028956402
0003f0 a8 1e 99 ba cc 37 07 bb 21 a4 13 b9 1c a5 46 ba
       -0.001168211 -0.0020632623 -0.00014080155 -0.0007577704

gbrbm.b f4 [50]
000000 0b e6 9b bf 4f 5b 84 bf df 19 54 bf c0 84 65 bf
       -1.2179579 -1.0340365 -0.82851976 -0.89655685
000010 b0 79 5b bf 60 e6 78 bf 0d 66 7e bf fa 11 7a bf
       -0.85732555 -0.97226524 -0.9937447 -0.9768368
000020 47 ec 97 bf 2d 5e 7c bf a4 f7 98 bf 7c 73 a1 bf
       -1.1868981 -0.985812 -1.1950574 -1.2613368
000030 74 42 82 bf b2 d4 8c bf 66 7f a5 bf e9 55 6e bf
       -1.017653 -1.100241 -1.2929504 -0.9309984
000040 0c e5 8a bf 47 67 b5 bf bf d0 c4 be c1 db 78 bf
       -1.085115 -1.4172143 -0.3844051 -0.9721032
000050 d4 19 5e 3e 74 d9 95 bf a2 6e 75 bf 19 af 77 bf
       0.2168954 -1.1706986 -0.9587194 -0.9675155
000060 8c ef 84 bf 76 ad f7 be 5e b2 1f c0 0a 0d 78 bf
       -1.0385604 -0.48374528 -2.4952617 -0.96894896
000070 ef f2 9d bf f5 ef 8a bf 8a 36 8e bf ec e9 52 bf
       -1.2339762 -1.0854479 -1.1110394 -0.82388186
000080 ec 7d 72 bf b2 72 38 bf 6a 74 97 bf 8c dd 16 bf
       -0.9472339 -0.7205001 -1.1832402 -0.58931804
000090 0b db 57 bf c5 75 c6 be 85 b1 a7 bf 88 d3 82 bf
       -0.8431861 -0.38761726 -1.310105 -1.0220804
0000a0 54 e5 a0 bf 59 12 f1 bf f9 2d a4 bf c1 17 ea be
       -1.2569985 -1.8833724 -1.282653 -0.45721248
0000b0 8e 06 ff 3f 60 21 a3 bf d4 b1 53 bf 61 d1 16 40
       1.9923875 -1.274456 -0.8269322 2.3565295
0000c0 42 90 95 bf 6f a1 8a bf
       -1.1684649 -1.0830516

gbrbm.mu f4 [100]
000000 c7 a8 69 3c 82 34 6f 3b e1 a2 3f bb 84 19 78 3c
       0.014261431 0.0036499803 -0.002924137 0.015142802
000010 90 26 da 3c 66 09 2d 3c 0f 7a 66 bc 14 53 e0 3c
       0.026629716 0.010561323 -0.014067187 0.027383365
000020 83 8d 63 3c 10 bd 38 3d bd 95 3d 3d 06 81 13 3d
       0.0138887195 0.04510218 0.04628538 0.03601172
000030 1c 31 88 bc ca 6a 5c 3b 2e 80 0e bd 1d 6a b8 bc
       -0.01662498 0.0033632987 -0.03479021 -0.022511536
000040 1e 26 85 3c 99 30 2a bc 75 ba 60 bc f2 8b 60 3c
       0.016253527 -0.010387563 -0.01371633 0.013705241
000050 71 e1 a1 3b af 88 a2 bc 2c 7f 69 3c 0d 7b 8f bc
       0.004940205 -0.019840566 0.014251512 -0.01751473
000060 91 a3 a0 3d 75 0c 33 bc 68 63 80 3d 2b d8 41 3c
       0.07843698 -0.010928263 0.0626896 0.011831324
000070 70 d0 84 3c 8f 23 28 bd 86 0d af 3b a3 17 6d bc
       0.016212672 -0.041049536 0.0053421883 -0.014470967
000080 40 88 07 3d 97 e8 95 bd 8a e8 25 bc 81 c9 9e bc
       0.033088923 -0.073197536 -0.010126242 -0.019383194
000090 ba 04 a1 bc af 62 4a bc c5 c3 6c 3b 88 fa bc bc
       -0.019655574 -0.01235263 0.003612743 -0.023068681
0000a0 9c 61 ef 3b fe cc 8e 3b ca c2 05 3d 97 53 32 3d
       0.007305337 0.004357933 0.03265647 0.04353675
0000b0 54 92 60 3b 35 59 81 bc 8a c9 1a 3d 12 4f a3 3b
       0.0034266906 -0.015789608 0.03778986 0.004983791
0000c0 0d ab 8c ba 08 6c d7 bc b0 81 48 bc 04 64 41 3d
       -0.001073213 -0.02629663 -0.012237951 0.047214523
0000d0 7d 74 4e bb 99 00 3d bc eb 7c 69 3d 81 e9 05 3d
       -0.0031502538 -0.011535787 0.057003897 0.03269339
0000e0 dd 6b c2 3c 1f 45 6a bd c8 78 0f bd 68 72 26 3c
       0.023733074 -0.057194825 -0.035027295 0.0101591125
0000f0 f7 48 b9 bc 6f b0 2a ba e2 5a b3 bc b7 0b 30 bb
       -0.0226178 -0.0006511276 -0.021893922 -0.0026862451
000100 7b 5e 1e 3d 55 4f 97 bc ed ed 1b 3d 34 f8 a3 bc
       0.038664322 -0.018470446 0.0380687 -0.020015813
000110 0b 5f 88 3c c9 33 8a bc 74 6c 97 bc e4 9a 96 3b
       0.016646883 -0.016870396 -0.018484332 0.004596101
000120 48 7c 68 3c 8c 6b 26 bd 62 b8 ef 3b dd 19 b0 3b
       0.014189787 -0.04062991 0.0073156813 0.005374177
000130 9f ef 0a 3d 47 c4 4e bc c8 97 83 3b e5 7d 31 bd
       0.033919927 -0.012620038 0.0040158965 -0.043332953
000140 47 d5 b1 3c 36 d5 90 bc 76 50 5f bd dd 27 f0 3c
       0.021708144 -0.017679792 -0.054520093 0.029315883
000150 1e 78 65 3d e7 08 c0 bc 26 1d b5 3b 16 2b d7 bc
       0.056022756 -0.023441745 0.0055271564 -0.026265662
000160 1f 25 5d 3b 20 7e 8b 3b d7 19 99 3c 8f b3 81 bd
       0.003374405 0.0042569786 0.01868908 -0.06333076
000170 f6 9a 15 bd 0c 1d 81 3d 7a 09 c0 bc 26 0b c4 ba
       -0.036524735 0.063043684 -0.023442019 -0.0014956936
000180 47 a6 43 3c ca a1 a0 3c 43 82 06 bd d0 2c ad 3c
       0.011941499 0.019608397 -0.03283907 0.021139532

gbrbm.log_var f4 [100]
000000 63 ee dd c0 a2 b6 db c0 10 6e d3 c0 81 5c dc c0
       -6.93535 -6.866044 -6.6071854 -6.886292
000010 11 f6 d9 c0 24 84 d8 c0 77 2b d8 c0 de 85 dc c0
       -6.8112874 -6.7661304 -6.755306 -6.891341
000020 a6 da db c0 03 ce da c0 4c d4 d4 c0 19 12 db c0
       -6.8704405 -6.837648 -6.650915 -6.845959
000030 24 b1 da c0 c6 49 db c0 f1 b6 dd c0 d4 82 db c0
       -6.8341236 -6.8527555 -6.9285817 -6.85972
000040 3c 16 da c0 b0 55 db c0 dc 05 db c0 08 8c da c0
       -6.815214 -6.85421 -6.8444653 -6.8295937
000050 92 78 da c0 83 2b e1 c0 e8 6f d9 c0 74 49 d5 c0
       -6.827218 -7.0365615 -6.7949104 -6.6652164
000060 f7 5d cf c0 f9 ee da c0 7f f6 d5 c0 6e 25 dc c0
       -6.4802203 -6.8416715 -6.68634 -6.879569
000070 18 c9 d3 c0 18 02 d6 c0 77 fa db c0 10 3c da c0
       -6.6182976 -6.6877556 -6.8743243 -6.819832
000080 c6 6e db c0 cf ab d4 c0 2b 16 dd c0 54 76 d9 c0
       -6.857272 -6.6459727 -6.908956 -6.7956944
000090 91 29 da c0 a7 93 d8 c0 b9 95 dd c0 b1 9f da c0
       -6.817574 -6.768024 -6.9245267 -6.8319936
0000a0 97 3b dc c0 1c b2 d4 c0 ad ae d6 c0 26 bf d4 c0
       -6.882274 -6.646742 -6.7088227 -6.6483335
0000b0 69 f0 db c0 f0 f5 da c0 b2 fd d5 c0 3e f3 da c0
       -6.873097 -6.8425217 -6.6872187 -6.8421926
0000c0 1d 71 dc c0 0c 66 d9 c0 a7 32 d0 c0 80 2a c0 c0
       -6.888808 -6.793707 -6.506183 -6.005188
0000d0 3d f2 d9 c0 ea 1a de c0 87 97 db c0 90 df d9 c0
       -6.81082 -6.9407854 -6.862247 -6.8085403
0000e0 12 90 cb c0 3c 17 db c0 49 75 cb c0 3d 1c d8 c0
       -6.3613367 -6.846586 -6.358067 -6.753447
0000f0 67 03 db c0 fc 88 dd c0 af 31 dc c0 6f 26 de c0
       -6.8441653 -6.9229717 -6.881065 -6.9421916
000100 ae 9f d8 c0 7f 1b db c0 86 62 d5 c0 7f 1c db c0
       -6.769492 -6.8471065 -6.668277 -6.8472285
000110 ac ca da c0 3e cf d8 c0 51 1a d8 c0 5f fb d7 c0
       -6.83724 -6.775298 -6.7532125 -6.749435
000120 74 9a de c0 98 2e da c0 9f 33 de c0 a4 0e dc c0
       -6.956354 -6.8181877 -6.9438014 -6.876787
000130 ca e7 cf c0 a7 ec db c0 26 e0 db c0 60 45 d7 c0
       -6.4970446 -6.872638 -6.871112 -6.7272186
000140 9b 81 d9 c0 1e 86 da c0 ba c6 d7 c0 f5 cc d7 c0
       -6.797071 -6.8288717 -6.7430086 -6.743769
000150 59 70 d6 c0 3b 96 dd c0 ac 1e dc c0 1d 66 dd c0
       -6.7012143 -6.9245887 -6.878744 -6.918715
000160 85 59 d8 c0 79 e6 da c0 06 e0 d3 c0 8a d5 d5 c0
       -6.7609277 -6.840634 -6.6210966 -6.682317
000170 7e e5 db c0 9a 4f d5 c0 39 cc d5 c0 64 d1 da c0
       -6.871764 -6.665967 -6.6811795 -6.8380604
000180 b3 f8 d7 c0 ed 20 dc c0 27 7e de c0 b1 09 dd c0
       -6.749109 -6.8790193 -6.9528995 -6.907433

gbrbm.linear_layer.weight f4 [1, 50]
000000 12 38 6c 3e 32 cd eb 3d 82 0d e3 3c fe f3 ef 3d
       0.23068264 0.11513747 0.027716402 0.1171646
000010 7b 95 ae bc 43 90 44 3e c8 54 3b 3d f2 01 3e bb
       -0.021311512 0.19195656 0.04573515 -0.0028992859
000020 4d e7 fe 3d 65 66 07 3d 17 66 2b 3e 16 bf 6b 3e
       0.12446461 0.033056635 0.16738163 0.23022112
000030 7e 56 2e 3e 05 26 df 3d bd 2a 23 3e 64 53 7f 3b
       0.17025182 0.108959235 0.15934272 0.0038959617
000040 95 70 b2 3d dd dd b4 3e b5 7a a6 bd 1e 6a a6 bc
       0.087128796 0.35325518 -0.08128873 -0.020314272
000050 af 85 42 be 5b ce 16 3e 5a e7 38 bd 65 14 e2 bb
       -0.18996309 0.14727156 -0.04514251 -0.006899404
000060 f6 d6 4b 3d 3f a4 e5 bc 44 e4 f2 3e b0 a9 52 3d
       0.04976555 -0.02803242 0.47439778 0.051431358
000070 e3 83 08 3e cb 86 89 3c 4e 46 75 3d 2f a6 86 bc
       0.13331561 0.016787907 0.0598815 -0.016436664
000080 04 63 85 bd 96 4a da bd 05 58 aa 3d fd af 43 bd
       -0.06513026 -0.106587574 0.0831757 -0.047775257
000090 8c 45 65 bc 0d 0f c7 bd 64 9c 5c 3e bb 02 35 3c
       -0.013993632 -0.097196676 0.21544033 0.011048014
0000a0 53 42 27 3e 5b 99 c7 3e 32 63 07 3e fa 24 23 be
       0.16333894 0.38984188 0.13221434 -0.15932074
0000b0 1b a9 8b be 08 5d b9 3d 99 7f 1c bd f8 98 78 be
       -0.27277455 0.090509474 -0.038207624 -0.24277103
0000c0 73 a1 9c 3d eb 7d 16 3e
       0.076479815 0.14696471
