final_project/lstm_gbrbm/type1/lstm_gbrbm_W20_H50_V100_B8_D2.pt (torch, 78745 bytes, 9 tensors)

lstm_layer.lstm1.weight_ih_l0 f4 [200, 16]
000000 c2 b0 f9 bb 71 ad f9 bb d7 86 f8 bb 00 f7 ad 38
       -0.007619948 -0.007619553 -0.0075844335 8.29529e-05
000010 ed 03 c2 b8 f4 9e 5b ba 75 d7 60 ba 44 03 2e bb
       -9.251372e-05 -0.0008377873 -0.00085770275 -0.002655224
000020 a2 03 c2 b8 cc 0f 26 3b ab a8 d3 39 89 06 8e b9
       -9.2513175e-05 0.0025339006 0.00040370724 -0.0002708922
000030 8a 0d bc 3b ba fd 49 39 36 71 f5 bb 06 09 fc bb
       0.0057389187 0.00019263374 -0.0074903024 -0.0076915054
000040 52 29 7b ba f2 42 81 ba 2a da 7e ba 2a ae 78 b9
       -0.00095810473 -0.000986187 -0.000972184 -0.00023716004
000050 40 c7 bb 39 84 3e 8a b9 dc 58 80 39 63 d8 6a 39
       0.00035815872 -0.0002636799 0.00024480268 0.0002239659
000060 3d c7 bb 39 4a 62 62 b9 25 93 0e 3a f7 84 08 b9
       0.00035815864 -0.00021589655 0.00054387964 -0.00013019504
000070 40 c2 49 3a d4 af d1 39 75 f2 77 ba 68 11 7b ba
       0.0007696487 0.0003999459 -0.0009458431 -0.0009577484
000080 67 01 19 bb 8a a7 15 bb a1 69 17 bb 84 cb 97 3a
       -0.0023346783 -0.0022835457 -0.0023103731 0.0011581038
000090 89 53 1d 3a ef 95 ab 38 e2 29 03 3a a0 f4 92 3a
       0.00060015224 8.181843e-05 0.00050034944 0.001121182
0000a0 87 53 1d 3a 30 35 4b 3a 22 40 5d 39 b9 2c 71 3a
       0.0006001521 0.0007751761 0.00021100094 0.00092000846
0000b0 da 0d 19 3b 8b ca 8a 3a 4e 9f 15 bb 09 d2 1a bb
       0.0023354203 0.0010588927 -0.0022830549 -0.0023623726
0000c0 16 26 87 bb b7 c1 86 bb 9d 91 86 bb 9c 9b 19 39
       -0.0041244132 -0.004112448 -0.004106714 0.00014649186
0000d0 6a b8 c4 38 bb a7 92 b9 13 43 14 b8 ca 50 dd ba
       9.380358e-05 -0.0002797226 -3.5348417e-05 -0.0016885039
0000e0 3a bb c4 38 98 02 b2 3a db 09 e3 b9 a0 6a 6c 38
       9.380882e-05 0.0013581095 -0.00043304157 5.6366087e-05
0000f0 e8 83 07 3b 2d b1 15 3a ce b4 85 bb d7 aa 87 bb
       0.0020677987 0.00057103 -0.0040803915 -0.0041402387
000100 be 15 b5 bb 97 e9 b6 bb 14 64 b5 bb c0 5c d2 ba
       -0.0055262735 -0.0055820453 -0.005535612 -0.001604937
000110 24 ca 00 ba ca 7f de b9 d1 d9 6c ba bf 56 3c bb
       -0.0004912934 -0.0004243835 -0.0009035143 -0.0028738228
000120 21 ca 00 ba d2 69 d3 39 c1 17 bb b9 6c 27 51 ba
       -0.0004912932 0.00040323898 -0.00035685117 -0.00079785916
000130 b9 52 89 3b 9f 69 58 ba 05 a9 b4 bb c7 6c b4 bb
       0.0041907695 -0.0008255485 -0.0055133128 -0.0055061313
000140 a2 33 61 bb 31 9e 65 bb 5d bd 62 bb d3 9b 1b bb
       -0.003436305 -0.0035036916 -0.0034597733 -0.0023744002
000150 9f 41 13 ba cf 6a eb ba 2f 5e 84 ba 17 e6 d8 ba
       -0.0005617383 -0.0017960909 -0.001009887 -0.0016548064
000160 a1 41 13 ba 42 f3 45 3a f5 40 75 b9 d8 28 04 bb
       -0.00056173844 0.0007551202 -0.00023389219 -0.0020165946
000170 f3 45 3a 3b af ed ea b9 39 99 65 bb 9f 39 5c bb
       0.002842304 -0.00044809046 -0.0035033955 -0.003360368
000180 56 c7 67 bb 6b f5 67 bb e8 9e 67 bb 43 cf 2c 39
       -0.0035366616 -0.0035394083 -0.0035342518 0.00016480409
000190 53 6e 92 39 c1 ab 24 38 c9 8e b5 39 5e 11 36 b9
       0.00027929488 3.9260605e-05 0.00034629393 -0.00017363342
0001a0 18 6e 92 39 b3 24 a4 3a 2e e8 16 3a cb b4 d7 39
       0.00027929316 0.0012523144 0.00057566434 0.00041142697
0001b0 2f 0d 88 3b 19 6e 29 3a d9 b8 5d bb c6 4c 6f bb
       0.004151962 0.0006463244 -0.0033832102 -0.0036514266
0001c0 55 4a 67 bb c6 c2 65 bb a0 8b 68 bb 70 c1 e2 3a
       -0.0035292108 -0.003505872 -0.0035483614 0.001730008
0001d0 ae b1 24 b9 47 d6 8e b8 95 0c 14 39 ec ad f7 ba
       -0.0001570645 -6.811e-05 0.00014119067 -0.0018896437
0001e0 a2 b1 24 b9 84 a1 14 3b 9e e8 a0 3a 11 50 6e 3a
       -0.00015706432 0.0022679279 0.0012276357 0.00090909103
0001f0 a3 52 85 3a 2c d7 6a 3a 06 3c 65 bb 31 0e 68 bb
       0.0010171722 0.0008958455 -0.0034978404 -0.003540885
000200 27 a3 bd 39 e1 ac d3 39 db d7 bb 39 a3 38 07 3b
       0.00036170447 0.0004037386 0.00035828244 0.0020633123
000210 72 15 f5 3a 91 1e dc 3a 87 25 dd 3a 6c 83 f9 3a
       0.0018698408 0.0016793777 0.0016872146 0.0019036359
000220 7e 15 f5 3a 44 8b fa ba 94 1c b4 3a 9e 50 06 3b
       0.0018698422 -0.0019114991 0.0013741427 0.002049483
000230 cc 29 68 3b 59 55 11 3b cf 64 32 3a 51 a3 c2 38
       0.0035425304 0.0022176115 0.0006805183 9.281061e-05
000240 bf 38 44 bb 73 88 44 bb 7a 16 44 bb e2 8d 9f 39
       -0.002994105 -0.0029988557 -0.0029920624 0.00030432554
000250 00 48 ab 39 f9 47 83 b9 56 8f 43 39 7e 09 6d ba
       0.00032669306 -0.0002503989 0.00018650046 -0.0009042247
000260 d2 47 ab 39 ae d5 08 3a f2 fd 3e 3a fd c2 a6 38
       0.00032669172 0.0005219829 0.00072857656 7.951816e-05
000270 9c 79 00 3b 52 26 31 3a d8 8b 3c bb f8 83 49 bb
       0.0019603735 0.00067577243 -0.0028769877 -0.0030748826
000280 a8 1d eb bb f6 7d eb bb 91 62 ec bb 31 6a 8a ba
       -0.007175166 -0.0071866466 -0.0072138985 -0.0010560212
000290 0b a2 66 ba e8 cf 90 ba db 74 75 ba ed af bd b9
       -0.000879795 -0.0011048289 -0.0009363421 -0.00036179964
0002a0 0c a2 66 ba 79 b7 0c 3b 1a 1b 8e b9 de 61 c5 b9
       -0.00087979506 0.0021471663 -0.00027104543 -0.00037647685
0002b0 c1 e5 9d 3b ef 96 cb b9 59 97 e8 bb a5 c3 eb bb
       0.0048186486 -0.00038831632 -0.00709812 -0.0071949535
0002c0 99 d9 02 bb d0 9e 02 bb 5b df 02 bb 40 83 79 39
       -0.0019966124 -0.0019931085 -0.0019969556 0.00023795385
0002d0 3d c0 9d 39 9c 71 c2 38 c2 ee 87 39 46 f6 16 b9
       0.00030088602 9.271802e-05 0.00025927095 -0.00014396859
0002e0 51 c0 9d 39 0d 2f aa 39 d2 0c ce 39 14 92 88 39
       0.0003008866 0.00032459982 0.00039300934 0.00026048778
0002f0 96 a4 f1 3a 1b b4 04 3a 32 47 fc ba 6a 13 06 bb
       0.0018435891 0.0005062238 -0.0019247292 -0.002045835
000300 61 0d 29 3c 99 7f 2b 3c 6b 35 29 3c 1d be a6 3b
       0.010318131 0.010467433 0.010327677 0.0050885812
000310 ef b2 8c 3a 56 a4 14 b9 96 85 82 3b a6 f8 43 3c
       0.0010734479 -0.000141756 0.00398321 0.011961138
000320 ee b2 8c 3a 1e 45 61 ba a4 10 9d 3a 59 31 90 3a
       0.0010734478 -0.0008593368 0.0011983109 0.0011001035
000330 ad a7 18 bc 6e b0 81 3b 60 2b 2c 3c a7 71 25 3c
       -0.009317321 0.0039577996 0.010508388 0.010097898
000340 f7 df 86 bb 49 82 85 bb 17 81 87 bb d3 55 f7 3a
       -0.004116054 -0.004074369 -0.0041352618 0.0018870182
000350 8a 1f 65 3a ae 94 c1 3a 94 8a a5 3a 0f fe 49 3a
       0.00087403564 0.0014769041 0.00126298 0.0007705399
000360 82 1f 65 3a 5b fd ea 3a b9 f4 b5 39 5c 57 05 3b
       0.0008740352 0.0017928289 0.00034705343 0.002034626
000370 aa 85 91 3b e3 42 d6 3a a9 80 80 bb de a0 8b bb
       0.004440983 0.0016346838 -0.0039215875 -0.00426112
000380 e6 0c ee 3b 85 7a f1 3b fe d2 ee 3b a7 4e 71 3b
       0.007264721 0.007369342 0.007288336 0.0036820562
000390 ca 8b 98 39 35 9d 17 bb f1 b7 43 3b ce e5 15 3c
       0.0002909585 -0.0023134474 0.0029864276 0.009149028
0003a0 ca 8b 98 39 0a ad bd b9 70 91 9d 3a 6d 18 5f ba
       0.0002909585 -0.00036177813 0.0012021493 -0.00085104146
0003b0 43 c2 0d bc d0 bd 58 3b 0c a3 e9 3b 3d 78 f0 3b
       -0.008652273 0.0033072121 0.0071300324 0.0073385523
0003c0 90 5e f3 ba ee 25 ee ba 27 13 ef ba 26 1d 5c 3a
       -0.001856761 -0.0018169263 -0.0018239961 0.00083966774
0003d0 43 67 65 3a 16 4d 1c b9 df 95 33 3a 65 aa 19 3a
       0.0008751044 -0.00014906036 0.00068506406 0.00058618776
0003e0 4f 67 65 3a 6b 93 df 3a c9 ba 00 3a d9 fa 99 39
       0.0008751051 0.0017057484 0.00049106457 0.0002936933
0003f0 07 ad 0a 3b 86 4f 85 3a 64 c2 e5 ba d1 bf fd ba
       0.0021160261 0.0010170795 -0.0017529246 -0.0019359534

lstm_layer.lstm1.weight_hh_l0 f4 [200, 50]
000000 76 fe f6 37 c3 a1 e8 b7 a5 6b d3 36 ab 1f 03 b8
       2.9443978e-05 -2.7731881e-05 6.3008215e-06 -3.1262327e-05
000010 bd 94 9a 37 57 94 6d b7 03 0f 11 37 41 d4 c7 36
       1.8427492e-05 -1.4160839e-05 8.646169e-06 5.9553718e-06
000020 b5 b3 12 b8 66 af 3e b7 79 55 d6 b6 c5 dc 63 b7
       -3.4976478e-05 -1.1365721e-05 -6.3876473e-06 -1.3581656e-05
000030 0a f5 91 3a 9a d3 a1 37 1b a4 89 3a 85 3e d3 35
       0.0011135649 1.929123e-05 0.0010501178 1.5738921e-06
000040 f7 e9 92 3a cf 27 31 b7 c2 9d ee 37 45 e5 48 38
       0.0011208643 -1.0559291e-05 2.8445273e-05 4.789724e-05
000050 99 83 27 b8 47 73 e9 b5 62 3f 34 37 2e d7 75 b4
       -3.9938463e-05 -1.7393403e-06 1.07435935e-05 -2.2895685e-07
000060 a9 c9 b7 37 01 ea b5 b6 30 6c 0d b7 86 1a 54 37
       2.1909205e-05 -5.421462e-06 -8.429444e-06 1.264236e-05
000070 cb 98 da b7 ec 04 6b 37 fe 40 b3 b6 bb 32 41 37
       -2.6058775e-05 1.40082375e-05 -5.342182e-06 1.1515508e-05
000080 f8 e2 c1 37 e9 4a cf 37 fe e5 54 b5 08 fa 45 b7
       2.3113083e-05 2.4711206e-05 -7.9310837e-07 -1.180033e-05
000090 c6 27 de 36 ab 56 2a b7 e6 20 1e 36 ae 26 8d 3a
       6.620746e-06 -1.0152969e-05 2.3562984e-06 0.0010768974
0000a0 ae 47 19 b7 15 54 8b 3a 30 e6 ad b6 7b e3 b7 37
       -9.1362e-06 0.0010629917 -5.182599e-06 2.1921229e-05
0000b0 0c e1 8b 3a 93 18 35 b8 94 fd 1b b7 4c f6 d0 36
       0.0010671928 -4.317665e-05 -9.297761e-06 6.227556e-06
0000c0 34 2e 7b b7 cb 20 61 36 b0 81 48 38 0c 0a 06 b9
       -1.4971523e-05 3.35467e-06 4.7804497e-05 -0.00012782979
0000d0 05 60 83 b8 e1 e3 a2 b8 ae ee 75 36 da 04 9f 38
       -6.264452e-05 -7.767208e-05 3.6646775e-06 7.5826145e-05
0000e0 d3 ee 82 37 c9 9a ff b8 00 6d 84 b9 83 96 b0 38
       1.5608419e-05 -0.000121881785 -0.00025258213 8.420369e-05
0000f0 7f 94 56 b8 c1 8b 67 38 8a f6 1d ba 55 c1 c4 b7
       -5.1159874e-05 5.5204848e-05 -0.0006025812 -2.3455048e-05
000100 2b 11 1a ba ca ff b3 38 5b 53 22 ba 73 f7 60 38
       -0.0005877192 8.5830296e-05 -0.00061922305 5.3636217e-05
000110 b7 44 a1 38 10 b6 8b 38 96 eb b3 b8 1d 26 07 39
       7.6898774e-05 6.661948e-05 -8.5792664e-05 0.00012888802
000120 8d 84 ad 36 02 74 26 b8 3e 3d 75 38 0d 9a 9c b8
       5.1712327e-06 -3.9685525e-05 5.8469588e-05 -7.467354e-05
000130 7a 3e 2d 39 3c 49 2b 38 c8 5d 4d 39 e4 df 34 b8
       0.0001652184 4.0837782e-05 0.0001958526 -4.312386e-05
000140 9a 0c 1a b8 df 31 2d 38 33 2f df 38 16 47 3e b8
       -3.6728197e-05 4.129286e-05 0.0001064226 -4.5365734e-05
000150 e5 74 24 37 40 ed 9e 37 96 35 f1 36 de c4 6c b9
       9.802378e-06 1.8945546e-05 7.188598e-06 -0.00022580053
000160 97 44 cc 38 26 24 18 ba e2 b0 8f b7 39 ff 15 ba
       9.740254e-05 -0.00058037264 -1.7129296e-05 -0.000572193
000170 31 f7 da b6 70 c8 5b 38 f5 0a 1c ba 84 08 c9 b8
       -6.525683e-06 5.240034e-05 -0.00059525605 -9.586013e-05
000180 57 56 fc 36 b9 3e 94 b6 0c 89 55 38 71 e6 23 38
       7.5202365e-06 -4.4180456e-06 5.0910792e-05 3.9076844e-05
000190 10 94 3e b6 c0 e8 94 37 2d a6 c2 38 7c 53 58 b5
       -2.839839e-06 1.7751358e-05 9.2815935e-05 -8.0587756e-07
0001a0 f7 b3 17 b8 27 88 be 36 49 b7 a1 36 73 2b 04 39
       -3.616881e-05 5.6782915e-06 4.819511e-06 0.00012604687
0001b0 13 a5 13 39 bc d2 96 36 23 b8 3f 37 9f 91 45 b6
       0.00014080507 4.494881e-06 1.142736e-05 -2.944005e-06
0001c0 bc 43 df 39 62 2e c8 b7 67 9e cb 39 65 2a 95 b7
       0.0004258434 -2.3863457e-05 0.00038837196 -1.7781926e-05
0001d0 a6 fe ee 39 6b f0 1c b8 46 c0 69 b8 11 d8 1e b8
       0.00045584625 -3.7417205e-05 -5.5730598e-05 -3.7871363e-05
0001e0 a4 6e ae b6 16 19 ab b8 ae 28 46 37 3c 42 15 37
       -5.1984844e-06 -8.158588e-05 1.1811191e-05 8.8965135e-06
0001f0 23 d0 c0 b7 9f ed 2c 38 91 a7 e0 b8 bf 90 18 b7
       -2.2985105e-05 4.1229297e-05 -0.00010712364 -9.093607e-06
000200 9b f7 68 b9 e0 2c 34 b8 89 8a 8b 37 7b d2 fd b6
       -0.00022217484 -4.2957137e-05 1.6634602e-05 -7.5644907e-06
000210 92 2a 60 b8 b3 a3 4d 38 dc 90 be b5 28 d5 b4 37
       -5.344541e-05 4.9028265e-05 -1.4198263e-06 2.155693e-05
000220 a8 3a 88 36 43 8b cb 38 7c b5 82 b8 bd db ce 39
       4.0599443e-06 9.705734e-05 -6.232687e-05 0.000394551
000230 83 ee c1 36 0b 5c ce 39 f1 e5 90 37 83 f4 30 b8
       5.7796146e-06 0.0003935996 1.7273213e-05 -4.218939e-05
000240 4e 7b d9 39 52 63 bb b7 a7 80 27 b8 b8 09 5b b7
       0.00041481334 -2.2338387e-05 -3.993572e-05 -1.305568e-05
000250 8c 67 a3 b8 88 f9 cc b5 96 e7 22 38 a8 b4 55 38
       -7.791733e-05 -1.5271808e-06 3.883949e-05 5.0951407e-05
000260 18 72 dd 36 ba 7c 6d b8 cb 86 5a 38 75 f2 ac b8
       6.5995955e-06 -5.6621364e-05 5.2100786e-05 -8.24676e-05
000270 ce aa 5c b5 e1 8b eb b8 60 d4 19 b9 12 84 2f b8
       -8.220494e-07 -0.00011231728 -0.00014670333 -4.184625e-05
000280 77 01 80 38 b0 61 2d b8 55 dd ea 39 8b b0 35 38
       6.1037885e-05 -4.1337393e-05 0.00044796863 4.331818e-05
000290 18 4f e3 39 82 a1 cb 37 67 fb e4 39 b6 98 71 b4
       0.00043355743 2.4274694e-05 0.00043674858 -2.250043e-07
0002a0 9f 63 8e 37 90 f9 ca b7 83 f5 58 b8 dc 9b d6 37
       1.6974109e-05 -2.4196488e-05 -5.1727064e-05 2.5583366e-05
0002b0 bd d7 01 38 cd 21 35 38 2b 5a 11 38 b4 a2 a8 b8
       3.095692e-05 4.3185242e-05 3.465467e-05 -8.04117e-05
0002c0 bc 05 90 38 07 a1 8a 38 db a8 6b b6 1d 03 ba 38
       6.867523e-05 6.6103465e-05 -3.5116016e-06 8.869751e-05
0002d0 d1 da 4e 38 35 73 50 36 f8 36 ab 37 6d df ac b6
       4.9318016e-05 3.1061475e-06 2.0410385e-05 -5.1520096e-06
0002e0 78 91 b2 b6 a3 b2 48 38 1a 30 04 38 0a 9d 6b 38
       -5.321748e-06 4.7850084e-05 3.151605e-05 5.617462e-05
0002f0 67 14 e9 37 a4 6b e3 39 92 ef 77 38 bb 9a d7 39
       2.7785265e-05 0.00043377012 5.9112506e-05 0.0004112328
000300 8c f3 a7 37 e3 db c7 b7 3e 34 de 39 7d 71 e5 38
       2.0021362e-05 -2.3825041e-05 0.00042382063 0.0001094071
000310 9f 15 7c 36 ec 61 d4 37 42 a5 3b 38 6b 40 27 b7
       3.7563511e-06 2.5317968e-05 4.4738183e-05 -9.968974e-06
000320 d1 a4 86 36 be 48 ef b6 c7 9e c5 b7 2b ee 27 b7
       4.0126984e-06 -7.1312234e-06 -2.3558167e-05 -1.00094285e-05
000330 db 45 32 38 dc eb d6 b7 2a 19 d3 37 bc 6d 43 b6
       4.2503565e-05 -2.5620619e-05 2.5164878e-05 -2.9121138e-06
000340 41 02 1d b8 20 b5 28 38 8c 03 2c b8 ee 2a cd 36
       -3.7433816e-05 4.0223007e-05 -4.10113e-05 6.1144738e-06
000350 f9 34 05 39 aa 5c 05 38 cc 9b cc 38 80 0a 09 b7
       0.00012703602 3.179597e-05 9.7564975e-05 -8.168281e-06
000360 55 d0 14 39 a3 86 4e b8 57 fd b7 b7 5f 96 a9 38
       0.0001419199 -4.9239618e-05 -2.193327e-05 8.086557e-05
000370 48 50 ac 38 89 c6 ac b6 6f 74 6d 37 0d f2 5d b7
       8.216553e-05 -5.149112e-06 1.415341e-05 -1.3228983e-05
000380 57 96 1f b7 05 e8 d8 b6 f8 2d a8 b8 1e 4f 35 b6
       -9.512142e-06 -6.4643123e-06 -8.0194266e-05 -2.7017154e-06
000390 89 d0 43 b8 e4 9f c0 37 8d 71 dc 33 e4 8a 5b 37
       -4.6685836e-05 2.2962638e-05 1.0265203e-07 1.3085755e-05
0003a0 57 5a cd 37 11 ae 29 b8 df f9 a1 b5 d6 be 93 b7
       2.4479972e-05 -4.0454852e-05 -1.2068157e-06 -1.761263e-05
0003b0 82 f2 df b7 a0 9c dd b8 c0 0b 11 b7 3b 0d f3 38
       -2.6696598e-05 -0.00010567275 -8.645409e-06 0.00011589607
0003c0 fc 2e 84 b6 df 70 f8 38 8d 44 27 37 44 9e 91 36
       -3.9393763e-06 0.000118465854 9.969936e-06 4.3397613e-06
0003d0 f6 5b ee 38 7c bb 86 b8 05 95 18 38 38 f1 4a b7
       0.000113658534 -6.4245396e-05 3.637841e-05 -1.2096301e-05
0003e0 67 71 b3 b7 ae ad 26 36 af 36 33 38 0d 6f 95 37
       -2.139127e-05 2.4837022e-06 4.2727854e-05 1.7813896e-05
0003f0 af 27 17 39 29 fd f1 37 a2 e8 f7 b7 34 88 63 38
       0.00014415265 2.8847326e-05 -2.9553023e-05 5.4247867e-05

lstm_layer.lstm1.bias_ih_l0 f4 [200]
000000 ff 40 a2 bb 45 73 c7 b9 e2 c6 2b bb 35 52 0d bb
       -0.004951596 -0.0003804212 -0.0026211073 -0.0021563892
000010 8d 45 70 bb 61 b8 4c bb 94 3f 81 bb 86 c3 a5 ba
       -0.003666255 -0.0031237828 -0.0039443467 -0.0012646772
000020 55 24 47 bb aa 43 e8 ba 0f 94 a5 bb 9d eb cb ba
       -0.0030386646 -0.0017720361 -0.0050530504 -0.0015557889
000030 44 c8 da 3b 0b 55 a5 bb ed 83 c9 3b 32 0a 39 bb
       0.0066767056 -0.0050455383 0.00614976 -0.0028234837
000040 40 eb ef 3b 33 b9 1e bb a3 f0 c4 ba 81 8f 2b bb
       0.007321745 -0.0024219274 -0.0015025329 -0.0026178064
000050 0b 62 79 bb fd 66 b6 ba 57 d6 9b ba 95 86 25 bb
       -0.0038052823 -0.0013916191 -0.001188944 -0.002525722
000060 77 5b 15 bb 00 6b 28 bb a9 cb db ba 5e f7 84 ba
       -0.0022790113 -0.0025698543 -0.001676907 -0.0010144522
000070 0d 1a 02 bb f2 66 97 ba 39 df 8e bb ce ae 74 bb
       -0.0019851953 -0.0011551066 -0.0043601063 -0.0037335637
000080 38 0e 17 bb 99 31 94 bb c2 e2 1c bb b5 c9 33 bb
       -0.0023049247 -0.004522514 -0.002393887 -0.002743346
000090 61 4c 03 bb e3 b1 d5 b9 e8 e8 f2 ba c1 e7 b4 3b
       -0.002003454 -0.00040759062 -0.0018532546 0.0055207913
0000a0 15 af 17 bb 5a 48 c2 3b f9 ed fe ba b6 c7 8f bb
       -0.0023145129 0.005929035 -0.0019449583 -0.004387821
0000b0 fa 4d b0 3b a1 71 97 ba 9e 73 7b bb 3e cc 1a bb
       0.0053803893 -0.001155425 -0.0038368474 -0.0023620273
0000c0 20 7e 8f bb fe 2f 56 bb 5d c0 9d bb 5e 08 8a b9
       -0.004379049 -0.0032682414 -0.0048141913 -0.00026327645
0000d0 ae bf 27 bb d6 53 02 bb 3b 51 58 bb 89 e0 3d bb
       -0.0025596428 -0.0019886396 -0.0033007402 -0.0028972945
0000e0 88 91 77 bb b4 87 af ba 7d 37 45 bb 68 46 c7 ba
       -0.0037775952 -0.0013391883 -0.0030092888 -0.0015203478
0000f0 de 56 88 bb 11 4e b6 ba ce 0f e4 3b 3a 89 99 bb
       -0.004160746 -0.0013908764 0.006959892 -0.004685548
000100 dd cd c7 3b f7 00 38 bb 50 76 f8 3b 93 b1 1e bb
       0.006097539 -0.0028076747 0.0075824633 -0.002421473
000110 dc b9 82 ba c3 a0 1f bb 1e 2d 78 bb 28 16 b1 ba
       -0.0009973603 -0.0024357296 -0.0037868689 -0.0013510631
000120 b1 e7 89 ba 14 55 24 bb 79 3d 10 bb 8c 8e 1b bb
       -0.001052132 -0.0025075125 -0.0022009297 -0.0023736088
000130 2d ac bb ba 70 6c 88 ba 7b 24 ec ba c4 3c 6c ba
       -0.001431828 -0.0010408293 -0.0018016243 -0.00090117403
000140 01 23 82 bb 20 d5 62 bb 36 b5 0f bb 02 6c 90 bb
       -0.003971458 -0.0034611896 -0.0021928078 -0.004407407
000150 5d bf 1b bb 95 89 33 bb 88 d7 eb ba c9 19 9f b9
       -0.0023765184 -0.0027395238 -0.001799331 -0.00030346055
000160 e7 0f de ba 20 c3 ba 3b d6 e2 0f bb 47 9b c5 3b
       -0.0016941995 0.0056995302 -0.0021955273 0.0060304734
000170 11 24 e2 ba b2 5d 86 bb 5a 5c b9 3b 6e 49 90 ba
       -0.001725318 -0.004100525 0.005656761 -0.0011008212
000180 e5 d0 60 bb b0 3a 16 bb b2 3f 81 bb 3d f3 4a bb
       -0.0034304198 -0.0022923164 -0.0039443607 -0.0030967735
000190 30 a0 13 bb 66 fc e2 ba 10 1b 1a 39 b4 dd 1f b9
       -0.00225259 -0.0017317652 0.00014696666 -0.00015246012
0001a0 a0 54 21 bb 42 0a 3d 3b 1a 04 9b ba 11 03 8a 3a
       -0.002461709 0.0028845225 -0.0011826784 0.0010529478
0001b0 2f 29 0e 3b ba 1c 5d 3b b4 5e 95 ba d7 8e 83 3a
       0.0021692028 0.0033739046 -0.0011396022 0.0010037076
0001c0 58 f6 f4 3a 9c ae cf ba 6d 51 96 3b a8 0a 1d ba
       0.0018689139 -0.0015844884 0.0045873434 -0.00059906626
0001d0 cf 44 bb b9 ea 46 92 3a f3 e5 4d 38 2d 0a ee 3a
       -0.00035718686 0.001116005 4.9089966e-05 0.0018160992
0001e0 e1 b1 5a 39 cf 96 e4 37 9f b6 11 ba 28 66 cc ba
       0.00020856365 2.7249944e-05 -0.00055585237 -0.001559441
0001f0 b8 fb f0 37 ee eb ab 3a 1d cf 75 3a 68 00 04 bb
       2.8727445e-05 0.0013116577 0.00093768706 -0.0020141844
000200 5d f8 56 3b 39 06 20 bb 99 f0 02 bb d1 8b 49 3a
       0.0032801845 -0.0024417771 -0.0019979833 0.0007688376
000210 99 03 55 ba 50 ed 1f bb 71 88 9a 3a e8 5d 06 ba
       -0.0008125841 -0.0024402924 0.001178993 -0.00051256875
000220 27 b1 ce ba a8 ee 46 bb 2b 71 1d ba 63 06 99 3b
       -0.0015769348 -0.0030354653 -0.0006005938 0.004669951
000230 99 16 1f bb 9b 89 fb 3a 3c 10 c4 38 54 75 77 3a
       -0.0024274944 0.001919079 9.349032e-05 0.00094397855
000240 3c 04 81 3b 57 ea 9c bb a7 2b a5 b9 eb 01 cb 3a
       0.0039372724 -0.0047886777 -0.00031503776 0.0015488242
000250 2a 3c 06 bb 60 ae 2c 3a 3e 52 a2 bb 6a 0d c8 b9
       -0.0020482638 0.0006587263 -0.0049536517 -0.00038156967
000260 3c d2 2b bb 38 76 0d bb 00 b8 70 bb c3 b9 4d bb
       -0.0026217839 -0.0021585356 -0.0036730766 -0.003139124
000270 a9 43 81 bb 82 05 a6 ba d1 21 47 bb e0 88 e8 ba
       -0.0039448333 -0.0012666436 -0.0030385146 -0.0017740987
000280 24 be a5 bb ef 49 cc ba 92 f3 0d 3c b3 8b a5 bb
       -0.005058067 -0.0015585999 0.008664029 -0.005052054
000290 dc 5f 06 3c 99 13 39 bb 23 ad 18 3c a4 be 1e bb
       0.008201566 -0.002824044 0.009318623 -0.0024222517
0002a0 53 09 c5 ba 25 bd 2b bb b6 aa 79 bb ca e3 b6 ba
       -0.0015032686 -0.0026205268 -0.0038096136 -0.0013953384
0002b0 83 11 9c ba d9 95 25 bb 5a 95 15 bb 39 9e 28 bb
       -0.0011907074 -0.0025266318 -0.0022824616 -0.0025729074
0002c0 f1 2b dd ba 11 06 85 ba 6a b8 02 bb 1c 91 97 ba
       -0.0016874057 -0.0010148903 -0.0019946345 -0.0011563632
0002d0 8c f0 8e bb 74 21 75 bb 2a 2f 17 bb 8b 30 94 bb
       -0.0043621715 -0.0037403973 -0.0023068883 -0.0045223883
0002e0 f9 fd 1c bb bd 15 34 bb 43 6b 03 bb 64 cc d7 b9
       -0.002395509 -0.0027478777 -0.0020052947 -0.00041160278
0002f0 38 3a f3 ba 0a e9 f6 3b a6 0d 18 bb a4 fe 03 3c
       -0.0018556779 0.0075351046 -0.0023201494 0.0080563165
000300 e0 95 ff ba 2c d3 8f bb 14 fb ed 3b 64 c0 97 ba
       -0.0019499622 -0.0043891873 0.007262597 -0.0011577723
000310 96 c9 7b bb 6d ea 1a bb d7 bd 8f bb bd 7b 56 bb
       -0.0038419715 -0.0023638264 -0.0043866443 -0.0032727562

lstm_layer.lstm1.bias_hh_l0 f4 [200]
000000 ff 40 a2 bb 38 73 c7 b9 e8 c6 2b bb 26 52 0d bb
       -0.004951596 -0.00038042082 -0.0026211087 -0.0021563857
000010 8c 45 70 bb 68 b8 4c bb 8b 3f 81 bb 85 c3 a5 ba
       -0.0036662547 -0.0031237844 -0.0039443425 -0.001264677
000020 50 24 47 bb 80 43 e8 ba 10 94 a5 bb b9 eb cb ba
       -0.0030386634 -0.0017720312 -0.005053051 -0.0015557922
000030 44 c8 da 3b 0b 55 a5 bb eb 83 c9 3b 32 0a 39 bb
       0.0066767056 -0.0050455383 0.006149759 -0.0028234837
000040 3d eb ef 3b 31 b9 1e bb 93 f0 c4 ba 82 8f 2b bb
       0.0073217438 -0.002421927 -0.001502531 -0.0026178067
000050 04 62 79 bb cf 66 b6 ba 25 d6 9b ba 9b 86 25 bb
       -0.0038052807 -0.0013916137 -0.0011889382 -0.0025257233
000060 77 5b 15 bb 07 6b 28 bb a2 cb db ba 60 f7 84 ba
       -0.0022790113 -0.002569856 -0.0016769061 -0.0010144524
000070 f6 19 02 bb ed 66 97 ba 38 df 8e bb cb ae 74 bb
       -0.00198519 -0.001155106 -0.004360106 -0.003733563
000080 42 0e 17 bb 9a 31 94 bb ed e2 1c bb a3 c9 33 bb
       -0.002304927 -0.0045225145 -0.002393897 -0.0027433417
000090 8f 4c 03 bb 73 b5 d5 b9 fa e8 f2 ba c0 e7 b4 3b
       -0.0020034646 -0.00040761716 -0.0018532567 0.005520791
0000a0 e9 ae 17 bb 5a 48 c2 3b ab ed fe ba bc c7 8f bb
       -0.0023145026 0.005929035 -0.0019449493 -0.004387824
0000b0 fa 4d b0 3b 3b 71 97 ba a4 73 7b bb 22 cc 1a bb
       0.0053803893 -0.0011554131 -0.0038368488 -0.0023620208
0000c0 20 7e 8f bb 19 30 56 bb 57 c0 9d bb 84 08 8a b9
       -0.004379049 -0.0032682477 -0.0048141885 -0.00026327756
0000d0 a6 bf 27 bb e3 53 02 bb 3e 51 58 bb 89 e0 3d bb
       -0.002559641 -0.0019886426 -0.0033007408 -0.0028972945
0000e0 88 91 77 bb 9e 87 af ba 7d 37 45 bb 8c 46 c7 ba
       -0.0037775952 -0.0013391858 -0.0030092888 -0.001520352
0000f0 df 56 88 bb dc 4d b6 ba c8 0f e4 3b 53 89 99 bb
       -0.0041607465 -0.0013908702 0.006959889 -0.00468556
000100 c7 cd c7 3b f2 00 38 bb 50 76 f8 3b 67 b1 1e bb
       0.0060975286 -0.0028076735 0.0075824633 -0.0024214627
000110 75 b9 82 ba d3 a0 1f bb 24 2d 78 bb 2d 16 b1 ba
       -0.0009973483 -0.0024357333 -0.0037868703 -0.0013510637
000120 f7 e7 89 ba 14 55 24 bb 6b 3d 10 bb 6b 8e 1b bb
       -0.0010521401 -0.0025075125 -0.0022009264 -0.002373601
000130 23 ac bb ba 8e 6c 88 ba 7e 24 ec ba 6f 3b 6c ba
       -0.0014318269 -0.0010408328 -0.0018016247 -0.0009011542
000140 f7 22 82 bb 1e d5 62 bb 26 b5 0f bb 01 6c 90 bb
       -0.0039714533 -0.003461189 -0.0021928041 -0.0044074063
000150 55 bf 1b bb 7b 89 33 bb be d7 eb ba 88 18 9f b9
       -0.0023765166 -0.0027395177 -0.0017993373 -0.0003034512
000160 e4 0f de ba 24 c3 ba 3b d4 e2 0f bb 58 9b c5 3b
       -0.0016941992 0.005699532 -0.0021955268 0.0060304813
000170 06 24 e2 ba b2 5d 86 bb 5a 5c b9 3b d1 49 90 ba
       -0.0017253167 -0.004100525 0.005656761 -0.0011008327
000180 e6 d0 60 bb ef 3a 16 bb b2 3f 81 bb 4b f3 4a bb
       -0.00343042 -0.002292331 -0.0039443607 -0.0030967768
000190 66 f8 11 bb e6 21 e3 ba 10 20 1a 39 51 d8 1f b9
       -0.00222733 -0.0017328828 0.00014698529 -0.00015244006
0001a0 dc a9 22 bb 65 0d 3d 3b 9c 08 9c ba 46 d9 89 3a
       -0.0024820482 0.0028847095 -0.0011904421 0.0010517023
0001b0 60 2b 0e 3b 96 48 5d 3b 19 6a 96 ba 8f fc 81 3a
       0.0021693334 0.0033765188 -0.0011475711 0.0009917187
0001c0 f1 b2 e0 3a 21 fd cf ba a8 6a 9a 3b be 9b 1c ba
       0.0017143172 -0.0015868285 0.0047124214 -0.0005974135
0001d0 76 b4 db b9 e4 98 91 3a 3e 8e 8b 38 44 10 ee 3a
       -0.0004190539 0.0011108187 6.654531e-05 0.0018162807
0001e0 ce 9a 61 39 74 90 ea 37 61 ea 0e ba 73 6d cc ba
       0.00021515341 2.796224e-05 -0.00054517953 -0.0015596583
0001f0 3c c1 3c 38 34 88 ab 3a 50 1e 80 3a d6 1f 04 bb
       4.5002656e-05 0.0013086856 0.0009774659 -0.0020160577
000200 00 9a 58 3b f0 fb 1f bb 72 6a 03 bb 26 a3 4d 3a
       0.0033050776 -0.002441164 -0.002005246 0.00078444404
000210 57 09 55 ba 4a a8 1f bb c2 a9 9e 3a a7 68 04 ba
       -0.0008126697 -0.0024361783 0.0012105035 -0.0005050995
000220 86 3b ce ba 9f e7 46 bb f5 aa 16 ba 74 a2 98 3b
       -0.0015734292 -0.003035046 -0.00057475205 0.004658038
000230 ef 0d 1f bb 5f b8 ff 3a 61 d6 a4 38 d0 67 7a 3a
       -0.002426978 0.0019509903 7.8600606e-05 0.00095522124
000240 85 10 81 3b 57 ea 9c bb e1 97 9a b9 08 52 ce 3a
       0.003938737 -0.0047886777 -0.00029486328 0.0015741
000250 b5 12 04 bb 83 77 21 3a 3d 52 a2 bb c4 0c c8 b9
       -0.0020152752 0.0006159471 -0.004953651 -0.00038156484
000260 3c d2 2b bb 3e 76 0d bb 0d b8 70 bb bd b9 4d bb
       -0.0026217839 -0.002158537 -0.0036730797 -0.0031391226
000270 a7 43 81 bb 74 05 a6 ba cb 21 47 bb e4 88 e8 ba
       -0.0039448324 -0.001266642 -0.0030385132 -0.0017740992
000280 20 be a5 bb 17 4a cc ba 93 f3 0d 3c aa 8b a5 bb
       -0.005058065 -0.0015586045 0.00866403 -0.0050520496
000290 df 5f 06 3c 99 13 39 bb 23 ad 18 3c a4 be 1e bb
       0.008201568 -0.002824044 0.009318623 -0.0024222517
0002a0 94 09 c5 ba 2b bd 2b bb ad aa 79 bb a4 e3 b6 ba
       -0.0015032762 -0.0026205282 -0.0038096115 -0.001395334
0002b0 3d 11 9c ba e4 95 25 bb 6e 95 15 bb 2e 9e 28 bb
       -0.0011906993 -0.0025266344 -0.0022824663 -0.0025729048
0002c0 f1 2b dd ba b4 05 85 ba 70 b8 02 bb ed 90 97 ba
       -0.0016874057 -0.0010148794 -0.001994636 -0.0011563577
0002d0 8b f0 8e bb 74 21 75 bb 0e 2f 17 bb 8a 30 94 bb
       -0.004362171 -0.0037403973 -0.0023068818 -0.004522388
0002e0 e3 fd 1c bb bd 15 34 bb 35 6b 03 bb 8c cc d7 b9
       -0.002395504 -0.0027478777 -0.0020052914 -0.00041160395
0002f0 38 3a f3 ba 09 e9 f6 3b 9c 0d 18 bb 9c fe 03 3c
       -0.0018556779 0.007535104 -0.0023201471 0.008056309
000300 dc 95 ff ba 2c d3 8f bb 18 fb ed 3b 72 c0 97 ba
       -0.0019499618 -0.0043891873 0.0072625987 -0.0011577739
000310 96 c9 7b bb 8d ea 1a bb d7 bd 8f bb bd 7b 56 bb
       -0.0038419715 -0.0023638338 -0.0043866443 -0.0032727562

gbrbm.W f4 [50, 100]
000000 5a ed e9 39 94 2e 8c b9 cc c3 2c 39 a1 37 a6 b9
       0.00044618064 -0.00026737584 0.00016476138 -0.00031703434
000010 49 82 3c b7 f3 ff 05 39 7c 8f 21 39 e1 3d 84 3a
       -1.1236008e-05 0.00012779217 0.00015407609 0.0010089242
000020 40 60 0f ba c0 1b 49 38 b2 ae c5 39 1b 24 48 3a
       -0.00054693595 4.794798e-05 0.00037704926 0.00076347747
000030 79 97 74 b9 78 fb 1e 3b 85 a7 bf b9 05 38 e0 3a
       -0.00023326081 0.0024258774 -0.0003655517 0.0017106539
000040 35 f0 73 ba b3 0d 6b b9 dd b5 96 3a e4 a6 4f 3a
       -0.0009305508 -0.0002241645 0.0011498291 0.0007921292
000050 d6 46 6c 39 29 c8 0a 3a 26 82 ce 3a 18 90 23 ba
       0.00022533102 0.00052941084 0.001575534 -0.0006239428
000060 89 c2 84 3a 3e d4 68 b9 07 3a 04 ba aa b2 fb b8
       0.0010128777 -0.0002220431 -0.0005044047 -0.000120018914
000070 ea 20 ba b8 40 34 d6 39 e2 d7 8b 39 43 f9 a9 3a
       -8.875302e-05 0.0004085619 0.0002667299 0.0012967963
000080 5f dc 8f 39 f9 3b 13 3a 84 c8 32 3a 41 7a 40 3a
       0.00027439275 0.00056165416 0.000682004 0.0007342436
000090 b3 63 8d 3a 58 1c 6b ba a9 44 ad 3a ed 04 e1 39
       0.0010787159 -0.0008968762 0.0013219315 0.00042919014
0000a0 ce 52 88 38 c3 97 84 ba be 21 d7 ba 7a 71 3d ba
       6.500409e-05 -0.0010116029 -0.0016413254 -0.0007226687
0000b0 c4 4c f0 b7 31 c1 34 38 ec 80 98 3a 64 d3 0c 3a
       -2.8645976e-05 4.3095268e-05 0.0011635101 0.0005372076
0000c0 74 35 02 3a 73 b2 8a 3a a6 7f 98 38 33 f3 64 3a
       0.00049670716 0.0010581746 7.271701e-05 0.0008733749
0000d0 f5 ff 9b 3a d1 8d 67 ba 9d 0c f0 39 b2 17 94 b9
       0.0011901843 -0.0008833083 0.00045785765 -0.00028246414
0000e0 f8 8f 57 3a a1 11 e4 3a a5 3f 99 3a 42 25 8e ba
       0.0008223052 0.0017400273 0.0011691941 -0.0010844844
0000f0 a2 9e 65 b9 44 35 19 3a 15 e6 0a bb 57 a8 06 ba
       -0.00021898237 0.0005844424 -0.0021194268 -0.0005136779
000100 ab ba 67 ba 5c 74 9b b9 0e 45 da 39 de 0f 81 39
       -0.00088397664 -0.00029650598 0.0004163165 0.0002461662
000110 d9 54 1f 39 f1 d4 45 3a 66 22 ad b9 5f 8b cf b9
       0.0001519503 0.00075466844 -0.0003302276 -0.00039585956
000120 e9 12 88 3a 67 c3 a1 38 e0 87 58 b8 ef ee 16 3a
       0.0010381612 7.713475e-05 -5.1624957e-05 0.000575765
000130 f4 57 52 3a 64 6f 12 3a ab 51 80 39 d4 ac 93 39
       0.00080239703 0.00055860565 0.0002447491 0.00028166792
000140 5a a7 a5 37 34 19 ba 3a 65 58 8c b8 5d e3 d4 3a
       1.9747462e-05 0.0014198185 -6.692185e-05 0.0016242076
000150 74 cd 6c b8 93 04 ae b9 c7 11 b1 39 7f 96 3f 39
       -5.6458128e-05 -0.00033191274 0.00033773316 0.00018271244
000160 75 37 51 ba be 73 71 39 9a 42 68 3a 20 d9 86 39
       -0.0007980981 0.00023026668 0.0008860022 0.00025720242
000170 e9 1a e7 3a ca 5b 9e 3a 53 d4 00 3a d6 d3 c9 39
       0.0017631921 0.0012081799 0.0004914451 0.00038495538
000180 58 57 1a 3a 34 1a dd b9 21 eb 11 ba d7 09 d7 39
       0.0005887649 -0.00042171928 -0.0005566348 0.00041015327
000190 0c f3 a2 b9 87 93 90 b7 98 13 30 ba d8 80 66 b9
       -0.00031080132 -1.7234835e-05 -0.0006716787 -0.00021982507
0001a0 c3 f8 e4 37 e0 6c e6 b9 f4 58 26 3a e6 79 f2 b9
       2.7295557e-05 -0.00043950137 0.00063456525 -0.00046248658
0001b0 d2 7f 8e 3a 68 6f 05 3a 86 50 ce 3a 5c a3 25 ba
       0.0010871834 0.0005090148 0.0015740551 -0.0006318593
0001c0 ea 3c 11 39 3d ed 05 b6 8e fd 79 3a 8b 96 f2 38
       0.0001385097 -1.9956635e-06 0.0009536379 0.000115675
0001d0 0f 50 ab 39 3e f1 f6 37 85 15 9d b8 5c d0 6b ba
       0.0003267531 2.9437822e-05 -7.490352e-05 -0.00089955865
0001e0 79 0b dc 39 c2 bb 7b b9 43 b9 1b ba 0c 3e 88 ba
       0.00041970218 -0.0002400717 -0.0005940387 -0.0010394468
0001f0 63 9b 66 b9 d7 0e a0 b9 c9 c2 9e 39 48 37 88 39
       -0.00021992395 -0.00030528635 0.00030281235 0.0002598113
000200 fa 81 76 3a e7 75 21 3a f3 30 dd b9 20 bd 69 b9
       0.0009403523 0.00061592314 -0.00042188875 -0.00022291066
000210 f2 b7 82 39 aa da 23 ba 99 77 05 37 06 f5 77 39
       0.00024932582 -0.000625054 7.955264e-06 0.00023647034
000220 af 8f 71 39 93 be e7 ba 5b 07 68 b8 ce d5 f7 39
       0.00023037077 -0.0017680697 -5.531996e-05 0.00047270808
000230 e1 f6 dd ba a9 05 88 b9 68 99 95 3a 6e 53 56 b9
       -0.0016934538 -0.0002594416 0.0011413516 -0.0002043971
000240 2d 00 3e 3a db a0 81 b9 c7 56 04 3a ab 36 84 3a
       0.0007247951 -0.00024724644 0.0005048331 0.0010087093
000250 57 46 eb 39 02 43 91 ba ba 15 af 39 e7 15 a3 3a
       0.000448751 -0.0011082592 0.0003339479 0.001244244
000260 8d cb dd b9 7d ac a8 39 e0 52 4f 39 13 23 88 39
       -0.00042304062 0.0003217197 0.00019771932 0.00025966074
000270 33 29 ba b9 3e da 56 3a 23 b0 a8 39 b7 6a 11 3a
       -0.0003550738 0.0008195973 0.0003217469 0.0005547213
000280 6d 3c 9c 39 cc 66 54 b9 af f5 10 3a a1 98 79 b5
       0.0002979966 -0.0002025619 0.0005529774 -9.298183e-07
000290 65 ae ae 39 77 fe 0f ba 4f 41 cf 39 31 4f fb 39
       0.000333178 -0.00054929353 0.00039530775 0.00047933453
0002a0 99 89 fe 38 0e 20 6a b8 28 a7 5a b8 9f 6a 12 ba
       0.000121372934 -5.58198e-05 -5.2130927e-05 -0.0005585346
0002b0 b7 69 98 3a 66 9d 79 ba 1c 08 88 39 03 4e aa 38
       0.0011628185 -0.00095220504 0.00025945983 8.1207625e-05
0002c0 c6 9b 95 ba f4 ba d7 b9 45 3f 3d b9 12 60 a3 39
       -0.0011414222 -0.00041147287 -0.00018048014 0.0003116136
0002d0 54 d5 9f ba 3f 92 97 39 ab 17 e4 ba 03 78 a0 b9
       -0.0012194314 0.00028909926 -0.0017402073 -0.00030606994
0002e0 af 47 b9 b9 3d ac 66 39 10 15 99 ba 42 82 a0 b9
       -0.00035339358 0.00021998673 -0.0011679251 -0.00030614628
0002f0 d1 32 5b ba 5b 0c c1 39 7b ff 1d 3a 69 3f 29 b9
       -0.0008361759 0.00036821034 0.0006027144 -0.00016140718
000300 c4 93 13 3a f6 ae 1f 3a 14 6d 9d 3a 92 53 9f b9
       0.0005629624 0.000609144 0.0012010657 -0.00030389108
000310 8c 5a 17 3a c3 b5 71 b5 50 45 5e ba 6d 76 09 3a
       0.00057736854 -9.0043994e-07 -0.00084789563 0.0005243782
000320 32 62 72 b8 ce ae 61 ba e4 2b b3 3a cc b2 30 3a
       -5.7788748e-05 -0.0008609117 0.0013669697 0.000674051
000330 ef 83 9e 38 67 26 10 3a 69 c8 9b ba ce 00 98 ba
       7.558602e-05 0.00054988865 -0.0011885288 -0.001159692
000340 97 3f 63 38 fb 37 16 b9 0b b4 07 ba 8f dc 69 39
       5.418024e-05 -0.00014325969 -0.000517667 0.00022302776
000350 a3 9b 3c 39 54 ba 51 3a a2 9a b4 ba be 69 f0 39
       0.00017987056 0.00080004823 -0.0013778994 0.0004585515
000360 23 5c 50 38 33 14 29 ba 0a b2 cd b8 3d 38 40 3a
       4.9676873e-05 -0.00064498483 -9.808324e-05 0.0007332599
000370 e1 82 07 39 f7 97 39 3a 22 9a fb 3a af 6a 5b 37
       0.0001292336 0.00070798345 0.0019195715 1.3078256e-05
000380 05 21 26 ba 75 c7 e2 b9 28 f8 73 b8 99 bc bb 39
       -0.0006337318 -0.00043254686 -5.816683e-05 0.00035807936
000390 54 f3 bd 39 af 85 83 3a 4e 22 82 b9 b5 98 c4 b9
       0.00036230183 0.0010034348 -0.0002482109 -0.0003749781
0003a0 65 21 1e 3a 1d 92 26 ba 3e 52 3e 39 18 61 f0 b9
       0.0006032198 -0.000635417 0.0001815045 -0.00045848708
0003b0 63 38 0e 3a 6a db 07 39 0b 7d 89 39 ca 4c 58 3a
       0.00054252724 0.00012956341 0.0002622384 0.00082511886
0003c0 38 57 1b ba 50 0a 14 39 c2 c6 ad b9 87 ac 63 b8
       -0.00059257774 0.00014118222 -0.00033145217 -5.4281696e-05
0003d0 72 2c fc 39 31 08 a3 37 b6 de 2a 3a 15 c3 98 3a
       0.000480983 1.9434929e-05 0.0006518172 0.0011654819
0003e0 b7 53 a7 39 c2 8c b6 39 56 7e e6 b9 54 1c fc 3a
       0.00031915095 0.00034818618 -0.00043963146 0.0019234517
0003f0 04 a2 a3 b9 2f 31 43 b9 a2 5e 92 b9 ff b0 d1 3a
       -0.00031210494 -0.00018614971 -0.00027917797 0.0015998184

gbrbm.b f4 [100]
000000 10 20 1c c0 b5 a6 01 c0 c3 d2 2b c0 53 64 0f c0
       -2.439457 -2.0258 -2.6847389 -2.2404983
000010 55 cd 07 c0 3e 6f 13 c0 ec db 15 c0 ce 13 0b c0
       -2.1219075 -2.3036647 -2.341548 -2.1730838
000020 e2 e0 15 c0 59 bb d1 bf 34 ce ff bf 3c 9c 14 c0
       -2.3418508 -1.6385299 -1.9984803 -2.3220358
000030 39 4f 05 c0 c0 43 13 c0 a1 73 05 c0 7d 5c 16 c0
       -2.0829604 -2.3010101 -2.0851824 -2.349395
000040 89 26 14 c0 b9 ff 18 c0 0a 97 04 c0 e6 85 14 c0
       -2.314852 -2.390608 -2.0717187 -2.3206725
000050 74 92 02 c0 65 a0 19 c0 31 b6 17 c0 49 ab 25 c0
       -2.0401888 -2.4004147 -2.370495 -2.5885794
000060 e9 4e 22 c0 8f 5f 1b c0 b8 68 12 c0 14 18 1b c0
       -2.5360663 -2.4277074 -2.2876415 -2.4233446
000070 1c 62 19 c0 3a 6b 14 c0 0b 0f 20 c0 ba 9e 1b c0
       -2.3966131 -2.3190446 -2.5009181 -2.431563
000080 8f 10 12 c0 16 9a 1d c0 13 ac 32 c0 5b 3d 26 c0
       -2.2822607 -2.4625297 -2.7917526 -2.5974948
000090 2a 42 10 c0 7c 4a 17 c0 f3 8d 17 c0 9f 1d 1b c0
       -2.2540383 -2.3639212 -2.368039 -2.423683
0000a0 52 0a 18 c0 51 92 26 c0 ee 43 13 c0 02 d5 0d c0
       -2.37563 -2.6026804 -2.301021 -2.216126
0000b0 e3 ea 15 c0 f7 fa 07 c0 d6 42 1d c0 34 b7 01 c0
       -2.3424613 -2.1246927 -2.4572043 -2.0268068
0000c0 e7 a9 13 c0 77 3f 0c c0 ed 85 09 c0 ab 29 01 c0
       -2.307245 -2.1913736 -2.1487992 -2.0181682
0000d0 fe 9e eb bf 8e 8f 01 c0 a5 8a 1b c0 af ef 08 c0
       -1.8407896 -2.024387 -2.4303372 -2.1396291
0000e0 9b 3c 0f c0 ed f5 1b c0 7e 46 23 c0 43 5a 1f c0
       -2.238074 -2.436885 -2.5511775 -2.4898841
0000f0 ae 73 10 c0 33 04 0c c0 51 60 16 c0 7f 43 0c c0
       -2.2570605 -2.1877563 -2.3496287 -2.1916196
000100 65 69 21 c0 b8 49 0b c0 bc f7 f8 bf 66 cc 12 c0
       -2.5220578 -2.1763744 -1.9450603 -2.2937255
000110 b0 ee 12 c0 6a 26 1d c0 0c 4e 15 c0 de af 00 c0
       -2.2958183 -2.4554696 -2.3328886 -2.010734
000120 54 59 eb bf 41 0f 1f c0 dd 41 22 c0 52 60 20 c0
       -1.8386636 -2.485306 -2.53527 -2.505879
000130 dc 2d 07 c0 46 8d 0e c0 f8 59 0c c0 58 ad 13 c0
       -2.112174 -2.2273726 -2.1929913 -2.307455
000140 53 c8 26 c0 6f 32 19 c0 d6 1e 1c c0 78 a3 23 c0
       -2.6059768 -2.3937032 -2.439382 -2.5568523
000150 09 97 15 c0 23 9f 19 c0 ef 5f 04 c0 0f d0 08 c0
       -2.3373435 -2.400338 -2.0683553 -2.137699
000160 88 75 15 c0 1e ca d1 bf 15 99 28 c0 b3 7d 17 c0
       -2.3352985 -1.6389806 -2.6343434 -2.367047
000170 b2 8d 15 c0 6d ef 1f c0 9f 6b 19 c0 dc 0b 08 c0
       -2.3367734 -2.4989884 -2.3971937 -2.1257238
000180 48 ac fd bf 3d db 1a c0 af 63 02 c0 59 74 1d c0
       -1.9818201 -2.4196312 -2.0373342 -2.4602263

gbrbm.mu f4 [50]
000000 11 29 18 bc b4 78 a4 39 70 b5 4b bb ac 28 96 bb
       -0.009287135 0.00031370448 -0.0031083487 -0.004582485
000010 34 4c de bb 49 d4 29 3b 31 fb 95 bb 88 e1 a7 ba
       -0.0067839865 0.0025913885 -0.0045770635 -0.0012808302
000020 23 d0 e1 3b 06 fb 8a 3b 1c 4a 4c bb 50 63 8a ba
       0.006891267 0.00424135 -0.0031172102 -0.0010558162
000030 98 1a 01 bb 8b 8e 40 b9 2c ef e1 ba b5 d0 a3 bb
       -0.001969969 -0.00018363648 -0.0017237416 -0.004999245
000040 70 4b 1e bc 45 78 15 bb 7a 8e 8e bb dc a0 98 3b
       -0.00966154 -0.0022807282 -0.0043504806 0.004657848
000050 57 d5 1c 3b cf e8 b4 ba fd b4 28 3a ef 32 5b bb
       0.0023930871 -0.0013802293 0.0006435661 -0.0033447107
000060 6d c5 f6 b9 e4 90 24 3b 9d d7 0e 3b 70 c7 8d bb
       -0.0004706787 0.0025110776 0.0021795996 -0.0043267533
000070 5d 13 5d 3b fc 21 3a bb 96 ec 84 bb 26 a7 cb 39
       0.0033733465 -0.0028401604 -0.0040565236 0.00038843713
000080 5d b5 db 37 d8 47 9a bb f1 45 8e 3b 7b 53 c6 ba
       2.6191288e-05 -0.0047082715 0.0043418338 -0.001513108
000090 3f 2d 65 bb df 2d 11 bc 9c f2 fc ba ef c2 43 b9
       -0.0034969596 -0.008861034 -0.0019298377 -0.00018669268
0000a0 7a 80 cf ba 75 ad e3 bb 40 28 e9 ba 41 74 10 3a
       -0.0015831136 -0.006948168 -0.0017788485 0.0005510487
0000b0 3f 74 c3 3b a4 1a 4e bc 37 fc 1b 3b 05 18 85 3b
       0.0059647853 -0.012579594 0.0023801455 0.0040617012
0000c0 12 e4 22 bb f6 fe 08 3b
       -0.0024855179 0.0020903922

gbrbm.log_var f4 [50]
000000 8c 4f 16 c1 1e 0f 14 c1 99 92 17 c1 ed a2 15 c1
       -9.394421 -9.253691 -9.47329 -9.352277
000010 09 55 17 c1 0a 86 16 c1 8b 9f 15 c1 46 9d 15 c1
       -9.458261 -9.407724 -9.351451 -9.350897
000020 29 3c 14 c1 19 0e 14 c1 45 46 18 c1 02 a8 15 c1
       -9.264688 -9.253442 -9.517156 -9.353518
000030 9d 0c 9b c0 10 3d 16 c1 a4 c5 9a c0 1a 4b 16 c1
       -4.8452897 -9.389908 -4.836626 -9.393335
000040 28 ad 9c c0 b6 78 16 c1 37 2f 15 c1 a4 00 17 c1
       -4.896137 -9.40447 -9.324027 -9.437656
000050 05 fc 14 c1 56 a9 12 c1 56 2a 17 c1 18 e7 17 c1
       -9.311528 -9.166342 -9.447836 -9.493919
000060 9c d7 16 c1 28 6b 16 c1 a5 29 14 c1 0e 98 14 c1
       -9.427639 -9.401161 -9.260167 -9.287123
000070 a3 86 0e c1 e0 e4 17 c1 7b b5 16 c1 c9 c0 12 c1
       -8.90787 -9.493378 -9.419307 -9.172067
000080 b8 9d 14 c1 76 9f 11 c1 74 f9 17 c1 be ee 14 c1
       -9.288506 -9.101431 -9.498402 -9.308287
000090 b2 22 17 c1 d1 a8 15 c1 2e 1a 13 c1 6c b9 9b c0
       -9.445971 -9.353715 -9.193892 -4.8663845
0000a0 20 aa 14 c1 6e 6d 9e c0 59 47 14 c1 2f 17 17 c1
       -9.291534 -4.950858 -9.267419 -9.44316
0000b0 d0 6a 9d c0 71 37 14 c1 eb 2f 15 c1 af 7e 15 c1
       -4.9192886 -9.2635355 -9.324199 -9.343429
0000c0 67 5f 13 c1 67 e2 17 c1
       -9.210792 -9.492774

gbrbm.linear_layer.weight f4 [1, 100]
000000 90 52 e2 3c a9 5c 81 be 9b 02 2b 3f aa e7 20 be
       0.02762726 -0.25266007 0.6680085 -0.15713373
000010 9b 79 5c be 5e 8b 7c be e2 f9 dd 3e f5 d3 af be
       -0.21530764 -0.2466254 0.43354708 -0.34341398
000020 eb b4 23 3e ad a1 38 bf 13 c1 24 bd 3c cc 99 3e
       0.15986983 -0.721217 -0.040223192 0.3003863
000030 bc d9 ac be f9 a9 37 3e cf 0f ca be dd c7 94 bd
       -0.33759868 0.17935933 -0.39465186 -0.072646834
000040 41 7b 9b bd 31 ce 1a be 70 92 5a bd 2a 17 75 bd
       -0.07591868 -0.15117718 -0.05336231 -0.059836544
000050 f6 b7 ab be 63 08 4f 3c 1e 81 db 3d ef 4d fe 3d
       -0.3353879 0.012636277 0.107179865 0.124172084
000060 c2 a6 25 3e a9 b2 86 be 02 4a 5c bd 3d 2c 29 bd
       0.16176894 -0.26308182 -0.053781517 -0.041301955
000070 51 df 20 bd df 67 04 3d 56 fc ab 3e cf 90 0d 3d
       -0.03927547 0.03232562 0.33590955 0.03456193
000080 aa db 70 bd d9 f9 89 3e c6 69 42 3e d2 fe 45 3f
       -0.058803238 0.2694843 0.18985662 0.7734195
000090 ed 8c 8e 3d 13 02 92 3d 3c 3f 90 3e ce 41 2f be
       0.06960473 0.07129302 0.28173244 -0.17114946
0000a0 e1 94 65 3e 7a 8e 81 3e d2 a6 bc 3d c8 60 93 bd
       0.22420074 0.25304013 0.09211506 -0.07196194
0000b0 57 db 54 3e e1 5f 8d 3d 16 15 f9 bd 7c ba 31 be
       0.20786797 0.06903053 -0.12162225 -0.17356294
0000c0 05 d6 0a 3c d1 4b d1 bd d2 36 2a be cc e9 3d be
       0.008473878 -0.10219539 -0.16622475 -0.18546218
0000d0 c2 dc ff be 11 af 58 be 85 69 01 3e c8 80 6f be
       -0.49973112 -0.21160533 0.12637909 -0.2338897
0000e0 05 f5 a4 3e 59 f9 ba be fa b2 9c 3e 43 f9 5a be
       0.32218185 -0.36518362 0.30605298 -0.21384148
0000f0 ca 52 02 3f d6 e4 84 be 37 f4 01 be 54 48 1a 3c
       0.50907576 -0.25955838 -0.12690817 0.009416658
000100 1e 8d df 3d d8 21 d1 3d 00 c0 69 bd 36 8f 1d 3e
       0.10915588 0.10211533 -0.05706787 0.15386662
000110 51 5f a5 bc 4d 3f 31 3f 0c 19 5d 3d fa e9 8d be
       -0.020187052 0.69237214 0.053978965 -0.27717572
000120 9c c5 b4 3d b5 3d 80 3d d1 ca 71 3d df 34 a1 3e
       0.088267535 0.0626177 0.05903131 0.3148565
000130 60 b3 39 be af 49 5f be fb e1 e8 bc 71 bb 71 3d
       -0.18134832 -0.21805452 -0.028428068 0.05901665
000140 71 7e b8 3e 31 cd 71 3e 8c cf c2 bd 0b b0 19 3e
       0.36033967 0.2361343 -0.09512243 0.15008561
000150 44 cb 88 3e a4 9a 03 3e b7 4d 3c be 30 90 39 3e
       0.2671758 0.1285196 -0.18389021 0.1812141
000160 18 6f e2 3d da 89 fb be f1 b4 7e 3d e1 10 df 3e
       0.11056346 -0.4912861 0.062184278 0.43567565
000170 a1 38 ff bd de d5 1c 3e c7 ec c1 be 57 0a 90 be
       -0.12461973 0.15315959 -0.3787596 -0.2813289
000180 f5 4a 34 be 77 5a 0b 3e 04 4f c3 3d 9d 5a 59 3e
       -0.17606719 0.13608728 0.095365554 0.21225972
