final_project/lstm_gbrbm/type1/lstm_gbrbm_W5_H50_V100_B16_D2.pt (torch, 78745 bytes, 9 tensors)

lstm_layer.lstm1.weight_ih_l0 f4 [200, 16]
-0.00063398445 -0.000626005 -0.00062825024 0.00013198653 0.00044908898 0.0004195495 9.114487e-05 -0.00045836126
0.00044904105 0.0007419487 0.0002858154 0.00060489256 0.0022659372 0.00067104556 -0.00048570952 -0.0007650973
-0.0020635831 -0.0020570925 -0.0020522953 -3.6101836e-05 -0.0006224842 0.0003997148 -4.410512e-05 -6.465354e-05
-0.00057643326 0.0004676379 -0.00046270635 -0.00022121184 0.00061333814 -0.00077052886 -0.0020351524 -0.0020612765
-0.0023707727 -0.002343679 -0.0023451743 0.0007380812 -0.00016411758 -0.0022579776 -0.00050539174 -0.0010784408
-0.0001583083 0.001091662 0.0005094895 -0.0002765026 -0.0052990885 0.000737493 -0.0024804976 -0.0022486337
0.008994534 0.009167506 0.00905031 0.004836236 0.0024616872 0.0003366484 0.0035542953 0.009189889
0.0024616506 -0.0028000618 0.0021602195 0.0018089906 -0.0057964292 0.003676574 0.009420374 0.008577223
-0.004407552 -0.0044598 -0.004457473 -0.001404085 -0.00080967473 -0.00090904336 -0.0010496362 -0.001633188
-0.0008151086 0.0020902802 -0.00048770555 -0.00053960306 0.0033703549 -0.00060285453 -0.0043859025 -0.004466784
-0.0005588536 -0.00055527576 -0.00055516197 0.00029266972 0.0002481676 0.0002984513 0.00021361593 1.0247851e-05
0.00021178754 -0.00018109643 0.00029871272 0.0002900812 0.000578264 0.00028739762 -0.0005319963 -0.00058429333
-0.002943586 -0.0029665167 -0.002970897 -5.37539e-06 -0.0004795402 -0.0008863349 -0.00067707116 -0.0015013403
-0.0004704418 0.0017847097 0.00012156636 -0.0007133766 0.0013757497 -0.00036624089 -0.0030006783 -0.0029278432
-0.0015520117 -0.0015482564 -0.0015487324 0.00037863973 4.165121e-05 0.0003177056 1.8992772e-05 9.938057e-05
4.170269e-05 0.0002872398 -0.00021481681 0.00020177395 0.002023872 5.8438487e-05 -0.0014697398 -0.0016359581
0.0006449129 0.0006596214 0.00067862787 0.0005491951 0.0007385938 -0.00043173737 0.00041160267 -0.00042588127
0.0007433282 -0.0007445254 0.0011687722 0.00010704651 0.0016983736 0.0012500439 0.00079119345 0.00053266634
-0.0006150607 -0.000606776 -0.00061418745 0.00018849237 0.00039253995 0.00047062713 0.00032236136 -0.00013356573
0.00040104132 0.00019904185 0.0002494848 0.00047668008 0.0010497009 0.00030874572 -0.0005615501 -0.0006581982
0.0074391067 0.0074636894 0.007391204 0.0010925421 -3.9735238e-05 -0.00018962103 0.0007126296 0.0047167414
-2.393676e-05 -0.004200308 0.0019496912 0.00050693314 -0.00745183 0.00067860447 0.0076099727 0.007166219
0.0038140947 0.0038204384 0.003813011 0.0013460411 0.0007509493 0.0010632897 0.0011582372 0.0032581184
0.0007582677 -0.0017582645 0.00096293964 0.0007918578 -0.0028342034 0.0005225933 0.0039008055 0.0036174664
-0.0012946088 -0.0012424551 -0.001261735 0.0014506803 0.0010819795 0.00036447152 0.0005581621 -8.756552e-05
0.0010819825 -4.248505e-05 0.0005401198 0.0012028071 0.0013578989 0.0014611104 -0.0012075016 -0.0013629295
-0.00091349584 -0.00090864993 -0.0009131543 -0.00027933752 -0.00083916564 -0.0013510345 -0.0013547211 -0.0008504069
-0.000821475 0.00085536065 -0.00028593015 -0.001157782 0.00022420524 -0.0010244885 -0.0008869483 -0.0009260441
0.008881773 0.009029106 0.008916555 0.0037557848 0.0010678719 -0.0012141733 0.0031450938 0.010370499
0.0010684001 -0.0020630218 0.0016408504 0.0003987337 -0.008138129 0.0029170706 0.009250386 0.0085228905
-0.001738414 -0.0016971339 -0.0017404107 0.0008870277 0.0003558989 0.00030982972 0.0002803865 0.00023481445
0.00033479067 0.0012010166 0.00019356537 0.0007429505 0.002020278 0.00052858156 -0.0016679048 -0.0017782702
00000000: fa31 26ba 7c1a 24ba 29b1 24ba dd65 0a39
00000010: b473 eb39 fbf6 db39 0825 bf38 3550 f0b9
00000020: 456d eb39 567f 423a 7ed9 9539 a791 1e3a
00000030: 1e80 143b 1be9 2f3a d4a6 feb9 d090 48ba
00000040: 2e3d 07bb 49d0 06bb cd7f 06bb 0d6c 17b8
00000050: 352e 23ba d090 d139 83fd 38b8 9b96 87b8
00000060: c81b 17ba 4c2d f539 6597 f2b9 1af5 67b9
00000070: 6dc8 203a 51fd 49ba 3160 05bb 7b16 07bb
00000080: f75e 1bbb 6998 19bb 7fb1 19bb ca7b 413a
00000090: fa16 2cb9 94fa 13bb 447c 04ba 785a 8dba
000000a0: 90ff 25b9 1916 8f3a 438f 053a 8df7 90b9
000000b0: faa3 adbb 5154 413a d88f 22bb d05d 13bb
000000c0: cf5d 133c 4f33 163c c047 143c 4a79 9e3b
000000d0: 4254 213b 2f80 b039 2eef 683b 3091 163c
000000e0: a553 213b 3e81 37bb 7892 0d3b a71b ed3a
000000f0: f9ef bdbb adf2 703b ea57 1a3c 7b87 0c3c
00000100: 3a6d 90bb 8423 92bb fe0f 92bb 4609 b8ba
00000110: 5a40 54ba de4c 6eba f293 89ba b210 d6ba
00000120: 03ad 55ba 15fd 083b bbb2 ffb9 2674 0dba
00000130: 2ce1 5c3b e208 1eba 9eb7 8fbb 1a5e 92bb
00000140: 0880 12ba ed8f 11ba 4a88 11ba 7771 9939
00000150: 7e1c 8239 7579 9c39 17fe 5f39 2fee 2b37
00000160: 4913 5e39 b4e4 3db9 8b9c 9c39 0a16 9839
00000170: a496 173a dbad 9639 ab75 0bba 432b 19ba
00000180: 2ee9 40bb e469 42bb 61b3 42bb 405e b4b6
00000190: cc6a fbb9 ee58 68ba 7a7d 31ba 9fc8 c4ba
000001a0: a1a5 f6b9 ecec e93a 71f1 fe38 e501 3bba
000001b0: 8052 b43a 0504 c0b9 07a7 44bb 0fe1 3fbb
000001c0: df6c cbba ddee caba d6fe caba 2a84 c639
000001d0: a5b2 2e38 b991 a639 ab52 9f37 8a6a d038
000001e0: ece9 2e38 ac98 9639 7340 61b9 4893 5339
000001f0: f0a2 043b d91b 7538 49a4 c0ba a56d d6ba
00000200: 5f0f 293a 71ea 2c3a f2e5 313a dcf7 0f3a
00000210: 319e 413a cf5a e2b9 60cc d739 d148 dfb9
00000220: e9db 423a 412c 43ba 7d31 993a 287e e038
00000230: f69b de3a 83d8 a33a 1868 4f3a a2a2 0b3a
00000240: 063c 21ba 0c10 1fba 6c01 21ba 09a6 4539
00000250: d2cd cd39 81be f639 9c02 a939 c70d 0cb9
00000260: db42 d239 e4b5 5039 48cd 8239 ebea f939
00000270: 1e96 893a 26df a139 fd34 13ba ef8a 2cba
00000280: c0c3 f33b f791 f43b ea31 f23b a133 8f3a
00000290: 63a9 26b8 02d5 46b9 c3cf 3a3a e58e 9a3b
000002a0: cdcb c8b7 bda2 89bb c88c ff3a b5e3 043a
000002b0: 7b2e f4bb 60e4 313a 145d f93b 9ad2 ea3b
000002c0: e4f5 793b 5260 7a3b b6e3 793b a56d b03a
000002d0: 5bdb 443a 155e 8b3a fecf 973a 2886 553b
000002e0: 7cc6 463a 9175 e6ba c96d 7c3a ad94 4f3a
000002f0: 0bbe 39bb a5fe 083a a8a4 7f3b 0413 6d3b
00000300: ddaf a9ba e0d9 a2ba cd60 a5ba c124 be3a
00000310: 35d1 8d3a 8a16 bf39 a051 123a 61a3 b7b8
00000320: 4fd1 8d3a fa31 32b8 d496 0d3a 82a7 9d3a
00000330: 87fb b13a bb82 bf3a 0845 9eba 53a4 b2ba
00000340: ab77 6fba 7732 6eba bf60 6fba 0c74 92b9
00000350: 74fb 5bba 3215 b1ba e690 b1ba d7ed 5eba
00000360: 4158 57ba 483a 603a e5e8 95b9 b8c0 97ba
00000370: a318 6b39 2148 86ba 1882 68ba c4c1 72ba
00000380: db84 113c d1ee 133c be16 123c 9d23 763b
00000390: d6f7 8b3a e524 9fba eb1d 4e3b 07e9 293c
000003a0: 8f09 8c3a c333 07bb ce11 d73a 220d d139
000003b0: c955 05bc 532c 3f3b ee8e 173c 98a3 0b3c
000003c0: 7fdb e3ba 5d72 deba 7e1e e4ba 6c87 683a
000003d0: f197 ba39 a470 a239 d700 9339 8638 7639
000003e0: d886 af39 6e6b 9d3a cff7 4a39 90c2 423a
000003f0: a466 043b 8290 0a3a 999d daba d914 e9ba

lstm_layer.lstm1.weight_hh_l0 f4 [200, 50]
3.3114553e-05 -1.6743068e-05 -2.1108888e-05 -0.00036743694 3.0505124e-05 -3.630753e-05 -3.5341113e-06 6.997938e-06
-2.8515185e-05 1.787375e-06 0.00015937055 -9.6702315e-05 -4.9767183e-05 -3.3841898e-05 0.00024049733 -1.3029376e-05
-4.2839205e-05 -5.949923e-05 2.2718186e-05 3.143842e-05 -3.687764e-05 -0.00019136192 -1.0133288e-05 5.689566e-05
2.0058736e-05 -1.2675898e-06 7.114615e-05 0.00010669368 9.450927e-05 7.440219e-05 0.0004405884 6.7604283e-06
-2.0063457e-05 -2.5777419e-05 7.527722e-05 -2.8427068e-05 -0.00042899398 3.9369395e-05 -2.4198818e-05 2.9024552e-06
-0.00033813802 1.3001843e-05 -0.0002147636 -4.8116242e-05 2.9500947e-05 -8.853182e-06 -6.984686e-06 4.0489547e-05
-2.825433e-06 -6.2504506e-07 4.086352e-05 -4.716726e-05 -6.960397e-05 7.403355e-06 6.140854e-05 1.0595644e-05
-1.1860473e-05 1.2068974e-05 -5.8371647e-06 -1.9719662e-05 -6.0650662e-05 -4.0554147e-05 6.6216944e-06 -1.1610111e-05
0.00014656731 4.5653782e-05 5.506862e-06 9.0620015e-05 -2.087931e-05 2.5997635e-05 -3.714966e-05 -0.00014144619
-1.7445404e-07 -3.9877614e-05 5.5507517e-06 2.8493753e-06 -1.2500086e-05 5.33122e-06 0.0001273367 6.5571276e-06
2.6623064e-05 1.9784566e-05 4.6440702e-05 -3.450054e-05 1.8671135e-05 -1.1249034e-06 -0.000109050256 1.5643172e-05
1.5192845e-05 -6.4522545e-05 -0.00031946105 -5.746568e-06 1.5881635e-05 -1.8870125e-05 -1.3289044e-06 -2.4972684e-05
-1.3757453e-05 -1.1233429e-05 -5.996217e-05 2.242839e-05 5.1553146e-05 -6.691884e-05 -0.00011130673 -0.00028591047
4.4167693e-05 -0.00021742887 5.9728187e-05 0.00010214417 3.361713e-05 -0.00010389461 0.00010564284 -2.5707624e-05
-0.00015615918 -4.383223e-05 0.00023734674 7.323768e-05 -0.00031495435 -0.0002637107 0.00024073618 8.149036e-05
-1.6843645e-05 -6.313322e-05 -4.8886206e-05 1.4115412e-05 1.1292893e-05 -1.4845792e-05 0.00022976959 4.7309954e-06
-1.8938841e-06 -2.5781244e-06 0.00020580665 1.27660105e-05 -2.839431e-05 -5.7775855e-05 0.00014867376 8.864935e-06
-0.00028361645 0.000109429966 -4.2487565e-05 -2.4245897e-05 -0.00017352714 7.23099e-05 -0.0003264027 -0.00029407235
6.135681e-05 5.8347923e-05 -2.654195e-05 -4.785393e-06 -8.1499806e-05 1.8141318e-05 5.699036e-05 -0.00028026136
-0.00029465382 0.0021164813 -0.00034581168 -2.086499e-05 0.00029671247 0.00019137532 1.44476035e-05 0.0002109242
-0.0001441409 3.5893718e-05 -0.00012740602 -9.4834456e-07 -0.0020848971 -0.00012651928 -0.00038162147 0.00047742922
-5.466263e-05 0.00011996769 0.00017302643 0.0016422065 -8.910976e-05 -0.00035345822 -3.407718e-05 -4.037914e-05
0.00033426445 0.00023608502 -0.00100242 0.00038000365 -0.0023229504 -0.00014977426 0.00046262404 -0.00029593302
0.0003755879 0.0006582692 0.002286712 0.00013122789 -0.00015667597 -0.00054830516 0.0024258005 2.0792754e-06
0.0024183723 -0.00020053831 -0.000106402316 -2.4301013e-05 8.245422e-05 0.00019209027 0.00066371646 -4.32848e-05
0.00014225632 9.034037e-05 8.68128e-05 -0.0006841889 -0.00011997169 -5.160098e-05 8.47146e-05 -1.774492e-05
-6.276576e-05 8.859833e-06 0.00025836218 -0.00018381709 -0.00014763688 -8.846322e-05 0.000672611 6.667307e-05
-6.496834e-05 0.0002931545 3.5256064e-05 7.9199745e-05 6.3807354e-05 -0.00075395056 -1.4445733e-05 -0.00020729488
8.9295914e-05 2.0930369e-05 6.237742e-05 0.00014382688 -9.475212e-05 -0.00012997325 0.0011593552 1.8007695e-05
-0.00014063885 2.099282e-05 -2.7136179e-05 -0.00014411191 -0.0007467959 5.0521553e-06 -0.00016923784 9.9580066e-05
-0.0010634826 -4.7868856e-05 -0.0011012235 -3.7493985e-05 9.4775794e-05 -0.00014654791 2.969883e-05 2.6650654e-05
0.00022272357 -2.3586032e-05 -1.9249042e-05 3.8290395e-06 2.2755801e-05 0.00013076927 -1.6099895e-05 3.8477883e-06
00000000: 7be4 0a38 7773 8cb7 fe12 b1b7 8da4 c0b9
00000010: 41e5 ff37 ea48 18b8 922b 6db6 d4cf ea36
00000020: e533 efb7 bde5 ef35 b51c 2739 a9cc cab8
00000030: 1bbd 50b8 76f1 0db8 032e 7c39 be98 5ab7
00000040: 3fae 33b8 d08e 79b8 ef92 be37 bfdc 0338
00000050: 10ad 1ab8 53a8 48b9 2402 2ab7 40a3 6e38
00000060: cf43 a837 0e22 aab5 4c34 9538 bcc0 df38
00000070: 4733 c638 5f08 9c38 c6fe e639 a3d7 e236
00000080: f24d a8b7 963c d8b7 26de 9d38 aa76 eeb7
00000090: 99ea e0b9 9120 2538 91fe cab7 cdc7 4236
000000a0: 1e48 b1b9 7e22 5a37 2a32 61b9 6cd0 49b8
000000b0: cd78 f737 2188 14b7 ff5d eab6 52d3 2938
000000c0: 929c 3db6 c5c8 27b5 df64 2b38 76d5 45b8
000000d0: 59f8 91b8 566a f836 75c8 8038 f2c3 3137
000000e0: 58fc 46b7 d97b 4a37 dddc c3b6 a76b a5b7
000000f0: 2763 7eb8 af18 2ab8 ec2f de36 0cc9 42b7
00000100: ddaf 1939 607c 3f38 96c7 b836 400b be38
00000110: fa25 afb7 7f15 da37 25d1 1bb8 2c51 14b9
00000120: 9051 3bb4 4342 27b8 9840 ba36 e537 3f36
00000130: 76b7 51b7 d5e2 b236 af85 0539 4c05 dc36
00000140: 9854 df37 08f7 a537 53c9 4238 acb4 10b8
00000150: f59f 9c37 63fb 96b5 e9b1 e4b8 7539 8337
00000160: c6e4 7e37 4750 87b8 567d a7b9 a5d2 c0b6
00000170: 8d39 8537 494b 9eb7 cf5c b2b5 6e7c d1b7
00000180: d0cf 66b7 3677 3cb7 e47f 7bb8 9a24 bc37
00000190: c53a 5838 c756 8cb8 586d e9b8 41e6 95b9
000001a0: b340 3938 9efd 63b9 a784 7a38 3c36 d638
000001b0: 1e00 0d38 fee1 d9b8 918c dd38 b4a6 d7b7
000001c0: a9be 23b9 80d8 37b8 48e0 7839 2e97 9938
000001d0: 7520 a5b9 a742 8ab9 206e 7c39 cee5 aa38
000001e0: 744b 8db7 6466 84b8 2a0b 4db8 3cd1 6c37
000001f0: 9b76 3d37 3112 79b7 4eee 7039 f1be 9e36
00000200: 5d31 feb5 d703 2db6 cdcd 5739 992d 5637
00000210: 5130 eeb7 5a54 72b8 4fe5 1b39 9bba 1437
00000220: 5bb2 94b9 c47d e538 ad34 32b8 ab63 cbb7
00000230: d6f4 35b9 15a5 9738 0721 abb9 b92d 9ab9
00000240: b0ac 8038 9bba 7438 67a6 deb7 3692 a0b6
00000250: e0ea aab8 2f2e 9837 ef08 6f38 0bf0 92b9
00000260: c47b 9ab9 aab4 0a3b 0f4e b5b9 3a07 afb7
00000270: 1390 9b39 ecab 4839 fc63 7237 892b 5d39
00000280: 8724 17b9 968c 1638 4b98 05b9 be91 7eb5
00000290: c5a2 08bb 43aa 04b9 5e14 c8b9 774f fa39
000002a0: 8d45 65b8 2a97 fb38 6e6e 3539 4e3f d73a
000002b0: 70e0 bab8 5c50 b9b9 18ee 0eb8 c55c 29b8
000002c0: 3740 af39 978d 7739 a263 83ba 3a3b c739
000002d0: a43c 18bb b90c 1db9 598c f239 7527 9bb9
000002e0: 8eea c439 b38f 2c3a a9dc 153b 389a 0939
000002f0: 6349 24b9 23bc 0fba 2efa 1e3b ae89 0b36
00000300: 8e7d 1e3b 9847 52b9 4f24 dfb8 07da cbb7
00000310: 46eb ac38 d76b 4939 42fd 2d3a b38c 35b8
00000320: a42a 1539 1e75 bd38 440f b638 245b 33ba
00000330: 5099 fbb8 216e 58b8 cea8 b138 edda 94b7
00000340: 1ca1 83b8 b1a4 1437 c974 8739 06bf 40b9
00000350: f9ce 1ab9 5485 b9b8 2952 303a d5d2 8b38
00000360: 9d3f 88b8 88b2 9939 e9df 1338 0a18 a638
00000370: 50d0 8538 c4a4 45ba f35b 72b7 4c5d 59b9
00000380: 6144 bb38 a093 af37 9fd0 8238 3cd0 1639
00000390: a8b5 c6b8 6e49 08b9 81f5 973a 3b0f 9737
000003a0: 7478 13b9 bd19 b037 80a2 e3b7 bf1c 17b9
000003b0: a0c4 43ba af85 a936 7075 31b9 a4d5 d038
000003c0: 8e64 8bba cbc6 48b8 ee56 90ba dc42 1db8
000003d0: 5ec2 c638 a8aa 19b9 c021 f937 d88f df37
000003e0: e78a 6939 9eda c5b7 0179 a1b7 337b 8036
000003f0: b6e3 be37 1c1f 0939 430e 87b7 401c 8136

lstm_layer.lstm1.bias_ih_l0 f4 [200]
-0.0023888804 -5.3656167e-05 0.00443943 0.0034918098 -0.003659597 -0.00045206156 -0.0011804538 -0.0017755546
-0.0014064392 -0.0010963915 0.00684455 0.0027940893 -0.001091607 -0.0002180496 0.005447677 -0.0020778587
-0.0013285385 -0.0011364261 -0.00086944626 -0.00037973138 -0.00021881262 0.00053435436 -0.0018144038 -0.0029695171
-1.6716464e-05 -0.0012429404 -0.0008418882 0.0010500419 -0.0020938946 -5.724612e-05 0.006800888 -0.0008428274
-0.0029613497 -0.00304928 -0.0022014137 -0.0048800237 0.006482579 -0.0001841405 -0.0011582073 -0.0042491304
0.003575562 -0.002144517 0.005099583 -0.0003359052 0.00030511996 0.0009867098 -0.0020521062 -0.002466808
-0.0061632954 -0.0016707614 -0.0021233174 -1.7899923e-05 0.0041907504 0.0032409246 -0.0031830317 -0.00024508164
-0.0009712822 -0.0014714075 -0.0009790842 -0.0008858217 0.006308481 0.0027373962 -0.000912153 -9.1601505e-05
0.0051132767 -0.0018968395 -0.0015056372 -0.0009408209 -0.0006090749 -5.4871703e-05 -6.144678e-05 0.00061946077
-0.0015398985 -0.00275837 1.0815147e-05 -0.0008944431 -0.0006461576 0.00097222027 -0.001927181 -4.0471685e-05
0.00619849 -0.0006601363 -0.0025930414 -0.0025887971 -0.0021750713 -0.00456881 0.005922404 -9.600556e-05
-0.0009502678 -0.0037772951 0.0031922734 -0.001606069 0.004740719 -0.00023927087 0.00041651767 0.0011165689
-0.0014228377 -0.0020797767 -0.0062838076 -0.0012903383 0.001053856 -0.0083176475 -0.009438548 -0.012758144
0.0031143602 -0.0004180736 0.006948166 0.0022428513 0.0019032795 0.0031431848 0.0053230124 0.00045021484
0.009854065 -0.0023695037 0.015439606 -0.0012366301 0.0045954934 -0.0017003362 0.0004760774 0.00020727365
-0.0014848545 0.0015440548 0.0038411682 -0.001498768 0.00013036179 -0.00021155094 0.0028279421 -0.00018975408
-0.0014944556 -0.0049709463 0.01528054 -0.001954482 0.0017601822 0.00082873646 0.008499025 0.0028839665
-0.0198252 0.0038397794 -0.008199643 -0.003988273 -0.0146526825 -0.0010191167 -0.011454428 -0.0064147054
0.005366433 0.0050661373 -0.0027255886 0.00019489802 -0.0031229022 -9.282435e-06 -0.0023419214 -0.0001050302
0.004476446 0.0040184846 -0.003637223 -0.0004617069 -0.0011811536 -0.0017769873 -0.0014157111 -0.0010955344
0.007166085 0.0027683387 -0.0011103469 -0.00022193788 0.0060761143 -0.0020753816 -0.001360864 -0.0011441765
-0.00085780484 -0.00042156933 -0.00023922091 0.0006059252 -0.0018015247 -0.002974603 -7.181425e-06 -0.0012547162
-0.00083093095 0.0009939107 -0.0021186525 -7.723823e-05 0.0078051277 -0.00084303337 -0.0029623923 -0.0030383344
-0.002318293 -0.0048268465 0.0074763037 -0.00014688386 -0.0011562507 -0.0042071245 0.0044443533 -0.0021508527
0.005856534 -0.00042367147 0.00023991943 0.000968808 -0.0021336908 -0.0024322022 -0.006145003 -0.0016738962
00000000: c38e 1cbb df0c 61b8 a378 913b d9d6 643b
00000010: d9d5 6fbb ad02 edb9 75b9 9aba bab9 e8ba
00000020: 4558 b8ba cbb4 8fba 3f48 e03b 0a1d 373b
00000030: 4114 8fba 3ea4 64b9 6d82 b23b af2c 08bb
00000040: 5b22 aeba 22f4 94ba 8deb 63ba af16 c7b9
00000050: 1171 65b9 ea13 0c3a 4ad1 edba 3b9c 42bb
00000060: 553a 8cb7 29ea a2ba 29b2 5cba 8fa1 893a
00000070: b939 09bb 8e1b 70b8 fcd9 de3b 30f1 5cba
00000080: 3413 42bb 6ed6 47bb 9845 10bb 9be8 9fbb
00000090: d06b d43b d715 41b9 fdce 97ba 4a3c 8bbb
000000a0: fa53 6a3b 068b 0cbb 671a a73b 6f1c b0b9
000000b0: 82f8 9f39 7d54 813a a17c 06bb 2caa 21bb
000000c0: 78f5 c9bb 73fd daba 5b27 0bbb cb27 96b7
000000d0: 9052 893b b165 543b 699a 50bb 4d7e 80b9
000000e0: a59d 7eba 3edc c0ba 9d54 80ba 7d36 68ba
000000f0: 60b7 ce3b e365 333b 8d1d 6fba 2f1a c0b8
00000100: 468d a73b 5f9f f8ba cd58 c5ba 6ca1 76ba
00000110: 53aa 1fba 0b26 66b8 fddc 80b8 4f63 223a
00000120: 6bd6 c9ba c5c5 34bb b472 3537 0f79 6aba
00000130: e762 29ba 99dc 7e3a 7799 fcba 24c0 29b8
00000140: b41c cb3b ff0c 2dba 04f0 29bb cfa8 29bb
00000150: a48b 0ebb f5b5 95bb ba10 c23b 9856 c9b8
00000160: 641b 79ba 7f8c 77bb 7635 513b bc82 d2ba
00000170: 0958 9b3b c9e4 7ab9 0e60 da39 d659 923a
00000180: 837e baba dd4c 08bb 66e8 cdbb 9220 a9ba
00000190: 8a21 8a3a be46 08bc 24a4 1abc 8907 51bc
000001a0: 4b1a 4c3b e430 dbb9 71ad e33b cdfc 123b
000001b0: 7677 f93a e4fd 4d3b aa6c ae3b d00a ec39
000001c0: f272 213c ad49 1bbb 67f6 7c3c 6c16 a2ba
000001d0: cb95 963b d1dd deba 079a f939 9957 5939
000001e0: 739f c2ba e261 ca3a 1cbc 7b3b 4f72 c4ba
000001f0: bab1 0839 c6d3 5db9 ff54 393b b9f8 46b9
00000200: 9ce1 c3ba 52e3 a2bb 3b5b 7a3c c416 00bb
00000210: eab5 e63a 903f 593a 7f3f 0b3c ee00 3d3b
00000220: 7568 a2bc cfa4 7b3b cc57 06bc 0fb0 82bb
00000230: ce11 70bc e293 85ba 5aab 3bbc 7332 d2bb
00000240: e7d8 af3b d701 a63b ca9f 32bb 8a5d 4c39
00000250: 9ba9 4cbb c1bb 1bb7 ec7a 19bb a943 dcb8
00000260: 27af 923b 7ead 833b 7a5e 6ebb 4011 f2b9
00000270: f0d0 9aba cde9 e8ba 628f b9ba 0998 8fba
00000280: 7ad1 ea3b 046d 353b 0f89 91ba ffb7 68b9
00000290: 241a c73b 2003 08bb 055f b2ba 31f8 95ba
000002a0: 4fde 60ba 1406 ddb9 60d7 7ab9 f4d6 1e3a
000002b0: 2321 ecba 8ff1 42bb f9f7 f0b6 4a75 a4ba
000002c0: d5d2 59ba 1c46 823a 17d9 0abb f5fa a1b8
000002d0: 28c2 ff3b 03ff 5cba b224 42bb cb1e 47bb
000002e0: 81ee 17bb 862a 9ebb c8fb f43b d604 1ab9
000002f0: 568d 97ba ebdb 89bb f0a1 913b 52f5 0cbb
00000300: 2be8 bf3b 3920 deb9 e292 7b39 9bf7 7d3a
00000310: 64d5 0bbb 9565 1fbb 055c c9bb a366 dbba

lstm_layer.lstm1.bias_hh_l0 f4 [200]
-0.0023888284 -7.195351e-05 0.004416118 0.0034933644 -0.0036606458 -0.0004484458 -0.0011765038 -0.0017758677
-0.0014067641 -0.0010966366 0.006779731 0.0025706012 -0.0010916139 -0.00025490808 0.00544767 -0.0020783846
-0.0013551798 -0.001139326 -0.00086193334 -0.00037050317 -0.00021917299 0.0005340811 -0.0017706887 -0.0029762115
-6.4697438e-06 -0.0011937878 -0.00083321315 0.001075401 -0.0020933868 -2.780767e-05 0.0068035573 -0.000842779
-0.002949484 -0.0030510274 -0.002253004 -0.0048854696 0.006482821 -0.00012452944 -0.001159512 -0.0042463173
0.0035761385 -0.0021616658 0.00509989 -0.00039966925 0.00031597106 0.00096007326 -0.0020691454 -0.0024520832
-0.006162475 -0.0017166847 -0.002140444 -3.179913e-05 0.0042342115 0.0032318442 -0.0031789048 -0.0002687427
-0.00097308506 -0.0014701847 -0.0009441658 -0.00088579376 0.006816663 0.002709118 -0.0009121403 -9.24694e-05
0.00511795 -0.0019053331 -0.0015037882 -0.00094043335 -0.0006087003 -5.0247214e-05 -8.0961894e-05 0.0006139242
-0.0015061984 -0.0027766326 6.270432e-05 -0.00088866986 -0.0006429475 0.001086737 -0.0019269952 -4.642453e-06
0.006194437 -0.0006586045 -0.00259337 -0.0025849198 -0.0021604723 -0.0045648236 0.005920133 -2.6070094e-05
-0.0009740043 -0.0037653868 0.0031922404 -0.0016067681 0.004742861 -0.00020311985 0.00038152962 0.0009901132
-0.0014398476 -0.002051866 -0.006283902 -0.0012397425 0.0010664575 -0.008294764 -0.009436272 -0.01276068
0.0031169925 -0.0004170873 0.006947785 0.0022141512 0.001907991 0.003142428 0.0053229886 0.00047518525
0.009854687 -0.0023529339 0.015416864 -0.0012224435 0.0045440057 -0.0017003174 0.00046659086 0.0002043375
-0.0014881816 0.0015289573 0.0037880412 -0.0015005559 0.00013177418 -0.00021271655 0.0028646728 -0.00018974318
-0.0014945596 -0.004972237 0.0151964575 -0.0019538954 0.001753661 0.00082900946 0.008509827 0.0028780145
-0.019822776 0.003837699 -0.008199588 -0.0039886096 -0.014642174 -0.0010067989 -0.011498024 -0.006411046
0.005400992 0.005061687 -0.0026920377 0.00019943867 -0.0031238815 -3.2140388e-06 -0.0023849476 -0.00010370121
0.0044008694 0.004016264 -0.0036635266 -0.00046257436 -0.0011752073 -0.0017769875 -0.0014168398 -0.0010946973
0.007102099 0.0025670787 -0.0010969253 -0.0002237242 0.006075374 -0.0020944132 -0.0013607868 -0.001141171
-0.0008676134 -0.00038114612 -0.0002396033 0.000611611 -0.0017667605 -0.0029771144 -4.539326e-05 -0.0012174422
-0.00083707826 0.0010160564 -0.002117142 -2.8369803e-05 0.0077950326 -0.0008430768 -0.0029672764 -0.0030386623
-0.0022585418 -0.0048268293 0.007475948 -0.00013742861 -0.0011561839 -0.0042061615 0.004443134 -0.0021525202
0.005854499 -0.0004096866 0.00031786563 0.0009207175 -0.002076801 -0.0024547386 -0.0061448794 -0.0016857742
00000000: e48d 1cbb bfe5 96b8 15b5 903b eef0 643b
00000010: 72e7 6fbb 601d ebb9 eb34 9aba 3bc4 e8ba
00000020: 2c63 b8ba 05bd 8fba 8128 de3b 8877 283b
00000030: 7c14 8fba 2fa5 85b9 5e82 b23b 8235 08bb
00000040: 4aa0 b1ba 7055 95ba 5ef3 61ba 1840 c2b9
00000050: cdd1 65b9 9301 0c3a 7416 e8ba 8b0c 43bb
00000060: ad16 d9b6 df78 9cba fd6b 5aba 78f4 8c3a
00000070: 3431 09bb 8444 e9b7 60f0 de3b f1ed 5cba
00000080: 214c 41bb bff3 47bb 22a7 13bb 4a16 a0bb
00000090: d86d d43b 1e94 02b9 c4fa 97ba b124 8bbb
000000a0: a65d 6a3b bcaa 0dbb fa1c a73b b38a d1b9
000000b0: eba8 a539 6dad 7b3a 809a 07bb 21b3 20bb
000000c0: 96ee c9bb 6102 e1ba b146 0cbb 0e60 05b8
000000d0: 24bf 8a3b 59cd 533b 2c55 50bb 09e6 8cb9
000000e0: a216 7fba 36b3 c0ba e581 77ba 9d34 68ba
000000f0: 505e df3b 758b 313b b31c 6fba 22ec c1b8
00000100: 7ab4 a73b 5fbc f9ba c21a c5ba 6a87 76ba
00000110: 3091 1fba 89c0 52b8 16ca a9b8 c1ef 203a
00000120: a26b c5ba 2af8 35bb 2080 8338 a0f5 68ba
00000130: 7a8b 28ba d870 8e3a 3b93 fcba 5ec6 9bb6
00000140: b4fa ca3b 33a6 2cba 87f5 29bb c267 29bb
00000150: b696 0dbb 8494 95bb adfd c13b 1ab1 dab7
00000160: 5254 7fba b5c4 76bb e834 513b 319a d2ba
00000170: 006a 9b3b 92fc 54b9 0a08 c839 b0c6 813a
00000180: 45b9 bcba 9978 06bb 31e9 cdbb db7e a2ba
00000190: 60c8 8b3a c3e6 07bc 989a 1abc 2c12 51bc
000001a0: 7546 4c3b 83ac dab9 3faa e33b 4b1b 113b
000001b0: 8e15 fa3a 31f1 4d3b 776c ae3b 4922 f939
000001c0: 8e75 213c ae33 1abb 0497 7c3c 663a a0ba
000001d0: e2e5 943b 2fdd deba c4a0 f439 6e43 5639
000001e0: 170f c3ba 4b67 c83a c940 783b 4dae c4ba
000001f0: dd2c 0a39 aa0c 5fb9 3cbd 3b3b ccf5 46b9
00000200: 19e5 c3ba 26ee a2bb 90fa 783c ed0c 00bb
00000210: 19db e53a e251 593a cd6c 0b3c 129d 3c3b
00000220: 6063 a2bc e881 7b3b 9157 06bc e2b2 82bb
00000230: bbe5 6fbc 91f6 83ba 3562 3cbc c013 d2bb
00000240: cefa b03b 82dc a53b e66c 30bb 6920 5139
00000250: 09ba 4cbb c4b0 57b6 c84c 1cbb 2a7a d9b8
00000260: 2b35 903b dd9a 833b c717 70bb ae85 f2b9
00000270: 6a09 9aba cee9 e8ba 41b5 b9ba f27b 8fba
00000280: b9b8 e83b 6f3c 283b b5c6 8fba 8297 6ab9
00000290: ee13 c73b 6c42 09bb 6e5c b2ba 5893 95ba
000002a0: 8d70 63ba 91d4 c7b9 053e 7bb9 8554 203a
000002b0: a592 e7ba b11b 43bb a464 3eb8 9592 9fba
000002c0: 5f6f 5bba 322d 853a c0bf 0abb b0fb edb7
000002d0: 796d ff3b ed01 5dba a376 42bb 4b24 47bb
000002e0: 0b04 14bb 612a 9ebb ccf8 f43b b61a 10b9
000002f0: 188b 97ba d7d3 89bb b697 913b 4c11 0dbb
00000300: 19d7 bf3b 34cb d6b9 34a7 a639 4e5c 713a
00000310: f01a 08bb aedf 20bb fc5a c9bb 32f5 dcba

gbrbm.W f4 [50, 100]
0.00087812904 -0.00036905397 -0.00041233943 0.0023370665 -0.0015303113 -0.0011181583 8.400983e-05 0.0013006672
0.0009556199 -0.00031832486 -0.0020133972 0.0012140656 -0.0020431618 0.0007280768 0.00035493524 -0.00051072123
-0.0003046096 0.0016407829 0.00037290275 -0.00089574803 0.0016010365 0.001825647 0.00066179404 0.0012820426
-0.00040382642 -0.00042383277 -0.00049090415 -0.00013180112 0.0030344257 0.0015338699 0.0013973722 -0.0013439334
0.0041888235 -0.001006739 -0.0016261938 0.00016710612 0.0012038313 0.0012061591 0.0008621182 -0.0017761346
0.00021289897 0.00013475624 0.00058085157 -0.0010815909 -0.00039364933 0.0010057286 0.0017592382 -0.0014578566
0.0010438944 -0.0011642567 -1.77816e-05 0.00094874826 0.0015680895 -0.0023996301 -0.0005753726 -0.001549901
-0.00061212276 -0.0006413231 0.00085054984 0.0013416108 0.00047886441 -0.0021560849 0.0018619853 -0.00032169785
0.0012752181 -0.0015931692 0.0005195113 -0.00057487964 -0.0022643355 -0.0004164476 0.0011934802 0.00077609165
-0.00039911448 0.0020818245 0.0009113024 -0.00051034085 0.000809506 -0.00076382764 -0.00031042233 0.001744455
0.0013914936 -0.0004687397 0.0008087457 -0.00020571103 -0.0010996109 0.0017840462 -0.0018693743 -0.0015268216
0.000710341 -0.00064278865 -0.00045789918 0.00013144688 0.0024908166 -0.0017647917 -0.00059020607 -0.00050134584
-0.00024042181 0.00085002923 6.080104e-05 -0.00075093895 0.0012046294 0.0006628068 0.0027293672 -0.00011849531
0.003200031 0.0013878236 0.00025464816 0.002355336 -0.00076978974 -0.00074552826 -0.0012099438 -3.660201e-05
0.0004939634 -0.0019176769 0.00059189106 0.0019927195 -0.00089846755 0.00059216906 4.998193e-05 0.0018707277
0.001008845 -0.0022899949 0.0018264124 -0.00022097926 -0.00029884322 -0.00021674721 -0.0005196301 0.0003964438
-0.0021075958 -0.0012734507 -0.0028906777 0.00045010046 -0.0015715526 -0.0026556253 -0.0006335333 0.00138835
0.00074780517 0.0015614282 -0.0004295601 7.463772e-05 -0.003460608 -0.00067926396 0.003350253 0.002268652
0.00041311173 -0.0015031488 -0.0023485625 0.0013067574 -0.0025440776 0.0031792547 0.0010833195 -0.00012398417
0.002655444 -6.211129e-05 -0.00019260097 0.0017442355 0.00038024347 -0.001758153 -0.00012638174 -0.000518109
0.0009764439 -7.101141e-05 -0.0003914451 0.0005256082 -0.00015966095 0.0019224364 -0.000991962 0.00021766033
0.0034280876 -0.0009122858 0.0011876851 -0.001561306 0.0004061813 -0.003655506 0.0014766209 -0.0029763088
0.000946998 -0.0002580617 0.00045402293 0.00070558384 0.00065464765 0.0003527397 -0.0023116393 0.002816774
-0.0012853157 -0.0008558651 -0.0008080462 0.0005482915 -0.0010828805 7.151924e-07 8.681091e-05 0.002945111
-0.0010865313 0.00078827224 -0.0019307211 0.00078607444 -0.0019287192 0.0029894034 0.0020336858 0.0021741372
0.00023695348 -0.0013515091 0.002599511 -0.00038648164 0.00034055798 0.001906689 0.0014326397 0.002188693
-0.0016140646 -0.0005547727 -0.0035008707 0.002024701 -0.00015014847 0.0019469009 0.0015279985 0.0015631254
0.0004537647 0.0017280282 -0.0009779814 0.000110586036 -0.0013953907 -0.00018477382 0.0021912463 -0.00052512065
0.001086946 0.0023215034 0.0021421434 -0.0017576971 -0.00088030525 -0.0013092193 -0.001319411 0.0029243783
0.0005182323 0.0009140788 -0.0027369424 -0.0020994921 0.0033074194 0.00053702394 0.0020545037 -0.0011441361
0.001030459 0.0005409679 -0.0038610941 0.0012384973 0.002373627 -0.00048250562 0.00017189558 0.0014351319
-0.0018133894 -0.00061980076 -0.002567178 0.0028843 -0.0006626991 -0.0005458028 0.0024116817 -0.00010293808
00000000: 3e32 663a 967d c1b9 432f d8b9 7829 193b
00000010: ba94 c8ba 2b8f 92ba 6f2e b038 267b aa3a
00000020: 9182 7a3a d7e4 a6b9 33f3 03bb 4821 9f3a
00000030: 91e6 05bb 68dc 3e3a 9a16 ba39 ece1 05ba
00000040: 02b4 9fb9 8a0f d73a 2982 c339 a2d0 6aba
00000050: dfd9 d13a 8c4a ef3a 3f7c 2d3a 360a a83a
00000060: aab8 d3b9 df35 deb9 05b0 00ba 1834 0ab9
00000070: 37dd 463b 220c c93a 0828 b73a ec26 b0ba
00000080: 6642 893b 8ef4 83ba 0226 d5ba 3539 2f39
00000090: e0c9 9d3a fc17 9e3a c6ff 613a 30cd e8ba
000000a0: a23d 5f39 5a4d 0d39 4a44 183a 2bc4 8dba
000000b0: b862 ceb9 a7d2 833a 3d96 e63a 8d15 bfba
000000c0: 49d3 883a f999 98ba b229 95b7 6bb5 783a
000000d0: 5a88 cd3a 1d43 1dbb 9ad4 16ba 0c26 cbba
000000e0: dd76 20ba 771e 28ba 6ff7 5e3a fdd8 af3a
000000f0: 1810 fb39 1a4d 0dbb dc0d f43a 8ea9 a8b9
00000100: 3825 a73a e3d1 d0ba d02f 083a 85b3 16ba
00000110: 3f65 14bb a756 dab9 8d6e 9c3a a172 4b3a
00000120: 3d40 d1b9 386f 083b 78e4 6e3a 65c8 05ba
00000130: 0735 543a 9b3b 48ba 2ec0 a2b9 32a6 e43a
00000140: c762 b63a 2dc1 f5b9 0102 543a 22b4 57b9
00000150: d220 90ba a8d6 e93a cb05 f5ba a21f c8ba
00000160: 2d36 3a3a d180 28ba 3012 f0b9 01d5 0939
00000170: f83c 233b 9550 e7ba 0fb8 1aba c06c 03ba
00000180: bd19 7cb9 7fd4 5e3a 9f04 7f38 a9da 44ba
00000190: a8e4 9d3a 36c0 2d3a 2fdf 323b af80 f8b8
000001a0: 9cb7 513b a2e7 b53a 4c82 8539 fb5b 1a3b
000001b0: b7cb 49ba 8e6f 43ba fa96 9eba 1c85 19b8
000001c0: 537d 013a 8f5a fbba 2329 1b3a 4998 023b
000001d0: 2387 6bba cb3b 1b3a b0a3 5138 3533 f53a
000001e0: 393b 843a bd13 16bb 3b64 ef3a abb6 67b9
000001f0: 0fae 9cb9 a346 63b9 c937 08ba c9d9 cf39
00000200: 971f 0abb eae9 a6ba 8671 3dbb 76fb eb39
00000210: 8efc cdba 000a 2ebb b313 26ba 4cf9 b53a
00000220: 5b08 443a d6a8 cc3a 9536 e1b9 d286 9c38
00000230: 5ecb 62bb a210 32ba eb8f 5b3b aaad 143b
00000240: eb96 d839 4e05 c5ba 57ea 19bb 8147 ab3a
00000250: 8aba 26bb 0b5b 503b 2cfe 8d3a bf01 02b9
00000260: f506 2e3b bf41 82b8 eef4 49b9 d59e e43a
00000270: 6a5b c739 d371 e6ba 5785 04b9 b5d1 07ba
00000280: 0af8 7f3a f6eb 94b8 df3a cdb9 f8c8 093a
00000290: a96a 27b9 43fa fb3a b904 82ba c03b 6439
000002a0: c4a9 603b 7726 6fba 19ac 9b3a bca4 ccba
000002b0: bbf4 d439 3791 6fbb 2d8b c13a 2d0e 43bb
000002c0: f63f 783a 744c 87b9 ed09 ee39 eef6 383a
000002d0: a99c 2b3a ecef b839 df7e 17bb a099 383b
000002e0: 0a78 a8ba 225c 60ba 10d3 53ba 38bb 0f3a
000002f0: 71ef 8dba a6fb 3f35 410e b638 c302 413b
00000300: f169 8eba 0ea4 4e3a 4010 fdba 9010 4e3a
00000310: 14cd fcba dee9 433b 9647 053b f87b 0e3b
00000320: b776 7839 1f25 b1ba 8f5c 2a3b b0a0 cab9
00000330: eb8c b239 dee9 f93a 69c7 bb3a 2d70 0f3b
00000340: 058f d3ba 2a6e 11ba dd6e 65bb d9b0 043b
00000350: 2c71 1db9 272f ff3a 1f47 c83a c9e1 cc3a
00000360: 44e7 ed39 017f e23a 9c2f 80ba 6dea e738
00000370: 8be5 b6ba d8bf 41b9 039b 0f3b 40a8 09ba
00000380: db77 8e3a 5d24 183b 3463 0c3b 8762 e6ba
00000390: 49c4 66ba 1c9a abba 16f0 acba eda6 3f3b
000003a0: fbd9 073a ca9e 6f3a 465e 33bb a297 09bb
000003b0: 4ac1 583b 11c7 0c3a daa4 063b d6f6 95ba
000003c0: 7710 873a becf 0d3a 690a 7dbb 1355 a23a
000003d0: da8e 1b3b cff8 fcb9 de3e 3439 091b bc3a
000003e0: 40af edba 207a 22ba 1a3e 28bb 8606 3d3b
000003f0: fcb8 2dba 3514 0fba 4e0d 1e3b 76e0 d7b8

gbrbm.b f4 [100]
-0.52492124 -0.33582705 -0.48744917 -0.454431 -0.20775154 -0.32722345 -0.45912644 -0.4466452
-0.43263844 -0.43283695 -0.21389347 -0.48406258 -0.6519749 -0.47193816 -0.26766613 -0.2482274
0.1743415 -0.3216758 -0.27950162 -0.45614606 -0.4195135 -0.6712815 -0.29853216 -0.62274444
-0.27962422 -0.40286815 -0.4066133 -0.5803026 -0.14806287 -0.34120554 -0.39901206 -0.20318465
-0.4162073 -0.30390197 -0.34602746 -0.81349695 -0.5051864 -0.6798108 -0.4123939 -0.30915463
-0.30666113 -0.11996507 -0.05236093 -0.577237 -0.39465234 0.067057885 -0.3176796 -0.20869243
-0.3098301 -0.5817805 -0.60844797 -0.35643324 -0.32819393 -0.4295482 0.100554205 -0.37859842
-0.46172988 -0.45166886 -0.21689425 -0.24240132 -0.39643344 -0.6364212 -0.27925712 -0.2652056
-0.37836847 -0.38743764 -0.31748152 -0.4533998 -0.30735844 -0.5135293 -0.2668401 -0.34440178
-0.24695025 -0.17903301 -0.1068951 -0.35507026 -0.17035371 -0.4829894 -0.8650349 -0.5683269
-0.48537874 -0.27819836 -0.17643318 -0.2694233 -0.3885753 -0.47993547 -0.588432 -0.3299312
0.06391546 -0.26339474 -0.6396331 -0.3829972 -0.26206324 -0.5127793 -0.4644532 -0.61480945
-0.3165651 -0.19585268 -0.4089898 -0.3086606
00000000: 3d61 06bf 86f1 abbe f092 f9be 2eab e8be
00000010: d2bc 54be d589 a7be 9f12 ebbe aeae e4be
00000020: c982 ddbe ce9c ddbe e406 5bbe 0dd7 f7be
00000030: d4e7 26bf e1a1 f1be 890b 89be 532f 7ebe
00000040: 9486 323e b1b2 a4be d61a 8fbe fa8b e9be
00000050: 79ca d6be 1bd9 2bbf 35d9 98be 2e6c 1fbf
00000060: e82a 8fbe bc44 cebe 9e2f d0be b68e 14bf
00000070: cb9d 17be 7eb2 aebe 4f4b ccbe a30f 50be
00000080: 2019 d5be 0a99 9bbe 832a b1be 5641 50bf
00000090: e553 01bf 1508 2ebf 4b25 d3be 8449 9ebe
000000a0: b002 9dbe 3fb0 f5bd 6a78 56bd cec5 13bf
000000b0: df0f cabe a555 893d e7a6 a2be 78b3 55be
000000c0: 0da2 9ebe 91ef 14bf 3fc3 1bbf 6b7e b6be
000000d0: 0909 a8be beed dbbe 5def cd3d a7d7 c1be
000000e0: dc67 ecbe 2441 e7be 8719 5ebe 0d38 78be
000000f0: 53f9 cabe 80ec 22bf cafa 8ebe 07c9 87be
00000100: 83b9 c1be 3a5e c6be f08c a2be 0524 e8be
00000110: 165e 9dbe a876 03bf 449f 88be 6e55 b0be
00000120: 87e0 7cbe 6e54 37be d1eb dabd c5cb b5be
00000130: 3471 2ebe 634a f7be ed72 5dbf df7d 11bf
00000140: 9083 f8be 0470 8ebe e6aa 34be daf1 89be
00000150: 57f3 c6be 1aba f5be 7ba3 16bf beec a8be
00000160: 1ce6 823d addb 86be ffbe 23bf 3618 c4be
00000170: 272d 86be 8145 03bf cfcc edbe 2764 1dbf
00000180: d214 a2be 9b8d 48be 1c67 d1be c308 9ebe

gbrbm.mu f4 [50]
0.0019225038 -0.012605405 -0.008457195 -0.02215253 0.0042385035 0.0021582034 0.016851783 -0.008074817
0.0079838205 0.001048174 -0.009019202 0.0043704333 0.01873692 0.00872567 0.019967321 -0.013757767
0.009759019 0.00052853685 0.005636062 0.0028559745 -0.0031752454 0.002597554 0.013501961 -0.00035669847
0.0018992751 0.008410071 0.0012502798 -0.011789127 -0.004452839 -0.009852406 0.021666223 0.0046148505
-0.00593144 0.018582007 0.0019173909 -0.00083610095 -0.025681023 0.015334498 -0.021312283 0.0060361037
-0.02255717 0.0020884506 -0.011831785 -0.0030436723 0.013408819 0.0065851146 -0.0094620725 0.0022228258
-0.02391615 -0.0009412242
00000000: 86fc fb3a e786 4ebc 0c90 0abc 3979 b5bc
00000010: 25e3 8a3b a570 0d3b c00c 8a3c 3d4c 04bc
00000020: 92ce 023c e262 893a 46c5 13bc da35 8f3b
00000030: 2b7e 993c 1df6 0e3c 8292 a33c 4268 61bc
00000040: 4be4 1f3c 828d 0a3a b7ae b83b 4d2b 3b3b
00000050: c717 50bb b93b 2a3b 5437 5d3c 4203 bbb9
00000060: 19f1 f83a 65ca 093c 6ee0 a33a 2f27 41bc
00000070: 1fe9 91bb fc6b 21bc 5d7d b13c 2c38 973b
00000080: 865c c2bb 4b39 983c f650 fb3a c92d 5bba
00000090: 0261 d2bc 8c3d 7b3c 1997 aebc 82ca c53b
000000a0: d0c9 b8bc 63de 083b 1ada 41bc 5978 47bb
000000b0: aab0 5b3c f2c7 d73b cf06 1bbc d4ac 113b
000000c0: cdeb c3bc 7dbc 76ba

gbrbm.log_var f4 [50]
-6.869889 -6.973266 -6.9972563 -5.5780506 -6.928279 -6.922968 -6.87545 -6.9443426
-6.9093356 -6.8058696 -6.9332695 -6.967931 -6.9398923 -6.9787383 -5.5928397 -6.9557137
-6.949479 -6.6435513 -6.9652243 -6.9485254 -6.7732325 -5.988506 -6.853196 -6.7998695
-6.912858 -6.896466 -6.9648943 -6.81232 -6.5209746 -6.940764 -5.4709997 -6.789474
-6.716072 -6.8238077 -6.9365745 -6.2463284 -5.439339 -6.8668265 -6.9745955 -6.3544993
-5.4546466 -6.953737 -5.542844 -6.923251 -6.935348 -6.862326 -6.958483 -6.893809
-6.913062 -6.951021
00000000: 21d6 dbc0 ff24 dfc0 86e9 dfc0 647f b2c0
00000010: 76b4 ddc0 f488 ddc0 b003 dcc0 0e38 dec0
00000020: 4719 ddc0 afc9 d9c0 58dd ddc0 4af9 dec0
00000030: 9913 dec0 d351 dfc0 8bf8 b2c0 3595 dec0
00000040: 2262 dec0 f997 d4c0 1ee3 dec0 525a dec0
00000050: 52be d8c0 d7a1 bfc0 624d dbc0 8898 d9c0
00000060: 2236 ddc0 d9af dcc0 6ae0 dec0 87fe d9c0
00000070: d3ab d0c0 bd1a dec0 6e12 afc0 5f43 d9c0
00000080: 10ea d6c0 a25c dac0 6bf8 ddc0 ece1 c7c0
00000090: 110f aec0 0bbd dbc0 e32f dfc0 0f58 cbc0
000000a0: 778c aec0 0385 dec0 fa5e b1c0 468b ddc0
000000b0: 5fee ddc0 2d98 dbc0 e5ab dec0 159a dcc0
000000c0: ce37 ddc0 c46e dec0

gbrbm.linear_layer.weight f4 [1, 100]
0.2816227 0.4905599 -0.072420664 0.34055716 -0.23764563 -0.29100654 0.16765438 -0.044156566
-0.43748522 0.3990772 -0.0783787 -0.0262572 0.32587785 0.2653172 -0.10451095 0.09985883
-0.74161 -0.2830045 -0.3348569 0.28914756 0.14161792 0.9123907 -0.23072712 0.18697117
-0.1141889 0.4921862 -0.5504263 0.34217727 -0.29059088 0.11937087 0.09840538 0.27123332
-0.37314567 -0.15959775 -0.09102786 0.5999664 0.4815821 0.5578495 0.119021595 -0.052288633
-0.25924313 -0.24593723 -0.19311203 0.70795524 0.051287055 -0.41314644 0.008028864 -0.054888226
-0.0857846 -0.05011769 0.38956693 -0.16817299 -0.11423993 -0.3282446 -0.22485603 -0.04880741
0.19216518 0.2162048 -0.073212266 -0.246857 0.19969343 0.80403376 -0.069898136 -0.37935424
-0.13849118 0.09725749 0.42206597 0.3752953 -0.452882 -0.17293522 -0.02977972 0.12203161
-0.049327627 -0.19929862 -0.4591979 -0.32789883 -0.110684976 0.14845099 0.89184296 0.30681008
0.356509 -0.4485572 -0.5814671 -0.04280331 -0.027859721 0.1618767 0.35077503 0.050868623
-0.79736686 -0.4971433 0.06487895 0.26531783 0.16004355 0.05198549 0.36048296 0.4948877
0.28665093 -0.3865428 0.07339621 0.08512245
00000000: da30 903e ab2a fb3e 4951 94bd 825d ae3e
00000010: 6059 73be cffe 94be 97ad 2b3e 84dd 34bd
00000020: 10fe dfbe d953 cc3e 0385 a0bd 5719 d7bc
00000030: 76d9 a63e a8d7 873e d609 d6bd c982 cc3d
00000040: 27da 3dbf f7e5 90be 5d72 abbe 260b 943e
00000050: 4a04 113e 7092 693f bb43 6cbe 5f75 3f3e
00000060: dfdb e9bd d4ff fb3e bde8 0cbf dc31 af3e
00000070: 54c8 94be b778 f43d c388 c93d 18df 8a3e
00000080: f30c bfbe 986d 23be d16c babd 6697 193f
00000090: ee91 f63e 3acf 0e3f 98c1 f33d 9b2c 56bd
000000a0: 84bb 84be f8d6 7bbe 29bf 45be 8e3c 353f
000000b0: 6012 523d ee87 d3be 7f8b 033c 7ad2 60bd
000000c0: d6af afbd 3548 4dbd 5175 c73e 8a35 2cbe
000000d0: a0f6 e9bd ad0f a8be a940 66be 47ea 47bd
000000e0: f3c6 443e cb64 5d3e 50f0 95bd 15c8 7cbe
000000f0: 6f7c 4c3e 28d5 4d3f c126 8fbd b83a c2be
00000100: a2d0 0dbe ef2e c73d 0819 d83e b526 c03e
00000110: 26e0 e7be ee15 31be 99f4 f3bc b5eb f93d
00000120: c40b 4abd f014 4cbe fd1b ebbe 5be2 a7be
00000130: ceae e2bd 8903 183e d24f 643f 3616 9d3e
00000140: 5988 b63e 4aa9 e5be 07db 14bf 8652 2fbd
00000150: 123a e4bc 01c3 253e c998 b33e 9e5b 503d
00000160: 3c20 4cbf 9189 febe 41df 843d bdd7 873e
00000170: 75e2 233e bdee 543d 3991 b83e ec61 fd3e
00000180: e9c3 923e f0e8 c5be c150 963d ae54 ae3d
