final_project/gru_gbrbm_H_per_2 (drop 0.1)/type2/gru_gbrbm_W5_H100_B32.pt (torch, 218577 bytes, 9 tensors)

lstm_layer.lstm1.weight_ih_l0 f4 [300, 9]
-5.7302714e-06 1.369931e-05 -6.644945e-07 4.6672876e-06 -3.1251702e-06 -2.0050231e-06 -1.6991128e-06 -2.1619896e-06
-6.5559107e-07 -3.3991404e-05 4.458145e-05 1.9409386e-05 2.9881416e-05 2.1751e-05 1.7752389e-05 1.8340837e-05
1.8919698e-05 7.747583e-06 8.7388614e-08 -1.161277e-06 -9.1731645e-06 4.6124032e-06 -6.646186e-06 5.806103e-06
5.607037e-06 2.8976758e-06 1.525096e-06 -0.00025180256 0.00023011026 9.709352e-05 0.00011697699 9.1265785e-05
0.0001000726 8.8536915e-05 -7.660013e-05 3.8565497e-05 -2.7833485e-05 3.772418e-05 1.6850228e-05 3.1204123e-05
6.9114963e-06 2.2906397e-05 7.4803866e-06 2.1759519e-05 1.3208951e-07 -0.00021143602 0.00038639858 -7.047156e-05
0.00010328643 7.3074865e-05 7.926597e-05 -0.00010463366 -7.700171e-05 2.2950985e-06 -3.309792e-05 2.1735621e-05
2.28322e-06 3.6953907e-06 1.6360269e-06 1.1619396e-06 -2.095223e-06 3.2832973e-05 -4.7434146e-06 -0.00026596469
0.00033169563 3.615952e-06 2.7468182e-05 0.00015266046 3.3160482e-05 0.00014805705 0.00014114966 -9.1564776e-05
-5.635359e-06 1.2505748e-05 1.7906831e-06 3.6580395e-06 3.7505636e-06 1.2905444e-06 4.2414334e-07 2.456738e-06
-1.9288967e-07 -4.6267647e-05 1.5528165e-05 -4.3624652e-05 1.2319337e-05 8.595389e-06 1.0857223e-05 8.078487e-06
-1.1283149e-05 -2.0815141e-05 8.086824e-06 2.6782924e-05 1.0100121e-05 1.0181678e-06 1.1269833e-05 -1.1553409e-05
-3.9465976e-06 -5.6770737e-06 -1.4387535e-05 -0.0007616179 0.0008568233 0.00022972883 0.00025825523 0.00024301719
0.00022380949 7.0186725e-05 0.00020737915 0.00012618773 -3.443487e-05 7.9238736e-05 -1.7751411e-06 -6.080559e-06
5.6214235e-06 8.962281e-06 4.9317955e-06 -4.3981225e-05 -1.9919846e-06 -0.00032531275 0.00041171658 2.5947978e-05
0.00018898003 0.00014918107 0.0001335717 0.00013136846 9.495934e-06 6.8803594e-05 -2.580211e-05 0.00010183655
3.0282219e-05 9.90032e-06 1.1836888e-05 4.827587e-05 1.1724171e-05 2.8046031e-06 1.3844299e-06 -7.833117e-05
6.80013e-05 -3.6775942e-05 3.0401077e-05 3.1706622e-05 3.619951e-05 2.6908112e-05 -1.4525822e-05 -1.8246428e-06
-4.3867403e-06 1.5055467e-05 5.7901543e-06 2.2777197e-06 -1.0986554e-05 6.699167e-06 5.2233554e-06 6.0302165e-07
-2.5549393e-06 -2.6867606e-06 5.7940715e-06 6.488694e-07 1.3478156e-06 -5.0207927e-06 7.453032e-07 2.9315068e-08
6.1464664e-07 2.1907795e-08 -3.122802e-05 0.00011690517 2.9891453e-05 9.315632e-06 2.9428984e-05 1.4197986e-05
1.9480502e-05 1.8968567e-05 -6.7287314e-05 -2.7796897e-05 0.00019784427 4.213449e-05 2.8000157e-05 8.8854085e-06
4.0047387e-05 3.264286e-05 3.230542e-05 2.0472384e-05 -2.004727e-05 2.885499e-05 -2.0789317e-07 -2.6092896e-06
1.5005271e-05 3.1739633e-06 1.2084545e-05 1.3122176e-05 5.3250205e-06 -1.480155e-06 7.4177296e-06 8.74391e-06
3.6695944e-06 2.550744e-06 1.3014022e-06 2.193141e-06 2.832895e-08 2.2723073e-06 -1.778391e-06 -9.616671e-07
1.2880987e-06 -4.4925991e-07 1.1081476e-06 1.2406562e-06 4.3773575e-06 8.683695e-07 -1.328247e-06 -2.708281e-06
3.6852127e-06 1.3217241e-05 2.3286491e-05 1.2587787e-05 1.117842e-05 9.484294e-06 8.522417e-06 9.252578e-06
-8.025911e-05 0.00017065772 2.6271908e-07 7.1319824e-05 1.4697347e-05 2.082611e-05 -1.19779725e-05 3.7403806e-05
1.4705997e-05 -1.4429694e-05 -2.051586e-06 1.4502133e-07 -2.1292213e-07 -6.247161e-08 -7.997243e-07 4.9714225e-07
-1.1766831e-07 -3.185155e-07 -6.2295617e-06 1.3996264e-06 1.9613788e-06 2.573666e-06 7.772899e-06 5.8529554e-06
5.6063263e-06 7.1217555e-06 1.8319301e-06 -2.269233e-05 0.00014314227 9.203045e-08 3.9012795e-07 1.8083621e-07
-7.3997953e-06 4.371952e-06 -1.14710126e-07 0.000120521974 -0.00050068076 0.0008034826 0.00012232577 0.00016230304
00000000: a846 c0b6 17d6 6537 b75f 32b5 b29b 9c36
00000010: 04ba 51b6 098e 06b6 120d e4b5 b316 11b6
00000020: e0fb 2fb5 fe91 0eb8 f8fc 3a38 57d1 a237
00000030: daa9 fa37 eb75 b637 f7ea 9437 a6da 9937
00000040: beb5 9e37 9efb 0137 66aa bb33 2ddd 9bb5
00000050: 71e6 19b7 3ec4 9a36 4e02 dfb6 0cd2 c236
00000060: 1524 bc36 b175 4236 e6b1 cc35 5e04 84b9
00000070: c149 7139 b09e cb38 8b51 f538 f265 bf38
00000080: 11de d138 e5ac b938 62a4 a0b8 63c1 2138
00000090: f47b e9b7 083a 1e38 9759 8d37 2ce1 0238
000000a0: 4de9 e736 1d27 c037 0800 fb36 3688 b637
000000b0: 7dd4 0d34 edb4 5db9 8a95 ca39 21ca 93b8
000000c0: 7b9b d838 c53f 9938 983b a638 c56e dbb8
000000d0: fa7b a1b8 7e05 1a36 9fd2 0ab8 e454 b637
000000e0: 6c39 1936 54fe 7736 7595 db35 f1f3 9b35
000000f0: a89b 0cb6 23b6 0938 9f29 9fb6 2d71 8bb9
00000100: 6fe7 ad39 95a9 7236 796b e637 7b13 2039
00000110: cc15 0b38 c33f 1b39 9301 1439 7706 c0b8
00000120: 5d17 bdb6 c7cf 5137 6757 f035 a47c 7536
00000130: 31b2 7b36 c536 ad35 d1b5 e334 70de 2436
00000140: 1c1d 4fb4 820f 42b8 7b42 8237 9df9 36b8
00000150: 26af 4e37 ea34 1037 6b27 3637 d688 0737
00000160: c24c 3db7 2d9c aeb7 a5ac 0737 e4ab e037
00000170: b073 2937 fba7 8835 9013 3d37 84d5 41b7
00000180: 046d 84b6 b17d beb6 fe61 71b7 50a7 47ba
00000190: 709c 603a 5de3 7039 6e66 8739 6ed2 7e39
000001a0: 67ae 6a39 3631 9338 eb73 5939 4351 0439
000001b0: 296e 10b8 f92c a638 6241 eeb5 9b07 ccb6
000001c0: a99f bc36 b45c 1637 cd7b a536 7b78 38b8
000001d0: 09ae 05b6 bd8e aab9 aadb d739 dcaa d937
000001e0: f128 4639 7d6d 1c39 610f 0c39 f4bf 0939
000001f0: ba50 1f37 a64a 9038 9c71 d8b7 1591 d538
00000200: 9206 fe37 8d19 2637 0c97 4637 d27b 4a38
00000210: eeb2 4437 b736 3c36 a6d0 b935 ba45 a4b8
00000220: ec9b 8e38 de3f 1ab8 d105 ff37 bafc 0438
00000230: eed4 1738 bbb8 e137 eeb3 73b7 40e6 f4b5
00000240: d031 93b6 bd96 7c37 0c49 c236 edda 1836
00000250: e452 38b7 68c9 e036 4844 af36 55df 2135
00000260: 8675 2bb6 324e 34b6 b26a c236 f72d 2e35
00000270: 97e6 b435 4878 a8b6 d910 4835 84d0 fb32
00000280: 32fe 2435 c02f bc32 d5fa 02b8 fc2a f538
00000290: 68bf fa37 564a 1c37 43de f637 e333 6e37
000002a0: 0f6a a337 b01e 9f37 9a1c 8db8 622d e9b7
000002b0: 6b74 4f39 90b9 3038 e1e1 ea37 8a12 1537
000002c0: 8ef8 2738 01ea 0838 ae7f 0738 1cbc ab37
000002d0: 2f2b a8b7 9f0d f237 3d39 5fb4 411b 2fb6
000002e0: 26bf 7b37 4600 5536 babe 4a37 5127 5c37
000002f0: 94ad b236 bda9 c6b5 d0e5 f836 cfb2 1237
00000300: 2743 7636 732d 2b36 d7ab ae35 e02d 1336
00000310: 0558 f332 f17d 1836 0db1 eeb5 a112 81b5
00000320: bce2 ac35 d031 f1b4 a9bb 9435 9f84 a635
00000330: 37e1 9236 e619 6935 3846 b2b5 eabf 35b6
00000340: 794f 7736 9ebf 5d37 5c57 c337 2230 5337
00000350: f38a 3b37 bc1e 1f37 81fb 0e37 853b 1b37
00000360: c850 a8b8 95f2 3239 d60b 8d34 8a91 9538
00000370: a094 7637 bbb3 ae37 00f5 48b7 08e2 1c38
00000380: c7b9 7637 1017 72b7 fbad 09b6 29b7 1b34
00000390: 979f 64b4 2128 86b3 a3ac 56b5 5b73 0535
000003a0: d6b0 fcb3 7000 abb4 8707 d1b6 ccda bb35
000003b0: 3ba0 0336 3fb7 2c36 5968 0237 8164 c436
000003c0: fa1d bc36 6af7 ee36 a4e0 f535 685b beb7
000003d0: 7618 1639 46a2 c533 c772 d134 e12b 4234
000003e0: c24b f8b6 c8b2 9236 8f56 f6b3 bec0 fc38
000003f0: 1e40 03ba cea0 523a 9344 0039 e42f 2a39

lstm_layer.lstm1.weight_hh_l0 f4 [300, 100]
-9.8106824e-08 -1.3581775e-06 -1.7755875e-06 6.5707496e-07 -6.787616e-07 -1.5727841e-06 7.2158673e-07 1.0500887e-06
3.4108032e-07 4.0518708e-07 6.0481405e-08 1.3627703e-06 2.4483083e-07 2.889493e-06 -1.2484651e-09 2.0104517e-06
-1.2947824e-06 -7.4781406e-07 -5.4428506e-07 -2.6655184e-07 1.7334656e-07 -3.3619497e-07 2.2243162e-07 -2.1247395e-06
5.683341e-07 -7.577876e-07 1.5340237e-06 8.958412e-07 2.9949445e-06 -4.592756e-07 1.0249198e-06 8.8277375e-07
-8.8393443e-07 -1.0189037e-07 -1.0361815e-06 2.1872587e-07 2.6311298e-07 -2.0181067e-06 2.2412498e-06 2.044038e-06
1.8033052e-07 -1.2050394e-07 5.4227936e-08 3.7997392e-08 -8.070137e-08 2.4080148e-06 -5.3494614e-07 -1.2670187e-06
1.3137467e-06 5.6844175e-07 2.4529547e-07 -6.802216e-08 -3.347786e-07 -2.6134268e-08 -2.8229647e-07 2.257225e-07
5.461706e-07 -2.4120018e-07 2.3724888e-07 1.3184182e-07 -6.6637625e-07 -9.697583e-08 2.7173949e-06 -1.1300099e-06
-2.1775236e-08 8.847997e-07 -3.7684053e-06 1.4587059e-07 5.81091e-08 -1.2028404e-07 -2.5852933e-07 -7.8782773e-07
2.028303e-06 3.1327343e-06 1.374821e-08 6.4756546e-07 1.1030162e-07 4.004052e-07 -2.0996797e-06 3.07945e-07
-8.6668615e-07 9.448565e-07 -3.2344943e-08 -3.4850603e-07 3.5481816e-07 -3.5836538e-07 7.416022e-07 -1.3331365e-07
1.2426126e-06 6.5372876e-07 -3.3254975e-07 -1.2158554e-07 -3.3241713e-06 1.7332413e-08 7.1191954e-07 5.6829475e-07
-5.308101e-07 -1.3058259e-06 -7.9150146e-07 -7.555152e-07 -2.921489e-08 -3.1083835e-06 -2.632201e-06 4.342449e-06
1.3033152e-06 2.8421757e-06 6.084921e-07 3.4529871e-06 1.5740717e-06 2.3088146e-06 -3.83598e-07 4.4553635e-06
5.345963e-07 3.970752e-06 -2.3054649e-07 3.0081992e-06 -2.0569228e-06 -1.4586904e-07 -2.9382318e-06 -6.5749566e-07
1.1250214e-06 2.0464589e-07 5.264106e-07 -3.4028462e-06 1.913288e-06 -8.675198e-07 8.580847e-07 1.0011863e-06
4.0155173e-06 4.4237686e-06 3.3593194e-06 2.2968263e-06 -5.8227447e-06 -7.4248453e-07 -1.0053125e-06 9.24662e-07
1.7058557e-06 1.7063741e-06 2.9295156e-06 2.714277e-06 2.066471e-07 -5.5625486e-07 1.08488756e-07 3.7753706e-10
-7.495854e-07 6.2680083e-06 -1.25383e-06 -4.7342223e-06 2.999742e-06 1.9173158e-06 2.6786265e-07 -5.1535267e-08
-2.1806018e-06 -3.0073517e-07 -2.1386627e-06 1.3571776e-06 3.2314852e-06 -1.4815029e-06 -4.8825996e-07 1.8290851e-07
-4.6465675e-07 -9.302082e-07 3.9593997e-06 -3.9394063e-06 -1.1497412e-07 6.0227617e-06 -4.769747e-06 1.2923623e-06
-3.7310681e-07 -4.045369e-07 -1.6721536e-06 -1.7135109e-06 3.724385e-06 3.5988974e-06 -9.404246e-08 1.2225426e-09
-3.8072386e-07 -1.2617424e-07 -2.8244965e-06 1.3898181e-06 -1.0307599e-06 5.372795e-07 -3.3659913e-07 -2.4197774e-07
-5.872019e-09 -1.3238392e-06 4.5401707e-06 -8.2055976e-07 1.7270114e-06 2.452855e-06 -2.2736074e-06 -7.2164835e-07
-4.3778405e-06 -5.8513866e-08 5.4372567e-06 4.978098e-07 -1.2226218e-06 -1.0784297e-06 2.9491239e-06 1.1266641e-06
-4.474387e-08 6.1790473e-07 -5.47161e-07 6.2001664e-07 -6.556542e-07 -1.9472818e-06 1.1700097e-07 8.7193666e-07
1.3877791e-06 2.3436423e-06 5.2216087e-08 5.191064e-06 1.7488485e-07 1.1944285e-06 -4.3461785e-08 2.6386608e-06
1.01349656e-07 -1.4411131e-07 -7.806338e-07 -9.253376e-07 6.115413e-07 -6.1105005e-08 5.4170375e-08 -1.6936963e-06
-4.908583e-06 -8.350053e-08 4.883813e-07 5.124302e-08 8.114039e-07 4.739666e-07 6.702805e-07 3.4703087e-06
-2.3923903e-06 -4.1030933e-08 -3.5353816e-07 3.469902e-07 7.3217e-07 -3.9954062e-07 5.633237e-07 3.060353e-07
4.9353432e-09 -1.6801242e-07 -1.0304556e-08 2.185193e-07 -1.3236358e-07 6.221652e-07 -1.0972047e-06 -4.8910692e-06
8.7548744e-07 4.5983822e-07 2.033035e-07 -2.4843962e-08 4.8931906e-06 8.566011e-09 -4.555578e-07 2.1126908e-07
00000000: ccae d2b3 a04a b6b5 b950 eeb5 d961 3035
00000010: 2434 36b5 7318 d3b5 10b3 4135 c6f0 8c35
00000020: b91d b734 7d88 d934 01e2 8133 6ee8 b635
00000030: 4b71 8334 1de9 4136 7696 abb0 4ceb 0636
00000040: 62c8 adb5 64bd 48b5 fc1a 12b5 9b1a 8fb4
00000050: 2421 3a34 497e b4b4 8ad5 6e34 bf96 0eb6
00000060: 9f8f 1835 c46a 4bb5 a7e4 cd35 bd79 7035
00000070: c1fc 4836 5c92 f6b4 fa8f 8935 c0f7 6c35
00000080: 8347 6db5 d3ce dab3 ed12 8bb5 e9da 6a34
00000090: f941 8d34 cf6e 07b6 6168 1636 4e2c 0936
000000a0: e0a0 4134 df63 01b4 3fe8 6833 9332 2333
000000b0: 0c4e adb3 6199 2136 3899 0fb5 6e0e aab5
000000c0: fe53 b035 0597 1835 27b1 8334 9413 92b3
000000d0: 9fbb b3b4 dd7d e0b2 888e 97b4 215e 7234
000000e0: 8f9c 1235 4d7e 81b4 7abe 7e34 6790 0d34
000000f0: 07e1 32b5 0741 d0b3 7d5c 3636 d8aa 97b5
00000100: 400c bbb2 f982 6d35 b6e4 7cb6 9aa0 1c34
00000110: a293 7933 6d27 01b4 00cc 8ab4 1c7b 53b5
00000120: fb1d 0836 f73b 5236 4431 6c32 5cd4 2d35
00000130: f5de ec33 46f7 d634 39e8 0cb6 a353 a534
00000140: 38a6 68b5 0ba2 7d35 a4eb 0ab3 4e1a bbb4
00000150: d67d be34 5d65 c0b4 8412 4735 fa24 0fb4
00000160: d8c7 a635 e67b 2f35 4a89 b2b4 2e8d 02b4
00000170: d414 5fb6 61e2 9432 bd1a 3f35 eb8c 1835
00000180: fe7c 0eb5 d643 afb5 9177 54b5 9cce 4ab5
00000190: 39f4 fab2 9f99 50b6 dea4 30b6 5ab5 9136
000001a0: 92ed ae35 35bc 3e36 4257 2335 deb9 6736
000001b0: b144 d335 22f1 1a36 4ff1 cdb4 487f 9536
000001c0: 2e81 0f35 803c 8536 238c 77b4 78e0 4936
000001d0: aa09 0ab6 2da0 1cb4 702e 45b6 c27e 30b5
000001e0: 71ff 9635 a2bc 5b34 a94e 0d35 745c 64b6
000001f0: 0a66 0036 82df 68b5 2257 6635 8060 8635
00000200: 08bd 8636 e26f 9436 ab70 6136 2d23 1a36
00000210: ff60 c3b6 264f 47b5 46ee 86b5 4a36 7835
00000220: c1f4 e435 9106 e535 b298 4436 ec26 3636
00000230: b9e2 5d34 8b51 15b5 53fa e833 9e8d cf2f
00000240: 1e37 49b5 c851 d236 4549 a8b5 a9da 9eb6
00000250: 2d4f 4936 3cab 0036 c3ce 8f34 a057 5db3
00000260: 7456 12b6 ba74 a1b4 f285 0fb6 4428 b635
00000270: 7edc 5836 0dd8 c6b5 f810 03b5 8265 4434
00000280: f075 f9b4 6cb3 79b5 fcda 8436 3e2f 84b6
00000290: b1e7 f6b3 2117 ca36 d10b a0b6 3b75 ad35
000002a0: 694f c8b4 212f d9b4 c36e e0b5 c9fb e5b5
000002b0: 72f0 7936 9684 7136 64f4 c9b3 6506 a830
000002c0: 4a66 ccb4 837a 07b4 7b8c 3db6 c989 ba35
000002d0: a458 8ab5 9139 1035 d5b5 b4b4 2be9 81b4
000002e0: d3c2 c9b1 c5ae b1b5 c557 9836 7044 5cb5
000002f0: a9cb e735 ba9b 2436 4794 18b6 4cb7 41b5
00000300: 5de5 92b6 ad50 7bb3 ae71 b636 3ba1 0535
00000310: f718 a4b5 90be 90b5 90e9 4536 e237 9735
00000320: 682c 40b3 17de 2535 9ee0 12b5 386f 2635
00000330: 3700 30b5 0cae 02b6 f741 fb33 080f 6a35
00000340: ba43 ba35 7847 1d36 3244 6033 e62e ae36
00000350: fbc7 3b34 4050 a035 bdaa 3ab3 d913 3136
00000360: 90a5 d933 04bd 1ab4 bf8c 51b5 b764 78b5
00000370: cc28 2435 d538 83b3 f5a8 6833 f652 e3b5
00000380: 68b4 a4b6 e750 b3b3 4f19 0335 4c16 5c33
00000390: 40cf 5935 7975 fe34 53ed 3335 73e3 6836
000003a0: f48c 20b6 fd39 30b3 eacd bdb4 f849 ba34
000003b0: 578a 4435 7280 d6b4 4f37 1735 2c4d a434
000003c0: bd93 a931 e766 34b4 eb07 31b2 21a2 6a34
000003d0: d31f 0eb4 de02 2735 ab43 93b5 f71d a4b6
000003e0: 0a03 6b35 afdf f634 a44b 5a34 7368 d5b2
000003f0: 3030 a436 b729 1332 6393 f4b4 34d9 6234

lstm_layer.lstm1.bias_ih_l0 f4 [300]
6.349015e-06 6.808493e-05 -2.9038792e-06 0.0002841992 1.9720153e-05 0.0002820862 1.2145044e-05 0.00030815808
2.3495873e-05 4.8367423e-05 -1.8061319e-05 0.00061160227 7.692849e-05 0.00053132547 6.228067e-05 3.9807703e-05
4.6054874e-06 2.9526289e-08 0.00013518438 0.00019205146 6.104518e-05 1.9760952e-05 5.4284055e-06 1.9793379e-05
8.08302e-05 5.367775e-07 1.2591792e-05 2.6614021e-05 0.0007217612 0.00012663097 9.2445014e-05 0.00021133502
0.0005008528 -2.2355428e-06 2.0194339e-06 5.2304786e-05 1.2472269e-06 0.00023639301 3.821671e-05 4.399636e-06
2.5001846e-05 7.262265e-05 2.61913e-05 9.656003e-06 0.0001346853 0.0002080437 4.3039945e-05 0.00047365786
0.00016677214 7.284642e-05 1.1882188e-05 4.4786662e-05 4.2888438e-05 8.14291e-05 2.635106e-05 9.436446e-06
9.5702126e-05 2.3824809e-05 1.4725192e-05 6.302548e-05 2.2545362e-05 8.763767e-05 0.00010585167 0.00022435041
1.9154137e-05 0.0004970373 0.0010076367 1.474687e-05 0.00014694734 2.7329452e-05 1.5481613e-05 0.00021326856
0.00013718287 0.00016174561 4.8148147e-05 6.445851e-05 1.5504756e-05 1.7572735e-05 6.94115e-05 6.724711e-05
-2.921774e-06 4.484177e-06 1.2565544e-05 1.0978406e-05 6.180597e-05 5.3818774e-05 0.00053857424 2.2191605e-06
5.1549872e-05 3.5178964e-05 6.780087e-05 9.782865e-06 1.0558957e-05 7.473331e-05 0.0001391121 -5.9955632e-06
6.2993e-05 -1.1304139e-05 0.00011489971 2.3993694e-05 1.1901295e-05 -0.0002751489 -3.590301e-05 -0.00097076606
-0.00036577845 -0.0004212388 7.083971e-05 -0.0014419409 5.1986495e-05 -0.00021139227 -5.814598e-06 -0.0023292762
-5.5966222e-05 -0.00094997603 -7.663216e-05 -0.00026930158 -0.00011592119 -2.4959769e-05 -0.0005917388 -0.00028935674
-0.00012499897 -6.7621504e-06 -1.6254028e-06 -0.00013204406 -0.0005096425 -3.612499e-06 -0.00017598658 -5.9194113e-05
-0.0017855435 -0.0005499052 -0.00019903982 -0.0008602064 -0.0015790763 -2.9295896e-05 -8.958397e-05 -4.9917293e-05
-2.392263e-05 -0.0005084615 -0.00011566714 -3.538682e-05 -1.6902347e-06 -0.000107771375 -3.917755e-06 -3.1366346e-06
6.303292e-05 -0.001033475 -0.00029666317 -0.0012120072 -0.00081713486 -0.00032536229 -0.00010409921 -9.77134e-06
-0.00019155897 2.8068634e-05 5.692211e-05 -1.11848485e-05 -0.0003021015 -0.00016606996 5.3488715e-05 -6.925921e-05
-6.245746e-05 -6.2121067e-06 -0.00044406674 -0.0009867491 8.3906207e-07 -0.0015001654 -0.002031771 2.2839968e-05
-0.00014156279 -1.2526182e-05 -0.000105885665 -0.0003542912 -0.0006811639 -0.0006129055 0.00021007219 2.8895872e-06
-2.483127e-05 -3.8636106e-05 0.00015559101 -0.000109880006 -0.00011080328 -7.035357e-05 3.4151355e-05 6.2106856e-06
-1.7257014e-05 -0.00017540866 -0.0015955648 -3.242223e-05 -0.00019881765 -0.00021807078 -0.00026882894 -6.125653e-05
-0.00034794412 -5.837739e-06 -0.00041935433 4.105928e-06 -0.00015113055 -5.5064942e-05 -0.00017065086 -6.470578e-06
0.0012573105 0.00852904 0.0024602795 -0.014518518 0.009830717 0.010276683 -0.0017961221 -0.014708882
-0.00284902 -0.010181818 -0.0022871695 -0.016950646 -0.0020103264 -0.017212685 0.0025479703 -0.0093965465
0.008117223 0.0044531114 0.010833037 0.0045141596 -0.0058863773 0.00028738723 -0.0005589605 0.0113732545
-0.00981728 0.00080223684 -0.0101746265 -0.0012149699 -0.01613576 -0.009273954 -0.008252889 -0.011158157
0.016348774 8.5078966e-05 0.006339561 -0.004504673 -0.0039195544 0.0090390425 -0.009682556 -0.008072818
-0.0016951457 0.0038024893 0.00032471586 -0.0018428491 -0.0022988133 -0.011300476 0.011104255 0.0146085415
-0.014103204 -0.0051636165 -0.0011548074 0.0035639433 0.006914474 -3.9529015e-05 0.009398479 -0.008067696
00000000: a009 d536 d2c8 8e38 44e0 42b6 9200 9539
00000010: b56c a537 f8e4 9339 91c2 4b37 4790 a139
00000020: 0119 c537 20de 4a38 6382 97b7 ef53 203a
00000030: ab54 a138 a648 0b3a ae9c 8238 32f7 2638
00000040: d688 9a36 ffa0 fd32 48c0 0d39 6c61 4939
00000050: 6205 8038 52c4 a537 a625 b636 f509 a637
00000060: 6283 a938 1217 1035 5641 5337 2d41 df37
00000070: 9334 3d3a 3ec8 0439 0adf c138 d099 5d39
00000080: aa4b 033a 5506 16b6 9c85 0736 d661 5b38
00000090: 6466 a735 44e0 7739 e14a 2038 96a0 9336
000000a0: 0ebb d137 fd4c 9838 63b5 db37 3800 2237
000000b0: 4f3a 0d39 4e26 5a39 ca85 3438 4855 f839
000000c0: 8edf 2e39 20c5 9838 9c59 4737 50d9 3b38
000000d0: 1ce3 3338 eac4 aa38 780c dd37 3a51 1e37
000000e0: b0b3 c838 63db c737 380c 7737 8c2c 8438
000000f0: cc1f bd37 1eca b738 affc dd38 9b3f 6b39
00000100: 32ad a037 9c4b 023a ad12 843a 5369 7737
00000110: e015 1a39 8d41 e537 83de 8137 d8a0 5f39
00000120: bfd8 0f39 429a 2939 aef2 4938 e62d 8738
00000130: 3610 8237 2969 9337 0491 9138 0407 8d38
00000140: b213 44b6 ca76 9636 9ad0 5237 e52f 3837
00000150: d49d 8138 78bb 6138 1b2f 0d3a e3ec 1436
00000160: 4137 5838 208d 1338 5130 8e38 1621 2437
00000170: 6026 3137 24ba 9c38 9fde 1139 7f2d c9b6
00000180: 1c1b 8438 e8a6 3db7 50f6 f038 1146 c937
00000190: acab 4737 dc41 90b9 9096 16b8 027b 7eba
000001a0: f4c5 bfb9 b7d9 dcb9 c88f 9438 82ff bcba
000001b0: 130c 5a38 2ea9 5db9 041b c3b6 c5a6 18bb
000001c0: 46bd 6ab8 d007 79ba 94b5 a0b8 0c31 8db9
000001d0: b71a f3b8 b260 d1b7 eb1e 1bba ceb4 97b9
000001e0: 2812 03b9 6ee6 e2b6 6a28 dab5 4f75 0ab9
000001f0: 8799 05ba 436e 72b6 0a89 38b9 3247 78b8
00000200: e608 eaba 8327 10ba 58b5 50b9 797f 61ba
00000210: 02f9 ceba 75c0 f5b7 07df bbb8 495e 51b8
00000220: 75ad c8b7 464a 05ba 5392 f2b8 4f6c 14b8
00000230: 06dc e2b5 5103 e2b8 4275 83b6 f97e 52b6
00000240: 8b30 8438 ab75 87ba 7589 9bb9 37dc 9eba
00000250: fe34 56ba 6395 aab9 d64f dab8 96ef 23b7
00000260: 38dd 48b9 ef74 eb37 a6bf 6e38 8fa6 3bb7
00000270: 6163 9eb9 1123 2eb9 1259 6038 413f 91b8
00000280: 98fb 82b8 9771 d0b6 a1d1 e8b9 ce55 81ba
00000290: e83b 6135 33a1 c4ba 7627 05bb 7598 bf37
000002a0: 7970 14b9 8b27 52b7 ef0e deb8 29c0 b9b9
000002b0: 2390 32ba 64ab 20ba d346 5c39 bbea 4136
000002c0: bf4c d0b7 340d 22b8 2526 2339 616f e6b8
000002d0: 0f5f e8b8 c98a 93b8 bd3d 0f38 6265 d036
000002e0: 28c3 90b7 e7ed 37b9 4522 d1ba 1bfd 07b8
000002f0: b579 50b9 eea9 64b9 9cf1 8cb9 d976 80b8
00000300: 456c b6b9 cce1 c3b6 c9dc dbb9 a7c5 8936
00000310: cc78 1eb9 88f5 66b8 bef0 32b9 d71d d9b6
00000320: 57cc a43a 63bd 0b3c a43c 213b 14df 6dbc
00000330: 0411 213c 885f 283c db6b ebba 86fd 70bc
00000340: a0b6 3abb a4d1 26bc 56e4 15bb 15dc 8abc
00000350: aebf 03bb 9e01 8dbc d9fb 263b f9f3 19bc
00000360: 1afe 043c 68eb 913b 0d7d 313c 84eb 933b
00000370: 83e2 c0bb 76ac 9639 3487 12ba e356 3a3c
00000380: a8d8 20bc 344d 523a 7ab3 26bc a03f 9fba
00000390: 242f 84bc c8f1 17bc 2037 07bc b4d0 36bc
000003a0: dded 853c 6c6c b238 18bc cf3b f09b 93bb
000003b0: 9b6f 80bb 7e18 143c 95a3 1ebc da43 04bc
000003c0: a72f deba 2f33 793b a03e aa39 c18b f1ba
000003d0: b0a7 16bb a225 39bc 9fee 353c aa58 6f3c
000003e0: 2011 67bc 8e33 a9bb e85c 97ba 0c91 693b
000003f0: d092 e23b f5cb 25b8 14fc 193c 5f2e 04bc

lstm_layer.lstm1.bias_hh_l0 f4 [300]
1.2715707e-05 1.598484e-05 -3.3500085e-06 0.00024414275 3.390744e-05 0.0002842854 1.3542885e-05 0.00034605034
-5.4739885e-06 4.119339e-05 -2.0374418e-05 0.000704477 0.00015775526 0.0003147571 5.8442947e-05 3.0699342e-05
8.197241e-07 3.4944558e-06 0.00011783901 0.00020327348 6.11089e-05 1.1769212e-06 3.6419233e-06 6.135835e-06
0.00014973414 -1.3801504e-07 6.1057226e-06 3.3081044e-05 0.0004356006 0.00010235115 3.4885976e-05 0.00030140096
0.0003544559 8.350232e-06 2.7905935e-05 1.9389534e-05 -3.320663e-06 0.00015796919 -3.0333856e-06 7.263485e-06
3.1457144e-05 0.00026466814 9.3209354e-07 1.8336923e-05 4.5335855e-05 0.00017719039 4.2880485e-05 0.00032352362
0.0002083609 8.86846e-05 0.000100480574 2.4509254e-05 0.00012041898 9.6005606e-05 2.8045324e-05 9.59513e-06
7.563312e-05 0.00010447091 3.469706e-06 4.8264596e-05 2.038736e-05 -1.5542417e-05 8.591818e-05 0.00023019807
4.5530774e-06 0.0002737233 0.0006619158 1.811486e-05 0.00015204784 2.2287506e-05 1.0727412e-05 0.00015063486
0.00021502735 0.00017656287 6.1341954e-05 6.0098646e-05 1.577446e-05 1.6141643e-05 -5.209809e-06 5.5961482e-05
5.901862e-05 1.9489821e-06 -4.7423066e-05 1.0378783e-05 5.2906864e-05 9.465432e-05 0.00046421666 6.316829e-06
5.8475413e-05 3.5198056e-05 7.325864e-05 -5.3756264e-07 6.367463e-05 2.0035675e-05 0.00012336376 -2.9290136e-06
7.75545e-05 1.1833942e-05 4.628607e-05 1.8462286e-05 4.2305155e-06 -0.00028249662 -5.5789133e-05 -0.001046937
-9.345468e-05 -0.0006715494 0.0001893823 -0.0015221521 3.0231398e-05 -0.00021996303 -1.7884e-05 -0.002141687
-6.622705e-05 -0.0014112269 -4.709435e-05 -0.00040351975 -9.935838e-05 -3.585305e-06 -0.00059860456 -0.0002929654
-7.172009e-05 -5.6500803e-06 -6.2058093e-06 -0.00011621752 -0.00050416746 2.4581448e-06 -0.00018886622 -9.771124e-05
-0.0018742164 -0.00053660903 -0.0001567625 -0.000892026 -0.0012370452 7.728674e-06 -1.40866605e-05 -7.284174e-05
-4.864942e-05 -0.0005140912 -1.5955047e-05 6.0915454e-06 9.875989e-08 -0.00011931739 -4.237456e-06 -2.4166059e-06
-5.1604642e-05 -0.0010637438 -0.00029349426 -0.001425917 -0.0006403995 -0.00029915888 -1.938548e-05 -2.5607178e-05
-0.0001907964 2.1427244e-05 9.0345005e-05 -1.6566892e-05 -0.00039355847 -0.00015666465 5.2958865e-05 -5.4014894e-05
1.37928655e-05 1.3692839e-05 -0.00045322467 -0.00083461823 9.564975e-07 -0.0014521116 -0.0021261396 -2.1712376e-06
-0.00014049857 -2.1737145e-05 -5.1232302e-05 -0.00035287012 -0.0007724639 -0.0006826049 -2.3643799e-05 -1.326307e-06
-2.7840371e-05 -1.8378043e-06 4.8092435e-05 -0.00021107796 -0.00011331985 5.58378e-06 -1.7050092e-05 -8.696358e-06
-3.370839e-05 -0.0001584461 -0.00156611 -2.8343517e-05 -0.00017300835 -0.00023348941 -0.00023559622 -3.673174e-05
-0.00025073998 -5.031551e-06 -0.00038892386 -5.658684e-05 -0.00012310724 -5.5124623e-05 -0.0001655248 1.1892251e-06
0.000112828086 0.0040157395 0.0011858847 -0.007701279 0.0042428873 0.004567794 3.562067e-05 -0.007818896
-0.00039899052 -0.0054688575 -0.0012283126 -0.009626805 -0.00060962787 -0.008396239 0.0020533823 -0.0049207085
0.003014639 0.0015525082 0.0053245374 0.0032932544 -0.0036960563 6.23661e-05 -0.00057616207 0.005815418
-0.005219255 0.00024262215 -0.0039821207 7.505393e-05 -0.008079713 -0.0038731417 -0.0041728774 -0.0054747057
0.009245477 0.0005750804 0.0029860302 -0.0021840371 -0.001616446 0.00451019 -0.00412499 -0.0031943587
-0.00031469623 0.0023917148 0.000112032496 -0.0009165435 -0.00087049796 -0.0065092295 0.005083166 0.00788682
-0.0073460694 -0.0018213071 -0.00054155634 0.0022559678 0.0034298003 -0.0016488333 0.004491611 -0.004042715
00000000: 8c55 5537 2f17 8637 b5d0 60b6 4900 8039
00000010: d637 0e38 240c 9539 4036 6337 176e b539
00000020: 34ad b7b6 11c7 2c38 bbe9 aab7 a7ac 383a
00000030: 1b6b 2539 fc05 a539 a320 7538 2bc3 0038
00000040: 030b 5c35 4b82 6a36 5620 f738 cf25 5539
00000050: 9727 8038 b4f6 9d35 c467 7436 6ce2 cd36
00000060: f401 1d39 4931 14b4 c2df cc36 80c0 0a38
00000070: 5361 e439 5ba5 d638 8852 1238 5a05 9e39
00000080: 44d6 b939 f917 0c37 8a17 ea37 b5a6 a237
00000090: 8ed8 5eb6 88a4 2539 2b91 4bb6 dcb8 f336
000000a0: daf0 0338 28c3 8a39 fb34 7a35 3ed2 9937
000000b0: 0127 3e38 2fcc 3939 92da 3338 9b9e a939
000000c0: 747b 5a39 2ffc b938 19b9 d238 3999 cd37
000000d0: 7389 fc38 9e56 c938 e042 eb37 c5fa 2037
000000e0: 399d 9e38 6517 db38 18d9 6836 b76f 4a38
000000f0: 8605 ab37 1661 82b7 f92e b438 5361 7139
00000100: a3c6 9836 8582 8f39 6b84 2d3a 5ef5 9737
00000110: 086f 1f39 0ef6 ba37 e2f9 3337 bdf3 1d39
00000120: f778 6139 bc23 3939 b6a4 8038 6e12 7c38
00000130: 6553 8437 ea67 8737 ebcf aeb6 2fb8 6a38
00000140: c38a 7738 42cb 0236 21e8 46b8 8920 2e37
00000150: 50e8 5d38 2781 c638 1b62 f339 26f5 d336
00000160: 7f43 7538 a0a1 1338 6fa2 9938 064d 10b5
00000170: 0f89 8538 4912 a837 355b 0139 1290 44b6
00000180: c1a4 a238 658a 4637 4a23 4238 75df 9a37
00000190: daf3 8d36 0e1c 94b9 20ff 69b8 6039 89ba
000001a0: 19fd c3b8 eb0a 30ba ed94 4639 f382 c7ba
000001b0: 6f99 fd37 e0a5 66b9 9905 96b7 8c5b 0cbb
000001c0: 60e3 8ab8 ebf8 b8ba 2c87 45b8 818f d3b9
000001d0: a05e d0b8 129b 70b6 aceb 1cba 2699 99b9
000001e0: 6e68 96b8 d295 bdb6 7f3b d0b6 ceb9 f3b8
000001f0: 1b2a 04ba 9bf6 2436 640a 46b9 53ea ccb8
00000200: 44a8 f5ba 39ab 0cba 9d60 24b9 dad6 69ba
00000210: 5924 a2ba 67aa 0137 bf55 6cb7 9dc2 98b8
00000220: eb0c 4cb8 14c4 06ba 34d7 85b7 fa65 cc36
00000230: d315 d433 093a fab8 782f 8eb6 f92c 22b6
00000240: 1072 58b8 526d 8bba 22e0 99b9 d6e5 baba
00000250: 7ce0 27ba 6dd8 9cb9 009e a2b7 ffce d6b7
00000260: 8510 48b9 a8be b337 9b77 bd38 21f9 8ab7
00000270: 8656 ceb9 5946 24b9 2620 5e38 0d8e 62b8
00000280: e867 6737 4cba 6537 c99e edb9 48ca 5aba
00000290: 0161 8035 c854 beba b456 0bbb 94b5 11b6
000002a0: cc52 13b9 2a58 b6b7 44e2 56b8 6d01 b9b9
000002b0: 2d7f 4aba d7f0 32ba ac56 c6b7 9003 b2b5
000002c0: be8a e9b7 7aaa f6b5 dcb6 4938 cf54 5db9
000002d0: 22a6 edb8 4e5c bb36 cb06 8fb7 93e6 11b7
000002e0: 1c62 0db8 8d24 26b9 ee45 cdba 3dc3 edb7
000002f0: 9369 35b9 d6d4 74b9 610a 77b9 6810 1ab8
00000300: c075 83b9 b2d4 a8b6 7ae8 cbb9 a857 6db8
00000310: 5916 01b9 9d35 67b8 ba90 2db9 779d 9f35
00000320: 1e9e ec38 7796 833b b06f 9b3a 035b fcbb
00000330: eb07 8b3b 6fad 953b 6767 1538 d41a 00bc
00000340: 9a2f d1b9 1a34 b3bb 55ff a0ba bfb9 1dbc
00000350: 6fcf 1fba 6190 09bc 0a92 063b e53d a1bb
00000360: 4091 453b 887d cb3a 7579 ae3b a4d3 573b
00000370: 8939 72bb 8cca 8238 9509 17ba 438f be3b
00000380: 4906 abbb 6368 7e39 737c 82bb 4666 9d38
00000390: c660 04bc 89d4 7dbb a2bc 88bb 2965 b3bb
000003a0: 577a 173c fec0 163a 46b1 433b 1022 0fbb
000003b0: edde d3ba 37ca 933b ed2a 87bb 7258 51bb
000003c0: d0fd a4b9 51be 1c3b fdf2 ea38 3144 70ba
000003d0: 2132 64ba 604b d5bb b090 a63b b837 013c
000003e0: 4cb7 f0bb edb8 eeba 3bf7 0dba dcd8 133b
000003f0: 80c6 603b aa1d d8ba 5d2e 933b c078 84bb

gbrbm.W f4 [100, 200]
0.0007311792 -0.0011311326 0.0007082252 0.0015741459 0.0029619557 0.0007662124 0.0041338 0.00378769
-0.0012159025 0.004246007 -0.00071817846 0.0011119897 0.0038447597 0.0005876138 0.0023525162 0.004641447
0.0011379481 0.0023772342 -0.008499092 -0.004447135 -0.0017476863 0.005682546 0.005446848 -0.0034984513
0.006698117 0.004399041 -0.0018404532 0.005314823 -0.002789286 -0.0019521738 0.0005226589 -0.0034182244
0.009581891 0.002127938 0.00015980109 -0.0009736679 -0.003611428 0.0014241021 -0.0007080337 0.0071640266
-0.0030179655 -6.266226e-05 -0.0029189829 -0.005668286 -0.0065087825 0.00027853952 -0.002215007 -0.0027142668
0.0005450656 -0.008116598 0.0056387503 0.0036738461 -0.0023666366 0.00080609525 -0.0019837595 1.2195264e-05
-0.00025820197 0.0054613394 0.004633227 -0.0013322317 0.004035079 0.0034813837 -0.00032364472 0.00026943276
-0.004868437 -4.8087233e-05 -0.0009530204 -0.00041566213 -0.0012132644 0.00044968913 0.0021870956 -0.003225686
0.0027084823 -0.00031742905 -0.005216582 0.003233903 0.0019284209 -0.0045606378 -0.0051633143 -0.0008417047
-0.002450349 -0.0006476266 -0.004852596 0.010233086 -0.007313221 0.0031976611 0.005061453 -0.0026984995
-0.00015325261 -0.0026171878 0.0020903647 0.008893269 -0.0033954466 -0.003824382 0.0002365521 -0.004289809
-0.0016205136 -0.0027727725 -0.0040465915 0.0022358664 0.00035409714 0.0029085134 -0.0018616485 0.005885447
0.0016292348 -0.0019818696 0.00047943866 -0.005936099 -0.001938276 0.0010723439 -0.0012632954 0.00048323296
-0.00074257236 -0.0027790237 -0.003921546 0.0039324923 0.0014686472 0.00022377 0.0023141268 -0.00012269047
0.0084825475 -0.00084087113 -0.0035226995 0.0023589334 -0.0019384455 -0.004831829 -0.0018983434 0.009062999
-0.006535516 0.0005666923 -0.0026821468 0.0046766554 -0.0022486243 0.0025163537 0.0020621037 -0.00024096732
-0.0017032858 0.0046984414 0.0029633343 0.0064228512 -0.0010594045 -0.003036747 0.0012983173 -0.00076137023
0.002263629 -0.0013684257 0.0034090693 -0.0019687093 0.00018785687 0.00020837144 0.004029607 0.0043126047
0.0059491 0.0009776788 0.0022505757 0.0042438894 -0.0008936798 0.0020899458 -0.009118153 0.00043216182
-0.0025265424 0.003792713 0.0029166662 -0.0027873388 0.005426488 -0.0011548323 0.0016611846 0.0017348122
0.0057869377 -0.0007399049 0.005947685 0.0028303147 -0.0021858239 -0.0056710183 0.0020728745 0.006031316
-0.0015714222 -0.0038053854 0.00092855137 -0.00015075509 0.009040409 0.00029973037 -0.002540963 -0.0051662712
-0.00097021816 -0.0014069848 0.001437042 -0.00015578313 0.0015767739 0.000455942 -0.0037613164 0.008272265
0.0054008733 0.005592009 0.0047661 0.0026524235 0.0006978782 0.0025708135 0.008673895 -0.0024817581
0.0037257986 0.0026438795 0.0033633818 0.0077102794 0.0012591413 -0.0001442915 -0.0020588425 0.0121014025
-0.0026573543 -0.0060974387 -0.0011949163 -0.0034080867 0.0070528374 -0.0045381254 -0.005881003 0.0008897894
-0.0033774269 0.00023583388 -0.004320277 -0.003667363 0.0084693795 0.010741312 0.0118027385 -0.006464139
-9.997346e-05 0.0015657077 -0.0066706804 0.005421642 -0.002320526 -0.006290076 -0.0076548746 0.0023083678
-0.0023049654 0.0007235945 0.0013486092 0.0035981757 -0.0019168463 0.001717131 -0.0060818205 -0.000611498
0.00021299292 -0.0008551923 -0.0044454075 -0.0009007251 -0.003037817 -0.0018736095 -0.004831851 0.0024917792
0.009654263 0.00449787 0.0048306216 0.0023329651 -0.0011230578 -0.006910404 -0.0013911923 -0.0034656953
00000000: 9bac 3f3a 8342 94ba 30a8 393a 9253 ce3a
00000010: 5f1d 423b a5db 483a d474 873b e53a 783b
00000020: eb5e 9fba 1722 8b3b 2444 3cba 2fc0 913a
00000030: 5df8 7b3b 180a 1a3a ac2c 1a3b 4817 983b
00000040: 3427 953a 5fcb 1b3b c73f 0bbc 46b9 91bb
00000050: 9f12 e5ba a734 ba3b 797b b23b 4646 65bb
00000060: e17b db3b d525 903b 5d3b f1ba f727 ae3b
00000070: 74cc 36bb 15e0 ffba 0c03 093a 4a04 60bb
00000080: 5dfd 1c3c e074 0b3b 4790 2739 bf3d 7fba
00000090: b5ad 6cbb f0a8 ba3a 569b 39ba 36c0 ea3b
000000a0: 0fc9 45bb 8b69 83b8 684c 3fbb 07bd b9bb
000000b0: a047 d5bb f108 9239 a729 11bb d7e1 31bb
000000c0: bce2 0e3a 7bfb 04bc 44c5 b83b e9c4 703b
000000d0: 9319 1bbb 2350 533a f601 02bb 439a 4c37
000000e0: 485f 87b9 09f5 b23b 53d2 973b 479e aeba
000000f0: b238 843b ed27 643b dcae a9b9 a742 8d39
00000100: 6987 9fbb 46b1 49b8 1ed4 79ba 3aed d9b9
00000110: 6606 9fba 41c4 eb39 6055 0f3b 0866 53bb
00000120: cb80 313b 9b6c a6b9 ddef aabb e4ef 533b
00000130: 11c3 fc3a 6771 95bb 0531 a9bb d9a5 5cba
00000140: 0996 20bb 7cc5 29ba 8702 9fbb aca8 273c
00000150: bfa3 efbb da8f 513b 8cda a53b 4fd9 30bb
00000160: 6fb2 20b9 2085 2bbb 80fe 083b 13b5 113c
00000170: 2486 5ebb 7ca2 7abb f90a 7839 8791 8cbb
00000180: 6a67 d4ba 67b7 35bb 4599 84bb 9d87 123b
00000190: 1da6 b939 c29c 3e3b 8f02 f4ba b5da c03b
000001a0: 0c8c d53a 41e2 01bb 2b5d fb39 9c83 c2bb
000001b0: c00d feba e48d 8c3a 2995 a5ba 6e5a fd39
000001c0: 30a9 42ba 4820 36bb 5080 80bb 23dc 803b
000001d0: 9f7f c03a cda3 6a39 9ba8 173b 79a6 00b9
000001e0: 62fa 0a3c e86d 5cba 17dd 66bb 5698 1a3b
000001f0: 7013 feba 5254 9ebb d6d1 f8ba f97c 143c
00000200: e227 d6bb 148e 143a f5c6 2fbb a13e 993b
00000210: a85d 13bb 69e9 243b 5c24 073b 2cac 7cb9
00000220: ca40 dfba 62f5 993b 8034 423b c876 d23b
00000230: b7db 8aba 2904 47bb 4d2c aa3a b196 47ba
00000240: 6559 143b bf5c b3ba b16a 5f3b 7605 01bb
00000250: 72fb 4439 487e 5a39 cb0a 843b c050 8d3b
00000260: abf0 c23b 7525 803a 657e 133b 5310 8b3b
00000270: d645 6aba 79f7 083b 4e64 15bc c793 e239
00000280: 5994 25bb 2a8f 783b 8a25 3f3b c9ab 36bb
00000290: aed0 b13b be5d 97ba 1bbc d93a a362 e33a
000002a0: 5aa0 bd3b 2df6 41ba cce4 c23b cd7c 393b
000002b0: 0a40 0fbb f3d3 b9bb 10d9 073b 58a2 c53b
000002c0: 2ef8 cdba c663 79bb 076a 733a 0314 1eb9
000002d0: 391e 143c 2125 9d39 4986 26bb d349 a9bb
000002e0: 3d56 7eba 936a b8ba 215b bc3a b759 23b9
000002f0: c1ab ce3a 800b ef39 6b80 76bb 6588 073c
00000300: cff9 b03b 2c3d b73b f22c 9c3b 48d4 2d3b
00000310: d0f1 363a 187b 283b f41c 0e3c fea4 22bb
00000320: 872c 743b f044 2d3b 2f6c 5c3b 83a6 fc3b
00000330: c509 a53a f44c 17b9 a5ed 06bb f644 463c
00000340: 0227 2ebb 06cd c7bb bd9e 9cba 355a 5fbb
00000350: 7d1b e73b 8eb4 94bb 6eb5 c0bb c140 693a
00000360: d257 5dbb 2d4a 7739 1c91 8dbb 2458 70bb
00000370: 27c3 0a3c 54fc 2f3c 4660 413c 21d1 d3bb
00000380: d8a8 d1b8 6f38 cd3a b995 dabb 08a8 b13b
00000390: f713 18bb fb1c cebb bed5 fabb fc47 173b
000003a0: e70e 17bb 9baf 3d3a d1c3 b03a 5fcf 6b3b
000003b0: b03e fbba 5b11 e13a 024a c7bb f04c 20ba
000003c0: da56 5f39 fc2e 60ba c8aa 91bb a31e 6cba
000003d0: 1d16 47bb e793 f5ba 8154 9ebb 1e4d 233b
000003e0: ea2c 1e3c de62 933b 314a 9e3b a9e4 183b
000003f0: 9133 93ba ac70 e2bb ab58 b6ba b820 63bb

gbrbm.b f4 [200]
-0.053977583 -0.15051861 0.031007739 0.21816881 -0.12252622 -0.1563557 -0.22029462 -0.22622569
-0.22758558 -0.29484776 -0.22133723 -0.107690796 -0.18196765 -0.17846745 -0.09740555 -0.10115715
-0.16329125 -0.17100035 -0.06842109 -0.1426121 -0.11567308 -0.1288257 -0.15941732 -0.11279999
-0.2748179 -0.14290161 -0.1613803 -0.12100729 -0.109866776 -0.13253346 -0.2449951 -0.15996854
-0.037447456 -0.06456075 -0.15791379 -0.07290221 -0.16475771 -0.062199675 -0.19995458 0.05525763
-0.22257683 -0.19295216 0.014514747 -0.15624814 -0.21800981 -0.11896607 -0.1456829 -0.28932258
-0.08701625 0.12281927 -0.104500435 -0.25376105 -0.084691785 -0.1535061 -0.1705147 -0.12027608
-0.0904601 -0.22864534 -0.051544752 -0.2076195 -0.007329595 -0.121200025 -0.07593579 -0.15362255
-0.21450812 -0.23295625 -0.013215235 -0.20760925 -0.042199153 -0.18661487 -0.11020966 -0.11323439
-0.14647429 -0.2023958 -0.25874144 -0.13412805 -0.23742692 -0.18769951 -0.11677461 -0.09219593
0.042954877 -0.29788816 -0.22763726 -0.21904835 -0.1272943 -0.18274066 -0.21155027 -0.16294506
-0.14605059 -0.20387651 -0.1777794 -0.19142866 -0.12942074 -0.17362507 -0.21707027 -0.16952787
-0.11546872 -0.12524725 -0.09801151 -0.20991448 -0.11031345 -0.26661867 -0.08861586 -0.13743775
-0.24258204 -0.2354853 -0.1933339 -0.106176615 -0.13339898 -0.2787657 -0.15417047 -0.24077259
-0.11445915 -0.1798354 -0.1085657 -0.15088917 -0.16356038 -0.108219616 -0.00062288094 -0.166409
-0.13664341 -0.14860252 -0.21806855 -0.13708402 0.7082412 -0.1866015 -0.15858534 -0.1787049
-0.19852045 -0.19336486 -0.22972168 -0.3003089 -0.053970426 -0.24206142 -0.09487103 -0.11398635
-0.03997068 -0.107678354 0.023310957 -0.12882136 -0.23671907 -0.068539344 -0.1000207 -0.1382465
-0.23517373 -0.11476149 -0.24993083 -0.19533688 -0.038327206 -0.25487748 -0.2583929 -0.23570116
-0.06366839 -0.17274727 -0.18844661 -0.18501355 -0.07700725 -0.23813291 -0.09226468 -0.09108019
-0.07037938 -0.21165976 -0.13576247 -0.21663374 -0.37084773 -0.30480152 -0.25608003 -0.12166556
-0.082449704 -0.24736483 -0.23785123 -0.2841781 -0.20560052 -0.098547034 -0.11326178 -0.10725224
-0.20168045 -0.15302679 -0.026175996 -0.24809036 -0.24834496 -0.09678653 -0.23817652 -0.1273434
-0.23255481 -0.06644478 -0.14094226 -0.21185297 -0.2278253 -0.03875823 -0.1328101 -0.10836723
-0.13703139 -0.23881926 -0.08145891 -0.14718097 -0.13018322 -0.0939823 -0.16535385 -0.26034278
00000000: 9917 5dbd 8d21 1abe f103 fe3c a567 5f3e
00000010: 07ef fabd b51b 20be ea94 61be b5a7 67be
00000020: 320c 69be 49f6 96be 3aa6 62be fe8c dcbd
00000030: ba55 3abe 2cc0 36be 907c c7bd 7b2b cfbd
00000040: d235 27be b71a 2fbe 5b20 8cbd e808 12be
00000050: 02e6 ecbd e2ea 03be 4b3e 23be ae03 e7bd
00000060: efb4 8cbe cd54 12be e140 25be acd2 f7bd
00000070: d501 e1bd dab6 07be ffdf 7abe cbce 23be
00000080: 8162 19bd 6d38 84bd 27b4 21be c14d 95bd
00000090: 3fb6 28be 16c5 7ebd e5c0 4cbe d355 623d
000000a0: 2eeb 63be 4095 45be 43cf 6d3c 83ff 1fbe
000000b0: f73d 5fbe 7ca4 f3bd e62d 15be 1722 94be
000000c0: 9335 b2bd ab88 fb3d 5304 d6bd f8ec 81be
000000d0: e372 adbd b430 1dbe 689b 2ebe 4e53 f6bd
000000e0: 2543 b9bd 0122 6abe 9720 53bd 359a 54be
000000f0: 192d f0bb b837 f8bd 3984 9bbd 3b4f 1dbe
00000100: 04a8 5bbe 158c 6ebe b784 58bc 8597 54be
00000110: 05d9 2cbd f817 3fbe 9ab5 e1bd 6fe7 e7bd
00000120: 5bfd 15be d840 4fbe c279 84be dd58 09be
00000130: 0b20 73be 4d34 40be 8727 efbd 38d1 bcbd
00000140: 74f1 2f3d cc84 98be be19 69be 364e 60be
00000150: 7059 02be 5e20 3bbe a2a0 58be 12db 26be
00000160: 498e 15be 01c5 50be ce0b 36be e005 44be
00000170: df86 04be c5ca 31be ab47 5ebe b798 2dbe
00000180: dd7a ecbd d140 00be 42ba c8bd d2f3 56be
00000190: 05ec e1bd 3e82 88be 3b7c b5bd 7bbc 0cbe
000001a0: 6d67 78be 0f23 71be 52f9 45be 2073 d9bd
000001b0: be99 08be 61ba 8ebe ddde 1dbe 178d 76be
000001c0: 8f69 eabd c526 38be b257 debd b182 1abe
000001d0: 5f7c 27be 3fa2 ddbd d548 23ba 1f67 2abe
000001e0: 40ec 0bbe 422b 18be 5d4d 5fbe c15f 0cbe
000001f0: 4c4f 353f 7714 3fbe 3264 22be 6bfe 36be
00000200: f248 4bbe 7001 46be 293c 6bbe 17c2 99be
00000210: 1810 5dbd f3de 77be be4b c2bd ad71 e9bd
00000220: 4cb8 23bd 7886 dcbd 9ff6 be3c bfe9 03be
00000230: 7c66 72be 5b5e 8cbd a7d7 ccbd 7e90 0dbe
00000240: 62d1 70be 1208 ebbd deed 7fbe 6406 48be
00000250: fdfc 1cbd 4d7f 82be 134c 84be a55b 71be
00000260: 9364 82bd a9e4 30be 26f8 40be 3174 3dbe
00000270: fab5 9dbd 1dd9 73be 44f5 bcbd 4088 babd
00000280: 1023 90bd 56bd 58be 5105 0bbe 3cd5 5dbe
00000290: c1df bdbe f20e 9cbe ec1c 83be cb2b f9bd
000002a0: 64db a8bd 354d 7dbe 468f 73be cb7f 91be
000002b0: f188 52be 07d3 c9bd cbf5 e7bd 10a7 dbbd
000002c0: 5285 4ebe 0eb3 1cbe 0b6f d6bc 660b 7ebe
000002d0: 244e 7ebe 0438 c6bd 8ce4 73be 4f66 02be
000002e0: d922 6ebe 3314 88bd 2b53 10be fcef 58be
000002f0: 094b 69be f3c0 1ebd 5fff 07be a3ef ddbd
00000300: f551 0cbe 098d 74be eed3 a6bd 9cb6 16be
00000310: c04e 05be cb79 c0bd 8552 29be a64b 85be

gbrbm.mu f4 [100]
0.0012319953 0.0061950246 0.010089546 -0.020179408 0.016161874 0.021174632 -0.008209041 -0.021563891
-0.0063419063 -0.018967839 -0.005342915 -0.016522631 -0.007138277 -0.019833658 0.0043059494 -0.012335487
0.015974544 0.00814059 0.003287601 0.007337072 -0.0067571118 0.007810362 -0.0044026226 0.016336784
-0.007308699 0.0017209403 -0.013961711 -0.013308047 -0.024719518 -0.020013927 -0.016093526 -0.022850426
0.022513203 -0.0031234317 0.0011746894 -0.0071180123 -0.005072221 0.015424386 -0.022139145 -0.008445615
-0.005174324 0.011459121 0.0026674347 -0.0025698342 -0.0024153069 -0.012264195 0.008961109 0.010471316
-0.010665365 -0.0008588913 0.0013069491 -0.0028676474 0.011142533 0.0020368702 0.0083316965 -0.008856525
-0.012028053 0.00571328 -0.01434281 0.005796411 0.006312553 0.0023610003 -0.016638592 0.017799327
0.0015949978 -0.015474662 0.020150203 -0.014235978 -0.0016433429 0.0013213715 0.006920528 0.007854614
-0.020196326 -0.006605048 -0.0032391227 -0.0039112256 -0.0014068387 -0.0070916098 0.00054909376 -0.0065451865
-0.011887675 -0.0044965916 -0.010478406 0.006263871 0.0069209784 0.01569407 -0.022622403 0.009526354
-0.016002843 -0.008894524 0.004624319 -0.0063339476 0.01887077 0.008895136 -0.021592513 -0.0021735237
0.0031308455 0.008138903 0.006945331 0.008847515
00000000: e77a a13a a2ff ca3b a04e 253c 494f a5bc
00000010: e865 843c 6c76 ad3c 377f 06bc c2a6 b0bc
00000020: c4cf cfbb 7162 9bbc 9f13 afbb 785a 87bc
00000030: 35e8 e9bb 327a a2bc ec18 8d3b c81a 4abc
00000040: 0cdd 823c 1c60 053c cb74 573b d26b f03b
00000050: c36a ddbb 11ee ff3b e043 90bb b8d4 853c
00000060: d07d efbb 2d91 e13a a9bf 64bc ff09 5abc
00000070: 9680 cabc 3ff4 a3bc 92d6 83bc d130 bbbc
00000080: 9c6d b83c 7db2 4cbb 09f8 993a 373e e9bb
00000090: e034 a6bb 90b6 7c3c 275d b5bc 7a5f 0abc
000000a0: 608d a9bb 09bf 3b3c 21d0 2e3b aa6a 28bb
000000b0: 204a 1ebb c3ef 48bc 9ed1 123c e28f 2b3c
000000c0: c8bd 2ebc 3827 61ba ef4d ab3a 24ef 3bbb
000000d0: 2c8f 363c 037d 053b ab81 083c f51a 11bc
000000e0: 5011 45bc 7736 bb3b 1bfe 6abc d2ef bd3b
000000f0: 88d9 ce3b 03bb 1a3b a84d 88bc e5cf 913c
00000100: 3f0f d13a 7089 7dbc 0a12 a53c 053e 69bc
00000110: 7065 d7ba df31 ad3a 99c5 e23b a4b0 003c
00000120: c472 a5bc 296f d8bb 7647 54bb bd29 80bb
00000130: ac65 b8ba bc60 e8bb 0ff1 0f3a 0179 d6bb
00000140: 86c4 42bc 2558 93bb 9fad 2bbc 2941 cd3b
00000150: 60c9 e23b da90 803c 9e52 b9bc 6d14 1c3c
00000160: 6518 83bc 56ba 11bc 9987 973b 018d cfbb
00000170: e096 9a3c e8bc 113c c8e2 b0bc ad71 0ebb
00000180: df2e 4d3b 0959 053c a995 e33b 2bf5 103c

gbrbm.log_var f4 [100]
-3.6787524 -3.6244245 -3.6582553 -3.5991566 -3.6023366 -3.6152089 -3.664811 -3.5696135
-3.666229 -3.6501324 -3.6904063 -3.5613663 -3.6667895 -3.5842535 -3.673764 -3.622618
-3.6204684 -3.6876264 -3.6220853 -3.6642761 -3.655321 -3.6687534 -3.6812248 -3.6402483
-3.6353657 -3.680077 -3.6212168 -3.672233 -3.581684 -3.6209137 -3.651473 -3.6184235
-3.5471435 -3.6544483 -3.6625216 -3.6699138 -3.6645617 -3.6261563 -3.63626 -3.6215796
-3.6572535 -3.683021 -3.6833668 -3.665779 -3.6762152 -3.5847445 -3.6166503 -3.5639734
-3.588277 -3.6402664 -3.6902084 -3.6943734 -3.6520588 -3.6434155 -3.6203842 -3.6640873
-3.6209507 -3.6579554 -3.675999 -3.6791759 -3.6692343 -3.66036 -3.6261039 -3.5929255
-3.6671853 -3.5692701 -3.5746891 -3.6560721 -3.6695368 -3.6776385 -3.66393 -3.6854236
-3.6166346 -3.5912578 -3.6902702 -3.6570332 -3.6799567 -3.6597297 -3.6327224 -3.6604998
-3.6657372 -3.6744773 -3.6958292 -3.6809747 -3.7026737 -3.671243 -3.5682776 -3.6609745
-3.678497 -3.6482499 -3.6725564 -3.6701694 -3.6230228 -3.658407 -3.5818338 -3.6743438
-3.6652455 -3.6567693 -3.6251016 -3.6473975
00000000: ae70 6bc0 92f6 67c0 db20 6ac0 9558 66c0
00000010: af8c 66c0 955f 67c0 438c 6ac0 8c74 64c0
00000020: 7fa3 6ac0 c59b 69c0 9e2f 6cc0 6ded 63c0
00000030: aeac 6ac0 6964 65c0 f31e 6bc0 f9d8 67c0
00000040: c1b5 67c0 1202 6cc0 3fd0 67c0 8083 6ac0
00000050: c7f0 69c0 dbcc 6ac0 3099 6bc0 d4f9 68c0
00000060: d5a9 68c0 6286 6bc0 04c2 67c0 de05 6bc0
00000070: 503a 65c0 0dbd 67c0 bcb1 69c0 4094 67c0
00000080: 6604 63c0 7be2 69c0 c166 6ac0 dedf 6ac0
00000090: 2e88 6ac0 f212 68c0 7cb8 68c0 f6c7 67c0
000000a0: 7110 6ac0 9eb6 6bc0 48bc 6bc0 209c 6ac0
000000b0: 1c47 6bc0 746c 65c0 3377 67c0 2418 64c0
000000c0: 55a6 65c0 20fa 68c0 602c 6cc0 9d70 6cc0
000000d0: 55bb 69c0 b82d 69c0 60b4 67c0 6880 6ac0
000000e0: a8bd 67c0 f11b 6ac0 9143 6bc0 9e77 6bc0
000000f0: bcd4 6ac0 5743 6ac0 1612 68c0 7ef2 65c0
00000100: 2ab3 6ac0 ec6e 64c0 b5c7 64c0 16fd 69c0
00000110: b1d9 6ac0 6e5e 6bc0 d47d 6ac0 fbdd 6bc0
00000120: f176 67c0 2bd7 65c0 632d 6cc0 d50c 6ac0
00000130: 6984 6bc0 0339 6ac0 867e 68c0 a145 6ac0
00000140: 709b 6ac0 a32a 6bc0 7788 6cc0 1795 6bc0
00000150: 9bf8 6cc0 a5f5 6ac0 a95e 64c0 684d 6ac0
00000160: 7f6c 6bc0 ed7c 69c0 2a0b 6bc0 0ee4 6ac0
00000170: 9bdf 67c0 5723 6ac0 c43c 65c0 7328 6bc0
00000180: 6293 6ac0 8208 6ac0 aa01 68c0 f66e 69c0

gbrbm.linear_layer.weight f4 [1, 200]
-0.06642018 0.016558414 -0.07744354 -0.38369796 -0.036055088 -0.02271027 0.19155207 0.110498734
0.01147641 0.106940635 0.115775555 -0.040208273 0.20901944 0.10365723 0.017556082 -0.03370098
0.05648593 0.06866224 -0.012641062 -0.06875732 0.027169628 0.09845021 -0.06292636 -0.04004854
0.09996844 -0.026949864 0.07384483 0.0069430224 0.03039475 -0.15573074 -0.0013024716 0.18207015
0.018946012 -0.14160293 0.058259897 -0.24279016 -0.008430392 -0.09146455 0.12839507 -0.15812998
-0.020461153 -0.014448213 -0.113829814 -0.22624147 0.16507849 0.027667701 -0.19728239 0.14131929
-0.16864952 -0.2976956 -0.17028193 0.035193887 -0.03611015 0.002197852 0.08803997 0.22572519
-0.11502669 -0.07495506 0.029921785 0.11808661 -0.03335228 -0.1072904 -0.132051 0.05585815
0.16894253 -0.020098848 0.027155908 0.035576474 -0.024068493 -0.020326141 -0.011397403 -0.109230995
0.044980522 0.13835798 0.009157347 0.14418875 -0.0068587908 0.17084092 0.107154414 -0.04430741
-0.21090786 0.07168227 0.15840432 -0.08041519 0.020463498 -0.08814818 0.1484394 0.0412139
-0.121377096 -0.11818752 0.13713892 -0.014264456 0.2020052 0.106109075 0.16368808 -0.003713518
-0.05273082 0.054513678 -0.084476195 0.035316434 -0.0020008613 0.1596589 -0.24640964 -0.10119481
0.059352662 -0.12491841 0.19923148 -0.018812768 0.061389197 0.033824395 -0.0059307567 0.14848836
0.031584777 -0.04075045 -0.083786316 -0.08638885 -0.04318718 -0.05684344 -0.237904 -0.07204274
0.09420385 -0.018303925 0.09110757 0.015822535 -0.36267617 -0.020570911 0.0658806 -0.021261761
0.032093152 0.21071644 -0.03642849 0.25716028 -0.1248187 -0.032540046 -0.10725848 -0.027033472
-0.088710874 0.026672432 -0.23741023 -0.015680889 0.14753318 0.12063561 0.054626133 -0.04142238
-0.13308851 0.062635995 0.17142926 0.102684535 -0.023562135 0.07179331 0.071016096 0.027282327
-0.06643139 -0.048006836 -0.044684764 0.10245764 -0.12790602 0.1386191 0.07693621 0.0778213
-0.0027215045 0.118318595 0.031684697 0.08562108 0.44594288 0.15050505 0.1971456 0.03420906
-0.11384118 0.040507037 0.08436928 -0.009217277 0.054542676 -0.21636353 0.0440084 -0.014814687
3.320164e-05 -0.005540082 -0.053996343 0.19226386 0.24175638 0.011399851 0.08623687 -0.1360109
0.01772007 0.037492808 -0.08568173 0.09200447 -0.093574174 -0.10308826 -0.0069006435 -0.13409376
-0.006745014 0.0439673 0.057057977 0.1497252 -0.0038044632 -0.0907693 -0.044960845 -0.029758207
00000000: 4e07 88bd 83a5 873c b89a 9ebd 0f74 c4be
00000010: 80ae 13bd e30a babc 3a26 443e 294d e23d
00000020: 8d07 3c3c b103 db3d bc1b ed3d 6eb1 24bd
00000030: 3109 563e 3e4a d43d c6d1 8f3c 0a0a 0abd
00000040: ca5d 673d ca9e 8c3d 751c 4fbc a3d0 8cbd
00000050: d792 de3c 44a0 c93d 89df 80bd f009 24bd
00000060: 41bc cc3d f6c5 dcbc f53b 973d 4b82 e33b
00000070: 69fe f83c e177 1fbe b2b7 aaba 9970 3a3e
00000080: ab34 9b3c 5c00 11be eea1 6e3d fc9d 78be
00000090: a01f 0abc c451 bbbd ff79 033e d3ec 21be
000000a0: 269e a7bc 33b8 6cbc 9b1f e9bd d8ab 67be
000000b0: 560a 293e 60a7 e23c 6504 4abe 01b6 103e
000000c0: 76b2 2cbe 8f6b 98be 635e 2ebe 7727 103d
000000d0: 3de8 13bd d609 103b 4d4e b43d 8124 673e
000000e0: 1d93 ebbd 0a82 99bd 881e f53c 65d7 f13d
000000f0: 669c 08bd 12bb dbbd 6138 07be 84cb 643d
00000100: 45ff 2c3e 57a6 a4bc 1176 de3c a3b8 113d
00000110: 4a2b c5bc 0283 a6bc 2cbc 3abc 80b4 dfbd
00000120: 7f3d 383d b7ad 0d3e b208 163c 37a6 133e
00000130: b5bf e0bb ecf0 2e3e c673 db3d b07b 35bd
00000140: 3bf8 57be 27ce 923d be34 223e b8b0 a4bd
00000150: 11a3 a73c 0887 b4bd 8000 183e e8cf 283d
00000160: 8e94 f8bd 4c0c f2bd 256e 0c3e 77b5 69bc
00000170: 73da 4e3e b74f d93d d99d 273e 7e5e 73bb
00000180: 46fc 57bd bc49 5f3d db01 adbd f7a7 103d
00000190: e220 03bb 9f7d 233e cf52 7cbe 393f cfbd
000001a0: c71b 733d 39d5 ffbd 5603 4c3e 3c1d 9abc
000001b0: 3d73 7b3d 738b 0a3d cb56 c2bb 550d 183e
000001c0: 0a5f 013d f2e9 26bd 2998 abbd a3ec b0bd
000001d0: 0ae5 30bd abd4 68bd 1b9d 73be 258b 93bd
000001e0: f3ed c03d 1df2 95bc 9b96 ba3d 439e 813c
000001f0: b1b0 b9be 5484 a8bc 68ec 863d 252d aebc
00000200: 1c74 033d 0dc6 573e 0a36 15bd 83aa 833e
00000210: f2a0 ffbd b648 05bd 55aa dbbd 4d75 ddbc
00000220: 0cae b5bd 2580 da3c ab1b 73be 3575 80bc
00000230: f012 173e cd0f f73d a7bf 5f3d 83aa 29bd
00000240: 5b48 08be 4d47 803d 278b 2f3e 454c d23d
00000250: 6105 c1bc 5f08 933d e370 913d 307f df3c
00000260: 2e0d 88bd d1a2 44bd 5f07 37bd 50d5 d13d
00000270: ccf9 02be 2af2 0d3e bb90 9d3d c660 9f3d
00000280: 455b 32bb 0551 f23d d0c7 013d 1b5a af3d
00000290: a052 e43e ff1d 1a3e 89e0 493e cd1e 0c3d
000002a0: 9125 e9bd b5ea 253d cdc9 ac3d 1004 17bc
000002b0: 2468 5f3d 678e 5dbe 2742 343d 4db9 72bc
000002c0: fd41 0b38 9489 b5bb 452b 5dbd d1e0 443e
000002d0: fc8e 773e 71c6 3a3c f59c b03d 7146 0bbe
000002e0: ae29 913c 0f92 193d e779 afbd d76c bc3d
000002f0: d1a3 bfbd f01f d3bd cb1e e2bb e04f 09be
00000300: 4705 ddbb 0e17 343d a0b5 693d 9051 193e
00000310: 4d54 79bb 41e5 b9bd dd28 38bd 7cc7 f3bc
