final_project/gru_gbrbm_H_per_2 (drop 0.1)/type2/gru_gbrbm_W5_H100_B16.pt (torch, 218577 bytes, 9 tensors)

lstm_layer.lstm1.weight_ih_l0 f4 [300, 9]
000000 19 02 3e 38 a6 b5 3a b8 26 46 f4 b8 4c 77 29 b9
       4.5301484e-05 -4.451503e-05 -0.00011647893 -0.00016161537
000010 89 82 9d b8 87 f0 af b8 ad c7 6e b8 54 f4 42 b8
       -7.5106575e-05 -8.389452e-05 -5.6929584e-05 -4.6480753e-05
000020 7e e7 f1 b8 26 22 2c b9 78 e8 7e 38 0a bf 0a b8
       -0.00011534894 -0.0001641592 6.0774822e-05 -3.3079683e-05
000030 55 09 4c b8 4d a0 0d b8 90 c6 3c 38 ca dc ee 36
       -4.864608e-05 -3.376631e-05 4.500762e-05 7.118656e-06
000040 f7 14 c3 b7 86 63 49 39 ff 53 27 ba cd 2d f2 b8
       -2.3255574e-05 0.00019205929 -0.0006383061 -0.0001154799
000050 82 6f 47 b8 85 96 02 b9 f3 ad 1a b9 2a f7 98 b8
       -4.7549147e-05 -0.00012453839 -0.00014751386 -7.293963e-05
000060 dd 86 af 37 3d 27 3b 39 77 0a 19 38 84 d7 50 b9
       2.0924426e-05 0.00017848327 3.648779e-05 -0.00019916712
000070 b0 f5 4b b9 bb b7 a7 b8 1a 1f 20 b9 fc 95 fa b8
       -0.00019451114 -7.997403e-05 -0.00015270375 -0.00011948866
000080 51 d7 ba b8 0d 96 56 b8 7e 94 5d b8 76 63 64 b8
       -8.909277e-05 -5.116132e-05 -5.28288e-05 -5.4452066e-05
000090 5e 84 cd 34 99 18 40 37 74 d7 83 b6 62 99 52 b7
       3.8280535e-07 1.1449819e-05 -3.9291863e-06 -1.2552688e-05
0000a0 b5 f8 c1 37 43 19 65 37 e8 e5 e5 35 4c 67 87 b6
       2.3123206e-05 1.3655345e-05 1.7128741e-06 -4.035339e-06
0000b0 15 20 66 35 43 14 87 b9 9c fa cc 38 1a e8 c8 38
       8.572836e-07 -0.00025764303 9.774158e-05 9.5799754e-05
0000c0 3c 6b 72 b8 6f b1 65 37 4e 23 55 38 1e 5a fc 38
       -5.7797166e-05 1.3690776e-05 5.0816037e-05 0.00012033082
0000d0 f7 10 17 39 17 46 4a 38 64 c2 6d 39 ea 2c bf 37
       0.00014406802 4.822583e-05 0.00022674497 2.2789889e-05
0000e0 73 b7 5a 38 e1 8c b0 b7 d8 1d 2d 37 6d 9c 43 b6
       5.21461e-05 -2.1046437e-05 1.0318552e-05 -2.9148316e-06
0000f0 90 9b 41 38 8a cb c0 38 4d 1f d6 38 51 3c cd 36
       4.6159665e-05 9.1931855e-05 0.000102101454 6.116498e-06
000100 9a 25 c6 b6 da dc 6f 37 0e d2 55 38 ec e1 cb b7
       -5.9052372e-06 1.4296931e-05 5.0978786e-05 -2.4304689e-05
000110 3a 08 a0 b7 eb 45 e5 37 92 28 d7 37 74 67 d6 38
       -1.9077317e-05 2.7331485e-05 2.564889e-05 0.00010223585
000120 53 89 96 b9 08 20 4a 3a 4d 4b 18 b9 95 b2 80 38
       -0.00028712544 0.00077104615 -0.00014523901 6.136779e-05
000130 a5 3e 2e b9 84 c0 33 b9 9e 31 27 b9 ce 78 00 b9
       -0.0001661727 -0.00017142488 -0.00015944845 -0.00012252035
000140 65 7d 9a b8 0d 1a 6e b9 3d bb 95 b7 1a 44 13 39
       -7.366649e-05 -0.00022707153 -1.7849374e-05 0.00014044382
000150 f2 1b 1f 39 95 85 25 39 f9 08 cc 38 a9 be 31 39
       0.00015173832 0.0001578539 9.729149e-05 0.00016951062
000160 6a f8 03 39 a6 df ba 39 9a db 99 39 23 1b 36 38
       0.00012585675 0.00035643316 0.0002934605 4.3417454e-05
000170 d0 a0 ca b8 77 5e c9 b6 21 94 03 b8 b7 99 c3 b8
       -9.662064e-05 -6.001264e-06 -3.137079e-05 -9.326956e-05
000180 e2 49 ea b8 ff 94 d9 b8 bf e3 cd b5 76 f7 19 b8
       -0.00011171751 -0.00010375119 -1.5339973e-06 -3.670851e-05
000190 43 d4 ab b9 86 bf 68 b9 e3 08 36 b9 3e 2e 02 b9
       -0.0003277381 -0.00022196592 -0.00017360183 -0.00012414993
0001a0 9a 22 27 b9 81 ee 71 b9 7b 44 4e b9 f5 5e aa b7
       -0.00015939251 -0.000230724 -0.00019671202 -2.0309797e-05
0001b0 40 7d d4 38 7f fa 36 b9 63 c4 9c b7 a7 31 3f 38
       0.000101322774 -0.0001745019 -1.8688099e-05 4.558419e-05
0001c0 bd 5c 17 38 0d b4 9b b7 98 61 00 b7 20 3c 4e 37
       3.6087575e-05 -1.8561283e-05 -7.652117e-06 1.2292556e-05
0001d0 07 2e 44 b7 d4 00 68 ba bc ac 8d 3a 74 09 72 b8
       -1.1693227e-05 -0.0008850221 0.0010808925 -5.77061e-05
0001e0 37 2a 94 b8 fe 9b a3 b9 1c fb d6 b8 67 62 00 38
       -7.065053e-05 -0.00031206006 -0.00010251088 3.0609222e-05
0001f0 4b 87 82 37 b8 2a e3 38 8b e2 15 ba c6 93 7e 39
       1.5560208e-05 0.000108321605 -0.00057176565 0.00024278378
000200 98 ef ac 38 1f 4a 0e b9 48 48 8e b7 e7 32 6b 38
       8.246227e-05 -0.00013569788 -1.6961378e-05 5.6075773e-05
000210 4a 70 0e 39 c5 f8 31 39 6e 69 ca 38 f5 7a c4 b9
       0.00013584006 0.0001697271 9.6517484e-05 -0.00037475643
000220 d3 20 0e b9 e9 fb e7 b7 79 ae 20 b8 bb df c3 b8
       -0.00013554403 -2.765465e-05 -3.8309463e-05 -9.3399976e-05
000230 64 6d ad b8 21 22 40 35 36 eb 63 b7 db d4 0c 38
       -8.2696584e-05 7.157524e-07 -1.3585019e-05 3.3576838e-05
000240 e1 b5 49 ba a0 a6 26 b9 e9 e5 76 b8 1d aa 07 37
       -0.00076946436 -0.00015893066 -5.886509e-05 8.086235e-06
000250 2f ab b0 b8 28 3b 55 b8 33 e3 58 b7 bd 33 c7 b8
       -8.4242194e-05 -5.083825e-05 -1.2927502e-05 -9.4986965e-05
000260 34 5d a3 b8 a1 a5 18 b9 0f 64 8b b9 4f 69 16 39
       -7.789806e-05 -0.00014557551 -0.00026586695 0.00014344345
000270 71 9f af 38 d2 80 0a 39 38 d9 10 39 f2 3a ad 38
       8.3743485e-05 0.00013208695 0.0001381383 8.260262e-05
000280 1f 0c d1 38 84 a2 c5 38 94 75 52 39 7f 3e dc b8
       9.968154e-05 9.423963e-05 0.00020070962 -0.00010502058
000290 c4 60 5f 39 68 cb bf 39 6a f7 f8 38 3d 31 79 39
       0.00021302985 0.00036581908 0.00011871646 0.00023764833
0002a0 c0 d8 52 39 9e b7 25 39 58 39 13 39 fa 11 8f 38
       0.00020107906 0.00015804029 0.00014040375 6.82212e-05
0002b0 ef b5 b0 b7 fe 67 04 36 eb 70 0d b7 ea ff d5 37
       -2.1065554e-05 1.9730064e-06 -8.430546e-06 2.5510748e-05
0002c0 d4 2d b6 36 1c cb bf b6 f3 c6 3d b7 f9 f7 15 36
       5.4293578e-06 -5.7158886e-06 -1.1311599e-05 2.234707e-06
0002d0 b3 f2 a1 b9 b6 c3 67 39 ba 22 82 b8 f8 ed c1 b7
       -0.00030889138 0.00022102785 -6.2053514e-05 -2.3118206e-05
0002e0 cb 9b ad b8 29 e5 c8 b8 66 c4 59 b8 17 6a ce b7
       -8.2783015e-05 -9.5794276e-05 -5.1919742e-05 -2.4606516e-05
0002f0 d8 ab 30 38 e5 45 47 ba 9a e3 29 ba 02 ec 4e b8
       4.2121712e-05 -0.00076016627 -0.00064807537 -4.9334027e-05
000300 56 0a 62 b9 20 ac 50 b9 89 ba 88 b7 77 9b e4 38
       -0.0002155689 -0.00019900547 -1.6299326e-05 0.00010900845
000310 91 b8 7c 39 d3 bf 19 38 11 c3 5f b9 05 38 97 b9
       0.00024101349 3.6656693e-05 -0.00021339605 -0.00028842702
000320 1c c0 83 b8 84 45 a2 b8 3d bb 4c b8 2e e8 45 b7
       -6.28235e-05 -7.73771e-05 -4.881177e-05 -1.1796174e-05
000330 b1 ba 1e b7 be fa 72 38 7a 80 4e 37 14 13 88 b9
       -9.461001e-06 5.7930818e-05 1.230847e-05 -0.00025954156
000340 3f c0 c8 b9 cc ef 34 39 ce 61 e7 38 01 e3 3a b8
       -0.00038290207 0.00017255469 0.00011033156 -4.455727e-05
000350 d3 8a 91 38 72 50 b6 39 f2 6c 84 39 1c 88 a3 39
       6.939997e-05 0.00034773682 0.00025258173 0.00031191192
000360 e9 2c 67 b9 b1 4b 50 b9 03 34 b3 b7 92 35 e2 b8
       -0.00022046607 -0.00019864623 -2.1362683e-05 -0.00010786498
000370 bc 69 65 b8 67 64 63 b7 b5 87 cd 35 69 8a 09 b5
       -5.4696327e-05 -1.3553631e-05 1.5313186e-06 -5.123789e-07
000380 26 9b 07 b8 12 53 40 3a f7 e7 2d 3a 2e 72 b8 39
       -3.2331e-05 0.0007336597 0.0006633992 0.00035180285
000390 b8 53 07 3a 2e 5f 0b 3a cf b6 1a 3a 47 a0 7e 39
       0.00051623164 0.0005316612 0.00059018744 0.00024283036
0003a0 2b f5 b1 39 45 ea b4 39 5f 7a 21 38 d3 af 27 b8
       0.00033942735 0.0003450682 3.849936e-05 -3.997965e-05
0003b0 ec 72 ea 38 59 26 f3 38 d3 61 10 39 27 2e 00 39
       0.000111793954 0.00011594286 0.00013769353 0.00012224224
0003c0 c1 4c d8 38 b3 f6 ae 38 f8 78 63 38 38 eb f6 39
       0.00010313979 8.342918e-05 5.423368e-05 0.00047096028
0003d0 0d 5b 89 ba 8b 78 84 b8 a2 fd 25 38 70 e5 89 b7
       -0.0010479406 -6.3167034e-05 3.957528e-05 -1.6438513e-05
0003e0 8e 41 a5 37 83 e7 32 b9 31 5f 2c b8 f2 a8 20 b9
       1.9700059e-05 -0.00017061648 -4.109665e-05 -0.00015321726
0003f0 e6 a6 28 b9 d5 8b 50 ba e0 74 28 b9 30 c9 55 b9
       -0.00016083903 -0.0007955407 -0.00016065268 -0.00020388211

lstm_layer.lstm1.weight_hh_l0 f4 [300, 100]
000000 30 6e 82 b6 37 86 ce b6 e4 80 ea b5 b1 c7 33 35
       -3.8871294e-06 -6.154903e-06 -1.7471871e-06 6.6973286e-07
000010 2b 0c 2c 35 d3 aa 97 34 07 16 1b b5 60 ed 15 b8
       6.40927e-07 2.8250233e-07 -5.7774054e-07 -3.574544e-05
000020 1a 1e 06 b5 c2 aa d6 36 aa 36 63 b5 4e 4b 41 36
       -4.9962694e-07 6.397576e-06 -8.4643636e-07 2.8803074e-06
000030 dd da cf 34 ac 07 95 36 f2 5b 4e b6 5e 11 40 b6
       3.8716e-07 4.441439e-06 -3.0749911e-06 -2.8620339e-06
000040 63 91 9f b5 f8 64 8d 36 70 07 d7 37 c8 50 0a b5
       -1.1888736e-06 4.2138818e-06 2.563346e-05 -5.152656e-07
000050 d2 77 37 b5 a9 fc 26 35 8b b3 14 36 b0 94 13 35
       -6.8347174e-07 6.220749e-07 2.2158226e-06 5.4978136e-07
000060 3a 12 56 b4 b3 ea b6 36 09 d3 f7 b4 b8 a5 fe b4
       -1.9936934e-07 5.4513453e-06 -4.6160883e-07 -4.7431763e-07
000070 be 3d 68 36 91 20 57 35 ac c7 42 b4 d2 13 57 35
       3.4606633e-06 8.014113e-07 -1.8140298e-07 8.0122584e-07
000080 98 04 5d 35 8a f5 9f b7 5e 09 63 b8 ec 22 0d 37
       8.23356e-07 -1.9068615e-05 -5.412974e-05 8.412386e-06
000090 ed 45 a5 33 d3 e8 d6 b4 3c db be b5 72 8d 95 35
       7.696131e-08 -4.0030008e-07 -1.4219909e-06 1.1142531e-06
0000a0 09 49 96 b5 b5 00 d7 b6 b2 07 72 b4 b9 1e f2 34
       -1.1197127e-06 -6.4075816e-06 -2.2540806e-07 4.5098366e-07
0000b0 78 7d e5 b4 17 61 23 b5 78 e4 00 35 c0 66 12 b2
       -4.2745864e-07 -6.0863516e-07 4.801618e-07 -8.521681e-09
0000c0 11 17 8c 36 f7 14 c6 35 7e fc fe b4 5a c9 9d 35
       4.1750104e-06 1.4758251e-06 -4.74949e-07 1.1756013e-06
0000d0 7c 84 76 34 80 8f 5b 35 bd 4a 31 35 51 66 e0 36
       2.2958733e-07 8.179268e-07 6.6046397e-07 6.6876314e-06
0000e0 81 eb 3a b5 a4 e6 98 b6 12 6d 3d b6 50 77 38 36
       -6.96331e-07 -4.556803e-06 -2.8226682e-06 2.7487586e-06
0000f0 a5 a4 02 b5 8b ff 81 36 03 c4 b1 b4 1c 88 71 b4
       -4.8668363e-07 3.8742487e-06 -3.3111436e-07 -2.249439e-07
000100 c9 43 b7 36 8a 47 8f b5 18 21 e4 b5 db a6 22 b5
       5.4617162e-06 -1.0675151e-06 -1.6996955e-06 -6.059251e-07
000110 07 da ee b5 8d 77 b1 b4 2d aa e8 b6 c3 08 05 b6
       -1.7795836e-06 -3.3055804e-07 -6.93395e-06 -1.9823644e-06
000120 a8 a4 a3 b6 7d ba 0c b8 f5 d5 60 35 21 0a 1d 33
       -4.876947e-06 -3.3552282e-05 8.375785e-07 3.6563623e-08
000130 37 0f 17 b7 a8 6f 49 34 81 9f 6a 37 58 7d 89 35
       -9.003844e-06 1.8760204e-07 1.3984624e-05 1.0243775e-06
000140 01 e3 34 b6 76 1e 27 38 5a d3 1a 36 88 ab a6 36
       -2.6954224e-06 3.984427e-05 2.307081e-06 4.9671544e-06
000150 56 a0 16 35 82 24 88 36 bc 24 72 34 2d 3e 83 b5
       5.6112674e-07 4.057366e-06 2.255137e-07 -9.778356e-07
000160 4d 83 b0 35 1f 5a 17 35 d9 40 52 b4 8b e5 bf b4
       1.3151235e-06 5.6383027e-07 -1.9581366e-07 -3.5743537e-07
000170 7e 96 c1 b6 46 70 ee 35 bd e1 15 38 ef 1e 1a b5
       -5.769368e-06 1.7765058e-06 3.5734603e-05 -5.7414485e-07
000180 fd 46 c1 b6 59 3c 60 31 0e fb 13 b6 24 0a e9 b6
       -5.7601123e-06 3.2630594e-09 -2.205084e-06 -6.9451216e-06
000190 1e 58 9e 35 54 9d cb 31 62 8e 3d 32 46 b4 0c 36
       1.1797563e-06 5.9259637e-09 1.1033622e-08 2.0966559e-06
0001a0 b8 0a 29 b6 73 9b aa 35 7d 0e b2 b5 5f ce 6f 34
       -2.5189202e-06 1.2711229e-06 -1.326625e-06 2.2333687e-07
0001b0 7a cf be b4 b4 df 89 37 e8 f0 86 b6 a7 70 b8 b6
       -3.5541217e-07 1.6435843e-05 -4.0215564e-06 -5.496742e-06
0001c0 a5 34 68 36 a1 39 03 b4 63 2b 97 b5 cd 66 c7 b5
       3.4601337e-06 -1.2221291e-07 -1.1263004e-06 -1.4856574e-06
0001d0 1e 3c 85 b3 0f 84 08 b7 5f 40 e8 b6 f7 7c af b4
       -6.2042304e-08 -8.136979e-06 -6.9216326e-06 -3.2687214e-07
0001e0 09 81 85 b5 89 0e 95 35 d4 5e 37 36 3f 14 9f 36
       -9.946826e-07 1.1105595e-06 2.7324322e-06 4.740926e-06
0001f0 42 00 c5 b5 73 4b cc b6 a1 ae 4b b6 b5 f6 0e b7
       -1.4677719e-06 -6.088457e-06 -3.0351005e-06 -8.5213005e-06
000200 be 5a 22 b6 df 0b 14 b6 66 fa 29 35 3c b6 bb b6
       -2.41927e-06 -2.2060628e-06 6.3321784e-07 -5.594249e-06
000210 59 ad 4e b6 8f 7d d5 37 c1 92 a4 b5 fe 88 1f b6
       -3.0797294e-06 2.5450046e-05 -1.2261663e-06 -2.3772586e-06
000220 9f 06 18 b4 b4 bf 6f 33 84 3a 33 b6 b0 be c2 35
       -1.4158512e-07 5.5820877e-08 -2.670714e-06 1.4509624e-06
000230 d1 5d 89 37 7e ef 26 36 54 5a 72 35 b6 db a9 35
       1.637536e-05 2.487533e-06 9.028347e-07 1.2655426e-06
000240 42 db 1e 36 b3 ae 63 b6 44 7d 5b 36 da 24 bb b6
       2.367146e-06 -3.3927324e-06 3.2706457e-06 -5.5773244e-06
000250 e7 fd 98 b5 ad fd 02 35 b4 7f 07 b5 35 c9 c8 b6
       -1.1398778e-06 4.879792e-07 -5.047725e-07 -5.983888e-06
000260 bf c6 57 34 ff 0e ba b5 f0 30 77 b6 d4 23 39 36
       2.0095739e-07 -1.3862444e-06 -3.6834354e-06 2.7588003e-06
000270 cf 22 4a b5 af a7 9f b6 00 8d 1f b6 4b 82 4e b4
       -7.530152e-07 -4.75809e-06 -2.377492e-06 -1.9232645e-07
000280 c0 b2 f7 b5 b0 48 a9 36 24 05 e9 b5 20 cb bb b6
       -1.8454957e-06 5.0450544e-06 -1.7361349e-06 -5.596681e-06
000290 f5 48 f1 b5 8f f1 c6 35 4a 00 1a b6 49 8a b5 b6
       -1.7977133e-06 1.4822452e-06 -2.2947956e-06 -5.410319e-06
0002a0 9a 5e 93 36 94 1f 1d 36 63 56 21 36 af cc 6c b6
       4.3919545e-06 2.3413204e-06 2.4041153e-06 -3.5285882e-06
0002b0 07 31 2a 35 55 f8 55 37 db bc ea 35 8a e0 63 34
       6.340128e-07 1.2753609e-05 1.7489323e-06 2.1222709e-07
0002c0 af dd f7 36 67 f7 97 36 01 06 92 37 97 e0 13 b6
       7.386981e-06 4.528952e-06 1.7407352e-05 -2.2035435e-06
0002d0 ab a4 0e 36 ec 09 30 b8 55 09 2f 37 58 17 80 37
       2.1255498e-06 -4.197091e-05 1.0432986e-05 1.526966e-05
0002e0 eb cb f7 36 2d da 10 37 37 c8 a6 b4 11 1f 32 36
       7.384913e-06 8.633867e-06 -3.1065585e-07 2.654215e-06
0002f0 52 9a 6a 34 a9 75 86 b5 22 73 02 36 bc c8 88 b6
       2.184909e-07 -1.0018022e-06 1.9438526e-06 -4.0764844e-06
000300 18 d6 ab b7 a1 45 5f 36 40 9e 9b b6 15 85 f9 35
       -2.0484484e-05 3.3270119e-06 -4.6377827e-06 1.8590678e-06
000310 a6 dc 1b 36 e1 e0 92 b5 bb e5 4c 36 8d b3 40 37
       2.3225234e-06 -1.0943296e-06 3.053209e-06 1.1485897e-05
000320 b8 91 13 b6 91 16 82 36 cd b7 a9 b6 66 fe 39 35
       -2.1989526e-06 3.876929e-06 -5.0579897e-06 6.928807e-07
000330 a5 b7 a8 34 cb d7 ac b5 8a e1 cb b6 5b 61 da b4
       3.1426057e-07 -1.2877803e-06 -6.0761276e-06 -4.06765e-07
000340 40 90 ea b6 17 7e 2c b5 07 4c ee 37 54 87 19 b7
       -6.9905363e-06 -6.425848e-07 2.8407214e-05 -9.151019e-06
000350 28 46 21 36 1b a3 f7 36 6f 19 21 b7 c3 9c 82 36
       2.4031706e-06 7.3801616e-06 -9.6022695e-06 3.8925514e-06
000360 3f de 54 36 1c 23 89 b6 ec 3f f4 36 71 a2 15 b6
       3.1719826e-06 -4.0870054e-06 7.279208e-06 -2.2297284e-06
000370 db 67 39 b6 1e 2b 85 36 c8 ef 73 36 81 53 62 37
       -2.76276e-06 3.9687284e-06 3.6349393e-06 1.3490092e-05
000380 ec a1 8e 34 c8 f3 8c 37 2b ca 6c 35 7a d7 2c 37
       2.6567375e-07 1.680282e-05 8.8211044e-07 1.0302168e-05
000390 72 1e 39 b6 75 4c 1e 37 8e 18 dd 35 dd d8 3f 35
       -2.758487e-06 9.435335e-06 1.647293e-06 7.146862e-07
0003a0 c0 9a fd 32 97 2b cf 36 88 31 8e b8 8c e6 d8 36
       2.9523449e-08 6.1741553e-06 -6.7803136e-05 6.464141e-06
0003b0 cb ca 3f b6 78 1d 01 35 89 76 f8 b6 40 c3 d1 36
       -2.857926e-06 4.809913e-07 -7.4047753e-06 6.2514155e-06
0003c0 c7 5d 6a b7 d1 67 e2 b6 a5 b0 fd 36 2f 96 1b 36
       -1.3969321e-05 -6.7474107e-06 7.5605517e-06 2.3184218e-06
0003d0 84 95 27 b6 17 0e 08 b7 7e 0b e7 36 9a 27 37 34
       -2.4971969e-06 -8.109512e-06 6.8856743e-06 1.705761e-07
0003e0 7b 00 3c 37 c7 15 55 36 b3 5c 2c 37 ce 7e 3d 34
       1.1205785e-05 3.175215e-06 1.0273582e-05 1.7648128e-07
0003f0 4d 88 d7 35 c1 45 71 37 23 94 c9 b6 58 db 90 35
       1.6058417e-06 1.438096e-05 -6.007512e-06 1.0792673e-06

lstm_layer.lstm1.bias_ih_l0 f4 [300]
000000 51 7c 14 37 67 8d 86 39 5d 4f 33 3a 34 ed 4f 39
       8.850432e-06 0.00025663825 0.0006840134 0.00019829423
000010 89 7e 26 37 2d 3c 8a 39 83 31 7a b9 4e 47 16 38
       9.923832e-06 0.00026366246 -0.00023860302 3.5829195e-05
000020 01 12 fe 39 a8 f4 d7 38 b7 56 a4 b9 9e 26 32 b9
       0.0004846007 0.0001029757 -0.00031345125 -0.00016989789
000030 98 a9 01 b9 cd 9e 98 3a a4 0c c1 39 fd f3 da 39
       -0.00012365577 0.0011644006 0.00036821247 0.00041761986
000040 14 c2 8d 3a 63 76 73 39 1a 84 55 b9 f5 e7 20 b8
       0.0010815286 0.00023218388 -0.00020362475 -3.8363e-05
000050 cb e2 e3 39 8a 15 a0 3a 89 64 95 39 fb 3e 91 38
       0.00043465788 0.001221345 0.000284944 6.92587e-05
000060 d5 a9 89 39 7a f1 4a ba b8 6e 59 b8 f1 ff 52 ba
       0.0002625721 -0.0007741671 -5.1839947e-05 -0.00080490025
000070 5c 2c 36 b9 a2 09 06 39 0a b8 47 37 58 ed 7f 39
       -0.00017373398 0.00012782824 1.1904174e-05 0.00024407113
000080 46 c2 4c ba 27 8d 05 3b 62 e0 43 39 72 37 98 ba
       -0.00078109314 0.0020378323 0.00018680238 -0.0011613204
000090 14 6b f5 39 05 3d 20 b7 25 db e4 b9 23 fc 93 37
       0.0004680982 -9.55095e-06 -0.00043650824 1.7641176e-05
0000a0 80 8d 4e 3a 94 d1 b9 3a cc cd cf ba a6 97 a3 38
       0.00078793615 0.0014176839 -0.0015854179 7.8006924e-05
0000b0 cd 3d d4 b9 4a 59 4b 3a 5a aa 0e b9 8c 9c 28 b8
       -0.00040481836 0.00077571406 -0.00013605636 -4.0200117e-05
0000c0 68 02 f0 36 e5 c9 3a 3a f5 ec c3 38 b0 a5 c8 38
       7.1528375e-06 0.00071254215 9.342461e-05 9.567605e-05
0000d0 85 28 e3 b9 c6 c7 f1 39 ec ae b5 b7 b9 28 c1 38
       -0.00043327003 0.00046115945 -2.1658336e-05 9.210542e-05
0000e0 64 34 85 38 c6 95 02 ba d9 5b 92 39 7b 1b 1a 3a
       6.351693e-05 -0.00049814244 0.00027915722 0.00058787287
0000f0 7e 27 ed b9 fa 84 49 3b 94 b6 2d ba b2 e8 7f b9
       -0.00045233587 0.0030749426 -0.00066266325 -0.00024405381
000100 8c 92 32 3a bb 43 2b b9 10 d5 6b 3a 7d 80 5a b8
       0.00068119983 -0.00016333062 0.00089962874 -5.2094914e-05
000110 be 02 f2 38 71 5a d1 b9 f3 e2 7e b9 29 b3 06 3a
       0.0001153997 -0.0003993097 -0.00024307873 0.0005138391
000120 6b 1c 52 ba aa 7c 2f 3a 9d a0 b0 b8 59 90 9a 37
       -0.0008015099 0.00066942966 -8.4222505e-05 1.8425448e-05
000130 1e 15 d7 b8 7e 5f bd b9 c7 b1 77 3a b0 19 4d 3a
       -0.00010255932 -0.00036120036 0.0009448793 0.0007823957
000140 00 03 85 38 12 b6 b9 b8 e9 c1 1f b9 ba 5b bb 3a
       6.342493e-05 -8.855401e-05 -0.00015235659 0.0014294304
000150 f5 50 43 ba 1b 5d ad b9 b2 c3 b2 b8 a4 b2 c9 b8
       -0.0007450723 -0.000330665 -8.5241525e-05 -9.617701e-05
000160 20 ae 81 39 d9 a1 b7 37 23 b5 c1 b8 42 98 3a 39
       0.0002473453 2.1890666e-05 -9.2366965e-05 0.00017795063
000170 34 c7 5b b9 1a 1e 60 b9 a7 95 ac 39 8d c6 0c 3b
       -0.00020959676 -0.00021373518 0.00032917896 0.002148065
000180 20 4a 82 b7 a1 48 51 b9 ce 44 04 3a cb fc 35 b9
       -1.5531725e-05 -0.0001995885 0.0005045653 -0.00017355678
000190 37 c1 e4 b7 86 bd b0 b9 94 fe 12 ba 36 d5 b5 38
       -2.726969e-05 -0.00033710542 -0.0005607393 8.670466e-05
0001a0 a6 14 1e 35 cd 54 38 ba b3 58 c9 39 80 77 a5 ba
       5.8889634e-07 -0.0007031679 0.00038403794 -0.0012624115
0001b0 aa fe 60 b9 56 af 41 b9 0d e8 af 39 e4 80 ba 39
       -0.00021457174 -0.00018471232 0.00033551492 0.00035572716
0001c0 c3 2c bc b8 1e 9a 8c ba 99 a0 43 ba 77 bb 31 ba
       -8.972876e-05 -0.0010727083 -0.00074625906 -0.00067799486
0001d0 41 1c c4 b8 51 1d b1 39 0a 31 9d 38 09 3a 97 37
       -9.351271e-05 0.00033781913 7.4954776e-05 1.8027627e-05
0001e0 3c 37 a6 b9 26 71 44 b9 ef 19 2e 3a 73 c2 e9 39
       -0.0003170314 -0.00018734168 0.00066414376 0.000445861
0001f0 cc 8c 20 39 7c c0 d2 39 3f d1 87 38 b1 1b 7f 39
       0.0001531124 0.00040197733 6.476277e-05 0.00024329011
000200 73 55 43 3a 6f 5b 29 ba d7 46 ee b8 f7 3c 92 b9
       0.00074513926 -0.0006460463 -0.00011361919 -0.00027892712
000210 f8 ff 7e 3a a9 41 9c 3a 43 cb 1e bb ed 5f a0 3a
       0.00097274734 0.0011921424 -0.002423004 0.0012235619
000220 e1 a6 d6 39 ad ef 55 36 ce f6 90 39 d7 51 76 37
       0.00040941595 3.1878983e-06 0.00027649704 1.4681797e-05
000230 68 cd 70 ba f5 6e 26 bb b0 3a bd 3a 11 22 ba 39
       -0.00091858814 -0.0025395725 0.0014437046 0.00035502066
000240 85 df 2a b7 13 b1 38 ba 3c 75 a9 39 0d 08 9a b9
       -1.0184832e-05 -0.0007045429 0.00032321538 -0.00029379167
000250 f1 01 a6 38 45 7b 0d ba bc ea d0 b8 40 6a b2 3a
       7.9158584e-05 -0.0005397092 -9.9619356e-05 0.0013611987
000260 c9 52 3a 3a f5 ba e9 38 1c 85 de b9 02 4c ce 38
       0.0007107673 0.00011145129 -0.00042442314 9.837003e-05
000270 04 19 70 b8 09 51 4d 3a 43 2d 4b b9 57 45 9e b9
       -5.7243757e-05 0.00078322046 -0.0001937645 -0.0003018777
000280 5f 30 d2 39 09 7a 68 b8 0a 7d c5 38 ad 21 1f 3a
       0.0004009036 -5.5426764e-05 9.416982e-05 0.0006070387
000290 80 d1 e3 ba 19 6e 04 b8 5e 5e 4e 37 dc c4 74 b9
       -0.0017381161 -3.157379e-05 1.2300528e-05 -0.00023342989
0002a0 31 61 21 38 82 2b 51 39 fc f9 ae b8 c1 df 87 ba
       3.8475908e-05 0.00019948001 -8.34353e-05 -0.0010366366
0002b0 9d 8e 0e 3a fa 76 ff 3a 6c 76 b0 b9 34 0b 82 39
       0.0005438121 0.0019490414 -0.00033657567 0.0002480388
0002c0 e4 31 25 39 df ae b0 39 fc 3d de 39 5e d4 87 b9
       0.00015754212 0.00033699625 0.00042389322 -0.00025907432
0002d0 32 fe d3 38 f7 29 7b ba 6b 92 37 b9 08 d0 96 ba
       0.000101086116 -0.00095811434 -0.00017506785 -0.001150609
0002e0 10 b9 3b 3a 36 56 a2 ba 3c 1d 83 37 2d 9a be 39
       0.00071610603 -0.0012385312 1.563003e-05 0.00036354494
0002f0 f7 29 20 38 3c af 64 39 a3 af af 39 b7 fa a1 39
       3.8186055e-05 0.00021809054 0.0003350946 0.0003089511
000300 ef 65 bc b9 fe 72 41 39 3d b9 8b 3a 15 6d 9d b9
       -0.000359341 0.00018448752 0.0010660064 -0.00030026646
000310 60 4c e7 b8 d3 68 28 38 3b 97 a4 b9 da 23 4f 37
       -0.00011029164 4.0151946e-05 -0.00031393193 1.2346509e-05
000320 07 ad 98 3b 84 d7 91 bb ac 09 94 bb eb cc 40 bb
       0.0046592983 -0.0044507403 -0.0045177545 -0.0029419016
000330 90 f4 a1 3b 86 4b 90 bb 00 4c 21 3b a5 9f c6 bb
       0.004942484 -0.0044035343 0.002461195 -0.0060615116
000340 81 38 43 bb 72 91 3b bc 56 7b 58 bc 3e a1 48 bc
       -0.0029788318 -0.011448251 -0.013212999 -0.012245474
000350 53 5b 2a 3b e3 a3 18 3b 7c 70 c3 bb 2a 28 2d bb
       0.0025994375 0.0023291043 -0.005964337 -0.0026421645
000360 14 35 cd 3b 59 69 a5 ba c2 cc 6c ba d0 9c 3d 3a
       0.006262431 -0.0012619897 -0.0009033197 0.0007233145
000370 5a 70 c7 ba 2f 9e 87 3b f0 15 3b 3b c4 a3 30 3c
       -0.0015215978 0.00413873 0.0028547011 0.010781232
000380 fd 47 66 3a 5f 4c 8a bc 70 14 66 3b 76 8f cc 3b
       0.0008784531 -0.01688212 0.0035107397 0.006242688
000390 19 f2 85 bb f8 74 46 3c 63 9a fa 35 bc a6 6f ba
       -0.004087698 0.012112848 1.8671384e-06 -0.0009141972
0003a0 98 95 37 bb ae 17 be 3b 3c 2e 04 bc d3 fe 7f 3b
       -0.0028012749 0.0058011627 -0.008067664 0.00390618
0003b0 b5 e3 25 bb 8b 60 be 3a da d0 c2 bb c4 71 e1 b9
       -0.0025312726 0.0014524622 -0.005945307 -0.00043000106
0003c0 88 94 41 bc 43 d5 95 bb 4a ed bf 3b 73 74 57 3b
       -0.011815198 -0.004572542 0.0058571445 0.0032875806
0003d0 f6 10 54 bb 21 52 ad 3b 3e ce 8b 38 75 1d ea 3a
       -0.0032358742 0.0052893315 6.666452e-05 0.0017861562
0003e0 34 58 c2 3a 2a ab 85 3b f1 16 0b 3b f2 bd 0b bc
       0.0014827312 0.0040792422 0.002122339 -0.008529173
0003f0 e6 e0 d9 bb a4 f2 8e bb c2 78 6d ba 1e 13 b8 bb
       -0.0066491244 -0.004362421 -0.0009058827 -0.0056175133

lstm_layer.lstm1.bias_hh_l0 f4 [300]
000000 fe b7 e3 37 b8 98 87 39 fe ad f1 39 c1 32 35 39
       2.7146187e-05 0.0002586299 0.00046096736 0.00017280412
000010 81 06 25 37 73 1b 8a 39 96 82 83 b9 40 68 12 38
       9.836281e-06 0.00026341862 -0.0002508356 3.4906203e-05
000020 d1 57 10 3a 76 ba b9 39 6d 77 cf b9 43 fb 54 b9
       0.000550625 0.00035424874 -0.00039571096 -0.00020311498
000030 76 32 28 b9 20 85 99 3a b4 b7 18 3a 8e 29 cc 39
       -0.00016040527 0.0011712648 0.0005825714 0.00038940873
000040 52 7d 8c 3a 74 bc 6e 39 e9 5f 53 b9 01 b5 c4 b6
       0.0010718501 0.00022767653 -0.00020158257 -5.862327e-06
000050 dc f1 e6 39 ae 3c 55 3a 1a 05 95 39 fa 55 95 38
       0.00044049218 0.0008134347 0.00028423296 7.120888e-05
000060 5c d4 46 39 6b 06 52 ba 4a 0f 37 b8 1e 68 52 ba
       0.00018961861 -0.00080118206 -4.364484e-05 -0.0008026379
000070 83 46 66 b8 5b 2a 07 39 11 7c 4f 37 a7 0e 11 39
       -5.4901942e-05 0.00012890382 1.2367048e-05 0.00013833736
000080 fa 37 3d ba 9a ae 05 3b 1b a7 41 39 7f b7 39 ba
       -0.0007218119 0.002039826 0.00018468166 -0.0007084533
000090 0b cc 92 39 9b 05 18 b7 3a b0 d8 b9 8d c0 fb 38
       0.00027999314 -9.061211e-06 -0.0004133003 0.00012004478
0000a0 40 34 44 3a cd 7d bb 3a e6 07 e8 ba ab 0d 7a 38
       0.00074845925 0.0014304459 -0.0017702549 5.9617374e-05
0000b0 c3 c3 ee b9 12 06 5f 3a ba ab 0e b9 e3 51 bb 38
       -0.0004554075 0.00085076794 -0.00013606148 8.9321074e-05
0000c0 82 c1 9c 37 de ce f3 39 d4 17 00 39 6e 6d fa 38
       1.8686758e-05 0.000465027 0.00012215908 0.00011941312
0000d0 3e 03 97 b9 9b 0b 03 3a eb ca 33 b7 10 aa 09 38
       -0.0002880338 0.0004998983 -1.0716477e-05 3.282173e-05
0000e0 f8 cf 0a 38 41 75 15 ba 2f ca 1e 3a 16 ef 02 3a
       3.309545e-05 -0.0005701371 0.00060573494 0.0004994733
0000f0 03 ed d6 b9 50 31 49 3b ca 5b 83 ba 25 dd b6 b9
       -0.00040993848 0.0030699559 -0.0010021862 -0.0003487851
000100 61 c4 5a 3a 33 a3 3f b8 36 ca 82 3a 6f dd 2d b8
       0.0008345303 -4.568994e-05 0.0009978476 -4.145264e-05
000110 a8 30 87 38 76 d8 c4 b9 86 2c 7f b9 4e 9a 10 3a
       6.4463646e-05 -0.0003754531 -0.00024335281 0.0005516157
000120 a4 f0 11 ba e1 6d 34 3a f5 3d bb b8 5e e1 69 b8
       -0.0005567169 0.00068828283 -8.928395e-05 -5.576142e-05
000130 9f 89 f2 b8 21 72 bd b9 40 b7 77 3a f6 65 4e 3a
       -0.00011565093 -0.00036133922 0.00094496086 0.000787347
000140 3c a2 20 37 b7 aa b4 b8 60 7f 46 b9 73 a7 b6 3a
       9.574516e-06 -8.614867e-05 -0.00018930202 0.0013935402
000150 69 73 6a ba 8a bd b5 b9 07 03 c7 b7 3e 89 86 b8
       -0.0008943589 -0.00034664228 -2.3724058e-05 -6.415181e-05
000160 3b b1 4e 39 70 58 a5 37 03 a5 e6 38 ac 4a 11 39
       0.00019711714 1.9710715e-05 0.000109979905 0.00013856095
000170 f6 6f 4f b9 1d b3 65 b9 b7 d9 a9 39 a7 27 0d 3b
       -0.00019782767 -0.00021905867 0.00032396402 0.0021538527
000180 42 9e 81 b6 77 00 4a b9 27 54 01 3a 3a f2 72 b9
       -3.862923e-06 -0.00019264394 0.0004933499 -0.00023169155
000190 f0 c8 e4 38 2c ea a6 b9 56 54 0d ba 5f d5 b5 38
       0.00010909315 -0.0003183646 -0.000539129 8.670496e-05
0001a0 2b 90 96 35 b1 45 38 ba 13 65 c9 39 b9 4a a5 ba
       1.1217829e-06 -0.0007029428 0.00038413014 -0.001261077
0001b0 00 c5 7b b9 ec e9 29 b7 11 26 b0 39 ff 71 bd 39
       -0.00024010614 -1.0127649e-05 0.00033597698 0.00036133823
0001c0 73 2d de b8 7f 9e 90 ba 2b 7e 69 ba 44 4c 32 ba
       -0.000105942505 -0.0011033564 -0.0008907045 -0.00068015256
0001d0 5f 1a 77 b9 17 8a be 39 e7 27 9d 38 f5 7e 9b 37
       -0.0002356558 0.0003634251 7.493776e-05 1.8536559e-05
0001e0 83 15 87 b9 80 7d c8 b8 84 96 2d 3a ad e7 f6 39
       -0.00025765234 -9.560119e-05 0.0006621855 0.00047093388
0001f0 33 c5 1c 39 73 1e cc 39 fb 76 1b 38 8b f3 8a 39
       0.00014950782 0.000389326 3.706569e-05 0.00026502865
000200 95 da 4b 3a 25 71 1d ba 77 ae f6 b8 5d 77 48 b9
       0.0007776407 -0.00060059346 -0.00011762691 -0.00019117953
000210 5d e9 58 3a 24 8d 9d 3a d1 c5 1e bb 65 5d b9 3a
       0.000827452 0.0012020213 -0.0024226794 0.0014142214
000220 df f5 1e 3a 2f cc 37 37 61 bb 9a 39 7c d5 df 37
       0.00060638593 1.095519e-05 0.00029512777 2.6683083e-05
000230 04 e4 6f ba 85 8b 33 bb 9e 2b dd 3a fb 38 c2 39
       -0.00091511034 -0.0027396393 0.0016873961 0.00037045017
000240 e7 76 a3 b7 14 2c 46 ba 03 99 be 39 5e 9b 93 b9
       -1.9486482e-05 -0.0007559669 0.00036353627 -0.00028153782
000250 93 d8 e4 38 83 c0 2b ba 83 32 bc b8 ea 67 b3 3a
       0.00010912227 -0.0006551819 -8.973947e-05 0.0013687585
000260 e3 e9 6d 3a da 06 00 39 8d 30 f0 b9 1f 80 e9 38
       0.00090756844 0.00012209584 -0.0004581254 0.0001113417
000270 15 2c 8a b8 0d 8b 9c 3a b0 62 24 b9 2f f5 aa b9
       -6.588564e-05 0.0011943296 -0.00015677023 -0.00032607603
000280 ff 19 e8 39 2f 60 38 b8 63 68 bf 38 8b 82 45 3a
       0.00044269857 -4.3958597e-05 9.127033e-05 0.0007534406
000290 78 5c dd ba 0b f1 07 38 f4 1f d3 37 12 b5 64 b9
       -0.001688852 3.2410997e-05 2.516804e-05 -0.00021811228
0002a0 c8 97 2e 38 f8 b2 3b 39 45 1a 0b 38 29 14 8a ba
       4.162619e-05 0.00017900381 3.3164648e-05 -0.0010534573
0002b0 1f 2a 21 3a 50 7d fd 3a d4 a9 2e ba 06 16 43 39
       0.0006147939 0.0019339714 -0.00066628796 0.00018604854
0002c0 7d 9f cd 38 96 82 ad 39 2a ab dc 39 fa f6 9c b8
       9.804869e-05 0.00033094425 0.00042089197 -7.484663e-05
0002d0 4e c8 b2 38 f4 2e 7b ba 50 87 2b b9 38 5f 92 ba
       8.525011e-05 -0.00095818867 -0.00016358239 -0.0011167293
0002e0 37 a2 26 3a d5 e4 72 ba cd 90 10 37 2e cf be 39
       0.00063565694 -0.0009265666 8.616783e-06 0.00036393985
0002f0 8c cb f8 37 b8 fe 6d 39 71 21 ac 39 ce 7f 93 39
       2.9658688e-05 0.00022696971 0.00032831312 0.00028133247
000300 01 55 bb b9 96 c2 41 39 79 c7 8b 3a 45 65 9e b9
       -0.00035730752 0.00018478403 0.0010664306 -0.0003021156
000310 e1 8e df b8 aa 4d 1e 39 88 b7 a4 b9 c8 2c 4b 37
       -0.00010660082 0.00015096986 -0.0003141726 1.2110169e-05
000320 46 bf 05 3b 4d e1 01 ba dc 7a 29 bb 7b ad 0f bb
       0.0020408197 -0.0004954532 -0.0025860583 -0.002192347
000330 4a a7 1d 3a 7e ad a8 ba af d6 5c b9 e4 2d 82 39
       0.0006014003 -0.0012869088 -0.00021060811 0.00024829723
000340 e3 4f c8 ba de df 02 bc 49 7c d0 bb f0 81 f3 bb
       -0.0015282597 -0.007987944 -0.006362472 -0.0074312612
000350 7b cc c2 3a ef be a5 39 59 d1 81 ba af cb 06 bb
       0.0014861965 0.0003161351 -0.0009904309 -0.0020568182
000360 b1 f9 9e 3b 0a ff 5e bb bb c0 c5 bb ac 99 30 3a
       0.004851543 -0.0034026527 -0.006034938 0.0006736766
000370 7b 5a cb ba ec f3 69 3b c0 d8 15 bb a9 53 f6 3b
       -0.0015514636 0.0035698367 -0.0022864789 0.0075172973
000380 77 70 36 bb 76 e5 39 bc 9e 2c 1f 3b da 02 0a 3b
       -0.002783803 -0.011346212 0.0024288069 0.0021058829
000390 a4 24 35 bb 7f 7c 90 3b fd 89 0d 3a 31 61 e8 ba
       -0.0027640248 0.0044093723 0.0005399285 -0.0017729161
0003a0 d5 e9 f9 ba fb 2f 39 3c 17 5f 8e 3a 46 55 ca b8
       -0.001906688 0.011302943 0.0010862079 -9.647994e-05
0003b0 79 f0 8b 3a 0b 3e 05 ba 73 40 62 bb 08 50 e8 3a
       0.0010676525 -0.00050827925 -0.0034523278 0.0017724046
0003c0 bd 10 e4 bb e4 67 a7 b9 94 a6 3e 3b cd 14 50 b9
       -0.006960003 -0.00031930127 0.0029090988 -0.00019844175
0003d0 f4 dd d3 ba 71 27 30 3b 8e b2 32 3b b3 b0 76 3a
       -0.001616417 0.0026878978 0.0027267071 0.00094104855
0003e0 7b fd bb 3a e2 28 77 3b 2a bc 0e 3a 6f 00 c8 bb
       0.0014342511 0.0037713577 0.0005444909 -0.0061035673
0003f0 d2 81 25 bb 04 8a 4b bb 77 88 e9 ba 50 8b d5 ba
       -0.002525438 -0.0031057606 -0.0017817159 -0.0016292129

gbrbm.W f4 [100, 200]
000000 13 f7 8b ba ae d7 2b 3b 93 71 0b bb 35 50 60 bb
       -0.0010678492 0.0026221084 -0.0021277412 -0.0034227495
000010 0d 59 60 bb fb 5e 40 ba f4 df e2 ba 51 93 1f 3b
       -0.0034232766 -0.0007338372 -0.0017309175 0.0024349282
000020 af af 99 39 54 cf 55 ba c6 be ba 3a 8d 97 ab 39
       0.0002931333 -0.00081561995 0.0014247529 0.00032728576
000030 cd ea 14 bb ca e1 08 3b a3 04 e6 ba 61 22 52 ba
       -0.002272296 0.0020886534 -0.0017548989 -0.0008015987
000040 58 4b e3 b9 91 5e 60 b9 c7 e3 1b bb 04 19 33 3b
       -0.0004335295 -0.00021397533 -0.002378689 0.0027328143
000050 8b 29 30 38 e4 2e 40 3a c7 5f 29 bb 31 3e 20 3b
       4.200036e-05 0.0007331206 -0.0025844441 0.0024451131
000060 e9 f8 bd 3a 13 7e c7 ba 7b 0b ee ba 5d a4 0a bb
       0.0014493737 -0.0015220068 -0.001816138 -0.0021155097
000070 aa 9c 23 3a 49 33 2f b9 e1 a9 14 bb 8e 9b dd b9
       0.00062413013 -0.00016708406 -0.0022684264 -0.00042268302
000080 08 ac 3f bb 1a 72 b0 3a c9 f3 a8 bb d0 b4 8b ba
       -0.0029246826 0.0013461739 -0.0051560146 -0.0010658745
000090 fd 64 ee b9 93 77 d1 ba a2 78 49 bb 0c 18 d1 b8
       -0.0004547014 -0.001598107 -0.0030742069 -9.970376e-05
0000a0 53 ee 72 34 29 7e d0 3a ea d1 b5 ba 7b 4b e8 ba
       2.2624708e-07 0.0015906739 -0.0013871763 -0.001772269
0000b0 a5 a3 ff ba e6 70 4a ba 84 50 99 3a 61 93 aa bb
       -0.0019503726 -0.00077225117 0.0011696969 -0.005205557
0000c0 86 a2 d2 ba bc 8a 31 3b 47 2e 5a ba e8 9a 21 ba
       -0.0016070164 0.0027090749 -0.0008322936 -0.00061647454
0000d0 43 a8 30 ba 36 90 5f b9 d5 5a 96 ba 27 93 5b 3a
       -0.000673894 -0.0002132066 -0.0011471162 0.00083761144
0000e0 05 1a c1 3a e4 c5 26 3b c4 98 0f bb a1 dc 84 bb
       0.0014732486 0.0025447542 -0.0021911124 -0.0040546213
0000f0 14 2b 9e b9 b7 4d c6 3a 30 f9 85 ba 4a d7 03 b9
       -0.00030168204 0.0015129362 -0.0010221358 -0.00012573335
000100 55 4b 26 3a 39 33 a1 3a 9c bc 95 3a da 08 3c bb
       0.0006343623 0.0012298591 0.0011424008 -0.00286918
000110 aa 00 0a 3b a0 bc be 3a 22 ae e9 ba e5 22 ac b9
       0.0021057525 0.0014552064 -0.0017828385 -0.00032832395
000120 88 36 c3 38 de e1 c1 ba 9b fd 7f bb 0a c5 1b 3b
       9.308482e-05 -0.0014792045 -0.0039061073 0.0023768567
000130 c8 27 d6 ba 76 ca ac 3a 07 31 42 ba 1b f8 15 bb
       -0.001633876 0.0013182897 -0.00074078183 -0.0022883478
000140 58 3a 7c ba e5 4e 01 3a cb 8c 67 3a 45 26 81 3a
       -0.0009621731 0.00049327157 0.00088329305 0.0009853324
000150 2f 04 1c bb 83 00 da ba 14 e0 87 3a c6 57 5f bb
       -0.0023806205 -0.0016632233 0.0010366463 -0.0034079417
000160 39 29 87 bb 51 24 63 bb bc 60 2f bb 47 0f ca b9
       -0.004124787 -0.0034659097 -0.002676054 -0.00038539825
000170 8d ac 00 39 d7 3b b3 ba c5 04 55 bb 09 f0 08 bb
       0.00012271311 -0.001367445 -0.0032504064 -0.0020895025
000180 18 87 ae 3b 9e 68 16 bb cb 0d 13 3b ae 31 86 3a
       0.005326163 -0.002295054 0.0022438641 0.0010238194
000190 d7 43 bb 3a e1 d4 2c 39 20 2b d6 36 31 c6 40 3b
       0.0014287186 0.00016482502 6.3827174e-06 0.0029415006
0001a0 de 29 36 ba eb a7 27 3b e3 80 b1 ba fa ef 4e bb
       -0.0006948988 0.0025582265 -0.001354244 -0.0031576143
0001b0 45 f8 ce 39 dc e1 9d 39 51 f5 07 3b 02 16 d0 ba
       0.00039476357 0.00030113652 0.0020745585 -0.00158757
0001c0 30 81 cf b8 cf e2 66 3a b7 a4 33 3a e3 f3 d5 3a
       -9.894592e-05 0.0008807601 0.00068528525 0.0016323294
0001d0 d2 22 26 3b 4c 3c 29 ba ba 22 08 3b 30 f6 09 ba
       0.0025350344 -0.00064558233 0.0020772652 -0.000526282
0001e0 b7 71 dd 3a 60 e0 97 ba 8e 26 88 ba 28 58 14 3b
       0.0016894852 -0.0011587255 -0.0010387467 0.0022635553
0001f0 63 68 2d 3b 71 f1 8c 3a 9c 10 58 3a f8 df be 3a
       0.0026459924 0.0010753107 0.0008242221 0.0014562597
000200 41 bb ad 39 e5 41 c7 39 dd 6d 2c bb d2 35 44 3a
       0.00033136646 0.00038005333 -0.00263106 0.00074848265
000210 43 d9 86 bb 61 b7 d2 3a 30 f0 d7 39 82 45 61 3a
       -0.004115255 0.001607638 0.0004118695 0.00085934263
000220 83 fa 0a 38 8a 07 cd 3a c2 82 13 3b b8 c6 a7 bb
       3.313507e-05 0.0015642506 0.0022508358 -0.0051201247
000230 e3 2a bb ba f9 bd fb 3a d0 f7 87 ba cb 16 0e 3a
       -0.0014279749 0.0019206397 -0.0010373536 0.00054202665
000240 91 f0 15 3a ca 4d 3d 3b ef a3 6c b9 84 aa f2 b7
       0.0005719746 0.0028885477 -0.00022567784 -2.892805e-05
000250 0d de 96 3a f0 5e 48 bb 8f 93 cc 38 ce 2b b2 ba
       0.0011510268 -0.0030574165 9.754963e-05 -0.0013593377
000260 9b 7b 7a bb 54 c7 3a 38 c6 80 38 bb 5a 99 fc ba
       -0.0038220647 4.4531494e-05 -0.0028152927 -0.0019271777
000270 e5 3e 2f bb a1 ad 51 ba 33 a1 2f 3a 7a 46 8f bb
       -0.002674037 -0.000799859 0.0006699741 -0.004372415
000280 04 5a 2a bb 74 48 ea ba 9f d8 65 ba 8b 74 2b ba
       -0.0025993595 -0.0017874376 -0.0008767936 -0.00065404986
000290 26 b9 00 bb 7b 26 0d bb 7a f3 c3 ba 7a a0 7d bb
       -0.0019641607 -0.0021537829 -0.0014949881 -0.0038700388
0002a0 45 17 06 3b be 9e 0a 3a fb 6f de 39 94 24 fe ba
       0.0020460647 0.00052879367 0.00042426572 -0.0019389563
0002b0 e9 f7 e8 ba 92 d4 3c bb 45 eb c4 b9 00 58 4c ba
       -0.0017774078 -0.0028813225 -0.00037559323 -0.00077950954
0002c0 e4 3c 24 bb b1 1b 3e bb ad 34 4d ba 67 51 9a bb
       -0.0025060708 -0.0029008205 -0.00078279787 -0.004709411
0002d0 14 e4 f2 39 f7 d1 22 3a a4 3a 0b bb 91 88 34 37
       0.00046327768 0.0006211097 -0.002124467 1.0760633e-05
0002e0 81 80 81 3b 6e 09 14 3b 17 05 94 3b 79 23 a0 3a
       0.0039520864 0.0022588628 0.0045172083 0.0012217603
0002f0 95 1e 14 bb e0 95 9c 3a cf 63 09 3a 55 0e 7f 38
       -0.0022601236 0.0011946522 0.0005241008 6.0810085e-05
000300 9c 60 a0 3a 54 97 91 b7 fd cd 42 bb f7 72 12 bb
       0.0012235823 -1.7355815e-05 -0.002972483 -0.0022346356
000310 57 09 83 3a 89 5d 6e 39 89 97 3a bb 8a 7a 1c 3a
       0.000999729 0.00022732293 -0.002847167 0.00059691875
000320 80 9d 88 3a 2f 2c 8d 3a 13 f5 55 3a 15 2d 70 3a
       0.0010422915 0.0010770614 0.0008161824 0.0009161991
000330 02 e2 e6 b9 ae f1 5a 3a a7 63 c1 b9 49 9f 9b ba
       -0.00044037407 0.0008352053 -0.00036886075 -0.0011873032
000340 68 9e 20 3b 8f b9 3e ba c4 e6 19 3b 9e ae 00 3b
       0.002450848 -0.0007275575 0.0023483494 0.001963533
000350 a9 ae 31 3b e0 02 62 bb f3 01 20 ba e6 54 5b bb
       0.0027112162 -0.0034486577 -0.0006103806 -0.0033467351
000360 2d 59 33 3b 12 de 1c bb 63 67 77 ba 71 e9 72 bb
       0.0027366385 -0.0023936075 -0.0009437708 -0.0037065411
000370 48 d9 d5 3a 31 51 72 ba 31 2b f0 3a d5 f0 fb 3a
       0.0016315365 -0.0009243666 0.0018323419 0.0019221554
000380 0b f5 02 bc be 8b 9c 3a bb 04 2b 3b 22 8c e3 3a
       -0.007992993 0.0011943502 0.002609535 0.0017360488
000390 f7 70 e6 b8 ec 94 87 3b 0d cd 1e 3b 7b 06 53 3b
       -0.00010988296 0.004137626 0.0024231107 0.0032199908
0003a0 41 58 4b ba 05 69 e4 3b 75 90 a5 3a e4 15 7d 3b
       -0.00077569863 0.006970527 0.0012631553 0.0038617784
0003b0 23 92 a2 3b f8 24 0e bb 4c 49 6a 3a cb b7 2c b9
       0.0049612685 -0.0021689516 0.00089373137 -0.00016471666
0003c0 6a 04 f3 b9 c6 74 17 3b 3e f2 ae 3a 84 eb af 38
       -0.0004635186 0.0023110374 0.001334734 8.3885185e-05
0003d0 c4 eb c4 3a 69 42 d2 ba b0 82 1e 3b 37 9b 77 3a
       0.0015023877 -0.001604152 0.0024186783 0.0009445431
0003e0 1f eb 5b 3b 87 6d 9d ba 0e ef 98 bb 13 5b 99 3a
       0.003355689 -0.0012010791 -0.0046671694 0.0011700116
0003f0 f9 3c c6 39 0b 77 42 bb 05 59 4e 3b 23 31 c5 3b
       0.0003781093 -0.0029673006 0.0031486165 0.0060178204

gbrbm.b f4 [200]
000000 9b f8 62 bf 83 12 56 bf 82 d1 7c bf 2f 37 81 bf
       -0.8866059 -0.83621997 -0.98757184 -1.0094966
000010 30 77 61 bf 59 fe 7b bf dc 73 2c bf 6d 12 47 bf
       -0.8807249 -0.9843498 -0.6736429 -0.7776249
000020 91 9b 7b bf c7 74 80 bf 85 26 5d bf 07 ed 70 bf
       -0.9828425 -1.0035638 -0.863869 -0.94111675
000030 34 da 8f bf 8c 7b 56 bf a1 2e 8b bf ee 4f 4a bf
       -1.1238465 -0.8378227 -1.0873605 -0.79028213
000040 a0 5b 53 bf a5 01 8c bf f4 20 6c bf 99 60 a7 bf
       -0.82561684 -1.0938002 -0.9223778 -1.3076354
000050 50 e8 6c bf 10 cc 8b bf e1 d2 84 bf 99 eb 69 bf
       -0.9254198 -1.092165 -1.0376855 -0.9137512
000060 33 4a 79 bf ba bc 3f bf 14 fb 5f bf cd cb 6b bf
       -0.97378844 -0.7489735 -0.8749249 -0.9210785
000070 d6 41 6f bf 20 b2 78 bf 63 7e 8e bf f0 90 84 bf
       -0.9345983 -0.971468 -1.113232 -1.0356731
000080 61 45 77 bf ac a0 85 bf 88 96 59 bf 0b b2 52 bf
       -0.9659024 -1.0439658 -0.8499532 -0.8230292
000090 05 3b 98 bf 77 a0 7d bf 40 a2 79 bf 25 b9 47 bf
       -1.1893011 -0.99072975 -0.975132 -0.78016883
0000a0 db 59 63 bf e3 be 55 bf ba 0e 3b bf 05 c9 7e bf
       -0.88808984 -0.83494395 -0.73069346 -0.9952548
0000b0 1a 9b 57 bf ab 2a 58 bf eb 27 5c bf 73 38 55 bf
       -0.8422104 -0.84440106 -0.8599841 -0.8328926
0000c0 76 11 71 3f 45 bb 55 bf 3f 6f 2d bf 74 ac 65 bf
       0.9416727 -0.83488876 -0.67747873 -0.8971627
0000d0 e8 18 7c bf b5 d6 80 bf 23 b2 84 bf 8d 12 a0 bf
       -0.98475504 -1.0065523 -1.0366863 -1.2505661
0000e0 d3 d1 80 bf 57 25 87 bf 85 bb 6a bf 64 7b 71 bf
       -1.0064033 -1.055827 -0.9169238 -0.94328904
0000f0 bf 6f 91 bf 32 f9 71 bf 9a b0 78 bf 0e 7e 35 bf
       -1.1362227 -0.94520867 -0.9714447 -0.7089547
000100 3d 4d 48 bf 74 06 79 bf 60 f8 50 bf ba e8 8c bf
       -0.78242856 -0.9727547 -0.8162899 -1.1008523
000110 9a 8e 71 bf 56 14 57 bf 26 2b 3a bf c1 48 7c bf
       -0.9435822 -0.84015405 -0.7272209 -0.98548514
000120 9a 42 79 bf 5d 94 49 bf 99 91 7b bf 90 4f 99 bf
       -0.9736725 -0.7874201 -0.9826904 -1.1977406
000130 b9 58 78 bf 06 7d 67 bf 06 0d 52 bf 0f e5 68 bf
       -0.9701038 -0.90425146 -0.8205112 -0.90974516
000140 ee 48 82 bf da 50 72 bf 2c 37 56 bf b0 f3 4a bf
       -1.0178506 -0.9465462 -0.83677936 -0.7927809
000150 2f 63 63 bf 0d 15 58 bf 2b 40 70 bf b6 1e 7c bf
       -0.8882322 -0.8440712 -0.9384791 -0.9848436
000160 72 f6 6d bf e4 de 84 bf 2b f6 6b bf 12 ba 90 bf
       -0.9295417 -1.0380521 -0.921725 -1.1306784
000170 52 97 70 bf d5 f2 29 bf 2f b8 60 bf fa 53 58 bf
       -0.93980896 -0.6638616 -0.8778104 -0.8450314
000180 a7 2d 75 bf ad b0 6e bf 43 da 79 bf 8d 07 88 bf
       -0.95772785 -0.93238336 -0.97598666 -1.0627304
000190 9d 15 5c bf 95 48 54 bf 15 c5 a5 be d6 f3 87 bf
       -0.8597048 -0.8292325 -0.32376924 -1.0621288
0001a0 2c 3b 72 bf 47 8f 8f bf 53 10 69 bf 32 e5 76 bf
       -0.9462154 -1.12156 -0.91040534 -0.96443474
0001b0 f6 5c 55 bf 65 5e 51 bf ef 84 63 bf 76 6c 73 bf
       -0.8334497 -0.8178466 -0.88874716 -0.95087373
0001c0 2e 0d 43 bf 46 63 91 bf 05 98 8d bf cb 26 52 bf
       -0.76191986 -1.1358421 -1.1062018 -0.82090443
0001d0 37 77 6f bf 11 13 4a bf 29 ba 4d bf 2c 51 37 bf
       -0.9354128 -0.78935343 -0.8036218 -0.71608233
0001e0 f2 f9 7b bf b3 29 94 bf 0d e7 5b bf 63 7e 68 bf
       -0.9842826 -1.1575226 -0.8589943 -0.9081785
0001f0 8c 15 74 bf 05 51 8c bf 4b 05 62 bf 48 b9 5b bf
       -0.9534538 -1.0962225 -0.88289326 -0.8582959
000200 76 45 be bf b3 27 54 bf 90 59 6c bf 2d 45 6b bf
       -1.4864948 -0.82873076 -0.9232416 -0.9190243
000210 d4 90 85 bf 25 5a 2c bf b1 c0 38 bf 4d 47 77 bf
       -1.0434823 -0.6732505 -0.72169024 -0.9659317
000220 8e f2 8c bf 1b 34 71 bf c7 f3 80 bf e1 3f 55 bf
       -1.1011522 -0.9422013 -1.0074395 -0.83300596
000230 e4 bc 08 c0 f9 65 7f bf 1b d2 51 bf 58 35 81 bf
       -2.136529 -0.9976497 -0.8196122 -1.0094404
000240 ba a6 4c bf e7 dd 46 bf db 60 59 bf 53 ae 74 bf
       -0.79941905 -0.77682346 -0.84913415 -0.955785
000250 40 ab 4d bf 49 2b 85 bf ce f1 7e bf 3f 69 83 bf
       -0.8033943 -1.0403835 -0.99587715 -1.0266494
000260 e4 d3 59 bf 30 7d 6c bf c9 ba 5e bf 77 e5 8f bf
       -0.85088944 -0.9237852 -0.8700376 -1.1241902
000270 b9 ad 80 bf 69 4f 67 bf ce 3d 35 bf 90 17 66 bf
       -1.0053016 -0.90355545 -0.7079743 -0.89879704
000280 3c ff 64 bf 06 52 54 bf 6a b3 6d bf b7 c4 21 bf
       -0.89451957 -0.8293766 -0.9285189 -0.6319079
000290 c1 2e 69 bf 63 ba 62 bf 9a 67 69 bf a0 15 50 bf
       -0.91086966 -0.88565654 -0.9117371 -0.81283
0002a0 9c 88 76 bf bd f5 96 bf f8 72 5d bf 73 cc 66 bf
       -0.963022 -1.1793743 -0.86503553 -0.90155715
0002b0 a7 ef 6b bf 4a 31 68 bf e3 5b 62 bf e0 3b 5a bf
       -0.92162555 -0.9070021 -0.8842146 -0.8524761
0002c0 7f 65 76 bf d9 26 6b bf b0 b6 7d bf 1b ad 7a bf
       -0.9624862 -0.9185615 -0.99106884 -0.9792039
0002d0 31 58 41 bf 18 49 5a bf 9e 9f 5a bf 54 b3 66 bf
       -0.75525194 -0.8526778 -0.85399806 -0.90117383
0002e0 05 ce 7d bf d1 68 59 bf e1 b9 6d bf b7 4d 7e bf
       -0.99142486 -0.8492556 -0.92861754 -0.99337333
0002f0 10 27 5e bf 1b 17 6e bf ad 67 86 bf 0f 4f 8c bf
       -0.86778355 -0.93004006 -1.0500389 -1.0961627
000300 ea fd 7a bf 4d 3e 7b bf a4 a0 71 bf 72 8e 26 bf
       -0.9804369 -0.9814194 -0.94385743 -0.65061104
000310 f8 ff 6d bf 96 4a 8f bf a1 ad 88 bf db df 63 bf
       -0.929687 -1.1194637 -1.0677987 -0.8901345

gbrbm.mu f4 [100]
000000 83 64 69 3c aa 04 b1 bc a5 88 a5 bc 68 bc 19 3c
       0.014245155 -0.02160867 -0.020206759 0.009383298
000010 ad 58 d5 3c 04 8d 9c bc 3a 82 70 bb 51 00 25 be
       0.02604326 -0.01911021 -0.0036698715 -0.16113402
000020 8b aa fb bc 15 03 67 bd 6b 38 77 bd e7 8f 8a bd
       -0.03072097 -0.056399424 -0.06035654 -0.067657284
000030 bf a3 c9 3c 9d 19 82 3c ae f5 1b bd a9 61 70 bc
       0.024614213 0.015881354 -0.038076095 -0.0146717215
000040 8b e9 c5 3c 24 3d 70 3b 1c ef e8 3d 07 49 39 bc
       0.024159214 0.0036657536 0.113737315 -0.011308915
000050 56 ba 31 bc 0c e7 af 3c c4 30 5c 3d 83 84 58 3d
       -0.010847649 0.021472476 0.053757444 0.052860748
000060 b6 be f0 3c 45 a7 c7 bd 20 bd 0b 3c f4 84 47 3d
       0.029387813 -0.09748701 0.008528978 0.04871078
000070 eb 9c 75 bc 7d 61 9a 3d 02 b9 c6 ba 74 97 2c bb
       -0.014991025 0.07538126 -0.0015161338 -0.002633539
000080 b9 47 0d bd a6 06 9a bd 91 4f 4a be d9 b2 84 3d
       -0.03449223 -0.07520799 -0.19756915 0.06479425
000090 89 fc 0e bd 59 67 df 3b 22 1c f4 bc 5d dc 85 3c
       -0.034908805 0.00681774 -0.029798571 0.016340429
0000a0 9b 05 84 bd 3f dc 23 bd 9d c3 de 3c 82 3c f6 3c
       -0.06446382 -0.040004965 0.027192885 0.03005815
0000b0 37 a9 cb bc 82 11 d2 3c f6 de 76 bb fc 16 73 3c
       -0.024860961 0.025643114 -0.0037669516 0.014837023
0000c0 1d 8d a5 3c fc 4f 7f bb 96 a7 1a 3d 0e 1f 47 bc
       0.02020889 -0.0038957587 0.03775748 -0.0121534
0000d0 ed 5f 23 bc 18 01 36 bc ae 52 a4 3c 17 e8 01 bd
       -0.009971601 -0.011108659 0.020058956 -0.03171548
0000e0 1c 37 d5 bb 1e 23 20 bd d5 3c d4 bc e7 30 27 bc
       -0.0065068137 -0.03909599 -0.025907913 -0.01020453
0000f0 d5 0f f4 b9 b6 d4 df bc 60 3d 97 3c 0e 6a 3b bd
       -0.00046551102 -0.027323108 0.018461883 -0.04575544
000100 0e 2a 43 3d 66 de 67 bc 7a 33 f5 3b d3 b2 3a 3d
       0.04764753 -0.014152145 0.007482943 0.045580696
000110 d0 08 c7 3c 15 e8 a9 3c fe cd 0f 3d 7d 1f 85 bd
       0.024296194 0.020740548 0.03510856 -0.065001465
000120 38 3e 6a 3c 13 80 ea bd e4 01 1e bd f9 af 79 bb
       0.014297061 -0.114502095 -0.03857602 -0.0038099273
000130 7f 72 86 3d c2 11 e3 3c 2b 47 57 bd 78 ce c4 bc
       0.06564807 0.027718429 -0.052558105 -0.024024233
000140 48 98 64 3d 3c b2 1b 3e 62 cf bf ba b7 52 d6 bc
       0.05580929 0.1520471 -0.0014633948 -0.026162488
000150 b0 3a ce 3d 9b 1a 69 bb 69 43 64 bc b9 a0 39 3d
       0.100697875 -0.0035568837 -0.013932087 0.045319293
000160 7c 2c 32 bc 9b 09 49 bc c0 54 c0 3c da 51 65 bd
       -0.010874864 -0.0122703565 0.023477912 -0.055986263
000170 b7 60 16 3e ce 4d 14 3d 3e 77 f3 3d dd 5f 38 bc
       0.14685331 0.036207013 0.11887978 -0.011253324
000180 5b 98 d2 bc 7d 63 62 bc 44 c5 9a 3c 50 2d a9 bc
       -0.025707414 -0.013817665 0.018892892 -0.02065149

gbrbm.log_var f4 [100]
000000 1b 4b db c0 42 b8 d3 c0 2f bf db c0 af 46 da c0
       -6.852918 -6.6162424 -6.867088 -6.8211284
000010 b4 02 d8 c0 78 00 d6 c0 75 26 d0 c0 8d 57 a3 c0
       -6.75033 -6.687557 -6.5046945 -5.1044374
000020 e4 92 d8 c0 1a 2b d9 c0 a7 15 d8 c0 b6 6d d9 c0
       -6.767931 -6.7865114 -6.752643 -6.7946424
000030 c9 fa da c0 b3 7c d9 c0 d6 03 cd c0 3c e7 da c0
       -6.8431134 -6.796472 -6.4067183 -6.840727
000040 a6 07 d9 c0 aa 38 c3 c0 56 b5 a8 c0 ec df db c0
       -6.7821836 -6.100667 -5.2721357 -6.871084
000050 3c a0 dc c0 54 f9 db c0 a8 52 d8 c0 e1 b6 d6 c0
       -6.89456 -6.8741856 -6.76009 -6.709824
000060 02 a5 d5 c0 e2 73 d6 c0 96 c0 d5 c0 5a 25 d8 c0
       -6.6763926 -6.701646 -6.679759 -6.7545595
000070 6d a0 da c0 bd fb d7 c0 25 0e db c0 27 3c db c0
       -6.832083 -6.74948 -6.8454766 -6.851093
000080 15 d1 d7 c0 65 19 ae c0 0f 88 a0 c0 6e a2 d8 c0
       -6.7442727 -5.4406 -5.0166087 -6.769828
000090 ad 97 d9 c0 9a 78 db c0 be de d9 c0 5e 80 da c0
       -6.799765 -6.858472 -6.80844 -6.82817
0000a0 7d c1 d8 c0 08 ee d9 c0 1b ea da c0 6f e8 d9 c0
       -6.773619 -6.8103065 -6.8410773 -6.8096232
0000b0 4f 77 d9 c0 0c 40 db c0 2d af db c0 eb e3 db c0
       -6.795814 -6.851568 -6.865134 -6.871572
0000c0 de 24 d8 c0 5f 64 dc c0 02 ff da c0 b3 4a d9 c0
       -6.7545004 -6.8872523 -6.843629 -6.7903686
0000d0 c1 a7 cb c0 35 7e db c0 cb 16 da c0 f0 a6 c9 c0
       -6.364228 -6.859156 -6.8152823 -6.301628
0000e0 35 1e db c0 70 31 da c0 13 ae db c0 ff 23 db c0
       -6.8474374 -6.818535 -6.8649993 -6.848144
0000f0 0e c9 db c0 17 6d b8 c0 93 92 ce c0 45 de da c0
       -6.868293 -5.7633166 -6.4553924 -6.8396325
000100 2e d7 d8 c0 7b ad d9 c0 a2 1e da c0 64 7b d6 c0
       -6.776267 -6.802427 -6.8162394 -6.7025623
000110 f1 1a d8 c0 3f b8 da c0 6d 65 d9 c0 16 17 da c0
       -6.7532887 -6.834991 -6.793631 -6.815318
000120 ec c5 d8 c0 64 77 a9 c0 31 12 da c0 89 82 da c0
       -6.7741604 -5.295824 -6.8147206 -6.8284345
000130 e2 2a d6 c0 30 aa da c0 e5 ab d6 c0 f5 89 da c0
       -6.6927347 -6.833275 -6.708483 -6.8293405
000140 fa d1 d7 c0 8d ed a4 c0 dd d9 ce c0 a8 a1 d9 c0
       -6.744382 -5.153998 -6.4640946 -6.8009834
000150 f9 c6 d9 c0 47 df d9 c0 71 1b dc c0 a3 91 d7 c0
       -6.8055387 -6.8085055 -6.87835 -6.736528
000160 ad 10 da c0 f1 07 db c0 5a cf db c0 57 5d d9 c0
       -6.8145356 -6.8447194 -6.8690615 -6.792644
000170 5d ee a7 c0 8a fc d9 c0 9c 13 ab c0 21 6e da c0
       -5.247847 -6.8120775 -5.3461437 -6.8259435
000180 11 3e d8 c0 02 47 db c0 f3 08 dc c0 2a 5a be c0
       -6.7575765 -6.852418 -6.8760924 -5.9485064
