final_project/gru_gbrbm_H_per_2 (drop 0.1)/type2/gru_gbrbm_W5_H200_B16.pt (torch, 834193 bytes, 9 tensors)

lstm_layer.lstm1.weight_ih_l0 f4 [600, 9]
00000000: 4986 59b8 58e4 9f38 2d43 5f37 2322 e2b7
00000010: cb86 fc36 11ea 22b6 bc73 5637 df2a 3737
00000020: 4ee8 11b7 2624 5738 9207 a3b9 6f0d dd38
00000030: c3f9 f338 6e6e 5438 2775 f138 cc9c 7538
00000040: 23b3 d838 8cf2 1638 3683 5f39 19da 6f38
00000050: b739 69b9 8599 d6b8 e159 f0b8 0044 67b9
00000060: 017f 8db9 14af 1db9 398c b2b8 1e28 5737
00000070: b1db 8038 90a0 b2b5 861d 70b4 c757 30b8
00000080: ee03 e2b6 4451 11b8 f408 02b8 92e9 19b7
00000090: 1ce2 fbb8 7b71 d339 fd32 29b9 7a73 8f38
000000a0: a90e 1cb9 fb02 b337 934f 0cb9 9432 53b8
000000b0: 30ed 12b8 bc88 8f39 8c51 f637 dd31 db38
000000c0: c92e 8938 cdf7 0a39 78d4 93b6 acb8 25b8
000000d0: 6b32 43b8 e6f3 39b9 35da 8ab9 8a78 af39
000000e0: 4dd9 1cb8 b370 2339 dce7 94b8 4427 0eb8
000000f0: b053 89b8 8d85 f537 f4e0 f0b6 9378 56b9
00000100: 0bf8 93b8 54e8 5ab9 42c4 79b7 66f8 47b9
00000110: 4c3c 54b8 c5e3 61b9 fedb 78b9 e0e6 64b9
00000120: 2d43 41b9 f11e 39b8 db59 3139 49dc 31b7
00000130: bf44 3e39 6fc6 3139 bd65 5b39 af93 3739
00000140: 624f ac38 421c d3b9 2617 b239 e077 f538
00000150: 6f21 b639 47ae f238 9cb8 ca38 92fc 9d38
00000160: 0cca a238 3f9b 28b8 1df7 91b8 65ae 9cb8
00000170: 5c6d aeb7 3123 9a36 2361 d2b7 1b3f e7b7
00000180: b753 8737 2477 9a37 4aba ed37 64a6 3f38
00000190: 8dc0 28b8 10e5 c838 a988 7138 9ba8 e438
000001a0: 41e7 c538 ddf0 1f38 3075 a238 bd24 9537
000001b0: 4d9b fb36 93ff 0038 56e5 c3b8 5400 1db7
000001c0: 73f4 b8b8 d493 a8b8 2500 b3b7 264e a3b7
000001d0: f80a dcb6 d416 42b9 5f2b 9f39 196a bd38
000001e0: f8df 3939 a48d 5837 272d 6c38 0084 8638
000001f0: 5f20 b838 8d1e b837 5527 b038 0620 b737
00000200: 2bb9 bc38 efc3 8db8 e866 da38 6d53 e438
00000210: b90a d538 19c0 7738 7ced 0738 8f37 b039
00000220: ec60 32b8 4d35 f237 a2e6 b8b8 4ff2 8f37
00000230: 8ea8 8638 7397 11b8 2052 33b8 8f74 82b8
00000240: 12f3 243a fa7b 43b7 eb14 eb39 304f b139
00000250: edf9 fa39 98fc ad39 5c00 8339 61d1 1339
00000260: d824 dc38 ad7e d8b8 b3cc 84b8 de76 90b7
00000270: 0bf6 3e38 0edc 36b8 9d56 08b8 9f3f d9b5
00000280: dddf 8037 e104 a836 0207 e7b6 4bd7 deb7
00000290: dc04 df36 f027 aab6 0a92 7637 499c 9f37
000002a0: 8db2 6037 7d1c 1e37 f1a0 8537 bd02 d0b9
000002b0: 1c95 d4b8 dc51 85b8 cd2f 89b8 ffe5 ea38
000002c0: 83f9 b3b8 5fad 4d38 f2e2 ca38 64be 0739
000002d0: 156c 0238 f3b0 4bb9 b89a ffb7 0ff6 3d38
000002e0: c5d9 29b7 6bfd 9ab8 a612 09b8 7743 9638
000002f0: 047a a537 e310 24b9 4262 12ba b033 97b9
00000300: 9c76 4fb9 c3c4 67b9 1f5f 52b9 9b5d a1b9
00000310: 1a09 93b9 c232 4eb9 42e8 7337 a16d 4239
00000320: c5c6 3738 7c4c 9138 4f15 3c38 25a0 7138
00000330: 0937 4f38 a6c7 0638 b153 e737 35e1 28b7
00000340: 435f 7ab9 13a4 0139 b4be a3b6 0f8a 1439
00000350: 050a 5d38 9b4b 9a38 ab42 0438 7564 3a37
00000360: 8818 c639 242c c838 8048 b338 9e7a 0ab9
00000370: 684a 50b8 a896 5db8 b510 20b8 a032 b638
00000380: e3c1 8238 5714 82b8 868a 0c39 1194 b9b9
00000390: 15b8 d6b9 3d9d 85b9 7708 a7b9 cb64 a9b8
000003a0: 50a3 a6b7 e259 1ab9 3c20 0539 f30d 06b9
000003b0: 4d87 8339 b3aa d839 1d03 8639 cb1c 8939
000003c0: 1a0c 6739 14ad 3c39 d919 4638 bf90 57b9
000003d0: 2c14 a7b5 b85b d038 d30e bdb7 49f8 b738
000003e0: 7c5a 2c39 88b8 3639 8033 9438 880e 8737
000003f0: 801e 85b9 d4c5 e339 88cb 1ab6 b0f6 f438
-5.1861894e-05 7.624243e-05 1.3307476e-05 -2.6957196e-05 7.525877e-06 -2.4276126e-06 1.27823405e-05 1.0917632e-05
-8.696761e-06 5.129366e-05 -0.00031095423 0.000105406034 0.00011633665 5.0647584e-05 0.00011513597 5.855858e-05
0.000103330494 3.5988676e-05 0.00021315817 5.718516e-05 -0.00022242112 -0.000102329104 -0.00011460833 -0.00022055209
-0.0002698824 -0.00015037908 -8.51382e-05 1.2824339e-05 6.144436e-05 -1.3308763e-06 -2.2362482e-07 -4.204342e-05
-6.7357823e-06 -3.464638e-05 -3.1002754e-05 -9.173893e-06 -0.00012010729 0.00040329606 -0.0001613609 6.8402805e-05
-0.0001488278 2.133985e-05 -0.00013381084 -5.0353425e-05 -3.503001e-05 0.0002737696 2.9363458e-05 0.000104520215
6.5413835e-05 0.00013253019 -4.405676e-06 -3.9511055e-05 -4.653858e-05 -0.00017733834 -0.00026483988 0.0003346841
-3.7395675e-05 0.00015586875 -7.100377e-05 -3.3892007e-05 -6.548257e-05 2.9268465e-05 -7.1787454e-06 -0.00020453548
-7.055708e-05 -0.00020876649 -1.4887251e-05 -0.00019070655 -5.0600895e-05 -0.00021542523 -0.00023733077 -0.00021829782
-0.00018430939 -4.4136254e-05 0.00016913509 -1.0601311e-05 0.00018145422 0.00016953958 0.00020923368 0.00017507256
8.216385e-05 -0.0004026611 0.00033968053 0.00011704839 0.00034738655 0.00011571921 9.666497e-05 7.533388e-05
7.762396e-05 -4.0198905e-05 -6.960167e-05 -7.471143e-05 -2.079334e-05 4.5936545e-06 -2.5079184e-05 -2.7566732e-05
1.6132237e-05 1.841371e-05 2.833935e-05 4.5692912e-05 -4.0233648e-05 9.5794094e-05 5.7586152e-05 0.000109032924
9.4367664e-05 3.8132875e-05 7.74659e-05 1.7779292e-05 7.4984623e-06 3.07556e-05 -9.341042e-05 -9.358006e-06
-8.819336e-05 -8.0383994e-05 -2.133853e-05 -1.9467505e-05 -6.557788e-06 -0.00018509786 0.00030359157 9.0319845e-05
0.0001772641 1.2907582e-05 5.6308836e-05 6.414205e-05 8.779833e-05 2.1948736e-05 8.39966e-05 2.1830212e-05
8.999029e-05 -6.7598994e-05 0.00010414218 0.000108874265 0.00010158629 5.9068294e-05 3.2407683e-05 0.0003361073
-4.2528773e-05 2.8873468e-05 -8.8167624e-05 1.7159762e-05 6.421014e-05 -3.4711742e-05 -4.275341e-05 -6.220594e-05
0.0006292324 -1.1651771e-05 0.00044838278 0.0003381907 0.00047869925 0.00033185328 0.00024986535 0.00014097012
0.0001049728 -0.00010323278 -6.332379e-05 -1.722149e-05 4.5528675e-05 -4.3597123e-05 -3.250559e-05 -1.6186276e-06
1.5363034e-05 5.007358e-06 -6.8851523e-06 -2.6564716e-05 6.6464836e-06 -5.071044e-06 1.4696745e-05 1.9027053e-05
1.33930125e-05 9.424167e-06 1.592978e-05 -0.00039674892 -0.000101367215 -6.357182e-05 -6.541573e-05 0.000112008296
-8.58186e-05 4.9037273e-05 9.6743825e-05 0.0001294553 3.1095075e-05 -0.00019425507 -3.0470415e-05 4.529027e-05
-1.0123888e-05 -7.390495e-05 -3.2680713e-05 7.165124e-05 1.972635e-05 -0.0001564655 -0.00055840996 -0.00028839475
-0.00019785244 -0.00022103176 -0.00020062596 -0.00030778054 -0.00028044806 -0.000196646 1.4538005e-05 0.00018542122
4.381572e-05 6.928385e-05 4.4842538e-05 5.7608024e-05 4.94039e-05 3.2134027e-05 2.7576318e-05 -1.0066015e-05
-0.00023877346 0.00012363521 -4.8799793e-06 0.0001416581 5.2699837e-05 7.357375e-05 3.1533342e-05 1.1109853e-05
0.0003778378 9.544965e-05 8.548889e-05 -0.00013206384 -4.966036e-05 -5.2830816e-05 -3.8162532e-05 8.687866e-05
6.234997e-05 -6.202672e-05 0.00013403044 -0.00035396268 -0.00040954413 -0.00025484888 -0.0003185903 -8.077322e-05
-1.986479e-05 -0.00014720068 0.00012695877 -0.00012784432 0.00025087074 0.0004132591 0.0002556079 0.0002615213
0.00022034385 0.00017993554 4.723095e-05 -0.0002055792 -1.244834e-06 9.935297e-05 -2.2537459e-05 8.772367e-05
0.00016436906 0.00017425616 7.0667826e-05 1.610002e-05 -0.0002539046 0.00043444207 -2.306626e-06 0.00011680776

lstm_layer.lstm1.weight_hh_l0 f4 [600, 200]
00000000: 8877 8f35 221a 07b5 69c4 2935 aff2 5cb6
00000010: 2145 8733 7e40 ee35 12ea 5b35 bdf5 c934
00000020: 13c8 8035 6720 1335 2180 97b4 b6c7 00b5
00000030: 57a1 84b4 0b70 16b5 a49f 4637 2ed4 97b4
00000040: bac3 efb4 46e2 a6b6 f77e 6436 7396 29b5
00000050: 7da2 51b3 4fa3 e4b5 f3b5 67b5 1a10 edb5
00000060: a1b1 3036 aeef 1935 15ed d737 aafe 5eb6
00000070: 33e6 6436 25b7 1635 ae6e 8ab5 f700 8bb5
00000080: 45d7 6eb4 d39e 0ab6 12bf b8b5 4549 1db4
00000090: e934 83b5 546c 1335 ae1c a3b4 0b85 7c35
000000a0: bcc6 3037 2906 ad34 c71f 9cb4 9d9d 1835
000000b0: 9bab 7fb6 b457 2435 fceb 0334 41d2 e1b5
000000c0: 6e96 44b6 c4aa 6535 f56a 9a35 7432 7837
000000d0: 0c25 89b6 3b52 48b6 8928 7a35 69fd 47b3
000000e0: 5f4b a736 af12 6534 eac2 ee35 e16d 39b5
000000f0: 3241 a135 c2d5 6f35 373b e435 f4c8 87b4
00000100: 323e f0b6 ba78 6cb6 a499 aab5 fe58 9b36
00000110: dcd6 08b6 676c bcb6 bb37 2f33 3ff1 08b7
00000120: 2dfa 82b6 029b 6535 d7a6 c036 eef5 f634
00000130: 4b04 da33 e46c d0b2 111b 9035 3eec 25b4
00000140: ac30 acb4 6f18 1a36 b203 bcb6 f9b2 0c35
00000150: 40fd 2936 3eb1 edb5 b095 1eb4 a859 2837
00000160: 4d39 1f36 16c2 0337 c56e 4bb4 6d14 f9b6
00000170: b013 07b6 422e 3535 1efe b735 81e1 56b6
00000180: 4966 59b5 3008 8bb5 fc91 49b4 1d22 abb5
00000190: 2f80 90b6 d2d6 69b5 ff04 8834 0a1a ccb5
000001a0: ef64 e5b4 9728 9435 a00c 8cb5 a172 9ab6
000001b0: 20a1 8eb7 3e4c f3b5 b6dc cb31 cd7c e333
000001c0: 8a0c 9bb4 17f2 b933 164d 6cb2 276f a936
000001d0: 3fd7 1235 bbe3 2eb6 a913 d6b5 cacd f0b5
000001e0: a0f0 6235 17e5 f634 56a4 8eb6 4c05 95b6
000001f0: 33c8 ceb6 d709 b434 3754 11b4 bc18 a7b4
00000200: 4379 6ab4 a663 a8b6 088e e635 e4d6 a636
00000210: d717 ceb3 2da9 0936 4b78 45b2 61aa 7136
00000220: 0958 51b7 3ee3 2235 3547 a934 853a 6bb5
00000230: 339c be33 1173 8836 9936 0d35 97e3 6d36
00000240: 99fe 33b4 ca3f 32b6 94f4 2934 79c9 8936
00000250: 7051 8eb6 03d3 8435 b4ae 85b4 d5f0 20b6
00000260: dfc8 d6b4 bb23 46b6 905d 1635 f66f bbb5
00000270: c3cb dd33 e9d6 8ab4 8270 0936 6329 0e37
00000280: 0807 cf34 15d3 76b5 0062 00b6 73b6 3b35
00000290: 9cb1 b3b5 f313 6cb6 3ff1 a835 967d 59b6
000002a0: 8043 50b5 51db efb4 118f 1b35 8655 3ab7
000002b0: 7997 80b5 2d9e 76b4 5d9d 62b3 8b21 8835
000002c0: 9a5b f537 18fb 9834 a01f 5d34 58e5 a6b6
000002d0: 3eb2 8b36 96ef 4bb5 ae99 4b35 68b4 68b5
000002e0: 5523 44b3 1dd1 0035 1f6c f2b7 b61c 4ab6
000002f0: 77c1 19b7 defc 4a36 16af 08b5 1ba2 09b5
00000300: 7018 a0b5 2a1f 99b4 2ab6 eab3 c813 1e35
00000310: 03d5 b235 ed7e ee34 9a69 ab35 8488 da34
00000320: 2b2b e1b4 e700 a5b6 f428 63b6 e8d7 e3b4
00000330: e242 3b35 385e 84b6 09e2 9135 71fa 0036
00000340: 91b0 96b6 d53d b734 95be 9eb4 18eb 0535
00000350: ee8a 3ab5 5445 dd34 ede2 c335 c7e5 8335
00000360: cb51 9c35 4809 b8b6 ece6 22b5 f25a b3b5
00000370: dc29 2235 db4c 9735 7968 8bb5 83a8 f835
00000380: c2f4 a835 b725 34b6 58cb 1b38 f075 e5b4
00000390: 87a4 f935 4702 33b5 9213 3f35 b6b2 0835
000003a0: 69c9 5636 984c 2237 953e 20b5 9ec1 62b5
000003b0: 7d1a a435 280d 8f36 4e3b 04b4 1925 d8b5
000003c0: b42b b735 2b51 12b5 4932 1334 f8c1 33b6
000003d0: 0c26 f635 eaca 9136 2d2a 81b4 2fa6 0137
000003e0: 64ee 0cb3 34d8 27b5 ec14 1bb4 73f7 c236
000003f0: a9aa 7536 c444 50b5 8882 5eb5 e830 6035
1.0689118e-06 -5.032945e-07 6.324322e-07 -3.2923815e-06 6.299002e-08 1.7751152e-06 8.1924475e-07 3.7617966e-07
9.594972e-07 5.480892e-07 -2.8219168e-07 -4.7974333e-07 -2.4704306e-07 -5.60424e-07 1.1838889e-05 -2.8280323e-07
-4.465963e-07 -4.973527e-06 3.404855e-06 -6.317634e-07 -4.8809387e-08 -1.7034853e-06 -8.6318977e-07 -1.7662562e-06
2.6329437e-06 5.734572e-07 2.5740397e-05 -3.3228812e-06 3.410864e-06 5.6145865e-07 -1.0314013e-06 -1.0356588e-06
-2.2243792e-07 -2.065605e-06 -1.3764677e-06 -1.464842e-07 -9.77566e-07 5.4919406e-07 -3.0381983e-07 9.407092e-07
1.0536689e-05 3.2228243e-07 -2.9080385e-07 5.685377e-07 -3.8097849e-06 6.1222386e-07 1.2286176e-07 -1.6824998e-06
-2.9293838e-06 8.5557645e-07 1.1505023e-06 1.4793699e-05 -4.087231e-06 -2.9850187e-06 9.3191244e-07 -4.6563773e-08
4.985762e-06 2.1334084e-07 1.7789109e-06 -6.9077765e-07 1.2014409e-06 8.9345497e-07 1.7004558e-06 -2.5291922e-07
-7.159798e-06 -3.5237013e-06 -1.2710702e-06 4.62972e-06 -2.0390644e-06 -5.6154563e-06 4.079605e-08 -8.162401e-06
-3.903426e-06 8.5534714e-07 5.7414686e-06 4.6000008e-07 1.0152197e-07 -2.4263905e-08 1.0736713e-06 -1.5452767e-07
-3.207291e-07 2.296201e-06 -5.603267e-06 5.2414504e-07 2.5330373e-06 -1.770946e-06 -1.4769353e-07 1.0034455e-05
2.37262e-06 7.853398e-06 -1.8946146e-07 -7.423156e-06 -2.0128027e-06 6.749507e-07 1.370852e-06 -3.2019746e-06
-8.0987644e-07 -1.035869e-06 -1.8772693e-07 -1.2750421e-06 -4.306457e-06 -8.711187e-07 2.533561e-07 -1.5206763e-06
-4.2728013e-07 1.1038672e-06 -1.0434487e-06 -4.602902e-06 -1.7002749e-05 -1.81271e-06 5.9331695e-09 1.0593212e-07
-2.8880123e-07 8.65877e-08 -1.3754535e-08 5.0495323e-06 5.470246e-07 -2.6060577e-06 -1.5949964e-06 -1.7941286e-06
8.4541716e-07 4.5987755e-07 -4.251061e-06 -4.4411627e-06 -6.1625847e-06 3.3534772e-07 -1.3534815e-07 -3.112417e-07
-2.1837063e-07 -5.0183908e-06 1.7177672e-06 4.972202e-06 -9.596959e-08 2.0513064e-06 -1.1494261e-08 3.6010972e-06
-1.2477868e-05 6.0680384e-07 3.1530513e-07 -8.762948e-07 8.875977e-08 4.0665113e-06 5.2606043e-07 3.5448227e-06
-1.6763296e-07 -2.6561197e-06 1.5828329e-07 4.1063727e-06 -4.2414104e-06 9.896179e-07 -2.4900294e-07 -2.398204e-06
-4.000676e-07 -2.9525097e-06 5.6015506e-07 -1.3965171e-06 1.03281785e-07 -2.586087e-07 2.048008e-06 8.473496e-06
3.856187e-07 -9.1949306e-07 -1.913053e-06 6.9928427e-07 -1.338823e-06 -3.5178352e-06 1.2587187e-06 -3.240862e-06
-7.7584264e-07 -4.4676793e-07 5.795019e-07 -1.1106376e-05 -9.580828e-07 -2.296808e-07 -5.2762847e-08 1.0142552e-06
2.9248931e-05 2.84949e-07 2.0593734e-07 -4.9738846e-06 4.163273e-06 -7.5972036e-07 7.5847026e-07 -8.668926e-07
-4.566694e-08 4.7988016e-07 -2.8898996e-05 -3.0117058e-06 -9.164555e-06 3.0247534e-06 -5.091873e-07 -5.127237e-07
-1.1928041e-06 -2.8521146e-07 -1.09296096e-07 5.888837e-07 1.3324028e-06 4.4423305e-07 1.2771227e-06 4.0704992e-07
-4.1940925e-07 -4.9174882e-06 -3.3849474e-06 -4.2439137e-07 6.9760256e-07 -3.944875e-06 1.0869127e-06 1.9219262e-06
-4.4909034e-06 3.4131395e-07 -2.956846e-07 4.988847e-07 -6.949257e-07 4.12149e-07 1.4594676e-06 9.827135e-07
1.1646711e-06 -5.484708e-06 -6.068574e-07 -1.3363008e-06 6.0410616e-07 1.1272745e-06 -1.0386713e-06 1.8526483e-06
1.2588209e-06 -2.6844043e-06 3.714426e-05 -4.2740385e-07 1.859983e-06 -6.668601e-07 7.1181523e-07 5.0924007e-07
3.200572e-06 9.673786e-06 -5.9695714e-07 -8.447331e-07 1.2226661e-06 4.2632637e-06 -1.2315033e-07 -1.6104051e-06
1.3647282e-06 -5.4507353e-07 1.3708735e-07 -2.6785983e-06 1.8339501e-06 4.344959e-06 -2.405881e-07 7.727692e-06
-3.2813105e-08 -6.2526965e-07 -1.4443111e-07 5.8104574e-06 3.6607182e-06 -7.7586105e-07 -8.289139e-07 8.351767e-07

lstm_layer.lstm1.bias_ih_l0 f4 [600]
00000000: 2d26 6e38 e068 1bb9 9e45 0f37 5624 b7b8
00000010: aab2 2639 232d 29b9 96b5 8039 da70 38b7
00000020: 175a cf38 804e 6739 bcf0 8038 2a11 b8b8
00000030: b071 beb7 55f1 5839 c159 16b9 2797 76b9
00000040: bbc6 27ba a1c3 2239 f08d fb37 b269 9c39
00000050: 663b dfb4 9612 be37 a5ec 52b7 f610 1939
00000060: a155 c9b9 b7f2 a538 7a34 31b8 7437 5f39
00000070: e622 c239 d5e6 b939 1c46 3b35 5280 e4b8
00000080: 21da 43b9 d861 8939 7efc e2b9 ead2 b138
00000090: 5194 9e38 3611 6639 e6ac 09b9 c6e5 d3b8
000000a0: 03bd 3b3a 22c8 5038 4b54 0539 7810 ffb8
000000b0: c8ca ed37 6d34 29b9 69b3 07b9 6c1a fd39
000000c0: 543f 7c3a 32c5 b538 f199 88b9 7998 d2b8
000000d0: 9dff 34b8 b481 38ba 86be 4db9 1ce8 4238
000000e0: e343 b138 e5e6 99b9 27b2 8eb9 ef39 8eb8
000000f0: 1d51 0fb8 bbd5 bb37 282b 62b9 4b26 fcb8
00000100: 93f7 03b9 1054 d5b8 e821 4938 470a 6139
00000110: 5cc5 94b9 eeac 2ab9 d2b7 8fb7 d69c e5b8
00000120: fe62 1b38 f82e e9b8 5c24 b0b9 0eda 32b7
00000130: 8298 ba38 1ac9 46ba 7e47 8539 e651 3539
00000140: 37e9 1d37 e9c0 3bb9 3f2f c735 ed1c aa38
00000150: d783 a2b8 ca48 d1b9 ac6d 6db9 b9c5 d5b9
00000160: 60ac 00ba a7ab 6339 5533 5db8 e2b4 0939
00000170: 4d06 4137 867e 38b9 a11d 14b8 8b32 2a39
00000180: 861d c339 011e 90b8 acf2 b938 694c 9138
00000190: 51b3 d638 5562 2337 c802 43b8 86ad 30b9
000001a0: e370 9239 e28a 9738 52c1 3ab7 45fa 0439
000001b0: f2c9 deb9 fde4 46b9 810c 79b9 6326 2eba
000001c0: a324 54b9 d8b4 0a39 4c32 5138 7ac3 6139
000001d0: 02d9 b239 febf 9638 9d1b f2b8 f78d a239
000001e0: 281c beb9 934b 04b9 e5c4 1d39 10ca ba38
000001f0: b073 8839 29e9 ceb7 9b0a 3b39 b1aa 8338
00000200: 2867 1139 ef0f 9439 912f 06b7 e2b1 82b9
00000210: 6d20 83ba 68a3 6b38 3428 0039 1ed0 d3b8
00000220: 62ba 3eba 5331 54b7 e2c3 94b9 a1a8 24ba
00000230: 1dce edb9 87a4 8238 5f47 8d39 e6eb 3139
00000240: 9eb8 83b9 b617 8539 c875 a5b9 4c4d a6b9
00000250: 36b8 7eb8 e813 5939 2359 3bb7 82d2 0a39
00000260: 63ae ce39 d1ee 3cb8 9bd0 9a38 4707 4bb9
00000270: 618b 0938 069e 41b9 6bf3 70b8 8228 5cb9
00000280: a33d 4fba 8d9d 9138 c04c b7b7 605b 03b9
00000290: c794 0237 4fcc 03ba b722 1139 1226 acb9
000002a0: 5bf4 ffb9 ed59 e4b7 e720 c5b9 b047 49b9
000002b0: 3fbd b4b8 ff72 56b9 86bc ebb8 bfe7 d7b9
000002c0: 451d 8237 d3ea 1b39 fd47 9038 7c9b 6739
000002d0: 7a22 7bb9 e1d5 0d39 7bcd 1e38 b7a5 6a38
000002e0: 833f 1138 d200 fd38 d781 22b8 29f7 9239
000002f0: 4a70 6bb9 05b7 2d39 0ce0 c237 f6bb fa38
00000300: 3e10 2739 3428 8138 6635 b2b8 1c69 0d38
00000310: 9b2f 44ba ba1e 2339 f7ee 26b9 b148 8736
00000320: e31a 3c38 4784 ba39 b099 8438 27fa 0f39
00000330: 1c2c b639 a489 e638 6636 02b9 e5b4 b738
00000340: 1979 8e39 2f59 68b9 7a92 c737 56a1 9638
00000350: cd5c c237 ad3f cc38 9305 e839 5ed3 dc37
00000360: 2815 3b3a c6e5 283a e5d2 fab7 e47a 6db8
00000370: e62d 1b38 18fc b7b8 b653 8739 413f af38
00000380: 2c03 b239 ebf4 7f35 c9ce 49bb 7c45 6939
00000390: 8ceb 8f37 8b56 8cb9 4532 4439 b0e3 a639
000003a0: be81 2d38 adf3 b5b9 7233 a0b8 47bc 113a
000003b0: 384f 6938 f549 47b9 997d c5b8 0bee 3e39
000003c0: f006 0eba fc3f db38 4459 2bb9 557e cf39
000003d0: 44e3 d739 da8a bf39 c186 a2b8 b7eb 61b9
000003e0: d75c 97b8 d57e 8838 7206 e0b8 9bd2 063a
000003f0: 37e1 6139 2ca9 bf39 0d51 cf39 0731 0b37
5.6779176e-05 -0.00014821021 8.539673e-06 -8.732888e-05 0.00015897551 -0.0001613391 0.00024549355 -1.099353e-05
9.88731e-05 0.0002205912 6.148356e-05 -8.777001e-05 -2.2702705e-05 0.00020689268 -0.0001433855 -0.00023516697
-0.00064001576 0.00015522401 2.9987626e-05 0.00029833388 -4.1580205e-07 2.265842e-05 -1.25720735e-05 0.00014597535
-0.00038401506 7.913022e-05 -4.224896e-05 0.00021287595 0.00037028565 0.00035457933 6.976495e-07 -0.00010895789
-0.00018677909 0.00026203576 -0.000432942 8.4793035e-05 7.561653e-05 0.00021940921 -0.00013129748 -0.00010104063
0.0007161649 4.9777453e-05 0.0001271527 -0.00012162415 2.8347029e-05 -0.00016136626 -0.00012941439 0.00048275606
0.0009622474 8.667483e-05 -0.00026054637 -0.000100419806 -4.3153403e-05 -0.000703837 -0.00019621299 4.6469373e-05
8.4526626e-05 -0.00029354464 -0.00027217084 -6.7818786e-05 -3.41694e-05 2.2391663e-05 -0.00021569117 -0.00012023429
-0.00012585362 -0.00010172289 4.7953712e-05 0.00021461501 -0.00028375804 -0.00016276885 -1.7132526e-05 -0.00010948784
3.7047073e-05 -0.000111190544 -0.00033596426 -1.0660397e-05 8.897578e-05 -0.0007583067 0.00025421003 0.00017292015
9.412229e-06 -0.00017905574 1.4840406e-06 8.1116195e-05 -7.749319e-05 -0.00039917819 -0.00022642937 -0.0004077384
-0.00049084984 0.00021712352 -5.2738313e-05 0.00013132722 1.15051635e-05 -0.00017594741 -3.5313544e-05 0.00016231292
0.00037215295 -6.872044e-05 8.8666886e-05 6.928371e-05 0.000102377155 9.738452e-06 -4.6494213e-05 -0.0001684931
0.00027931397 7.22611e-05 -1.1131475e-05 0.00012681734 -0.000424936 -0.00018968056 -0.00023751149 -0.00066432933
-0.00020231544 0.00013228075 4.9876326e-05 0.00021530493 0.0003411249 7.188319e-05 -0.000115446026 0.0003100482
-0.00036260602 -0.00012616655 0.00015046036 8.906808e-05 0.00026026135 -2.4665687e-05 0.0001783766 6.2783605e-05
0.00013866706 0.0002824063 -7.998097e-06 -0.00024928065 -0.001000417 5.618055e-05 0.00012222008 -0.00010100029
-0.0007275698 -1.2647669e-05 -0.00028374704 -0.0006281231 -0.0004535773 6.229529e-05 0.0002694679 0.00016967914
-0.00025123818 0.00025385403 -0.00031559006 -0.00031719578 -6.072988e-05 0.00020702148 -1.1166822e-05 0.00013239126
0.0003942131 -4.5045108e-05 7.382148e-05 -0.000193623 3.2793152e-05 -0.00018464783 -5.744716e-05 -0.00020995925
-0.0007905608 6.943485e-05 -2.185104e-05 -0.00012527173 7.783244e-06 -0.0005027698 0.0001384121 -0.0003283476
-0.0004881945 -2.7221593e-05 -0.00037599282 -0.0001919556 -8.618319e-05 -0.0002045147 -0.000112407884 -0.0004118066
1.5510837e-05 0.00014869431 6.879864e-05 0.00022087799 -0.00023950069 0.00013526484 3.7861504e-05 5.594428e-05
3.4629844e-05 0.00012064133 -3.8744733e-05 0.0002803144 -0.00022453177 0.00016566746 2.3230932e-05 0.000119559394
0.00015932412 6.158688e-05 -8.497648e-05 3.371491e-05 -0.00074839004 0.00015556338 -0.00015920015 4.031776e-06
4.4847733e-05 0.0003557524 6.322877e-05 0.00013730732 0.0003474661 0.00010992892 -0.00012418031 8.759814e-05
0.00027174575 -0.00022158468 2.3790857e-05 7.1826085e-05 2.3169816e-05 9.7393386e-05 0.0004425464 2.632447e-05
0.00071366364 0.00064429303 -2.9900528e-05 -5.6619654e-05 3.6997626e-05 -8.773076e-05 0.00025811576 8.356432e-05
0.0003395317 9.5351305e-07 -0.003079342 0.00022246497 1.7156613e-05 -0.0002676736 0.00018710743 0.00031831628
4.1367246e-05 -0.00034704563 -7.638977e-05 0.00055593665 5.5625307e-05 -0.0001900567 -9.4170864e-05 0.0001820849
-0.0005417904 0.00010454652 -0.00016341085 0.0003957624 0.00041177322 0.0003653381 -7.749862e-05 -0.00021545483
-7.217534e-05 6.50861e-05 -0.00010682353 0.0005143077 0.00021541571 0.00036556402 0.00039542504 8.296461e-06

lstm_layer.lstm1.bias_hh_l0 f4 [600]
00000000: 544b fe37 2d47 2fb9 b20e 5bb8 c2c7 c1b8
00000010: a197 1139 4198 58b9 370b 9a39 29cb bab7
00000020: c5c7 b338 f874 7839 ac9a da37 3b5c b9b8
00000030: 1c45 bdb7 e09b 5b39 c120 e0b8 1fc1 a7b9
00000040: e913 23ba e410 2039 2ded 1538 9d77 9c39
00000050: a675 31b8 ca11 cfb7 06a2 beb8 6d43 1239
00000060: fc39 b1b9 afe9 9f38 ccda c0b8 6ac2 5e39
00000070: b41c 9e39 4b14 bb39 e65f b7b8 d344 dab8
00000080: b861 43b9 cad6 7339 66b6 bdb9 7252 8037
00000090: f9a3 9038 d769 6539 33de 21b9 37ae d3b8
000000a0: 319f 393a e2a0 5b38 efec f238 537d 08b9
000000b0: 4caf 58b8 fa68 a8b9 57e0 06b9 ffc1 fc39
000000c0: b385 833a a757 9939 9a82 8cb9 15c3 54b9
000000d0: e4d3 d5b8 ca9f 33ba 111e 5eb9 5780 0339
000000e0: a05b a238 abb9 8cb9 91b8 a1b9 f3ab 92b8
000000f0: dc7e 75b4 89fc cb37 a1ee 65b9 34fc f1b8
00000100: 67bd 59b8 9d13 fdb8 9568 e237 b0dc d839
00000110: 92c9 8fb9 fccf 5fb9 fe00 69b7 0958 f7b8
00000120: 1b82 1338 93e9 bcb8 9ba1 acb9 c8c9 e5b7
00000130: 3586 a0b8 4eae e4b9 9874 7539 6808 3139
00000140: be84 e535 9e6d 47b9 f0df 0e38 7761 cc38
00000150: 1a02 61b8 f251 d1b9 be73 29b9 00f0 d5b9
00000160: e98f 00ba e749 6339 604a 0cb8 9b70 3538
00000170: 66fe 1d37 096d 27b9 70e1 01b9 c539 9339
00000180: 1e87 f439 8013 c9b8 b5ba 4239 31a3 7039
00000190: 4dc9 c438 dd7c f1b6 0274 22b8 034b 2cb9
000001a0: 1804 9139 3a8c 9c38 342e 1b37 d6c5 2839
000001b0: 28b9 d9b9 26c7 edb8 1de4 7eb9 3cca 06ba
000001c0: 45a0 81b9 0c01 b738 982c 1139 27e7 2139
000001d0: dd2c 9139 e028 a8b9 a62b fbb8 9abd 2239
000001e0: dfcd e6b9 765b f1b8 25d9 3e39 7505 96b8
000001f0: d233 8939 8281 0637 45af fe38 2e80 4538
00000200: 39b6 2039 53c3 7239 ea6d 12b7 1a9d 86b9
00000210: f249 94ba b923 6b38 8229 ec38 fef5 b6b8
00000220: a5e7 82ba 247e 8538 4b4d 94b9 ca14 28ba
00000230: 37b4 c9b9 14f9 9c38 1517 8d39 8845 2339
00000240: d53f 56b9 9053 7839 caff 96b9 a1cb 9ab9
00000250: 6546 7eb8 f02b 4c39 373f 04b7 238b 0939
00000260: 0307 9d39 2475 8fb6 fa4c a738 e9ab 4ab9
00000270: 61f0 3d38 d597 54b9 b692 feb8 b607 2bb9
00000280: d70a bab9 f05b 9638 3880 afb7 13ca 52b9
00000290: 952f 7f33 880c 43b9 6e12 1339 faf9 6fb9
000002a0: f505 02ba e45c b1b8 a425 c1b9 078a 58b9
000002b0: 86c7 b9b8 4104 48b9 a780 fcb8 18f9 b0b9
000002c0: 0748 6337 7988 f138 aa21 8cb7 2e64 5939
000002d0: 54be b5b9 1c7f ff38 73d4 f437 e687 c1b6
000002e0: bfeb 1138 809b 3a38 0edd 9db8 dfda 5f39
000002f0: 14a4 66b9 ea51 c338 70d2 d937 2d14 e938
00000300: ed67 2439 dde8 1b38 252c c7b8 e2c7 9837
00000310: be70 45ba 451b 0239 1941 0fb9 eb6d d436
00000320: 1721 3e38 978d bd39 ca95 8238 3b3c e238
00000330: 6871 b839 acc6 2139 6394 b7b8 cdfc f438
00000340: d3d8 5f39 f686 5fb9 c4e1 0ab7 d81d 3138
00000350: c2cc 1d38 63a4 cc38 23a6 e739 5805 f735
00000360: e95f 5e3a c5e2 283a 6cd0 f9b7 fdff 3536
00000370: f312 fa37 d294 b7b8 e8d1 9839 8b19 ea38
00000380: 5d89 5339 3620 2837 6cd9 49bb 6d35 5e39
00000390: cf4c 9837 c115 fdb9 b7bd 5339 5ec7 7439
000003a0: 3e8d 2d38 a8f6 c5b9 e916 90b8 6296 e439
000003b0: 7fa1 21b8 1a51 7fb9 8e9f 00b9 b728 75b6
000003c0: 2348 0fba 4089 5839 9cba 29b9 a412 cf39
000003d0: 8905 8939 7301 af39 b6d3 c7b8 b31a 2bb9
000003e0: 754f 29b9 db2d 7838 9725 eab8 5689 ec39
000003f0: fe40 3b39 11c1 a839 b46e bb39 5f46 e5b7
3.0314237e-05 -0.00016715816 -5.2227355e-05 -9.240165e-05 0.00013884764 -0.00020656084 0.00029381525 -2.2267532e-05
8.572595e-05 0.00023694697 2.605965e-05 -8.838667e-05 -2.2562737e-05 0.00020943535 -0.00010687253 -0.0003199661
-0.00062209234 0.00015265081 3.5745255e-05 0.00029843758 -4.2309657e-05 -2.4684607e-05 -9.090085e-05 0.00013948763
-0.00033803273 7.625238e-05 -9.1960275e-05 0.00021243995 0.00030157494 0.0003568254 -8.7439825e-05 -0.000104078696
-0.00018633052 0.00023254301 -0.00036184787 1.529718e-05 6.8969974e-05 0.0002187857 -0.00015436932 -0.00010093714
0.00070809113 5.2363503e-05 0.000115835915 -0.00013016658 -5.166167e-05 -0.0003212167 -0.00012862809 0.00048209724
0.0010034352 0.0002924774 -0.00026800187 -0.00020290569 -0.00010196099 -0.00068521185 -0.0002118277 0.00012540944
7.7418284e-05 -0.00026841214 -0.00030845826 -6.9938505e-05 -2.2863554e-07 2.4317082e-05 -0.00021928038 -0.00011538752
-5.1913226e-05 -0.00012067633 2.699e-05 0.00041363155 -0.00027425267 -0.00021344417 -1.3888113e-05 -0.000117942756
3.51687e-05 -9.008045e-05 -0.00032926802 -2.7392889e-05 -7.6543925e-05 -0.00043617416 0.00023408455 0.00016883167
1.7100463e-06 -0.00019018954 3.4063996e-05 9.745632e-05 -5.3646138e-05 -0.0003992464 -0.00016160213 -0.0004080534
-0.0004904257 0.00021675938 -3.344787e-05 4.3258635e-05 9.417161e-06 -0.0001596698 -0.0001238638 0.00028081067
0.00046639977 -9.588059e-05 0.00018570836 0.00022948977 9.3835035e-05 -7.1968957e-06 -3.873185e-05 -0.00016431142
0.00027659605 7.464779e-05 9.249477e-06 0.00016095428 -0.00041527417 -0.00011338135 -0.00024308306 -0.00051418296
-0.00024724207 8.726315e-05 0.0001384489 0.00015440267 0.0002768998 -0.0003207391 -0.00011976743 0.00015520156
-0.00044022404 -0.000115088114 0.00018200705 -7.153574e-05 0.00026169285 8.017176e-06 0.0001214431 4.7087837e-05
0.00015326672 0.00023151682 -8.7278695e-06 -0.00025675521 -0.0011313541 5.6061635e-05 0.000112610884 -8.724256e-05
-0.0009987248 6.36543e-05 -0.00028286348 -0.0006411789 -0.00038471978 7.485054e-05 0.00026910813 0.00015570794
-0.0002043241 0.00023682253 -0.00028800807 -0.00029524884 -6.062388e-05 0.00019471324 -7.8825315e-06 0.0001311717
0.00029950598 -4.275369e-06 7.9775185e-05 -0.00019328263 4.528498e-05 -0.00020274457 -0.00012138991 -0.00016310703
-0.0003548476 7.169682e-05 -2.0921332e-05 -0.00020102439 5.941509e-08 -0.00018601317 0.00014025878 -0.0002288594
-0.0004959994 -8.45732e-05 -0.00036839873 -0.00020650784 -8.8586516e-05 -0.00019075071 -0.0001204026 -0.00033754925
1.35470245e-05 0.000115171955 -1.6704977e-05 0.00020732053 -0.00034664816 0.000121830235 2.9185996e-05 -5.767669e-06
3.479025e-05 4.4490676e-05 -7.527518e-05 0.00021348473 -0.00021995633 9.313582e-05 2.5966408e-05 0.00011114064
0.00015678974 3.717175e-05 -9.497282e-05 1.821289e-05 -0.00075317535 0.00012407925 -0.00013661793 6.3308885e-06
4.5330347e-05 0.00036154382 6.2267834e-05 0.000107877386 0.0003517971 0.00015428168 -8.753759e-05 0.000116819145
0.0002134771 -0.00021317214 -8.278006e-06 4.2227883e-05 3.7622412e-05 9.7580974e-05 0.00044183535 1.8404489e-06
0.00084829197 0.00064424827 -2.9780167e-05 2.7120107e-06 2.9811146e-05 -8.75384e-05 0.00029148092 0.00011162747
0.000201737 1.002108e-05 -0.003079976 0.00021191472 1.8155579e-05 -0.00048272128 0.00020193202 0.00023343923
4.1377956e-05 -0.0003775854 -6.8707224e-05 0.00043599593 -3.8535796e-05 -0.00024348908 -0.0001226647 -3.6531544e-06
-0.00054657663 0.00020650495 -0.00016186613 0.00039496005 0.000261348 0.0003337968 -9.528494e-05 -0.00016317777
-0.00016146696 5.9170514e-05 -0.00011164991 0.0004511575 0.00017857921 0.00032187303 0.000357499 -2.7331696e-05

gbrbm.W f4 [200, 400]
00000000: 0af0 7a3a 2a91 7fba e33f 2ebb b851 e9b9
00000010: d80f 4fba 0d76 7739 b1c4 01bb ba82 d2b9
00000020: 0bca 893b ecd0 7cba 9f80 58bb a437 37bb
00000030: e25d 41bb 9bfd c6b9 f45a abba c596 34bb
00000040: 3583 ab3a 1ffb 863b 3358 3ebb 4e8d 9cbb
00000050: 7e1b 17bb c002 4aba 6414 ddba 6ec3 e03a
00000060: 91a3 683a 1846 833a e1ae 91bb 7838 f0b8
00000070: 6c73 2fbb 696b e5ba 6130 a23a 1eb4 90ba
00000080: 8eed 4bba c54e 27bb ab86 00bb 52fc 4b39
00000090: 2932 de39 8508 c637 8826 81bb 0fff 6d3a
000000a0: 8051 c3ba f4f4 7cba 8903 63bb b277 74bb
000000b0: 1ff9 e03a 82cb dab8 d1aa 23ba 4051 7ebb
000000c0: 28d7 19bb 7bf8 27bb 856a af3a d43d aaba
000000d0: 7e91 11ba eaa6 713a 8318 0b3a abd3 53b9
000000e0: 71dd 09bb b885 193a 770a 33b9 f0fc f83a
000000f0: f6c9 31bb 9171 78ba 60ad bd39 de91 24ba
00000100: 1137 8dba 1e03 b63a e20d 1dba be14 0a39
00000110: 969e 00b9 30c0 133b a275 2e3a 93ec 883a
00000120: 7cc7 7b3b ad22 923a 09da ca3a a743 69ba
00000130: 4742 53bb 6039 2aba ef20 41bb 9862 c8ba
00000140: 20fb 96ba a301 fa39 660a feba 2e39 ed3a
00000150: 8c6b 8bbb 9ef1 d6ba ca7b c138 80c9 4c3a
00000160: 40ec 453a d90b ab38 887b 1039 1199 3bba
00000170: 254d 13bb fddf 213b bc15 82ba 797f 4e3a
00000180: ea6c ec39 ee10 e6b9 cca7 ebb9 77c3 903a
00000190: 912e 033a 96c1 b63b f22e 2f3a 0703 a4ba
000001a0: b642 40bb 2603 b93a ba6d 183a 7747 fdba
000001b0: 8615 7bbb 057d 7eba 7031 36bb 6168 b63a
000001c0: 5408 003a 6993 593b 9752 fcba a13f a2b9
000001d0: 8fbc 913b c781 dfb9 4a5e 5e3b c3d8 99bb
000001e0: 6503 083b da37 47bb b46d fd39 3236 9239
000001f0: 3cd9 9bba 8613 853a bea6 0a3b 2650 9cba
00000200: 7dea f339 324b 97ba b2d1 bfb8 c116 8439
00000210: a8e4 dd3a 78b9 85ba 4e51 f339 6fbc 44bb
00000220: c784 1a3b d0bc c0bb 7952 89ba 94dc 81bb
00000230: 67b4 09bb e03e 3f3a 13df 3d3b d49d 30bb
00000240: db10 a5ba ec34 51ba 96db a9b9 31c4 8b38
00000250: 73e0 4dbb 680b ee3a 87d2 6c3a 17f5 4bba
00000260: be20 b03a ca61 9a3a cfd9 bfba 9d93 5ebb
00000270: 56cd b5ba dcc3 a5bb dacc 133a a882 ecb9
00000280: 9dcf 7ab9 1f49 3639 4d46 1fbb 93e1 c1b9
00000290: 67f3 bdba fa60 9939 7572 a2b9 9b19 57bb
000002a0: e610 6cbb ce16 5a39 6b6c ae3a a17d 6fbb
000002b0: e8b7 b5ba 5640 d0ba 4c94 a23a b82a beb9
000002c0: fa3a 3f3b 4a8e 0dbb 3c69 60ba dbdb 513a
000002d0: eaf1 eaba 2fa7 c73a fe11 5bbb 2dde df3a
000002e0: c9fc 813a 65fa bd3a dbb4 1fbb 107b 19bb
000002f0: a51e 04ba ad2c 603b c0f4 66b8 6268 003a
00000300: e9d5 d739 700c d33a 0b30 ff38 1dcf 7fba
00000310: 4bc1 a8ba aaa9 8fba a409 43bb 803f d1ba
00000320: bcad f739 c7fa d3ba 3f7a 373b 5145 073b
00000330: e26c deba a719 a539 5306 323a 0b9f 48ba
00000340: 41c1 fbba 26a8 48bb f37f 21bb 0dc5 b0bb
00000350: 96f1 7e3a 1031 f6b7 6332 a3ba 0eae 22ba
00000360: bbf8 a6ba aadc 973a 3bba 003b a9f6 c8ba
00000370: 9444 1d3b b456 ef39 c687 2b3b 4ac8 5a3b
00000380: 0c0e 67ba a4e2 5338 be2d ecba 6042 81bb
00000390: 81db f739 081f 8b3a b9b9 0ebb cd93 1bbb
000003a0: 7e53 db39 9b43 5ebb 950f 11ba b234 e93a
000003b0: 2bbb 70bb 4024 2bba eaae 19bb db58 9d3a
000003c0: a8ad 633b 6813 703b 1c4e 64ba ce61 f9b9
000003d0: 5d89 fab9 31ef 54bb 183f 61b8 b4db 81bb
000003e0: ac5b 6cba 2deb ccba fdec 2e3a d257 6bbb
000003f0: ca88 4cba 4085 03bb 123e afba e595 64bb
0.0009572512 -0.0009749109 -0.0026588372 -0.00044502108 -0.0007898784 0.00023599733 -0.0019801075 -0.0004015172
0.0042049936 -0.0009644169 -0.0033035649 -0.0027956748 -0.0029505421 -0.00037954454 -0.0013073371 -0.0027555686
0.0013085367 0.0041192914 -0.002904427 -0.004777587 -0.0023057158 -0.0007706098 -0.0016867039 0.0017148086
0.0008874471 0.0010015396 -0.004445896 -0.0001145461 -0.0026771678 -0.0017503324 0.0012374037 -0.0011040007
-0.0007779234 -0.0025529128 -0.0019611518 0.00019453585 0.00042380512 2.3607407e-05 -0.003941361 0.0009078839
-0.0014901608 -0.0009649538 -0.0034639558 -0.003730279 0.0017164088 -0.00010432956 -0.000624341 -0.0038805753
-0.002347419 -0.0025630284 0.0013383186 -0.0012988397 -0.0005552991 0.00092182925 0.0005306082 -0.0002020138
-0.002103653 0.00058564125 -0.00017074669 0.001899628 -0.0027128435 -0.0009477372 0.00036178064 -0.00062778394
-0.0010773857 0.0013886427 -0.00059911434 0.00013168433 -0.00012266109 0.0022544973 0.0006655102 0.0010446481
0.0038418462 0.001114925 0.0015476356 -0.00088983256 -0.003223555 -0.0006493535 -0.0029469093 -0.0015288172
-0.0011518933 0.00047684935 -0.0019381761 0.0018098706 -0.004254764 -0.0016398912 9.226015e-05 0.0007812008
0.00075501576 8.156122e-05 0.00013778929 -0.00071562926 -0.0022476402 0.0024700158 -0.000992469 0.0007877271
0.00045094575 -0.00043881632 -0.0004494771 0.0011044581 0.00050041924 0.0055772765 0.00066827156 -0.0012513109
-0.0029336638 0.0014115318 0.00058146904 -0.0019323666 -0.003831239 -0.00097079604 -0.0027800463 0.0013916605
0.00048840535 0.0033199436 -0.0019250688 -0.00030946455 0.0044475268 -0.00042630566 0.0033930712 -0.0046950295
0.0020753976 -0.003039828 0.00048337656 0.0002788767 -0.0011890302 0.0010152913 0.0021156515 -0.0011925742
0.0004652328 -0.0011542796 -9.1466485e-05 0.00025193955 0.0016929107 -0.0010202369 0.00046409148 -0.0030019542
0.0023577677 -0.005881883 -0.0010476849 -0.0039630625 -0.002101207 0.0007295441 0.0028972074 -0.0026949542
-0.0012593524 -0.0007980603 -0.00032397796 6.66458e-05 -0.00314143 0.0018161358 0.00090340566 -0.00077803567
0.0013437492 0.0011778411 -0.0014637056 -0.0033962496 -0.0013870399 -0.0050587486 0.000563813 -0.00045110774
-0.000239192 0.00017384112 -0.0024303377 -0.00036979895 -0.0014492095 0.00029254687 -0.00030984325 -0.0032821659
-0.0036020814 0.00020798596 0.0013307458 -0.0036543387 -0.0013864012 -0.0015888314 0.0012403815 -0.00036271452
0.002917944 -0.0021599703 -0.0008560603 0.00080054783 -0.0017924879 0.001523232 -0.0033427472 0.0017079763
0.0009917255 0.0014494179 -0.0024369273 -0.0023419298 -0.0005039967 0.0034206316 -5.5064214e-05 0.0004898367
0.0004116737 0.0016101729 0.00012168296 -0.00097583403 -0.0012874989 -0.0010960598 -0.0029760385 -0.0015964359
0.00047240953 -0.001617276 0.0027996448 0.002064068 -0.0016969705 0.00031490365 0.00067911035 -0.0007653094
-0.0019207374 -0.0030617802 -0.0024642914 -0.005394584 0.000972533 -2.9348332e-05 -0.001245093 -0.0006205746
-0.0012738922 0.0011586149 0.0019642252 -0.00153323 0.0023997175 0.0004565023 0.0026173457 0.0033383542
-0.0008814044 5.0517396e-05 -0.0018019003 -0.00394468 0.00047275054 0.0010614106 -0.002177818 -0.002373922
0.00041833142 -0.0033914808 -0.0005533633 0.0017792194 -0.0036732655 -0.0006528534 -0.0023450204 0.001200463
0.0034740958 0.003663266 -0.0008709149 -0.0004756585 -0.0004778606 -0.0032491202 -5.370294e-05 -0.003962958
-0.0009016346 -0.0015634053 0.0006672887 -0.00359105 -0.00078023656 -0.0020068437 -0.0013369939 -0.0034879383

gbrbm.b f4 [400]
00000000: c8ff c8bf 2e7f b6bf 2d1c cfbf eb03 c1bf
00000010: 00c0 a6bf a9f5 cbbf 2ae6 97bf 47a2 cdbf
00000020: 518c c3bf 428e c5bf 7aca adbf d008 b5bf
00000030: 6f35 bfbf 5d2e ddbf 011f b8bf bf9b c1bf
00000040: eef0 aebf 9e59 babf 6cd1 e1bf 7c9d 99bf
00000050: 687c b0bf 6171 bcbf 7420 c0bf fc07 c7bf
00000060: dca9 c1bf bc80 b4bf c5af dfbf ce62 c3bf
00000070: 47ac cfbf 431a b8bf 201c e0bf c72b bdbf
00000080: 7c58 d6bf 3749 cdbf cae1 b5bf 4108 cebf
00000090: 6da2 c3bf fc91 c6bf e7dd c5bf aa12 d2bf
000000a0: 3ddf d4bf 6dca c9bf ef59 cbbf 4a4e cabf
000000b0: 78f0 acbf 6cde cebf 51f7 97bf aea2 abbf
000000c0: eff8 cabf 0cee bfbf 6e99 adbf dafc d6bf
000000d0: dd38 abbf 3f69 dcbf 6a4a bebf 7ad0 c1bf
000000e0: 3fc0 c5bf b992 b4bf f11d cdbf cda8 b2bf
000000f0: f648 c6bf 0e34 cbbf d078 bbbf 6024 bebf
00000100: b0ae bebf 68d9 bbbf 1f0e cfbf 5615 dabf
00000110: 833d b6bf e555 c4bf 0c2c aebf 52e2 b1bf
00000120: e723 b6bf 294f afbf f9a2 e7bf e7a6 b8bf
00000130: e7e8 babf 8a01 ddbf 103f c6bf fbcc dcbf
00000140: 3fc4 cbbf b86a c0bf c931 c6bf 3639 cfbf
00000150: d1fe ccbf 1b67 c1bf a638 c8bf cee8 a2bf
00000160: ecf4 cdbf 5941 ccbf 0402 c5bf bd5e 9dbf
00000170: e439 ccbf dee4 e0bf 9021 debf 120f b0bf
00000180: c242 b5bf 0c4f b3bf 4b9d ccbf b3d5 b6bf
00000190: b5f0 c9bf 1fe7 cbbf 523c d1bf 2324 b6bf
000001a0: c37e c0bf a0a2 babf 0104 bebf 4927 b2bf
000001b0: 6897 c1bf 0504 bfbf bae9 a8bf 3769 afbf
000001c0: cd6d d0bf 2e61 c2bf ae9c dbbf 4629 c5bf
000001d0: a425 cabf e99d c2bf f489 bfbf cd56 ccbf
000001e0: 2ffa abbf 57fb b5bf 8216 bfbf 09ca c4bf
000001f0: 0dac 9fbf ecc3 c9bf 197a aebf 035b a2bf
00000200: 697e bdbf 2648 c5bf 4c36 d4bf e04e ccbf
00000210: f081 b0bf d209 a8bf cd6a bcbf 03af c7bf
00000220: ed60 d3bf 7a0a d0bf ece6 c7bf d9dc b7bf
00000230: 27c7 c7bf d929 b7bf 3744 b8bf dbca babf
00000240: 65e7 aebf 24c2 b9bf c9a9 b5bf 848c c8bf
00000250: aae9 b7bf 8d95 c7bf 6836 a6bf 1747 cdbf
00000260: f6be bdbf cc8f b8bf 284f e2bf c9b4 b2bf
00000270: 2eb2 bdbf b2c9 cebf 428e b8bf 6b80 bdbf
00000280: eef0 bdbf af38 ccbf 236e b1bf 750d b5bf
00000290: 2f42 e7bf 4fd1 b7bf b1a7 cdbf de19 c6bf
000002a0: 6001 b6bf a6fc c2bf c159 cfbf 9842 cdbf
000002b0: a188 bbbf f7bf c2bf a9c5 a5bf bdf8 b9bf
000002c0: 641e bebf 3ace c3bf ea43 c9bf 208a b3bf
000002d0: 6c06 bebf 8558 c0bf 2294 c4bf 9b60 b3bf
000002e0: 1f2b c8bf b1b4 b1bf cb55 c3bf 90f6 b8bf
000002f0: 322a cbbf 805e b7bf 58af c2bf a93e d0bf
00000300: 143c c7bf 5ab8 a2bf 3c36 c6bf 6684 cbbf
00000310: 90d3 c0bf c51a c9bf c3b5 c0bf 6709 b8bf
00000320: 345d bfbf 3726 c5bf b73f d4bf 0417 c8bf
00000330: 7d1d d9bf ce69 cebf 475c b9bf ca32 a0bf
00000340: 6d0d aebf 445a cebf 115c d0bf 8c27 d5bf
00000350: d06d b5bf d3be c9bf a669 e2bf cd57 acbf
00000360: 1162 b5bf 4c13 b7bf c9b8 e4bf d351 b4bf
00000370: 960d c5bf 6475 9abf 4c10 c2bf 7a1a b8bf
00000380: 21cc a0bf f605 b2bf 91a9 c9bf fc6c c6bf
00000390: bee6 c8bf eb98 c1bf 28ff cdbf fa0e d1bf
000003a0: 1d1e ccbf 51e7 abbf 27d6 b5bf b296 8fbf
000003b0: 44f4 abbf 6d29 d8bf 2678 cabf b553 c3bf
000003c0: 3df5 b2bf 0c51 b2bf e495 c4bf 9655 c5bf
000003d0: 9d3c dbbf 294e cfbf 8a86 ccbf a7f1 d0bf
000003e0: 17bc bbbf fbdd cbbf 6f38 d0bf 96cf d7bf
000003f0: fb8a cabf 6990 c2bf 9c90 b6bf d562 b3bf
-1.5703058 -1.4257562 -1.6180474 -1.5079321 -1.3027344 -1.5934345 -1.1867115 -1.6065148
-1.5277196 -1.5434039 -1.3577416 -1.4143314 -1.4938182 -1.7279774 -1.4384462 -1.5125655
-1.3667276 -1.4558599 -1.7642035 -1.2001185 -1.3787966 -1.47221 -1.5009904 -1.5549312
-1.5129962 -1.4101787 -1.7475516 -1.5264528 -1.622445 -1.4383014 -1.7508583 -1.4778985
-1.6745753 -1.6037968 -1.420953 -1.6096269 -1.5283943 -1.5513301 -1.5458344 -1.6411946
-1.6630627 -1.57649 -1.588682 -1.5805142 -1.3510885 -1.6161628 -1.187235 -1.3409021
-1.5857219 -1.4994521 -1.3562448 -1.6795914 -1.3376728 -1.7219619 -1.4866459 -1.5141747
-1.5449294 -1.4107276 -1.6024762 -1.3957764 -1.5491016 -1.5875261 -1.4646244 -1.4854851
-1.489706 -1.4675722 -1.6176184 -1.7037761 -1.4237522 -1.5338713 -1.3607192 -1.3897192
-1.4229707 -1.3696033 -1.809661 -1.4425935 -1.4602326 -1.7266095 -1.5487995 -1.7250055
-1.5919265 -1.5032568 -1.5483943 -1.6189334 -1.6015264 -1.510959 -1.5642288 -1.2727296
-1.6090369 -1.5957443 -1.539124 -1.2294537 -1.5955167 -1.7569845 -1.7353992 -1.3754599
-1.4160998 -1.4008498 -1.5985502 -1.4283966 -1.5776583 -1.5929908 -1.6346533 -1.4229778
-1.5038685 -1.4580879 -1.4844972 -1.3918239 -1.512433 -1.4923102 -1.3196328 -1.3703984
-1.6283509 -1.5185907 -1.715719 -1.5403221 -1.5792737 -1.520444 -1.4963975 -1.596399
-1.3435725 -1.4217328 -1.4928744 -1.5374156 -1.2474381 -1.5762916 -1.3631011 -1.2684025
-1.4804202 -1.5412643 -1.657907 -1.5961571 -1.3789654 -1.3127997 -1.4720093 -1.5600284
-1.6513954 -1.6253197 -1.5617347 -1.4364272 -1.5607651 -1.4309646 -1.4395818 -1.4593157
-1.3664366 -1.4512372 -1.4192439 -1.5667882 -1.4368184 -1.5592514 -1.2985353 -1.603732
-1.4823902 -1.4418883 -1.7680407 -1.3961421 -1.4820001 -1.6155303 -1.4418414 -1.4804815
-1.4839151 -1.5954798 -1.3861736 -1.4144732 -1.8067073 -1.4360751 -1.60668 -1.5476644
-1.421917 -1.5233352 -1.6199266 -1.6035948 -1.4651071 -1.5214833 -1.2950946 -1.4529034
-1.4853024 -1.529731 -1.5723851 -1.4026527 -1.484571 -1.5027014 -1.5357707 -1.4013857
-1.563816 -1.3883268 -1.5260557 -1.4450245 -1.5872252 -1.4325714 -1.5209761 -1.6269122
-1.5565209 -1.271251 -1.5485301 -1.589978 -1.5064564 -1.5711294 -1.5055469 -1.4377869
-1.4950318 -1.5402287 -1.6581944 -1.5632024 -1.6962124 -1.6126039 -1.4481286 -1.25155
-1.3597847 -1.6121297 -1.6278096 -1.6652694 -1.4174137 -1.576136 -1.7688491 -1.3464295
-1.4170552 -1.4302764 -1.7868892 -1.4087471 -1.5394771 -1.2067075 -1.5161223 -1.438308
-1.2562295 -1.3908069 -1.5754873 -1.5502009 -1.5695417 -1.5124792 -1.6093493 -1.6332695
-1.594669 -1.3429967 -1.4205979 -1.1217864 -1.3433919 -1.6887642 -1.5817916 -1.525992
-1.3981091 -1.3930984 -1.5358243 -1.5416744 -1.7127873 -1.6195728 -1.5978558 -1.6323746
-1.4666775 -1.5927118 -1.6267222 -1.6860225 -1.5823663 -1.520032 -1.4262881 -1.4014536

gbrbm.mu f4 [200]
00000000: f452 543d 4f8f 26bd 280e ab3d 089b 91bc
00000010: 8ac9 653d 0528 fa3c 6898 3b3d e94f 4abd
00000020: 6a77 9e3d 57cc 993a d123 bbbc 6d24 013c
00000030: 31f5 1a3d 8af4 38bd 6776 133d b7be 413c
00000040: 6e03 a4bd acf2 2a3c 5f3a b9bc 1111 d73c
00000050: 7e94 2dbd e4c5 c0bd e512 1b3d eaa4 013d
00000060: 4ff5 903d 7895 01bd e181 783e 0bdf 82bc
00000070: 9bbd 133d e36c fbb9 87cf d1bc 23fe c9bc
00000080: 206e 84bc ec4f 143d 878d 883c 7ad0 39bd
00000090: 3eb1 b9bd 6c1b 19bd 5554 3bbd c555 edbc
000000a0: 16bd 1bbd 7dc9 503c 3e76 f2bc 53eb a2bc
000000b0: e5dc 3ebd d593 22bd 7def 4e3b f121 84bc
000000c0: 286d 373d 4745 d93c 9d3b 273c 89b9 453d
000000d0: e598 bfbc cd0a 93bc 1193 523d a81b 0fbe
000000e0: 2582 293d f7ea 30bc 73f4 a6bc 8eba 913c
000000f0: ef84 dabc 30f1 733d 5dd9 58bd 3345 b1b8
00000100: 1243 a6bc 3c6c 5a3c 87cf 9c3c d5fc 4dbd
00000110: 5703 17bd 402a 36bd d9d0 ff3a 8ca4 23bd
00000120: a335 d43b d1f8 fdbc 2bbb 143d fbd7 d93b
00000130: e5d3 c7bc 3752 713c e0bf 183c 486b 6bbc
00000140: 6f46 edbc 02f0 27bd 990e 98bd 05e4 ab39
00000150: f521 293d c589 eb3c 6c54 9f3c 2986 e7bc
00000160: 0f81 04be 1390 db3d f1ec 503d ef0e ec3a
00000170: 3410 44be 59ed 7c3d 8025 183b 3b67 84bd
00000180: 9222 933d f011 1c3d 487c d23c 6832 b03d
00000190: 43fc b9bd 7af5 c13c 170f 283d 682b 4abd
000001a0: 1afa 2839 a3a3 b13c c391 003b c32d 2c3d
000001b0: 39ff 80bd b099 a0bb 1f65 663d 3ebb 07bc
000001c0: 0e20 0b3d 2b23 5bbd cac8 0d3b 1faa ba3c
000001d0: 6fe7 953c dc26 563d c522 a7bd 5250 e93c
000001e0: 4935 3dbb a4fb 553d b41e 433c e82c c3bc
000001f0: 9838 a1bd 9ba1 c2bd d2a2 8d3c c7c2 73bd
00000200: 6366 623c a75f 94bc 543e 8bbd c913 febd
00000210: f4fa 3abd a148 f5bc 9b87 0c3d 74d8 293d
00000220: b24f 5fbc 0c48 12bc 9ea7 303d df3c 2dbd
00000230: 2961 0c3c 21f6 8abc dcd1 a6bd a9dc 64bc
00000240: dfdf 2ebd 90eb 163d 4fa2 23bb 78c8 9bbd
00000250: 382b 7dbc f438 7e3b f87b d2ba 5292 543c
00000260: 7a53 9abd fa43 723d fd99 cc3c 1e3a 47bd
00000270: 9c84 86bc 399d ab3b 5ca7 a73c 8d2a bdbc
00000280: 4ba3 7cbc 22fa e03c b2e8 9f3b bd09 31bc
00000290: 65ce 1a3d c8e5 833c 8fa5 613b 5db6 7e3b
000002a0: fddd 233c 1048 ea3b 5c7d e0bc 4f32 b3bc
000002b0: 7947 70bd f2cf 9cbd ee48 ef3c 28b9 0f3e
000002c0: 044a 91be a3f2 043d b93b d23c 7817 e4bc
000002d0: b90f 35bc 33f6 d9bc 218b 813d f011 d9bc
000002e0: 04c5 92bd 5cd4 d2bd 0fb9 09be 5fb1 fe3c
000002f0: 36dd b4bc 87d5 e63c b40f cd3c 3300 91bc
00000300: eeac 1f3d 0b00 3cbc 13ec 75bd 7281 dbbc
00000310: c0ca 7d3d f8f4 313c df66 483d ed99 663d
0.051836923 -0.040664013 0.083523095 -0.01777412 0.056100406 0.03053666 0.045799643 -0.049392615
0.0773762 0.0011733872 -0.022844227 0.00788222 0.03783149 -0.045155086 0.03600159 0.011825255
-0.08008467 0.010433834 -0.022610841 0.026253255 -0.04237794 -0.09412745 0.037859816 0.031651415
0.07078039 -0.031636685 0.24268295 -0.015975496 0.036069494 -0.00047955578 -0.025611652 -0.024657315
-0.016165793 0.036209032 0.016669048 -0.045364834 -0.090670094 -0.037379667 -0.045734722 -0.028971562
-0.038022123 0.012743351 -0.029597398 -0.019887602 -0.04659738 -0.039691765 0.0031575852 -0.016129466
0.044781834 0.026522292 0.010207084 0.048272643 -0.023388335 -0.017949486 0.051409785 -0.13975394
0.04138388 -0.0107982075 -0.020380234 0.017789152 -0.026674716 0.059556186 -0.05294167 -8.452907e-05
-0.020295653 0.013331469 0.019141925 -0.050289948 -0.03686842 -0.044473886 0.0019517198 -0.039951846
0.0064761206 -0.031002434 0.03631131 0.0066480613 -0.024393031 0.014729074 0.00932309 -0.01436884
-0.02896425 -0.041000374 -0.07424659 0.0003278555 0.04129215 0.028752217 0.019449435 -0.028262215
-0.12939857 0.10720839 0.051007215 0.0018009822 -0.19146806 0.06174979 0.002321571 -0.06465002
0.07184328 0.038103044 0.025694028 0.08603364 -0.09081318 0.023676623 0.041030016 -0.0493578
0.00016114899 0.021684473 0.001961813 0.04203583 -0.0629868 -0.0049011335 0.05624878 -0.008284388
0.033966117 -0.053500336 0.0021634572 0.022786198 0.018298833 0.052283153 -0.08160929 0.028480683
-0.0028870872 0.052241936 0.011909176 -0.023825124 -0.078721225 -0.0950348 0.017289553 -0.059511926
0.013818356 -0.018112017 -0.067989975 -0.124061175 -0.045649484 -0.029941859 0.03430901 0.04146619
-0.013629841 -0.00892831 0.043128602 -0.04229438 0.008568087 -0.016963067 -0.08145496 -0.013968625
-0.04269397 0.036845744 -0.002496857 -0.07606596 -0.015452199 0.003879127 -0.0016058674 0.012974339
-0.07535453 0.05914686 0.024975771 -0.04863941 -0.016420655 0.0052372483 0.020465545 -0.023091579
-0.015419791 0.027463023 0.0048800344 -0.010805544 0.03779449 0.01610078 0.0034430956 0.0038866021
0.010001657 0.007149704 -0.027403526 -0.021874575 -0.05866191 -0.0765685 0.02920958 0.14035475
-0.28376782 0.03245796 0.025663244 -0.027843222 -0.011051112 -0.026606655 0.06325365 -0.026497811
-0.07166484 -0.102944106 -0.134495 0.031090437 -0.022078138 0.02817799 0.025031902 -0.01770029
0.038983278 -0.01147462 -0.06003959 -0.026795123 0.061960936 0.010861628 0.04892623 0.05629914

gbrbm.log_var f4 [200]
00000000: 5910 cfc0 ab60 d2c0 eae7 d0c0 7118 d1c0
00000010: b258 cfc0 5902 cdc0 b051 cfc0 9f6d cac0
00000020: 470e d0c0 e966 cac0 17e8 d1c0 416d d0c0
00000030: ba01 cfc0 e215 d1c0 07b9 bec0 140d cfc0
00000040: 87f0 cfc0 20d2 cac0 43f3 c2c0 a1f3 d0c0
00000050: f45b cec0 a499 d0c0 c8ed cdc0 6777 b1c0
00000060: 2268 d2c0 7232 d2c0 093c 89c0 d934 cfc0
00000070: cbb1 cec0 7df3 cfc0 8d93 d0c0 6146 d0c0
00000080: fe2f cfc0 58be cdc0 9e4f d0c0 b1f3 c7c0
00000090: 4efd d0c0 1420 cfc0 c60f d0c0 6bd0 d1c0
000000a0: 67d0 cec0 3353 d1c0 cbdc d0c0 8cac d0c0
000000b0: ac97 cdc0 9455 d1c0 297d d1c0 781f d1c0
000000c0: 70e4 cfc0 ddff cfc0 e039 ccc0 b6e7 d1c0
000000d0: 8634 cfc0 4588 cfc0 4924 cec0 7853 d0c0
000000e0: 44d0 cec0 da57 d1c0 adc8 d2c0 da32 cfc0
000000f0: 28cf b2c0 39b4 cfc0 096c d2c0 5181 d0c0
00000100: 1b25 d1c0 9742 cfc0 ebc1 b8c0 04dd cfc0
00000110: 492b cfc0 4e55 d2c0 08f7 d0c0 addf cfc0
00000120: 9856 cfc0 3160 d0c0 b61d d2c0 0db6 c7c0
00000130: f9d2 cec0 4032 d1c0 1d25 d2c0 c831 d1c0
00000140: 2386 ccc0 861e cfc0 8e5e d0c0 c37a d0c0
00000150: 3b49 d0c0 6328 d0c0 b73d d0c0 217b c9c0
00000160: eab6 cfc0 4c67 9cc0 aba1 cfc0 1597 d0c0
00000170: a8bf 90c0 fcdf cfc0 dbbc d0c0 4a23 cfc0
00000180: d0b7 d0c0 3046 d0c0 7689 c3c0 c93d d0c0
00000190: 1976 d0c0 404c cfc0 4fd0 cec0 3c1f cbc0
000001a0: 6727 d0c0 a96c cec0 6c75 d1c0 b998 d0c0
000001b0: 0225 cdc0 a6b4 d0c0 86ce d0c0 8336 cfc0
000001c0: 6aaf cec0 56f9 d0c0 bb20 d1c0 30fa d1c0
000001d0: b941 cfc0 c3cf d0c0 8607 d1c0 6974 cfc0
000001e0: f120 cec0 4d77 d0c0 7734 ccc0 e057 d1c0
000001f0: 6371 d0c0 54cf cfc0 627d d0c0 6780 d0c0
00000200: b97f d0c0 dba5 c9c0 6bff c6c0 4300 99c0
00000210: 320c cfc0 cfea cec0 2c67 cfc0 c038 cfc0
00000220: d3cb cfc0 0379 d0c0 9828 d1c0 b2b6 cfc0
00000230: 8f3d d1c0 fcb9 c8c0 e25b cbc0 5f4c d1c0
00000240: 3e6c cfc0 049a aac0 53fa cfc0 b84c a8c0
00000250: 6217 cec0 31dd cec0 5fd9 c1c0 7698 cfc0
00000260: 27a3 cbc0 8fef cec0 239e d0c0 b1eb cfc0
00000270: 9b2a cfc0 e236 d1c0 c064 ccc0 39b7 cfc0
00000280: 7a6a d0c0 893a cfc0 1f66 bac0 c620 d0c0
00000290: 0ff0 aec0 fc79 cfc0 874c d1c0 71bc d1c0
000002a0: dfa1 cdc0 7581 c8c0 2ea9 d0c0 6449 c9c0
000002b0: a682 d1c0 4ac6 cfc0 14bf cfc0 f689 d0c0
000002c0: a599 86c0 0fa9 cec0 838b cdc0 9ef1 ccc0
000002d0: 8af6 bdc0 4e28 d0c0 4c60 d0c0 a9ec cfc0
000002e0: c0d8 c7c0 1f3e cec0 6afe 97c0 766a d2c0
000002f0: b044 cec0 5710 cdc0 56c9 d1c0 a40e d0c0
00000300: 21e5 cfc0 da9c d1c0 17e1 d0c0 5b5e cec0
00000310: 8bf6 cfc0 e2df cec0 22b7 ccc0 b84f d1c0
-6.4707456 -6.5743003 -6.52831 -6.5342336 -6.479577 -6.4065366 -6.4787216 -6.3258815
-6.501743 -6.3250623 -6.5595813 -6.5133367 -6.468961 -6.5339212 -5.9600863 -6.4703465
-6.4981112 -6.33815 -6.092195 -6.52974 -6.4487247 -6.518755 -6.435276 -5.5458255
-6.5752115 -6.568658 -4.2885785 -6.475201 -6.4592032 -6.4984727 -6.5180116 -6.508591
-6.4746084 -6.4294853 -6.509719 -6.2484975 -6.530921 -6.472666 -6.5019255 -6.5566916
-6.4629397 -6.541406 -6.5269523 -6.521063 -6.4247646 -6.5416965 -6.5465283 -6.5350914
-6.4966354 -6.4999833 -6.382065 -6.559535 -6.4751616 -6.4853845 -6.4419293 -6.510189
-6.462923 -6.541974 -6.5869966 -6.4749575 -5.5877876 -6.49075 -6.575688 -6.5157857
-6.5357795 -6.4768786 -5.7736716 -6.4957294 -6.474034 -6.572913 -6.530155 -6.496054
-6.4793205 -6.511742 -6.566127 -6.240973 -6.4632535 -6.537384 -6.5670304 -6.537327
-6.391374 -6.472476 -6.5115423 -6.5149856 -6.5089393 -6.50493 -6.5075336 -6.2962804
-6.4910784 -4.8876095 -6.488485 -6.5184426 -4.5233955 -6.496092 -6.5230536 -6.4730577
-6.522438 -6.508568 -6.11053 -6.507542 -6.514416 -6.478058 -6.4629283 -6.347563
-6.50481 -6.450764 -6.5455837 -6.518643 -6.4107676 -6.522052 -6.5252104 -6.4754043
-6.458913 -6.5304365 -6.5352454 -6.5617905 -6.476773 -6.5253615 -6.5321684 -6.48296
-6.441521 -6.514563 -6.3814044 -6.541977 -6.513841 -6.4940586 -6.5153055 -6.515674
-6.515591 -6.301496 -6.218679 -4.781282 -6.4702387 -6.466163 -6.481344 -6.4756775
-6.493631 -6.514772 -6.5362053 -6.4910517 -6.5387645 -6.272703 -6.354966 -6.5405726
-6.481963 -5.3313007 -6.499307 -5.259365 -6.4403543 -6.464501 -6.0577846 -6.487361
-6.363666 -6.466743 -6.519304 -6.497521 -6.473951 -6.5379496 -6.3872986 -6.491116
-6.5129976 -6.4758954 -5.824966 -6.5040007 -5.466804 -6.4836407 -6.5405917 -6.554253
-6.4260097 -6.265803 -6.520652 -6.290209 -6.5471983 -6.492955 -6.492075 -6.516841
-4.2062554 -6.458137 -6.4232802 -6.4044943 -5.936345 -6.50492 -6.511755 -6.497639
-6.2452087 -6.445083 -4.7498064 -6.5754957 -6.4458847 -6.4082446 -6.555827 -6.501787
-6.49672 -6.550397 -6.527477 -6.449018 -6.4988456 -6.4648294 -6.397355 -6.5409813
