final_project/gru_gbrbm_H_per_2 (drop 0.1*0.2)/type1/gru_gbrbm_W20_H50_B32.pt (torch, 64977 bytes, 9 tensors)

lstm_layer.lstm1.weight_ih_l0 f4 [150, 16]
000000 5f 99 be b7 07 f1 cf b7 0f 95 e7 b7 d0 d9 ca 37
       -2.2721184e-05 -2.478856e-05 -2.7606757e-05 2.4181703e-05
000010 28 d6 34 37 ce d3 1c 37 b5 90 c9 b6 8b f3 b0 b7
       1.0778698e-05 9.347639e-06 -6.007113e-06 -2.1094243e-05
000020 f1 9a 34 37 96 96 25 38 00 5a 85 37 83 c2 09 39
       1.0764911e-05 3.947931e-05 1.5896745e-05 0.000131378
000030 71 72 9d b8 f0 24 d7 b6 7c 17 52 b7 29 c9 c3 b7
       -7.50766e-05 -6.4117994e-06 -1.2522443e-05 -2.3339484e-05
000040 15 5b 11 b9 e8 5d a8 b7 96 8e ca b7 a4 a9 bb 35
       -0.00013862208 -2.007089e-05 -2.4146673e-05 1.3981958e-06
000050 49 06 2b 37 13 d2 2b b7 0b 3e 23 b6 17 08 03 b7
       1.0193858e-05 -1.0241306e-05 -2.4325007e-06 -7.810092e-06
000060 32 38 e8 36 36 19 14 37 33 f4 87 b6 38 8c 82 36
       6.920681e-06 8.827357e-06 -4.051742e-06 3.8906255e-06
000070 f0 c6 e5 b7 3c f5 e3 38 ec aa 06 b8 9c b7 94 b7
       -2.7391565e-05 0.00010869882 -3.2107273e-05 -1.7728475e-05
000080 33 b0 59 37 34 50 10 38 ac 6c 68 37 4f af c7 38
       1.29752325e-05 3.440697e-05 1.385358e-05 9.521713e-05
000090 ad 85 36 37 cc ec 6e 37 b9 8c 8f 36 b4 af 3e 37
       1.0879169e-05 1.4241039e-05 4.2781144e-06 1.1365792e-05
0000a0 0b ad e1 36 4f 46 31 37 31 1b b8 35 40 21 87 36
       6.7256674e-06 1.0566392e-05 1.3716982e-06 4.0271843e-06
0000b0 28 0e a5 b7 f4 a5 c9 36 6b d1 51 37 d8 b6 72 37
       -1.9676125e-05 6.0095863e-06 1.250613e-05 1.4466896e-05
0000c0 95 c3 88 38 b6 0f 66 38 86 04 8f 38 74 dc 8f 38
       6.521415e-05 5.4850905e-05 6.819614e-05 6.859834e-05
0000d0 7c f9 54 37 91 f3 c7 b8 11 be 90 b8 8d e2 5e b8
       1.2694272e-05 -9.534427e-05 -6.901858e-05 -5.3139916e-05
0000e0 a0 2d bc 36 d6 9f a0 38 36 bd 2b 37 27 2d c5 b8
       5.608148e-06 7.659166e-05 1.0236448e-05 -9.402102e-05
0000f0 01 2d f7 b8 d5 aa 29 b7 cb 29 3d 38 e5 54 13 39
       -0.000117862604 -1.011296e-05 4.5100034e-05 0.00014050638
000100 bc 99 fa 37 73 3f 1c b8 32 f4 58 b8 4b bf cd 37
       2.987391e-05 -3.725239e-05 -5.1725838e-05 2.4526982e-05
000110 12 57 9f 37 7c 5f dc b8 fd 86 c2 37 ae 91 a3 b7
       1.8994822e-05 -0.00010508203 2.3189461e-05 -1.9498952e-05
000120 ef 72 ac 37 92 18 ac 37 c8 2a a8 37 df 3d 02 b7
       2.0557518e-05 2.051544e-05 2.0047082e-05 -7.763009e-06
000130 1f 19 3c b8 1e 3f 26 37 15 3b 62 b8 c8 39 57 b8
       -4.484609e-05 9.909067e-06 -5.3937623e-05 -5.1313807e-05
000140 20 49 93 b7 c9 bb 96 b7 3a 7b 85 b7 ea eb 1f 36
       -1.7557817e-05 -1.7968838e-05 -1.5912217e-05 2.3830166e-06
000150 b3 0d 8c 36 9e 6b 05 37 7b 6b a2 b4 23 98 ac b3
       4.17392e-06 7.952474e-06 -3.0253054e-07 -8.037048e-08
000160 25 44 68 36 0b 8d 04 37 0a 0c a5 36 4b bf 8c 37
       3.461036e-06 7.900652e-06 4.9187847e-06 1.6778378e-05
000170 74 df 8e b7 52 2c 97 b6 bb 8a 8b b7 f9 2e 92 b7
       -1.7031773e-05 -4.5053102e-06 -1.6634693e-05 -1.742643e-05
000180 a6 ce c4 b7 f0 86 d2 b7 ae 8a 59 37 de 1a 46 37
       -2.3461249e-05 -2.5096786e-05 1.2966497e-05 1.1807975e-05
000190 d6 c8 46 37 b5 c1 6b b7 08 f5 a8 b7 75 bf bf b6
       1.184848e-05 -1.40521925e-05 -2.0141262e-05 -5.714532e-06
0001a0 49 34 bb 36 64 17 e9 36 20 06 21 b8 cc 9f 48 38
       5.579121e-06 6.946664e-06 -3.8391096e-05 4.783254e-05
0001b0 4c cf a1 b8 0c 57 da 36 90 b2 04 b8 05 63 59 b8
       -7.71569e-05 6.50704e-06 -3.163755e-05 -5.182905e-05
0001c0 f5 07 8a 37 f0 19 08 38 4c d6 3c 38 16 fc 99 37
       1.6454587e-05 3.2449083e-05 4.5022272e-05 1.8356408e-05
0001d0 e0 f7 1b 38 d0 91 1c 38 db 23 70 38 e1 9e ab 36
       3.718573e-05 3.7329097e-05 5.7253852e-05 5.114693e-06
0001e0 55 00 19 37 ed 0c f7 b8 90 0d a0 b5 3c 9f 6d 37
       9.119588e-06 -0.000117802854 -1.1924876e-06 1.4163375e-05
0001f0 f0 f6 09 b7 c5 31 0d 36 99 2f 84 37 5b 4a 0b 38
       -8.223331e-06 2.1039607e-06 1.575779e-05 3.320943e-05
000200 f6 b2 2c 37 e8 3b 9a 35 4d 8f c5 34 6e 29 fc 36
       1.02936665e-05 1.1491329e-06 3.6798374e-07 7.5150083e-06
000210 ca 0f d0 38 6f 60 db 35 b8 1c 5a 36 4c cd 62 b7
       9.921154e-05 1.6344837e-06 3.2501248e-06 -1.3518449e-05
000220 88 09 25 37 ef b0 a6 35 55 e1 59 37 ba e3 c0 36
       9.836986e-06 1.2419458e-06 1.2986672e-05 5.7485568e-06
000230 37 46 30 37 88 76 93 34 92 af b8 36 e2 ff b5 37
       1.0506766e-05 2.7467127e-07 5.5040664e-06 2.1696036e-05
000240 19 cc d9 b7 82 78 e2 b7 11 a3 41 37 bd c8 02 38
       -2.5963456e-05 -2.6997415e-05 1.1541663e-05 3.1181367e-05
000250 3b d6 3e 38 a3 ab 13 38 d0 fb 11 38 e2 30 80 b8
       4.5499048e-05 3.520738e-05 3.4805213e-05 -6.112621e-05
000260 f7 2d ed 36 0d 19 b0 b6 c5 4d 81 b7 59 53 94 37
       7.0685014e-06 -5.248125e-06 -1.5414213e-05 1.7681787e-05
000270 51 be 07 b7 58 59 89 b8 da 0d 9d b5 46 88 1b b8
       -8.0909385e-06 -6.549311e-05 -1.1701443e-06 -3.7081794e-05
000280 e4 81 3c 37 5b 85 a9 b7 0d e2 48 36 c8 e8 96 35
       1.1235916e-05 -2.0208468e-05 2.9933901e-06 1.1243619e-06
000290 08 34 2c 35 13 de f9 b5 ec 6d 4a b8 f6 11 46 b6
       6.415071e-07 -1.8616578e-06 -4.8262926e-05 -2.9514754e-06
0002a0 9e 59 99 b6 e6 6e 22 37 4d ed 93 35 6d 75 7c b8
       -4.570188e-06 9.681773e-06 1.1021417e-06 -6.0190843e-05
0002b0 75 f6 e0 b8 43 d6 b1 b8 f3 1f 44 37 54 0e 35 37
       -0.000107270585 -8.479927e-05 1.1689949e-05 1.0791777e-05
0002c0 89 a8 7b 38 30 07 1d b8 78 df 21 b8 86 54 a4 36
       6.0000024e-05 -3.743841e-05 -3.8593513e-05 4.8974207e-06
0002d0 12 7a c3 b7 aa 38 91 b8 ba a1 6e b7 cf cc a8 b8
       -2.3302655e-05 -6.924693e-05 -1.422356e-05 -8.049013e-05
0002e0 dd f1 bd 38 0d c5 30 38 c5 31 b5 36 c9 94 62 b7
       9.057273e-05 4.2145188e-05 5.4000143e-06 -1.35052915e-05
0002f0 c2 70 a8 b8 31 42 32 b8 cc 0c 09 b8 98 94 1c b8
       -8.031867e-05 -4.2500153e-05 -3.2675263e-05 -3.7331687e-05
000300 ff 77 71 b6 8a 2f a2 b6 f7 d7 c5 37 0a 79 5d 37
       -3.5981645e-06 -4.8335105e-06 2.3584797e-05 1.3200808e-05
000310 8d 1f 0c 36 0b 2a 3a 36 16 af 4f 35 25 9a ab b5
       2.087999e-06 2.7740632e-06 7.736829e-07 -1.2785355e-06
000320 94 7d 14 36 c3 95 cc b4 cc 2c bd 34 a0 d2 f8 34
       2.2126815e-06 -3.8106927e-07 3.5236587e-07 4.634685e-07
000330 b0 42 08 38 cc 6d 3f b6 a0 46 a0 b6 35 67 8c b7
       3.2487034e-05 -2.8525128e-06 -4.7765934e-06 -1.673736e-05
000340 c8 3f 4d 38 dc a7 03 38 4b e4 13 38 fc 67 e2 b7
       4.893521e-05 3.1389165e-05 3.5260146e-05 -2.6989721e-05
000350 74 57 9d 36 f0 cf 1b 37 91 84 8a 36 49 82 f3 36
       4.6891455e-06 9.287134e-06 4.1281533e-06 7.2571315e-06
000360 72 6d 9a 36 0b b6 19 b7 e6 40 91 36 ab 50 60 36
       4.6022988e-06 -9.161896e-06 4.328892e-06 3.3425556e-06
000370 1a d8 c9 b7 a2 3b 07 36 d3 a3 3e 38 78 32 00 38
       -2.4061697e-05 2.0151278e-06 4.5452103e-05 3.056458e-05
000380 22 4d 02 b8 2c 53 b2 b7 c7 9d 15 37 69 c7 60 b6
       -3.106625e-05 -2.1257983e-05 8.9178275e-06 -3.3494673e-06
000390 76 b6 03 38 27 c1 ad 37 fd 37 fa 36 9e 57 9e b8
       3.1402764e-05 2.071315e-05 7.4570985e-06 -7.550347e-05
0003a0 b6 fe 0e 38 e7 55 e6 37 43 34 14 37 9e e8 1e 37
       3.4092656e-05 2.7458138e-05 8.833656e-06 9.471694e-06
0003b0 a9 fa 6e b8 7e fd 3f 37 dc 0a 84 38 40 32 b7 b7
       -5.6977067e-05 1.1443508e-05 6.296273e-05 -2.18387e-05
0003c0 d2 e3 00 37 ad d9 14 b9 e6 b1 49 37 56 4a 3d 37
       7.682438e-06 -0.0001419547 1.2021954e-05 1.1282586e-05
0003d0 3a 1b e1 b4 bb 12 b2 36 e0 5f 2e 36 10 35 69 b8
       -4.1929326e-07 5.306994e-06 2.5983827e-06 -5.5600947e-05
0003e0 05 06 16 36 79 00 8d b5 35 8a b7 b4 0a bd a4 35
       2.2355246e-06 -1.0505456e-06 -3.4186965e-07 1.227397e-06
0003f0 28 e2 a2 b6 bf 3d 91 34 c0 12 5b 37 55 10 8e 37
       -4.8543043e-06 2.705328e-07 1.3057783e-05 1.6935324e-05

lstm_layer.lstm1.weight_hh_l0 f4 [150, 50]
000000 47 c6 6b 38 12 db 9d b6 a6 7b 6c b8 ed e8 00 36
       5.6213026e-05 -4.7044678e-06 -5.638194e-05 1.9209067e-06
000010 7d fa 97 36 8e 8d 9a 36 fa cc b2 b7 08 84 86 b6
       4.5293114e-06 4.606037e-06 -2.1314703e-05 -4.0088817e-06
000020 06 ba 93 38 c9 bd af 36 ae 27 7f b7 85 e3 f6 b6
       7.044156e-05 5.2375003e-06 -1.5208423e-05 -7.357858e-06
000030 f2 da 5c 35 9c 42 68 37 eb 42 47 33 6a 08 84 b5
       8.2274994e-07 1.3843786e-05 4.639416e-08 -9.837215e-07
000040 e2 27 93 b6 8c b6 99 b6 bc 8e 62 b6 bc bf f0 37
       -4.3855844e-06 -4.5810066e-06 -3.3759707e-06 2.8699513e-05
000050 b3 14 9f 35 f0 03 ef b7 c1 40 cf b8 5e 0a d0 36
       1.1852447e-06 -2.8492854e-05 -9.8825905e-05 6.20009e-06
000060 28 ab 4b 37 c2 4d b2 36 29 cb c3 36 4b b2 39 b6
       1.2139593e-05 5.3138656e-06 5.835104e-06 -2.7670928e-06
000070 48 dc 1b b8 59 f4 63 35 46 46 f7 34 b0 1f b5 b8
       -3.7160033e-05 8.491966e-07 4.6058466e-07 -8.636655e-05
000080 2e 2d bb b8 7a 05 7d 36 7c 8b d4 b7 3b 26 a8 36
       -8.92527e-05 3.7703126e-06 -2.5337322e-05 5.011241e-06
000090 24 df 38 37 61 9c a4 36 fd e7 a6 b7 fe 67 07 34
       1.1019209e-05 4.9057858e-06 -1.989677e-05 1.2610687e-07
0000a0 ed 4c 45 36 14 54 f9 b5 21 3f be b5 67 36 45 37
       2.9400064e-06 -1.8576416e-06 -1.4174476e-06 1.1754782e-05
0000b0 6f d7 d1 34 02 61 b5 b5 42 ff 94 b6 c6 e7 8c b5
       3.9086032e-07 -1.3513784e-06 -4.4404596e-06 -1.0498268e-06
0000c0 b8 ab 71 b7 bd a9 ae b6 88 cb 8d b6 30 9d 79 b6
       -1.4404701e-05 -5.2053642e-06 -4.2258216e-06 -3.7195387e-06
0000d0 72 7d 27 36 e3 ea 28 36 05 bc 56 38 69 19 00 b8
       2.4957958e-06 2.5170673e-06 5.1196683e-05 -3.0541243e-05
0000e0 7e 77 81 b4 2d 24 3e b6 fc 72 a6 b8 3a 4d 1c b7
       -2.4115064e-07 -2.8333263e-06 -7.936914e-05 -9.316305e-06
0000f0 11 4f ca b4 8e 36 00 36 9d 13 b0 b5 fd 2e cb b5
       -3.768296e-07 1.9105241e-06 -1.311873e-06 -1.5138354e-06
000100 14 fe 6c 36 57 0e fb 38 15 7f 8f b6 a0 ac 45 b7
       3.5314633e-06 0.00011971284 -4.2765264e-06 -1.1782307e-05
000110 fa 73 0e b6 fa cf 8c 36 18 99 6a 36 4e 9b 2c 35
       -2.1227156e-06 4.196537e-06 3.495783e-06 6.430099e-07
000120 d6 53 01 b9 0c 10 a5 b7 46 e3 1c 35 03 68 5a 36
       -0.0001233363 -1.9677005e-05 5.8445255e-07 3.2545074e-06
000130 41 af 90 36 3d ae 46 b6 75 8a a8 b5 5e 99 ab 35
       4.3119367e-06 -2.960572e-06 -1.2557272e-06 1.2785129e-06
000140 61 41 39 b6 73 29 61 36 eb a8 57 36 46 43 3e 36
       -2.7605204e-06 3.355174e-06 3.213582e-06 2.8351365e-06
000150 e0 a6 8e 36 62 1f 1c b6 00 70 d2 38 6b ab 19 b6
       4.2513566e-06 -2.3264079e-06 0.00010034442 -2.2898555e-06
000160 91 aa 48 b6 b1 46 f4 35 30 39 0b 36 15 8b e3 b4
       -2.9901605e-06 1.819999e-06 2.0745902e-06 -4.238324e-07
000170 c3 46 e0 36 f5 d8 7d 36 8f b0 2c 36 96 a7 19 b8
       6.683958e-06 3.7826223e-06 2.5732768e-06 -3.663412e-05
000180 55 15 90 b6 2f cd 2e b6 14 04 1a b6 6b 11 8b b6
       -4.294018e-06 -2.6047453e-06 -2.2950162e-06 -4.1445505e-06
000190 57 a4 cd 36 21 ba f5 35 b8 37 0d b6 c2 ac 20 b6
       6.1286078e-06 1.8308093e-06 -2.104307e-06 -2.3942416e-06
0001a0 8e 58 e1 b5 61 24 a9 b5 e9 45 b1 35 f8 77 1a 36
       -1.6789579e-06 -1.2602069e-06 1.3207874e-06 2.301762e-06
0001b0 50 11 f9 b8 c4 d3 b4 36 37 26 67 b4 f1 73 67 36
       -0.0001187647 5.389071e-06 -2.1527454e-07 3.448917e-06
0001c0 7a bf b6 35 d5 8e e3 34 12 7c 67 b5 c2 08 92 37
       1.3615784e-06 4.238597e-07 -8.623475e-07 1.7408634e-05
0001d0 01 f5 0e 36 54 f4 81 38 dd c2 db 38 56 7c 11 b6
       2.130226e-06 6.196709e-05 0.0001047903 -2.1679057e-06
0001e0 45 e0 ba b5 e6 54 69 b5 66 2d 0c b6 7a 85 29 b6
       -1.3923351e-06 -8.692281e-07 -2.088805e-06 -2.5260656e-06
0001f0 ca 79 00 b5 cb 9e 10 b6 e0 39 86 b6 8a 46 3a 38
       -4.786094e-07 -2.1550102e-06 -4.0002487e-06 4.441155e-05
000200 64 88 5c 34 a0 79 99 37 f0 31 3a 36 ce d7 e4 b5
       2.0538715e-07 1.8295657e-05 2.7745227e-06 -1.7050131e-06
000210 5d 8c c3 b5 c8 fb 00 36 c4 5f 41 b6 d4 e2 ab 35
       -1.4569483e-06 1.9220042e-06 -2.8814984e-06 1.2806508e-06
000220 f6 ee f3 b5 49 05 a8 35 71 b7 75 35 1a 5e 3b b4
       -1.8174458e-06 1.2518514e-06 9.1536555e-07 -1.7449966e-07
000230 0a 57 ca 31 b7 44 25 37 97 95 26 35 12 56 f5 b4
       5.888869e-09 9.850765e-06 6.20575e-07 -4.569743e-07
000240 cf 97 24 b6 ef 70 10 b7 35 21 89 35 bd 99 b0 35
       -2.4526269e-06 -8.609363e-06 1.021696e-06 1.3157766e-06
000250 2d 56 2e 35 91 f4 b2 37 df 2f bf b8 96 83 70 38
       6.4945453e-07 2.1333139e-05 -9.1165064e-05 5.7343008e-05
000260 16 7e 1a b8 d7 b7 64 38 f3 05 33 b6 21 aa e8 37
       -3.6833888e-05 5.453065e-05 -2.6676541e-06 2.7735778e-05
000270 e6 32 3b 36 db ff e0 b7 49 a8 87 37 71 7d e8 37
       2.7894798e-06 -2.6822023e-05 1.6171618e-05 2.7714968e-05
000280 e5 ae 3c 35 7f 4e da 37 08 90 09 36 3c 70 90 b4
       7.028996e-07 2.6024178e-05 2.0498428e-06 -2.690375e-07
000290 a6 16 da b7 14 16 94 35 57 ce 12 35 46 15 1c 38
       -2.5998172e-05 1.1033285e-06 5.46895e-07 3.721311e-05
0002a0 cd 3f 27 36 4f f2 8b b7 3b 93 8a b8 e2 dd e9 b7
       2.4922076e-06 -1.6682925e-05 -6.6077766e-05 -2.7879087e-05
0002b0 6c cd 49 31 3f 29 4a b5 99 dc b9 b5 05 34 1d b8
       2.9366118e-09 -7.5310885e-07 -1.3847776e-06 -3.7480164e-05
0002c0 92 37 1b b8 e7 43 6b 36 78 60 11 36 ad f4 00 b5
       -3.7006634e-05 3.5057253e-06 2.1662836e-06 -4.8039766e-07
0002d0 7b c1 99 35 cf 70 84 b6 2d c8 70 b7 cf c3 e5 34
       1.1455699e-06 -3.947039e-06 -1.4351722e-05 4.2797043e-07
0002e0 4a b3 6c b6 3e 35 41 b7 8f fe a0 35 da dc 53 37
       -3.52711e-06 -1.1516093e-05 1.1995015e-06 1.2628001e-05
0002f0 13 e9 12 b5 c3 05 b3 b5 0a a8 d2 b5 df 26 b0 35
       -5.4728406e-07 -1.3338216e-06 -1.5695125e-06 1.3124335e-06
000300 75 85 4a 36 f6 bc 85 b6 39 48 df 34 bf a7 19 36
       3.0178028e-06 -3.985707e-06 4.1589536e-07 2.2896418e-06
000310 8e 7a 98 37 cd b2 c0 37 fb f0 74 35 32 50 82 36
       1.8176881e-05 2.2971444e-05 9.1247756e-07 3.883638e-06
000320 14 d6 d5 b7 54 2d c0 b6 ee 39 92 36 90 76 6a 35
       -2.5491267e-05 -5.727323e-06 4.357883e-06 8.7344324e-07
000330 8e 4a ea 36 78 cb 90 38 03 84 c4 b6 00 0c b7 b6
       6.9824227e-06 6.904354e-05 -5.8566234e-06 -5.455222e-06
000340 c9 f0 92 b6 a9 1e 0e b7 2e 41 d0 35 bf 5a 1e b7
       -4.37917e-06 -8.470998e-06 1.5516177e-06 -9.438662e-06
000350 ba 03 dc b5 44 8f 04 b9 a8 5e e9 36 20 9b e6 b5
       -1.6392362e-06 -0.00012641872 6.9549606e-06 -1.7181483e-06
000360 66 14 f0 b6 e8 11 e5 b6 41 39 93 b6 85 57 10 37
       -7.154932e-06 -6.8268164e-06 -4.3876066e-06 8.603446e-06
000370 ef 4e b6 36 d0 38 90 36 4d c9 88 37 54 a2 e0 36
       5.4332118e-06 4.2981483e-06 1.6306201e-05 6.6946177e-06
000380 cc 5f 22 36 1f 09 ff 38 ae 7c 1f 37 c8 ed d2 b6
       2.4195642e-06 0.000121610465 9.506168e-06 -6.286169e-06
000390 40 5a 39 b6 1a 3f b4 35 47 85 e0 b6 a1 38 bd 36
       -2.761968e-06 1.342941e-06 -6.6912357e-06 5.6392314e-06
0003a0 a2 c9 b4 36 c5 b4 e1 36 cd f8 d4 36 2d e9 8f b7
       5.387891e-06 6.726567e-06 6.3470566e-06 -1.715551e-05
0003b0 54 56 01 37 39 67 97 35 bd 4b cf b6 5d 67 8b 33
       7.709099e-06 1.1280418e-06 -6.177898e-06 6.4914936e-08
0003c0 32 b3 81 36 02 7d 0f b6 3c b6 ee b5 99 bc 03 37
       3.8653607e-06 -2.1381425e-06 -1.7785419e-06 7.85212e-06
0003d0 1e 3d ac 36 1c 33 9f 36 07 8c c4 b6 2d 80 a9 b6
       5.1331144e-06 4.744519e-06 -5.8575565e-06 -5.051514e-06
0003e0 dc 6c 8c 38 0f 95 bc b6 a0 5c 4e b6 15 c2 02 b6
       6.695997e-05 -5.6201893e-06 -3.0750307e-06 -1.948448e-06
0003f0 20 f4 f1 35 1d c1 ba b5 bd 16 65 b7 bd 4a 12 36
       1.8026949e-06 -1.3914283e-06 -1.3654758e-05 2.1799199e-06

lstm_layer.lstm1.bias_ih_l0 f4 [150]
000000 42 ee cc 38 38 72 97 37 2d 60 52 37 bb 79 b7 38
       9.771857e-05 1.805379e-05 1.2539368e-05 8.748794e-05
000010 74 80 3e 38 58 44 91 37 0e fc 7c 37 40 f9 15 38
       4.541916e-05 1.7317172e-05 1.50790565e-05 3.57565e-05
000020 f5 23 83 38 b0 7f 07 37 56 00 69 37 04 0d 8c 38
       6.253264e-05 8.076357e-06 1.388796e-05 6.6781446e-05
000030 7c a6 94 36 4a b0 10 38 49 72 3a 38 c5 10 13 37
       4.430125e-06 3.4496457e-05 4.4452292e-05 8.765787e-06
000040 66 f9 ca 37 02 7e a9 37 91 75 48 36 e4 bc 5f 37
       2.4196412e-05 2.0205047e-05 2.9870755e-06 1.3335815e-05
000050 5c 64 23 38 35 9c f8 38 77 c4 2d 38 78 24 f1 36
       3.8955695e-05 0.00011854657 4.1429386e-05 7.186605e-06
000060 91 af 78 36 ab b8 9a 38 fb 1c b3 37 ef a2 2b 37
       3.7057073e-06 7.377689e-05 2.1351958e-05 1.023033e-05
000070 6e c6 1d 38 fd 8b 44 b8 e7 2c a8 39 d8 8b c0 37
       3.761652e-05 -4.6860416e-05 0.00032076912 2.2953303e-05
000080 a2 72 db 37 b9 32 89 37 0a 46 ba 37 50 97 03 37
       2.6160214e-05 1.6355292e-05 2.2205542e-05 7.843439e-06
000090 bf e0 6c b6 cc 68 3b 36 ea 30 99 37 b5 a6 ef 37
       -3.529756e-06 2.7926171e-06 1.8261799e-05 2.856865e-05
0000a0 25 65 25 36 9f 1e 65 37 0e 3b 40 35 9d 48 21 38
       2.464579e-06 1.3656593e-05 7.161151e-07 3.8453018e-05
0000b0 c3 bc 4e 37 fb 4c 01 39 75 cf aa 37 fc 16 d8 36
       1.2322506e-05 0.00012331076 2.0362184e-05 6.4399774e-06
0000c0 8f 46 12 37 56 16 da 38 98 7d 34 b9 77 d0 f9 38
       8.718706e-06 0.000103992104 -0.00017212925 0.00011912075
0000d0 82 67 c7 b7 ee a1 e6 b7 9c f8 4a 39 2a 8b 51 b8
       -2.3770848e-05 -2.7493541e-05 0.00019356835 -4.995909e-05
0000e0 11 a2 e3 b7 1b c6 ae b8 9d 76 0e b8 e9 c4 0d b9
       -2.7135977e-05 -8.3338666e-05 -3.3965905e-05 -0.00013520163
0000f0 fe 34 7f 36 1b 58 e2 38 38 30 89 36 9c c6 b9 b6
       3.8028807e-06 0.00010792931 4.0885316e-06 -5.536551e-06
000100 a6 f3 96 38 e9 06 05 b7 a7 8d 0f b6 cf 24 74 b8
       7.1979404e-05 -7.929027e-06 -2.1391113e-06 -5.8208414e-05
000110 79 11 bf b7 9f 2b 5e b7 14 f1 5f b8 a2 e6 33 b7
       -2.277711e-05 -1.32423875e-05 -5.3391865e-05 -1.072293e-05
000120 4d 9b 0a b7 5f 5b 11 b8 ba b9 85 36 bc 1a db b8
       -8.2616e-06 -3.465579e-05 3.9853303e-06 -0.000104477134
000130 51 51 cd b7 8e 1d a5 b7 1b ab 50 36 71 d9 bb b5
       -2.447577e-05 -1.9683295e-05 3.1094012e-06 -1.399587e-06
000140 ea 44 49 b8 02 c6 39 b9 dc 37 54 b8 bf 7f a7 b7
       -4.7986316e-05 -0.00017716739 -5.0596762e-05 -1.9967438e-05
000150 0e ba 91 b8 bb c4 0b 37 7b 53 3b b7 48 36 02 b5
       -6.948794e-05 8.3308505e-06 -1.1165505e-05 -4.8507763e-07
000160 45 48 dc b6 12 7b 04 b7 2f b8 98 b6 d9 c8 a7 b3
       -6.564924e-06 -7.896468e-06 -4.551395e-06 -7.8130775e-08
000170 ff 14 16 b7 e7 0a 39 b8 2b 59 e0 36 68 4a 16 b6
       -8.945585e-06 -4.411759e-05 6.6861007e-06 -2.2395052e-06
000180 06 2f 68 38 ae 8b 16 38 6e 04 5d 36 e0 24 a8 b7
       5.5356904e-05 3.5892874e-05 3.2934145e-06 -2.0044332e-05
000190 17 7e 33 bc 72 df 1d bc 06 53 da 3b ad 2b a1 b9
       -0.010955355 -0.009635793 0.006662729 -0.00030740854
0001a0 35 6d 4e 3c ff 7b 12 3c 32 3f 3a bc 40 2b 5b bc
       0.012599279 0.008940696 -0.011367606 -0.013377011
0001b0 c9 fd 2a bb 93 b9 76 bc ee 92 2e 3b 41 79 0e bc
       -0.002609121 -0.015058893 0.002663787 -0.008695901
0001c0 58 42 96 bb 76 76 01 bc 94 02 29 3c 7a 8b eb bb
       -0.0045855455 -0.007901778 0.010315556 -0.0071882578
0001d0 d8 1e 07 bc 84 d9 2c bc 7a c3 09 bc 47 aa 6b 3c
       -0.0082471 -0.010549907 -0.008408422 0.014383859
0001e0 c2 aa 03 3c ac 3c be 3b 22 a5 39 3c b7 b8 3b 3c
       0.008036317 0.0058055725 0.011330875 0.011457614
0001f0 e6 42 83 3b 44 ba de 3b 2a 61 70 3c 33 24 37 bc
       0.0040057776 0.006797107 0.014671603 -0.011178064
000200 dd fa a2 bb e4 70 fb 3a 45 48 1e bc 76 eb 0f 3c
       -0.004973753 0.0019183424 -0.009660785 0.008784166
000210 88 a1 3e 3c 1e 04 2e 3c b2 3b 32 3c 84 28 16 bc
       0.011635192 0.010621099 0.01087849 -0.009164933
000220 f1 e0 12 3c a9 1f b9 bb a7 b9 68 bc 2d e8 1e 3a
       0.008964763 -0.005649526 -0.014204419 0.00060618186
000230 2a 2b 24 3c 5f ca 00 bc b9 b4 35 bb c6 a2 ec 3b
       0.010020057 -0.007860749 -0.0027726127 0.0072215525
000240 20 53 34 3c 5e d8 00 ba 46 42 45 bc ad 41 37 bc
       0.011006147 -0.0004915054 -0.012039727 -0.011185092
000250 ac f9 fe bb ee 5f 46 bc
       -0.007781228 -0.012107832

lstm_layer.lstm1.bias_hh_l0 f4 [150]
000000 17 4d 87 38 20 19 3b 39 51 87 03 b6 23 80 e9 38
       6.451661e-05 0.0001784307 -1.9599286e-06 0.00011134173
000010 4c b7 4a 38 30 80 65 38 36 68 8e 37 36 fa 48 37
       4.833126e-05 5.471724e-05 1.6976246e-05 1.1979186e-05
000020 51 c0 79 38 bf 92 89 38 b2 71 96 37 87 d0 c6 37
       5.9545335e-05 6.560003e-05 1.7934337e-05 2.3700542e-05
000030 e4 ea 5e 36 fe 46 1b 37 77 a5 55 38 50 8c 46 36
       3.3217302e-06 9.255249e-06 5.093726e-05 2.9585972e-06
000040 3a 24 19 38 2b 00 7b 37 c1 48 de b7 78 4d 7c 38
       3.651178e-05 1.4960805e-05 -2.6498341e-05 6.015363e-05
000050 f2 f4 32 38 08 e5 cf 37 b7 56 b8 37 a9 43 84 b5
       4.266663e-05 2.4782974e-05 2.1974889e-05 -9.854458e-07
000060 05 db 19 35 0e 92 8f b8 9d 57 2e b8 bb bd a0 37
       5.7315657e-07 -6.845976e-05 -4.156643e-05 1.9161836e-05
000070 46 37 54 37 87 2c ed 37 31 d3 14 38 b7 a8 81 37
       1.2649054e-05 2.8273336e-05 3.5482637e-05 1.5456562e-05
000080 d3 3b 92 37 37 95 aa 37 8b b3 b2 37 20 04 81 36
       1.7432414e-05 2.0335063e-05 2.130286e-05 3.84498e-06
000090 da 1f 63 38 df d8 3d 36 d7 d5 04 38 0e 47 13 38
       5.415068e-05 2.828943e-06 3.1670406e-05 3.5113706e-05
0000a0 4d 07 01 b8 2d 91 b0 37 3c ad 6e b5 c2 7b 3f 38
       -3.0762796e-05 2.1048438e-05 -8.8914e-07 4.5653207e-05
0000b0 00 d1 19 37 9c 48 c7 34 ad bf df b6 ed 87 cc b7
       9.168172e-06 3.711947e-07 -6.668232e-06 -2.438199e-05
0000c0 82 48 6e 37 f9 96 2d 38 50 25 f4 b8 d3 9a 4e b8
       1.42027875e-05 4.138702e-05 -0.00011641777 -4.925842e-05
0000d0 80 e9 1d b8 f8 9e da b7 07 41 37 38 db 09 81 b8
       -3.764918e-05 -2.606165e-05 4.369116e-05 -6.153035e-05
0000e0 55 a8 dc b7 46 5c a5 b5 90 5e 0a b8 16 41 05 b9
       -2.630443e-05 -1.2320313e-06 -3.2989832e-05 -0.00012708115
0000f0 48 3d 84 36 7f bd 09 b9 bb a0 29 37 20 9a 1e 37
       3.9410406e-06 -0.00013135931 1.0110608e-05 9.453419e-06
000100 2c 4e 06 b8 ef a4 55 36 84 a6 0c b9 29 6b 00 39
       -3.2020893e-05 3.1835477e-06 -0.00013413472 0.00012246952
000110 68 aa 2a b7 68 7e 05 b8 dd cd 74 b8 f6 4a 20 38
       -1.0172465e-05 -3.1827396e-05 -5.836586e-05 3.8216785e-05
000120 0f cf e1 b7 5a da 80 b7 c7 1e 8c 36 c2 df 84 37
       -2.691851e-05 -1.5360467e-05 4.175908e-06 1.5839822e-05
000130 a3 18 8e b8 d6 3c d0 37 ba eb 10 b3 e4 9e d7 b5
       -6.7756766e-05 2.4823861e-05 -3.3742005e-08 -1.6064992e-06
000140 27 0d 24 38 c4 ff 81 b8 58 04 cf b6 3f 83 d1 38
       3.9112896e-05 -6.1988394e-05 -6.1695864e-06 9.990343e-05
000150 10 67 95 b8 39 8c f5 36 16 d9 49 b8 d5 c2 33 b7
       -7.1240705e-05 7.317893e-06 -4.812431e-05 -1.0714594e-05
000160 52 ec 99 36 20 d1 0c b9 a3 35 0d b7 1c 8b e4 36
       4.5872666e-06 -0.00013429346 -8.416743e-06 6.811124e-06
000170 f5 cc 61 b6 6c c2 15 b9 73 4e 69 b7 fe ca 80 b6
       -3.3646913e-06 -0.00014282175 -1.3906148e-05 -3.8383287e-06
000180 88 df 05 b8 7d 5e 58 b6 d9 2f 35 37 ee 91 01 b9
       -3.191785e-05 -3.2241508e-06 1.0799581e-05 -0.00012356762
000190 3a 59 c4 bb 90 6b 88 bb 01 4c 43 3b dd 47 00 3b
       -0.005992082 -0.004163213 0.002979994 0.0019574084
0001a0 73 f7 e7 3b b8 24 b3 3b f6 31 95 bb ea e9 93 bb
       0.007079059 0.0054670237 -0.004553075 -0.0045139687
0001b0 ff 4e d4 ba 58 b3 d3 bb 65 59 81 38 ab 2f 05 bc
       -0.0016197859 -0.0064605884 6.1678504e-05 -0.008129041
0001c0 f0 dd da ba f6 86 65 bb f5 da ab 3b 67 3b 0d bb
       -0.0016698223 -0.003502307 0.0052446076 -0.00215503
0001d0 cb 49 42 bb 4e c3 b0 bb bb 67 7e bb cb ee d2 3b
       -0.0029646035 -0.005394376 -0.0038819152 0.0064371577
0001e0 ee 92 c3 3b 97 d9 1c 3b 2e cb b0 3b f1 9d 97 3b
       0.005968443 0.0023933405 0.0053953147 0.0046269824
0001f0 f1 f9 2d 3b d0 dc 76 3b a3 8a e1 3b d6 f8 a0 bb
       0.0026546682 0.0037668236 0.006882982 -0.004912476
000200 7c b1 d4 ba ff 19 0b 3a 31 79 84 bb a7 0d 85 3b
       -0.0016227211 0.0005306303 -0.0040427675 0.0040604654
000210 df e0 aa 3b b3 e7 aa 3b 2d 6d d0 3b 2c 2e 92 bb
       0.005214795 0.005215609 0.006360671 -0.0044610705
000220 76 94 b6 3b ce d4 24 bb 9b 2d ca bb 60 d6 47 b9
       0.005571897 -0.0025151256 -0.0061699874 -0.0001905798
000230 b1 e9 70 3b b6 26 4a bb dc fb 99 ba e3 19 bc 3b
       0.0036760385 -0.0030845827 -0.0011748034 0.0057403906
000240 b9 d6 a9 3b 91 39 ef b9 ca a1 a4 bb 28 f9 7c bb
       0.0051830676 -0.00045628523 -0.0050241696 -0.0038600657
000250 cc 89 37 bb e5 08 c3 bb
       -0.0028005717 -0.005951988

gbrbm.W f4 [50, 100]
000000 32 29 71 ba d9 35 ae 3b cd 0a 33 bc 91 ca 8d bc
       -0.0009199559 0.0053164777 -0.010927868 -0.017308505
000010 7d 9b 42 bb e9 ba c9 ba cf 52 e7 ba fe 97 82 3c
       -0.002969473 -0.0015390787 -0.001764858 0.015941616
000020 7b ad ee 3b 28 4a ec ba a6 4f a9 3b 3a 3e b1 bb
       0.007283864 -0.0018027471 0.0051669655 -0.0054090293
000030 b7 10 1a bd f9 41 bf 3b 0a 64 c1 bb be 59 c6 bb
       -0.037613597 0.005836722 -0.005901818 -0.0060531786
000040 94 fe ae b8 2b c1 5b 3b 95 e3 4d 3b 41 22 97 bb
       -8.3443854e-05 0.0033531885 0.0031416167 -0.0046122377
000050 f2 e2 1a bd ae f6 df bb 32 22 79 3b 16 a1 24 3c
       -0.03781409 -0.0068348264 0.0038014767 0.0100481715
000060 6e 9f d0 3a 6c 44 6b b9 39 71 02 3c b4 ab c0 bb
       0.0015916654 -0.00022436836 0.007961565 -0.0058798436
000070 62 3b d4 3a 1a 76 4b bb 7a 99 18 3c 0e 84 ba bb
       0.0016192014 -0.0031045736 0.009313935 -0.0056920117
000080 66 8a c4 bb 80 23 f5 bb c3 6e 4e 3b 29 7a ab 3b
       -0.0059979437 -0.0074810386 0.0031499125 0.0052330685
000090 e4 ff 02 bb 91 a9 dd 3b c9 c6 27 3a 1f ba 4c 3c
       -0.0019988948 0.0067645987 0.0006400166 0.012495547
0000a0 12 c0 d5 bb ca f3 bc ba d3 fa 7d ba c4 77 4a bb
       -0.0065231407 -0.0014415917 -0.000968856 -0.003089414
0000b0 9a cb 3c bc 5b d3 cf 3b a7 b4 58 3b 8f cc 96 bb
       -0.011523152 0.006342334 0.0033066662 -0.004602022
0000c0 13 95 52 bb af b0 aa 3b 8b 72 35 3c 4c 5c 07 bc
       -0.0032132312 0.0052090506 0.011074672 -0.008261751
0000d0 47 36 1b bc f0 ba 4d 3b 7b c5 0e bb f7 96 9b ba
       -0.00947339 0.003139194 -0.0021785188 -0.0011870553
0000e0 87 f6 5a 3b 66 ce 54 3b 0a 5c 8c 3b ec 21 8e bb
       0.0033411102 0.0032471656 0.004283433 -0.00433754
0000f0 fd 91 85 bb 94 78 c4 bb ed 76 5e 3c 1b 1c af 3b
       -0.004076241 -0.0059958193 0.013578159 0.0053439266
000100 3a e6 ae bb 37 bd 70 bc ef bf 20 bd 6a d0 f3 3a
       -0.0053375037 -0.01469355 -0.039245542 0.0018601541
000110 95 58 07 bc f8 d3 7e 3b f4 e3 2b bc 75 79 1f 3c
       -0.008260866 0.0038883667 -0.01049136 0.009733547
000120 75 1f a3 3c 90 26 3e 3b 85 1e 6b bb e4 df 2d 3b
       0.01991246 0.0029014684 -0.0035876345 0.0026531154
000130 5d 12 97 3b 40 21 0a 3b b7 4e b8 3b f3 5d 0a 3b
       0.0046103434 0.0021076947 0.005624618 0.0021113127
000140 0e c7 13 bb da f1 cf 3b 72 4b 18 bc fd 66 5c 3c
       -0.0022549066 0.0063459696 -0.009295331 0.013452289
000150 2a ce 38 b9 67 67 72 3a a1 f4 00 3b f1 14 1a bc
       -0.0001762441 0.00092469755 0.001967706 -0.009404407
000160 af 39 64 3b 04 c2 e0 3a 6f a8 1d 3c 3e e6 9e 3b
       0.003482442 0.0017147665 0.009622677 0.0048492244
000170 a4 43 ce ba 49 4a d7 3b 11 5e e3 3b e0 c6 79 3c
       -0.0015736711 0.006570135 0.006938704 0.015245169
000180 f4 6a 71 3c 39 a6 02 3c c4 ac ee 3b c0 fe 8b 3a
       0.014734972 0.007974201 0.007283779 0.001068078
000190 a7 67 1d 3b 56 5d b3 3a 17 98 d6 ba 10 29 2a bc
       0.002401808 0.0013684432 -0.0016372231 -0.010385767
0001a0 3b 39 04 bb 66 fa 25 bb 6b 19 86 3a 1f 84 34 3c
       -0.0020175714 -0.002532625 0.0010230964 0.011017828
0001b0 7c 25 af bb a3 20 89 3b 9d d7 e7 3a f8 36 fc bb
       -0.0053450447 0.004184799 0.0017688159 -0.0076969825
0001c0 c2 1e c2 bc 63 39 25 3c 19 10 01 bc 20 b8 df 3a
       -0.023696307 0.010084483 -0.007877373 0.0017068423
0001d0 ee cc 73 ba 36 db b7 3b d1 60 d3 ba c8 89 2b 39
       -0.0009300251 0.005610849 -0.0016126876 0.00016359158
0001e0 4f b5 8a bc 9e ae 47 bb 85 7f eb ba 88 e4 73 3b
       -0.016932158 -0.003046907 -0.0017967081 0.0037215073
0001f0 d2 85 99 39 5f 6d 48 bb 90 0e a1 3b 69 d0 06 bc
       0.00029282138 -0.0030582768 0.004915066 -0.0082284
000200 1e 8c ef 3a 66 8b 7d 3b ed 10 0b 3c 57 90 da 3a
       0.0018276011 0.0038687824 0.008487922 0.0016675097
000210 6e 60 1f 39 48 8e ee bb 73 27 16 bb 36 f3 13 3c
       0.00015199344 -0.007280145 -0.0022911697 0.009030154
000220 e4 4a 93 bb d0 fc 2e 3c c8 99 2b bb 93 e3 55 3c
       -0.0044950116 0.010680392 -0.002618419 0.013054746
000230 3b 55 3e bb a8 0f c3 3a 1d 87 15 bc 5c f5 4b 3b
       -0.00290425 0.0014881985 -0.009126452 0.0031121587
000240 b9 8f 1e bc d3 58 18 3c 4c a5 60 3b 6a 67 fe bb
       -0.009677821 0.009298521 0.0034278212 -0.0077637928
000250 29 19 b9 3b 9e 5d c7 3b 34 fa 2e 3c ed 90 04 bb
       0.0056487513 0.006084158 0.01067977 -0.0020227984
000260 5f 4d 2b ba 74 11 62 bb a8 15 a9 bb 6f bb fc ba
       -0.00065346615 -0.0034495266 -0.0051600523 -0.0019281934
000270 d9 26 8c 3b 98 d6 93 3b c8 63 94 39 e0 9c 4b 3b
       0.004277092 0.0045116656 0.00028303103 0.0031068847
000280 15 89 6f bb 57 04 c9 bb 17 ce fe 3b 60 71 c0 3b
       -0.0036550213 -0.0061345506 0.0077760327 0.0058728904
000290 9b c8 25 3b 55 b3 28 bc f9 0f 19 bd 85 65 b0 bb
       0.0025296572 -0.010296662 -0.03736875 -0.005383196
0002a0 b3 f0 ac bb ce 3d e6 3a 19 d1 f3 ba f1 5d 1f 3c
       -0.005277717 0.0017566027 -0.0018601745 0.009726987
0002b0 6e 47 ac 3c c7 af 1e 3c 0f 34 43 3b 83 06 16 3b
       0.021030154 0.009685463 0.0029785668 0.0022892065
0002c0 0f 36 92 3b 92 2e ce 3b 35 73 58 3b 18 64 d1 3b
       0.0044620107 0.0062921727 0.0033027653 0.006390106
0002d0 70 61 3d bb 99 ac ce 3b 4e ee 76 ba a9 e5 e8 3b
       -0.0028897189 0.0063071963 -0.00094196654 0.0071074557
0002e0 95 4b 3d ba 37 a0 57 3b a7 ff 87 bb 2c e1 e4 bb
       -0.00072210404 0.0032901892 -0.004150349 -0.0069848504
0002f0 86 9a 59 bb 7a 5f 6d 3b ca d4 b4 3b 78 d7 9e 3b
       -0.0033203675 0.0036220239 0.0055185305 0.004847463
000300 f4 b5 57 3b 1c cb 72 bb 3e e4 d1 3a 2e 9d a4 3b
       0.003291485 -0.0037047332 0.0016013456 0.00502362
000310 9f fd dd 3b d3 69 10 3b 17 50 90 3b 21 c6 06 bb
       0.0067746188 0.0022035732 0.0044040787 -0.0020564871
000320 9b 12 f5 3a d9 5a 11 bc ce 30 e0 3b 38 b7 4e 3c
       0.0018697561 -0.008871757 0.0068417555 0.012616925
000330 5c c9 99 3b b1 8b a1 39 31 35 92 ba b6 32 bb ba
       0.0046931934 0.0003081239 -0.0011154768 -0.0014282081
000340 00 01 53 ba dd a0 fa 39 9c 43 4f 3b 7d 6b 5c 3b
       -0.000804916 0.00047803568 0.0031625992 0.0033633404
000350 f4 95 83 3c 32 42 e2 bb 0a b8 b7 ba 19 31 10 3a
       0.016062714 -0.0069048638 -0.001401664 0.000550048
000360 8c 48 22 3c 76 97 20 bc 23 e9 5b 3b 3e e3 72 bb
       0.009904992 -0.009801736 0.0033555708 -0.0037061716
000370 52 f0 8d 3c ad db 3b 3b e3 13 a9 ba 6a 47 d7 ba
       0.017326508 0.0028664873 -0.0012899603 -0.0016424481
000380 65 e3 02 bc 97 64 8e ba b3 b6 e1 bb c2 91 ac 3a
       -0.007988785 -0.0010863718 -0.0068882345 0.0013165998
000390 19 58 1b 3a 91 ef 8c 3b 87 7f 9f 3a 55 a2 21 bb
       0.00059259083 0.0043010195 0.0012168743 -0.0024663408
0003a0 e2 f3 6f bb 2e 2c 85 3a a9 ef 8a 3a 9f b8 7e bc
       -0.0036613871 0.0010160261 0.0010599989 -0.015546947
0003b0 22 56 78 3a 4c c1 13 bc 1d 0d 8a 39 8e c0 2c bb
       0.0009473284 -0.009018254 0.0002633118 -0.0026359889
0003c0 56 2e 84 3b 34 72 93 bb aa 01 43 3c 50 b3 67 3b
       0.004033844 -0.004499698 0.011902252 0.0035354681
0003d0 37 87 f0 3b 39 a7 89 bb b9 5b 78 bb 37 74 c6 3b
       0.0073403376 -0.0042008427 -0.0037896468 0.0060563344
0003e0 01 ab e0 ba e2 49 0c bc 87 f7 b6 bb 6c 7c 93 3b
       -0.0017140807 -0.008562537 -0.005583707 0.004500916
0003f0 89 54 4e 3b 83 2e 09 38 8e 43 69 39 7a ec 37 bb
       0.0031483492 3.2706663e-05 0.00022245778 -0.0028064535

gbrbm.b f4 [100]
000000 db 03 a8 be aa 0f 8d bd 15 44 4a be b6 95 73 3e
       -0.3281544 -0.06887753 -0.19752534 0.23787579
000010 77 5f 03 be f5 1a 40 3d 36 b0 3e be 38 73 06 bf
       -0.12829386 0.04690071 -0.18621907 -0.5251956
000020 b5 1b 49 be d1 0b c7 bd 26 6a cc bd 0d 32 79 be
       -0.19639476 -0.09719051 -0.09981184 -0.24335499
000030 a8 ba 81 3f 02 fe 1f be d9 63 a0 bd c7 d6 19 3b
       1.0135088 -0.1562424 -0.078315444 0.0023473965
000040 11 fb 69 3d 48 b8 5e 3d ca c6 64 bd 46 0f 68 bd
       0.0571242 0.054374963 -0.055853643 -0.05665519
000050 7c a8 7b 3f 15 77 8b be 74 77 97 bd 95 83 c2 bd
       0.9830396 -0.2723929 -0.07395831 -0.094977535
000060 a1 94 b6 bd 77 70 1f be 24 ea 4b be 52 a0 d2 bd
       -0.089150675 -0.15570246 -0.19913536 -0.10284485
000070 5a e2 1f bd 39 5d 94 bd d5 99 7c be dc 43 8a bd
       -0.039034225 -0.07244343 -0.24668057 -0.067512244
000080 d2 a0 62 be 43 be e6 bd e8 df 75 bb c7 39 a3 bd
       -0.2213166 -0.11266758 -0.0037517492 -0.079700045
000090 10 50 12 be e5 22 8c bd a9 16 9a bd 40 2a 3b be
       -0.14288354 -0.06842593 -0.07523853 -0.18277836
0000a0 7d a9 47 3e bc bf 81 be a7 50 48 be 3c 21 2e be
       0.19498248 -0.25341594 -0.19562016 -0.17004865
0000b0 7a 0b 28 3c 78 58 65 be f6 68 df bd 1f 6a d9 bd
       0.0102566425 -0.2239703 -0.109086916 -0.10615944
0000c0 0a da f2 bd bd 47 80 be f9 92 8b bd 0b d6 d0 bd
       -0.11857994 -0.25054732 -0.06815142 -0.101970755
0000d0 53 5a e6 bc 4c 75 ca bd a2 42 8e 3d 64 8e f4 bd
       -0.028119242 -0.09885654 0.06946303 -0.11941221
0000e0 8a fe fd bd cf 96 29 be ca 8a cd bd 8f 64 54 3e
       -0.12402065 -0.16561435 -0.100362375 0.20741485
0000f0 d2 13 d4 3c 72 38 90 bc c9 f6 de bd 78 86 aa be
       0.025888357 -0.01760504 -0.10886914 -0.33305717
000100 e8 ac ed bb 7d 51 1c 3d 89 a3 b9 3f a1 62 2a bb
       -0.007253278 0.03816365 1.4503032 -0.0025998729
000110 24 35 cd bd 3d e9 db bd 35 e4 d2 3a 0d a4 37 be
       -0.100199014 -0.10737846 0.001608974 -0.17933674
000120 13 51 57 bf f1 16 00 3d c0 af 26 be 5a 4e cc bd
       -0.84108084 0.03127188 -0.16277981 -0.09975882
000130 cd ed 03 be 84 90 21 be 4d e5 28 be fb 86 ee bd
       -0.12883683 -0.15777785 -0.16493721 -0.11646839
000140 e9 01 85 3d 5f 85 cb bd 0b f8 7a bd 54 cd 4e be
       0.06494505 -0.09937548 -0.06127171 -0.20195514
000150 83 31 09 be 26 aa 83 3b 3b ac 80 bd 65 dc 9d bc
       -0.13397793 0.004018086 -0.0628285 -0.019270131
000160 df 6d 1b be 61 83 ac be 80 91 d7 bd 4c 70 8f bc
       -0.15178631 -0.33693984 -0.10525799 -0.017509602
000170 86 e1 a6 bd 37 1c 40 be e2 f4 95 bd 86 eb 18 be
       -0.08148484 -0.18760763 -0.07322098 -0.14933595
000180 20 c1 81 be 9f 7b b2 3c 31 b3 ad bd c2 52 62 be
       -0.25342655 0.021787463 -0.08481444 -0.22101882

gbrbm.mu f4 [50]
000000 17 cd 0e bc aa c5 63 bc d3 6a 1c 3c 7d da 48 3b
       -0.008715889 -0.013902107 0.009546953 0.0030647807
000010 d3 37 4d 3c fe 6d 50 3c f0 6e 16 bc d8 c4 6b bc
       0.012525517 0.012721537 -0.009181723 -0.014390193
000020 85 73 18 bc 45 57 8b bc 1f 1c 08 3c 2c 79 ec ba
       -0.009304886 -0.017009387 0.008307486 -0.0018041483
000030 ed 30 99 bc e4 ba 9a bb 97 b7 7e 3c e0 18 a4 3b
       -0.018700087 -0.004721986 0.015546701 0.005007848
000040 bd dd a1 bc 38 0b c5 bc ed ab 83 bc d0 90 05 3d
       -0.019759053 -0.024053201 -0.016073192 0.032608807
000050 56 05 86 3c 53 bb 55 3c 43 56 d0 3c 66 97 d8 3a
       0.016359966 0.01304515 0.025431758 0.0016524612
000060 96 90 69 bc dd 38 0b 3b 54 eb f1 3c 4f 84 ac bc
       -0.014255663 0.002124361 0.029531159 -0.021059183
000070 8d 51 b9 bb c8 9d 02 3c 29 9d 14 bc b4 f7 db ba
       -0.0056554736 0.007972188 -0.009070673 -0.0016782195
000080 1e 0b 08 3c 0d 0b 91 3c 49 56 5c 3c fb b5 3b bb
       0.008303432 0.017705465 0.013448306 -0.0028642404
000090 b1 d9 30 3c e2 31 64 bc 4f 68 ad bc 81 c7 ad 3b
       0.010794089 -0.013927909 -0.021167902 0.0053033237
0000a0 7c ae 0d 3c c1 8f a9 bc e7 1e d1 3b 12 64 12 3c
       0.008647557 -0.02069843 0.0063818577 0.008934991
0000b0 80 eb 6d 3c a2 c9 a6 ba 93 ac 51 bc a1 ae 9f bb
       0.01452148 -0.0012724886 -0.012797493 -0.0048731123
0000c0 bc c7 96 bc 5b 12 9a bc
       -0.018405788 -0.01880758

gbrbm.log_var f4 [50]
000000 a4 48 61 c0 e9 c1 64 c0 60 31 64 c0 33 15 64 c0
       -3.5200586 -3.5743353 -3.5655136 -3.563794
000010 04 2b 64 c0 6b f4 62 c0 53 b5 62 c0 6b fb 63 c0
       -3.5651255 -3.546168 -3.5423172 -3.5622203
000020 10 eb 64 c0 b1 9d 63 c0 e0 01 67 c0 4d 5e 60 c0
       -3.576847 -3.5564997 -3.6094894 -3.5057557
000030 54 c5 66 c0 43 8b 6a c0 32 eb 63 c0 9a 7e 65 c0
       -3.605794 -3.6647499 -3.5612302 -3.5858521
000040 1a c4 65 c0 e5 ba 63 c0 e5 c9 62 c0 37 73 62 c0
       -3.590094 -3.5582821 -3.5435727 -3.5382822
000050 96 01 62 c0 0a db 66 c0 d3 0e 65 c0 94 7d 66 c0
       -3.5313468 -3.607119 -3.5790298 -3.6014147
000060 aa 13 67 c0 2c e3 62 c0 6d 17 63 c0 97 2e 62 c0
       -3.6105752 -3.5451155 -3.5483048 -3.5340936
000070 b2 53 64 c0 c7 06 65 c0 4d 5c 64 c0 10 1b 65 c0
       -3.5676084 -3.5785387 -3.5681336 -3.5797768
000080 65 eb 63 c0 4f c7 65 c0 f8 be 60 c0 ca bc 63 c0
       -3.5612423 -3.5902898 -3.5116558 -3.5583978
000090 c8 8d 64 c0 31 89 63 c0 45 85 64 c0 e4 5a 65 c0
       -3.5711536 -3.5552485 -3.5706341 -3.5836725
0000a0 36 2c 64 c0 f9 06 65 c0 2e 72 65 c0 21 3d 60 c0
       -3.5651984 -3.5785506 -3.585094 -3.503731
0000b0 43 21 62 c0 d9 14 65 c0 11 b0 63 c0 14 a4 66 c0
       -3.5332801 -3.5793974 -3.5576212 -3.6037645
0000c0 e5 e8 62 c0 d3 af 61 c0
       -3.5454648 -3.5263565

gbrbm.linear_layer.weight f4 [1, 100]
000000 cf 91 69 3e 62 b2 46 3c 54 ca 01 3d f8 d4 79 be
       0.22809528 0.012127491 0.031687096 -0.24397647
000010 cd 5c 3f 3e 1a f2 dc bd 68 42 2a bd dc 4e bc 3e
       0.18687744 -0.10788365 -0.041567236 0.36778915
000020 99 bb 9b 3d f3 27 42 3c dc ad de 3d a4 a2 92 3d
       0.07604141 0.011850345 0.10873005 0.071599275
000030 3c c6 55 be f9 84 36 3e 0e 07 01 be 7a fb bb bd
       -0.20876402 0.17824163 -0.12600347 -0.09178825
000040 f2 2c ac bd a1 c7 2a bd 76 89 68 3d 91 09 1d be
       -0.0840701 -0.041694287 0.056771718 -0.1533568
000050 fb 06 5c be 16 fe 37 3e e4 35 86 bd bc 4c 2d 3e
       -0.21487038 0.1796802 -0.065532476 0.16923803
000060 65 82 8a 3a 57 a8 d9 3c 4a 53 31 3e 7a f8 5b bc
       0.0010567425 0.026569529 0.17316929 -0.013425941
000070 48 39 06 be 21 ab b1 3c 37 72 30 3e bf 72 6e bc
       -0.13107789 0.021688046 0.1723107 -0.014553725
000080 c5 85 49 3e 22 b6 30 bd 74 ab 4d bc be 8d 2f bc
       0.19679935 -0.043142445 -0.012553085 -0.010714946
000090 45 a8 15 3d f7 2f 89 bb 87 bb 3d bd 82 05 9c bc
       0.036537427 -0.004186626 -0.046321418 -0.019045595
0000a0 46 19 c6 bd ff e0 e2 3d 5e 94 de 3d 63 4a 90 3d
       -0.09672789 0.11078071 0.108681425 0.07045438
0000b0 7f 55 75 bd 37 48 38 3e 6a 39 e1 3c 7d d6 c7 bb
       -0.05989599 0.17996298 0.027493197 -0.006098567
0000c0 e6 b2 da bc be c6 16 3e 76 69 16 bc cf 1b 72 bc
       -0.026696634 0.14724252 -0.009180417 -0.014777138
0000d0 23 39 2b bd af 91 a7 bd 33 48 29 be 5d e9 05 bd
       -0.041802537 -0.08182084 -0.16531448 -0.032693256
0000e0 62 33 cf 3c f8 f3 8b 3b 7d 17 ae 3c ac 97 18 be
       0.025293056 0.0042710267 0.021251434 -0.14901608
0000f0 ce c9 e7 bd 4b bf 2d bc 4e 38 cc 3c fc 20 b5 3d
       -0.11317788 -0.01060469 0.024929192 0.08844182
000100 8b 5e e4 bd b4 6f 06 be 6b de 2d be f6 1f ba bd
       -0.11150845 -0.13128549 -0.16979377 -0.09088127
000110 a0 78 c5 bc 24 dd 13 bd bf 4d 3f bd c1 b5 93 bc
       -0.02410537 -0.036099568 -0.046705004 -0.018031003
000120 83 e9 ec 3e d0 a4 8c bd 29 6e 8e bd 14 d9 aa 3d
       0.46271905 -0.06867373 -0.06954605 0.083421856
000130 47 ad bd 3c ea b2 20 bc 26 34 0a bc e9 9a b0 3d
       0.023153914 -0.009808281 -0.008435285 0.08623297
000140 5c cb bf bd 70 9a 36 3d d6 22 94 bd db 0d 58 3e
       -0.093649596 0.044580877 -0.07233207 0.21099035
000150 82 f2 f1 3b 5f 76 0c be 29 24 c5 3b d3 41 0a bb
       0.0073836455 -0.1371703 0.0060162735 -0.0021096363
000160 15 a7 e2 3d 13 8e 31 3e 84 33 76 b8 91 25 11 be
       0.110670246 0.17339353 -5.8698948e-05 -0.14174487
000170 2f 27 98 bd 7b 50 5a 3d c6 b7 2e 3d e4 51 36 3e
       -0.07429349 0.05329941 0.04265573 0.17804676
000180 4a 45 84 3e 70 c8 af bd b3 63 1f bd 37 ef 0b 3e
       0.25834113 -0.08583152 -0.03891344 0.13665472
