final_project/gru_gbrbm/type2/gru_gbrbm_W20_H50_V25_B8_D1.pt (torch, 45319 bytes, 9 tensors)

lstm_layer.lstm1.weight_ih_l0 f4 [150, 9]
-0.0010016499 0.0002759233 0.00014888754 0.0011382995 5.311741e-05 -8.066983e-05 0.0005843703 0.00078881014
2.5176576e-05 0.0003237426 -0.0005933732 -0.00047899625 -0.0009799093 -0.00065582973 -0.0007338508 -0.00035383552
-0.00021184822 0.000119027376 0.0015655084 -0.0008478338 2.3287172e-05 -0.00026600153 -3.5181165e-05 3.5269775e-05
7.478115e-05 0.00025995405 -0.0001859043 0.0012629575 -0.0006555792 0.00037915297 0.0011328665 0.00021383235
0.00019213447 0.0004262642 0.00050518964 0.00019887814 -0.0009163573 0.00032998662 -0.00046464775 0.00019417945
-0.0005235216 -0.0006788235 -0.00052113406 -0.00030033488 9.7902805e-05 -0.00039251288 0.0012785976 6.528443e-05
0.00052906334 2.3800196e-05 6.342021e-06 1.4731929e-05 6.257381e-05 0.00022323156 -3.50641e-05 0.0008830794
-0.00023345945 0.0003754117 -0.00018257517 -0.0003056661 -0.00026737523 -0.00019423786 -8.486987e-05 -0.0007551986
-0.0047728303 0.00057202013 -0.0019591292 -0.00014192732 0.00044239752 0.0009307595 0.0013346561 0.0010040537
0.0019598692 -0.0086509865 0.0017106456 0.00035572986 0.0026031027 0.0018925152 0.001434434 0.000765214
-0.0008071115 0.00059501396 0.00044050676 -0.00047828152 -0.0005476023 -0.0005953577 -0.0005457754 -0.00045969372
-0.00024932218 -0.0003049943 0.00035385528 0.00025183716 -3.738422e-05 -7.6974866e-05 -5.4556607e-05 -6.613917e-05
-3.888889e-05 6.663109e-05 -3.584166e-05 -0.0010128123 -6.492387e-05 -0.0007911592 9.984579e-05 -0.0005502867
-0.00082537 -0.0009271655 -0.00089905824 -0.00045787185 0.001035645 6.6911896e-05 8.210581e-05 0.00011361118
1.8546121e-05 -2.2535487e-05 -2.1822989e-05 0.000101076505 0.00023263783 -0.0007508165 0.00090118346 0.00013564524
0.00060568185 3.365936e-05 1.2442667e-05 0.0001401622 8.4147745e-05 0.00015740367 -0.0026082294 0.0026386355
0.0003521405 0.00088696886 0.00016834952 0.00024509776 0.0006017188 0.00023251206 3.472326e-07 0.0023703482
-0.0005793283 -0.00018845357 0.00060808484 -0.00013382078 -0.00033427484 -0.0003618907 0.00011889631 4.3869706e-05
-0.00013477329 -0.0004409678 0.0003109228 -3.1386528e-05 0.0005293778 0.00044276696 0.00021201097 5.8380523e-05
-7.4985e-05 0.0013956304 -0.0012796312 -1.02933855e-05 -5.660263e-05 0.00025434748 8.054752e-05 -0.00016446148
-3.551286e-05 -7.330145e-05 2.758289e-05 -0.00023821922 0.0002747856 0.00015136777 0.00011231545 0.00016723272
0.0003183924 0.00041976184 0.00034519963 -0.0011584422 -0.00059157884 -0.00025204357 0.00027413006 -0.0005091796
-0.0003429403 -0.00019689076 -0.00011507064 1.4988274e-05 -4.070159e-05 0.00042793795 -7.8745536e-05 0.00036165732
-1.2846636e-05 -8.918699e-05 -9.716388e-05 -0.000112153306 -0.00024397044 0.00056936545 -0.00024357895 0.000208853
-0.00013311635 0.00015320454 0.00017313665 0.00016749644 0.000205519 0.00025081146 0.00025007688 7.351259e-05
-5.4114626e-05 1.0268229e-06 -8.088937e-05 -0.00021520982 -0.0003933999 0.00011453524 0.00050531497 -7.7609904e-05
-7.1327645e-06 -0.000119059456 -0.000113623166 -8.209331e-05 -0.00012260341 -0.00015504438 -7.4519405e-05 1.9185172e-06
9.99705e-05 0.00019680824 5.9654238e-05 -0.00021590259 0.00010522012 0.00014581652 8.559168e-05 -1.0187288e-06
-0.00020457845 0.0005503259 -8.242756e-05 -0.00036601507 -3.9115323e-05 -0.00022425591 -0.00038762236 -0.00046681374
-0.00028988224 -0.00047293483 -0.0008508767 0.00042489736 2.6863398e-05 0.00023122887 -6.639473e-06 6.9089925e-05
4.1155625e-05 -0.00013824076 -0.00018968935 0.0005989781 0.0004842265 0.00042577667 0.00013889922 0.00044943552
0.00038934618 0.0004129197 0.00037034522 0.0003564876 0.0005178773 -0.0005051557 0.00076250185 -0.00042202394
00000000: cb49 83ba cca9 9039 b21e 1c39 fe32 953a
00000010: 62ca 5e38 492d a9b8 6d30 193a 27c8 4e3a
00000020: 4932 d337 ffbb a939 9a8c 1bba ca21 fbb9
00000030: 4d70 80ba fdeb 2bba e55f 40ba 0083 b9b9
00000040: 9323 5eb9 569e f938 bf31 cd3a 2a41 5eba
00000050: d258 c337 1f76 8bb9 7d8f 13b8 a2ee 1338
00000060: d3d3 9c38 714a 8839 4eef 42b9 d289 a53a
00000070: 2ddb 2bba 0dc9 c639 b17c 943a 2f38 6039
00000080: b477 4939 367c df39 b46e 043a f289 5039
00000090: b337 70ba 0e02 ad39 f79b f3b9 a69c 4b39
000000a0: f13c 09ba 13f3 31ba b79c 08ba 4476 9db9
000000b0: 2b51 cd38 30ca cdb9 9e96 a73a 50e9 8838
000000c0: d7b0 0a3a 88a6 c737 8ccd d436 2729 7737
000000d0: 0f3a 8338 4413 6a39 ca11 13b8 757e 673a
000000e0: cbcc 74b9 e8d2 c439 a671 3fb9 cf41 a0b9
000000f0: 7f2e 8cb9 54ac 4bb9 2afc b1b8 85f8 45ba
00000100: 6765 9cbb 9ff3 153a bc64 00bb 53d2 14b9
00000110: 97f1 e739 36fe 733a a1ef ae3a 749a 833a
00000120: 2671 003b debc 0dbc be37 e03a 4181 ba39
00000130: d198 2a3b 460e f83a 9e03 bc3a a498 483a
00000140: 5694 53ba b6fa 1b3a d1f3 e639 dcc1 fab9
00000150: f88c 0fba c711 1cba 5e12 0fba 0c03 f1b9
00000160: 75b7 82b9 a4e7 9fb9 a785 b939 0309 8439
00000170: 00cd 1cb8 916d a1b8 b6d3 64b8 32b4 8ab8
00000180: a11c 23b8 4bbc 8b38 b054 16b8 57c0 84ba
00000190: bd27 88b8 cc65 4fba 4d64 d138 1e41 10ba
000001a0: a55d 58ba 060d 73ba c7ae 6bba 850e f0b9
000001b0: 7bbe 873a 0d53 8c38 3930 ac38 8a42 ee38
000001c0: 7e93 9b37 970a bdb7 8310 b7b7 09f9 d338
000001d0: 3ef0 7339 71d2 44ba 663d 6c3a fe3b 0e39
000001e0: 9fc6 1e3a 762d 0d38 d9c0 5037 81f8 1239
000001f0: 7a78 b038 ba0c 2539 d4ee 2abb f5ec 2c3b
00000200: 7f9f b839 7983 683a fb86 3039 7780 8039
00000210: aabc 1d3a 7bce 7339 496b ba34 d857 1b3b
00000220: 10de 17ba 9f9b 45b9 e267 1f3a 3e52 0cb9
00000230: 9c41 afb9 26bc bdb9 f857 f938 bd00 3838
00000240: ee51 0db9 b231 e7b9 5a03 a339 07a5 03b8
00000250: f1c5 0a3a 2d23 e839 434f 5e39 9cdd 7438
00000260: 4441 9db8 96ed b63a 4cb9 a7ba c1b1 2cb7
00000270: 9c68 6db8 f159 8539 9feb a838 4b73 2cb9
00000280: a5f3 14b8 6bb9 99b8 ce61 e737 7cca 79b9
00000290: 1911 9039 7ab8 1e39 e68a eb38 315b 2f39
000002a0: e8ed a639 7b13 dc39 e9fb b439 dfd6 97ba
000002b0: 2f14 1bba b724 84b9 1db9 8f39 777a 05ba
000002c0: abcc b3b9 7674 4eb9 1452 f1b8 2676 7b37
000002d0: 00b7 2ab8 dc5c e039 3024 a5b8 d39c bd39
000002e0: e287 57b7 e709 bbb8 76c4 cbb8 d933 ebb8
000002f0: 51d2 7fb9 7841 153a 3a69 7fb9 8dff 5a39
00000300: 2695 0bb9 88a5 2039 048c 3539 fca1 2f39
00000310: 9680 5739 587f 8339 c01c 8339 c52a 9a38
00000320: 23f9 62b8 5ed1 8935 26a3 a9b8 f2a9 61b9
00000330: 3e41 ceb9 a432 f038 1d77 043a 80c2 a2b8
00000340: fb55 efb6 8faf f9b8 f948 eeb8 8329 acb8
00000350: 1a8f 00b9 6993 22b9 4d47 9cb8 e0bf 0036
00000360: 41a7 d138 4f5e 4e39 4035 7a38 e963 62b9
00000370: 9fa9 dc38 53e6 1839 af7f b338 41bb 88b5
00000380: 1c84 56b9 bf43 103a f6dc acb8 b6e5 bfb9
00000390: c20f 24b8 3d26 6bb9 cb39 cbb9 aebe f4b9
000003a0: 56fb 97b9 3df4 f7b9 5e0d 5fba c2c4 de39
000003b0: b558 e137 0776 7239 a4c8 deb6 5fe4 9038
000003c0: 849e 2c38 b9f4 10b9 59e7 46b9 bd04 1d3a
000003d0: c8df fd39 c73a df39 7aa5 1139 37a2 eb39
000003e0: 2921 cc39 257d d839 e52a c239 f5e6 ba39
000003f0: 28c2 073a 6d6c 04ba a2e2 473a 1843 ddb9

lstm_layer.lstm1.weight_hh_l0 f4 [150, 50]
9.965891e-06 7.4915064e-05 -1.25994e-05 -1.1734233e-05 0.00011724391 -0.00012764597 1.7548515e-05 0.00074580684
0.00023915712 -0.00075229607 0.00078058435 -0.00013500276 6.7971654e-05 -5.4923803e-05 -4.907872e-05 -0.000119410724
-1.7508793e-05 3.0818905e-05 4.794848e-06 -2.468136e-05 5.113058e-05 -7.1366274e-05 -8.107031e-05 -7.2476345e-05
1.3018184e-05 0.00014104678 -0.00012143416 -0.00010923666 -0.00010769936 -9.048585e-05 -0.0001412157 9.08006e-06
0.00031492623 7.788087e-05 0.00010901075 0.00014765552 2.3848386e-05 5.7958114e-05 2.3757604e-05 -0.00011808293
-2.7753582e-05 -1.3292648e-05 -0.000101266785 -3.473009e-05 -0.00019276679 1.7763095e-05 -4.800559e-05 -3.3829318e-05
-1.2897941e-05 -0.00021111102 -1.4879736e-05 -2.9976729e-05 2.2285141e-05 2.5700287e-05 -6.031954e-05 1.6527887e-05
-3.0612908e-05 0.00011557134 -1.3705217e-05 -5.110323e-05 5.051373e-05 2.7558019e-05 -3.8577633e-05 -3.4586546e-06
3.427602e-05 4.8863356e-05 4.5150256e-05 -1.5725213e-05 2.873527e-05 -3.4310744e-06 -4.626637e-05 1.2604266e-05
4.866719e-05 2.9437424e-05 2.5168767e-05 -3.5159686e-05 3.186184e-05 1.896826e-05 2.7839127e-05 3.782287e-05
6.483876e-05 -9.792493e-06 0.00012365328 -3.613218e-05 -5.5869386e-05 3.4753564e-05 -1.4641409e-05 -8.804183e-06
-6.238387e-06 3.8545295e-05 2.1521815e-05 3.4019282e-05 1.689237e-05 8.068454e-06 3.120234e-05 1.3282361e-05
4.6796857e-05 2.9872033e-05 3.5837186e-06 5.9160702e-05 4.3367845e-06 -1.0188382e-06 -4.504125e-05 4.9121177e-06
0.00012770425 -1.3442899e-05 1.6968237e-05 0.00029324036 0.00039091913 -3.2086973e-05 5.9076174e-06 -8.574384e-05
3.8368024e-05 4.572404e-06 -4.663173e-05 -8.167303e-05 -5.5233166e-05 1.56554e-05 8.7041e-06 4.211151e-05
7.002727e-05 -1.1679314e-05 -4.2953186e-05 -3.0204758e-06 -5.6486265e-06 4.6096662e-05 -4.424302e-05 -1.9209017e-05
-7.32168e-05 -4.5970406e-05 -7.216885e-05 4.7094156e-05 3.1183386e-05 -3.4627698e-07 9.676645e-05 -6.183529e-05
1.2679312e-05 -2.9432686e-05 1.4596304e-05 -5.2397547e-05 -3.053009e-05 -4.1688287e-05 -3.0689524e-05 1.6945516e-07
-6.779655e-05 -2.9502293e-05 -4.781942e-05 -3.8675542e-05 -3.0126293e-05 -6.614091e-05 -1.5635924e-05 -1.3517178e-05
-2.2350418e-05 -3.337031e-05 -2.9295255e-05 -9.7487955e-06 -1.3996782e-07 -1.0882516e-05 -5.928193e-05 -4.0877443e-05
1.0462638e-05 5.9670372e-05 1.7554752e-05 2.3975366e-05 8.156894e-06 2.837933e-05 1.0530303e-05 -1.8664146e-05
1.9342762e-05 8.546925e-06 7.005329e-06 6.0989023e-06 -2.6374077e-05 1.8715259e-06 -2.9673429e-05 -3.546581e-05
2.12147e-05 3.1044998e-05 4.1274393e-06 -2.6026875e-05 3.439297e-05 -8.2140076e-07 0.00018650628 -1.3763708e-05
2.2009268e-05 -7.294529e-05 -1.185148e-05 -1.7883838e-05 1.24854805e-05 -5.6975964e-06 6.884969e-07 4.1010946e-05
4.621031e-05 9.117976e-06 7.109764e-05 -2.4547653e-05 -1.6154665e-05 -2.8234717e-05 -9.261545e-06 3.002411e-06
7.4846925e-05 2.8104741e-05 3.487929e-05 -7.839953e-06 -3.212923e-05 4.4100405e-05 -1.8516214e-06 1.3515721e-05
-1.1916038e-05 -0.000100283956 0.000121636804 4.487628e-05 -1.7517556e-05 2.5616691e-05 4.499562e-05 -4.8728172e-05
2.2247557e-05 -3.3954228e-05 -1.3801187e-05 -3.9068756e-05 -5.7737052e-05 -3.580707e-05 1.1456997e-05 -6.743003e-06
-1.2848715e-05 2.361225e-05 3.109499e-05 1.7827824e-05 2.729002e-05 -6.8506465e-06 -6.2878666e-05 -3.7480684e-05
2.0499832e-05 4.6006182e-05 -3.333913e-05 -9.8840155e-06 -1.8190183e-05 3.8528033e-05 2.5586183e-05 -5.0442304e-06
1.0625596e-05 8.099418e-05 1.1540249e-06 -1.37043035e-05 3.1569245e-05 3.6580648e-05 1.5860387e-05 6.669636e-06
-1.7759927e-05 -6.895951e-05 -9.302527e-06 -2.8855238e-05 2.1953404e-07 -7.900827e-06 -1.910601e-05 1.5908623e-05
00000000: 2d33 2737 b81b 9d38 0362 53b7 26de 44b7
00000010: d8e0 f538 b4d8 05b9 2635 9337 4082 433a
00000020: 40c6 7a39 bc35 45ba 21a0 4c3a 878f 0db9
00000030: 018c 8e38 fc5d 66b8 e0d9 4db8 256c fab8
00000040: d9df 92b7 8c43 0138 6ee3 a036 d10a cfb7
00000050: 0b75 5638 7aaa 95b8 4b04 aab8 71fe 97b8
00000060: ad68 5a37 f5e5 1339 78aa feb8 fc15 e5b8
00000070: a7dc e1b8 39c3 bdb8 4d13 14b9 9056 1837
00000080: af1c a539 f953 a338 b39c e438 fad3 1a39
00000090: 050e c837 0d18 7338 114b c737 4aa3 f7b8
000000a0: 5dd0 e8b7 7d03 5fb7 315f d4b8 26ab 11b8
000000b0: 7121 4ab9 f501 9537 9c59 49b8 f4e3 0db8
000000c0: 3c64 58b7 af5d 5db9 fba3 79b7 8976 fbb7
000000d0: faf0 ba37 f296 d737 9dff 7cb8 5ea5 8a37
000000e0: 5c66 00b8 e45e f238 75ef 65b7 ad57 56b8
000000f0: b4de 5338 652c e737 6bce 21b8 3c1b 68b6
00000100: 99c3 0f38 a1f2 4c38 b85f 3d38 a3e9 83b7
00000110: 860c f137 6941 66b6 230e 42b8 e976 5337
00000120: ff1f 4c38 63f0 f637 8421 d337 6d78 13b8
00000130: 64a3 0538 071e 9f37 1288 e937 ffa3 1e38
00000140: 0bfa 8738 704a 24b7 eda8 0139 a28c 17b8
00000150: 4c55 6ab8 5bc4 1138 5fa4 75b7 aeb5 13b7
00000160: 5653 d1b6 b2ab 2138 bf89 b437 edaf 0e38
00000170: 17b4 8d37 bf5d 0737 42df 0238 4ed7 5e37
00000180: be47 4438 b495 fa37 d17f 7036 5223 7838
00000190: b284 9136 04bf 88b5 adea 3cb8 c5d2 a436
000001a0: 59e8 0539 d088 61b7 0357 8e37 0ebe 9939
000001b0: 47f4 cc39 2095 06b8 0c3a c636 60d1 b3b8
000001c0: 5aed 2038 a76c 9936 7096 43b8 e047 abb8
000001d0: 29aa 67b8 b753 8337 d307 1237 e4a0 3038
000001e0: 9bdb 9238 46f2 43b7 a228 34b8 61b3 4ab6
000001f0: 5589 bdb6 ea57 4138 9591 39b8 0d23 a1b7
00000200: f88b 99b8 59d0 40b8 5b59 97b8 f786 4538
00000210: e8ca 0238 f2e7 b9b4 18ef ca38 92ad 81b8
00000220: 3bb9 5437 36e6 f6b7 a6e2 7437 70c5 5bb8
00000230: 6f0d 00b8 75da 2eb8 a0b8 00b8 7bf3 3534
00000240: ff2d 8eb8 b17b f7b7 b691 48b8 8c37 22b8
00000250: b9b7 fcb7 21b5 8ab8 e429 83b7 d6c7 62b7
00000260: 287d bbb7 19f7 0bb8 15bf f5b7 c28e 23b7
00000270: 104a 16b4 0d94 36b7 7da5 78b8 d273 2bb8
00000280: b088 2f37 9346 7a38 8b42 9337 b51e c937
00000290: 98d9 0837 2610 ee37 4fab 3037 f390 9cb7
000002a0: 4442 a237 c364 0f37 510f eb36 2ca5 cc36
000002b0: e63d ddb7 2431 fb35 34eb f8b7 20c1 14b8
000002c0: 39f6 b137 5036 0238 6f7e 8a36 4a54 dab7
000002d0: 2c41 1038 3b7e 5cb5 e690 4339 adea 66b7
000002e0: 8ba0 b837 34fa 98b8 b8d5 46b7 4005 96b7
000002f0: bb78 5137 fb2d bfb6 26d1 3835 2b03 2c38
00000300: f1d1 4138 69f9 1837 411a 9538 afeb cdb7
00000310: e183 87b7 98d9 ecb7 0862 1bb7 077d 4936
00000320: 23f7 9c38 79c2 eb37 5a4b 1238 5788 03b7
00000330: 7fc2 06b8 73f8 3838 3a85 f8b5 94c1 6237
00000340: feea 47b7 8a4f d2b8 4317 ff38 8a39 3c38
00000350: aaf2 92b7 6de3 d637 aeb9 3c38 7a61 4cb8
00000360: 44a0 ba37 136a 0eb8 a68b 67b7 c2dd 23b8
00000370: b02a 72b8 8c2f 16b8 6d37 4037 f441 e2b6
00000380: d090 57b7 ec12 c637 fe6b 0238 f68c 9537
00000390: dfec e437 9bde e5b6 badd 83b8 9434 1db8
000003a0: 0ef7 ab37 c3f6 4038 9ed5 0bb8 86d3 25b7
000003b0: 1f97 98b7 2999 2138 e9a1 d637 9c41 a9b6
000003c0: 9644 3237 6bdb a938 fee3 9a35 89eb 65b7
000003d0: 3869 0438 2c6e 1938 ec0b 8537 bdcb df36
000003e0: 27fb 94b7 5b9e 90b8 0d12 1cb7 270e f2b7
000003f0: 0fb9 6b34 cb8d 04b7 d845 a0b7 8273 8537

lstm_layer.lstm1.bias_ih_l0 f4 [150]
0.0013285202 0.0012019394 0.0012932143 -0.0001234067 -0.00026844148 -0.0007628935 -0.00051110715 0.004000261
-0.0052343756 0.00063436496 0.00066425814 -0.0015693118 -0.0005209073 -0.0011038367 -0.0022399519 0.0003115537
-0.0003396702 -0.0011621583 -0.00032063492 -0.000121986006 -0.00015729145 -0.00032484546 -0.00074710953 -0.00026699825
-0.0008058254 -0.00032500064 -0.0013398046 0.00020152102 -0.00079845876 -0.00038809533 -0.00069874874 0.000109145374
-0.00027288607 -0.0008438777 -0.00065752404 -0.00037503126 -0.00094880536 -0.00015114613 -0.00093029224 -0.0020530117
-0.00028520377 -0.00013537834 -0.001965071 -0.0005423774 -0.00061189506 -0.00088300125 -0.0006351275 -0.00045705895
-0.0008494075 -0.0012243023 0.0025838015 0.00028229962 0.0015572411 0.00072156294 0.0012897775 0.000714699
0.00039943395 0.0017820225 0.00094841287 0.00018286749 0.00013423745 0.00021158515 0.00010201866 0.0016185269
0.002571409 0.0016150839 0.00048801347 0.0007383454 0.0011810319 0.0010227 -0.00026448222 0.00069552474
0.000978193 0.0008573118 0.0006527736 2.9584e-05 0.0005877232 0.0006946526 0.0001872324 0.000114197865
0.0008762633 0.0006072922 -9.762375e-05 0.00047555962 0.0010080903 0.00029502704 0.00031465985 0.0005215491
0.0012640145 0.00021666652 0.00043350164 0.0007046302 -0.00083986425 0.0014072133 -0.00066474295 0.0013500236
0.00035688115 0.00015044966 0.0014304885 0.00057809876 -0.0014667596 0.0029416545 0.000779417 0.0010790797
-0.0035044414 0.001832569 -0.0010423413 0.038677566 0.028986279 -0.0020725233 0.0043947757 -0.00024298184
-0.0006294222 -0.0013043479 0.0010885221 0.000886673 0.0018500102 0.0014246742 0.0012885421 -0.001683885
0.0003370782 0.0021269885 -0.0013677663 0.00060937693 0.003559748 0.0014685479 0.0016232944 0.0019266135
-0.00046360207 0.00040623543 0.0032769477 0.00062834914 0.00092078565 -0.0009122638 -0.002382722 0.001842445
0.0011547699 -0.0020052595 -1.1744057e-05 0.0047133034 0.0013775966 -0.0016332187 -0.0010964591 -0.00091932574
-0.0018161153 -0.004795818 0.000105100735 -0.0007794017 -0.00073755026 0.004762678
00000000: be21 ae3a 658a 9d3a 1281 a93a bc66 01b9
00000010: 9bbd 8cb9 ebfc 47ba d2fb 05ba 9f14 833b
00000020: 2085 abbb 834b 263a 9c21 2e3a 5eb1 cdba
00000030: 7f8d 08ba 9dae 90ba 28cc 12bb 0858 a339
00000040: c315 b2b9 9053 98ba e41a a8b9 bdd2 ffb8
00000050: 9aee 24b9 0550 aab9 acd9 43ba e6fb 8bb9
00000060: 073e 53ba d964 aab9 629c afba 634f 5339
00000070: a94f 51ba 4679 cbb9 3c2c 37ba fae4 e438
00000080: 2612 8fb9 ac37 5dba b15d 2cba d89f c4b9
00000090: 40b9 78ba fb7c 1eb9 dbde 73ba d28b 06bb
000000a0: 6787 95b9 59f4 0db9 6cc8 00bb 552e 0eba
000000b0: 9567 20ba 3679 67ba af7e 26ba 6aa1 efb9
000000c0: c6aa 5eba c578 a0ba ff54 293b 9d01 9439
000000d0: 571c cc3a 4527 3d3a c00d a93a a35a 3b3a
000000e0: 1e6b d139 c192 e93a e99e 783a 1ec0 3f39
000000f0: 17c2 0c39 f5dc 5d39 daf2 d538 c024 d43a
00000100: 1685 283b 39b1 d33a 0fdc ff39 858d 413a
00000110: dbcc 9a3a 1e0c 863a 34aa 8ab9 e053 363a
00000120: b636 803a 39bd 603a e51e 2b3a 282b f837
00000130: 7011 1a3a 5919 363a d153 4439 837d ef38
00000140: 09b5 653a b132 1f3a 5abb ccb8 8854 f939
00000150: e621 843a dcad 9a39 eef8 a439 91b8 083a
00000160: 4aad a53a fa30 6339 9b47 e339 efb6 383a
00000170: 562a 5cba 3e72 b83a 2542 2eba 46f3 b03a
00000180: c71b bb39 06c2 1d39 3b7f bb3a 8d8b 173a
00000190: 4940 c0ba c6c8 403b ca51 4c3a e86f 8d3a
000001a0: c5aa 65bb d032 f03a 2c9f 88ba 5e6c 1e3d
000001b0: a274 ed3c 2cd3 07bb 0d02 903b f1c8 7eb9
000001c0: cfff 24ba a7f6 aaba beac 8e3a 9e6f 683a
000001d0: 0b7c f23a 22bc ba3a 4ce4 a83a ceb5 dcba
000001e0: dfb9 b039 f264 0b3b 9f46 b3ba 98be 1f3a
000001f0: a94a 693b 4a7c c03a b9c4 d43a 6c86 fc3a
00000200: 9e0f f3b9 fffb d439 0fc2 563b ccb7 243a
00000210: e160 713a fd24 6fba 7127 1cbb 327e f13a
00000220: a65b 973a ac6a 03bb 5708 45b7 0e72 9a3b
00000230: 7990 b43a ba11 d6ba 10b7 8fba e8fe 70ba
00000240: b80a eeba 3d26 9dbb 8769 dc38 c350 4cba
00000250: 2958 41ba 3d10 9c3b

lstm_layer.lstm1.bias_hh_l0 f4 [150]
0.0013285206 0.0012019385 0.0012932142 -0.00012340609 -0.00026844407 -0.00076289347 -0.00051111425 0.004000261
-0.005234375 0.0006343649 0.00066426076 -0.0015695845 -0.0005209072 -0.0011038369 -0.0022399095 0.00031155744
-0.00033967747 -0.0011621456 -0.0003206347 -0.00012198601 -0.00015729234 -0.00032484584 -0.0007471108 -0.00026699927
-0.00080582517 -0.00032499435 -0.0013398924 0.00020152466 -0.00079846644 -0.00038805947 -0.00069875165 0.00010914537
-0.0002728856 -0.00084388733 -0.00065752293 -0.00037503077 -0.00094880565 -0.00015114089 -0.00093028706 -0.0020530107
-0.00028520377 -0.00013537877 -0.00196506 -0.00054237584 -0.00061189523 -0.00088300207 -0.0006351272 -0.0004570579
-0.00084940466 -0.0012243025 0.0025838052 0.0002822991 0.0015572472 0.00072156213 0.0012897789 0.00071469875
0.000399434 0.0017819813 0.0009484124 0.00018286158 0.00013424248 0.00021157421 0.00010202093 0.0016185192
0.0025714168 0.001615084 0.00048801347 0.00073834124 0.0011810311 0.0010226979 -0.00026447568 0.00069552474
0.0009781928 0.0008573017 0.0006527735 2.9582246e-05 0.00058773445 0.00069465215 0.00018723164 0.00011420285
0.00087626197 0.0006072916 -9.762303e-05 0.00047555706 0.001008105 0.00029502707 0.00031466002 0.00052154984
0.0012640209 0.00021666662 0.0004334938 0.00070464675 -0.0008398185 0.0014072132 -0.0006647452 0.0013500213
0.0003568807 0.00015044973 0.0014304946 0.0005781017 -0.0074687134 -0.008741887 -0.0055575925 0.0025276497
-0.0027588718 -0.00029252208 -0.0010157535 0.02094228 0.036819153 -0.018288841 0.012101903 0.00086932874
-0.0015757798 -0.0013094243 0.0020662122 0.0029456913 -0.003335506 -0.001231093 0.0013454716 0.004639776
0.0004513151 -0.00094218703 0.0030489883 -0.00056900934 -0.0034360336 -0.0030911765 -0.0007837777 -0.0035255346
0.0023635481 0.0010895835 -0.0006358759 0.0039591184 -0.009921437 0.0003197231 -0.00044225925 -0.0051697255
-0.0015971994 0.002415438 -0.00094230304 -0.004126047 -0.0006234881 -0.0013221655 0.0023360825 0.004701463
0.0015950295 0.006638001 0.0027331514 -0.00027440715 -0.002115522 -0.005036617
00000000: c121 ae3a 5d8a 9d3a 1181 a93a 9266 01b9
00000010: f4bd 8cb9 eafc 47ba 4cfc 05ba 9f14 833b
00000020: 1f85 abbb 824b 263a c921 2e3a 84ba cdba
00000030: 7e8d 08ba 9fae 90ba 72cb 12bb 8858 a339
00000040: bd16 b2b9 2353 98ba dc1a a8b9 bed2 ffb8
00000050: d7ee 24b9 1250 aab9 c2d9 43ba 09fc 8bb9
00000060: 033e 53ba 0164 aab9 549f afba 5d50 5339
00000070: 2d50 51ba 7674 cbb9 6e2c 37ba f9e4 e438
00000080: 1612 8fb9 5238 5dba 9e5d 2cba c79f c4b9
00000090: 45b9 78ba 937b 1eb9 82de 73ba ce8b 06bb
000000a0: 6787 95b9 76f4 0db9 3cc8 00bb 3a2e 0eba
000000b0: 9867 20ba 4479 67ba aa7e 26ba 46a1 efb9
000000c0: 95aa 5eba c678 a0ba 0f55 293b 8b01 9439
000000d0: 8c1c cc3a 3727 3d3a cc0d a93a 9f5a 3b3a
000000e0: 206b d139 5f91 e93a e19e 783a 88be 3f39
000000f0: 71c3 0c39 05da 5d39 12f4 d538 7e24 d43a
00000100: 3785 283b 3ab1 d33a 0fdc ff39 3e8d 413a
00000110: d4cc 9a3a 0c0c 863a 53a9 8ab9 e053 363a
00000120: b436 803a 8bbc 603a e31e 2b3a 6427 f837
00000130: 3112 1a3a 5119 363a 9c53 4439 3080 ef38
00000140: f2b4 653a a632 1f3a f7ba ccb8 3054 f939
00000150: 6422 843a ddad 9a39 f4f8 a439 9eb8 083a
00000160: 81ad a53a 0131 6339 8e46 e339 0bb8 383a
00000170: 4427 5cba 3d72 b83a 4c42 2eba 33f3 b03a
00000180: b71b bb39 0bc2 1d39 6f7f bb3a c08b 173a
00000190: 1cbc f4bb 223a 0fbc 771c b6bb eda6 253b
000001a0: 30ce 34bb a65d 99b9 0823 85ba 258f ab3c
000001b0: aecf 163d 7bd2 95bc 0f47 463c aae3 633a
000001c0: 658a ceba fda0 abba 4a69 073b 800c 413b
000001d0: 8198 5abb a05c a1ba 895a b03a 4309 983b
000001e0: 7d9e ec39 1afd 76ba 89d1 473b 9229 15ba
000001f0: 142f 61bb 5695 4abb 6e76 4dba a80c 67bb
00000200: c2e5 1a3b 5bd0 8e3a e9b0 26ba 7ebb 813b
00000210: 868d 22bc 82a0 a739 08df e7b9 cd66 a9bb
00000220: 1e59 d1ba 534c 1e3b e304 77ba ca33 87bb
00000230: 9471 23ba 834c adba f618 193b bb0e 9a3b
00000240: 4f10 d13a 9783 d93b ac1e 333b 4ede 8fb9
00000250: 92a4 0abb 350a a5bb

gbrbm.W f4 [50, 25]
-0.00017835943 0.00052139437 0.001513624 0.00067876565 -0.0001583032 0.0005282744 0.00013511426 0.00028352105
9.66689e-05 -0.00092308625 0.0015552231 -0.00157833 0.00057772483 -0.0015945652 4.7996244e-05 -8.002498e-05
0.0007695203 0.00024295526 0.00089062826 0.0008752741 -0.0010869758 0.0018485726 0.0015861372 0.0004857796
0.0030061803 0.00034589367 -0.0019167046 0.00047869678 -0.0005192109 0.00056775124 -0.000969997 0.00052792364
0.0007616255 -0.0002020344 0.0003552616 0.0005044196 0.0010365706 0.000804423 -0.0005688198 -6.188659e-05
-0.0003073872 6.855231e-05 0.00052031665 0.00010740229 0.00028446567 0.00039964193 -0.00071983074 4.452266e-05
0.00077344844 0.0004664522 -0.000603123 0.0026374 0.0017329731 0.00017175649 0.00016851626 -0.0009036095
0.0002045476 0.0013879035 0.0013918725 -0.0011506693 0.00044742797 -0.00360558 0.00018987218 6.298348e-05
-0.0018728835 0.0008133772 0.0009343667 -0.0014203838 0.0001103147 0.0010599479 0.0009412501 0.0021354246
0.0009702073 -0.00090759643 -0.0011533883 0.0011366106 -0.001628271 -9.118603e-06 0.0007561045 0.001143499
-3.51397e-05 0.00093945966 -0.00051338354 0.0004132785 -0.000961571 -4.5303095e-05 0.0013622849 -0.00084951875
0.00060462137 0.000836038 -0.0003085131 -0.0006547479 -9.7074364e-05 0.0009442723 -0.0001589481 0.0017157192
-0.0013125846 -0.00059675757 -0.00025354678 -0.0017474575 -1.1197244e-05 -0.0041421046 0.0007913376 0.001640869
-0.0005005355 0.00025181737 0.0018493381 0.0007463253 0.0007904099 0.0012125983 0.0016454478 0.0046039773
0.00062627293 -0.0022041586 0.00010300033 0.0003665373 0.001011727 0.0022526546 0.00012295514 0.0009510038
0.00044069407 -0.00091909565 0.0016885144 -1.3155241e-05 -0.0003420132 8.423462e-05 0.00058701437 -0.0004725353
-0.0012344896 -0.00016695709 0.00040331035 -0.0015263971 0.0010648068 -0.00040511563 0.000112592585 -0.0018383813
-0.002365371 -0.0010737056 0.0025121064 -0.0014305616 -0.0016426999 -0.00027399542 -0.0037970059 -3.8887898e-05
-0.00047366583 -0.0025602067 0.0014946276 0.00030776934 -0.000465043 0.00018390245 -1.53374e-05 -0.0013221898
-0.0001576302 -0.0007931359 0.0007706778 -0.00071009126 0.0006486462 0.002009684 -0.0004108925 0.00046672593
-0.0002868475 -0.0006309249 0.0003780116 -0.0017241412 -2.8947323e-05 -9.809201e-05 0.000498916 0.0007436602
-1.7786939e-05 0.00010765447 -0.00012789619 0.0008252114 -0.0007880046 0.00020780908 0.00053254724 -0.0109557025
-0.011398801 -0.008652159 -0.0061548273 -0.014682244 -0.01230033 0.0017853533 -0.007894069 -0.009861524
-0.008073524 -0.004625593 -0.012559118 -0.022063106 -0.002071276 -0.0023579462 -0.010820004 -0.01103892
0.023929778 -0.009121483 -0.008525329 -0.016086543 -0.0059743742 -0.00746108 -0.0047338526 -0.007898088
-0.0039022644 0.002563748 -0.0010486841 -0.023884425 0.00023413193 -0.0067721894 -0.02013863 -0.0025946975
-0.0019258051 -0.0029179314 -0.02191461 -0.007879889 0.01882222 -0.0016191913 -0.018448425 -0.0021167716
-0.0054413164 -0.037000585 -0.003950436 -0.0012189264 -0.0034231842 0.001973652 -0.023339344 -0.004144125
0.0038222254 -0.0029139712 0.029423503 0.0012846037 -0.027015379 0.010705938 -0.01075732 -0.027596679
0.0088001555 0.007983988 0.0145188905 -0.0040705735 0.020368094 0.046684217 0.0120481495 -0.013977158
0.008285441 0.013235049 -0.057872493 0.010011126 0.003986846 0.009116783 0.008499744 -0.0163097
0.007886848 0.012910209 0.0012130118 -0.018394457 -0.0039050968 0.026433311 -0.011834439 0.0069133313
00000000: ff05 3bb9 2fae 083a cb64 c63a 31ef 313a
00000010: 31fe 25b9 e57b 0a3a 75ad 0d39 8da5 9439
00000020: b8ba ca38 45fb 71ba a1d8 cb3a f7df ceba
00000030: 7572 173a bb00 d1ba 934f 4938 16d3 a7b8
00000040: a2b9 493a cec1 7e39 0d79 693a a772 653a
00000050: db78 8eba ce4b f23a efe5 cf3a 3cb0 fe39
00000060: 5603 453b 1059 b539 ef39 fbba 98f9 fa39
00000070: a71b 08ba 24d5 143a 6647 7eba 5b64 0a3a
00000080: d2a7 473a 32d9 53b9 6842 ba39 073b 043a
00000090: 8add 873a eadf 523a da1c 15ba 1cc9 81b8
000000a0: d028 a1b9 bec3 8f38 dc65 083a 2a3d e138
000000b0: 5624 9539 0887 d139 06b3 3cba d8bd 3a38
000000c0: 3fc1 4a3a 288e f439 e61a 1eba 3bd8 2c3b
000000d0: ee24 e33a 8819 3439 bdb3 3039 35e0 6cba
000000e0: d47b 5639 50ea b53a 7e6f b63a 0ed2 96ba
000000f0: c494 ea39 984b 6cbb 6d18 4739 0016 8438
00000100: 8b7b f5ba d238 553a 4af0 743a 2c2c baba
00000110: c158 e738 f3ed 8a3a 3abe 763a 7bf2 0b3b
00000120: 8255 7e3a c4eb 6dba 4a2d 97ba 53fa 943a
00000130: b56b d5ba 1afc 18b7 5035 463a 76e1 953a
00000140: f762 13b8 1246 763a 9694 06ba 4dad d839
00000150: f011 7cba d403 3eb8 b28e b23a 3db2 5eba
00000160: 747f 1e3a 8f29 5b3a edbf a1b9 63a3 2bba
00000170: 6794 cbb8 0b89 773a 4eab 26b9 fce1 e03a
00000180: 080b acba b96f 1cba 79ee 84b9 f20a e5ba
00000190: ccdb 3bb7 7eba 87bb c471 4f3a 6d12 d73a
000001a0: 5e36 03ba 5b06 8439 7d65 f23a 0ba5 433a
000001b0: 8333 4f3a 0cf0 9e3a 11ac d73a f6dc 963b
000001c0: 772c 243a a573 10bb e201 d838 ce2b c039
000001d0: ed9b 843a 46a1 133b 85ed 0039 c94c 793a
000001e0: f50c e739 77ef 70ba 2451 dd3a 54b5 5cb7
000001f0: 3c50 b3b9 1ea7 b038 dee1 193a 9dbe f7b9
00000200: 99ce a1ba 3411 2fb9 6673 d339 6311 c8ba
00000210: fd90 8b3a b365 d4b9 af1f ec38 d7f5 f0ba
00000220: 5704 1bbb 95bb 8cba 27a2 243b af81 bbba
00000230: dd4f d7ba 0ba7 8fb9 30d7 78bb 901b 23b8
00000240: 5a56 f8b9 24c9 27bb 61e7 c33a 1a5c a139
00000250: 04d1 f3b9 f0d5 4039 d1a8 80b7 544d adba
00000260: 8949 25b9 73ea 4fba 5007 4a3a 6b25 3aba
00000270: e909 2a3a e7b4 033b 0f6d d7b9 e5b2 f439
00000280: 0564 96b9 a764 25ba dc2f c639 94fc e1ba
00000290: e7d3 f2b7 bfb6 cdb8 b0c9 023a 31f2 423a
000002a0: 2935 95b7 8ec4 e138 df1b 06b9 0053 583a
000002b0: 1892 4eba 53e7 5939 a49a 0b3a 8c7f 33bc
000002c0: 09c2 3abc c9c1 0dbc 6fae c9bb cb8d 70bc
000002d0: 5387 49bc 8402 ea3a 2056 01bc 3b92 21bc
000002e0: d046 04bc 4992 97bb c2c4 4dbc b0bd b4bc
000002f0: 3fbe 07bb c687 1abb 6346 31bc 96dc 34bc
00000300: 6208 c43c 4672 15bc d2ad 0bbc edc7 83bc
00000310: afc4 c3bb 137c f4bb 6f1e 9bbb fb66 01bc
00000320: 22bd 7fbb 8e04 283b 0074 89ba 45a9 c3bc
00000330: 5081 7539 3ee9 ddbb c5f9 a4bc cd0b 2abb
00000340: 4c6b fcba c43a 3fbb 4586 b3bc a61a 01bc
00000350: 0e31 9a3c 0b3b d4ba 2721 97bc 89b9 0abb
00000360: 124d b2bb ed8d 17bd a972 81bb 62c4 9fba
00000370: 8057 60bb 6358 013b 2732 bfbc 71cb 87bb
00000380: 4d7e 7a3b 53f8 3ebb 8f09 f13c 2660 a83a
00000390: 5b4f ddbc f567 2f3c 783f 30bc 6e12 e2bc
000003a0: 872e 103c 46cf 023c a4e0 6d3c 7262 85bb
000003b0: fdda a63c f337 3f3d 9a65 453c 7300 65bc
000003c0: a9bf 073c d2d7 583c b50b 6dbd b505 243c
000003d0: 17a4 823b 8f5e 153c 8342 0b3c ec9b 85bc
000003e0: d737 013c 5785 533c ecfd 9e3a f9af 96bc
000003f0: a7ec 7fbb ac8a d83c 3ce5 41bc 3a89 e23b

gbrbm.b f4 [25]
-3.6442866 -2.80427 -3.1737943 -3.6110325 -3.1774924 -3.5155895 -3.8797798 -2.7845032
-3.1104672 -3.7678611 -3.2716365 -3.3571236 -0.3698746 -2.7925596 -3.37744 -3.617738
-3.4360452 -3.41935 -3.2113209 -3.0715847 -3.1653743 -3.3171387 -2.9436624 -3.2979097
-2.973897
00000000: fe3b 69c0 2979 33c0 721f 4bc0 281b 67c0
00000010: 095c 4bc0 6bff 60c0 504e 78c0 4d35 32c0
00000020: e511 47c0 a324 71c0 7e62 51c0 1ddb 56c0
00000030: 3460 bdbe 4cb9 32c0 fa27 58c0 0589 67c0
00000040: 2ae8 5bc0 a1d6 5ac0 4886 4dc0 d894 44c0
00000050: 7e95 4ac0 004c 54c0 f764 3cc0 f410 53c0
00000060: 5454 3ec0

gbrbm.mu f4 [50]
-0.00864526 -0.0017633718 -0.0028561342 0.0037491592 -0.0061766827 0.0015858364 -0.0018612298 0.10097114
0.07935862 -0.044840936 0.04482973 -0.0016337835 -0.0017016646 -0.0036534313 0.003898992 0.001795616
0.00032532026 0.0040308954 0.004308828 0.0016849316 0.0020123543 0.0024263393 -0.00089500006 0.0008849881
0.0034182437 0.0018016001 0.0015912231 -0.00012392784 -0.00071983144 0.0018498362 0.0025930065 0.006411838
0.00647748 0.0025220944 -0.002130315 0.0029673614 0.0002759229 -0.0011972446 -0.0024483236 0.0034005586
0.002658393 -0.0054594083 -0.0020152223 0.0022104902 -0.0054021645 -0.0013553833 0.0021123479 -0.00088377064
-0.00521782 0.0017600382
00000000: d9a4 0dbc f020 e7ba fb2d 3bbb 74b4 753b
00000010: c565 cabb d7db cf3a 82f4 f3ba f5c9 ce3d
00000020: c686 a23d 21ab 37bd 619f 373d ad24 d6ba
00000030: 640a dfba 686e 6fbb 3b86 7f3b e05a eb3a
00000040: bf8f aa39 9a15 843b 1231 8d3b ecd8 dc3a
00000050: b4e1 033b 3803 1f3b 709e 6aba 8cfe 673a
00000060: 9d04 603b ab23 ec3a 9690 d03a a0f2 01b9
00000070: 12b3 3cba 3476 f23a 6eef 293b 651a d23b
00000080: 0a41 d43b b949 253b c19c 0bbb 1078 423b
00000090: bfa9 9039 ddec 9cba 0e74 20bb e8db 5e3b
000000a0: 6f38 2e3b d6e4 b2bb d211 04bb dfdd 103b
000000b0: a404 b1bb 1ea7 b1ba 516f 0a3b d8ac 67ba
000000c0: 3ffa aabb 15b1 e63a

gbrbm.log_var f4 [50]
-10.830838 -10.923534 -10.748436 -10.894087 -10.488565 -10.7427225 -10.652251 -7.57421
-7.9918723 -5.6016374 -5.502504 -10.90042 -10.65593 -10.919222 -10.798272 -10.996202
-10.7769785 -10.919884 -10.870434 -11.033429 -10.778003 -10.952375 -10.792907 -11.050115
-10.773692 -10.849104 -10.705464 -10.744103 -11.000812 -11.023383 -10.821721 -11.001336
-6.778201 -11.001751 -10.537634 -8.437123 -10.748082 -11.084213 -10.918721 -10.928673
-11.02124 -10.867644 -10.902702 -10.866216 -11.030085 -10.721029 -10.826794 -10.883099
-10.940267 -10.879602
00000000: 1d4b 2dc1 ccc6 2ec1 98f9 2bc1 2e4e 2ec1
00000010: 2ad1 27c1 31e2 2bc1 9f6f 2ac1 ee5f f2c0
00000020: 6bbd ffc0 9d40 b3c0 8314 b0c0 1f68 2ec1
00000030: b07e 2ac1 22b5 2ec1 b9c5 2cc1 72f0 2fc1
00000040: 816e 2cc1 d8b7 2ec1 4ced 2dc1 ed88 30c1
00000050: b372 2cc1 ee3c 2fc1 bfaf 2cc1 45cd 30c1
00000060: 0b61 2cc1 ee95 2dc1 9549 2bc1 d9e7 2bc1
00000070: 5303 30c1 c75f 30c1 c525 2dc1 7905 30c1
00000080: 06e7 d8c0 2c07 30c1 269a 28c1 75fe 06c1
00000090: 25f8 2bc1 f058 31c1 15b3 2ec1 d8db 2ec1
000000a0: 0057 30c1 dfe1 2dc1 7871 2ec1 05dc 2dc1
000000b0: 3a7b 30c1 5689 2bc1 8c3a 2dc1 2c21 2ec1
000000c0: 550b 2fc1 da12 2ec1

gbrbm.linear_layer.weight f4 [1, 25]
0.52697533 -0.11219038 0.24953476 0.35715345 0.17102882 0.2377123 0.61897093 -0.058038615
0.101294875 0.5849202 0.82707846 -0.08064833 -0.60502845 -0.3592071 0.06785738 0.14220206
0.14495966 0.6904862 0.18913732 -0.035283033 0.31787285 0.38831586 0.11772669 -0.140753
-0.17457424
00000000: dbe7 063f 12c4 e5bd 0a86 7f3e d1dc b63e
00000010: 2e22 2f3e da6a 733e e174 1e3f e6b9 6dbd
00000020: b073 cf3d 55bd 153f 6abb 533f f42a a5bd
00000030: 25e3 1abf fee9 b7be cff8 8a3d 6b9d 113e
00000040: 4e70 143e b4c3 303f 37ad 413e f184 10bd
00000050: 3bc0 a23e 56d1 c63e b11a f13d 8e21 10be
00000060: 97c3 32be
