final_project/gru_gbrbm/type2/gru_gbrbm_W5_H200_V400_B16_D2.pt (torch, 834329 bytes, 9 tensors)

lstm_layer.lstm1.weight_ih_l0 f4 [600, 9]
000000 94 9a f1 b8 ec 99 60 3a ca e3 ca b8 df 88 33 37
       -0.00011520568 0.0008567858 -9.6745396e-05 1.0701099e-05
000010 2e 31 fa b8 d0 10 20 b9 a0 a3 1e b9 8e 62 87 b8
       -0.000119300894 -0.00015265052 -0.00015129009 -6.455659e-05
000020 de 66 5d b8 ea 55 0d ba d1 59 da 3a a2 97 99 37
       -5.278631e-05 -0.00053915253 0.0016658847 1.830963e-05
000030 e3 be ea 39 ac 16 f0 38 54 a7 12 b6 19 d2 e9 b7
       0.0004477418 0.00011448315 -2.1853093e-06 -2.7873599e-05
000040 b1 9e d6 b8 5c 91 b9 38 e2 74 09 ba b6 08 09 3a
       -0.00010233874 8.848563e-05 -0.0005243552 0.0005227433
000050 04 e1 e6 36 0c aa 91 39 c7 77 3e 38 8f 7d 28 b8
       6.8807294e-06 0.0002778325 4.541108e-05 -4.0171257e-05
000060 1c 7c 4f 35 c8 1e 16 b8 26 30 9c b7 8c cd 20 b8
       7.729411e-07 -3.5791454e-05 -1.861907e-05 -3.8338403e-05
000070 f7 fb ff b8 e5 ae 8a b5 0c 45 65 b7 81 b2 6c 36
       -0.0001220628 -1.0332702e-06 -1.366554e-05 3.5270643e-06
000080 f7 6b fa b6 d7 7e 0b b7 75 73 6f b7 6f 87 ab b6
       -7.4631494e-06 -8.314578e-06 -1.4272392e-05 -5.1119637e-06
000090 b1 72 89 38 54 4f 17 39 af 8e 19 b8 78 61 e8 b7
       6.554032e-05 0.00014430034 -3.6610927e-05 -2.7701943e-05
0000a0 2b c3 d1 b7 f2 5c e0 b7 cf 02 ea b7 0c cf 53 b8
       -2.5005624e-05 -2.6746162e-05 -2.7896282e-05 -5.0499148e-05
0000b0 fd aa 7d b8 be 29 be 39 93 47 23 b9 4a c6 8f b7
       -6.0479146e-05 0.00036270724 -0.00015571555 -1.7139264e-05
0000c0 4d d8 e1 b8 cd 06 70 b8 fd 12 81 b7 46 52 9a 37
       -0.00010769125 -5.7226793e-05 -1.538684e-05 1.8396542e-05
0000d0 4b c9 0c 37 19 ed 3d b8 5f 5a 44 ba 24 32 a0 3a
       8.391517e-06 -4.5281926e-05 -0.0007490273 0.0012221974
0000e0 61 54 90 38 6c 83 ab 39 f8 18 64 37 db cd 41 38
       6.882172e-05 0.0003271358 1.35956725e-05 4.6206504e-05
0000f0 8e ab dd 38 f9 d3 03 39 aa 94 2e 39 cb 9f 90 38
       0.00010570056 0.000125721 0.00016649315 6.896219e-05
000100 10 be 83 b8 d6 0b 28 b7 c3 24 8e b8 8e 87 7f b7
       -6.281969e-05 -1.0016336e-05 -6.777935e-05 -1.5230746e-05
000110 e0 63 f0 b6 67 d8 20 b7 8c 61 87 b6 17 68 b8 b6
       -7.1641844e-06 -9.587128e-06 -4.0346695e-06 -5.495745e-06
000120 f4 72 d0 39 56 11 40 b9 47 a9 e5 b8 ee 08 fc b9
       0.00039758498 -0.00018317005 -0.00010951101 -0.0004807184
000130 1d 23 98 b8 4e 3a 7d b8 91 20 fc b8 64 26 0a b9
       -7.254465e-05 -6.03742e-05 -0.00012022362 -0.00013175007
000140 1b b7 57 b9 17 1a 8d b6 a1 0f d0 b8 f7 8e b7 36
       -0.0002057221 -4.2051647e-06 -9.921124e-05 5.4704683e-06
000150 3e 5b 5c b7 79 42 d3 35 bb b8 e2 36 be f0 4b 36
       -1.3134266e-05 1.5740071e-06 6.7568303e-06 3.0389488e-06
000160 d5 df ab 35 c6 26 a4 37 6e 43 ef 38 26 63 e9 b7
       1.2805637e-06 1.9568379e-05 0.00011408968 -2.7821934e-05
000170 72 1b 94 37 f4 42 a4 37 a3 b2 eb b6 e4 4f a5 37
       1.7655755e-05 1.9581501e-05 -7.024342e-06 1.9706735e-05
000180 79 b7 e1 37 9a 91 f0 37 88 c3 a8 37 29 7c fa 36
       2.6907526e-05 2.867803e-05 2.0118212e-05 7.4650347e-06
000190 3c c5 c0 b8 22 4e 95 b7 00 11 9c b8 95 96 57 37
       -9.192011e-05 -1.7798568e-05 -7.441826e-05 1.2850059e-05
0001a0 be 10 1a b7 f6 67 09 b8 cd 47 f6 b7 5a f9 6f b8
       -9.183013e-06 -3.2760167e-05 -2.935892e-05 -5.7214267e-05
0001b0 e8 72 bf 38 ee 8b 00 b7 19 8a c4 37 fa 00 9a b7
       9.128993e-05 -7.661974e-06 2.3429327e-05 -1.8358685e-05
0001c0 80 fc 0f 37 42 9d e3 37 df cf 07 38 f3 6d 08 38
       8.582254e-06 2.7133738e-05 3.2380103e-05 3.2527325e-05
0001d0 8f b2 6a 36 cd 16 17 ba 62 85 0f 3a 80 c7 58 37
       3.4972652e-06 -0.00057635905 0.00054748927 1.2921053e-05
0001e0 9b 0e 75 39 3d d7 5f 38 9c 8f 48 38 47 15 3b 38
       0.00023370462 5.33678e-05 4.7817462e-05 4.460409e-05
0001f0 31 e3 a2 36 4d f3 13 38 20 de 04 b8 37 bb 98 38
       4.854425e-06 3.5274123e-05 -3.1678122e-05 7.282796e-05
000200 b0 ce ed b7 7a ec b3 b6 f2 03 af 37 8b c6 71 b7
       -2.8348848e-05 -5.362145e-06 2.0863463e-05 -1.4410946e-05
000210 81 cb 1c b8 f2 d2 81 b8 3a 4f 8a b8 7c 85 7d ba
       -3.7382826e-05 -6.190491e-05 -6.59511e-05 -0.0009671075
000220 eb 73 c3 3a ba 32 f1 b8 83 01 bc 39 c5 91 07 b9
       0.0014911866 -0.00011501224 0.0003585928 -0.00012928907
000230 13 d0 a9 b8 71 0c b7 b8 cf 90 cd b8 36 e0 6d 38
       -8.097305e-05 -8.7284374e-05 -9.8021344e-05 5.6714016e-05
000240 9d 36 4c b9 67 d4 1f 39 b7 d1 93 37 2e 41 46 39
       -0.00019475301 0.00015242548 1.7621422e-05 0.00018907033
000250 58 f7 25 b7 a8 5d 64 37 ee 2a b5 38 53 62 ad 37
       -9.892356e-06 1.3611665e-05 8.638749e-05 2.0668993e-05
000260 85 a7 22 39 fd 23 28 b9 72 5a 9a b8 7c 78 1e b7
       0.0001551193 -0.00016035135 -7.360139e-05 -9.445586e-06
000270 0c 1e 0b b8 e6 2e dd 37 76 48 e2 b4 27 36 9d b7
       -3.3168166e-05 2.6367092e-05 -4.2148503e-07 -1.8741075e-05
000280 fe 48 2b b8 46 b1 0a b8 e9 e9 71 b9 16 30 98 b8
       -4.0837556e-05 -3.3066863e-05 -0.0002307069 -7.2568815e-05
000290 28 39 77 37 5c 6d aa b7 bf 88 67 37 8e 18 a9 b6
       1.4735655e-05 -2.0316504e-05 1.3800512e-05 -5.039451e-06
0002a0 0b 10 6d b7 42 b7 23 35 e0 e4 6e 38 a0 4d e3 b9
       -1.4130036e-05 6.0988907e-07 5.695678e-05 -0.0004335465
0002b0 af 52 68 3a ff 1c ac 38 03 ee 68 39 aa e8 0b 39
       0.00088624185 8.207e-05 0.0002221391 0.00013342747
0002c0 27 75 2f 37 e1 08 34 37 14 7b fd b6 85 9a b6 38
       1.04580895e-05 1.0730903e-05 -7.5543157e-06 8.707218e-05
0002d0 37 72 f3 36 00 ec 00 38 c8 4c 9e b8 22 77 15 b9
       7.2552607e-06 3.073737e-05 -7.548329e-05 -0.00014254128
0002e0 d1 8a b0 b8 6d 6d bb b8 c8 c7 93 b8 ac 58 30 b8
       -8.4181906e-05 -8.937237e-05 -7.0467184e-05 -4.2044252e-05
0002f0 af cc bf b7 c8 b6 88 39 6c ba fe b9 f1 bb 22 b6
       -2.2864288e-05 0.00026076124 -0.0004858555 -2.4249277e-06
000300 41 4a f9 b8 fa 9e 7e 37 6b ec 0e 37 15 42 cd b5
       -0.00011887076 1.5176594e-05 8.518905e-06 -1.5292923e-06
000310 88 01 33 b8 9b 2a b2 b8 f9 91 9c 38 20 3c ac b9
       -4.267835e-05 -8.495637e-05 7.465849e-05 -0.00032851193
000320 9b ce ee 37 1c d8 d8 b7 6c 56 99 36 29 0a 25 38
       2.8468019e-05 -2.584984e-05 4.569816e-06 3.9348528e-05
000330 ce b7 13 38 61 30 07 38 cb d9 59 37 c4 14 cd 39
       3.5218713e-05 3.2231565e-05 1.2984917e-05 0.0003911612
000340 d0 8f 0b ba e7 70 6b b8 eb 37 e8 b8 44 a8 2f b8
       -0.0005323859 -5.6133515e-05 -0.000110730376 -4.187996e-05
000350 60 0b 0b b8 1c 57 27 b8 c8 61 9d b8 46 02 c9 b8
       -3.3150776e-05 -3.989703e-05 -7.5045566e-05 -9.58485e-05
000360 1e 5b 62 38 87 ed e2 b8 a3 df 25 37 0b c2 2a b7
       5.396746e-05 -0.00010820763 9.886836e-06 -1.0177969e-05
000370 9c fe f9 36 31 da 5c 36 f7 6b 41 35 38 5d e2 36
       7.4504187e-06 3.2909559e-06 7.205521e-07 6.746177e-06
000380 30 2d b2 b3 b4 0d d9 b8 e1 d7 8b 39 a8 c7 c2 38
       -8.2969905e-08 -0.00010349919 0.00026672988 9.28783e-05
000390 33 61 87 39 41 af 32 39 92 9f 8f 38 a8 41 eb 38
       0.00025821626 0.0001704069 6.848494e-05 0.00011217903
0003a0 22 fb 2d 39 2a e7 18 39 85 8d 07 ba aa 80 a7 39
       0.0001659212 0.00014581965 -0.00051709294 0.00031948584
0003b0 73 79 84 b7 b4 7b dd 37 cc 72 55 38 5b b9 07 b8
       -1.579218e-05 2.6402857e-05 5.089007e-05 -3.2359134e-05
0003c0 e5 f2 08 b8 e9 d4 64 b8 e3 89 e3 b7 e4 bf 8e b8
       -3.265114e-05 -5.4557724e-05 -2.7124717e-05 -6.80683e-05
0003d0 12 c3 07 b9 a9 da 3c b8 3e 9f b9 b8 be 21 f3 b7
       -0.00012947273 -4.5026336e-05 -8.8511486e-05 -2.898357e-05
0003e0 a6 f0 10 b8 6b a8 1b b8 89 86 56 b8 10 a7 7e b8
       -3.4556397e-05 -3.711173e-05 -5.114687e-05 -6.0713908e-05
0003f0 82 9d 58 39 98 94 16 b9 81 c3 1d b8 b2 fc 78 b9
       0.00020658041 -0.0001436047 -3.7613794e-05 -0.0002374526

lstm_layer.lstm1.weight_hh_l0 f4 [600, 200]
000000 a5 3f 64 b7 8e b1 c2 37 91 07 4d b7 f7 de 7f 36
       -1.3604677e-05 2.3209283e-05 -1.2220714e-05 3.8127744e-06
000010 f6 0d cd 36 3a 2f b5 36 e1 54 65 b7 50 a1 53 37
       6.1111014e-06 5.3997182e-06 -1.3669226e-05 1.26141385e-05
000020 f9 62 2e b6 df 41 da 36 21 53 dd 36 a2 3c 9a 36
       -2.598563e-06 6.5045747e-06 6.5959907e-06 4.5966162e-06
000030 94 97 a6 b5 3f aa 5a b6 e8 9c 73 39 9f 7b e3 36
       -1.2412079e-06 -3.2583628e-06 0.00023232738 6.7795186e-06
000040 2b 0b fd 36 d1 02 07 b9 88 14 aa 38 33 19 42 37
       7.5412877e-06 -0.00012875652 8.110056e-05 1.1569168e-05
000050 eb 87 51 37 6e d4 f7 b7 e4 14 b9 36 40 5b 15 b7
       1.2489017e-05 -2.9543615e-05 5.5158616e-06 -8.902338e-06
000060 81 c1 b6 b6 63 d5 a5 35 a2 61 49 b6 7f 4d 6a b6
       -5.4465495e-06 1.2355562e-06 -3.0008164e-06 -3.4913826e-06
000070 6a 6e 33 36 ca aa 2a 38 09 88 94 35 ec 02 79 b7
       2.6737348e-06 4.0690218e-05 1.1066451e-06 -1.4842237e-05
000080 52 af 84 37 89 de 09 b8 5b c7 55 35 cf 81 58 b7
       1.5817266e-05 -3.2870597e-05 7.9638784e-07 -1.2904827e-05
000090 f1 41 38 b7 e3 30 80 b7 0d 7a c6 b6 73 89 7e 38
       -1.0982608e-05 -1.5281554e-05 -5.9150684e-06 6.068633e-05
0000a0 de a9 4f b8 f3 1a db 36 7a 5b eb 37 6a f4 b1 b5
       -4.9510847e-05 6.529846e-06 2.805678e-05 -1.3258662e-06
0000b0 d9 ae 82 b8 08 12 ba 36 fb fa da 36 65 cf 13 b6
       -6.231451e-05 5.545331e-06 6.5261243e-06 -2.2025426e-06
0000c0 1f 08 5a b8 b9 95 d5 37 62 71 79 b7 bb a1 28 b7
       -5.1982814e-05 2.5461299e-05 -1.48679555e-05 -1.0051236e-05
0000d0 53 28 60 35 c7 97 bc 36 15 d1 2f b6 79 e5 0d 37
       8.350518e-07 5.620506e-06 -2.6198734e-06 8.457683e-06
0000e0 19 34 61 b6 2d 13 4e 37 6f f5 aa 37 fb db 71 b6
       -3.3557938e-06 1.22830215e-05 2.0379868e-05 -3.6039844e-06
0000f0 ca b3 59 b3 fe 99 a0 b7 a6 d1 45 b5 3e 14 8c b6
       -5.0687767e-08 -1.9145195e-05 -7.36933e-07 -4.1746816e-06
000100 49 cd 71 37 2c ac 3e 37 6b 97 35 b8 25 bf 60 36
       1.4412516e-05 1.1364969e-05 -4.329478e-05 3.3489862e-06
000110 c0 35 9a 37 31 d3 03 b8 56 64 c2 36 fc 8d 02 39
       1.838326e-05 -3.142952e-05 5.793331e-06 0.0001245066
000120 d3 a0 76 37 4f 49 e3 b6 7d dc 90 b6 3f 82 da 35
       1.4700187e-05 -6.7736614e-06 -4.3172026e-06 1.6280172e-06
000130 2f 31 85 b7 eb 4c 45 b7 5b d9 f3 b7 66 2e 69 b6
       -1.5877738e-05 -1.1760024e-05 -2.9069071e-05 -3.4746713e-06
000140 45 a5 3b b7 7d 5e 6b b7 57 68 b3 b2 2a 24 38 36
       -1.1184548e-05 -1.4029091e-05 -2.088579e-08 2.7439187e-06
000150 42 70 ea 37 7c ce c4 36 89 75 2a 36 48 09 23 37
       2.7947248e-05 5.865293e-06 2.5400388e-06 9.717718e-06
000160 9e e8 7c b8 13 79 3d 38 8f 29 8a b7 73 54 aa 32
       -6.0298124e-05 4.517387e-05 -1.6470234e-05 1.9829008e-08
000170 e1 69 02 b7 76 f5 e0 b6 57 2e 86 36 4b c3 2f 39
       -7.773256e-06 -6.7042956e-06 3.998906e-06 0.00016762053
000180 b8 a1 fe b7 1e f7 b2 b7 08 ea 0e b6 d4 8f 97 b7
       -3.0354466e-05 -2.1334326e-05 -2.1295873e-06 -1.8067578e-05
000190 b6 af 89 b7 06 a5 54 b8 e1 e3 99 b6 88 78 59 b7
       -1.6413494e-05 -5.069843e-05 -4.586284e-06 -1.2962271e-05
0001a0 4f df cb b4 0a e7 10 b7 ea f7 45 36 f4 55 34 b7
       -3.7974175e-07 -8.636862e-06 2.9499593e-06 -1.0748849e-05
0001b0 59 1d c7 37 92 fc 51 b6 e5 ef 7a 36 42 c2 b0 b8
       2.3736315e-05 -3.1290442e-06 3.739254e-06 -8.428517e-05
0001c0 15 2e 2d 37 48 ea 7e b6 ad 29 05 37 d9 f5 f6 b5
       1.0322333e-05 -3.798532e-06 7.937121e-06 -1.8399979e-06
0001d0 60 8c 01 37 29 e5 69 36 00 f5 63 38 ea 3b b3 36
       7.721683e-06 3.4853094e-06 5.434919e-05 5.3415906e-06
0001e0 ef 84 cd 35 29 8f 54 37 8b 19 4b 36 a3 d6 8c 36
       1.5312379e-06 1.2669517e-05 3.0264225e-06 4.197312e-06
0001f0 82 ae 5f 37 75 b5 ba 37 be 56 18 35 62 cd 74 37
       1.3332467e-05 2.2257425e-05 5.675064e-07 1.4591353e-05
000200 cb 84 dc 36 d9 33 bb 36 39 fc 8c b6 58 55 6a b8
       6.57197e-06 5.57907e-06 -4.2016877e-06 -5.586943e-05
000210 5d 6d 6e 39 22 4f ee b7 ef 94 fb 36 22 87 8a b7
       0.0002273819 -2.840866e-05 7.497721e-06 -1.6513808e-05
000220 bd 33 32 b7 81 56 3c 39 3d 1a a2 b7 63 d7 5c b7
       -1.0621673e-05 0.00017961302 -1.9324123e-05 -1.31631705e-05
000230 2f 43 6e 36 a5 63 6f b6 41 6a cb b4 66 27 de b4
       3.550387e-06 -3.5671776e-06 -3.7889006e-07 -4.1379388e-07
000240 c1 bc 22 b6 85 75 8e 37 84 10 c3 34 67 df 12 b8
       -2.424975e-06 1.6982443e-05 3.6333597e-07 -3.5017172e-05
000250 03 fa 64 b6 7f de 2c b7 a0 fd 7a b9 a9 6c 4e 36
       -3.4120173e-06 -1.0303803e-05 -0.0002393634 3.075964e-06
000260 f6 ea 4f b7 fd 52 58 b7 29 9e ba b7 b1 6e ef 36
       -1.2392868e-05 -1.28939255e-05 -2.2246577e-05 7.135641e-06
000270 77 9d 0c 34 08 22 7d 36 de 3f 37 36 24 af 19 38
       1.3095801e-07 3.7719747e-06 2.73063e-06 3.6641155e-05
000280 9b e0 71 b8 88 1a f7 b7 40 88 8d 37 19 bb c8 b6
       -5.7668058e-05 -2.945705e-05 1.6871956e-05 -5.9822455e-06
000290 6f 7e 82 36 a7 c4 99 36 34 86 05 38 24 73 4d 36
       3.8890207e-06 4.5826487e-06 3.1834657e-05 3.06144e-06
0002a0 01 c9 d7 b6 2d f5 85 b6 e7 28 b4 37 33 68 1c b7
       -6.4308992e-06 -3.992251e-06 2.1476719e-05 -9.322585e-06
0002b0 15 97 98 b7 4f 1d e8 b7 85 e4 3e b6 97 c8 6f 37
       -1.8190165e-05 -2.7670203e-05 -2.8445222e-06 1.4292214e-05
0002c0 65 e0 82 b6 f7 59 8d 37 24 b6 9d 37 62 ee 84 35
       -3.900425e-06 1.6850403e-05 1.8800674e-05 9.904145e-07
0002d0 97 d8 08 b8 6a c3 4c 36 5b 80 f5 b5 3b b8 9f 36
       -3.262664e-05 3.0512115e-06 -1.8291279e-06 4.7600165e-06
0002e0 65 c0 de b6 82 c1 0b b8 08 fd 06 b8 c6 f5 33 38
       -6.6385132e-06 -3.33204e-05 -3.2183743e-05 4.290582e-05
0002f0 9d e8 44 37 71 3e ae 36 9e 48 a9 b7 e9 da b0 b2
       1.173667e-05 5.1928732e-06 -2.0180185e-05 -2.0588645e-08
000300 01 6d dc 36 f2 23 3f 37 c1 09 d9 37 aa 58 51 b6
       6.5692007e-06 1.1392856e-05 2.5872958e-05 -3.1195036e-06
000310 36 58 dd b5 b7 0e d9 b5 53 53 30 b6 0c 17 16 37
       -1.6491456e-06 -1.6172042e-06 -2.6274545e-06 8.946063e-06
000320 1d 8f 01 b5 dd 2d 51 b7 0d ed 83 b6 23 31 51 b7
       -4.82645e-07 -1.2468049e-05 -3.9317006e-06 -1.2468811e-05
000330 0a cd 13 b8 57 b1 11 b8 7c fb 4d 38 6c cc 0e 36
       -3.523849e-05 -3.4735855e-05 4.911002e-05 2.1278638e-06
000340 db be e3 37 21 78 14 b8 6f 8f a1 36 de 72 c6 b6
       2.7149383e-05 -3.539783e-05 4.8148718e-06 -5.914232e-06
000350 99 37 42 b7 cc 54 16 36 10 60 ae 38 03 bc d1 b5
       -1.1576246e-05 2.24011e-06 8.3148596e-05 -1.5626432e-06
000360 e2 5a 54 b6 f7 18 a9 b8 a8 ae 16 b9 ac f9 0a b8
       -3.1643362e-06 -8.063198e-05 -0.00014370179 -3.313429e-05
000370 d2 c6 71 36 ed d4 c4 b6 3f 82 10 b8 c3 19 34 b7
       3.6027527e-06 -5.866043e-06 -3.4453577e-05 -1.0734834e-05
000380 02 56 12 b6 e2 2c a5 36 73 4c ed b5 69 7f ac 37
       -2.1805758e-06 4.9226082e-06 -1.7680126e-06 2.0563328e-05
000390 8e 26 94 b5 ff 91 d2 36 71 a2 0c 36 31 25 79 b6
       -1.103808e-06 6.275484e-06 2.095618e-06 -3.712554e-06
0003a0 dd 13 21 b7 0c e4 47 b5 3c 16 37 37 95 1b 40 36
       -9.600973e-06 -7.446513e-07 1.0912827e-05 2.8626284e-06
0003b0 16 52 8d 38 70 58 1b 38 6d 95 89 b6 e2 71 7c 36
       6.7386936e-05 3.7037244e-05 -4.1003136e-06 3.7617215e-06
0003c0 ad 28 2a b7 20 d2 19 34 d0 dc 97 35 95 50 ab b6
       -1.014226e-05 1.4325678e-07 1.1314642e-06 -5.105578e-06
0003d0 73 6d 22 39 38 02 57 b6 83 ac 8d b8 26 64 15 b6
       0.00015490297 -3.2038788e-06 -6.755537e-05 -2.2261024e-06
0003e0 a3 8e 0f 39 2f f1 05 36 88 63 2c b6 78 0d a1 36
       0.00013690679 1.9958932e-06 -2.5687932e-06 4.799742e-06
0003f0 a9 1b 09 b7 31 9d b6 b7 33 a0 ad b6 ca d7 cf b7
       -8.1722765e-06 -2.1769289e-05 -5.1744514e-06 -2.4776808e-05

lstm_layer.lstm1.bias_ih_l0 f4 [600]
000000 16 6a 4e 38 9a 2f e8 39 0f 63 c9 39 76 a8 36 37
       4.9213028e-05 0.00044285954 0.00038411512 1.0887268e-05
000010 8b 72 60 b9 fc b1 b6 b9 e1 f9 2d 3a 0f e4 32 b8
       -0.00021404975 -0.00034846354 0.0006636661 -4.2650903e-05
000020 fb 35 d7 b9 9a 1c 28 b6 0a 39 09 b9 70 2d e3 b7
       -0.00041048214 -2.50506e-06 -0.00013086587 -2.7081667e-05
000030 f3 3b 42 b8 84 c9 f5 39 cc b1 64 38 ff 1e 66 3a
       -4.6309036e-05 0.00046880182 5.4525022e-05 0.00087784225
000040 80 7c ed 38 ca 3b ed 38 05 43 87 39 83 a8 c7 39
       0.000113242306 0.00011312177 0.0002579914 0.0003808179
000050 dd 75 e1 35 4e 0f 56 b9 09 54 da 37 db fa c0 b9
       1.6798109e-06 -0.00020414332 2.6026757e-05 -0.00036807996
000060 83 1c 4e b8 ab c0 82 39 6e 6d ce 39 6e 55 ac 36
       -4.914078e-05 0.0002493908 0.00039372913 5.135945e-06
000070 4e ab 3d b9 e7 bf 5e 38 0e 8d 88 b8 61 54 94 37
       -0.0001808826 5.3107648e-05 -6.511259e-05 1.7682267e-05
000080 74 65 c0 b8 84 b9 90 3a 3e 91 51 b8 23 12 10 39
       -9.1741706e-05 0.0011041616 -4.996475e-05 0.00013739667
000090 37 d6 c2 b8 dc 01 82 b8 35 6c 0b b9 74 39 25 b9
       -9.2905415e-05 -6.1992294e-05 -0.00013296383 -0.00015757029
0000a0 59 fd 92 38 fc f2 8a ba 25 bb 2f 38 87 a0 da b8
       7.009012e-05 -0.001060098 4.1897543e-05 -0.000104249506
0000b0 d4 ab 48 39 31 6b 7b b6 27 d8 13 38 5b ba 91 38
       0.00019137497 -3.7464308e-06 3.524884e-05 6.94885e-05
0000c0 a6 d2 f5 3a a9 0b 8d b8 cf a2 9a b7 45 a3 d2 b8
       0.0018754795 -6.725576e-05 -1.8434044e-05 -0.00010043992
0000d0 f8 79 ac b7 61 09 91 39 27 c8 93 39 0f af 6b b8
       -2.0560794e-05 0.00027663543 0.0002818715 -5.6191402e-05
0000e0 b3 73 51 b7 0b 16 4d 3a 93 5d 69 38 11 b0 88 38
       -1.2484309e-05 0.0007823414 5.5638677e-05 6.51778e-05
0000f0 47 40 e6 b7 c0 ea 4a b8 f7 f4 a0 b7 68 d8 91 b7
       -2.7448068e-05 -4.837918e-05 -1.9187557e-05 -1.7386119e-05
000100 64 a5 44 39 e6 6e f5 3a 1d bf 28 37 4e 9a 03 b9
       0.0001875363 0.0018725067 1.0058077e-05 -0.00012550617
000110 6b c4 41 b9 43 bd 2d b9 22 10 7a 38 29 e5 68 3a
       -0.00018479086 -0.00016569071 5.961967e-05 0.0008884245
000120 14 56 14 ba 68 1d 20 b8 92 69 a8 b9 04 b3 86 39
       -0.00056585786 -3.817436e-05 -0.00032122113 0.0002569185
000130 74 a2 24 b8 f4 8a f2 39 48 c7 d1 38 f2 96 7c 3a
       -3.9251943e-05 0.00046261365 0.000100030156 0.000963553
000140 e7 f7 fd b6 fc 93 52 39 de 96 a3 3a 64 78 b7 b9
       -7.568847e-06 0.00020082289 0.0012480875 -0.00034994178
000150 b6 36 31 39 f1 e2 de 37 07 f5 27 b9 20 18 88 39
       0.00016900417 2.657014e-05 -0.00016017641 0.00025957916
000160 45 c8 91 39 9b ee 1e b7 4d f0 09 3a 70 1d 8d 3a
       0.00027805768 -9.4730885e-06 0.0005261943 0.0010766219
000170 b4 23 59 ba 13 b3 4d b9 31 9f 81 b9 e3 ba 51 3a
       -0.0008283213 -0.00019617034 -0.00024723404 0.00080005656
000180 57 a6 84 b8 80 13 fb b7 a9 e4 4b 3a d6 09 2b b4
       -6.325234e-05 -2.9930612e-05 0.00077779085 -1.5929194e-07
000190 47 c4 d6 36 cd 7f 2a 38 a4 74 cf b9 9d 1a f5 b6
       6.4005467e-06 4.0650182e-05 -0.0003956902 -7.304667e-06
0001a0 26 40 14 39 23 60 93 39 92 43 f6 b8 ae fa 0d 39
       0.00014138277 0.00028109652 -0.0001174278 0.00013540193
0001b0 a1 ef a9 ba 60 f9 40 b9 23 91 00 39 fb a3 70 3a
       -0.0012965092 -0.00018403446 0.00012261099 0.00091797084
0001c0 29 ca b9 39 bb 36 1a b9 c6 fe e9 b9 47 c2 38 ba
       0.0003543657 -0.00014706973 -0.00044631044 -0.00070479925
0001d0 e6 fb ce b8 94 bd e0 39 e1 d0 73 39 3b 35 80 b9
       -9.869765e-05 0.00042865856 0.000232521 -0.00024453722
0001e0 67 2c 70 39 9f 38 e3 b8 d9 2e 09 39 ce 3d 6b 38
       0.00022904725 -0.0001083475 0.0001308279 5.6085926e-05
0001f0 e4 7c 67 b8 8d c9 47 b9 ce 9c 0f ba 60 80 90 b9
       -5.5191005e-05 -0.00019053202 -0.0005478383 -0.00027561467
000200 cf b7 00 3a db d0 62 b9 b1 64 fc 38 b6 d6 d9 3a
       0.0004910202 -0.00021630844 0.000120350516 0.0016619775
000210 02 5f 08 3a c8 07 47 3a ee 4f 86 b9 17 40 a3 b6
       0.00052021455 0.0007592407 -0.00025618024 -4.8652396e-06
000220 34 ee 47 38 e9 47 13 39 66 e2 92 39 71 ec a2 3a
       4.766714e-05 0.00014045801 0.0002801597 0.0012430084
000230 2e db 55 39 34 47 39 39 cb 8c 4b b8 cf 78 72 b8
       0.00020394914 0.000176695 -4.8530095e-05 -5.7809808e-05
000240 0a 60 0b 39 75 38 ab b7 66 bb 2a ba 39 7d be b8
       0.0001329185 -2.0411078e-05 -0.000651291 -9.0832305e-05
000250 83 3d 59 b9 ae 38 9c b7 76 54 1b 3a f6 72 ea 37
       -0.00020717648 -1.8623043e-05 0.00059253664 2.7948507e-05
000260 19 1d 0e ba b1 03 4b 38 ba 81 75 b9 5a 5e a7 38
       -0.0005421206 4.840241e-05 -0.00023413348 7.980755e-05
000270 2f da c4 b8 b8 e7 6c 39 93 e3 c5 39 98 48 d9 39
       -9.386648e-05 0.00022593036 0.00037744324 0.00041443552
000280 f9 2d 3d 39 72 c9 fc b9 36 e4 f4 38 39 6d 6d 38
       0.00018041571 -0.00048215274 0.00011677334 5.6606925e-05
000290 a4 4d e9 39 10 e2 2b b8 1c 54 89 39 12 0d 0c 38
       0.0004449907 -4.0980114e-05 0.00026193343 3.3390774e-05
0002a0 3d b6 87 39 15 e1 6a b7 f9 1d ac b9 6a 3d e7 b9
       0.00025884985 -1.3999893e-05 -0.00032828728 -0.0004410551
0002b0 2c fa d2 39 10 5e b5 39 0f 94 4c b9 15 db c0 38
       0.00040240714 0.00034593092 -0.00019510112 9.196081e-05
0002c0 6a 94 60 ba 46 93 89 b7 5f 9c 05 b9 ca 92 84 37
       -0.00085670373 -1.6400252e-05 -0.00012742121 1.580398e-05
0002d0 b5 2a 01 3a 74 97 a3 38 29 a2 d6 38 09 b2 d8 39
       0.00049273233 7.800656e-05 0.0001023452 0.00041331377
0002e0 62 44 76 b8 3a 9c 88 39 c1 53 ec b9 88 8b 79 b7
       -5.8714657e-05 0.0002605634 -0.0004507583 -1.4874044e-05
0002f0 64 a7 d1 37 6f 7d 7f 39 1a c1 d2 39 91 5e c2 b7
       2.4992689e-05 0.00024365423 0.00040198193 -2.3170638e-05
000300 4c 78 87 3a ac 01 2a b9 b4 15 0c 3a 09 c0 fd 37
       0.0010335534 -0.00016213086 0.000534381 3.0249374e-05
000310 d1 2e 83 38 21 b5 01 ba 32 ae 3f 39 4b b9 43 ba
       6.255287e-05 -0.000494795 0.00018280072 -0.00074662705
000320 6a c5 92 38 ee a0 e0 b9 c3 a6 08 ba 28 00 b2 b7
       6.998594e-05 -0.0004284451 -0.0005212838 -2.1219326e-05
000330 23 2c 23 b8 8e 32 2f 3a 74 14 23 ba 35 bb d1 36
       -3.8903334e-05 0.00066832535 -0.00062210043 6.250479e-06
000340 53 1d ab 39 ab 6a e3 b8 2b 8f 30 39 c6 aa ba b8
       0.0003263751 -0.00010844072 0.00016838002 -8.90098e-05
000350 a9 17 f3 b6 3a a5 50 b8 17 e3 9c ba d4 86 e6 b9
       -7.2447187e-06 -4.9744944e-05 -0.0011969534 -0.00043969473
000360 29 28 b0 b9 98 14 ac ba 9f 11 c5 b9 f5 17 90 b9
       -0.00033599258 -0.0013128696 -0.00037587897 -0.0002748367
000370 ab 65 a5 b7 a1 d7 07 3a 77 89 93 b9 ec c8 81 3a
       -1.9716876e-05 0.00051819725 -0.00028140444 0.0009901798
000380 5c 53 61 b8 12 ac fe 39 03 ed 79 b9 95 fa 95 b7
       -5.3721815e-05 0.00048574858 -0.00023834784 -1.787887e-05
000390 67 ce e1 37 3e a6 fb b9 96 0f ab 38 e2 b6 af 39
       2.6918204e-05 -0.0004799831 8.1568185e-05 0.0003351486
0003a0 65 e5 88 39 0b fa 61 b9 21 ea 50 39 97 6f f7 b8
       0.00026110854 -0.0002155082 0.00019923646 -0.00011798663
0003b0 f5 22 a9 38 a9 42 95 b8 88 20 47 3a bb e8 ac 39
       8.065059e-05 -7.11729e-05 0.0007596095 0.00032979794
0003c0 4f b5 b2 38 49 c7 26 3a 39 70 75 b9 69 06 07 39
       8.521473e-05 0.0006362093 -0.00023406827 0.00012876991
0003d0 8d a8 1f b8 f7 6c f4 35 1a 9b a5 b7 6b 68 08 39
       -3.806553e-05 1.821113e-06 -1.9741758e-05 0.0001300887
0003e0 46 f8 e1 39 e2 13 07 39 db 73 60 37 6a 84 a3 39
       0.00043100322 0.0001288201 1.3378415e-05 0.0003118844
0003f0 fe e7 2b b9 c1 6b a0 38 cb dd 04 ba 5f 17 42 39
       -0.00016394255 7.649465e-05 -0.000506845 0.00018509988

lstm_layer.lstm1.bias_hh_l0 f4 [600]
000000 a5 9b fd 37 e9 e4 d6 39 03 6c ca 39 9a 41 41 37
       3.0232428e-05 0.00040987812 0.00038608917 1.15189705e-05
000010 1f 43 60 b9 ab a7 ae b9 2f b9 2f 3a de 1b 2f b8
       -0.00021387309 -0.0003331279 0.0006703315 -4.1749205e-05
000020 28 8a d7 b9 22 ef 26 37 d5 0b 08 b9 77 39 17 b8
       -0.0004111093 9.9500485e-06 -0.00012974378 -3.6054724e-05
000030 cf 2d 4f b8 b6 fd f6 39 aa fd 66 38 23 43 66 3a
       -4.939531e-05 0.00047109806 5.5072516e-05 0.0008783808
000040 38 25 ec 38 89 3b ed 38 86 bd 87 39 0c f3 c6 39
       0.000112602895 0.0001131213 0.00025890413 0.00037946587
000050 c2 d9 93 b7 64 04 54 b9 24 aa 30 38 ab 89 c4 b9
       -1.7625167e-05 -0.00020219531 4.2120126e-05 -0.00037486604
000060 87 ae 4a b8 f9 6e 50 39 82 2c c9 39 4a dd e9 36
       -4.8323094e-05 0.00019877766 0.00038370868 6.9697026e-06
000070 e3 7e 44 b9 29 cc ab b7 3d c7 0c b8 88 16 a0 37
       -0.00018739286 -2.0479858e-05 -3.3564156e-05 1.9083978e-05
000080 41 4a 13 b9 31 8f 90 3a 8e 0b 86 36 8d 4b fe 38
       -0.00014046674 0.0011029002 3.9948563e-06 0.00012125736
000090 84 64 ca b8 12 0e 82 b8 8a 9d 0a b9 87 c6 2a b9
       -9.650833e-05 -6.201504e-05 -0.00013219393 -0.0001628642
0000a0 52 f7 92 38 d4 f2 8a ba 80 30 f5 37 64 9d da b8
       7.0078895e-05 -0.0010600933 2.922886e-05 -0.00010424366
0000b0 e0 23 34 39 66 c5 9b b7 aa 49 14 38 c9 b5 92 38
       0.00017179502 -1.856936e-05 3.5354555e-05 6.9956826e-05
0000c0 c3 b7 f2 3a ef 01 92 b8 01 1b 93 b7 fc b7 ad b8
       0.00185179 -6.962183e-05 -1.753634e-05 -8.2835526e-05
0000d0 88 c3 c4 b7 51 b0 90 39 8a d0 9e 39 96 5e 6b b8
       -2.3456072e-05 0.00027597186 0.00030291482 -5.6116456e-05
0000e0 de c1 51 b7 4c 16 4d 3a e1 54 6b 38 d9 95 8b 38
       -1.2502509e-05 0.0007823452 5.6107416e-05 6.655948e-05
0000f0 f0 00 1d b8 d7 60 86 b7 28 c5 a0 b7 d3 89 92 b7
       -3.743259e-05 -1.601914e-05 -1.9165294e-05 -1.7468736e-05
000100 5b b8 44 39 b0 65 f5 3a e1 89 22 37 79 bd 03 b9
       0.00018760694 0.0018722322 9.688055e-06 -0.00012563718
000110 d3 f5 3e b9 97 8a 2e b9 92 d1 3f b8 a4 01 69 3a
       -0.00018211389 -0.00016645562 -4.5733126e-05 0.0008888489
000120 92 65 14 ba 61 a0 b0 b8 5e be a6 b9 0c 33 9a 39
       -0.0005660887 -8.422207e-05 -0.00031803822 0.00029411202
000130 f6 54 26 b8 dd 86 e7 39 78 27 f8 38 6c a0 77 3a
       -3.965661e-05 0.00044160234 0.00011832913 0.0009446207
000140 19 91 0a b7 55 ea 53 39 94 61 a3 3a 23 b3 b3 b9
       -8.259224e-06 0.00020209824 0.0012464994 -0.00034275008
000150 01 a2 37 39 be 6a 5a 37 19 2e 29 b9 ed 43 89 39
       0.00017512591 1.3018665e-05 -0.00016134269 0.00026181285
000160 a2 5d 9d 39 51 75 36 b7 6c 4d 0b 3a 5d f7 99 3a
       0.00030015135 -1.087536e-05 0.0005313966 0.0011746694
000170 70 50 59 ba 87 57 39 b9 44 3a 76 b9 a3 c9 51 3a
       -0.0008289879 -0.00017675581 -0.00023482094 0.00080027635
000180 46 d7 8b b8 74 54 01 b8 5f 5b 3f 3a eb ed 9e b5
       -6.668134e-05 -3.083465e-05 0.0007299687 -1.1841161e-06
000190 94 f0 d7 36 8e 98 1b 38 c5 61 d3 b9 9a 37 af 36
       6.4355063e-06 3.7096957e-05 -0.000403179 5.2218793e-06
0001a0 78 05 30 39 db 2c 6e 39 a3 cc 00 b9 9e b2 0f 39
       0.00016786705 0.00022714159 -0.00012283264 0.00013704083
0001b0 e5 f8 a7 ba 89 50 48 b9 c6 99 fd 38 13 17 6e 3a
       -0.0012815265 -0.00019103488 0.00012092623 0.0009082418
0001c0 f2 77 ba 39 00 9b 1a b9 be fc e9 b9 48 bf 29 ba
       0.0003556605 -0.00014744326 -0.0004462953 -0.00064753415
0001d0 b3 3b cb b8 2f f5 e0 39 0c 09 73 39 5e b9 79 b9
       -9.690914e-05 0.00042907285 0.00023177656 -0.00023815545
0001e0 50 e3 70 39 93 8a d3 b8 34 9b 08 39 9a 9d 63 38
       0.00022972864 -0.000100870755 0.00013027788 5.4267795e-05
0001f0 2c 87 62 b8 64 46 47 b9 33 58 08 ba 4d 68 98 b9
       -5.4008487e-05 -0.00019004341 -0.0005201131 -0.0002906941
000200 18 c1 f7 39 34 b0 63 b9 c1 da fb 38 b7 c4 d9 3a
       0.00047255377 -0.00021714048 0.00012009359 0.0016614412
000210 c8 4d 08 3a 92 e0 44 3a 8b 7f 85 b9 86 8e 02 b7
       0.00051995786 0.000751027 -0.00025462764 -7.781788e-06
000220 c8 66 12 38 bd d6 0b 39 12 a2 92 39 b2 a6 a2 3a
       3.4904835e-05 0.00013336069 0.00027968042 0.0012409298
000230 ec c3 64 39 bf 2e 40 39 b7 e5 77 b8 fd 00 71 b8
       0.00021816761 0.00018327961 -5.9103328e-05 -5.7459798e-05
000240 8f f0 08 39 2d 31 14 b7 47 94 38 ba bc 1e c0 b8
       0.00013059586 -8.832937e-06 -0.0007041138 -9.160998e-05
000250 85 75 6b b9 87 09 a3 b7 08 49 1b 3a 5e 95 05 38
       -0.00022455126 -1.943555e-05 0.0005923663 3.184878e-05
000260 52 8f 12 ba 49 c2 16 38 8a 7e 61 b9 23 fb a7 38
       -0.00055908144 3.594373e-05 -0.00021504812 8.0099584e-05
000270 30 c6 ca b8 e5 7e 72 39 d7 ea c5 39 e5 70 d9 39
       -9.669026e-05 0.0002312619 0.00037749737 0.00041473578
000280 90 2e 58 39 db 4d fc b9 86 39 c8 38 b9 3a 3d 38
       0.00020616711 -0.00048123192 9.547458e-05 4.51158e-05
000290 3f 9d f0 39 84 f0 ae b7 eb 4a 8b 39 f2 64 0c 38
       0.00045893525 -2.0854415e-05 0.00026567964 3.3472614e-05
0002a0 f0 af 87 39 26 a4 aa b7 a6 56 c0 b9 cf 3e e7 b9
       0.0002588029 -2.0342017e-05 -0.00036685652 -0.0004410655
0002b0 d2 1c dc 39 b1 fe b8 39 ab 7e 4b b9 58 66 b9 38
       0.00041983143 0.00035284975 -0.00019406776 8.8405504e-05
0002c0 d3 5e 64 ba 5c f1 75 b7 a8 bb 69 b9 14 00 87 37
       -0.00087116397 -1.4659334e-05 -0.00022290519 1.609329e-05
0002d0 b2 c7 f9 39 da 6c a6 38 4e 8c d6 38 d7 4c d3 39
       0.00047641766 7.935772e-05 0.00010230449 0.00040302306
0002e0 b4 0b 6e b8 cd 89 84 39 47 4b ec b9 0c 7e 68 b8
       -5.675452e-05 0.00025279672 -0.00045069514 -5.54305e-05
0002f0 be de d3 37 71 7d 7f 39 f4 06 d7 39 5f e7 c0 b7
       2.5256883e-05 0.00024365426 0.00041013176 -2.2995924e-05
000300 6e 65 86 3a 48 fb 5f b9 ac fc 08 3a 2d b2 fd 37
       0.0010253617 -0.00021360547 0.00052256393 3.024292e-05
000310 85 d4 83 38 6b 35 f4 b9 b7 90 4d 39 f7 df 3e ba
       6.2861516e-05 -0.00046579106 0.00019604234 -0.0007281298
000320 42 bf 86 38 49 65 e2 b9 7b 22 f1 b9 20 55 9f b7
       6.4252425e-05 -0.00043181542 -0.00045992792 -1.8993916e-05
000330 e6 9c e8 b7 31 56 51 3a de 2e 23 ba b4 bb d1 36
       -2.7729617e-05 0.0007985561 -0.00062249403 6.250537e-06
000340 7a 01 9f 39 b8 b3 e2 b8 c3 3d 2d 39 fc 27 ce b8
       0.00030327943 -0.00010809995 0.00016521574 -9.830293e-05
000350 2a 2a d0 b6 e9 6a cf b8 22 e3 9c ba 09 dd dd b9
       -6.2037916e-06 -9.890443e-05 -0.0011969546 -0.0004231709
000360 61 f2 9f b9 5a 12 ac ba c2 a5 c0 b9 27 86 6b b9
       -0.0003050743 -0.0013128028 -0.00036744593 -0.00022461322
000370 29 dc 99 b7 67 27 09 3a c2 45 98 b9 cb 33 7e 3a
       -1.8341541e-05 0.00052320067 -0.00029043673 0.0009697049
000380 d6 7f 62 b8 57 c5 dc 39 24 0b 7b b9 66 21 95 b7
       -5.4001655e-05 0.000421087 -0.00023941376 -1.7777737e-05
000390 b0 c9 e1 37 90 f6 f5 b9 d8 8d cf 38 8f b9 ad 39
       2.6916008e-05 -0.00046913745 9.8969496e-05 0.00033135383
0003a0 7c 20 48 39 e8 60 68 b9 a7 d4 35 39 21 58 07 b8
       0.00019085588 -0.00022161345 0.00017340724 -3.2268585e-05
0003b0 1f 82 ab 38 05 e7 b0 b6 6f ea 5a 3a 53 75 bd 39
       8.178152e-05 -5.272103e-06 0.00083509734 0.00036136303
0003c0 18 a9 b2 38 c9 50 26 3a 98 f0 6c b9 66 94 fe 38
       8.5191976e-05 0.00063444354 -0.00022596342 0.00012139305
0003d0 25 97 0d b8 2c 36 e0 35 98 14 7d b7 fc 97 03 39
       -3.3757784e-05 1.6705067e-06 -1.508477e-05 0.00012549752
0003e0 f3 f5 e1 39 f2 f0 06 39 eb bf 06 b7 4e 46 c0 39
       0.0004309859 0.00012868995 -8.031707e-06 0.00036673475
0003f0 0d 83 2d b9 52 29 f3 38 c8 e0 02 ba d6 2c 42 39
       -0.00016547386 0.000115948395 -0.00049926015 0.00018517984

gbrbm.W f4 [200, 400]
000000 a9 11 a5 ba 46 b2 28 ba 8d 3a cb ba d4 04 40 3a
       -0.0012593764 -0.0006435256 -0.001550512 0.0007324938
000010 47 88 86 3a 34 30 12 bb e3 42 9c 3a 6e 32 7e 3a
       0.0010264002 -0.0022306563 0.0011921789 0.00096968457
000020 87 ff 06 3a 96 ef 91 ba 5f 59 a1 3a d5 e4 b1 38
       0.0005149771 -0.0011134024 0.001230996 8.482641e-05
000030 34 39 6c b9 4b 0e 6c ba 6c 94 4d 39 9c 0c b2 ba
       -0.00022528024 -0.00090048154 0.00019605615 -0.001358408
000040 83 82 6c b9 0b b7 93 ba 75 65 0b 3a 97 bf 8b 3a
       -0.00022555333 -0.0011269761 0.00053175475 0.0010661957
000050 69 7e 69 ba 69 80 9e 3a 49 5c f1 39 6d af a9 b9
       -0.0008907081 0.0012092713 0.0004603586 -0.00032364894
000060 2f bc bb 39 b2 73 de ba b2 bb 9d 37 d1 85 bb ba
       0.00035807627 -0.0016971736 1.880326e-05 -0.0014306848
000070 f6 df b4 b8 c8 df a4 ba c3 b5 9b b9 50 57 88 ba
       -8.624785e-05 -0.0012578899 -0.00029699327 -0.0010401998
000080 57 61 59 3a db e3 7a b9 b2 41 74 3a c8 cc c4 38
       0.0008292398 -0.0002392674 0.00093176507 9.384152e-05
000090 ed 5d da b8 da 8c 6d ba 41 be 2a ba 58 a6 3d ba
       -0.00010412545 -0.0009061821 -0.00065133354 -0.0007234565
0000a0 14 d9 f1 b9 7d d3 e4 3a 88 34 ba 39 29 42 8f 3a
       -0.00046128838 0.0017458048 0.00035515823 0.0010929751
0000b0 d2 41 81 3a 32 09 04 b8 0a 70 87 ba 0d b7 88 ba
       0.0009861535 -3.1479816e-05 -0.0010333073 -0.001043053
0000c0 54 03 23 b9 6b ba 09 3a 61 66 19 ba ac 7c b9 3a
       -0.00015546131 0.00052539137 -0.00058517425 0.0014151535
0000d0 f8 d9 8f 39 31 8e f1 b9 fb 2e 30 ba a5 46 54 ba
       0.00027437485 -0.00046073043 -0.0006720868 -0.0008097685
0000e0 0b 85 3f 3a 3f 9f 88 ba 74 22 8d ba 77 ce 68 ba
       0.0007305897 -0.0010423436 -0.0010767714 -0.00088808633
0000f0 c8 b3 ef b8 d0 60 42 ba e8 b4 4a ba b2 b9 b7 38
       -0.00011429895 -0.0007414939 -0.00077326456 8.7607084e-05
000100 d3 af 82 b9 ae ec cc 3a d0 1f 72 ba e4 f6 04 3a
       -0.00024926531 0.0015634501 -0.0009236308 0.000507219
000110 1f d2 77 ba 97 8b a4 b9 d6 ef a9 b9 04 f7 24 ba
       -0.0009453613 -0.0003138452 -0.00032412884 -0.0006292912
000120 d3 c6 cd 39 c7 d7 7b b8 ce 78 49 b8 42 47 44 ba
       0.00039248783 -6.004402e-05 -4.8034643e-05 -0.0007487425
000130 70 42 39 38 15 c3 b6 b9 8e ee 7b b9 30 08 26 3b
       4.4169312e-05 -0.00034859093 -0.00024026094 0.002533447
000140 51 03 90 3a 95 84 68 3a 00 8d 12 bb f3 af 87 ba
       0.0010987316 0.0008869854 -0.0022361875 -0.001035212
000150 6b 90 20 3b b7 ec f8 39 89 7e f7 ba b2 57 84 ba
       0.0024500142 0.00047478612 -0.0018882315 -0.0010096936
000160 a4 87 4d 3a 64 d6 d2 39 02 ee 54 ba 21 8c 29 3a
       0.00078403414 0.00040214055 -0.0008122624 0.0006467719
000170 d2 f0 f4 b9 ba e9 1d ba 97 0a e8 39 40 ff 37 ba
       -0.00046718732 -0.00060239027 0.00044258378 -0.0007018931
000180 26 ac ca 3a 7d 2e 05 ba 02 89 d3 b8 74 5f 4d ba
       0.0015462681 -0.00050804747 -0.00010086784 -0.0007834353
000190 99 67 cb 3a 2d ac d1 ba 18 a3 65 b8 e2 bf 9c ba
       0.0015518545 -0.0015996747 -5.4749748e-05 -0.0011959041
0001a0 29 96 24 39 f5 65 cb b9 b5 e8 f3 3a 59 b9 ed 38
       0.00015696198 -0.0003879514 0.0018608781 0.00011335564
0001b0 72 68 4b 39 ec 26 f9 36 e3 d1 bd b9 47 46 8a ba
       0.00019398498 7.4253094e-06 -0.00036205267 -0.0010549509
0001c0 eb ca dc ba 52 4e 73 39 7a bb 22 3a 13 8b 86 3a
       -0.0016845142 0.00023203462 0.0006207746 0.0010264836
0001d0 26 5a 30 b9 6b b4 82 ba 83 ff 25 3a fa 57 f1 b9
       -0.00016818251 -0.0009971982 0.00063323247 -0.0004603265
0001e0 8c e6 4d ba 12 56 ce 3a f2 5d b7 b9 43 df 1f ba
       -0.00078544836 0.0015742204 -0.00034974475 -0.0006098637
0001f0 98 38 9b 3a 31 f9 e6 b9 84 31 1b b9 8a eb 90 b9
       0.0011842428 -0.0004405468 -0.00014800398 -0.0002764131
000200 ee 08 74 39 07 3a 92 3a 71 04 18 3a f0 96 92 39
       0.0002327298 0.001115621 0.00057990017 0.00027959747
000210 11 72 b6 3a 47 ba f5 b8 3d 51 83 3a 5b 83 a2 b7
       0.0013919492 -0.00011717207 0.0010018718 -1.9373072e-05
000220 23 c6 e2 b9 f7 8c eb 3a 9b 39 d4 ba ac 1f 33 b9
       -0.00043253702 0.0017971088 -0.0016191484 -0.00017082569
000230 85 9b 20 bb d5 af 6b 3a 90 8f d7 ba 13 2f 1c bb
       -0.002450676 0.00089907396 -0.0016445983 -0.002383177
000240 70 a5 98 b9 d3 fe 30 ba f4 cd 04 3a 28 2a ba b9
       -0.0002911496 -0.0006751839 0.000506609 -0.00035508093
000250 35 5a 02 3a 47 b9 f9 ba 3f d1 1d bb 8a 34 e0 ba
       0.00049725483 -0.0019052409 -0.002408102 -0.0017105502
000260 3f 64 92 b9 96 85 a1 ba de 4f f1 3a d4 75 7d 3a
       -0.0002792198 -0.0012323137 0.0018410643 0.0009668742
000270 61 61 d9 39 a7 f5 8d ba 1d e9 59 3a 7e 23 92 ba
       0.00041462018 -0.0010830656 0.00083126297 -0.0011149494
000280 c9 1a 3e b9 46 73 5d 3a 91 e3 e0 b9 d1 d1 dd ba
       -0.0001812979 0.0008447658 -0.0004289416 -0.0016923492
000290 49 51 36 ba 11 27 e5 39 f0 19 3c ba 0b 11 63 ba
       -0.00069548615 0.0004370739 -0.0007175496 -0.00086619024
0002a0 56 6d b3 ba f3 1f 2a ba b2 32 0e bb 92 1a b5 b9
       -0.0013689201 -0.0006489746 -0.0021697697 -0.00034542807
0002b0 aa 16 1b b9 02 37 a9 ba cc ce 96 39 6d 81 93 39
       -0.00014790395 -0.001291007 0.00028764305 0.00028134455
0002c0 45 5b 09 3a e9 9b 3f ba fc 18 85 ba 9a ad 9e 3a
       0.00052397355 -0.0007309304 -0.0010154541 0.0012106181
0002d0 b7 51 86 ba 07 0a b8 ba 13 f1 3f 3a 8b f7 45 39
       -0.0010247742 -0.0014041074 0.00073219946 0.00018879601
0002e0 45 e3 3b 3a fd 04 45 ba cb 19 1c 3a 6c 77 c3 b9
       0.00071673497 -0.0007515697 0.0005954771 -0.00037282275
0002f0 0e 2f 53 ba 71 81 fa ba 39 e5 fa b9 0b f3 d9 b9
       -0.0008056023 -0.0019112063 -0.000478545 -0.00041570546
000300 8e 86 e4 b9 8e 3b 20 bb 87 4e 40 3a 00 16 c3 b9
       -0.000435878 -0.002444956 0.000733592 -0.0003720969
000310 ca 20 b6 3a 88 cf eb b9 e2 9d 08 3a 0f d6 a5 ba
       0.001389527 -0.00044977316 0.00052115147 -0.0012652295
000320 76 01 cd ba f8 6d 2d 3a 7c 41 d8 ba e1 49 d8 ba
       -0.0015640694 0.0006615813 -0.0016499008 -0.001650151
000330 85 ea bd 39 ce e5 e0 39 60 2f 80 ba 85 4d a8 b9
       0.0003622362 0.00042895827 -0.0009779744 -0.00032101214
000340 28 c2 29 ba 6d 9e d1 ba 72 87 8f 39 77 49 05 3a
       -0.000647577 -0.0015992649 0.00027376 0.00050844945
000350 37 25 7c 3a 20 1a 0d 3a 0c 31 4b 38 00 55 0d bb
       0.00096185826 0.0005382616 4.844465e-05 -0.0021565557
000360 c5 09 b2 3a ba f6 4a ba a4 0a 30 3a bf 97 18 ba
       0.0013583234 -0.00077424536 0.0006715453 -0.0005820952
000370 47 0c 3c b7 a8 a0 d0 b9 85 df 1d 3a 26 0c 1b ba
       -1.1208532e-05 -0.0003979255 0.0006022382 -0.0005914591
000380 5d c6 a1 ba 51 eb 05 bb f8 d8 d5 39 7c 64 2b 3b
       -0.0012342442 -0.002043445 0.0004078818 0.0026152423
000390 5b 04 27 39 03 2a 89 3a a4 fb bf 3a 21 08 27 ba
       0.00015927984 0.0010464791 0.0014647138 -0.0006371756
0003a0 df 1d d9 ba 60 2c 3a ba 2e 0c 0d ba 11 64 d5 b8
       -0.0016564688 -0.00071019493 -0.0005380538 -0.0001017527
0003b0 43 3a 59 b6 47 8a 0c ba 65 6f 11 39 46 9d bc ba
       -3.2369433e-06 -0.0005361181 0.00013869775 -0.0014390133
0003c0 ac 3c 80 ba d8 c6 76 b9 25 66 fa ba 3b 65 45 3a
       -0.0009783707 -0.00023534463 -0.0019103928 0.0007530038
0003d0 fd e8 69 b7 96 7a ee ba 84 92 01 bb 0f bd 9f b9
       -1.3942129e-05 -0.0018194492 -0.0019771168 -0.00030467703
0003e0 15 f2 ce 3a 76 59 2a 3a 01 39 07 bb 5c 3b 07 ba
       0.0015788699 0.0006498316 -0.0020633342 -0.00051586865
0003f0 ba 30 30 39 2d 26 fa ba 7d 3e d6 ba 3b 4c cf 3a
       0.0001680282 -0.0019084864 -0.0016345527 0.0015815565

gbrbm.b f4 [400]
000000 30 07 87 bf 5b f4 59 bf df f0 6d bf a8 27 69 bf
       -1.0549068 -0.8513848 -0.92945665 -0.91076136
000010 3b 91 52 bf 6d ae 5d bf 76 7d 82 bf 77 03 6e bf
       -0.82252854 -0.8659428 -1.0194538 -0.92974037
000020 76 df 81 bf 89 13 4b bf 54 1b 8b bf 97 72 87 bf
       -1.014632 -0.79326683 -1.0867715 -1.0581845
000030 f9 3b 83 bf 8a 4a 7a bf 8b 7c 65 bf ff 5e 81 bf
       -1.0252677 -0.9776999 -0.8964316 -1.0107116
000040 14 8e 7c bf 40 f8 62 bf 3a f1 74 bf 7d d9 45 bf
       -0.98654294 -0.8866005 -0.9568058 -0.77284986
000050 32 23 44 bf af 6a 84 bf bc 08 84 bf f7 63 62 bf
       -0.76616204 -1.0345057 -1.0315166 -0.88433784
000060 2c 6a 62 bf 86 2c 87 bf 1a fb 7a bf 44 1a 80 bf
       -0.88443255 -1.0560462 -0.980394 -1.0008016
000070 5d 6c 69 bf f6 e7 7e bf 41 a5 2f bf 4c 62 8a bf
       -0.91180974 -0.99572694 -0.6861153 -1.0811248
000080 01 a3 87 bf cf be 2b bf ba 02 7b bf 1c 36 86 bf
       -1.059662 -0.67088026 -0.98051035 -1.0485263
000090 f5 78 83 bf 02 c3 4a bf de 14 7f bf ae 58 66 bf
       -1.0271288 -0.7920381 -0.99641216 -0.89979064
0000a0 94 b4 73 bf 22 9d 52 bf ff 8a 78 bf d9 b9 56 bf
       -0.95197415 -0.82271016 -0.9708709 -0.8387733
0000b0 5b b5 61 bf 81 95 81 bf 3c 21 6c bf ce bb 68 bf
       -0.8816735 -1.012375 -0.9223821 -0.9091157
0000c0 f9 7e 86 bf cf a4 79 bf 3c 09 57 bf 3c 0c 7d bf
       -1.0507499 -0.975171 -0.83998466 -0.98846793
0000d0 9c b2 2f bf e2 5a 61 bf 00 04 63 bf 01 6b 6e bf
       -0.6863191 -0.880293 -0.8867798 -0.93132025
0000e0 37 4c 70 bf 01 53 85 bf a7 53 54 bf e1 42 6a bf
       -0.93866295 -1.0415956 -0.82940143 -0.915083
0000f0 cd 55 5f bf 50 fa 49 bf 15 cd 75 bf 6a a3 68 bf
       -0.87240297 -0.7889757 -0.96016055 -0.9087435
000100 01 14 57 bf 8a a5 56 bf 37 57 70 bf 82 35 50 bf
       -0.840149 -0.8384634 -0.9388308 -0.81331646
000110 08 47 5c bf c0 14 68 bf 29 9b 80 bf 40 d8 70 bf
       -0.86045885 -0.9065666 -1.0047351 -0.9407997
000120 53 ca 7f bf 27 96 32 bf e5 f5 77 bf 48 5b 90 bf
       -0.999181 -0.69760364 -0.9685958 -1.1277857
000130 e0 2e 42 bf 48 bc 5b bf 92 4f 73 bf 6d a2 4b bf
       -0.75852776 -0.8583417 -0.9504329 -0.7954472
000140 b4 a2 84 bf 70 53 74 bf 24 61 5e bf 0f 4e 75 bf
       -1.0362153 -0.95439816 -0.86866975 -0.9582223
000150 4b fb 50 bf 1e 78 5c bf 2d 83 5b bf fd 83 59 bf
       -0.8163344 -0.86120784 -0.85747033 -0.84967023
000160 11 b9 50 bf 7a e5 70 bf c9 8f 71 bf 0b e7 88 bf
       -0.8153239 -0.94100153 -0.94360024 -1.0695509
000170 49 0f 82 bf a8 48 73 bf c4 a6 53 bf 21 8b 70 bf
       -1.0160915 -0.9503274 -0.8267634 -0.93962294
000180 81 56 7b bf 71 36 83 bf ab 71 56 bf aa 65 72 bf
       -0.9817887 -1.0250989 -0.83767194 -0.9468638
000190 17 24 70 bf 8e 5d 85 bf eb 69 7f bf 2a ae 62 bf
       -0.9380507 -1.0419176 -0.99770993 -0.88547003
0001a0 d3 95 6f bf 6d f9 60 bf d2 dc 55 bf 59 8c 76 bf
       -0.9358799 -0.87880594 -0.8354007 -0.96307904
0001b0 55 a6 56 bf ed c1 6b bf de 80 40 bf 06 45 80 bf
       -0.8384755 -0.9209278 -0.75196636 -1.0021064
0001c0 3f 4b 58 bf ae 6a 62 bf 16 4e 63 bf c1 d2 72 bf
       -0.84489816 -0.8844403 -0.88791025 -0.94852835
0001d0 b2 76 5e bf d9 26 89 bf 1f af 50 bf 86 6a 7b bf
       -0.86899865 -1.071498 -0.81517214 -0.98209417
0001e0 94 9d 6f bf 87 fc 49 bf 84 e2 68 bf c8 07 75 bf
       -0.9359982 -0.7890095 -0.90970635 -0.95715
0001f0 92 32 74 bf d7 34 87 bf 11 a7 87 bf 2a f2 66 bf
       -0.95389664 -1.0563 -1.059786 -0.90213263
000200 90 87 62 bf f4 5f 82 bf de 98 77 bf 1c 8e 69 bf
       -0.884881 -1.0185533 -0.9671763 -0.91232467
000210 23 d0 6f bf af fc 69 bf 61 91 73 bf 40 9b 4f bf
       -0.93676966 -0.9140119 -0.95143706 -0.8109627
000220 4e fd 76 bf b0 62 77 bf 18 29 53 bf bd 46 8d bf
       -0.9648026 -0.9663496 -0.8248458 -1.1037213
000230 72 e5 61 bf 16 dc 78 bf 38 a8 7d bf 36 6f 6f bf
       -0.8824073 -0.97210824 -0.99084806 -0.9352907
000240 40 dc 82 bf 1a 1a 64 bf 24 71 6d bf 8e b9 75 bf
       -1.0223465 -0.8910233 -0.92750764 -0.9598626
000250 3f d0 50 bf 8c 82 6a bf 09 d3 3f bf 03 20 5a bf
       -0.8156776 -0.9160545 -0.7493139 -0.85205096
000260 94 cf 99 bf 52 aa 86 bf 92 11 70 bf df 5b 7c bf
       -1.2016473 -1.0520728 -0.9377681 -0.98577684
000270 9e 25 78 bf cf 2d 75 bf 20 70 80 bf 2c eb 79 bf
       -0.969324 -0.95773023 -1.0034218 -0.9762447
000280 80 00 57 bf c1 33 80 bf 62 52 55 bf ba 55 48 bf
       -0.8398514 -1.0015794 -0.8332883 -0.7825581
000290 4a 75 65 bf 94 d3 72 bf fc 5c 7d bf 71 c3 29 bf
       -0.89632094 -0.9485409 -0.9897001 -0.66313845
0002a0 2c 9c 62 bf f0 8e 7f bf fd 22 8c bf 26 cb 50 bf
       -0.8851955 -0.9982748 -1.0948178 -0.8155998
0002b0 09 cf 58 bf 7e 3c 6a bf 6b 5f 53 bf e6 d0 69 bf
       -0.8469091 -0.91498554 -0.8256747 -0.9133438
0002c0 88 90 6c bf a8 59 72 bf 69 83 79 bf d5 f0 62 bf
       -0.9240804 -0.94668055 -0.9746614 -0.8864873
0002d0 44 2b 73 bf 23 54 54 bf bd ae 6c bf 6f 3b 72 bf
       -0.94987893 -0.8294088 -0.9245413 -0.9462194
0002e0 2a b2 7e bf 56 14 42 bf 77 18 69 bf 96 34 83 bf
       -0.99490607 -0.7581228 -0.91052955 -1.0250423
0002f0 ef f4 67 bf 89 65 53 bf f1 cd 69 bf cb 4a 63 bf
       -0.90608114 -0.82576805 -0.91329867 -0.88786
000300 de 7e 5a bf 44 6f 6b bf e0 89 5c bf 68 52 5a bf
       -0.85349834 -0.9196665 -0.8614788 -0.8528199
000310 da c9 91 bf e4 a4 80 bf 27 14 78 bf 3d 0c 5f bf
       -1.1389725 -1.0050321 -0.9690575 -0.8712805
000320 55 bb 2c bf b4 9b 4f bf 0c a1 44 bf 8b 5f 7b bf
       -0.67473346 -0.8109696 -0.7680824 -0.9819266
000330 8d 9e 3f bf 39 41 60 bf 6a 40 89 bf 92 7c 5d bf
       -0.74851304 -0.8759952 -1.0722783 -0.86518204
000340 17 69 75 bf f0 05 50 bf 63 60 80 bf 2e 05 74 bf
       -0.9586348 -0.8125906 -1.0029415 -0.95320404
000350 42 42 79 bf b4 94 8a bf 63 4c 62 bf 4d 11 89 bf
       -0.97366726 -1.082663 -0.88397807 -1.0708405
000360 74 84 38 bf 21 9f 73 bf b1 2f 49 bf 31 0a 78 bf
       -0.7207711 -0.95164686 -0.78588396 -0.9689055
000370 2c bc 5d bf dd 0c 7e bf 05 ac 59 bf df 91 66 bf
       -0.8661525 -0.9923838 -0.85028106 -0.9006633
000380 e4 63 8a bf 92 d5 7a bf 42 60 4a bf 5b d5 67 bf
       -1.0811734 -0.9798213 -0.7905313 -0.9055993
000390 fd 1b 45 bf c7 0b 4d bf 65 99 76 bf 4c b4 5b bf
       -0.7699583 -0.80096096 -0.9632781 -0.85821986
0003a0 7b ea 5f bf de 6b 66 bf a1 d0 83 bf ff ca 65 bf
       -0.87467164 -0.9000834 -1.0298043 -0.8976287
0003b0 d0 54 74 bf 17 c6 88 bf 05 e5 5e bf 96 19 74 bf
       -0.95441914 -1.0685452 -0.87068206 -0.9535154
0003c0 b2 bc 81 bf 09 a5 63 bf 82 a2 64 bf b6 37 67 bf
       -1.013571 -0.889237 -0.8931047 -0.90319383
0003d0 63 27 6b bf 31 83 86 bf 8c 52 74 bf 40 64 6d bf
       -0.91856974 -1.0508786 -0.95438457 -0.92731094
0003e0 e2 f8 63 bf d1 47 78 bf c8 2d 74 bf f0 f1 4f bf
       -0.8905164 -0.96984583 -0.95382357 -0.8122854
0003f0 ba c1 7e bf 40 48 78 bf c6 93 8c bf a6 6b 7b bf
       -0.99514353 -0.96985245 -1.0982597 -0.98211133
