final_project/gru_gbrbm/type2/gru_gbrbm_W5_H200_V100_B16_D1.pt (torch, 591897 bytes, 9 tensors)

lstm_layer.lstm1.weight_ih_l0 f4 [600, 9]
000000 0e 20 37 3a 11 2c 59 b9 22 3d 1f b9 c3 c2 42 b9
       0.00069856725 -0.00020711149 -0.00015186195 -0.00018573836
000010 d3 16 bf b8 a6 72 31 b9 b3 3c 18 b9 b0 dc ea b8
       -9.111841e-05 -0.00016922745 -0.00014518462 -0.00011199096
000020 ab c4 27 b8 b9 f0 de 37 b6 0f 3c 39 50 22 27 b9
       -3.9999064e-05 2.6576558e-05 0.0001793493 -0.00015939143
000030 36 56 bf b9 c6 69 47 b9 24 4b 3a b9 b9 9c 12 b9
       -0.0003649459 -0.00019017523 -0.00017766334 -0.00013982029
000040 02 53 11 b9 1a 43 2b b9 b9 fc 09 38 f5 d9 e0 38
       -0.000138592 -0.00016332828 3.289871e-05 0.0001072175
000050 bb 2b 78 38 b5 5b 8e 38 f9 31 68 38 d0 a1 71 38
       5.9168535e-05 6.7881694e-05 5.535965e-05 5.7609577e-05
000060 27 0b 74 38 bd 76 46 38 61 fe be 37 23 7d d8 39
       5.818452e-05 4.7317462e-05 2.276822e-05 0.00041291965
000070 09 c5 87 ba 56 e3 a3 b9 9f 93 b5 b9 3c ee b1 b9
       -0.0010358404 -0.0003125916 -0.00034632997 -0.0003393757
000080 82 f9 be b9 4b 26 87 b9 84 2d 3f b9 78 39 e3 b8
       -0.00036425522 -0.00025777737 -0.00018232135 -0.00010834908
000090 bb 6a 0f b9 00 84 1a ba 06 dc d6 39 a3 2e 6b 39
       -0.00013677303 -0.00058943033 0.0004098119 0.0002242872
0000a0 69 ad da 39 8e e8 d1 39 f8 6b b7 39 43 47 92 39
       0.000417094 0.00040036853 0.00034984923 0.00027900384
0000b0 dc 25 66 39 38 16 8c b9 b7 13 cc 38 13 5e 35 38
       0.00021948613 -0.00026719435 9.73115e-05 4.3241376e-05
0000c0 8b f1 aa 38 e4 cb 64 38 e9 ef 40 38 27 fa 58 38
       8.1512226e-05 5.4549324e-05 4.59998e-05 5.1731386e-05
0000d0 8c 94 60 37 ca d3 c5 37 92 84 c7 38 f5 3e 03 b9
       1.3386027e-05 2.3582852e-05 9.5137526e-05 -0.00012516587
0000e0 57 5f d2 b8 9c 2e 16 b9 30 fe bf b8 ce 5e bf b8
       -0.00010031339 -0.00014322478 -9.154936e-05 -9.1252485e-05
0000f0 36 6a ba b8 f2 75 d5 b8 ac 80 03 b9 bf 34 a8 b9
       -8.8889545e-05 -0.000101786005 -0.00012541068 -0.00032082756
000100 73 fe af 39 99 aa 78 38 c3 2c 13 39 8c 2d 64 38
       0.0003356818 5.928669e-05 0.00014035687 5.4401855e-05
000110 75 1c 85 38 ba de c3 38 5d db b1 37 e9 c4 3f 37
       6.347235e-05 9.339811e-05 2.1202193e-05 1.1430334e-05
000120 f8 3c c8 3a e4 0e cb b9 cb 7c d1 b9 87 bc 03 ba
       0.0015276959 -0.00038730272 -0.00039956564 -0.0005025346
000130 65 31 e4 b9 a8 4f c1 b9 54 a6 aa b9 0f 49 3c b9
       -0.0004352435 -0.00036871177 -0.0003254885 -0.00017956294
000140 40 bd 5c b9 19 df 71 b9 75 8a 96 b9 ba b6 12 3a
       -0.00021051336 -0.00023066661 -0.00028713388 0.00055966864
000150 6d b6 e1 b7 28 bd 07 3a a8 8f 06 3a 3c 7b 04 3a
       -2.6907039e-05 0.0005178028 0.0005133101 0.0005053764
000160 46 a9 07 3a 33 fe ed 39 dc 70 90 39 b2 c9 26 39
       0.0005175065 0.00045393556 0.00027549907 0.00015906131
000170 6f 1e f7 b8 c0 97 b1 38 59 ad f8 b8 4d 79 e8 b8
       -0.000117835465 8.468283e-05 -0.0001185785 -0.00011085216
000180 64 33 ad b8 2d 33 b9 b8 be c2 f5 b8 c2 57 3e ba
       -8.258855e-05 -8.83102e-05 -0.00011718784 -0.0007261002
000190 40 72 b6 39 e7 85 ab 39 2c 35 9d 39 17 83 b8 39
       0.00034798868 0.00032715427 0.0002998499 0.00035192884
0001a0 24 7e 85 39 19 99 98 39 25 ac a3 39 32 28 a3 39
       0.0002546172 0.00029105766 0.0003121804 0.0003111973
0001b0 02 56 9f 39 3e 5b a7 39 e3 08 85 39 5e 9b 1a 39
       0.00030390924 0.00031920703 0.00025374358 0.00014744463
0001c0 f2 3e 30 39 ac 94 8f 39 2b 45 20 39 52 20 5f 39
       0.00016808117 0.00027385855 0.00015284556 0.00021278978
0001d0 2a 3a bf 37 3c b5 6d b9 c6 8b d1 b9 1c 2e 25 b7
       2.2796059e-05 -0.00022669596 -0.00039967726 -9.845502e-06
0001e0 7d 9c f3 b8 2b 05 33 b8 04 5f 04 b8 d2 e0 fa b7
       -0.00011616291 -4.268174e-05 -3.1559743e-05 -2.9907013e-05
0001f0 d6 50 5c 37 d1 a4 cb 37 31 30 2d bb 8b 6b bb ba
       1.3131843e-05 2.4276234e-05 -0.002642643 -0.0014299018
000200 6b 1b be b8 d6 ff 41 b9 e4 6a 81 b9 e6 fa 1c b9
       -9.065013e-05 -0.0001850122 -0.00024684437 -0.00014970786
000210 32 f3 ec b8 6f b3 d0 38 d0 4c 43 b8 90 e5 8e 39
       -0.000112986556 9.951635e-05 -4.656316e-05 0.00027255388
000220 8b ae 38 b9 6b c3 eb b8 44 9c 24 b9 a3 b2 06 b9
       -0.0001761263 -0.00011242073 -0.00015698472 -0.00012845783
000230 fa a9 e2 b8 42 ca f3 b8 39 b8 aa b8 91 b4 e0 b8
       -0.000108081804 -0.000116248164 -8.140546e-05 -0.000107147855
000240 ad 5c 44 3a 99 50 91 b9 38 f7 ff b9 06 53 ec b9
       0.00074906164 -0.00027716605 -0.00048821582 -0.00045075285
000250 9f 1d 03 ba 88 43 e7 b9 6b 67 a8 b9 1d be c6 b9
       -0.00050016673 -0.00044110068 -0.0003212051 -0.00037907148
000260 bc 8d a4 b9 94 7d 53 ba 0b e3 d4 39 c5 0a d0 37
       -0.00031386118 -0.0008067724 0.0004060495 2.4800547e-05
000270 cc 1b 07 39 e9 d5 47 38 fc 59 51 b7 fe 36 47 38
       0.00012884958 4.7644517e-05 -1.2478322e-05 4.7496513e-05
000280 2a c7 c5 37 32 e5 15 37 5d c6 1d 39 2e 05 a3 b8
       2.3576973e-05 8.934456e-06 0.00015046583 -7.7734105e-05
000290 7f a0 88 37 23 d9 c1 b8 71 27 f7 b6 91 da fa 36
       1.62872e-05 -9.243402e-05 -7.365765e-06 7.476025e-06
0002a0 5a 6a 11 38 f0 3c cb 37 cf e1 fc 36 55 67 aa 39
       3.466974e-05 2.4227862e-05 7.536473e-06 0.00032501915
0002b0 7c 10 b6 b9 f5 a9 76 38 f2 b0 ce 38 9c 32 af 38
       -0.00034726027 5.8809255e-05 9.855804e-05 8.354077e-05
0002c0 81 66 80 38 b8 d9 85 38 37 47 fe 37 ff d3 0e 38
       6.1226085e-05 6.3824875e-05 3.0312322e-05 3.4052875e-05
0002d0 2f 39 e8 b8 eb 7a 2b 39 6d 33 76 b8 b0 d0 b8 b7
       -0.00011073273 0.00016353621 -5.8698864e-05 -2.2031687e-05
0002e0 5c fe 4a b8 21 0b c5 b8 b6 4b e1 b7 54 62 08 37
       -4.8397444e-05 -9.395765e-05 -2.6857346e-05 8.1291255e-06
0002f0 81 04 08 b8 6f e6 a0 b8 09 83 b1 b9 4c 3c 25 b9
       -3.242912e-05 -7.672316e-05 -0.000338577 -0.00015758089
000300 c0 65 98 b9 82 b1 25 b9 12 d7 14 b9 60 1d 2a b9
       -0.0002906751 -0.00015801753 -0.000141945 -0.00016223406
000310 6a 4d de b8 51 cb 32 b8 c3 b1 37 39 95 ec 8f b9
       -0.000106002044 -4.262786e-05 0.00017518461 -0.00027451353
000320 60 8b d7 b9 e9 b0 00 ba 0f 2f c2 b9 9f 84 c8 b9
       -0.00041111838 -0.0004909174 -0.00037037625 -0.00038245783
000330 dd 1a a5 b9 d4 28 8c b9 05 89 f0 b8 59 60 04 38
       -0.00031491267 -0.000267333 -0.00011469614 3.1560983e-05
000340 07 4e 0d b9 f1 f0 36 37 72 84 48 b6 3e fd 16 38
       -0.00013475875 1.0904144e-05 -2.9879416e-06 3.5998637e-05
000350 b3 c8 c9 35 d9 f3 ce 37 c8 66 95 b4 41 66 3f 38
       1.5034078e-06 2.4670664e-05 -2.7828196e-07 4.563318e-05
000360 60 58 86 b4 cf 81 1e 38 78 5f ed 37 65 a9 b5 37
       -2.5023746e-07 3.779103e-05 2.8297058e-05 2.1655762e-05
000370 5d c4 bd 37 af a5 db 37 2d 83 c9 37 e7 c6 bb 37
       2.2621995e-05 2.6183987e-05 2.402215e-05 2.2384758e-05
000380 a3 88 aa 37 79 1e 08 38 ed 66 8e b9 9b 67 9f b8
       2.0329206e-05 3.2453307e-05 -0.00027161036 -7.601009e-05
000390 a6 c5 45 b8 52 e8 99 38 c3 cd 58 38 a0 44 e6 b8
       -4.7152535e-05 7.3388816e-05 5.1690044e-05 -0.00010980037
0003a0 39 d1 5b 38 ff 09 62 b8 1b 5f ea 3a 7d ab d1 ba
       5.2408523e-05 -5.389191e-05 0.0017881127 -0.0015996542
0003b0 6c b9 95 b9 de 33 1c ba f7 50 af b9 4d da 8a b9
       -0.00028557645 -0.00059586565 -0.00033438925 -0.00026484058
0003c0 97 af 91 b9 8e f3 a4 b9 b5 a1 c5 b9 25 9f 0a b9
       -0.0002778738 -0.0003146198 -0.0003769525 -0.00013219992
0003d0 8b 47 e8 37 b6 ff 00 39 c1 94 57 39 a9 81 2e 39
       2.768987e-05 0.00012302291 0.00020559413 0.00016642235
0003e0 a2 bd 00 39 e0 6e 8f 38 e8 13 6c 38 51 d3 c4 36
       0.00012277675 6.8394234e-05 5.6285324e-05 5.8658557e-06
0003f0 55 73 27 38 b0 b8 e2 38 c6 02 69 38 5e 50 04 38
       3.9923314e-05 0.000108109205 5.5554112e-05 3.15461e-05

lstm_layer.lstm1.weight_hh_l0 f4 [600, 200]
000000 ac 01 1b b6 47 73 aa 37 3c 73 2f 36 5f 85 bc 36
       -2.3097773e-06 2.031926e-05 2.6144107e-06 5.618363e-06
000010 59 e5 5b 37 da cb da b6 e5 96 0d 37 35 d6 60 36
       1.3106816e-05 -6.5206377e-06 8.439388e-06 3.3503286e-06
000020 5c e0 25 b6 df 8e 45 36 b8 20 0f b6 a9 b8 88 b8
       -2.471751e-06 2.943845e-06 -2.1327705e-06 -6.519381e-05
000030 9d 84 12 b7 0a 6c 85 35 5f 9e a8 b8 8e f8 26 37
       -8.733155e-06 9.940716e-07 -8.040363e-05 9.952242e-06
000040 2a c2 6f b6 50 e8 cd b5 f0 34 a0 b4 7f 37 da b5
       -3.5726794e-06 -1.5341302e-06 -2.984084e-07 -1.6258417e-06
000050 97 57 b7 b5 09 27 94 b6 16 00 27 b7 50 1a 7e b5
       -1.3660054e-06 -4.415288e-06 -9.953996e-06 -9.4660663e-07
000060 44 1d 09 37 81 66 82 36 ed 95 92 38 89 cb 70 36
       8.17265e-06 3.886235e-06 6.989748e-05 3.588126e-06
000070 04 89 0b b6 e1 01 b1 b6 76 8d d2 35 6d ab 8e b6
       -2.0792368e-06 -5.27523e-06 1.568739e-06 -4.2518864e-06
000080 9e 91 e5 35 6a c8 c0 36 d9 0d 7e 36 40 9b 00 b5
       1.710421e-06 5.745377e-06 3.785701e-06 -4.7909634e-07
000090 dc 9b 7e b7 76 06 0b 37 20 fd fd b6 63 8a 21 b7
       -1.5175869e-05 8.28655e-06 -7.569455e-06 -9.6285685e-06
0000a0 1a 45 09 b6 18 15 59 38 39 9d 24 36 f5 38 35 36
       -2.0454813e-06 5.1756477e-05 2.452942e-06 2.7004255e-06
0000b0 d7 9d 52 b8 6a db d4 b6 78 96 64 b6 06 ee 35 36
       -5.02149e-05 -6.3436355e-06 -3.4062232e-06 2.710965e-06
0000c0 a6 e8 29 34 92 6d 29 35 d0 ee 05 b7 10 d6 83 34
       1.5823989e-07 6.311685e-07 -7.983021e-06 2.4556402e-07
0000d0 c0 43 24 b6 52 37 1e b6 ab 80 1f b7 81 4e 84 b6
       -2.447734e-06 -2.3576035e-06 -9.507096e-06 -3.9430456e-06
0000e0 b1 88 48 b7 5b d8 39 b6 05 dc 5a b6 86 a1 ef b6
       -1.1952755e-05 -2.7693084e-06 -3.26126e-06 -7.141559e-06
0000f0 65 19 e4 b6 d9 2b 89 35 a0 51 3e 36 53 5c dc b5
       -6.797886e-06 1.0220057e-06 2.8359718e-06 -1.6418147e-06
000100 58 07 d1 36 45 99 48 b6 b2 64 ae 35 61 8d 60 b6
       6.2295403e-06 -2.9891537e-06 1.2993316e-06 -3.3460894e-06
000110 11 3f f6 b5 02 36 29 37 6d d2 b3 36 0a 18 36 b7
       -1.8346783e-06 1.008576e-05 5.3591125e-06 -1.0853642e-05
000120 19 73 a1 35 f2 ad 58 b7 7f 79 95 37 36 70 fb 36
       1.2028933e-06 -1.2915103e-05 1.781876e-05 7.493446e-06
000130 a4 30 2c b7 1b df bf 35 54 7a 37 b7 78 7a 5e b6
       -1.0263324e-05 1.4295541e-06 -1.0936132e-05 -3.3151864e-06
000140 df 30 99 b6 ae cc 25 b7 9e 3c a0 b5 8e fa 1a 36
       -4.5654447e-06 -9.882422e-06 -1.1938571e-06 2.309363e-06
000150 fe 7e e0 b5 75 b3 9b 36 16 d0 3b 33 52 7b 98 b7
       -1.672626e-06 4.6402515e-06 4.3728583e-08 -1.8177238e-05
000160 88 27 b2 b5 0d f9 d4 b6 cb cf 23 b6 7d c6 bb b3
       -1.3273539e-06 -6.3470857e-06 -2.4409844e-06 -8.743971e-08
000170 42 c3 7b 33 e0 9e a2 36 82 a6 cb 35 40 c8 1a 36
       5.8618078e-08 4.8464717e-06 1.5173139e-06 2.306435e-06
000180 e2 04 7c 36 85 75 1d 37 33 80 02 35 89 59 3b b6
       3.7553768e-06 9.385291e-06 4.861533e-07 -2.7917288e-06
000190 e6 69 0f 36 3f 88 56 b6 8c b2 41 b5 3c e3 1e b7
       2.1370302e-06 -3.196779e-06 -7.215792e-07 -9.470441e-06
0001a0 92 41 00 37 37 e0 8a b6 f4 eb 4f b8 75 a8 92 36
       7.644661e-06 -4.1388225e-06 -4.9572394e-05 4.37075e-06
0001b0 03 07 13 b6 80 6a 06 b7 b2 9d c6 36 8b 6e 55 36
       -2.1908788e-06 -8.011819e-06 5.919218e-06 3.1803818e-06
0001c0 76 ef bb 36 f6 e0 fe 35 ea 1f 7a 36 92 06 81 36
       5.600911e-06 1.8989947e-06 3.727148e-06 3.8452645e-06
0001d0 93 49 5b 37 1f 4a 2c b6 a8 af 25 b6 75 52 49 b4
       1.30705475e-05 -2.5673141e-06 -2.4689161e-06 -1.8749581e-07
0001e0 61 24 81 36 8b ea b8 b6 71 36 9c b6 fc a6 f5 b5
       3.8487347e-06 -5.5109317e-06 -4.6555e-06 -1.8302521e-06
0001f0 1a a4 cc b5 83 fe 04 b5 48 9b 27 37 1a 83 d7 36
       -1.5246944e-06 -4.9544195e-07 9.99013e-06 6.4227615e-06
000200 b0 d9 d2 35 82 59 0d b7 10 f1 12 b7 e2 6c 2a b7
       1.5709575e-06 -8.425095e-06 -8.758405e-06 -1.0158141e-05
000210 ec b5 ab 37 9e f0 25 34 de cb ae b6 49 be e8 34
       2.0469502e-05 1.5454359e-07 -5.2093374e-06 4.3351818e-07
000220 4d 3f 1f 37 5b b5 b5 b5 b5 4c d0 37 1f 01 98 b6
       9.491877e-06 -1.3538332e-06 2.4831252e-05 -4.5300835e-06
000230 82 98 c3 34 23 e9 03 b8 0b 84 9f 35 b9 15 be b6
       3.6432544e-07 -3.144996e-05 1.1884853e-06 -5.66497e-06
000240 69 62 56 b5 02 1c a9 b8 5f ea 51 b6 7f 76 08 38
       -7.986442e-07 -8.063765e-05 -3.1279849e-06 3.2535285e-05
000250 2c e8 ad 35 77 4f e4 36 97 1d 7c 36 f7 11 0a b7
       1.2957075e-06 6.8041804e-06 3.756815e-06 -8.229624e-06
000260 c2 a2 e2 36 bd c1 a3 35 8d 8a 71 b8 07 7d a1 34
       6.7542724e-06 1.2200832e-06 -5.7587913e-05 3.0079556e-07
000270 e2 72 9e b6 bd cd f1 b5 57 f9 5f 34 b6 d3 3e 36
       -4.722141e-06 -1.8015777e-06 2.0859203e-07 2.8435438e-06
000280 fd 2c 8b b8 7d d8 61 b6 1b ef cb 34 09 8f 9f 36
       -6.636416e-05 -3.3653625e-06 3.798567e-07 4.7552207e-06
000290 82 3d 88 b6 7a d2 0b b7 30 96 1c b6 c4 01 1f 38
       -4.0602763e-06 -8.334051e-06 -2.3333232e-06 3.79102e-05
0002a0 5b 70 95 b5 3c 31 23 34 4c 20 3e b6 b6 6b 77 b5
       -1.1134065e-06 1.519847e-07 -2.8331006e-06 -9.217141e-07
0002b0 df c4 d9 b6 5f a4 33 35 05 0b e2 33 56 48 ed b5
       -6.4900228e-06 6.692189e-07 1.05259495e-07 -1.7678929e-06
0002c0 96 84 be 36 42 ff 0a 37 0c fa d4 b6 6e ef a1 b6
       5.6778763e-06 8.284873e-06 -6.3472016e-06 -4.826047e-06
0002d0 da 76 48 b6 17 3f cf 35 11 ad 25 b6 fe 2a 65 38
       -2.9871503e-06 1.5441063e-06 -2.4687654e-06 5.4637894e-05
0002e0 65 45 ee 35 53 7f 33 b5 d7 c5 1b b7 34 9b 73 b5
       1.7752578e-06 -6.686798e-07 -9.284783e-06 -9.0750405e-07
0002f0 9a c6 41 36 36 eb 77 b6 70 04 70 b6 4f 7d 12 b6
       2.8874842e-06 -3.694278e-06 -3.576537e-06 -2.1828635e-06
000300 bf 6b 54 b7 1b d5 3b 36 39 77 d2 b5 0f 8a af b6
       -1.2661271e-05 2.7989215e-06 -1.5680918e-06 -5.2314786e-06
000310 d6 99 c2 b6 4d 24 7b b5 1d 61 75 b5 0f 93 eb b5
       -5.7995594e-06 -9.355761e-07 -9.141093e-07 -1.7551664e-06
000320 28 97 b6 b7 69 f2 58 36 f9 92 d1 37 08 73 a3 b5
       -2.1766478e-05 3.232761e-06 2.4983181e-05 -1.2177925e-06
000330 9f 5c 0b 37 cd 05 45 b6 e9 10 3e b6 64 09 a5 37
       8.306611e-06 -2.9358664e-06 -2.832205e-06 1.9673906e-05
000340 15 46 0d 35 09 f1 08 b7 0c 44 8c 36 5b 1b c8 37
       5.2628576e-07 -8.162352e-06 4.180247e-06 2.3854596e-05
000350 a4 70 a7 b5 5b 4a ce 34 97 09 69 b8 f3 a2 9e 37
       -1.2475252e-06 3.842459e-07 -5.556046e-05 1.8910947e-05
000360 25 8e 9c 36 9d 3c 63 b6 6b 0b 8c b7 5f 90 87 b6
       4.66571e-06 -3.3860917e-06 -1.6694617e-05 -4.0401205e-06
000370 9b d2 ae b7 3c 70 60 35 34 e3 05 b6 34 f2 c7 34
       -2.0840487e-05 8.3609825e-07 -1.9950794e-06 3.7242864e-07
000380 0a 7a 53 36 49 2d d2 34 c4 0d a7 b6 fd 37 ce b6
       3.1512486e-06 3.9148497e-07 -4.9785904e-06 -6.1457963e-06
000390 26 a5 9f 36 1e 3f ae b8 5e 87 78 36 84 25 7b b7
       4.757795e-06 -8.308723e-05 3.7033674e-06 -1.4969501e-05
0003a0 be 7f 0f b6 2d b4 1f 37 a1 3e 89 37 80 7f 44 36
       -2.1383016e-06 9.519089e-06 1.6360837e-05 2.928049e-06
0003b0 84 db f3 b4 18 b1 3e b8 16 72 ca 36 5b da 98 b5
       -4.5421996e-07 -4.546446e-05 6.0333505e-06 -1.1388432e-06
0003c0 7e 4c 00 36 bf 70 89 37 e5 e3 c8 37 93 94 e5 b5
       1.911801e-06 1.6384174e-05 2.394798e-05 -1.710507e-06
0003d0 40 4e 44 38 89 e5 44 b6 28 a0 8d b6 63 e1 a4 b6
       4.6802917e-05 -2.9339883e-06 -4.220772e-06 -4.9138193e-06
0003e0 d9 09 c4 b6 97 64 2f b6 2d c4 f2 b5 31 f1 59 38
       -5.8424016e-06 -2.6135583e-06 -1.80875e-06 5.196146e-05
0003f0 e0 b1 18 37 88 67 ea b6 4e 43 97 b6 41 28 e8 b5
       9.101321e-06 -6.985796e-06 -4.507986e-06 -1.7297062e-06

lstm_layer.lstm1.bias_ih_l0 f4 [600]
000000 d4 9c 7e b9 2a 5d ae b9 f1 d7 96 b8 0c 84 06 ba
       -0.0002428175 -0.0003325728 -7.1927796e-05 -0.0005131371
000010 83 3a da b9 30 0b 0e 39 f7 81 df b9 06 2e 80 39
       -0.00041623795 0.00013546343 -0.00042630706 0.00024448353
000020 db 88 83 ba 7b 48 c5 ba 8f 35 1f b9 db 93 1f b9
       -0.0010035293 -0.0015051508 -0.00015183374 -0.00015218502
000030 96 28 c2 b9 fa 4b fd 38 16 9c f5 3a 9b b8 84 b9
       -0.00037032802 0.00012078132 0.0018738534 -0.00025314544
000040 11 9d d9 b9 72 a7 f0 39 29 60 39 b9 be 05 e7 b9
       -0.0004150649 0.00045901124 -0.00017678797 -0.00044064032
000050 83 5b c6 b9 8f 84 ff 38 b0 1b 58 ba 50 b5 5a b9
       -0.00037833684 0.000121840385 -0.0008243872 -0.00020857644
000060 3c 3a 0d b6 05 53 c1 b8 9a 4a 47 ba 3f 32 8f 38
       -2.1044534e-06 -9.218421e-05 -0.0007602364 6.8281304e-05
000070 f7 a5 6a 38 ba af 26 ba 54 a0 d2 b8 c1 95 18 ba
       5.5944514e-05 -0.0006358583 -0.00010043444 -0.0005820655
000080 23 a9 8c b9 64 95 29 ba 56 5b 2d ba 26 dd 5f 38
       -0.00026828898 -0.00064690993 -0.00066130364 5.3373304e-05
000090 75 04 fe 38 0f a8 70 b9 7a cb 4f ba b0 c3 7c b9
       0.00012112494 -0.0002295079 -0.0007926744 -0.00024105492
0000a0 ea e8 8c b8 fa aa 05 ba 90 fd 56 ba c6 cd 01 b8
       -6.719104e-05 -0.0005099025 -0.0008201236 -3.0947638e-05
0000b0 96 c4 ad b8 a8 1b 59 39 e8 dd 6f b9 85 b8 84 b9
       -8.2859e-05 0.00020705035 -0.00022875483 -0.0002531448
0000c0 2b 10 47 39 6a b0 8a 37 c9 b0 a5 b8 96 fe a3 38
       0.00018984142 1.6533031e-05 -7.900742e-05 7.819866e-05
0000d0 f6 52 f7 b9 1e e4 21 b9 00 a5 e1 ba 84 13 f8 b8
       -0.00047173322 -0.00015439137 -0.0017215312 -0.000118291966
0000e0 84 67 59 b9 4f 51 42 b9 b3 c0 97 b8 a1 b6 e0 b9
       -0.00020733295 -0.00018531572 -7.236134e-05 -0.00042860679
0000f0 4d ba 21 39 eb 05 e7 38 6b 84 c7 b8 86 c5 71 b9
       0.00015423559 0.00011016041 -9.513724e-05 -0.00023057134
000100 65 09 c0 38 bd 37 97 38 c9 05 1a 39 ee 7a 5f 3a
       9.157023e-05 7.210623e-05 0.0001468874 0.0008525093
000110 d6 8a 5d 38 c5 24 3a 39 46 72 90 35 07 f9 b3 b9
       5.2819807e-05 0.0001775204 1.0762094e-06 -0.0003432708
000120 26 7d 32 b8 bd 07 81 b9 ae 22 37 ba cc 14 fc b5
       -4.255506e-05 -0.00024610563 -0.00069860637 -1.8781516e-06
000130 2d 6b 04 38 e7 13 49 38 7a 43 e9 b5 f7 3f 46 ba
       3.1571068e-05 4.794067e-05 -1.7379491e-06 -0.0007562632
000140 11 dd 6a ba 02 2c 99 b9 39 d4 b0 39 0e fe c7 38
       -0.0008959333 -0.00029215222 0.00033727454 9.536381e-05
000150 f3 d3 4f b9 c7 11 44 b8 00 f8 d7 b9 44 45 9b b9
       -0.00019820016 -4.6746598e-05 -0.0004119277 -0.0002961551
000160 41 48 90 b9 8c a6 85 3a 32 69 75 ba b6 fd c4 b9
       -0.00027519654 0.001019673 -0.00093616836 -0.00037573063
000170 36 80 56 b8 f6 74 ff b8 67 b1 37 b8 ba a8 97 b9
       -5.114098e-05 -0.00012181133 -4.379582e-05 -0.00028926675
000180 90 2a 9a b9 2b 5f 08 3a 55 da 8b b9 12 83 87 b7
       -0.0002940488 0.00052021694 -0.00026674816 -1.6154288e-05
000190 f4 10 b6 38 83 7b a1 39 c7 60 1a ba ed 3f e9 39
       8.681594e-05 0.00030800336 -0.0005889055 0.00044488852
0001a0 bb 0b 15 39 4e 59 62 b9 db 7e 2f 3a 71 03 ff b8
       0.00014214117 -0.00021586308 0.0006694623 -0.000121599885
0001b0 4f 2c bb 37 de 37 2f b8 9c 6f 8c b8 7c 1a 30 38
       2.231277e-05 -4.177528e-05 -6.696509e-05 4.1986335e-05
0001c0 32 b2 05 39 a0 6e b6 b9 bf e2 f0 b8 3f d4 50 3a
       0.00012750251 -0.00034796167 -0.000114863265 0.00079661974
0001d0 24 49 3b 37 ac b0 2c b9 f3 ad 2e b9 1a 5a bf b8
       1.1163098e-05 -0.00016469014 -0.00016658734 -9.1243724e-05
0001e0 19 c5 a2 b8 2b 33 6c 3a 42 0e 1c b9 81 e9 7b 39
       -7.761474e-05 0.000901031 -0.00014882631 0.00024024212
0001f0 23 cd 88 ba d3 ee 90 b9 59 39 84 38 13 dc cb 37
       -0.0010437112 -0.00027643758 6.304932e-05 2.4301966e-05
000200 99 9f 02 b9 58 ec 71 b8 e2 86 f9 b9 09 ce 97 b9
       -0.00012457221 -5.767899e-05 -0.00047593476 -0.00028954473
000210 e1 b0 8d ba 6f 44 f0 39 b2 3c 5c b9 21 6c 5f 39
       -0.001081016 0.00045827354 -0.00021003446 0.00021307218
000220 c9 d7 49 38 e7 8a e3 b9 c9 dd b8 b9 a3 23 a0 b9
       4.81231e-05 -0.00043400304 -0.00035260458 -0.0003054413
000230 08 f0 ba b8 33 97 8c b9 f2 14 86 38 83 24 6a b9
       -8.9138804e-05 -0.00026815533 6.393519e-05 -0.0002232958
000240 3c ef bd 39 ec 3a fc b9 c4 f4 1f b7 8d c8 2b b9
       0.00036227133 -0.00048109086 -9.5341275e-06 -0.00016382542
000250 df 54 76 3a 47 d9 30 b9 9e ff 13 b9 58 ca 8a b9
       0.0009396802 -0.0001686561 -0.00014114237 -0.0002647217
000260 e6 d0 93 36 de 83 c9 39 99 b6 43 ba ac 95 66 b9
       4.4052604e-06 0.00038435956 -0.0007465869 -0.00021990266
000270 03 0b 4e 38 4a 33 19 b9 06 00 b3 b9 91 34 92 b8
       4.9124483e-05 -0.00014610324 -0.00034141558 -6.971614e-05
000280 4d 82 91 b9 c8 d5 10 b9 0e 73 9a 38 d0 85 43 ba
       -0.00027753637 -0.0001381255 7.364723e-05 -0.0007458599
000290 54 2c 35 b7 f3 91 f9 b8 31 bf bc 38 40 a0 3f 38
       -1.0798762e-05 -0.000119004304 9.000151e-05 4.5687193e-05
0002a0 f5 ac cc b8 95 6e 01 ba 8e aa 44 ba fd 67 c5 39
       -9.759694e-05 -0.00049374375 -0.0007502221 0.00037652245
0002b0 6d 9d a7 b6 d6 b8 95 b9 65 73 c2 36 06 d7 e3 b9
       -4.9953146e-06 -0.00028557208 5.7950842e-06 -0.0004345702
0002c0 4b 65 63 b9 4b 9e 6e b9 e4 5d 54 b8 39 d4 ff 38
       -0.00021686142 -0.00022756417 -5.063218e-05 0.00012198877
0002d0 26 f6 c2 b8 7c be 39 36 2b 46 7e ba bf df 1f ba
       -9.2964896e-05 2.7678025e-06 -0.0009699787 -0.00060987094
0002e0 ee cd 3f 38 60 6a 32 ba c6 1a b0 39 67 87 14 3a
       4.5729736e-05 -0.0006806012 0.00033589284 0.00056659285
0002f0 87 0a b6 39 85 63 b8 b9 9f 3e ce 39 a4 c9 c5 38
       0.0003472159 -0.00035169363 0.00039338038 9.4312505e-05
000300 5d 37 10 ba fe fd fe b7 52 b5 f9 b8 48 0d 0a ba
       -0.0005501414 -3.0397434e-05 -0.00011907019 -0.0005266261
000310 b5 06 a3 b8 fd a2 04 ba 81 91 10 ba 79 d4 cd b9
       -7.773695e-05 -0.00050596875 -0.0005514846 -0.0003925895
000320 60 3c 99 39 06 bf 2c 39 51 f0 0d 39 b1 8f 0d 3a
       0.00029227417 0.0001647436 0.00013536333 0.0005400135
000330 bd 6b 01 39 97 bf 16 b9 7f 7c be 39 a4 c5 23 38
       0.00012342534 -0.00014376488 0.0003633238 3.9046296e-05
000340 8f b7 0b 3a f5 21 fc 39 50 de 59 39 f2 18 f3 39
       0.00053297816 0.00048090486 0.0002077755 0.00046367157
000350 be f3 06 3a dd 7c a5 38 74 60 05 39 5c ea 4f 3a
       0.0005148015 7.891071e-05 0.000127198 0.00079313456
000360 3e 47 c5 39 ef 42 b7 b9 4a a9 a5 39 95 81 43 3a
       0.00037627848 -0.0003495435 0.00031597383 0.0007457969
000370 22 54 a2 39 10 85 c5 39 fd 34 1f 3a 4a 36 a8 38
       0.00030961732 0.00037673907 0.00060732645 8.0209764e-05
000380 d1 eb 1d b9 ca e9 4f 39 2e e1 14 3b 0f fd 7a 39
       -0.00015060535 0.00019828152 0.0022717225 0.0002393613
000390 91 a3 54 b8 f2 f7 10 3a bc 4a ed 39 56 d4 05 3a
       -5.0697072e-05 0.0005530111 0.00045259844 0.0005105188
0003a0 49 0a cd 39 4e 8d ce 39 33 e1 a8 39 79 32 d9 b8
       0.0003910831 0.00039396662 0.00032211244 -0.000103567676
0003b0 aa 74 13 3a 1e 0e c2 36 e3 7b f3 39 4f 5f 91 3a
       0.0005624989 5.783294e-06 0.00046440875 0.0011091026
0003c0 ee 6b 2e 39 58 bb de 39 bc e5 04 3a 15 4b 71 39
       0.0001663414 0.00042482722 0.00050696335 0.00023011521
0003d0 e4 7f ad 3a 01 fc 18 39 eb ff 0a 38 04 38 2f 39
       0.0013236967 0.00014589728 3.3140106e-05 0.00016710168
0003e0 f6 96 e9 b8 2d 69 fa 38 f5 ab 3c 39 c3 66 7f 39
       -0.000111384245 0.000119405195 0.00017993136 0.00024356977
0003f0 72 08 25 3a 85 32 9f 39 1c 76 92 3a cc 01 90 38
       0.0006295509 0.00030364483 0.0011174115 6.86679e-05

lstm_layer.lstm1.bias_hh_l0 f4 [600]
000000 12 d6 80 b9 4e 5f 8c b9 ab fd 96 b8 b0 8f 05 ba
       -0.00024573557 -0.00026773888 -7.199807e-05 -0.00050949585
000010 65 bd df b9 cd 80 0e 39 79 48 c8 b9 20 64 80 39
       -0.00042674984 0.00013590157 -0.0003820097 0.0002448866
000020 d0 06 47 ba 33 28 c5 ba bc da 19 b9 d0 d9 1e b9
       -0.00075922627 -0.0015041888 -0.00014672702 -0.00015149196
000030 81 43 c5 b9 07 e0 0e 39 87 ad f5 3a 5a e5 80 b9
       -0.00037625062 0.00013625632 0.0018743732 -0.00024584943
000040 69 8f d9 b9 02 d2 fe 39 c2 23 3a b9 a5 92 c6 b9
       -0.00041496314 0.00048603123 -0.00017751663 -0.00037874762
000050 17 5c c6 b9 19 84 fd 38 b6 c6 58 ba f0 85 58 b9
       -0.00037834115 0.00012088585 -0.00082693563 -0.00020649261
000060 77 6b 2b b6 36 ae 46 36 1b 4a 47 ba 6c 9f 8a 38
       -2.5543538e-06 2.9605703e-06 -0.000760229 6.6100474e-05
000070 e6 31 80 38 74 f9 26 ba 1e 76 bf b8 e2 e5 17 ba
       6.11281e-05 -0.0006369569 -9.129591e-05 -0.0005794448
000080 ec e4 8d b9 b7 b4 29 ba 4a 70 25 ba d1 0b 68 38
       -0.00027064176 -0.0006473767 -0.0006310983 5.5324115e-05
000090 f5 8e e5 38 ad 71 8c b9 6b 68 57 ba d2 14 6c b9
       0.00010946199 -0.00026787576 -0.00082171586 -0.0002251447
0000a0 a8 e2 8c b8 4c b8 05 ba 2d ee 52 ba 5c e7 02 b8
       -6.717938e-05 -0.000510101 -0.0008046355 -3.1209885e-05
0000b0 c5 46 ad b8 dd 94 55 39 49 2e 70 b9 37 54 85 b9
       -8.262465e-05 0.00020368719 -0.00022905426 -0.00025430482
0000c0 c3 e8 46 39 b1 42 86 37 64 ea aa b8 1f 44 92 38
       0.00018969462 1.60051e-05 -8.14989e-05 6.974511e-05
0000d0 09 1b ee b9 6a b6 5e b8 2a 34 d8 ba 39 2b f3 b8
       -0.0004541504 -5.309881e-05 -0.0016495038 -0.00011595194
0000e0 db b9 58 b9 6b b2 4c b9 83 5d 8b b8 eb 97 e0 b9
       -0.00020668602 -0.00019521422 -6.6454544e-05 -0.00042837797
0000f0 b9 d2 24 39 e5 5f e4 38 81 4a c8 b8 eb aa 71 b9
       0.00015718759 0.00010889749 -9.5506206e-05 -0.00023047223
000100 6c 35 b6 38 e2 ff 96 38 e4 3f 0f 39 3b 22 66 3a
       8.688387e-05 7.200219e-05 0.00013661344 0.00087789044
000110 d6 46 4e 38 dd b4 c8 37 b3 af 37 37 e7 f4 b3 b9
       4.91802e-05 2.3926079e-05 1.0948558e-05 -0.00034324007
000120 e0 b2 31 b8 25 69 84 b9 8d 8f 29 ba 32 d7 3f 35
       -4.236668e-05 -0.0002525534 -0.0006468229 7.1466195e-07
000130 4f 15 0a 38 4e f8 c0 37 03 a1 aa b5 40 bc 46 ba
       3.292161e-05 2.300381e-05 -1.2712848e-06 -0.0007581152
000140 34 b7 6a ba c4 cc 99 b9 13 8b 9a 39 b4 93 c5 38
       -0.0008953691 -0.00029334996 0.00029476787 9.421204e-05
000150 e2 b9 45 b9 1d ff 4c b8 89 26 d7 b9 26 5b 91 b9
       -0.00018856631 -4.8874983e-05 -0.00041036707 -0.00027724466
000160 d7 04 92 b9 bb 74 66 3a 0a d8 69 ba 1c 42 da b9
       -0.00027850896 0.0008791198 -0.0008920437 -0.00041629456
000170 cf 33 58 b8 74 65 01 b9 9c 31 5d b8 cb f9 92 b9
       -5.1546664e-05 -0.00012340193 -5.273671e-05 -0.000280334
000180 fa b1 97 b9 a6 51 06 3a a0 db 8d b9 6a 26 87 b7
       -0.00028933567 0.0005123861 -0.0002705725 -1.6111142e-05
000190 ff 26 b4 38 15 68 a4 39 0f 29 1d ba 46 6f 08 3a
       8.5903324e-05 0.00031358065 -0.0005995193 0.00052045693
0001a0 bf 60 1e 39 b6 38 62 b9 38 39 2f 3a a6 51 40 b9
       0.00015104095 -0.00021574166 0.00066842465 -0.00018340963
0001b0 eb 71 c8 37 1d 51 28 b8 29 b8 86 b8 ec a3 31 38
       2.3894905e-05 -4.0129864e-05 -6.4239204e-05 4.2352753e-05
0001c0 f8 62 0b 39 e0 1f b5 b9 36 da f1 b8 05 07 4c 3a
       0.00013292942 -0.0003454676 -0.000115324205 0.00077830284
0001d0 73 e4 33 b8 58 ea 25 b9 2c 70 41 b9 46 e8 a0 b8
       -4.2889686e-05 -0.00015822926 -0.00018447702 -7.672659e-05
0001e0 43 43 cc 37 71 d6 78 3a c8 ae 36 b9 f9 8e 2a 39
       2.4350016e-05 0.00094924035 -0.00017421984 0.00016265725
0001f0 e8 c7 8f ba d5 74 91 b9 bd 18 85 38 47 e2 d4 37
       -0.0010969611 -0.00027743602 6.346542e-05 2.5377738e-05
000200 69 fc fe b8 7d 35 6d b8 14 a0 f8 b9 27 b7 97 b9
       -0.00012158679 -5.6555018e-05 -0.00047421514 -0.00028937423
000210 13 78 8c ba 0c 46 f0 39 d1 d5 5b b9 d1 18 60 39
       -0.0010716937 0.00045828556 -0.0002096512 0.0002137155
000220 57 f7 11 36 f3 fa db b9 02 45 b9 b9 65 5f a2 b9
       2.1750654e-06 -0.00041957907 -0.00035337365 -0.00030970122
000230 05 5b aa b8 0d 42 8b b9 1e fe 94 38 82 ba 5c b9
       -8.1231854e-05 -0.00026561358 7.104523e-05 -0.00021050315
000240 6c a6 bf 39 21 39 fc b9 eb 84 06 b7 0d e0 2b b9
       0.00036554353 -0.0004810775 -8.01797e-06 -0.00016391296
000250 72 ad 74 3a 93 3e 42 b9 ce 0d 1d b9 1d 3e 87 b9
       0.00093337067 -0.00018524592 -0.0001497783 -0.00025795485
000260 9d ae cc 36 57 0a ce 39 00 0a 43 ba 01 4c 6d b9
       6.1000014e-06 0.00039299086 -0.000744015 -0.00022630395
000270 0a c5 4e 38 84 04 1a b9 a5 89 b3 b9 38 9a 90 b8
       4.9297734e-05 -0.00014688267 -0.00034244094 -6.8951806e-05
000280 8f aa 92 b9 2b b5 14 b9 0d de 99 38 18 d6 44 ba
       -0.00027974366 -0.0001418187 7.336969e-05 -0.0007508709
000290 64 3a 5f b7 68 bd fc b8 f6 62 bc 38 4b f0 3e 38
       -1.3305431e-05 -0.00012051576 8.9829715e-05 4.552332e-05
0002a0 a2 09 cb b8 3e 71 01 ba ba 6a 44 ba 95 24 c8 39
       -9.6815886e-05 -0.0004937834 -0.000749271 0.00038174228
0002b0 d7 ad cd b6 3b 31 a0 b9 99 9c a4 36 d2 16 f6 b9
       -6.1297137e-06 -0.00030554258 4.9058112e-06 -0.0004693778
0002c0 52 38 64 b9 58 9e 6e b9 f8 53 3c b8 d7 74 4c 39
       -0.00021764755 -0.00022756436 -4.4900895e-05 0.00019498482
0002d0 bb 0c ab b8 52 bc f7 36 ed 01 79 ba 3c 01 20 ba
       -8.156287e-05 7.383097e-06 -0.0009498883 -0.00061036996
0002e0 85 e9 6a 38 70 96 35 ba de 02 a2 39 cb 2e 14 3a
       5.600743e-05 -0.0006927019 0.00030901184 0.00056527246
0002f0 3d 49 b6 39 6b 28 b9 b9 03 1f cd 39 f7 8f 9a 38
       0.00034768312 -0.00035316063 0.00039123753 7.370108e-05
000300 d2 33 0b ba 0f 9e 8b b7 12 35 02 b9 ea cb 08 ba
       -0.0005310151 -1.6643693e-05 -0.00012417536 -0.0005218374
000310 12 10 95 b8 1c f0 02 ba 2c fc 08 ba 75 b0 cf b9
       -7.107867e-05 -0.00049948855 -0.0005225565 -0.00039613587
000320 aa 33 99 39 d4 dc 2d 39 5e 65 0c 39 92 67 0d 3a
       0.00029220927 0.0001658083 0.00013389203 0.00053941563
000330 f0 4e 0d 39 16 59 16 b9 18 8e be 39 56 5e 2e 38
       0.00013476214 -0.00014338302 0.00036345492 4.157269e-05
000340 ae 95 03 3a dc 24 fd 39 f9 66 66 39 e6 b7 f2 39
       0.00050195574 0.00048283383 0.0002197287 0.00046294852
000350 da b8 06 3a ec 18 92 38 c2 20 02 39 7c 4c 50 3a
       0.00051392394 6.9664646e-05 0.0001240997 0.00079459674
000360 c8 13 c6 39 37 82 b6 b9 71 35 a5 39 5d 9f 41 3a
       0.0003778024 -0.00034810763 0.0003151107 0.00073861127
000370 1d 46 a1 39 e4 6d c1 39 b5 f8 20 3a e9 3e bf 38
       0.0003076055 0.00036893704 0.0006140576 9.119308e-05
000380 53 ba 30 b9 9a b8 50 39 05 90 14 3b 82 31 76 39
       -0.00016854079 0.00019905195 0.002266885 0.00023478831
000390 a5 26 57 b8 bc 28 11 3a 32 f7 eb 39 95 e5 05 3a
       -5.1295985e-05 0.0005537381 0.00045006868 0.0005107758
0003a0 cb 13 cf 39 38 da c8 39 58 fc a7 39 4d 24 d9 b8
       0.00039496864 0.00038309558 0.00032040733 -0.00010354128
0003b0 63 98 13 3a 13 37 63 37 7b 74 f5 39 5a 80 8f 3a
       0.00056303124 1.3543077e-05 0.00046816826 0.0010948286
0003c0 82 97 2d 39 9b e5 e5 39 9b fa 04 3a 54 71 60 39
       0.00016555007 0.00043849353 0.00050727435 0.00021404523
0003d0 4d 83 ad 3a d3 10 18 39 25 6d 16 38 f7 56 32 39
       0.0013237983 0.00014502117 3.5864436e-05 0.000170078
0003e0 f0 02 bd b8 c9 df fc 38 41 bc 3c 39 e4 16 80 39
       -9.0127694e-05 0.000120579796 0.00017999207 0.00024431117
0003f0 16 e5 25 3a 15 34 91 39 4b cc 93 3a 4d cc 77 38
       0.0006328387 0.0002769536 0.0011276094 5.907966e-05

gbrbm.W f4 [200, 100]
000000 3f 6f 75 37 d6 2e 5b bb f3 aa e0 3a 1f ac 17 3a
       1.46290395e-05 -0.0033444664 0.0017140791 0.0005785841
000010 bc bc 3c 39 6a b9 84 3a 3f 47 49 ba d6 96 b5 b8
       0.00017999386 0.0010126058 -0.0007678158 -8.658848e-05
000020 d6 76 25 3b 27 be 0f bb 1d da b6 3a 7a 43 1b bb
       0.0025247834 -0.0021933408 0.0013950501 -0.0023691342
000030 a2 84 de b9 91 b5 c0 ba 7b c4 5c ba 46 f3 a0 b9
       -0.0004244196 -0.0014702549 -0.0008421612 -0.0003069883
000040 b3 dc 0c bb f3 78 c7 b9 bc 63 0d ba 0b 72 15 39
       -0.0021493852 -0.00038046352 -0.0005393585 0.00014252232
000050 17 50 d1 3a bc 15 2c 3b 4b 64 d2 3a 5d e7 f8 3a
       0.0015969303 0.0026258072 0.0016051618 0.001898985
000060 89 a2 34 3a a0 32 1e 3a 95 e4 86 ba b7 35 bf 3a
       0.00068906747 0.00060347654 -0.0010291511 0.0014588152
000070 dd e4 fa b9 8b 70 e9 b9 8b 69 1e 3a 6c f4 16 3a
       -0.00047854232 -0.00044525074 0.0006042949 0.00057584676
000080 53 3e 54 bb 56 ed 48 3b 28 60 82 ba 68 d4 4a ba
       -0.003238578 0.0030659041 -0.000994687 -0.00077373395
000090 fc b0 a0 39 3d d5 ae 39 36 f0 27 3b 7c d3 84 b9
       0.00030649442 0.0003334674 0.0025625355 -0.0002533457
0000a0 12 68 cf b9 fa 22 db 39 00 52 27 3a 9b 09 1c 39
       -0.00039559655 0.00041796995 0.00063827634 0.00014880898
0000b0 81 13 1d ba 27 da 75 ba d8 0f dc b9 ad c0 8d ba
       -0.0005991981 -0.00093785155 -0.00041973474 -0.0010814868
0000c0 07 a7 74 ba 9c 6a 99 bb be 12 f5 3a 96 53 e1 ba
       -0.00093327503 -0.0046818983 0.0018697602 -0.0017191048
0000d0 a5 83 8a ba b3 7f 54 ba 10 a5 f8 39 69 80 e2 39
       -0.0010567798 -0.0008106187 0.00047425227 0.00043201752
0000e0 d1 12 11 3b 39 c5 5e ba 3d 35 eb ba b5 4f 35 bb
       0.002213646 -0.00084980164 -0.0017944943 -0.0027665917
0000f0 e0 14 2e 3b b8 d4 32 3a fe 96 f8 ba 8a be 24 bb
       0.0026562735 0.00068218587 -0.0018965898 -0.0025137984
000100 91 d5 08 bb 74 92 c8 ba 06 ff ac 38 7d bd c6 b8
       -0.0020879249 -0.0015302435 8.249101e-05 -9.476671e-05
000110 0c b5 65 3b 15 32 dd 38 74 62 29 bb 06 69 f0 ba
       0.003505054 0.0001054743 -0.0025846036 -0.0018341846
000120 d4 b0 de b8 8d ad 9d ba 13 18 da b9 ce 6f 04 3b
       -0.00010618722 -0.0012029872 -0.00041598137 0.0020208242
000130 3e 98 64 3a e0 c6 89 39 41 0e cf 39 b6 db 43 3a
       0.00087201956 0.0002627885 0.00039492737 0.0007471399
000140 f3 34 e8 ba d0 fd 12 3a b8 40 65 b9 09 ee b3 3a
       -0.0017715975 0.0005607279 -0.00021863251 0.0013727556
000150 ee 38 c6 3a b4 0a 04 ba 4d a4 d7 b8 4d 3a 4a ba
       0.0015123168 -0.0005036995 -0.00010282602 -0.0007714376
000160 f5 d4 49 ba 09 e2 2a ba 54 61 ba ba 5a bc ad 38
       -0.00076992746 -0.0006518667 -0.001421968 8.284366e-05
000170 ce 56 0c 3b 56 fa 89 ba a5 b2 31 b8 f4 20 a1 3a
       0.0021414044 -0.0010526876 -4.2366464e-05 0.0012293146
000180 36 41 9e ba 34 c8 80 ba 86 26 3b bb fb 26 7c ba
       -0.0012073878 -0.000982529 -0.0028556897 -0.00096188457
000190 fc 9e 47 bb 4f 4e 2e 39 ce fd d8 38 b7 90 54 3b
       -0.0030459752 0.00016623105 0.000103469574 0.003243489
0001a0 05 b0 26 3b 58 31 b3 3a a0 9c ac b9 dc 0a 46 3a
       0.0025434506 0.0013671322 -0.0003292309 0.0007554719
0001b0 1d 32 a5 3a 2c 7c 69 3b a0 8c dc ba a8 de ad 39
       0.0012603436 0.003562699 -0.0016826577 0.00033163023
0001c0 6f 49 88 3a a3 cf 30 3a e1 0f a3 39 af 79 94 3a
       0.0010397861 0.00067448075 0.00031101613 0.0011327768
0001d0 ea 23 dc ba 59 c2 3b bb 10 de 47 3b 6c b7 ce ba
       -0.0016795371 -0.0028649776 0.003049735 -0.0015771217
0001e0 46 74 10 3b 2f b2 c2 3a 60 cd 69 bb f8 9d e5 ba
       0.002204196 0.0014854128 -0.0035675392 -0.0017518392
0001f0 4a 12 5f bb 11 38 62 3a 83 50 46 3a bb 56 40 3a
       -0.0034038 0.00086295704 0.0007565098 0.00073371426
000200 7c 90 9f 38 33 35 90 ba 07 4f d1 ba 90 10 31 ba
       7.608623e-05 -0.0011002183 -0.0015968987 -0.0006754482
000210 e6 2b fd ba df ee 52 3b f1 2d 0d 3b 5b d2 3c 3a
       -0.0019315451 0.0032185835 0.0021542276 0.0007202976
000220 3f 88 ce 3a db 0b 37 3b 0b 60 1c 3a 6c fd bf 39
       0.0015757157 0.002793065 0.0005965239 0.00036619173
000230 ee 60 33 bb 16 1d a1 ba b5 3c 4a bb 19 e2 80 39
       -0.0027371007 -0.0012291993 -0.0030858938 0.00024582518
000240 60 f1 2f 3b a8 65 24 3a f6 ca f5 b9 5a 17 05 3b
       0.0026846752 0.00062712515 -0.0004688126 0.0020308108
000250 e4 74 2e ba 61 6b 8b 3a 95 7b 5f 3a 73 d9 08 3a
       -0.00066549913 0.001063686 0.000852519 0.0005220391
000260 d8 20 eb b9 76 2b 88 3a 60 9c ce 3a a3 db 8b ba
       -0.00044847163 0.0010388929 0.0015763156 -0.0010670315
000270 c6 8c 5d 3b ff a5 47 ba da ee 20 3b d0 e6 fd ba
       0.0033805831 -0.0007615983 0.002455643 -0.0019371156
000280 79 54 9c ba d5 77 f0 39 91 4a e3 b9 44 1b 27 39
       -0.001192703 0.0004586565 -0.0004335237 0.00015936518
000290 72 71 5b 39 00 0d 0d bb b0 5b 91 3a bc 48 93 3a
       0.00020927729 -0.0021522641 0.0011089947 0.0011236886
0002a0 63 f4 6f 3a e0 db b5 ba 84 83 cd 3a 6f d2 3a 3b
       0.0009153543 -0.0013874732 0.0015679453 0.0028506776
0002b0 f6 c1 85 3a 3b 54 2a 3b 75 ba 84 ba 6a c3 1b bb
       0.00102049 0.0025990147 -0.0010126369 -0.00237676
0002c0 05 97 43 3b b4 4d b1 3a 9c a7 c3 39 96 b5 e2 ba
       0.0029844653 0.0013527186 0.00037318177 -0.0017296548
0002d0 29 46 c7 ba be b0 f0 ba 3e eb 16 ba a6 61 46 3b
       -0.0015203404 -0.001836322 -0.00057571 0.0030270605
0002e0 38 46 ae ba 2e 39 37 3a a6 a0 c0 39 cb b3 ee ba
       -0.0013296073 0.00069894164 0.00036740786 -0.0018211541
0002f0 c4 99 36 ba df 4d 40 ba 26 16 a2 ba 74 a4 df 3a
       -0.0006965662 -0.00073358224 -0.001236622 0.0017062561
000300 c1 2f 1a ba 63 2c 84 ba fc e2 c9 b7 97 1f b9 ba
       -0.00058817497 -0.0010084029 -2.4066765e-05 -0.0014123794
000310 bc e4 8a 3b ab d5 40 3b 60 39 ca b9 ee 43 3a 3a
       0.004238693 0.002942423 -0.0003857119 0.0007105459
000320 89 a8 ac 3a ee f8 97 3b a3 d5 52 ba 5f 89 51 3a
       0.0013172786 0.004637829 -0.00080426986 0.0007993187
000330 0e 5e 8b ba db 08 21 bb c7 ef 19 3a 2d 99 f4 b9
       -0.0010632889 -0.0024571929 0.00058722164 -0.00046653431
000340 14 92 d2 3a 7d 3e 81 3a b0 c0 13 38 23 3b 94 38
       0.0016065263 0.0009860542 3.5226985e-05 7.068205e-05
000350 95 22 48 3b 70 65 41 3b 49 79 07 ba 89 79 c6 3a
       0.003053819 0.0029509924 -0.0005167914 0.0015142421
000360 fc a9 14 3b af ba 41 3b 89 88 05 3b 51 eb 3a bb
       0.0022684326 0.0029560735 0.002037557 -0.0028521607
000370 66 e4 7b 38 3c af 67 ba 1d f0 02 3a cc 08 e5 39
       6.0055776e-05 -0.00088380626 0.0004994886 0.00043684838
000380 04 ab 17 3a 33 99 47 bb 2f e6 f4 3a a8 70 04 bb
       0.0005785676 -0.0030456304 0.0018684323 -0.002020875
000390 fe 3d 08 3a 1c 72 7a 39 5e cb 28 3b 3f b0 06 3a
       0.0005197226 0.00023884367 0.0025755982 0.0005137957
0003a0 94 b1 92 ba 8d 22 2c 3b 83 f8 94 b9 f7 c7 af 3a
       -0.0011191838 0.002626571 -0.00028413915 0.0013411035
0003b0 37 32 14 3a 34 da 81 ba 58 2b 4a 3a 77 dc 9c 3a
       0.00056532345 -0.0009906949 0.0007712147 0.0011967559
0003c0 a9 49 55 ba 25 37 c3 3a 16 c9 e0 3a 40 4b 64 3b
       -0.00081362814 0.0014893754 0.0017149772 0.0034834892
0003d0 4d 58 5b bb 2b 15 45 38 d9 5a 3b 3a e8 ed b1 3a
       -0.003346938 4.6988174e-05 0.0007147021 0.001357493
0003e0 c9 b1 77 39 4d 9b fc ba aa ae d0 ba 47 69 fd 38
       0.00023621986 -0.0019272357 -0.0015921195 0.000120835895
0003f0 91 a4 bd ba 76 07 33 bb aa e4 12 3b 21 4c e0 b9
       -0.00144686 -0.002731768 0.0022414126 -0.0004278133

gbrbm.b f4 [100]
000000 88 05 9a bf 7e dd aa bf c7 d2 a6 bf 18 e9 b9 bf
       -1.2032938 -1.3348844 -1.3033074 -1.452426
000010 11 23 bb bf 1a bd a2 bf a4 b4 51 bf 30 10 4f bf
       -1.4620076 -1.2713959 -0.8191626 -0.80884075
000020 53 5f a1 bf 55 42 a9 bf 4f 7d c1 bf 62 e2 a3 bf
       -1.2607216 -1.3223368 -1.5116366 -1.2803462
000030 62 95 a2 bf e6 ec a3 bf b2 f7 ae bf e0 87 a1 bf
       -1.2701838 -1.2806671 -1.3669341 -1.2619591
000040 3d f3 b7 bf 46 c0 98 bf 49 76 9d bf d1 dd a8 bf
       -1.4371105 -1.1933677 -1.2301723 -1.3192693
000050 81 a8 9a bf 64 b3 bc bf c2 ad 90 bf 4e 16 b4 bf
       -1.2082673 -1.4742246 -1.1303027 -1.4069307
000060 d3 13 1a bf b6 e1 be bf 60 45 a7 bf 4a a6 4f bf
       -0.601865 -1.4912632 -1.3068047 -0.8111311
000070 67 a5 92 bf fb f2 a2 bf 07 85 99 bf b1 64 8e bf
       -1.1456727 -1.2730402 -1.1993722 -1.1124479
000080 fe 97 b5 bf 17 d8 af bf 6b 27 a3 bf 53 e2 96 bf
       -1.4187009 -1.373782 -1.2746404 -1.1787819
000090 b9 87 ac bf 14 65 89 bf e4 ff b6 bf 6d f2 ac bf
       -1.3478919 -1.0733972 -1.4296842 -1.3511482
0000a0 d2 18 8c bf 86 3c a3 bf 12 43 a6 bf 56 fa a2 bf
       -1.0945075 -1.2752845 -1.2989218 -1.2732646
0000b0 bb ef be bf 5a bd 9d bf 7c c7 b7 bf 3a 5f 9e bf
       -1.491691 -1.232341 -1.4357753 -1.2372811
0000c0 bf 83 79 bf c3 23 7b bf 57 56 a2 bf 80 c3 a7 bf
       -0.97466654 -0.98101443 -1.2682599 -1.3106537
0000d0 aa 1c 93 bf cd 0a 82 bf c0 09 a6 bf 66 7d 76 bf
       -1.1493123 -1.0159546 -1.2971725 -0.9628509
0000e0 c5 76 ae bf 27 6a 7c bf 5e 6d ae bf c2 d2 75 bf
       -1.3629996 -0.98599476 -1.3627126 -0.96024716
0000f0 11 72 88 bf 27 07 b7 bf 2d e2 8d bf c7 1e aa bf
       -1.065981 -1.4299058 -1.1084648 -1.3290642
000100 3c 4e a8 bf 99 1b 9f bf 39 63 95 bf 84 4b b8 bf
       -1.3148875 -1.2430297 -1.1670905 -1.4398046
000110 46 02 9f bf a3 6c af bf f6 86 a8 bf 82 27 82 bf
       -1.2422569 -1.3705028 -1.3166187 -1.0168307
000120 86 9c aa bf 2c 22 a9 bf e1 4d 71 bf 6b 3e 9e bf
       -1.3329017 -1.3213553 -0.9425946 -1.2362798
000130 7c 94 ab bf ac 36 ab bf a4 da a0 bf 24 dc a9 bf
       -1.3404689 -1.337606 -1.2566724 -1.3270307
000140 42 6b 8e bf a4 3e 99 bf 9e 97 b0 bf 6a 76 9f bf
       -1.1126482 -1.1972241 -1.379627 -1.2458012
000150 45 b5 b7 bf d9 89 8e bf c9 f6 9b bf 5e 71 9b bf
       -1.4352194 -1.1135818 -1.2184688 -1.2143972
000160 ef 6f 8f bf f7 c2 a2 bf a7 0a c3 bf fc 26 ac bf
       -1.1206034 -1.2715749 -1.5237626 -1.3449397
000170 cd d2 90 bf 04 d2 95 bf 4e 3e a1 bf c4 32 93 bf
       -1.1314331 -1.1704717 -1.2597139 -1.1499867
000180 c6 48 b7 bf f4 58 b5 bf a5 95 81 bf 2a 65 ae bf
       -1.4319084 -1.4167771 -1.0123793 -1.3624623

gbrbm.mu f4 [200]
000000 67 76 37 3c b0 8b b4 bb 4b c3 0f bc 06 6d 89 bb
       0.011197663 -0.005509816 -0.008774589 -0.004193905
000010 93 ab 9e bc 08 04 b3 3b 7f 2f 6a 3b 08 73 b6 bb
       -0.019368922 0.005463127 0.0035733876 -0.005567912
000020 62 b2 10 3c 57 1c 45 3c b8 97 0b bc 94 cc 9e bd
       0.008831592 0.0120306825 -0.008520059 -0.07753864
000030 1e 58 f5 bb a4 29 c7 3b 49 b3 17 3e 65 a9 54 bc
       -0.007487311 0.006077962 0.14814486 -0.01297984
000040 1b 7b 0c bb fb 29 23 3c 71 60 ac 3b 6f d8 01 3c
       -0.0021435681 0.009958739 0.00526052 0.007925137
000050 60 72 b9 3c b3 56 9e 3b 33 be f2 3b a6 7c c9 3a
       0.022637546 0.0048321127 0.0074079274 0.0015372231
000060 a2 c8 90 bb fb 95 1d 3b ae ff 17 bd cf 5e 1e 3c
       -0.0044184485 0.0024045694 -0.03710907 0.009666159
000070 c4 b6 f0 ba 04 4f 7b 3c a7 99 c1 3a 07 2b 00 3d
       -0.0018365015 0.015338663 0.0014770523 0.031291034
000080 ac b5 12 b9 f7 ad ad bc d1 88 09 b9 fe df 47 bc
       -0.00013991323 -0.021201117 -0.00013116306 -0.0121994
000090 ae b8 93 bc 54 8d 15 3c d5 c5 3b bc 29 98 85 3c
       -0.018032398 0.0091279335 -0.011460741 0.016307907
0000a0 97 2f 34 3c 8b 94 ef bb c1 df 66 bc 01 fb ea bb
       0.010997674 -0.007311409 -0.014091433 -0.0071710353
0000b0 ab a4 8c bd 56 52 c9 3b be 49 09 3c ee 60 1c 3c
       -0.068673454 0.0061438484 0.008379398 0.009544594
0000c0 7e 78 9a bb 94 72 4d 3c 88 13 1d 3b ad e2 34 bb
       -0.004714071 0.012539525 0.002396794 -0.002760093
0000d0 36 50 76 bc d8 2e f8 3b c8 69 62 3c 46 3d 5c 3b
       -0.015033772 0.0075739436 0.0138191655 0.0033605858
0000e0 15 9c 90 3c e9 e4 00 3c 1f 36 7c 3c 6d 3a b2 bc
       0.01765255 0.007867076 0.015393763 -0.021756375
0000f0 cd 46 48 bc b4 c8 93 3b d8 e6 0d ba 4f ba 88 3b
       -0.0122239115 0.0045100097 -0.00054131215 0.0041726003
000100 ca 85 c0 bb 41 ef 41 bb ff 8e 46 3b 9e f0 3c bc
       -0.005875324 -0.002959207 0.0030297635 -0.011531977
000110 cc e2 3b bb bb 4d 93 3a b3 71 2f 3c 8b e2 a9 bb
       -0.0028669117 0.0011238375 0.01070826 -0.0051844767
000120 58 2e c9 3c 90 c4 4e 3c be e6 90 bc 86 de 53 3b
       0.024558231 0.012620106 -0.017688151 0.003232868
000130 30 ea 4b 3c 73 96 99 bb 1f 1e 12 3b b4 00 88 3c
       0.012445971 -0.0046871244 0.0022295786 0.016601898
000140 aa 6e 42 3c 9d 0e 9a 3c af 47 58 bb 4d d6 a9 3b
       0.011867205 0.018805796 -0.003300171 0.0051830173
000150 9f cd aa ba 63 f5 7e bb d4 91 30 ba a1 cf 36 bb
       -0.001303125 -0.0038903586 -0.0006735597 -0.0027894753
000160 97 23 0b bb d7 6b 79 3b 40 9c 47 3c e0 72 bc 3a
       -0.002123093 0.0038058662 0.012183249 0.0014377497
000170 bf c3 1d 3b 7e 31 41 3a 16 0d 88 3b dc 8c e0 3a
       0.0024072973 0.00073697406 0.0041519506 0.0017131823
000180 5c 02 8d 3b 7d 4c 81 bc b5 97 8b 3b 45 9f f8 b9
       0.00430326 -0.015783543 0.0042600282 -0.0004742091
000190 89 9b 27 bb c5 46 c0 3a c8 ba f6 bb 62 74 22 3a
       -0.0025574884 0.0014669528 -0.0075295903 0.0006197152
0001a0 58 3d ae bb 34 74 9b 3b e8 31 fa 3d ab 22 a2 ba
       -0.0053173713 0.004744077 0.1221655 -0.0012369951
0001b0 98 08 1d bc 48 dc 8d 3b d8 d1 a0 3b 27 b2 df 3a
       -0.009584568 0.004329238 0.004907828 0.0017066643
0001c0 0e 08 25 bb dd 7e 44 3c 04 e7 9d 3a a6 dc 29 bc
       -0.0025181803 0.011993137 0.0012046997 -0.010367548
0001d0 98 65 ce bc f4 bd 04 bb f0 10 b7 bb 08 2d d6 3b
       -0.025194928 -0.0020254822 -0.005586736 0.00653613
0001e0 b6 ee a8 bb c4 ab a9 bc 12 88 36 3c 78 b1 f2 3b
       -0.0051554097 -0.020711787 0.01114084 0.00740641
0001f0 39 84 e8 bb 35 6a 4c 3c 8a 35 63 bc 99 ba ee bb
       -0.0070958403 0.012476494 -0.013867745 -0.007285428
000200 6c cd 86 3b 40 22 fe 3a ad 02 17 3c 6c 02 6b bc
       0.0041138437 0.0019388869 0.009216947 -0.014343839
000210 84 35 9b bc 98 40 02 3b fb be 09 3c 04 e9 5c bc
       -0.018946417 0.0019874927 0.00840735 -0.01348329
000220 e3 7f 9f ba 13 f3 4e 3c 3d 85 04 bc 66 0b 8b 3b
       -0.001216885 0.012631196 -0.008088407 0.004243302
000230 a0 7a 1e 3c d1 39 ca 3b 15 82 0d bb 0b ec dc 3b
       0.009672791 0.006171443 -0.0021592428 0.0067420057
000240 11 01 ba bb 3a 0e a1 bd be b8 2f 3c 85 92 e7 bb
       -0.0056763967 -0.078640416 0.010725198 -0.007067027
000250 92 e8 c9 bb 2f 69 34 3c e7 bf 95 3b c4 75 b8 3a
       -0.0061617577 0.011011406 0.0045699957 0.0014073183
000260 ed b5 8f bb 43 a3 52 bc 44 75 4c bb df 43 a1 b9
       -0.004385701 -0.012856307 -0.0031197825 -0.0003075888
000270 b6 b8 d4 3c b8 bc c4 bb 28 a7 21 3c de eb 3a 3b
       0.025966983 -0.0060039423 0.009866513 0.0028521935
000280 5f 8c 10 3c 9c fe a0 b8 5f c6 19 bc 49 e1 02 3c
       0.00882253 -7.676819e-05 -0.009385674 0.0079882825
000290 6a f3 b7 3a d6 fb ae bb 4a f4 40 3b dc ee e4 bd
       0.0014034335 -0.00534008 0.0029442483 -0.11178371
0002a0 6a 68 69 3b 4e b2 f1 3b d0 28 24 3c 12 8e 77 3a
       0.0035615214 0.007375992 0.010019496 0.00094434724
0002b0 49 b9 dc 3b 16 2b 50 bb 79 29 08 bc 40 7d 18 bb
       0.006735955 -0.0031763962 -0.008310669 -0.0023268014
0002c0 d9 76 c8 b9 4e 03 d6 ba 4b 8e 7e 3a d2 4c 13 3a
       -0.0003823552 -0.0016327889 0.00097105344 0.0005619052
0002d0 61 be 94 3a 66 26 dc 3a 1c 30 a9 bc 91 48 97 bd
       0.0011348241 0.0016796112 -0.020652823 -0.07386888
0002e0 2f a5 21 3b 65 7e 8f 3c f5 10 88 3b ec 28 24 3c
       0.0024665107 0.017516324 0.004152412 0.010019522
0002f0 f6 a1 4e bc 85 2f c0 3b 69 f4 25 3c 51 d1 48 3b
       -0.012611857 0.00586504 0.010129073 0.003064234
000300 87 34 49 3c 6e 3b 75 3b 0d 00 9a 3c ab f7 1a bb
       0.01228059 0.0037419456 0.018798852 -0.0023646157
000310 52 84 0c 3c 75 3f 64 3c 25 a7 0b bc 6d e5 33 bb
       0.0085764695 0.013931145 -0.008523737 -0.002744998
