models_weight_lstm/lstm_4.pt (torch, 211098 bytes, 13 tensors)

lstm_layer.lstm1.weight_ih_l0 f4 [200, 2]
000000 7d 79 9a 3d e4 3b ef bd a6 82 ae 3c 22 37 82 3d
       0.07542703 -0.11681345 0.021302532 0.06358172
000010 4a d2 19 bd b2 bc ec bd a1 67 f7 3c 88 b4 0a 3e
       -0.037554063 -0.11559428 0.030200781 0.1354543
000020 db 83 b2 bc 5e c6 aa bd ca 22 d0 bd e8 0b d1 3d
       -0.02179139 -0.08338617 -0.101628855 0.10207349
000030 b7 74 6c bd d9 22 ac bd 0b bd d3 bd ec 30 99 bd
       -0.057728495 -0.08405084 -0.103387915 -0.07480034
000040 d0 dc d6 3d 5e 48 30 3c ec f1 b4 bd dc 85 0a 3d
       0.104913354 0.010759441 -0.088352054 0.033819064
000050 a5 2b 49 3d 91 9b 30 3d 8c ce 2e 3c 58 d3 06 bc
       0.04911389 0.04311711 0.010669362 -0.008229099
000060 c1 74 39 3d ca 95 50 bc ad 70 6b 3c 60 92 32 3d
       0.04527736 -0.012731025 0.014370126 0.043596625
000070 6f da 88 3d 71 a7 03 be de 1a 80 bd 61 d8 ec bd
       0.06682288 -0.12856843 -0.062551245 -0.115647085
000080 49 d5 51 3d 05 28 e8 bc 2d 37 4d bb a9 01 c6 3d
       0.051228795 -0.028339395 -0.0031313405 0.096682854
000090 14 4f 4c bd b5 ac 92 3c 8f 19 08 3e 89 b2 19 3c
       -0.049880102 0.017904619 0.13291 0.009380945
0000a0 e1 50 0b 3d 1e 5f e5 bd 30 d8 13 bd fa c2 71 3c
       0.03401268 -0.11199783 -0.036094844 0.014755959
0000b0 42 d6 34 be 8a 4b df 3d 18 c3 cb bd b3 c0 7f 3d
       -0.17659858 0.1090308 -0.099493206 0.06243963
0000c0 21 12 05 3e 01 bd 8d 3d a2 6a 2d 3d d6 8b 4d 3d
       0.12995197 0.06920815 0.04233802 0.050182186
0000d0 2e cf 19 3e 22 84 8d bc 19 0b 46 3d 89 c1 57 bd
       0.15020439 -0.01727492 0.048350427 -0.052674804
0000e0 2b 74 18 bd fb 3b ab 3d 11 b7 56 3d c6 e1 19 be
       -0.03722016 0.0836105 0.05242068 -0.15027532
0000f0 a8 a3 ab 3b 96 fa 5e 3d 95 b8 a0 bb 45 de 0e be
       0.005238015 0.054438196 -0.0049048164 -0.13951977
000100 b0 28 16 3e cb 26 88 3d 60 d3 dd bd 8d 9b 29 3a
       0.14663959 0.06648024 -0.10831332 0.0006470017
000110 ce 82 fb 3d 33 e4 14 3e 0c ff 6a ba f6 d5 ae bd
       0.122808084 0.14540176 -0.00089643965 -0.085369036
000120 22 a2 fa 3d 35 c4 0b 3e 09 dc f6 3d f7 9a c0 3d
       0.12237956 0.13649066 0.12053687 0.09404557
000130 36 3e cb 3d 10 31 b8 bc f2 53 3c be 45 22 d3 bc
       0.09923975 -0.022484332 -0.18391398 -0.025773177
000140 1d 03 39 3e 5c f0 c6 bc fd 97 99 3d 09 01 e3 bd
       0.18067594 -0.024284534 0.074996926 -0.11084182
000150 05 d4 9b 3d 3a 58 a5 bd 9a d2 99 bd 24 69 c7 bd
       0.07608799 -0.080734685 -0.07510872 -0.09736851
000160 28 31 09 3e d3 a5 8f bd a4 f5 6a 3c bf 86 b8 bc
       0.13397658 -0.0701405 0.014340792 -0.02252519
000170 02 90 a9 3c 16 97 8a bd 3a 52 0c bd 9e d8 f0 bd
       0.020698551 -0.067670986 -0.034258105 -0.117600664
000180 45 78 22 be 36 97 f7 bb c1 08 ad bc 92 f4 9d bd
       -0.15866192 -0.0075558675 -0.021122338 -0.07712664
000190 cd 24 06 3c c1 df 36 bd 99 5e d1 3d 51 2c 16 3e
       0.008187485 -0.044646982 0.10223121 0.14665343
0001a0 b2 26 e8 bd fa 20 9c 3c 9b 2a df bc c0 8f 00 3e
       -0.113355055 0.019058693 -0.027241996 0.12554836
0001b0 34 42 65 3d d9 4f 02 3d 52 30 ed 3d 35 f7 bb bd
       0.05597134 0.03181443 0.11581482 -0.091780104
0001c0 a2 fd e3 3c dd 8b a5 3c 0b 99 6b 3c 1f a3 03 3e
       0.027830902 0.020208294 0.01437975 0.12855195
0001d0 14 aa ab bd 7a b7 98 bc 58 93 0e bd 2b ee 26 bd
       -0.08382049 -0.018642176 -0.034808487 -0.04075448
0001e0 13 e9 7c bd 16 9b 66 bd 97 20 02 3e d7 24 a9 bd
       -0.061745714 -0.056300245 0.12707745 -0.0825898
0001f0 cc 89 9f 3d 06 eb 61 bd be 82 22 3d 0f 8b b3 3d
       0.077899545 -0.055155776 0.039675467 0.08766758
000200 2d e2 0d 3e a9 e1 f4 bd ca 73 d6 bd c2 05 95 3d
       0.1385581 -0.11957104 -0.10471304 0.07276489
000210 92 9a d0 3d bc 8f 79 3c b8 97 b5 3c 70 9d 17 3e
       0.10185732 0.015232023 0.022167072 0.14806151
000220 ad b3 8f 3d b3 fa 43 3d 95 ce a6 bd 5f de a3 bd
       0.07016692 0.047846507 -0.08144871 -0.08001398
000230 aa 51 a6 bd 5f b8 17 3e ae 37 50 bd 96 13 97 bc
       -0.08121045 0.14816426 -0.05083435 -0.018441956
000240 fd 91 5c 3d b6 96 31 3d 5f 32 3c 3d be f5 22 3e
       0.053850163 0.04335662 0.045946475 0.15914056
000250 3d 80 14 3e 95 d2 15 bd ac cc 09 3e ae 06 d3 bd
       0.14502044 -0.03657778 0.13456982 -0.103040084
000260 db da 8f bd 36 6e 9b bd d2 4d b5 bd 75 aa c4 3c
       -0.07024165 -0.075893804 -0.08852734 0.024007061
000270 40 2e 9d bd 5a a8 c5 bb d3 f3 18 be 5a 34 14 3d
       -0.07674837 -0.006032032 -0.14936762 0.03618274
000280 42 da 32 3b 9d 5b f2 bd 6c f2 0a 3e 9c 26 13 be
       0.0027290736 -0.1183388 0.13569039 -0.14370197
000290 cc 00 1f 3c 2b 09 85 3c 58 1e 34 be f2 89 75 bc
       0.00970478 0.016239723 -0.175897 -0.014986502
0002a0 6e 1d c6 bd 25 b3 cf 3d 81 e8 27 3e e3 33 4a 3d
       -0.09673582 0.10141591 0.16397287 0.04936589
0002b0 82 80 12 3e e6 33 97 bd 62 df c5 3c af e8 83 3d
       0.14306834 -0.07382946 0.024154369 0.06440865
0002c0 21 f9 37 3d 1b 56 dc 3c d4 f7 ea bd 12 ec b1 3d
       0.044915322 0.026896527 -0.11473051 0.08687605
0002d0 6b bb 2d 3e 81 f2 f8 3d 89 ee 7a 3d b7 05 ff 3d
       0.16966026 0.12155629 0.06126264 0.12452262
0002e0 63 94 d8 bd 6b 02 80 3d 94 4a 02 bd f0 cf 9a bd
       -0.105751775 0.06250461 -0.031809404 -0.07559192
0002f0 ac 73 c2 bd a8 75 b2 bd b5 dd a4 3d 10 66 81 bc
       -0.09494719 -0.087138474 0.080501 -0.015795738
000300 01 dd db bd 04 c3 9d 3d 4e 7c c7 3c 9d 7b 96 bd
       -0.107355125 0.07703212 0.024351265 -0.07347796
000310 9a 58 be bb 94 05 10 be dc b0 c6 bd bf ff ef 3d
       -0.005808902 -0.14064628 -0.09701702 0.117187016
000320 37 26 a7 3d 1c f2 db bc 15 b3 04 3e 9f 22 88 bb
       0.08161586 -0.026848845 0.1295894 -0.004154518
000330 b6 a2 80 bc 62 32 e8 bc 2f 2e b9 3d 98 5c b9 bd
       -0.015702587 -0.028344337 0.09042012 -0.09050864
000340 29 74 cf 3c 81 dd b8 bc 3c b0 2c be 77 09 a9 bd
       0.025323944 -0.022566559 -0.16864103 -0.082537584
000350 a4 c6 d5 3d f4 57 f8 3d 8c 4d 2c 3e fd 6e 2d bd
       0.10438278 0.12126151 0.16826457 -0.042342175
000360 d8 31 85 bd 9b 7e 1e 3d 08 f5 92 bd 4f 53 8a 3d
       -0.065036476 0.03869496 -0.07175642 0.06754171
000370 4b 0e 94 bd 0c 8d c0 3d d5 07 ef 3d 8e 26 e3 bd
       -0.07229289 0.094019026 0.11671416 -0.11091338
000380 00 c6 a8 3d ee ad fb 3c 65 36 7f 3d b6 34 ac bd
       0.082408905 0.030722585 0.062307734 -0.08408491
000390 bc 9a 9a bd 21 ed 1b 3d cc ef 00 be d0 62 7b bd
       -0.075490445 0.03806794 -0.12591475 -0.06137353
0003a0 49 fc 68 3d ad c5 15 be 4b ac a0 3d 33 2b a4 bd
       0.056881223 -0.14626189 0.07845362 -0.08016052
0003b0 8d 0c a7 3a 34 9e 65 bd 2a 0e 83 bd 75 03 39 be
       0.0012744829 -0.056059077 -0.06399186 -0.18067725
0003c0 c4 51 ca 3d 0f 45 d6 bd af 65 70 3d 90 ed 07 3e
       0.09878877 -0.10462391 0.058690723 0.13274217
0003d0 01 b3 f4 bd 60 45 f5 3d 2b 08 16 be 01 71 7c bd
       -0.11948205 0.11976123 -0.14651553 -0.061631206
0003e0 0f 3d 07 be a1 aa f5 bb f0 91 2a 3e e2 43 e8 bd
       -0.13206886 -0.007497147 0.16657233 -0.113410726
0003f0 3c ef 02 be c4 93 bd bc 2b 4e 39 3d 2c c6 88 3d
       -0.12786573 -0.02314175 0.045240562 0.06678423

lstm_layer.lstm1.weight_hh_l0 f4 [200, 50]
000000 c8 2a 90 3d d1 fd 77 3d 94 04 11 bd 19 d1 b5 bd
       0.0703941 0.060544793 -0.035404757 -0.08877773
000010 5f 3a 25 3e 42 5a a8 bd d2 65 10 3d 23 44 80 3d
       0.16135548 -0.0822034 0.035253353 0.06262996
000020 ad cf 37 3d b0 df 89 3d 8c 4a c5 bd 1d fd ea bd
       0.04487579 0.06732118 -0.09633359 -0.11474059
000030 6d e3 cb 3d d1 35 5b bd c4 3e 16 bc 32 35 ce ba
       0.099554874 -0.05351812 -0.009170238 -0.0015732406
000040 33 3f 03 be b5 22 50 bd 83 48 3a bd 6d 48 39 3c
       -0.12817077 -0.05081435 -0.04547931 0.011308772
000050 c6 a8 b0 bc 29 f9 08 be ad 31 35 3d 3e 8e 07 be
       -0.021564852 -0.13376297 0.044236828 -0.13237855
000060 05 a7 d9 bd 40 d1 d3 3d 08 d9 ab 3d d1 df d4 bd
       -0.106275596 0.10342646 0.08391005 -0.10394252
000070 d2 89 e9 3d 9b 9c a5 3c 3f a3 c1 3d ae 26 31 3c
       0.1140324 0.020216277 0.09454965 0.010812445
000080 38 9d a9 bd 95 ce f3 bd 65 05 a3 3c d5 1f 04 3e
       -0.0828194 -0.11904637 0.019900033 0.12902768
000090 99 ef 7e 3d 12 3a 2d 3d d2 cd f1 3b 8c 55 6e bd
       0.062240217 0.04229171 0.007379272 -0.058187053
0000a0 48 76 0e 3d 6d 3f c3 bd 9f c3 95 bd 64 77 7b bd
       0.03478077 -0.09533582 -0.073127024 -0.061393157
0000b0 3b 13 51 3d 57 49 0d bd 82 9e 18 3d 89 4a 62 bd
       0.05104373 -0.03449377 0.03726054 -0.055246864
0000c0 06 0e ea bc 46 62 5f 3d 01 39 0d 3e 5a 69 af 3d
       -0.02857114 0.05453708 0.13791277 0.08565016
0000d0 61 40 22 bd ad 27 a2 bd a8 e8 c3 bd 87 c5 bb 3d
       -0.039612178 -0.07917724 -0.0956586 0.09168535
0000e0 7a 0e 0d 3b e5 b5 da bc 62 85 d9 3d 22 e6 52 bb
       0.0021523521 -0.026698062 0.10621144 -0.0032180627
0000f0 76 64 7f bd 4a c7 31 bd 96 7e 02 3e 5f bb 97 bd
       -0.062351666 -0.043402947 0.12743601 -0.07408785
000100 d4 85 a2 bd 0f 57 82 bd 99 09 e4 bd a3 ef 51 bc
       -0.07935682 -0.06364261 -0.11134643 -0.0128134815
000110 0b c0 e5 3d 6d 2a b4 bd dc 8e 56 3d 6b 77 06 bd
       0.1121827 -0.087971546 0.052382335 -0.03282873
000120 8e 2b 01 3e 47 00 40 3d 0c eb 21 3d 99 a6 d6 3d
       0.12614271 0.046875264 0.0395308 0.10480995
000130 b5 bc e6 3d 74 8c 03 3e ab ae 01 bd 3c 1e 5d bd
       0.11266462 0.12846547 -0.031660717 -0.053983912
000140 70 9d 00 3e ff c1 45 3d 3a 49 d4 3d 60 71 e3 bd
       0.12560058 0.048280712 0.10365529 -0.11105609
000150 e4 42 f8 bd 27 9f 52 bd 35 83 6d 3c 8b 36 c9 3c
       -0.121221334 -0.05142131 0.014496614 0.02456214
000160 da a3 e6 bd 84 db 94 bb 70 d8 d8 3c bc 82 af 3c
       -0.11261721 -0.00454277 0.026470393 0.021424644
000170 99 88 98 3c 81 ac 01 3d b1 99 ce 3d c7 40 c1 bd
       0.018619822 0.031658653 0.10087908 -0.094361834
000180 6b 07 79 bd 33 28 a3 3d 5e 28 af 3d 87 40 04 bd
       -0.06079809 0.07966652 0.08552621 -0.0322881
000190 8d f3 0b 3d 96 b5 09 3e 86 11 8d bc eb d8 0c 3e
       0.034167815 0.13448176 -0.01722027 0.13754623
0001a0 ac 79 fb 3d 35 0a 25 bd 37 61 99 bc e1 a9 ed bd
       0.122790664 -0.040292937 -0.018723113 -0.116046675
0001b0 ce 5d ff 3b 8a a9 9b 3d 61 fd 3b bd 16 f7 29 3e
       0.007793165 0.076006964 -0.045895938 0.16598162
0001c0 fc 59 33 bd e5 c5 13 be 9c 39 8a 3d d1 4d a3 3d
       -0.043786988 -0.1443096 0.06749269 0.07973827
0001d0 c8 c5 80 3d ca 23 a5 3d ff 81 27 bd f4 cd 11 be
       0.06287724 0.08063467 -0.04089546 -0.14238721
0001e0 d6 29 6c 3d c9 fd f1 3d 5a 1d 2d bd ad 68 ba bd
       0.057657085 0.11815984 -0.04226432 -0.091019966
0001f0 65 bc f9 bd f5 82 c8 3c 70 42 fc ba 74 03 f0 bd
       -0.121941365 0.024476508 -0.0019245874 -0.11719409
000200 56 4f 8a bd fa a6 3a bd 77 24 13 bd 3b 4d e6 3d
       -0.067534134 -0.045569398 -0.035923447 0.11245199
000210 8d 34 37 be 1b 69 00 be 10 39 1d be 81 21 9e 3d
       -0.1789114 -0.12540095 -0.15353799 0.07721234
000220 5e c4 ab bd 7e 98 d0 3d f1 7f e3 bd c0 27 11 3c
       -0.083870634 0.101853356 -0.11108387 0.008859575
000230 39 95 ec bc ca a3 e5 bd d3 a4 8d bd c8 9e 20 bd
       -0.028879749 -0.11212881 -0.06916203 -0.039213926
000240 0f fb 8c 3d f1 3a 71 bd 7f ea e7 bd 7b 89 8f bd
       0.06883823 -0.0588941 -0.113240235 -0.07008644
000250 bd 52 8a 3c 08 61 1a 3e 2f 07 14 3d ce 80 1b 3d
       0.016885156 0.15076077 0.036139663 0.037964635
000260 2d f0 94 bd 2e 68 eb 3d 15 e3 2b 3d 0b ac 98 bd
       -0.072723724 0.1149448 0.04196461 -0.074546896
000270 73 87 f9 3c 14 d1 94 3c 8a 6a 8e 3c 7f 88 d3 bd
       0.030460095 0.018166102 0.017384786 -0.10328769
000280 f3 95 91 bd c7 71 f7 bd 07 c0 e2 3d b0 66 08 bd
       -0.07108679 -0.12082248 0.110717826 -0.033301055
000290 23 ca 1a bd 31 b8 e0 3d 98 0c 0e bd eb 20 10 3e
       -0.03779043 0.10972632 -0.03467998 0.14075057
0002a0 98 da f6 3d c4 91 6c bd 52 38 88 3d e7 14 80 bd
       0.12053412 -0.0577562 0.06651367 -0.06253987
0002b0 e2 8b a9 bd 60 7e 17 be 81 e3 05 be 5f 0b 61 bd
       -0.08278634 -0.14794302 -0.13075067 -0.054942485
0002c0 18 70 d1 bd 41 08 9a bc 79 c1 0a bd 23 f5 13 be
       -0.10226458 -0.018802764 -0.033875916 -0.14448981
0002d0 74 65 c8 3d 95 7e cf 3d 67 30 89 bd a5 e4 77 3d
       0.09784976 0.101315655 -0.06698685 0.060520787
0002e0 6e 90 3f 3d 70 73 ff 3d 2a e9 2f 3d 07 2e 89 3d
       0.0467686 0.1247319 0.042946972 0.06698232
0002f0 34 a8 23 3d 2a d1 a2 bd c5 83 0a 3d 38 70 19 be
       0.039955333 -0.07950051 0.03381707 -0.14984214
000300 ff f6 7c 3d 3d 6c c4 3c 05 d2 02 be 0a e7 b8 3d
       0.06175899 0.023977393 -0.12775429 0.09028442
000310 ca 1a a5 3d d4 c2 df bd 3d ba 98 bd fe a8 c5 3c
       0.0806175 -0.109258324 -0.07457397 0.024128433
000320 43 3b f8 3b 59 52 4e bd f9 ae e8 bd 94 c9 da bd
       0.007575424 -0.0503715 -0.113614984 -0.10682979
000330 7b 6a 0c be f1 c6 a3 bb dc 05 b8 bd ae b5 b9 bd
       -0.13712494 -0.004998081 -0.089854926 -0.09067856
000340 cf ab 8a bd 0b 05 5c bd 01 df dd bd 57 38 5f 3d
       -0.06771051 -0.053715747 -0.1083355 0.05449709
000350 19 5d 63 3d 43 52 18 3c c4 ae b0 bc df 2f 86 3d
       0.055508707 0.0092969565 -0.02156771 0.065520994
000360 fb 61 0c 3e 43 68 ad 3d c8 a2 ee 3d 69 a8 72 bd
       0.13709252 0.08467152 0.11652142 -0.05924264
000370 33 dc b3 bd fa 56 25 be 31 31 2b 3e 72 0e 07 3e
       -0.08782234 -0.1614646 0.16717984 0.13189104
000380 75 b7 dc 3d 0b a7 35 3d 8e a3 21 3e a1 20 2c 3c
       0.10777179 0.044348758 0.15785047 0.010505826
000390 05 d6 f7 3d 41 91 d0 bd 84 6b 70 bd 01 1c 0d 3d
       0.12101368 -0.10183955 -0.058696285 0.034450535
0003a0 54 8c 2e 3d 67 ef 7d bd 17 21 6a 3d 37 e7 b1 bd
       0.042614296 -0.06199589 0.057160463 -0.08686679
0003b0 ad 65 37 3b ad 0e f2 3d 41 49 df bd 64 2d c5 3d
       0.0027984187 0.118192054 -0.10902644 0.09627798
0003c0 47 1d 84 3d 31 c0 75 3d e0 a6 5d 3c 90 63 76 3d
       0.06450897 0.05999774 0.013528556 0.060153544
0003d0 d3 f7 1a 3e 87 e7 34 3d f5 77 a9 3c df 49 f2 3d
       0.151336 0.044166114 0.020687083 0.11830496
0003e0 d9 32 87 bd 1e c0 cb 3d 5a 9c f5 3c a6 b7 ce bd
       -0.06601495 0.09948753 0.02998178 -0.10093622
0003f0 67 6b ab 3d 32 8c a2 3d 08 d8 c4 bd af cf 3a 3d
       0.08370095 0.079368964 -0.09611517 0.04560822

lstm_layer.lstm1.bias_ih_l0 f4 [200]
000000 42 90 04 3e a9 2b 4a bd ef b3 a9 3d b7 f7 28 3c
       0.12945655 -0.049358044 0.08286273 0.010312966
000010 b4 88 96 bd b7 45 82 3d a0 6f ef bd f2 85 e6 bc
       -0.07350293 0.06360953 -0.11691213 -0.028140042
000020 f7 55 f5 3d 71 2b db bd 12 8e 06 3e 69 fa f2 ba
       0.11979287 -0.10701645 0.13140133 -0.0018537763
000030 26 49 8c bd 64 ea 44 3d 3c ed e6 bc 48 94 72 3d
       -0.068498895 0.048075095 -0.028189294 0.059223443
000040 aa 04 b8 bd 3f fb d0 bc b7 4e 85 3c 45 bc dc 3d
       -0.089852646 -0.025510428 0.016272886 0.10778097
000050 6e 4a 08 3e b6 b3 dd bc 30 88 ab bd 23 02 c2 bc
       0.13309643 -0.027063232 -0.08375585 -0.02368266
000060 e7 77 d4 3b 40 0f a3 bd 0f 64 11 3d 17 d6 cf bb
       0.00648402 -0.07961893 0.035495814 -0.00634266
000070 ff 1e 61 3a 72 fb fe 3d f9 8c 1b 3e ae f8 64 bd
       0.00085876876 0.12450303 0.15190496 -0.055901222
000080 57 30 d4 3d 95 3a 9e 3d 3f fa 42 3c 0b a3 7d bd
       0.103607826 0.077260174 0.011900484 -0.061923068
000090 53 ad 0c 3e 62 0d f4 bd a1 ab 10 3b 32 16 26 3d
       0.13737993 -0.11916615 0.0022074955 0.04054851
0000a0 a3 0c ad bd 85 e2 0f 3e 3c 0d b9 bd 8c 15 2d bd
       -0.08449676 0.14051254 -0.090357274 -0.042256877
0000b0 40 a3 d7 3c 4a 3d eb bd f5 9e ae 3d c3 21 d5 3d
       0.02632296 -0.11486299 0.085264124 0.1040683
0000c0 27 a3 b9 bc df 1f 27 3e 3f dc 86 3d 2c f7 0a 3c
       -0.022660805 0.16320752 0.06584977 0.008481782
0000d0 02 1b ec 3d a6 62 13 3e 90 5a 82 bd b9 03 f1 bd
       0.11528589 0.143931 -0.0636493 -0.11768288
0000e0 bc cf fa 3d eb d1 cd bd 9a df fe 3d 4c c5 bd bc
       0.122466534 -0.10049804 0.12444992 -0.023165368
0000f0 e8 9d f9 3d 21 39 e4 3d 53 d2 08 3d 78 22 16 bd
       0.12188321 0.11143709 0.033403706 -0.036653966
000100 d2 1d a7 3c 78 00 a7 bd 75 53 84 bc d7 3b 5b 3d
       0.020399962 -0.08154386 -0.016153077 0.053523865
000110 53 3c 3d 3d 30 c5 26 bc e5 1a ca 3d ec 48 ee 3b
       0.046200108 -0.010178849 0.09868411 0.0072718766
000120 44 c2 2e bc 14 79 9a bd 57 be b4 bd d7 c2 b8 3d
       -0.010666434 -0.07542625 -0.08825367 0.09021538
000130 f6 01 13 3d d4 4b 92 bd 79 da ee 3d 3a e4 a1 3d
       0.035890542 -0.07143369 0.11662764 0.07904859
000140 a2 1d 98 3d 76 fa d8 3d 4b fe c8 bd e9 c9 cd bc
       0.07427527 0.10594647 -0.098141275 -0.025120692
000150 18 b5 83 3d 1d d7 aa bd f7 a7 67 3d b4 4b fc 3c
       0.06431025 -0.08341811 0.056556668 0.030797817
000160 bb 67 28 3e 63 bd 7f bd 2e 97 0e 3e 83 30 4b bd
       0.1644582 -0.062436473 0.13924858 -0.04960681
000170 51 17 d7 bd 0c 00 2e 3e 45 a2 17 3e e7 73 bc bd
       -0.10502494 0.16992205 0.14807995 -0.09201794
000180 b5 98 dd bd 83 60 29 3d 84 78 bb 3b bc af 8a bd
       -0.10820142 0.041351806 0.0057211537 -0.067718
000190 0e 28 cd bd 70 f0 b5 bd 6a e5 09 bd 85 13 ea 3c
       -0.100174055 -0.088837504 -0.033666052 0.02857376
0001a0 fc a2 1c 3d bd 72 38 bd 26 38 18 3e da 19 e2 3c
       0.03824137 -0.045031298 0.14865169 0.027600218
0001b0 6e 44 0f 3e 00 58 ee 3d 09 1e b9 bd 52 93 f6 3d
       0.13990948 0.116378784 -0.09038932 0.12039818
0001c0 19 58 90 3c b6 b8 83 bd 2d cd 31 3d 60 29 d0 bc
       0.017620133 -0.06431715 0.04340856 -0.025410354
0001d0 29 d0 b6 bd f1 49 b2 3c 88 18 bf 3d c5 99 09 3c
       -0.08926422 0.021763774 0.09330851 0.008398478
0001e0 63 9c d9 3d f8 35 a0 3d 3d 08 9b bb 5a 6e 7d 3d
       0.106255315 0.07822794 -0.0047312067 0.061872818
0001f0 02 24 b8 3d 98 a7 14 bd 15 6c 9a 3d 0b 61 58 bd
       0.08991243 -0.036292642 0.07540146 -0.052826922
000200 e1 90 95 3d 6e 2e fb 3d f1 4c aa 3d cb 2a 94 bd
       0.07303024 0.12264715 0.08315457 -0.072347246
000210 3c 9a 0c be 49 5b 03 be e4 2e f1 bd a3 c2 aa 3c
       -0.1373071 -0.12827791 -0.11776522 0.020844763
000220 0b 53 1b 3c 7b 15 ad 3d a3 c0 27 be 39 5d 06 3e
       0.009480248 0.08451363 -0.16382079 0.13121499
000230 c6 a1 12 3e 62 de c1 3d f5 65 12 bd 55 82 ce bc
       0.14319524 0.09466244 -0.035741765 -0.025208632
000240 8d 77 05 3d d4 e9 de bc 86 0f cf bd bf f3 01 3d
       0.032584716 -0.027211107 -0.10110383 0.031726595
000250 0a 40 e2 3d 97 04 db 3c c6 d9 bb bd 4a fe c8 3d
       0.11047371 0.026735587 -0.09172396 0.09814127
000260 7b 18 08 3e 5a 59 fa bd 96 ea db bd bc b2 40 bc
       0.13290589 -0.12224074 -0.10738103 -0.011761364
000270 23 c0 ac 3d df 4b 7a 3d 03 b9 51 3d 81 53 e9 bd
       0.08435085 0.061107513 0.05120183 -0.1139288
000280 38 9b cd 3b e2 4c 8e bc 92 28 b5 bd 37 ce 51 bd
       0.006274607 -0.017370645 -0.08845629 -0.051222052
000290 9f 12 c5 3c 04 6b 57 bd ab 0c 20 bd 58 75 42 bd
       0.02405673 -0.052592292 -0.03907458 -0.04747519
0002a0 b6 c7 8f bd f3 41 95 bd ff 6a fb bc 19 50 d8 bd
       -0.07020514 -0.072879694 -0.030690668 -0.105621524
0002b0 cf 78 a6 bd 0a ee 78 bd 8d 50 7d 3d a0 0d 7e bd
       -0.08128511 -0.060773887 0.061844397 -0.062024713
0002c0 bb 24 96 bd 19 9a 41 3d e4 cc 3d 3e 34 b8 1f 3d
       -0.073312245 0.0472661 0.18535191 0.03899403
0002d0 56 ff 03 3e b0 fe 32 3b 1e fc b9 bd 4f db a4 3d
       0.12890372 0.002731245 -0.09081291 0.08049642
0002e0 91 34 4c bd 9e ec 6a bb cd 50 55 3d ae 70 85 3d
       -0.04985482 -0.0035846601 0.05207901 0.065156326
0002f0 66 6b 8f 3d bb f3 7f 3d b5 bd c6 bd ca 31 eb 3d
       0.070029065 0.0624883 -0.097041525 0.11484106
000300 f2 e5 07 3e f7 ab fd 3d 68 9e 48 bd ca a9 b1 bd
       0.13271311 0.12386315 -0.048979193 -0.08674963
000310 33 aa 3e bd 2b 6b 2a bd 36 cf d2 bc c2 80 4a 3d
       -0.046549033 -0.04160611 -0.025733571 0.0494392

lstm_layer.lstm1.bias_hh_l0 f4 [200]
000000 c7 e8 97 3d b0 15 d2 bd 4d e6 81 3d 66 38 16 3e
       0.07417446 -0.10258043 0.063427545 0.14669952
000010 e1 8a a7 3d f5 61 bd 3c 8e fa fc 3d 99 23 3f bd
       0.08180786 0.023117999 0.12352477 -0.046664808
000020 f1 0e 64 bb 77 9a dd bd b9 54 b7 3d 4c 6a 90 3d
       -0.0034798945 -0.108204775 0.089517064 0.070515245
000030 3e 1d 5d 3d 1c 2e d0 3d 29 49 4e bd 8b 8d e3 3d
       0.053982966 0.10165045 -0.05036274 0.111109816
000040 c3 7b 89 3c 13 b2 3e 3c 06 da 80 bd 85 8e 41 bc
       0.016782647 0.011639136 -0.06291585 -0.011813764
000050 4e 09 4a bc e4 8f 03 3c 60 b5 e1 3c 74 1a 3e 3d
       -0.01233132 0.008029912 0.027552307 0.046411946
000060 2e c8 f1 3d a6 1d 26 bd b3 6c fe bd e2 6a c8 3d
       0.11805759 -0.04055562 -0.124230765 0.09786011
000070 25 06 9b bd 5e d6 2c 3e 9b c8 c3 bd 4b 58 90 3d
       -0.07569531 0.1687865 -0.09559747 0.070480905
000080 24 fe 11 3e 49 e1 91 bd 0d 28 35 3d 5c ee 80 bc
       0.14257103 -0.07123048 0.04422765 -0.015738659
000090 65 96 d5 3d f0 45 db bd 85 13 fd 3d 57 c2 db bd
       0.10429076 -0.10706699 0.12357239 -0.10730427
0000a0 da 7a 00 3e 7b 00 e3 3d 0b a4 20 bc 28 03 14 3d
       0.12546864 0.11084076 -0.009804736 0.036135823
0000b0 92 e0 b0 bd 19 32 7c bc 07 c9 7c 3d c6 80 37 3e
       -0.086365834 -0.015392804 0.061715152 0.17920217
0000c0 4c da 02 3e 06 2a dd 3d 07 be bd 3d 26 01 af 3d
       0.12778586 0.10799031 0.092647605 0.08545141
0000d0 36 50 a7 bd 4d 82 9a bb 04 68 73 3d c3 a3 06 3e
       -0.08169596 -0.00471524 0.05942537 0.13148408
0000e0 e6 76 9a 3d c3 d8 0e 3e 14 db 0c 3e 93 bf 05 3e
       0.07542209 0.13949876 0.13755447 0.13061361
0000f0 14 d4 16 3e b7 84 e2 3d 6b 5c 56 3d b3 c1 c3 bd
       0.14729339 0.110604696 0.05233423 -0.095584296
000100 74 6b d0 3c 4a 63 80 3d 40 54 26 3d 1f 85 8b bd
       0.025441863 0.06268938 0.04060769 -0.068125
000110 6c ef 90 3d 46 6d a3 3d 2f 85 f0 3d 28 5e e2 3d
       0.07076916 0.07979827 0.11744153 0.11053115
000120 d9 d5 24 3e 20 9f 60 3c 27 e2 26 3e 31 18 3c 3d
       0.16097201 0.013709813 0.16297208 0.04592151
000130 41 77 db 3d d5 c7 1b bd 3e 05 22 3e 8e 7d 9e bd
       0.10716105 -0.03803237 0.15822312 -0.077387914
000140 69 b5 1c 3e 02 db 03 3e 61 fa 58 3d 57 9b ec bc
       0.15303577 0.12876514 0.052973155 -0.028882666
000150 05 ff b7 3b 0a f6 8a bd 40 6e d2 bd d3 a3 58 3c
       0.0056151175 -0.067852095 -0.10274935 0.0132226525
000160 3d 52 26 3e b8 13 81 3d af 28 a5 bc 4d 3a 22 3e
       0.16242309 0.06302589 -0.020161001 0.15842552
000170 9f 49 0a 3c f5 48 a4 bd 65 27 d4 3c 2a ff 7c bc
       0.008440404 -0.08021728 0.025897691 -0.015441695
000180 24 ec 72 3c 28 28 ff 3c 31 3a 63 bd f9 60 0a 3c
       0.014826808 0.031147078 -0.055475418 0.008445972
000190 d9 8e 1b 3d ea fc 0b 3e 4a 3b 01 be c3 c7 0f 3e
       0.037978027 0.13670698 -0.12620273 0.14041047
0001a0 06 85 ca 3d b3 a1 05 bd 0d 65 1e 3a 39 f3 b6 bd
       0.098886535 -0.03262491 0.00060422794 -0.0893311
0001b0 67 58 b4 bd 50 c3 e4 3d 95 6a 18 3d 7d 03 54 3c
       -0.08805924 0.111700654 0.03721102 0.012940285
0001c0 a4 88 21 3c 1e 1a 82 bd 56 d6 c0 3d 2d 6e f1 bd
       0.009859238 -0.06352638 0.09415881 -0.117885925
0001d0 c4 fe 0a be ff 39 b5 3d b8 d1 11 3d 45 9d e3 bc
       -0.13573748 0.088489525 0.035600394 -0.027784953
0001e0 7f 1e b7 3d 9e 29 ad bd be ff 09 3e 9c 18 bb bd
       0.089413635 -0.084552035 0.13476464 -0.09135553
0001f0 93 0b 13 3d 89 72 da bc 2d 2e af 3b 0b 5e 88 3d
       0.03589971 -0.026665943 0.0053460808 0.06658562
000200 96 25 36 3b 92 3a c8 bd be 4d 38 bd 2f 11 a1 bd
       0.00277934 -0.097767964 -0.044996016 -0.07864606
000210 a6 58 63 bd 91 f9 92 bd 8e 03 3c bc b4 11 47 3d
       -0.055504464 -0.07176507 -0.011475457 0.048600867
000220 cb ae d0 bd 18 26 70 3d ff 7e 17 be 90 bc c2 bc
       -0.10189589 0.05863008 -0.14794539 -0.023771554
000230 72 cb c7 bd c0 75 9f bd 7b 4d b7 bd 18 29 9b 3d
       -0.09755601 -0.07786131 -0.08950325 0.075761974
000240 ad ad 8b bd 5b f7 76 bd b2 de 63 bd 9d 81 8b 3d
       -0.068202354 -0.06029449 -0.0556323 0.06811831
000250 ca 2e d2 3d 7f 0b bb bc a0 19 eb bc ac bb 0a bc
       0.102628306 -0.02283263 -0.028698742 -0.008467596
000260 29 16 5c bd 84 fe 91 3d ba 17 8b 3d bf 6b a0 3d
       -0.05373207 0.07128623 0.06791635 0.07833051
000270 7d 58 a8 3d e1 60 07 bd f7 47 e4 bd e3 59 1a 3d
       0.08220003 -0.033051375 -0.11146539 0.03768338
000280 6c fb 14 3d 8d 27 8c bd e6 78 8b bd 01 89 82 3d
       0.036372587 -0.06843481 -0.06810169 0.06373788
000290 81 c0 b6 3c 4a ea 4d bd f4 fa 12 3e 11 65 b9 bd
       0.02230859 -0.050272264 0.14353544 -0.0905248
0002a0 82 15 21 3d 6b d7 29 3d ca 71 14 3e e4 f8 00 3e
       0.039327152 0.041465204 0.14496532 0.12594944
0002b0 06 54 09 bd 68 a5 08 3d 4f 96 6a bc 00 be e8 3d
       -0.033527397 0.03336087 -0.014318063 0.113643646
0002c0 ec 2b d9 3c 8e b5 cf 3a 48 b5 84 bd bf e6 35 3c
       0.026510201 0.0015846954 -0.06479889 0.011102377
0002d0 4a 62 dd bc da 15 fd 3d 20 b8 d0 bc fd a1 a0 3d
       -0.027024407 0.123576835 -0.025478423 0.07843397
0002e0 4c 0a fd bc 1a e0 fa ba 0a d5 e1 3d 12 5c 11 bd
       -0.030888699 -0.0019140274 0.11026962 -0.035488196
0002f0 08 a0 5c 3d 75 1e 82 3d 93 31 bb bd 86 17 a3 bd
       0.053863555 0.063534655 -0.09140315 -0.07963471
000300 e0 61 fb 3d 35 95 b5 bd b4 c6 91 3d 8e f5 47 bd
       0.122745275 -0.088663496 0.07117978 -0.048818164
000310 e3 ec 08 bd dd 82 be bc 59 07 da 3d ca 28 28 3e
       -0.033429038 -0.02325576 0.10645933 0.1642181

lstm_layer.lstm2.weight_ih_l0 f4 [200, 50]
000000 60 b1 97 3d f5 58 79 3d be e1 f9 bd 3a 63 00 be
       0.074068785 0.06087585 -0.1220126 -0.12537852
000010 a7 e8 c9 3c 9b 68 86 bc ce a0 46 bb 06 c2 c3 bd
       0.02464707 -0.016407302 -0.003030825 -0.095584914
000020 73 ad 97 bd 21 f5 2c 3d 41 cd c6 bd 2a d6 b9 3d
       -0.0740613 0.04222596 -0.09707118 0.09074052
000030 03 d8 bb 3d 22 bc 1e bc d6 c8 6c bd 1c 35 3f bb
       0.0917206 -0.009688409 -0.05780872 -0.0029175943
000040 da 7b eb 3c 24 33 2a 3d 4e 45 cd bd 84 b7 c0 bd
       0.02874558 0.041552678 -0.100229844 -0.09410003
000050 bc 06 c2 bd 45 69 b6 bd ec 83 e9 bd ff 35 a7 bc
       -0.09473941 -0.08906797 -0.11402115 -0.02041149
000060 e8 0b b5 3d 7a d8 4a bb b9 81 14 be 09 38 16 3d
       0.088401616 -0.0030951784 -0.1450261 0.036674533
000070 95 a9 b1 3d 58 c8 1b 3e 72 1b 0b 3e a6 9c c2 bc
       0.08674923 0.15213144 0.13584688 -0.023756336
000080 31 38 08 3d 3e 7e 05 3e ee 27 96 3c c9 8a 93 3d
       0.033256713 0.13036439 0.018329587 0.072042055
000090 85 d9 8e 3d 96 0c 01 bd 07 34 0e 3d 25 96 10 3e
       0.06975082 -0.031506144 0.034717586 0.14119776
0000a0 67 ed 9b bb 63 56 e9 bd 40 f1 47 be e3 cf bd 3d
       -0.004758525 -0.1139343 -0.19525623 0.09268167
0000b0 5b 60 42 3c 3b 17 b6 3d 49 b6 ac 3c 12 81 90 bd
       0.011863793 0.088911496 0.021083014 -0.07055868
0000c0 34 11 74 3c 90 0c 53 bc fd d1 c8 3c dc 0d 15 3e
       0.01489668 -0.012881413 0.024514193 0.14556068
0000d0 ad 06 0a be cd 8a c8 3d d6 a7 a9 3d ae 59 26 be
       -0.13479109 0.09792099 0.08283965 -0.16245148
0000e0 5a 6d 03 3e e0 21 74 bd 5a c8 b0 ba 9b 75 57 bd
       0.12834683 -0.05960262 -0.0013487444 -0.05260239
0000f0 d9 58 39 bd bd 28 c7 3d 24 66 54 3d 44 8b 52 bd
       -0.045250747 0.09724567 0.05185522 -0.051402345
000100 2a 76 83 bd 02 c3 23 be bd 97 49 3c 3a 60 85 3d
       -0.064190224 -0.15992358 0.012304244 0.065124944
000110 fb f6 ea 3d 49 74 00 bc a3 fa 97 bc f9 40 09 3e
       0.11472889 -0.007840225 -0.01855213 0.13403691
000120 0c b9 a5 3d 6e 7c ab 3b bb 87 a0 3d d4 f8 97 3c
       0.080919355 0.005233339 0.078383885 0.018551268
000130 fb 75 a5 3d 98 11 20 3d 66 d1 a3 3c a8 e1 49 3d
       0.080791436 0.03907928 0.01999731 0.04928747
000140 f4 59 77 bd 4c e0 d7 b9 d3 7d c4 bd d1 d4 a4 3d
       -0.06038852 -0.0004117511 -0.095943116 0.08048404
000150 e4 55 bf 3d 68 ac 10 bd c5 c5 5d 3c 29 55 28 3e
       0.09342554 -0.03532067 0.013535921 0.16438736
000160 a7 ba db bd 62 7e 9e bd 8e 8f d9 bd d0 d5 83 bc
       -0.107289605 -0.07738949 -0.10623084 -0.016093165
000170 09 da c3 bd bc 31 84 3d 41 c8 b7 3d ce 71 f2 3c
       -0.09563071 0.064547986 0.08973742 0.029595282
000180 a7 f3 83 3b 75 0f 7d 3d f6 3b 88 bd e5 f1 92 3d
       0.0040268484 0.06178232 -0.06652062 0.07175044
000190 39 11 80 bd 2b fa 85 3d 8d 82 f3 bd cc 58 02 3e
       -0.06253285 0.065418564 -0.11890135 0.12729186
0001a0 8e 60 fb bd 97 e2 a5 bc f2 b7 84 bc f5 c0 06 3d
       -0.12274276 -0.020249648 -0.016200993 0.032898862
0001b0 2c 26 fc bd 03 c4 93 bd e6 44 b3 3d fc a5 c8 bd
       -0.12311968 -0.07215121 0.08753376 -0.09797284
0001c0 b4 83 ab bb af 86 0a 3e 69 2f 01 be a3 59 80 3d
       -0.005234206 0.1352794 -0.12615742 0.06267097
0001d0 0e e3 ad 3d d9 04 7f 3d 40 39 a0 bd 33 42 e8 bd
       0.08490573 0.062260482 -0.078234196 -0.113407515
0001e0 bc e0 9f 3d ab 23 e4 3b 87 26 a5 bd a1 d3 e3 3c
       0.078065366 0.0069622598 -0.08063989 0.027810873
0001f0 6b 0e ec bd d2 56 d9 bd f0 e3 cf bd db 9b 12 be
       -0.115261875 -0.10612263 -0.101508975 -0.14317267
000200 02 41 35 3d a0 5b ea bd fa 6c c5 3b 34 89 d3 3c
       0.04425145 -0.11443257 0.006024954 0.02582226
000210 d4 99 b5 3c 42 65 c5 3d cf c7 65 3c e9 29 b8 3d
       0.022168078 0.09638454 0.014024689 0.08992369
000220 77 22 4d 3d bb 3b 0e 3e e4 e0 d0 3d 71 f2 cf bd
       0.050081696 0.13889973 0.101991445 -0.10153664
000230 44 41 06 3e 0c 64 2d be e5 58 90 3d c4 55 a1 bd
       0.13110834 -0.16932696 0.07048205 -0.078776866
000240 77 c1 cd bc 1f 71 85 bd 33 a7 a4 bc 00 85 a5 bd
       -0.025116665 -0.06515717 -0.020099258 -0.08082008
000250 b5 22 88 3b 37 4a 7a bd e9 6c 2e bd e7 9a 05 3e
       0.004154528 -0.061105933 -0.042584334 0.13047372
000260 a0 10 8c bd a6 aa f5 3d 08 62 9e 3c 2d 30 f8 bd
       -0.068391085 0.11995439 0.019333854 -0.12118564
000270 f6 9e 9d 3d d8 66 46 3c c7 4c 8e 3b 24 60 0f 3d
       0.07696335 0.012109481 0.0043426487 0.035003796
000280 c0 47 c6 3d e6 62 16 ba fd d7 8a bd b3 e8 0a be
       0.09681654 -0.0005736783 -0.06779478 -0.1356533
000290 5b 72 d1 bc e4 6a 9d bd 2b c8 ed bd 30 50 24 bd
       -0.025567224 -0.076864034 -0.11610445 -0.040115535
0002a0 6a 90 e0 3c 78 1d b6 bd 96 11 25 3e 92 d1 e2 bd
       0.027412612 -0.088923395 0.1611999 -0.110751286
0002b0 ef 6d d3 3d 3c e7 8e bd a0 9a ca 3d 14 a1 e9 3d
       0.103237025 -0.06977698 0.09892774 0.11407676
0002c0 e7 8a a6 bd 68 32 d0 bc 58 7c 9f bc 5d 2d f2 bd
       -0.08131962 -0.02541466 -0.019468471 -0.118250586
0002d0 6a c2 c7 bd 6e 58 04 3d 1c 07 ec bd 3c 4b ad 3d
       -0.097538784 0.032310896 -0.115247935 0.084616154
0002e0 c8 de 09 3d 61 c8 22 3d 03 a4 1a 3d c2 97 ca bc
       0.033659726 0.039741877 0.03775407 -0.024730567
0002f0 e1 b9 2e bc b5 a3 90 ba 6c a8 4a bc c7 39 0a bd
       -0.010664434 -0.0011035117 -0.0123692565 -0.033746507
000300 fb 6a 0e be 21 33 ea bd 00 6d cd bd 0a 4a 1b 3d
       -0.13907997 -0.11435533 -0.10030556 0.037912406
000310 68 c2 11 be 65 25 91 3d 1e e7 44 bb 0d a6 4c 3c
       -0.14234316 0.070872106 -0.0030044983 0.0124907615
000320 33 26 68 3b 06 9c 7f 3d bf 0e 26 3c 1a 14 87 3d
       0.003542316 0.062404655 0.010135352 0.06595631
000330 85 a1 ab 3d a3 eb fa bd f5 91 02 be aa 32 a7 3d
       0.08380417 -0.122519754 -0.1275099 0.0816396
000340 5f 85 0b bd 85 cf 03 3e c0 58 bf bc 72 18 12 bd
       -0.03406274 0.12872131 -0.023357749 -0.035667844
000350 e3 32 a5 3c d8 93 07 be fd 0b 00 bd 68 77 cc 3d
       0.020165866 -0.13239992 -0.031261433 0.099837124
000360 10 38 dc bd c9 c7 a9 bd a0 fa ec bd 34 e8 83 bd
       -0.107528806 -0.08290059 -0.115712404 -0.064407736
000370 59 84 ee 3d 20 a0 a2 bd 8a 3c 92 bd 5e 5a e8 bd
       0.11646337 -0.07940698 -0.07140453 -0.11345361
000380 d2 84 cc 3d 65 99 55 bd 29 05 03 be a0 02 96 bd
       0.09986271 -0.05214824 -0.12794937 -0.073247194
000390 bb 35 c3 bc c0 d5 88 bd 69 93 13 3e 3c 70 04 be
       -0.023829332 -0.066813946 0.14411701 -0.12933439
0003a0 1c b9 00 be 92 cc a4 3d 27 63 0c 3e 4e ba 87 3d
       -0.12570614 0.08046831 0.13709699 0.06627332
0003b0 0e b6 25 bc 3d 0e 54 bd f7 bd e4 3d c8 8c 5d bd
       -0.010114206 -0.05177139 0.111690454 -0.054089338
0003c0 b0 e8 be bd ef a3 b3 bb cd e6 19 bd 24 82 78 3d
       -0.09321725 -0.005482189 -0.037573624 0.060670987
0003d0 c8 8c 04 be 23 01 10 bd b3 4a 0e be 19 50 69 3d
       -0.12944329 -0.035157334 -0.13895683 0.056961153
0003e0 7d b5 08 be e9 9c 12 3e 67 cd 3f 3c c6 5f bf bb
       -0.13350482 0.14317669 0.011706687 -0.0058402745
0003f0 fa 05 f8 3a cc eb af 3d 27 6b c4 bd ae 89 d3 3d
       0.001892268 0.085898966 -0.0959075 0.10328995

lstm_layer.lstm2.weight_hh_l0 f4 [200, 50]
000000 19 95 f5 3d 1d e2 ad 3d ab 45 b1 bd 80 17 c9 bd
       0.11991329 0.08490393 -0.08655866 -0.098189354
000010 4b 37 18 bd ab 0a ec 3a 15 65 b8 3d c3 48 51 bd
       -0.037162106 0.001800855 0.09003655 -0.05109478
000020 b3 ca 02 be 76 d3 ac bd 6a b2 3a 3d a4 01 c0 bc
       -0.12772636 -0.084387705 0.045580305 -0.023438282
000030 6e 8c 0d 3d 52 fe 01 be b8 0c 98 3d 18 46 ff bd
       0.034557752 -0.12694672 0.07424301 -0.12464541
000040 5b eb 84 bd 50 f8 f1 bd 06 a6 0a bc bc da f8 bc
       -0.06490203 -0.1181494 -0.008462435 -0.030377738
000050 8c 1e 6d 3d 3c 17 c4 3d 3e a5 05 be 0d 2d 37 3b
       0.05789046 0.09574744 -0.13051316 0.0027950436
000060 ba ca 78 bd 56 8a b6 3d 05 46 89 3d 68 76 8d 3d
       -0.06074021 0.08913104 0.06702808 0.0690735
000070 b7 34 2b 3d 88 2a 80 bd f6 87 01 3e 06 3c dd 3d
       0.04179832 -0.06258112 0.12649521 0.10802464
000080 97 44 cb bd 68 01 64 3d c5 01 a2 3c 75 a0 47 bd
       -0.09925192 0.055665404 0.019776234 -0.048737008
000090 ce db 8b bd fd 2e a5 bd f8 6c 98 bc 75 4e fc bc
       -0.06829034 -0.08065603 -0.018606648 -0.03079913
0000a0 e0 19 66 3c 48 cc 1f 3d b3 20 38 bd ca 1c d3 bd
       0.014044255 0.039013177 -0.04495306 -0.103082255
0000b0 c4 8a 58 3d 4d d6 e0 ba e1 6f dd 3d da 81 f7 ba
       0.052866712 -0.001715371 0.10812355 -0.0018883303
0000c0 88 6a b8 bc e5 5f 82 bb c1 31 d1 bd 32 5b 0e 3d
       -0.022511736 -0.0039787167 -0.10214568 0.03475494
0000d0 d9 27 77 bb 65 9a 6c 3d 5f 1c 8b bc dc 21 86 bd
       -0.003771296 0.05776443 -0.016981302 -0.06549427
0000e0 0d 54 c5 3c 8b 15 1f 3e 76 24 4a bc 83 f2 dd bd
       0.02408793 0.15535562 -0.0123377945 -0.10837271
0000f0 9b 7f 0b 3e 0b e2 10 3e 8d a4 72 3d 24 ef 0b 3e
       0.13622896 0.14148729 0.05923896 0.13665444
000100 5f 4e 08 be 36 5f 1d be 4a 56 b2 bd 13 c6 de bd
       -0.13311146 -0.15368351 -0.087078646 -0.108776234
000110 a3 a5 a3 bd 06 ba b5 bc 6e b6 4b bd 10 3e a7 bd
       -0.07990577 -0.02218343 -0.049734525 -0.08166134
000120 96 4e c5 3d 03 85 69 bc fd 46 ae bd ac be 85 3d
       0.0963413 -0.014252904 -0.08509634 0.065305084
000130 88 83 d1 ba be 36 77 3d 40 fc 5a 3d f4 42 56 bd
       -0.0015984634 0.06035494 0.05346322 -0.052309945
000140 f6 9e 36 3d 2c ed bf 3d d2 86 1d be e7 40 b1 bc
       0.04458519 0.09371409 -0.15383461 -0.021637393
000150 1d 38 e8 3d 4f 80 39 3d ff bd 21 bd ab 60 29 be
       0.11338828 0.04528838 -0.039487835 -0.16540782
000160 eb 8a 11 bd 40 22 20 3c 61 62 3a be b9 3e 27 bd
       -0.035532873 0.009773791 -0.18201591 -0.0408313
000170 7e 26 a3 bd 51 56 cb bd be 5a a0 3d 5d 1d 01 3e
       -0.07966326 -0.09928573 0.07829808 0.12608857
000180 09 e8 0a be 9c 02 7b 3d 34 5e 7c 3d 3e 59 17 be
       -0.13565077 0.061281785 0.061613277 -0.14780137
000190 09 e3 c7 bc bc 7b 1c 3e df c8 2d 3e 05 4a 3f bb
       -0.024400251 0.15281576 0.16971157 -0.0029188406
0001a0 5d 32 75 bd 43 bb 06 bd 63 b7 04 be b8 3d 97 bd
       -0.059862483 -0.03289343 -0.12960581 -0.07384819
0001b0 d2 a2 b8 3c 94 1e 9d bd d6 3a cd 3d a8 aa cb bd
       0.022538576 -0.07671848 0.10020988 -0.099446595
0001c0 21 a4 34 3d 60 b3 5b 3d a0 5f f6 3d 03 a1 e0 bd
       0.044101838 0.053637862 0.12029958 -0.109682105
0001d0 a5 99 64 3c 07 db 76 bd cf 8b 92 bd 8f 26 0d 3d
       0.013952647 -0.060267475 -0.071555726 0.0344606
0001e0 bf 39 ee 3d 2f d8 e1 bd 08 67 fc 3d c6 3a 86 3d
       0.11632108 -0.11027562 0.12324339 0.06554179
0001f0 80 db 89 bc 1a aa d8 3c 30 8c b9 3d e7 20 25 3d
       -0.016828299 0.026448298 0.09059942 0.04031458
000200 73 76 9c bc cf 34 62 bd eb 8f a6 3d 21 be a1 3d
       -0.01909945 -0.055226143 0.08132919 0.07897592
000210 9a 3b 84 bd 44 00 af bd 34 24 2d 3e 6e 18 8b 3d
       -0.064566806 -0.085449725 0.16908342 0.06791769
000220 d8 7f d4 3d aa b9 94 bd e6 90 4a bc 42 62 70 bd
       0.10375947 -0.07261975 -0.012363648 -0.058687456
000230 c9 61 c8 bd b7 13 2a 3d ac 90 8e 3d 33 86 da 3d
       -0.09784276 0.041522708 0.06961188 0.10670128
000240 7f d4 8e 3d 35 c8 95 bd c3 36 d0 3b 30 1d fe 3d
       0.06974124 -0.07313577 0.0063541844 0.12407911
000250 fd 0a 87 3d 2c 39 db 3d 82 89 46 3d 62 bf cc bb
       0.06593893 0.10704264 0.04847098 -0.0062484005
000260 91 06 e9 3d 50 fb 97 3d 6c 84 43 3d 52 b1 34 be
       0.113782056 0.07420981 0.04773371 -0.17645767
000270 34 ad 07 3d 3c e3 ea 3c f6 63 0b 3d 15 98 d1 bc
       0.033124164 0.028672807 0.034030877 -0.025585214
000280 e7 d4 29 3e 81 51 19 3d 01 ce 01 3d a6 33 b2 3d
       0.16585122 0.037431244 0.0316906 0.087012574
000290 1b 7f d7 bc 0c 14 97 3a c9 0b 1e be 1e dc 2d be
       -0.026305726 0.001152636 -0.15434183 -0.169785
0002a0 13 df ce bd 84 49 df 3d e6 9e a6 3d 95 60 94 3d
       -0.10101142 0.10902694 0.08135776 0.07244984
0002b0 93 7f 6a bd f1 cc 08 3d 50 0c 1f bc 35 45 c5 bd
       -0.05725057 0.033398572 -0.009707525 -0.09632341
0002c0 f1 58 b2 3d 84 4c 64 bc 9a c0 b9 3d dc 9b 93 3d
       0.087083705 -0.013934258 0.09069939 0.07207462
0002d0 7b 7e 62 bb 23 55 2c bd 12 ba d3 bd d8 ea de bd
       -0.0034560252 -0.04207338 -0.103382245 -0.10884637
0002e0 07 c5 cd 3c 2e 02 ab bc 87 6c d2 bd be e3 b2 3c
       0.025118364 -0.020875063 -0.10274606 0.021837112
0002f0 0b 31 e5 bd ac 84 1b 3e 17 21 18 bd c2 2f 03 3e
       -0.11190995 0.15187329 -0.037140932 0.12811187
000300 18 c5 3d bd c6 fa 18 3e a9 1e 73 bc 54 4e ac 3c
       -0.04633054 0.14939412 -0.014838853 0.021033444
000310 8e 55 3f 3d a2 84 82 bd 10 41 34 3e f1 c4 20 bd
       0.04671245 -0.06372954 0.17602944 -0.039250318
000320 0d 08 e6 ba 35 37 0b 3e 78 04 87 3b 49 69 ba ba
       -0.0017550007 0.13595279 0.0041204058 -0.0014222051
000330 f8 db 0a 3e 5b 22 5e 3c 8c fc 94 3d 5a e6 b8 bd
       0.13560474 0.013557996 0.07274732 -0.09028311
000340 ec 41 d5 bd 85 c0 fa 3d 45 4f 84 bd a0 1f c0 39
       -0.10412964 0.122437514 -0.06460432 0.00036644656
000350 16 9c 15 be e0 5e 92 bd f1 35 06 3e df 80 2b bd
       -0.14610323 -0.07147002 0.13106515 -0.041870948
000360 3e fe fe bd 91 fd f3 bd 78 7c c0 bc 45 51 1a 3e
       -0.124508366 -0.11913598 -0.023496851 0.15070064
000370 17 92 cc 3c d2 71 da bd 38 76 44 3d 0c 63 96 3d
       0.024972005 -0.10666241 0.047964305 0.073431104
000380 8f b7 d4 bd 5c 79 18 bd 6a 76 17 3e e4 f3 83 bd
       -0.103865735 -0.037225112 0.14791265 -0.06443003
000390 0a 68 83 3d ba 07 84 3c c6 59 3b 3d 14 c8 12 be
       0.06416328 0.016116966 0.04573991 -0.14334136
0003a0 4b 6c 29 3a 83 67 22 be e6 bc 71 3d cc b4 e5 bd
       0.0006462975 -0.15859799 0.05901804 -0.11216125
0003b0 04 79 94 3d 92 f4 c2 3d b5 ec 34 bc a5 32 59 bc
       0.072496444 0.09519304 -0.0110427635 -0.0132567035
0003c0 67 af 01 be dd e5 35 bd b9 84 b2 ba d9 a1 de 3d
       -0.12664567 -0.044408668 -0.0013619877 0.10870714
0003d0 f4 d5 0c bb 06 06 c0 bd 5d 1e 3c bd 4a b7 19 3d
       -0.002148983 -0.09376149 -0.045927394 0.037528314
0003e0 1c 99 42 bc cc 0d 0a be 35 ca 37 bd 37 bf 84 bd
       -0.011877324 -0.13481826 -0.044870574 -0.06481784
0003f0 94 f7 ca 3d eb f3 7e bd aa c3 58 3d c6 f3 19 3d
       0.09910503 -0.062244337 0.052920975 0.037585996

lstm_layer.lstm2.bias_ih_l0 f4 [200]
000000 be 79 f3 3d c0 1d 64 bc b0 48 22 3e fd c9 da 3d
       0.11888455 -0.013923109 0.1584804 0.106830575
000010 34 28 b0 3d f1 16 d4 bd 7c e8 d9 bc 3a 5e cf bb
       0.08601418 -0.10355938 -0.026600115 -0.0063283714
000020 7f a8 a3 b9 9f cb e2 3d c8 df dd 3a 1a 3f 9f bb
       -0.00031215322 0.11073994 0.0016927654 -0.004859817
000030 e2 e0 31 3e 9e a4 d1 3d 8f 4a 97 bd d1 93 ee 3d
       0.17370942 0.10236476 -0.07387268 0.116492875
000040 bf e3 1e bd 35 0f a3 3d a6 a5 3f bd 18 61 e3 3d
       -0.038791414 0.07961885 -0.046788834 0.111025035
000050 08 28 aa bd 6c 0c 1b 3e fa 9d 0e 3e ce 30 9c bc
       -0.083084166 0.15141457 0.13927451 -0.01906624
000060 71 47 cf 3d e7 54 09 3e 23 62 91 3c 34 7e a3 ba
       0.10121048 0.13411294 0.01774699 -0.0012473525
000070 5c 67 12 3e ae 34 98 bc 26 21 df 3d b5 6a 6d bd
       0.14297241 -0.018579807 0.108949944 -0.057963092
000080 22 7b 63 3c ee ba a7 bd 5b 49 6e 3d db 4c 1e bc
       0.013884338 -0.08189951 0.058175426 -0.009661878
000090 cb 2e 98 3d fb bc d5 3d 12 45 ae bd 52 b3 ec bd
       0.074308 0.10436436 -0.08509268 -0.1155764
0000a0 43 b5 c5 3d 8d 2b b6 3c 2d f0 f4 3d a0 8d 00 be
       0.096537136 0.022237564 0.119598724 -0.12554026
0000b0 ae 67 fe bd 34 47 1c 3d 7a 7e b8 3d 89 19 90 bc
       -0.12422119 0.038153842 0.090084985 -0.017590301
0000c0 44 26 34 3d a6 33 58 3d 14 23 aa bc e8 ae 3c 3d
       0.043981805 0.05278363 -0.02076868 0.04606524
0000d0 63 99 d1 3d b8 c4 a0 3c ea a6 e8 3d 53 e9 9b bc
       0.10234334 0.019625053 0.11359961 -0.019032156
0000e0 11 c0 6e bc 75 7a cb 3d db db d0 bd 6c 54 c6 3d
       -0.014572159 0.09935466 -0.10198184 0.09684071
0000f0 6d 95 5d bc 85 4b 0b 3e 16 fb 13 3e 54 dd d4 3d
       -0.013524395 0.13603027 0.1445125 0.103937775
000100 ae 90 ea 3c 96 a1 b3 bd c0 8c ed 3d 95 e4 e9 bd
       0.028633442 -0.087710544 0.115991116 -0.11420552
000110 50 ac b4 3d dd d2 d7 3c fe d3 29 bd 58 82 97 3d
       0.088219285 0.026345665 -0.041461937 0.07397908
000120 61 48 18 3e cd e7 ac bd 90 55 c8 3d 16 bb e6 bc
       0.1487136 -0.0844265 0.09781945 -0.028165381
000130 f8 97 f7 bc a5 5e 04 bd 12 c7 03 3e 4b e4 13 bd
       -0.030223832 -0.032316823 0.12868908 -0.03610639
000140 c3 85 21 3e 4a ad 06 3e 61 8b fd bd 6a 23 0a 3e
       0.15773682 0.13152042 -0.123801 0.13490072
000150 22 aa 8e 3c b5 56 ba 3d ec 9d 31 3d fa b2 19 bd
       0.01741511 0.09098569 0.043363497 -0.0375242
000160 72 2c 9d bd 24 b6 43 bd 4c d8 d7 bd 6e 3d 4f 3d
       -0.07674493 -0.047781125 -0.10539302 0.050595693
000170 e3 de c3 3d b2 fb 80 3d 99 3e 5e 3d 41 f4 45 bd
       0.09563997 0.06298007 0.054258917 -0.04832864
000180 a3 cf 28 bc 09 86 7a bc a2 a6 12 3c cb 46 92 bd
       -0.010303411 -0.0152907455 0.008950861 -0.07142409
000190 1b 93 91 bb 5a bd 32 3d bb 1d 4d 3d 0f 01 cc bc
       -0.004442585 0.04363761 0.05007718 -0.024902849
0001a0 f1 74 d0 bc 2a 45 13 bd 18 53 dc 3d 7f e7 fa 3d
       -0.025446387 -0.035954632 0.107580364 0.122511856
0001b0 58 36 7b bc 36 23 d3 3b cd 55 2a bd 78 3b 95 bd
       -0.015332781 0.0064434065 -0.041585732 -0.072867334
0001c0 88 a4 94 3d 86 00 cd bc d4 8c e9 bd a1 11 8e bd
       0.07257944 -0.025024664 -0.11403814 -0.06936956
0001d0 20 b9 80 bd 7e 38 e6 3d d9 e2 e5 bd 3e 85 f4 bd
       -0.0628531 0.11241244 -0.112249084 -0.119394764
0001e0 61 f2 cf 3d b4 78 bf bd ed 94 ef 3c 3c 2f 54 bd
       0.10153652 -0.09349194 0.029245818 -0.05180286
0001f0 ca 88 2c bd 5d 8b e2 bd 57 0c 9a 3d 15 67 81 3d
       -0.04212264 -0.11061738 0.07521885 0.063184895
000200 cc 3a 9e bc b6 02 9e bd 9e 1f 94 3d 57 9a 92 bd
       -0.019315146 -0.07715361 0.07232593 -0.07158344
000210 1d 6b 43 bd c9 ea cf bd ae 84 06 bd 1b 9b 8b 3d
       -0.047709573 -0.101522036 -0.032841377 0.068166934
000220 82 2d 6f 3d 2f 15 9c 3c 63 24 ad bd 3e 95 3b bd
       0.05839301 0.01905307 -0.08454206 -0.045796625
000230 1b 10 b6 3c ec 75 a4 bd c4 ce 9b bc 7b 51 42 3d
       0.022224477 -0.08030304 -0.019019492 0.047440987
000240 68 b8 9d bd c2 4b 05 be 63 c2 dc 3c a7 3f 25 3d
       -0.07701188 -0.1301718 0.02694816 0.040343907
000250 7b 0d 9f 3d 12 af e7 bd 4b 16 ff 3d 10 62 10 3e
       0.07766243 -0.11312689 0.12455424 0.14099908
000260 ab 7a 02 3d a5 d0 91 3d 45 8a 1f 3d aa 92 c3 3d
       0.031855267 0.07119874 0.038950223 0.09549458
000270 21 06 f4 3c 78 1c 5a 3d 61 39 01 3e ab 74 b4 3b
       0.029788079 0.053249806 0.12619545 0.005507072
000280 15 7a d7 bd 8f 84 56 3d a9 8d d4 bd 3f a2 be 3d
       -0.10521332 0.05237251 -0.10378582 0.0930829
000290 6b 4d a4 3d 66 e0 60 3c 10 56 a6 bd 20 d0 c5 3c
       0.08022579 0.013725376 -0.08121884 0.024147093
0002a0 fc 69 b4 bd fa dd c3 bc af a6 95 bd 20 0c e2 bc
       -0.088092774 -0.023909558 -0.07307183 -0.027593672
0002b0 63 f8 87 bc cf f8 e4 3d 05 43 77 bd 64 cb 2e bc
       -0.016597932 0.11180269 -0.06036665 -0.010668609
0002c0 76 ab f6 3d a5 84 e6 3d b3 5d f5 3d 8c 2c a8 3d
       0.12044422 0.11255769 0.11980762 0.08211622
0002d0 cc 64 cb 3d 98 0c 0f 3e 9e 6e 8d 3d c1 a5 07 3e
       0.09931335 0.13969648 0.06905864 0.13246824
0002e0 51 33 39 bd aa fa 1c bb 79 53 b0 bd cd a6 04 3e
       -0.045214955 -0.0023953118 -0.08609671 0.12954254
0002f0 a0 07 d4 3d fb 78 36 3d a9 a8 ef 3c 43 d6 20 3e
       0.10353017 0.04454897 0.029255228 0.15706734
000300 e2 d1 3d 3d a9 62 86 bd cb 15 83 3d a3 4a df 3c
       0.046342738 -0.06561787 0.06400641 0.02725727
000310 f0 50 32 bc 33 42 23 3c 76 5d be 3d 51 82 08 3e
       -0.010883555 0.009964514 0.0929517 0.13330962

lstm_layer.lstm2.bias_hh_l0 f4 [200]
000000 a6 8d 91 3c 86 9b 28 bd 3c 02 a8 bd b3 25 bb bd
       0.017767739 -0.041163944 -0.08203551 -0.0913805
000010 84 2e a8 bc df 45 f5 3d 28 44 05 3e 71 95 99 bd
       -0.020529993 0.119762175 0.13014281 -0.07499207
000020 c6 6e ee bd 43 14 31 3e 84 5f ad bc 50 cc 18 bc
       -0.11642222 0.17292885 -0.02116371 -0.009326056
000030 9f 22 0d 3e 00 10 05 3e db 26 5b bd 02 dc cc bd
       0.13782738 0.12994385 -0.053503852 -0.10002901
000040 13 42 21 bd c4 4e d1 3d ae 0c 81 3c 95 a1 89 3d
       -0.039369654 0.102201015 0.015753116 0.067202725
000050 d2 4f 01 3e f2 1a 28 3e b6 64 bc 3d 7e 4b a2 bd
       0.12628105 0.16416529 0.091988966 -0.07924555
000060 01 ad 17 3e df 26 f0 bd 2f 09 c2 3d 8b 53 a2 bd
       0.1481209 -0.11726164 0.09474408 -0.07926091
000070 4b 36 f2 3d 5a 67 3b 3d 27 cc d0 3c d1 16 4c bd
       0.11826762 0.04575286 0.025487972 -0.049826447
000080 27 a7 b5 bc 93 4d 01 be 92 e4 12 be 17 1e fa bc
       -0.022174431 -0.12627248 -0.14345005 -0.030531926
000090 c4 58 13 3e 8d 6f 82 3d d3 89 7f bd 74 3b ae bc
       0.1438933 0.06368933 -0.0623873 -0.021268584
0000a0 fe b3 23 3d 3a 30 d5 bc cf 85 cf 3d 4a 00 03 3e
       0.039966576 -0.026023973 0.10132944 0.12793079
0000b0 d3 c9 df 3d 26 95 b8 3c a2 05 d0 bd 20 de 47 bc
       0.10927167 0.022532057 -0.101573244 -0.012198955
0000c0 58 73 07 bd ef 26 ba 3c a1 60 8d 3d f7 03 b1 bd
       -0.033068985 0.022723643 0.06903196 -0.08643334
0000d0 77 bb c9 bd 3e 8b f0 3c 20 9e 94 bd 82 29 fa 3d
       -0.09850209 0.02936327 -0.072567225 0.12214948
0000e0 a6 84 c8 3d e8 6c 94 bc 1b 1f 81 3c 24 6f b8 3d
       0.09790926 -0.018118337 0.015761903 0.090055734
0000f0 99 89 69 3d f7 c1 2c bd 33 b6 c3 bd 3f 77 6e bd
       0.05701599 -0.042177167 -0.09556236 -0.05821919
000100 fc d7 15 3d bc fc 00 3d 99 89 d8 3d 1b 86 28 bd
       0.036582932 0.031491026 0.1057312 -0.041143518
000110 56 1a d6 bd 61 05 8d bd 31 44 4d 3c 44 7e b2 3d
       -0.10454242 -0.068857916 0.012528465 0.087154895
000120 b4 70 c7 3d 89 12 41 3d d4 ac 96 3d eb 40 51 bd
       0.09738293 0.047136817 0.07357183 -0.0510873
000130 da d1 01 3b 23 4f 9d 3c 4e a2 60 3d ae 0d dd bd
       0.001980892 0.019202774 0.054842286 -0.10793625
000140 63 da 30 3c 87 f8 fa bd 9e 78 b2 3d a6 ad b8 bc
       0.010794255 -0.12254434 0.08714412 -0.02254374
000150 cf cb 90 3d 8d 50 6a 3d 9a ee 1a 3e 4a 0b 8d bc
       0.070701234 0.057205725 0.15130082 -0.017217297
000160 44 d5 ea 3d 00 13 55 3d a4 30 bd 3d 55 bf b5 bd
       0.114664584 0.052020073 0.09237793 -0.08874384
000170 37 b5 b8 3d 8c dc d6 bd 83 d9 f5 bd 37 ad 19 be
       0.09018939 -0.10491285 -0.12004378 -0.15007482
000180 b5 e5 e8 39 45 ba e8 bd a6 9e 03 be e6 64 d1 bd
       0.00044421633 -0.11363653 -0.12853488 -0.10224323
000190 fd 38 03 be 25 35 f7 bd a5 25 48 3d 2b 7c 8e 3d
       -0.12814708 -0.120706834 0.048864026 0.06957277
0001a0 cf 97 7a 3d 5d dc cd bd 8a cb 47 bd c6 f8 af bd
       0.061179932 -0.100517966 -0.048778094 -0.08592372
0001b0 2d 10 ca bd a7 db 05 3d 1f 53 03 3d 16 c2 b2 3d
       -0.098663665 0.03268018 0.032061692 0.08728425
0001c0 f1 34 dd 3d 50 ce f8 bc 3e e1 90 3d 45 06 eb bd
       0.108011134 -0.030371815 0.070742115 -0.11475805
0001d0 52 1b a2 bd cc 36 e8 bd a8 c1 45 bc 70 99 88 3d
       -0.07915367 -0.11338577 -0.012070097 0.06669891
0001e0 77 49 ca 3d b8 9f c5 3d 0f 60 5d 3c 42 25 5d bd
       0.098772936 0.096496046 0.013511672 -0.05399061
0001f0 be b4 1f bd a1 5f c3 3d 06 87 38 3d ff 43 c7 3d
       -0.03899073 0.09539724 0.045050643 0.09729766
000200 ac 71 e7 bd ee b1 eb bd da c7 0e 3d f1 f9 f4 bd
       -0.11300978 -0.11508547 0.034858562 -0.11961735
000210 55 82 b9 3b b3 3b f2 bc cc 35 ff 3d db 36 fd bd
       0.0056612887 -0.029569482 0.12461433 -0.123639785
000220 d4 7f 9b bd 2a 95 5f bd f3 86 ca bd 79 e7 12 bc
       -0.07592741 -0.054585613 -0.09889021 -0.00896632
000230 fd a1 e1 bc 7f 55 12 3e b1 23 25 bc 91 49 f0 bd
       -0.027543062 0.14290427 -0.01007931 -0.11732782
000240 c5 8e 18 bc 75 10 ac bc 1c 72 62 bd 39 dd b0 3d
       -0.009311383 -0.021003941 -0.055284604 0.08635945
000250 3f b0 4b 3d 6c b1 06 be a4 14 c9 bd cc 01 85 bd
       0.04972863 -0.13153619 -0.0981839 -0.06494483
000260 79 d7 3a 3c b3 cc 26 bd 21 3c 96 3d e1 1d 79 3c
       0.011403912 -0.04072256 0.073356874 0.015204878
000270 27 58 d6 3d a4 ed 6e bd da 69 81 3d 92 b5 90 bc
       0.104660325 -0.0583321 0.06319018 -0.017664704
000280 e5 c9 9c bd 27 a6 85 3d 2d a9 96 3c e4 3f cb bd
       -0.07655696 0.06525832 0.018391216 -0.099242955
000290 36 48 27 3e b7 12 12 3e 9c a4 bd bc a8 b3 96 3d
       0.1633614 0.14264952 -0.02314978 0.073584855
0002a0 61 26 49 3d 66 70 1a 3e b1 95 ad 3d dc ca ef 3d
       0.049108867 0.15081939 0.08475817 0.11708614
0002b0 64 13 ae bd c6 d5 73 3d 17 7a c6 bd e1 5c b3 3d
       -0.08499792 0.059530042 -0.096912555 0.087579496
0002c0 7f a7 e1 bd 56 89 3b 3d bd ff 2f bd 42 22 ae 3d
       -0.110182755 0.04578527 -0.0429685 0.08502628
0002d0 0c 83 fa bc d5 cd b2 bd 1e a9 e4 3d 96 01 c6 bd
       -0.030580066 -0.087306656 0.11165069 -0.09668271
0002e0 18 14 03 3e a7 8b e8 3d ec c3 96 3d 9c 05 f1 3c
       0.12800634 0.113547616 0.07361588 0.02942162
0002f0 df 68 e6 3c ce 3b 24 3e 24 dc 21 bd 09 79 80 bd
       0.028126178 0.16038439 -0.039516583 -0.062730856
000300 2b 61 b0 bc e5 5f 10 3c 99 33 66 3d 46 9e ba 3d
       -0.021530708 0.008811926 0.05620155 0.091122195
000310 e9 45 26 3d 68 44 ac 3d 42 b7 e7 3d ae 52 26 bd
       0.040594015 0.08411485 0.113142505 -0.040606193
