final_project/gru_gbrbm_H_per_2 (drop 0.2*0.2)/type1/gru_gbrbm_W15_H50_B16.pt (torch, 64977 bytes, 9 tensors)

lstm_layer.lstm1.weight_ih_l0 f4 [150, 16]
00000000: 12e6 f839 16be e739 5776 2e3a 9fae 16b9
00000010: 7b49 a8b9 7fe3 d7b8 edcd 7eb7 420b 2ab9
00000020: eea8 a1b8 b60a 5939 3203 3eb8 2c7c 94b9
00000030: ef32 63b9 8313 49b8 cc0f 293a b628 0d3a
00000040: cfd7 09b8 0d99 b1b8 e3d2 afb8 bbf8 b3b7
00000050: d064 3ab7 f7b6 0038 6f21 1d38 28e7 d636
00000060: 9ed1 e537 1ba6 93b7 0e67 c3b6 5fdd 1bb8
00000070: a7d5 0438 967f d1b7 b881 4db8 fcfe 67b7
00000080: df82 5d37 5b87 6837 3c2c 0e38 c4d1 08b7
00000090: 611f bab7 2ff6 6bb7 d032 71b6 0d39 49b7
000000a0: 98bf 60b7 b2b6 4636 ab3c 2e37 def2 9e34
000000b0: b21d 6d37 e1ae da37 96a9 57b7 c4ae 03b5
000000c0: 81f2 5e39 045b 5836 16ec b439 868a db37
000000d0: bd1c a4b7 5467 14b8 01b1 b1b7 bff0 04b9
000000e0: f185 bcb6 60ae 4539 bf5c ac38 f767 d336
000000f0: 3fba d2b7 6b1e d7b8 e5ea 9737 3f95 0938
00000100: 834e f2b9 b660 f7b9 6e15 e0b9 076d 45b8
00000110: 2715 d8b7 52a9 ff37 62dc 70b8 091f 19b9
00000120: 1c3b 66b8 5f2c ecb8 645b e7b7 b21a 31b8
00000130: 0637 8438 2b29 a5b7 57f0 e4b9 2f0f d9b9
00000140: 44d6 3739 d387 9b39 03e0 c039 d971 f537
00000150: f24f adb8 93d7 74b8 9108 02b8 12a0 2db9
00000160: 454e 4538 474e 4e39 e67c 0c39 f256 1438
00000170: f44e 81b9 d0fb 3739 2ecf 8539 0c8e 2f39
00000180: 8b87 a439 551d 103a 4361 053a 47b0 8838
00000190: aed1 ec38 72d8 e138 5d2d ae38 0671 b6b8
000001a0: e31f 7b38 43f9 60b9 8c62 98b4 167c 4538
000001b0: 81d0 03b9 ccec f937 9426 ae39 4bed c439
000001c0: 8d9a e538 cbea 54b9 ef58 92b9 c8ec e537
000001d0: 424d eab7 e121 b039 3416 84b7 cf19 4e38
000001e0: 6b1c c7b6 bec7 f9b8 4d6c 23b7 14e4 0837
000001f0: f2b0 9cb8 56bf 40b7 b86e f638 ba03 e738
00000200: c0e9 97b9 cd33 9ab9 3fc7 89b9 99d7 f338
00000210: fe17 f537 1b90 d5b6 ec48 8235 ca43 8ab8
00000220: ad6c 4838 7b72 0d39 1830 3537 2d53 e338
00000230: 7327 55b9 d13c a538 7b9f 90b9 6ddc 93b9
00000240: 8c59 ae38 9309 b038 b4f4 04b8 319f b3b7
00000250: 5cf1 ef37 2447 2a38 c770 8a37 1595 b338
00000260: b2b0 c337 43f9 49b7 1911 12b8 eb89 0338
00000270: 01f8 6a38 a4d2 aa37 8d3c d5b7 9a73 a338
00000280: 14ed 76b9 8288 69b9 65c2 80b9 c33b 5839
00000290: 4e61 0f39 22ec 1938 9eb3 3239 c4b7 e436
000002a0: eb21 ac38 0bd9 bf38 1353 8038 7fb7 7339
000002b0: 6570 7ab6 e66b 0039 bb5d 5cb9 d985 83b9
000002c0: 678e 22b9 ab76 35b9 c87b 02b9 1e36 24b8
000002d0: 8b43 86b8 cbda 9db8 9eaf efb8 cf9b 30b8
000002e0: dcbb 16b9 f9f5 9b35 0285 4d37 1556 13b9
000002f0: 5e27 a136 b4bb b0b8 4b37 c5b8 2ebd d0b8
00000300: 7d90 d5b8 50a0 b839 3c36 11b9 7e55 4737
00000310: 1fc2 25ba ab1a 0aba 817f 16ba 89ae 2bb9
00000320: d01e afb8 4276 9f39 cfe8 3bb8 7c03 8638
00000330: c4bf 9db9 4ff8 3f37 1020 10b9 c1e0 9039
00000340: 69a8 683a 2a80 8d3a 41e6 8d3a 6af5 6339
00000350: 7e95 c837 b279 3e39 223c ef38 f7cd d637
00000360: f4b5 c537 c68c f3b8 1af8 7c38 441d 2a39
00000370: e293 85b8 bf2a e237 4047 8f3a 4e15 cf39
00000380: 8961 fc39 7964 f039 2216 e739 3122 9ab8
00000390: f81c 15ba 55f9 26b9 f992 50b9 6406 35b9
000003a0: 209e 13ba 5281 8839 1de4 8538 90b7 6bb9
000003b0: 9eca 5fb9 f4ef 40b9 e346 6d39 bf68 133a
000003c0: b4d0 d1b8 6653 d6b9 f48e e3b9 e54a 0839
000003d0: 3f7b e639 97e2 253a 4c08 8139 e04f a6b8
000003e0: 5b68 003a 9e5c 2d38 62eb 9d36 49c0 ce38
000003f0: 1539 5e37 d63d 35b8 3769 2b39 2666 b4b9
0.00047473662 0.00044201378 0.0006655207 -0.00014370166 -0.00032098204 -0.00010294373 -1.5187526e-05 -0.00016216657
-7.708544e-05 0.00020698723 -4.5302506e-05 -0.00028321275 -0.00021667381 -4.7940306e-05 0.00064491923 0.00053847895
-3.2864333e-05 -8.4685256e-05 -8.383931e-05 -2.1454287e-05 -1.1109936e-05 3.0687977e-05 3.7462854e-05 6.404607e-06
2.7396538e-05 -1.7601114e-05 -5.82345e-06 -3.7161048e-05 3.167023e-05 -2.4974153e-05 -4.899662e-05 -1.3828041e-05
1.3203097e-05 1.38597925e-05 3.3896635e-05 -8.155072e-06 -2.218754e-05 -1.4064411e-05 -3.5941375e-06 -1.1993817e-05
-1.3396049e-05 2.9610642e-06 1.0385334e-05 2.9606502e-07 1.4133215e-05 2.606906e-05 -1.2854483e-05 -4.905562e-07
0.0002126191 3.2239486e-06 0.00034508173 2.617134e-05 -1.9563706e-05 -3.538218e-05 -2.1182468e-05 -0.00012678186
-5.6184294e-06 0.00018852344 8.2188744e-05 6.300393e-06 -2.5120678e-05 -0.00010257665 1.8109984e-05 3.280234e-05
-0.00046216333 -0.00047183566 -0.00042740576 -4.707e-05 -2.5759056e-05 3.0477215e-05 -5.7425706e-05 -0.00014602779
-5.4891323e-05 -0.00011261622 -2.7579903e-05 -4.222495e-05 6.3044994e-05 -1.9688703e-05 -0.00043666616 -0.00041400778
0.0001753206 0.000296651 0.00036787995 2.925929e-05 -8.264174e-05 -5.8374902e-05 -3.1002393e-05 -0.00016558197
4.7041354e-05 0.00019674852 0.00013397969 3.5366924e-05 -0.00024663622 0.00017546047 0.00025522098 0.00016742217
0.00031381505 0.0005497535 0.00050880405 6.5178196e-05 0.00011292413 0.00010769152 8.305416e-05 -8.6994885e-05
5.987276e-05 -0.00021455162 -2.8383909e-07 4.7084024e-05 -0.00012570807 2.979338e-05 0.0003321661 0.0003756083
0.00010948358 -0.00020305363 -0.0002791355 2.7409187e-05 -2.793095e-05 0.00033594578 -1.5745965e-05 4.9138263e-05
-5.9339704e-06 -0.0001191045 -9.740773e-06 8.159335e-06 -7.471618e-05 -1.1488641e-05 0.00011750817 0.000110156325
-0.00028975122 -0.00029411764 -0.00026279126 0.00011627301 2.9217448e-05 -6.3646708e-06 9.706978e-07 -6.5929795e-05
4.7784928e-05 0.00013489455 1.0799638e-05 0.00010839696 -0.00020327959 7.879141e-05 -0.00027584643 -0.00028202255
8.313646e-05 8.394117e-05 -3.169915e-05 -2.1412592e-05 2.8603412e-05 4.0597413e-05 1.6503398e-05 8.563154e-05
2.3328092e-05 -1.2038569e-05 -3.4825036e-05 3.136128e-05 5.602092e-05 2.0363666e-05 -2.5419775e-05 7.793978e-05
-0.00023548707 -0.00022271465 -0.00024558898 0.00020621628 0.00013673792 3.669796e-05 0.00017042315 6.8163226e-06
8.207917e-05 9.148017e-05 6.1189894e-05 0.00023242644 -3.7318325e-06 0.00012247227 -0.00021015752 -0.0002508599
-0.00015502573 -0.00017305712 -0.00012443878 -3.9151048e-05 -6.402199e-05 -7.527097e-05 -0.00011429119 -4.2106778e-05
-0.00014375098 1.1619987e-06 1.22499205e-05 -0.0001405108 4.802757e-06 -8.4272964e-05 -9.403991e-05 -9.95345e-05
-0.000101835445 0.00035214657 -0.00013848481 1.18812295e-05 -0.0006323177 -0.0005268256 -0.00057410455 -0.0001637285
-8.3503895e-05 0.00030414952 -4.4801094e-05 6.390267e-05 -0.0003008825 1.1442301e-05 -0.00013744854 0.00027633275
0.0008875193 0.0010795642 0.0010826067 0.00021739831 2.391147e-05 0.00018165147 0.00011407609 2.5606698e-05
2.3568959e-05 -0.00011613364 6.0312545e-05 0.00016223366 -6.3694795e-05 2.6961205e-05 0.0010931268 0.0003949799
0.00048137855 0.00045851225 0.00044076244 -7.349661e-05 -0.00056882156 -0.00015923877 -0.00019891177 -0.00017263886
-0.00056311674 0.00026036293 6.3844236e-05 -0.00022479729 -0.00021342418 -0.00018399936 0.00022628489 0.00056232134
-0.000100047706 -0.00040879397 -0.00043403322 0.00012997871 0.00043960844 0.0006328015 0.0002461098 -7.930375e-05
0.00048983627 4.133267e-05 4.706367e-06 9.858661e-05 1.3245522e-05 -4.3211352e-05 0.00016347026 -0.00034408382

lstm_layer.lstm1.weight_hh_l0 f4 [150, 50]
00000000: 6f51 adb8 621f a9b7 b655 32b7 4940 09b7
00000010: fcca 80b7 89f7 d537 69ae 9d37 a619 05b6
00000020: 3253 55b8 c9f5 2a35 345b dfb6 9ef5 8eb6
00000030: fa31 d237 0973 9038 1f35 1cb7 aeec 00b7
00000040: 788c 3738 a262 8936 11f5 1637 8d4e 43b7
00000050: 6ed7 f237 838f 44b8 dcb2 3b39 24ed e836
00000060: 0d5e 6237 a199 9737 d8e4 35b8 c448 2138
00000070: bfed 0c38 7cd7 5cb6 0852 be36 f75d 4737
00000080: 7903 6e35 9575 3f39 2606 b436 aea9 b2b4
00000090: 95cf e437 1f5b dcb6 c885 85b7 55c3 8bb7
000000a0: 7ddd 93b7 1570 04b7 fe4d beb8 1490 aab6
000000b0: f8bf 57b5 bc65 a437 725b f2b6 ce78 65b7
000000c0: 4a79 39b7 e09f b8b6 39ce 06b7 78ca 67b5
000000d0: 610c 15b6 d29c 4535 f950 30b5 1c47 56b6
000000e0: 4bf4 33b6 bdba 4f35 d99f 22b6 4930 9c35
000000f0: 9deb bc34 10a7 0835 1a86 59b6 25c0 ea36
00000100: ad40 c835 7a1a 43b5 7e5a 14b6 ac22 9534
00000110: ed3e 22b4 9a67 de35 52b7 76b6 3f3c 81b5
00000120: f66e 0637 0fc1 ae35 63ed f1b5 741e 91b6
00000130: a3ca e2b5 08d1 c9b6 b80e a534 4420 3934
00000140: dfa5 26b5 aa93 95b1 8e99 b735 32fb 26b6
00000150: 89b6 bab5 7e63 ce34 2468 5434 a42e 2134
00000160: d06a f635 8af6 4bb5 e1a5 3e36 f726 9935
00000170: 867d 84b6 6eed 3b35 f80b 2eb4 d836 2db6
00000180: c701 7835 e169 6f35 97d2 98b3 b2cc da34
00000190: e74d 1eb7 f6e3 bbb4 dd71 89b4 adc6 0335
000001a0: 9cb1 2935 039f 9bb7 394a 9535 abbd 37b5
000001b0: 4717 4c35 08ac 60b4 c853 b834 e695 3536
000001c0: 2f24 67b7 cbce 7d37 bf28 1336 ffd7 6e32
000001d0: 967e 3135 eaae e934 74a4 ebb6 8e56 fdb2
000001e0: 58ab cbb3 647f 2fb7 d08f 45b6 d658 7a36
000001f0: 8fe5 d932 e40b 90b6 ded5 d4b4 d82e 7635
00000200: b3d2 db36 6799 a0b3 a50b 0235 3632 3c35
00000210: 148a 0b36 9699 8336 4a8b a3b4 5864 50b4
00000220: 8a97 7d36 d227 47b6 9485 40b5 b62f d533
00000230: 966f 4735 f482 2835 1504 9835 cfd8 b536
00000240: e531 0734 428e 8335 4dc7 8e36 f5bb 02b5
00000250: beaf 1434 3e66 ab36 d3f9 a2b7 ab61 ed36
00000260: 2901 02b7 bff4 4d37 2161 65b6 b677 5d35
00000270: 6045 55b8 da26 ecb4 bf86 1d37 c64e 33b5
00000280: f115 50b6 68f2 14b5 7855 0cb8 c4b4 2139
00000290: bea0 0237 c2c7 5a33 87b9 a3b8 c8d2 1a36
000002a0: d4f1 1b37 6568 e636 5959 c4b8 66fe a6b7
000002b0: dbef d7b7 5dcb 9cb6 23a0 ae36 92c2 8937
000002c0: ef1a 9936 effb 4437 8e8c 75b7 b9f5 b6b4
000002d0: bdd1 ae35 b535 f336 84c3 fa35 3888 9238
000002e0: d526 e336 9362 c835 2874 ac33 4ed8 8fb6
000002f0: a2e1 6a37 5adf f535 e4e0 13b7 0860 9ab6
00000300: 0a30 3e37 a451 7436 4715 90b6 39d3 ba36
00000310: ca96 f8b7 62ef 4bb5 9745 2eb7 9ded d6b5
00000320: 80b9 37b8 e6a8 da36 575d 5037 44dd 71b6
00000330: ad94 4e37 636c 7fb7 25f8 92b7 086c 2236
00000340: 11b1 2637 c6e4 61b6 d450 c735 6e4e 3635
00000350: 8b1b 9db7 fe99 2a38 43f7 2c37 8ae1 0037
00000360: 1d26 0eb8 9cb3 35b6 11d9 a336 78c7 b5b6
00000370: 7cef 6bb7 fd93 beb7 9b2c 3138 1cc2 5c36
00000380: 4be9 ce36 9f40 adb7 1890 d8b6 f23e 04b8
00000390: 5bb1 2638 1096 8635 e76d d7b5 be6a 4ab7
000003a0: 8cbc 78b5 e2a2 2638 5513 c6b6 ee5c 6b34
000003b0: 840f 4bb7 bb64 aeb5 d616 9137 134e 96b6
000003c0: 9383 7537 cd39 d436 943f 90b7 e070 d436
000003d0: c1f6 05b6 a9ca 6fb7 9ba7 6b36 0c1d 2735
000003e0: 72d2 a536 4be1 a5b7 8b4c 8cb8 c828 f336
000003f0: afea 4c38 c843 5437 4c21 8cb5 2fb1 6937
-8.264451e-05 -2.0160984e-05 -1.0629583e-05 -8.180804e-06 -1.5353311e-05 2.5506846e-05 1.8797075e-05 -1.9833474e-06
-5.086064e-05 6.36876e-07 -6.6565353e-06 -4.2605234e-06 2.5057223e-05 6.887882e-05 -9.310693e-06 -7.684501e-06
4.376142e-05 4.0944005e-06 8.997756e-06 -1.1641195e-05 2.8948965e-05 -4.6863697e-05 0.0001790034 6.9417456e-06
1.3492548e-05 1.8072142e-05 -4.336689e-05 3.845316e-05 3.360002e-05 -3.2907983e-06 5.671991e-06 1.1883202e-05
8.866696e-07 0.00018258982 5.365134e-06 -3.3278542e-07 2.7276381e-05 -6.567119e-06 -1.5917132e-05 -1.666105e-05
-1.7626904e-05 -7.893909e-06 -9.074433e-05 -5.0831677e-06 -8.037309e-07 1.9597697e-05 -7.2228077e-06 -1.3677591e-05
-1.1055099e-05 -5.502239e-06 -8.035037e-06 -8.6348837e-07 -2.2209936e-06 7.361642e-07 -6.568294e-07 -3.1929876e-06
-2.6815276e-06 7.738525e-07 -2.4232925e-06 1.1636959e-06 3.518916e-07 5.0907056e-07 -3.2413577e-06 6.996112e-06
1.4919984e-06 -7.268169e-07 -2.2106392e-06 2.777864e-07 -1.5110318e-07 1.6570441e-06 -3.6763563e-06 -9.628783e-07
8.0128575e-06 1.3020198e-06 -1.8024988e-06 -4.324882e-06 -1.6897287e-06 -6.0146012e-06 3.0744354e-07 1.7241206e-07
-6.2081193e-07 -4.353258e-09 1.3679253e-06 -2.4882142e-06 -1.3911205e-06 3.844288e-07 1.9781925e-07 1.5011261e-07
1.8359515e-06 -7.5982155e-07 2.840876e-06 1.1410729e-06 -3.9485194e-06 7.0008434e-07 -1.6209367e-07 -2.5810932e-06
9.2389786e-07 8.918851e-07 -7.1163576e-08 4.07546e-07 -9.435672e-06 -3.4997328e-07 -2.5601085e-07 4.9090414e-07
6.321586e-07 -1.8551485e-05 1.1122967e-06 -6.8448816e-07 7.6029795e-07 -2.092421e-07 3.433363e-07 2.7058354e-06
-1.3777098e-05 1.5128123e-05 2.1928424e-06 1.3902535e-08 6.6121845e-07 4.35269e-07 -7.0226906e-06 -2.9492437e-08
-9.4840914e-08 -1.0460473e-05 -2.9438997e-06 3.7304612e-06 2.5366516e-08 -4.2929187e-06 -3.9643686e-07 9.171031e-07
6.551237e-06 -7.478484e-08 4.844572e-07 7.0108524e-07 2.0792986e-06 3.921984e-06 -3.0462462e-07 -1.9408014e-07
3.7788145e-06 -2.967649e-06 -7.1719955e-07 9.927264e-08 7.4295656e-07 6.277544e-07 1.132607e-06 5.41946e-06
1.2591006e-07 9.801663e-07 4.2551314e-06 -4.870229e-07 1.3847509e-07 5.1080997e-06 -1.9428238e-05 7.0745205e-06
-7.748874e-06 1.2275937e-05 -3.4180196e-06 8.250312e-07 -5.0847768e-05 -4.3986694e-07 9.389302e-06 -6.6797327e-07
-3.1007187e-06 -5.5487044e-07 -3.34582e-05 0.00015421497 7.7860295e-06 5.093876e-08 -7.807003e-05 2.307048e-06
9.295025e-06 6.8666873e-06 -9.3626506e-05 -1.9907206e-05 -2.5741689e-05 -4.672837e-06 5.2042465e-06 1.6422277e-05
4.562891e-06 1.1741168e-05 -1.4635863e-05 -3.4078928e-07 1.3025052e-06 7.2482167e-06 1.8683354e-06 6.987195e-05
6.769648e-06 1.492985e-06 8.030503e-08 -4.2869133e-06 1.4000021e-05 1.8318926e-06 -8.814244e-06 -4.600737e-06
1.13360675e-05 3.6406354e-06 -4.2940114e-06 5.5678215e-06 -2.963412e-05 -7.597174e-07 -1.0387411e-05 -1.6013397e-06
-4.380336e-05 6.5165686e-06 1.24194985e-05 -3.6040592e-06 1.2313173e-05 -1.522442e-05 -1.7520108e-05 2.4202764e-06
9.9355975e-06 -3.3660776e-06 1.485018e-06 6.7914414e-07 -1.8728684e-05 4.0674575e-05 1.0309569e-05 7.681907e-06
-3.3890934e-05 -2.7075648e-06 4.8830484e-06 -5.4174416e-06 -1.4062851e-05 -2.2718677e-05 4.224163e-05 3.2895541e-06
6.1664373e-06 -2.0653299e-05 -6.4540764e-06 -3.1529875e-05 3.974266e-05 1.0027452e-06 -1.6050734e-06 -1.2064991e-05
-9.266157e-07 3.972918e-05 -5.9031104e-06 2.1919888e-07 -1.2103355e-05 -1.2993327e-06 1.729598e-05 -4.4794374e-06
1.46337725e-05 6.3248212e-06 -1.7195744e-05 6.3312327e-06 -1.9962174e-06 -1.4292696e-05 3.5115288e-06 6.2254617e-07
4.9418823e-06 -1.9774443e-05 -6.6899775e-05 7.246712e-06 4.8855956e-05 1.2651966e-05 -1.0440504e-06 1.3929136e-05

lstm_layer.lstm1.bias_ih_l0 f4 [150]
00000000: f7b3 8938 2b30 ee36 8637 bb34 fe63 4739
00000010: 27df a9b7 0f26 fc38 b7fe 15b7 cfe4 40b9
00000020: ac69 bc39 b56f b3b8 dae3 1039 b79d 43b4
00000030: c1ac aa39 a8b1 90b9 749b 5039 2a5d bf39
00000040: 9ae6 37b9 2c74 de39 eae4 233a 91bd 9338
00000050: 19bd 8339 8707 8639 8373 1eb9 8c42 333a
00000060: a98c 9538 23b4 2c39 43f5 2938 b675 bb38
00000070: 0f0e 39b9 0f78 feb6 ae64 4938 a40b 8cb9
00000080: 1ff0 5639 ae59 abb8 bc03 0238 c138 2d37
00000090: 9c89 2939 1a35 cd39 c4ea 9238 0a0a 2eb9
000000a0: 1b50 153a c477 5738 e4de 5839 dc9c d6b6
000000b0: bd2d b1b7 7346 d0b9 0e0e 8838 6c6d 0fb8
000000c0: 6a85 133a 993a 8f39 3a15 9cb8 df9e b1b7
000000d0: c5c9 0e37 cb5a 8a39 bc19 dfb7 729c b838
000000e0: 9cb9 d537 27c3 25b6 96b0 d538 c9c6 9d39
000000f0: b611 0039 07b1 9b38 f5a0 c238 bda9 f2b9
00000100: e2b6 213a e79e 79b8 c00d a1b8 921b f836
00000110: 00de fd39 c6aa 1f38 3fa7 3339 3120 4238
00000120: d3e1 9539 a7ba 7237 340b c338 c2ef 9738
00000130: ca11 c737 f2ca 7fb8 c2d4 e7b8 3467 a0b8
00000140: f373 b2b6 c7ed 6eb9 450d 86b9 fa8b fb36
00000150: 3dbc 9039 6352 f036 51aa 7938 9c6d d8b8
00000160: f67b 21b8 412d 3139 e86c 0038 34f4 9ab8
00000170: 44dd a337 f132 9339 ab8d 2438 9227 a0b8
00000180: b714 1138 5ee9 45b8 6389 14ba 0c92 3c38
00000190: 173a 983b 61f9 f73b 81bc 82ba 79f8 0bbc
000001a0: 79f2 a0bb 628d 243c a5c1 11ba 6ec7 1ebb
000001b0: 4787 813b cfca 0d3b db09 ecbb c1e0 9cba
000001c0: 4c41 e73b 0b90 37bb cbee 13bc aa46 dbbb
000001d0: f28e 643b b582 113b 6676 e6bb 551c e7ba
000001e0: a441 2e3b fe37 adba 0a4a 16bb c687 cdbb
000001f0: f3e3 13bb d0e3 1b3c 1a37 a03b 382b 3c3b
00000200: 1458 3dba 12b0 373b 8a66 78ba f6d2 50ba
00000210: f4c1 b33b ec8e 29bb d4c4 ad3b 19f7 bc3a
00000220: cc9a be3b b394 22bc 9d64 87bb 0fa0 3cbb
00000230: 4271 41bc 4925 9dba e71d 9b3b f398 00ba
00000240: a9e2 0dba 29d3 343b 8369 81bb da81 a53b
00000250: 77fc b6bb 74f1 d83a
6.56619e-05 7.09856e-06 3.4871863e-07 0.00019015369 -2.0250283e-05 0.00012023385 -8.9403975e-06 -0.00018395785
0.00035936886 -8.556192e-05 0.00013817791 -1.8218167e-07 0.00032553638 -0.00027598185 0.00019894337 0.00036499772
-0.00017538146 0.00042429694 0.00062520674 7.044816e-05 0.00025127156 0.0002556408 -0.00015111086 0.00068382244
7.131074e-05 0.00016470304 4.0521158e-05 8.93878e-05 -0.00017648212 -7.5837665e-06 4.80159e-05 -0.00026711554
0.00020498082 -8.1706195e-05 3.0997893e-05 1.0324818e-05 0.0001616836 0.0003914021 7.005551e-05 -0.00016597673
0.00056958356 5.1371535e-05 0.00020682398 -6.395958e-06 -2.1121343e-05 -0.0003972534 6.487603e-05 -3.4195764e-05
0.0005627485 0.00027318744 -7.4426134e-05 -2.1174024e-05 8.510838e-06 0.00026389057 -2.6595655e-05 8.802944e-05
2.547801e-05 -2.470051e-06 0.00010189523 0.0003009348 0.00012213629 7.42395e-05 9.2806215e-05 -0.00046284302
0.0006168914 -5.9514216e-05 -7.6796394e-05 7.3941856e-06 0.00048421323 3.80676e-05 0.00017133074 4.6283185e-05
0.00028587747 1.4467782e-05 9.300411e-05 7.2448995e-05 2.3730932e-05 -6.0985745e-05 -0.000110545676 -7.6486176e-05
-5.3183117e-06 -0.00022786028 -0.00025568358 7.4966783e-06 0.0002760607 7.1621484e-06 5.9524846e-05 -0.00010320099
-3.850084e-05 0.00016896894 3.0619005e-05 -7.3887786e-05 1.9534149e-05 0.0002807598 3.9232586e-05 -7.636765e-05
3.4589986e-05 -4.71858e-05 -0.0005666224 4.495871e-05 0.0046455967 0.00756757 -0.0009974391 -0.008543127
-0.0049117175 0.010043474 -0.00055601663 -0.0024227756 0.003952894 0.0021635776 -0.0072033233 -0.0011968837
0.0070573445 -0.002800944 -0.009029101 -0.0066917734 0.003487524 0.0022203152 -0.007033157 -0.0017632345
0.0026589418 -0.001321554 -0.0022932314 -0.006272289 -0.0022566288 0.009514764 0.004889381 0.0028712284
-0.00072229025 0.002802853 -0.0009475729 -0.0007966006 0.0054857675 -0.0025872542 0.0053030048 0.0014416903
0.005816793 -0.009923148 -0.004131867 -0.0028781926 -0.011806788 -0.0011989261 0.0047337892 -0.0004905604
-0.0005412498 0.0027591682 -0.0039493456 0.00505088 -0.0055842954 0.0016551451

lstm_layer.lstm1.bias_hh_l0 f4 [150]
00000000: cbe3 1237 cca2 afb7 dcfc 17b8 5cc6 2e39
00000010: 517c 90b8 394e 0739 4e4a 1439 9ff4 a438
00000020: eadb 9239 63d9 ddb6 039e 6039 1e13 6bb7
00000030: 24da 8739 f694 5eb9 7e51 8cb8 06ca ab39
00000040: 5388 53b9 3de6 6739 c73a 413a 5e37 17b9
00000050: 8243 b539 59d2 cdb8 e6cf ebb8 5d67 323a
00000060: 8dbc b837 4213 6a39 9a9b 4938 10ff 9337
00000070: eeba 16b9 cec3 2ab7 a91f 66b5 7207 9fb9
00000080: 7b6e 8eb8 1570 e5b8 4fbb 3038 098e 8a37
00000090: be48 7c39 0944 31b8 f2fb c838 dd7c d1b8
000000a0: ffd4 103a 6794 9f38 35ba 9238 67b1 6f35
000000b0: 1c7b 8db7 a45a ab38 5700 c738 2797 3fb8
000000c0: 9b54 263a b43f 6d39 dfb3 97b8 0abc 9cb7
000000d0: b38d f436 fb33 8a39 42b8 a0b6 eda7 ed38
000000e0: 8b78 ed37 8f22 b338 3a24 a238 b7de e837
000000f0: 6d2b c738 29d6 f038 b339 4638 7846 f4b9
00000100: 7ee7 c539 ab69 34b8 3fe1 99b8 5be9 38b9
00000110: d26b a939 4336 7438 c396 8339 08d5 57b7
00000120: 0eab 5239 23fb 4d37 713d 0539 f103 8a38
00000130: 6f04 cb37 3dbf 2939 3994 f7b8 acf2 28b8
00000140: 62b7 78b8 f6a1 f436 8e7d 70b9 20ef 8d36
00000150: eefe 9239 01f8 b036 1c9f db37 9643 cbb8
00000160: 436f 0eb8 da23 f138 474d 0038 409d 9db7
00000170: 74d0 c637 06f2 6039 219a 7738 495e 8837
00000180: 8f4d f738 6531 a3b8 06dc 12ba 61d8 3c37
00000190: 3a19 9b3b 4eb5 a63b f853 a8ba 7257 83bb
000001a0: af24 5ebb 7680 123c b5f3 1f3b f6ba e3ba
000001b0: fcb3 a63b f388 bc39 9718 afbb 75f2 0339
000001c0: ef9a e23b e60d 9bbb f5fe c2bb 2ce6 92bb
000001d0: 56d0 ca3b f23d 073b 509e ddbb b001 2bbb
000001e0: d8c2 bb3b 18a5 cbba f42d 9abb f98a e8bb
000001f0: 5f02 7938 b75a f23b cdb7 803b 33f5 583b
00000200: 3b8d 92bb 54d5 a93a c581 ce38 adc8 3c3a
00000210: e275 413b 19bc 89bb 4356 913b edb6 a93a
00000220: 59dd 7d3b 1070 f3bb 0290 c3bb 1eb5 0cbb
00000230: de94 02bc 879e cdba 3c08 c93b be52 08ba
00000240: 7859 4eba 459a c63a 6a20 45bb 8dd3 323b
00000250: 506f 9fbb ed67 9b3a
8.755315e-06 -2.0937434e-05 -3.62367e-05 0.00016667828 -6.889611e-05 0.00012903743 0.0001414206 7.8656936e-05
0.0002801114 -6.6116204e-06 0.00021421169 -1.4011543e-05 0.00025911734 -0.00021227062 -6.690899e-05 0.0003276618
-0.00020173313 0.00022115647 0.0007371124 -0.00014421108 0.00034573307 -9.814342e-05 -0.00011244397 0.00068055635
2.202231e-05 0.00022323153 4.806705e-05 1.7642538e-05 -0.00014374751 -1.0178379e-05 -8.572775e-07 -0.0003033239
-6.791666e-05 -0.00010940448 4.2136115e-05 1.6517022e-05 0.00024059691 -4.226345e-05 9.5836716e-05 -9.989154e-05
0.0005524903 7.609353e-05 6.996506e-05 8.929259e-07 -1.6865837e-05 8.1707985e-05 9.489123e-05 -4.567872e-05
0.00063450047 0.00022625813 -7.233745e-05 -1.8684212e-05 7.2882626e-06 0.0002636014 -4.789822e-06 0.00011332319
2.8308734e-05 8.541822e-05 7.73151e-05 2.7760265e-05 9.497148e-05 0.00011483982 4.7260615e-05 -0.0004659181
0.00037747243 -4.3013755e-05 -7.337564e-05 -0.00017634539 0.00032314524 5.822467e-05 0.00025098593 -1.2864599e-05
0.00020090883 1.22774245e-05 0.00012706757 6.581087e-05 2.420155e-05 0.00016188338 -0.000118054864 -4.0280327e-05
-5.9298596e-05 7.2906214e-06 -0.00022934956 4.2299653e-06 0.00028037227 5.27408e-06 2.6180925e-05 -9.692383e-05
-3.395906e-05 0.000114984534 3.058955e-05 -1.8789084e-05 2.3700508e-05 0.00021452465 5.9032933e-05 1.6256368e-05
0.00011792324 -7.781646e-05 -0.0005602244 1.1256053e-05 0.004733232 0.005087531 -0.0012842407 -0.004008227
-0.0033896377 0.00894176 0.0024406735 -0.0017374444 0.005087374 0.0003596019 -0.0053435075 0.00012583456
0.006915442 -0.0047318814 -0.0059508034 -0.004483005 0.0061893864 0.0020636288 -0.006763257 -0.0026093535
0.0057300143 -0.0015536873 -0.004705185 -0.007096645 5.9368434e-05 0.007396068 0.0039281608 0.0033105134
-0.0044724024 0.0012957253 9.847017e-05 0.0007201534 0.0029519727 -0.004203331 0.004435332 0.0012948193
0.003873667 -0.0074291304 -0.005968095 -0.002147026 -0.007970063 -0.0015687504 0.006135015 -0.0005200318
-0.0007871608 0.0015152177 -0.0030079135 0.0027286739 -0.0048655644 0.0011856534

gbrbm.W f4 [50, 100]
00000000: 2f42 973b 2ce3 66bb de14 153a c8af a93b
00000010: efc9 883b f54c c33b 77ad eb3b d799 f13b
00000020: 0cee fe39 9c44 9b3a 28a5 cb38 ad99 5bbb
00000030: 7120 433b 9545 6dbb 2c72 4d3b d25d 103c
00000040: cc14 86b9 0639 42bb 14de 4b3b 072d 083c
00000050: ac4b 19b9 c522 673c a45e 903b 8977 deb9
00000060: c17a cb3b 5106 e6bc 6c5c 223c 02a2 763b
00000070: 0a21 4fbb 1a5f 8c3b 642b 933b 7fd8 4d3c
00000080: 98be b03b 0d46 063b 460d a4b9 bba5 90bb
00000090: 7be2 11bb 9f3e a33a 96b7 90bb bce8 b13b
000000a0: 52f4 4e3b c501 5f3b 05cc e2b8 17e5 b13b
000000b0: 0f30 e3ba a259 37bb ad3f e23a ef7f a4bc
000000c0: e221 f03b 7772 8a3b 2630 2c3b b5a0 c5ba
000000d0: 9e3c fdbb a630 6aba 10ba 9abc 2735 cf3a
000000e0: ae76 c63b 37c3 cd3a 28ba c8bc 23ba 113c
000000f0: d0f5 d13b f10a 073b a24c 8a39 c654 1a3c
00000100: e00d c0bb 5528 d8bb 5a5c bc3b 418a a53b
00000110: dbe5 cf3b 23fb 3d3c ff69 00ba 7fd0 ce3b
00000120: 2482 623b d490 5eba 73ff 4b3c 71f0 f53b
00000130: ed50 203b 0b88 023b e8dc 043c 562a 1e3c
00000140: 58f5 6e3b 790a 9cbb 13e0 7a3b eedf 7bbb
00000150: d3c9 84bb 73d7 723b bbfc 9e3b afec 12bc
00000160: 3c34 163b 7fcf 4e3a cfe2 0e3b b94e 0bbb
00000170: 9ef8 af3b 944c 98bb 420c 863b 18f9 243c
00000180: 0075 b4ba 78bd 633b fb4e d73b c7b6 c63b
00000190: ac50 c9ba 0baa e73a 0529 003a 4975 4f3a
000001a0: 0e1d 8d39 acc8 c239 94fe 48bb 5243 5d3b
000001b0: f380 76b8 8e07 e4ba 218c 5b3b 34d8 39bb
000001c0: a89b 9639 8b27 b8bb edba 433a 3ccf 003b
000001d0: c53e e739 9a84 ebb8 5e6a 48b9 3793 86b9
000001e0: 0f92 b7ba 4af4 aeb9 6ef2 5f3a 9276 e3bb
000001f0: 4dda 51ba 8531 b1b9 3456 1bbb ae80 8bbb
00000200: ac0d 6fbb 9ba0 b6b9 9d9c a0ba 73f9 903b
00000210: 8e6d 42bb b85f aabb a6de ffb8 2e87 a9bb
00000220: d8ea 48bb 95ac 273b 9a2f 24bb 0d2f 013b
00000230: eb2b 54ba 4204 44bb 5d55 85ba 7d96 90ba
00000240: b99e d1bb 6f69 a83a 2271 a4bb 7d1b a0ba
00000250: 3ac5 bbb9 cfc8 0bbb 5634 34bb b380 f9ba
00000260: ecea c5bb 8057 053b 75f9 d4b8 ba5e d0ba
00000270: 1ec6 1b38 36ec aa3a 0583 e13a dd79 5f3b
00000280: 3dc0 03ba 81c0 13bb 5bb1 6db8 bb47 a4b9
00000290: e3c7 87ba 5e29 35ba d08a 0bb9 ce8e e8ba
000002a0: ff80 efb9 bf65 8eb8 9917 67b6 3e5a af3a
000002b0: 4176 e33a 2423 863b a038 c43b 3806 123b
000002c0: 7987 e9ba 857c 45bb 4d26 6bbb f0d6 04ba
000002d0: 456b fc3a 2315 323b 05ad 843a cb43 3bbb
000002e0: 318f f83a 9efc cabb a822 71bb 31d5 4fbb
000002f0: afaf 9538 46cb bebb ff9a 8bbb 095e 1c3b
00000300: ddbd f03b b56a 1cba 0b13 22bc e469 4e3b
00000310: 1484 6dbb 4626 2a3b 1e6d b93b 1769 2a3a
00000320: 4cd1 35bb 6fa9 9cbb 1725 3fbb 453b febb
00000330: f2ef 9ebb 878c 30b9 e866 71bb 12d1 b4bb
00000340: 80d3 b9ba d199 74bb 3af4 2b3a 57b4 28b9
00000350: 81ec 5fbb 8ab2 7c3a a1ac f1ba 4524 7dbb
00000360: e20e ddba d6f9 76bb 9155 5139 f7f6 6139
00000370: dbd7 4bba 8917 32bb cef3 18bb f69b e1b9
00000380: ca30 c1b8 dcfe 2d3b acce 99bb 2604 8f3b
00000390: 385f 653b c5b3 283a 0fad 2e3b 6db7 be39
000003a0: a5ec e4ba d16e 3e3b 7209 253b edb3 b53a
000003b0: f5ea 4e3b ad54 f6ba 95e3 5eba 322b 28ba
000003c0: 0e5a deba 2419 26bb 276e 94bb c647 6f39
000003d0: bb32 553b ac01 283b 641c f9ba 782c 3b3b
000003e0: b4b9 bcb9 e178 c8b9 b61f d83a e793 f53a
000003f0: ae12 7abb e32b 3c3a 3f31 7c3b 8c8b 09ba
0.004616044 -0.003523062 0.00056870084 0.0051784255 0.004174463 0.0059601017 0.0071923095 0.0073730755
0.00048624014 0.0011846009 9.710557e-05 -0.0033508346 0.0029773975 -0.0036204804 0.003134857 0.008811431
-0.00025573967 -0.002963604 0.003110771 0.008311517 -0.00014619407 0.014107411 0.0044058133 -0.000424322
0.0062097018 -0.028079184 0.00990973 0.0037633185 -0.0031605386 0.004283798 0.0044912565 0.012563824
0.0053938143 0.002048853 -0.00031290407 -0.004414288 -0.0022260237 0.0012454576 -0.0044164164 0.0054293554
0.0031578732 0.0034028154 -0.000108145214 0.005428921 -0.0017333048 -0.002797701 0.0017261409 -0.020080535
0.007328258 0.004225071 0.0026273816 -0.0015077802 -0.0077281734 -0.0008933641 -0.01888755 0.0015808687
0.006056628 0.0015698437 -0.024502829 0.008894476 0.006407477 0.0020605887 0.00026378507 0.009419626
-0.005861029 -0.006596605 0.005748314 0.0050518815 0.0063445396 0.01159552 -0.0004898607 0.0063114758
0.0034562433 -0.0008490209 0.012451041 0.0075054695 0.0024462298 0.0019917514 0.008109309 0.009653648
0.0036462154 -0.0047619906 0.0038280531 -0.0038433033 -0.0040523796 0.0037054687 0.004851905 -0.008967563
0.0022919318 0.00078891957 0.002180267 -0.002125664 0.0053702137 -0.0046478007 0.0040908167 0.010069154
-0.0013767779 0.0034750383 0.0065706945 0.006064269 -0.0015359125 0.0017674578 0.0004888925 0.00079139
0.00026915263 0.00037152076 -0.0030669319 0.003376205 -5.8771064e-05 -0.0017397271 0.0033500271 -0.0028357627
0.00028726202 -0.0056199483 0.0007466514 0.0019654771 0.0004410652 -0.00011230372 -0.00019113111 -0.00025668155
-0.0014005321 -0.00033369876 0.00085429 -0.006941625 -0.00080052466 -0.00033796966 -0.0023702504 -0.004257283
-0.0036476655 -0.00034833406 -0.0012253706 0.004424268 -0.002966735 -0.005199399 -0.00012200819 -0.0051735854
-0.0030657556 0.0025585045 -0.0025052787 0.0019711882 -0.00080937025 -0.0029909764 -0.0010172535 -0.0011031177
-0.006397095 0.0012848804 -0.0050183693 -0.0012215223 -0.00035814365 -0.0021329408 -0.0027497015 -0.0019035548
-0.0060399678 0.0020346344 -0.00010155413 -0.0015897371 3.713939e-05 0.0013040367 0.0017205185 0.0034099736
-0.0005025899 -0.0022545161 -5.667038e-05 -0.0003133396 -0.0010359254 -0.0006910766 -0.00013307785 -0.0017742754
-0.00045681742 -6.790039e-05 -3.4435418e-06 0.0013378335 0.0017353968 0.0040935446 0.0059881955 0.0022281539
-0.0017816863 -0.0030134034 -0.0035880983 -0.00050674286 0.0019258043 0.0027173243 0.0010122365 -0.0028574343
0.0018963573 -0.006194665 -0.0036794338 -0.0031712765 7.137597e-05 -0.005822572 -0.0042604203 0.002385976
0.007346852 -0.00059668283 -0.0098922355 0.0031496221 -0.0036242055 0.0025962754 0.0056587597 0.0006500645
-0.002774316 -0.0047809402 -0.0029166394 -0.0077585303 -0.004850381 -0.00016837018 -0.0036835019 -0.005518087
-0.0014177412 -0.0037323127 0.0006559525 -0.0001608891 -0.0034168067 0.00096396415 -0.0018438288 -0.0038626355
-0.0016865397 -0.0037685535 0.00019963669 0.00021549674 -0.00077760004 -0.0027174673 -0.0023338678 -0.00043031544
-9.212045e-05 0.0026549613 -0.0046938267 0.004364508 0.0034999382 0.0006435479 0.0026653444 0.00036376287
-0.0017465545 0.002905775 0.0025182632 0.0013862826 0.003157315 -0.0018793546 -0.00085025403 -0.0006415128
-0.0016964094 -0.0025344575 -0.0045297327 0.00022819554 0.0032531458 0.0025635762 -0.0019005653 0.002856044
-0.00035996514 -0.00038237034 0.0016488943 0.0018736095 -0.0038158107 0.00071781705 0.0038481501 -0.00052469294

gbrbm.b f4 [100]
00000000: d1b4 3fbe acc9 7fbe d298 05bf 18ba 11bf
00000010: 1e88 2abf 179e 3cbf 17f5 35be 93bc e3be
00000020: 8034 09bf aab3 cabe e134 e6be eb47 ccbe
00000030: 11ef ecbe 4aca 0dbf b8a4 25bf e792 acbe
00000040: 52e0 aabf 17f7 24bf 4df9 debe bd15 30bf
00000050: d63f f9be e886 a8bf 8b37 10bf e0f2 10bf
00000060: c910 18bf 281c 1640 4ab1 37bf 44c8 38bf
00000070: 5afb 2abf 0a1d 18bf 2c77 5abf 04b3 debe
00000080: b116 edbe 4260 37bf 8782 03bf a33f fdbe
00000090: 8bf0 25bf fd3e 08bf a892 82be 4041 0dbf
000000a0: da25 d2be cd2c f7be a856 0ebf 1648 0ebf
000000b0: 02d0 11bf 91c1 a2be 7911 24bf c2c9 d23f
000000c0: ee31 e2be 2611 d8be 772d 26bf e0ef 2ebf
000000d0: e240 2bbf 9f63 fabe 53f5 cc3f 8804 3dbf
000000e0: ed14 0fbf 10c2 d1be 5c56 ee3f 7cf5 1bbf
000000f0: 216e 2abf b0c4 1cbf ebe5 f1be fe47 ccbf
00000100: 6bff bebe ec5f dbbe c254 04bf be95 e8be
00000110: adcb e2be b8e0 ddbe 829b 15bf 2441 05bf
00000120: 62fe 1ebf c020 28bf 52b6 09bf 7295 2ebf
00000130: ece9 33bf b90a 5abf 39b4 aebe bc96 78bf
00000140: fd14 cabe 090f cdbd 45df 07bf 092c 5dbf
00000150: d141 1dbf 111b 47bf b0d9 07bf 6c4e 0dbf
00000160: 0bd6 3dbf 8baa 2cbf 35f5 e5be 23c1 31bf
00000170: e849 09bf 161e 0cbf dc27 0cbf f0fc fabe
00000180: 8d4c 2abf 7a64 11bf abce 26bf 8df3 34bf
-0.1872132 -0.24979275 -0.5218631 -0.5692458 -0.6661395 -0.73678726 -0.17769276 -0.44479808
-0.53595734 -0.39590198 -0.44962218 -0.3989862 -0.46276143 -0.55386794 -0.64704466 -0.33705828
-1.3349707 -0.6443953 -0.43549576 -0.6878317 -0.48681515 -1.316617 -0.5633475 -0.566206
-0.5940061 2.3454685 -0.71754897 -0.7218058 -0.6678978 -0.5941931 -0.8533809 -0.43495953
-0.46306375 -0.7163125 -0.51371044 -0.49462613 -0.64820164 -0.5322111 -0.25502515 -0.5517769
-0.41044503 -0.48276368 -0.55600977 -0.55578744 -0.5695802 -0.31788304 -0.6408916 1.6467822
-0.44178718 -0.42200583 -0.64913124 -0.6833477 -0.6689588 -0.4890413 1.6012367 -0.7383504
-0.55891305 -0.4096837 1.8620105 -0.60921454 -0.66574293 -0.6123762 -0.47245726 -1.595947
-0.37304243 -0.4284662 -0.5169183 -0.45426744 -0.44296017 -0.4333551 -0.5844041 -0.5205252
-0.6210691 -0.6567497 -0.53793824 -0.68196785 -0.7027881 -0.8517261 -0.34121874 -0.97105
-0.39469138 -0.10012633 -0.5307506 -0.8639532 -0.6142855 -0.77775675 -0.5306654 -0.5519779
-0.7415473 -0.6744773 -0.4491364 -0.6943533 -0.53628397 -0.5473341 -0.5474832 -0.490211
-0.6652306 -0.5679394 -0.651591 -0.7068413

gbrbm.mu f4 [50]
00000000: 116e 85bd 4f28 0e3d e328 a43c 5d58 31bd
00000010: 6cfa a33b a7db dc3b cad3 f0bc 5dd2 99bb
00000020: e8ef b6ba ff7a 0dbb 7387 73bc 1213 3c39
00000030: 9a63 6c3a 9834 7d3d a85f ffbc 57e5 a8bc
00000040: 84a4 4cbd 3d33 04bc 9039 1ebc e689 883b
00000050: 1eca 3cbd d5c9 b6bc d506 a23d f51a 163c
00000060: d174 c1bc f0bf fbbb 02c5 973a da0d 04bd
00000070: eea2 a03d 0168 4c3c b71a 9ebc 1083 e3bc
00000080: 86ae f63c eea2 4e3d 9663 893c 86b3 ab3c
00000090: 91d3 ab3c d293 36bd 2d90 ef3b 14c6 97bc
000000a0: 29f1 e5bc 77d4 903c a99a cbbc ebbd 2f3c
000000b0: ba5e 9c39 f14d 20bc eddd 99bc debd f83c
000000c0: 8b29 d7bb 29f9 dc3c
-0.06515134 0.03470641 0.020039028 -0.04329716 0.005004218 0.006740052 -0.029397864 -0.0046942667
-0.0013956996 -0.0021588204 -0.014863837 0.00017936181 0.00090175273 0.061817735 -0.031173542 -0.02061717
-0.04996158 -0.008068857 -0.009657279 0.0041668294 -0.04609119 -0.022313038 0.07911459 0.0091617005
-0.023615273 -0.007682793 0.0011579099 -0.032239772 0.07843576 0.012475968 -0.019299848 -0.027772456
0.030112516 0.05044835 0.01677112 0.020959627 0.020974906 -0.044574566 0.0073108883 -0.018527068
-0.028069096 0.017679436 -0.024854021 0.010726432 0.00029825215 -0.009784208 -0.01878258 0.030363973
-0.0065662316 0.026974278

gbrbm.log_var f4 [50]
00000000: cf22 a8c0 6f63 c8c0 4e64 d0c0 f86c cac0
00000010: f262 d7c0 11b4 c8c0 1e50 d0c0 4a8d d7c0
00000020: 8117 d1c0 47ac d9c0 b2b7 c4c0 c1ed d7c0
00000030: 57b9 d0c0 d1bb a9c0 a93b d7c0 81f5 d3c0
00000040: 9ca1 b1c0 aa08 d9c0 324f d9c0 13a0 d7c0
00000050: 2f1a b9c0 b2b7 c4c0 c0cb a9c0 87a8 c3c0
00000060: 1090 d4c0 d73e b7c0 9177 d3c0 a5b5 b5c0
00000070: b735 abc0 9d64 dac0 792d d7c0 d327 dac0
00000080: bbdd d1c0 ed22 a9c0 0e3b d9c0 7548 d7c0
00000090: 66fb d8c0 0e54 d8c0 eaed c3c0 eb21 d6c0
000000a0: 4745 c9c0 295f d8c0 41dc bfc0 f4bb d7c0
000000b0: 66ad d5c0 ae57 d7c0 4531 d8c0 db31 d6c0
000000c0: 1106 d6c0 d112 d8c0
-5.254249 -6.262138 -6.512244 -6.325802 -6.7308283 -6.271981 -6.50978 -6.735997
-6.534119 -6.80228 -6.1474237 -6.7477727 -6.5226245 -5.304177 -6.7260327 -6.6237187
-5.5509777 -6.7823076 -6.7909174 -6.7382903 -5.7844462 -6.1474237 -5.306122 -6.114322
-6.6425858 -5.726421 -6.6083455 -5.6784234 -5.350307 -6.824782 -6.724301 -6.8173614
-6.5583167 -5.2855134 -6.788459 -6.727595 -6.7806883 -6.7602606 -6.1227922 -6.6916404
-6.2897067 -6.761616 -5.9956365 -6.7416935 -6.677417 -6.729453 -6.7560143 -6.693586
-6.6882405 -6.752297

gbrbm.linear_layer.weight f4 [1, 100]
00000000: c8c2 183d a7d3 adbd 7132 c33d 3056 183d
00000010: 7bdc 033e 3457 5e3e dd72 dcbd 05b1 a2bd
00000020: 4bbd 4a3d 7ead f13c 2080 1e3d 70e8 4abd
00000030: 6dcb dd3b 5638 c8bc 9d30 913d 81a6 873d
00000040: c581 d13e 1706 0c3e 966b e1bd 9d41 113d
00000050: 3ff3 5e3c 5bde 863e e9bb 2c3e 1307 a2bd
00000060: c4a6 083c 77b9 3bbe b021 593d 251e ce3d
00000070: e182 cc3d b648 303c 3f43 153e 433c 36bd
00000080: e34a 2f3d 2f8b 4a3b b40b 1c3d 6462 bdbd
00000090: 8286 e53c 3544 bdbd 2562 fbbd 94c7 df3d
000000a0: 8098 0bbd 0b15 ebbd 6053 3f3c 07c5 883c
000000b0: c833 59bd c217 18bd f17d 773d d00b 5fbe
000000c0: cbf9 15bd e3f9 6bbd 1725 503c 9ac6 d83d
000000d0: cd78 ff3d dded 883b 0664 66be 8a07 003e
000000e0: f770 82bd a57f 4a3c 424e 45be a89b 163d
000000f0: 90da f43d 454e 0dbd 4f34 d4bd daea fb3e
00000100: 6a84 a8bd db27 a5bd 5d14 493d 23ef 5bbd
00000110: 84e4 073d 79e5 b6bc f1a9 88bd dd25 103c
00000120: 2747 953d 59e6 d33d f1c2 823d 0338 9d3d
00000130: 45ea 203e ed28 0d3e 57c2 d1bc 745c 623e
00000140: 64f6 d6bc bf29 51be 03f5 103c 2337 383e
00000150: 1156 bd3c 2215 a93d 43a1 0b3d d639 1bbd
00000160: 6180 013e ec0c 443d 7b2a 923c 5dc0 c03d
00000170: e89b febc 1771 ebbc eca0 d5bc 6e15 ae3b
00000180: 553b 363d 1521 0a3d 93c6 9e3d c936 b13d
0.037295133 -0.08487635 0.09531105 0.03719157 0.12877075 0.21712953 -0.10764096 -0.0794392
0.04949693 0.029501673 0.03869641 -0.049538076 0.006768635 -0.024440926 0.070893504 0.06623555
0.4091932 0.13674198 -0.110068485 0.035462964 0.013607799 0.2634152 0.16868557 -0.079115056
0.008340541 -0.18332468 0.053010643 0.10064343 0.09985901 0.010759523 0.14576434 -0.044491064
0.042796027 0.0030905714 0.0380971 -0.09247282 0.02801824 -0.09241525 -0.12274579 0.109267384
-0.034080982 -0.11478623 0.011677593 0.016695512 -0.053027898 -0.037132032 0.06042284 -0.2178185
-0.036615174 -0.057611357 0.012704155 0.10584755 0.12474213 0.004178746 -0.22499093 0.12502876
-0.063692026 0.012359534 -0.19268134 0.03676954 0.1195575 -0.03449847 -0.103615396 0.49202615
-0.08228381 -0.080642425 0.049091686 -0.053694855 0.033176914 -0.022326218 -0.06673039 0.00879809
0.07288962 0.1034667 0.06384838 0.07676699 0.15714367 0.13785143 -0.025605364 0.2210558
-0.026240535 -0.20426081 0.008847478 0.17989783 0.023112329 0.08255984 0.034089338 -0.037896954
0.12646629 0.047863886 0.017842522 0.094116904 -0.031080201 -0.028740449 -0.02607771 0.005312613
0.044490177 0.033722956 0.07752719 0.086530276
