final_project/lstm_gbrbm_H_per_2 (drop 0.1)/type1/lstm_gbrbm_W5_H50_B16.pt (torch, 78609 bytes, 9 tensors)

lstm_layer.lstm1.weight_ih_l0 f4 [200, 16]
-0.0020689077 -0.0018761426 -0.0020699797 -0.0008981421 -0.0006417046 -0.0014574872 -0.0008818112 -0.0015988143
-0.0006381197 -0.0009933867 0.00017480309 -0.0007929045 0.00092525536 -0.0006638117 -0.0020588818 -0.0019842745
-0.00025975844 -0.00024038179 -0.0002544118 0.00022395233 3.0358335e-05 0.00020610601 0.0001957478 0.00023112736
5.8665046e-05 -0.0002803515 -5.206025e-05 0.00024004806 0.00032505253 0.00021256774 -0.00022881114 -0.00022103681
-0.00010808321 -0.0001242517 -0.00015361108 0.00042983322 0.0005626484 0.00053730496 0.00061276025 0.0004481893
0.0005524081 -0.0012388912 0.00024175005 0.0005580041 0.0012017768 0.00047675314 -0.00018260047 -0.00019695584
-0.0014707551 -0.0013175731 -0.0015706512 -0.00013013976 -0.00063843804 -0.00040526688 -1.9592539e-05 0.0002527247
-0.0006878059 -0.0012970692 -0.00012689547 0.00010786185 0.0016976972 0.00021339284 -0.0015441856 -0.0016724966
-0.00092515105 -0.0010001591 -0.0009913914 0.0005263561 0.00011038803 3.3993816e-05 0.0005056742 0.00097509177
0.00013930038 -0.0014391539 -7.4634176e-05 0.00064505206 0.0015460952 0.000897545 -0.0009792821 -0.0011149882
0.00020741585 0.0002478848 0.00023282356 -0.00011545576 -7.438302e-05 6.045421e-05 -6.83173e-05 -8.309499e-05
-7.3943345e-05 8.6934e-05 -4.7998783e-05 -8.372418e-05 -9.511881e-05 1.8073692e-05 0.00022972589 0.00019535082
0.0005993141 0.0006141025 0.000605932 0.00044164102 0.00059141585 0.00030380415 0.0004682032 0.0004654609
0.0006106376 -0.00030040226 0.0002983324 0.00015887509 0.00041922997 0.00030331366 0.0006654257 0.00052401226
-0.0010552936 -0.0010169585 -0.0010490934 0.0020625195 0.0014539182 0.0012800214 0.0016557487 0.0012756725
0.00136933 -0.0013384636 0.00081613363 0.0018058148 0.0011327734 0.001636332 -0.0010209262 -0.0010375425
-0.000937848 -0.0009312912 -0.0009379165 0.00036694636 0.00031295867 0.00037079025 0.0004910211 0.00067640195
0.0002711656 -0.0011516652 6.6502085e-05 0.00015690917 0.0012750871 0.00027126737 -0.0009046264 -0.00097175717
-0.00027139677 -0.00026868784 -0.0002538894 0.00018358402 0.00060200645 -0.00014040116 0.000881593 0.00016146112
0.0006019898 -0.0027339752 0.00060663035 2.9153673e-06 0.0027464393 0.0008126631 -8.71343e-05 -0.00044941684
-0.00018014669 -0.00017760659 -0.00018922106 0.00045492928 0.00027229617 0.00024411004 0.0003724077 0.0003966887
0.00022561722 -0.00048126065 8.283176e-05 0.000390227 0.00041215948 0.0003909957 -0.00012781372 -0.00023210121
1.0617859e-05 1.0746381e-05 2.5887479e-05 -0.00031934923 -0.00016874685 -0.0004176985 -0.00010733473 -0.0007338161
-2.2081624e-05 -0.00030685036 -2.564859e-05 -0.0003406132 0.00026306818 0.00010903349 3.266762e-05 -4.8248717e-06
0.0017553553 0.0017930187 0.0017754467 0.0015081199 0.0018510536 0.0010501634 0.0015052791 0.00051542145
0.0019338616 -0.0008123611 0.0008864546 0.0015660325 0.00086841854 0.0009608648 0.001840576 0.001655075
-0.000116046576 -6.13071e-05 -4.799584e-06 0.0011936811 0.001134352 0.0009439767 0.0010612536 4.964503e-05
0.00075105106 0.0011289102 0.0004371448 0.00042073912 -0.0017517753 0.0005418133 0.00016612058 -0.00017194604
-0.00096883846 -0.0009454133 -0.0009565094 0.0016280515 0.0016000036 0.00045999765 0.0011795395 0.0010949447
0.0017644839 -0.0016273101 0.0010916641 0.0017377794 0.0012995737 0.0018023644 -0.0008480747 -0.0010862086
0.0009713758 0.0010218113 0.001064146 0.0014438513 0.002254151 -0.00030494726 -3.468399e-05 -0.008138649
0.0022542449 0.0069733574 0.001905805 -0.0017084931 -0.011919439 -0.0013336167 0.0018135833 0.00015101586
00000000: 8396 07bb e6e8 f5ba 7fa8 07bb 4c71 6bba
00000010: 1138 28ba 2809 bfba 5929 67ba 4e8f d1ba
00000020: 7d47 27ba 8734 82ba 594b 3739 ecda 4fba
00000030: d68c 723a a603 2eba 4eee 06bb 9a0a 02bb
00000040: 3030 88b9 ff0e 7cb9 9362 85b9 bfd4 6a39
00000050: 07aa fe37 291e 5839 a641 4d39 c75a 7239
00000060: 1d0f 7638 24fc 92b9 455b 5ab8 69b5 7b39
00000070: d06b aa39 b8e4 5e39 06ed 6fb9 1ec6 67b9
00000080: bbaa e2b8 9049 02b9 a912 21b9 3d5b e139
00000090: b27e 133a edd9 0c3a a5a1 203a f3fa ea39
000000a0: 7bcf 103a 4a62 a2ba 497e 7d39 0547 123a
000000b0: f084 9d3a b9f4 f939 7178 3fb9 ee85 4eb9
000000c0: 5ac6 c0ba 6bb2 acba 4fde cdba 2076 08b9
000000d0: da5c 27ba 007a d4b9 a85a a4b7 2380 8439
000000e0: df4d 34ba 6c02 aaba 3e0f 05b9 e433 e238
000000f0: 4485 de3a 34c2 5f39 4566 caba ac37 dbba
00000100: d685 72ba c517 83ba 93f1 81ba 29fb 093a
00000110: 1f80 e738 9594 0e38 398f 043a 4d9d 7f3a
00000120: 2911 1239 fea1 bcba eb84 9cb8 b618 293a
00000130: 59a6 ca3a 3a49 6b3a 415b 80ba cc24 92ba
00000140: c57d 5939 89f6 8139 1922 7439 d720 f2b8
00000150: 14fe 9bb8 3790 7d38 9245 8fb8 4843 aeb8
00000160: 0812 9bb8 5650 b638 4d52 49b8 1495 afb8
00000170: 867a c7b8 f59c 9737 93e2 7039 16d7 4c39
00000180: 4a1b 1d3a b9fb 203a 68d7 1e3a 0e8c e739
00000190: 3f09 1b3a e747 9f39 2b79 f539 1b09 f439
000001a0: 3213 203a 4f7f 9db9 7f69 9c39 b597 2639
000001b0: 18cc db39 1206 9f39 f66f 2e3a de5d 093a
000001c0: c751 8aba 774b 85ba bc81 89ba 562b 073b
000001d0: 6691 be3a 64c6 a73a b505 d93a 7734 a73a
000001e0: 177b b33a 636f afba cdf1 553a 17b1 ec3a
000001f0: 9179 943a 317a d63a 99d0 85ba 26fe 87ba
00000200: ead9 75ba e521 74ba 83de 75ba b562 c039
00000210: 9a14 a439 a066 c239 deb7 003a 9150 313a
00000220: 3b2b 8e39 79f3 96ba 0977 8b38 fc87 2439
00000230: d320 a73a e438 8e39 7324 6dba 85bd 7eba
00000240: 424a 8eb9 acde 8cb9 751c 85b9 7680 4039
00000250: f8cf 1d3a a638 13b9 b41a 673a e44d 2939
00000260: dace 1d3a 7e2c 33bb 4606 1f3a a1a5 4336
00000270: 9bfd 333b e608 553a dfbb b6b8 b59f ebb9
00000280: c2e5 3cb9 e83b 3ab9 a469 46b9 9383 ee39
00000290: f9c2 8e39 caf7 7f39 b73f c339 a8fa cf39
000002a0: a993 6c39 b651 fcb9 f6b5 ad38 6297 cc39
000002b0: 1c17 d839 8efe cc39 bc05 06b9 3260 73b9
000002c0: 5b23 3237 5b4b 3437 f028 d937 546e a7b9
000002d0: a3f1 30b9 8bfe dab9 e518 e1b8 915d 40ba
000002e0: ed3b b9b7 c2e0 a0b9 ed27 d7b7 5494 b2b9
000002f0: 6aec 8939 e9a8 e438 9704 0938 55e5 a1b6
00000300: f313 e63a b903 eb3a 1bb6 e83a 1bac c53a
00000310: 0d9f f23a a3a5 893a c94c c53a 591d 073a
00000320: a179 fd3a a1f4 54ba f660 683a 5543 cd3a
00000330: 95a6 633a 8ce2 7b3a 7b3f f13a 1aef d83a
00000340: 085e f3b8 0092 80b8 1d0c a1b6 4b75 9c3a
00000350: 89ae 943a 3475 773a c319 8b3a f239 5038
00000360: 2fe2 443a f1f7 933a 9530 e539 a696 dc39
00000370: d39b e5ba 7a08 0e3a a730 2e39 6a4c 34b9
00000380: a6f9 7dba 9dd5 77ba 42be 7aba 5864 d53a
00000390: 36b7 d13a d72b f139 c79a 9a3a 3f84 8f3a
000003a0: 4146 e73a 774b d5ba 2b16 8f3a 33c6 e33a
000003b0: 7556 aa3a 503d ec3a 5451 5eba 1d5f 8eba
000003c0: eda3 7e3a 4cee 853a d17a 8b3a 9c3f bd3a
000003d0: 61ba 133b 54e1 9fb9 a779 11b8 f857 05bc
000003e0: f4bb 133b c380 e43b 34cc f93a 84ef dfba
000003f0: c049 43bc c0cc aeba c2b5 ed3a 035a 1e39

lstm_layer.lstm1.weight_hh_l0 f4 [200, 50]
0.00010492873 -7.761154e-06 2.460018e-05 -8.185435e-05 -1.8044873e-05 -5.7644935e-05 4.2565498e-05 -4.398517e-05
1.0045344e-05 0.00013358981 9.719628e-06 -9.411402e-05 0.00014430618 -4.6794048e-05 6.693878e-05 0.00046040598
2.2936214e-05 -3.449206e-05 -6.686845e-05 -9.4543375e-06 0.00036559894 -5.3564996e-05 0.00025685976 7.58288e-05
6.55417e-05 -0.00041294878 6.646535e-05 -0.000120874596 8.550714e-06 1.7745404e-05 0.00012926642 3.5978184e-05
-3.0496945e-05 2.9495162e-05 6.419855e-05 -8.359367e-05 0.00041190838 -4.7131965e-05 -0.00013601471 1.0576849e-06
-2.31774e-05 -3.8400517e-06 2.7259313e-05 -3.1981945e-05 0.00034846153 0.0001298617 6.2720595e-05 -2.4380683e-05
-5.5338264e-06 5.263322e-06 1.04928295e-05 -2.2205945e-06 6.2403383e-06 -8.868173e-06 -6.9629386e-06 -4.5504344e-06
1.6367795e-06 5.7044176e-06 2.3944451e-06 2.5560044e-05 7.4789887e-06 -2.290826e-05 8.117657e-06 -3.9423804e-07
9.26203e-06 1.5166477e-05 6.0099924e-06 -1.0710154e-05 -9.581624e-06 -1.0991323e-06 1.8055602e-05 -5.216126e-06
1.652573e-05 5.0895665e-06 5.4520037e-06 -5.0527335e-05 5.06876e-06 -1.2692241e-05 3.6923402e-06 2.7192368e-07
9.395041e-06 2.884682e-06 -6.1631836e-06 3.043566e-06 1.0406034e-05 -8.769106e-06 4.4297954e-05 -2.4891438e-06
-1.387146e-05 3.973659e-06 -3.366116e-06 -4.2401953e-06 -5.471215e-06 -9.05925e-06 1.584479e-05 6.6059765e-06
1.5892005e-05 -2.571511e-06 -3.2226174e-07 1.8503679e-06 -7.1596683e-06 -3.969617e-06 -1.1128701e-05 1.817927e-05
-3.1305113e-05 -3.3162903e-06 5.242374e-06 -3.5140856e-05 -2.1709197e-05 -8.10698e-05 7.622188e-07 2.0995436e-05
1.1086132e-06 2.0043177e-05 -2.6534726e-05 -5.4177264e-05 -9.8847e-07 -1.2014092e-05 6.800257e-07 -1.0170713e-05
-3.808475e-05 -2.253738e-05 -0.00013092259 2.3695775e-06 3.127528e-06 2.9373577e-05 -4.7676745e-05 5.9593774e-05
1.6718863e-05 2.2516256e-06 1.4107386e-05 -3.3858836e-05 -1.3005876e-05 1.3690444e-06 -8.027791e-06 1.3772244e-06
-2.1258156e-05 3.2660395e-05 0.00017587522 -1.4677743e-06 -1.8650864e-05 1.1615619e-05 -6.0251616e-05 -1.26804225e-05
-2.143756e-05 2.0561806e-06 1.2731217e-06 -5.2492796e-06 8.531552e-06 -7.852562e-06 0.00016335465 -1.8650313e-05
1.3488402e-05 -0.00013724422 -3.66834e-05 -9.646908e-05 7.8655736e-05 -1.3169557e-05 1.5405069e-06 0.0001838614
2.4445106e-05 -8.413041e-05 0.00016764853 -6.0238417e-05 4.8329533e-05 0.0008220083 4.6778845e-05 -0.00017407651
-3.5480796e-05 -3.149794e-05 0.000659522 -4.7654874e-05 0.0004778116 0.000108378605 8.406212e-05 -0.0008670674
-4.9013666e-05 -0.00020631538 6.6690845e-05 8.478947e-06 0.00018489697 4.1245636e-05 -6.112419e-05 -1.0710943e-08
5.406076e-05 -3.528426e-05 0.00046599496 -3.211032e-05 -0.00011501764 1.0112353e-06 -3.250231e-05 -6.0333245e-05
-9.015961e-06 -0.00012321585 0.00057983014 -0.00019370856 0.00013860877 -5.0363302e-05 -4.102847e-06 1.57075e-05
4.6876325e-05 -1.2082051e-05 -1.1428589e-05 -4.087637e-05 -2.4646404e-05 -2.0641719e-05 1.6948965e-05 1.7347656e-06
2.9040873e-06 0.00016855288 6.9994667e-06 -3.511719e-05 -1.6626263e-05 -2.74502e-05 -2.9829172e-05 0.0003649968
1.8282279e-05 -7.433311e-05 -3.4718334e-05 -1.0250429e-05 7.991753e-05 -2.7708835e-05 0.00017201246 6.7691704e-05
3.5493347e-05 -0.00038095875 -4.6998015e-05 -5.8282356e-05 2.8666263e-05 6.535874e-06 -3.974791e-05 2.1907526e-05
-3.5680863e-05 2.6187177e-05 1.1941184e-05 -3.2331463e-05 0.00026080673 -1.4999666e-05 -9.1871116e-05 3.1742093e-07
-2.384908e-05 -2.922966e-05 -1.9575858e-05 -8.457842e-05 6.182983e-05 3.820566e-05 8.525135e-05 -2.4168356e-05
-2.63958e-05 -2.5019504e-05 5.1279985e-06 -4.34688e-06 9.855102e-07 -4.857242e-06 -5.7688345e-07 -1.6210914e-06
00000000: 2f0d dc38 e735 02b7 7c5c ce37 38a9 abb8
00000010: 125f 97b7 c7c7 71b8 5b88 3238 b77c 38b8
00000020: 6d88 2837 3e14 0c39 7c11 2337 145f c5b8
00000030: e550 1739 ba44 44b8 7c61 8c38 a562 f139
00000040: 2567 c037 91ab 10b8 ba3b 8cb8 129e 1eb7
00000050: dcad bf39 faaa 60b8 22ab 8639 4706 9f38
00000060: 6f73 8938 0c81 d8b9 5063 8b38 0e7e fdb8
00000070: 0975 0f37 f7db 9437 b18b 0739 48e7 1638
00000080: b1d3 ffb7 616c f737 56a2 8638 034f afb8
00000090: 68f5 d739 90af 45b8 2c9f 0eb9 c7f5 8d35
000000a0: 166d c2b7 cbd9 80b6 eeaa e437 5a24 06b8
000000b0: b7b1 b639 7c2b 0839 dd88 8338 1e85 ccb7
000000c0: 35af b9b6 979b b036 5c0a 3037 8605 15b6
000000d0: 1964 d136 83c8 14b7 30a3 e9b6 efaf 98b6
000000e0: 51af db35 9368 bf36 41b0 2036 c769 d637
000000f0: 06f4 fa36 1d2b c0b7 1231 0837 aaa7 d3b4
00000100: 1e64 1b37 8673 7e37 71a9 c936 c3af 33b7
00000110: c3c0 20b7 e685 93b5 1c76 9737 2e06 afb6
00000120: bca0 8a37 0bc7 aa36 5bf0 b636 50ed 53b8
00000130: 5114 aa36 c3f0 54b7 ecc9 7736 e8fc 9134
00000140: 659f 1d37 7696 4136 58cd ceb6 1140 4c36
00000150: 9395 2e37 061f 13b7 91cc 3938 2a0b 27b6
00000160: 78b9 68b7 7955 8536 6fe5 61b6 0047 8eb6
00000170: 6195 b7b6 2ffd 17b7 6dea 8437 e8a8 dd36
00000180: d24f 8537 3992 2cb6 5103 adb4 285a f835
00000190: 153d f0b6 c032 85b6 68b5 3ab7 af7f 9837
000001a0: 9c4d 03b8 6f8d 5eb6 a6e7 af36 3564 13b8
000001b0: 251c b6b7 0404 aab8 479b 4c35 5b1f b037
000001c0: a9cb 9435 6522 a837 e496 deb7 653c 63b8
000001d0: 92ab 84b5 2290 49b7 038b 3635 e1a2 2ab7
000001e0: 30bd 1fb8 a80e bdb7 4448 09b9 0805 1f36
000001f0: 86e2 5136 4767 f637 84f8 47b8 54f4 7938
00000200: 7c3f 8c37 a21a 1736 c3ae 6c37 a603 0eb8
00000210: d033 5ab7 02c0 b735 1aaf 06b7 12d9 b835
00000220: 8b53 b2b7 d5fc 0838 256b 3839 5700 c5b5
00000230: 6d74 9cb7 b4e0 4237 aeb6 7cb8 00be 54b7
00000240: cfd4 b3b7 eafc 0936 21e0 aa35 f822 b0b6
00000250: bd22 0f37 7fbe 03b7 2e4a 2b39 3e73 9cb7
00000260: 3f4c 6237 37e9 0fb9 80dc 19b8 714f cab8
00000270: faf3 a438 d1f2 5cb7 6ac3 ce35 ebca 4039
00000280: 770f cd37 2c6f b0b8 cfca 2f39 82a8 7cb8
00000290: 71b5 4a38 0b7c 573a 6734 4438 4f88 36b9
000002a0: 37d1 14b8 a81c 04b8 c6e3 2c3a 08e1 47b8
000002b0: ca82 fa39 5249 e338 824a b038 e94b 63ba
000002c0: 0694 4db8 5d56 58b9 60dc 8b38 cd40 0e37
000002d0: e7e0 4139 2aff 2c38 cd2f 80b8 3a03 38b2
000002e0: 4dbf 6238 30fe 13b8 c950 f439 32ae 06b8
000002f0: a035 f1b8 c8b9 8735 1753 08b8 540e 7db8
00000300: 4243 17b7 8133 01b9 beff 173a 3f1e 4bb9
00000310: 8257 1139 2f3d 53b8 30ab 89b6 99c3 8337
00000320: 129d 4438 04b4 4ab7 6abd 3fb7 ab72 2bb8
00000330: c0bf ceb7 c127 adb7 a02d 8e37 18d6 e835
00000340: d7e3 4236 92bd 3039 f6dc ea36 cc4a 13b8
00000350: a178 8bb7 db44 e6b7 a939 fab7 0b5d bf39
00000360: e55c 9937 49e3 9bb8 879e 11b8 42f9 2bb7
00000370: 6699 a738 4570 e8b7 3e5e 3439 b5f5 8d38
00000380: b1de 1438 6bbb c7b9 bc1f 45b8 3474 74b8
00000390: 5578 f037 bb4e db36 feb6 26b8 0ec6 b737
000003a0: 09a8 15b8 89ac db37 ff56 4837 a59b 07b8
000003b0: e3bc 8839 13a7 7bb7 eeaa c0b8 006a aa34
000003c0: 820f c8b7 3832 f5b7 d636 a4b7 b25f b1b8
000003d0: a3aa 8138 043f 2038 f8c8 b238 26bd cab7
000003e0: 8d6c ddb7 fae0 d1b7 2c11 ac36 6adb 91b6
000003f0: df45 8435 64fb a2b6 21db 1ab5 4794 d9b5

lstm_layer.lstm1.bias_ih_l0 f4 [200]
-0.0014195074 -0.00043346055 -0.0010056598 -0.002270813 -0.0024049676 3.9968127e-05 -0.00030118038 -0.0014832187
-0.0011828158 -0.002721977 -0.000629088 -0.00034302837 -0.0018159342 0.00016396007 -0.002036541 0.009609809
-0.0011091133 -0.0012293443 -0.00015316436 -0.0016900027 0.0049987882 -0.00096826453 -0.001233471 -0.0008380044
-4.1290496e-05 0.010386282 -0.00034919023 -0.0027832019 -0.00024445844 -0.00024488 -0.00063357 0.00010046865
-0.00045968872 -0.0013777211 -0.0008225301 9.031478e-05 0.005441661 -0.002068027 0.000386671 -0.00031251102
6.4450236e-05 -0.00022012585 -0.0015689272 -8.805339e-05 0.00085929676 0.00033277896 -0.00034947373 -8.567737e-05
-0.0017305643 -0.0008262881 -0.0011163326 -0.00034507323 -0.0010397476 -0.0023008152 -0.001825556 1.3572074e-05
-0.0003614122 -0.00088555954 -0.0010165968 -0.0025728848 -0.00055819476 -0.00039800678 -0.0018664555 7.8288635e-05
-0.0018480215 0.0077717737 -0.00068787736 -0.0013878554 -0.000116988 -0.0012038582 0.0039663664 -0.00060056255
-0.0013487457 -0.0012129459 7.327202e-05 0.008717128 -0.0005062697 -0.0025407127 -5.6440433e-05 -0.00021799303
-0.0006602248 0.0002127524 -0.00022145863 -0.0012652494 -0.0010413073 0.000120346434 0.0042881267 -0.0013999895
4.1087546e-06 -0.00032095893 0.0005011019 -0.0005855933 -0.0013439374 -0.00019405615 0.00036659333 0.00010124315
-0.00028198436 -8.034529e-05 -0.0015877949 -0.0006144029 -0.009282375 0.0037070366 0.005723211 0.0033703581
-0.00015494757 0.004652792 -0.008641437 0.008020131 0.010079457 0.0068910914 0.0027844538 0.011574935
-0.0040452117 -0.0013949056 -0.0021256702 0.013896902 -0.00034439858 0.0029815189 0.0028329105 0.006479416
0.012452583 0.008335034 0.00903447 0.0011172532 -0.005458785 -0.01108822 -0.004064089 -0.0056801294
-0.013020755 -0.0016790947 -0.010077235 -0.0041883714 0.0022951711 0.0013343911 9.105284e-06 0.005893667
0.008761425 -0.003795113 0.003235374 0.0004990701 0.010292047 -0.0020534706 0.009378932 0.01137522
0.0069043995 -0.004008493 -0.011624548 0.004393255 -0.0059697432 -0.0044835634 -0.0012740919 -0.0004336845
-0.0012426458 -0.002147042 -0.0024079587 3.4564317e-05 -0.00034651035 -0.0016786278 -0.001203623 -0.0026301735
-0.00062381284 -0.0003780482 -0.001654938 0.00040985394 -0.0018715715 0.012179629 -0.0011106767 -0.0010970287
-0.00015133705 -0.0017089165 0.0059547485 -0.0009874704 -0.001029181 -0.0009155757 -2.1377151e-05 0.01282611
-0.00023443725 -0.0027299575 -0.00021370647 -0.00024247606 -0.0006126109 -5.4527427e-05 -0.0004353376 -0.0013578341
-0.00081474514 9.266962e-05 0.0067544263 -0.002060918 0.00032209777 -0.00028616158 0.00019175206 -0.00036818083
-0.0013441104 -8.422942e-05 0.0013559763 0.00042531153 -0.00036353944 -9.761437e-05 -0.0016145078 -0.00082899834
00000000: c40e baba 1742 e3b9 58d0 83ba ecd1 14bb
00000010: a99c 1dbb 73a3 2738 bfe7 9db9 9068 c2ba
00000020: b608 9bba 3263 32bb 62e9 24ba 7dd8 b3b9
00000030: a404 eeba b2ec 2b39 7d77 05bb 7672 1d3c
00000040: ab5f 91ba f321 a1ba bf9a 20b9 1583 ddba
00000050: e0cc a33b 22d3 7dba 6bac a1ba 86ad 5bba
00000060: 552f 2db8 392b 2a3c 8513 b7b9 6166 36bb
00000070: a82a 80b9 3d63 80b9 2a16 26ba b2b2 d238
00000080: 6002 f1b9 a694 b4ba 109f 57ba 6167 bd38
00000090: f64f b23b bc87 07bb 1aba ca39 85d8 a3b9
000000a0: 7529 8738 95d1 66b9 76a4 cdba 4ea9 b8b8
000000b0: 6e42 613a d678 ae39 9239 b7b9 b0ad b3b8
000000c0: 1ad4 e2ba 419b 58ba e851 92ba f2ea b4b9
000000d0: 2448 88ba 46c9 16bb 7f47 efba 9db3 6337
000000e0: ed7b bdb9 e524 68ba 543f 85ba d89d 28bb
000000f0: d153 12ba 91ab d0b9 dba3 f4ba e42e a438
00000100: 5039 f2ba 5daa fe3b ab52 34ba b3e8 b5ba
00000110: 7457 f5b8 c7ca 9dba 4bf8 813b 126f 1dba
00000120: 65c8 b0ba b6fb 9eba 9ea9 9938 49d2 0e3c
00000130: 2fb7 04ba 1682 26bb 74ba 6cb8 0f95 64b9
00000140: f012 2dba 4a16 5f39 5937 68b9 bad6 a5ba
00000150: 7a7c 88ba 8062 fc38 6a83 8c3b da7f b7ba
00000160: efdd 8936 6146 a8b9 615c 033a 8082 19ba
00000170: 0e27 b0ba 8d7b 4bb9 5333 c039 8152 d438
00000180: 4dd7 93b9 0d7f a8b8 8e1d d0ba e10f 21ba
00000190: 1a15 18bc c1f1 723b c689 bb3b 3ae1 5c3b
000001a0: 6c79 22b9 7376 983b d094 0dbc de66 033c
000001b0: 4f24 253c aace e13b 627b 363b cca4 3d3c
000001c0: b28d 84bb 44d5 b6ba d44e 0bbb d5af 633c
000001d0: 6590 b4b9 9665 433b 5aa8 393b 4851 d43b
000001e0: eb05 4c3c ab8f 083c 5005 143c cc70 923a
000001f0: 9cdf b2bb 5eab 35bc 0d2c 85bb 6120 babb
00000200: 0155 55bc 1215 dcba fd1a 25bc 9b3e 89bb
00000210: 956a 163b bce6 ae3a e6c2 1837 aa1f c13b
00000220: 148c 0f3c 6eb7 78bb 9208 543b 07d4 023a
00000230: f99f 283c 8593 06bb 18aa 193c 215f 3a3c
00000240: 4d3e e23b ad59 83bb e374 3ebc 4bf5 8f3b
00000250: d69d c3bb dbea 92bb 6eff a6ba 2660 e3b9
00000260: 46e0 a2ba 63b5 0cbb d8ce 1dbb 27f9 1038
00000270: d5ab b5b9 6705 dcba e3c2 9dba fd5e 2cbb
00000280: 5f87 23ba c534 c6b9 81ea d8ba aae1 d639
00000290: 854f f5ba 118d 473c 2094 91ba 2dca 8fba
000002a0: 3bb0 1eb9 b9fd dfba 0d20 c33b 026e 81ba
000002b0: 95e5 86ba 3f03 70ba 1553 b3b7 9b24 523c
000002c0: 45d3 75b9 16e9 32bb 6516 60b9 2c41 7eb9
000002d0: 9f97 20ba 61b4 64b8 063e e4b9 5af9 b1ba
000002e0: 9f94 55ba a057 c238 3c54 dd3b 7710 07bb
000002f0: 3bdf a839 f507 96b9 0d11 4939 6508 c1b9
00000300: dc2c b0ba 53a4 b0b8 04bb b13a 59fc de39
00000310: 7099 beb9 51b6 ccb8 e49d d3ba 2351 59ba

lstm_layer.lstm1.bias_hh_l0 f4 [200]
-0.0013012193 -0.00043024853 -0.0011184309 -0.001784057 -0.002313441 3.2971595e-05 -0.00029795888 -0.0015831374
-0.0012049604 -0.0026955344 -0.00062890776 -0.0003842423 -0.0017930944 4.640363e-05 -0.0020414114 0.009609828
-0.0010636189 -0.0012525547 -0.00015529287 -0.0015780329 0.0049998667 -0.0010416243 -0.0012255291 -0.0011088139
-4.1749117e-05 0.01038852 -0.0002984216 -0.002785494 -0.00020130043 -0.00023800862 -0.0006269718 0.00010456447
-0.00053030363 -0.001203339 -0.0010156123 9.792583e-05 0.0054415856 -0.0020680174 0.0002593425 -0.00029234434
0.00020853434 -0.00048416553 -0.0015974912 -7.976402e-05 0.0008598689 0.00035778407 -0.00030748855 -0.000122541
-0.0015645246 -0.000826101 -0.00096767436 -0.00034911017 -0.0008621555 -0.0015734838 -0.0018333574 7.422746e-05
-0.00031444148 -0.0010621484 -0.0010230253 -0.00259152 -0.00055418693 -0.0002232962 -0.00090322073 0.000119595374
-0.0018251034 0.0077710645 -0.00092348416 -0.0005753164 -0.00010130827 -0.0012703034 0.0039694174 -0.00063261826
-0.0013490636 -0.0012434359 6.5031985e-05 0.008717883 -0.00046077772 -0.0025411642 -8.74532e-05 -0.0001665035
-0.000633117 0.0001767279 -0.0002473132 -0.0012624231 -0.0010310054 0.000117273725 0.004288139 -0.001504033
-9.60433e-05 -0.0002797888 0.000233934 -0.00063064275 -0.0013439312 -0.00019405565 0.00036643894 0.00014159444
-0.0002736426 -7.02628e-05 -0.0018196953 -0.0006112792 -0.009287165 0.0037296808 0.0057123564 0.0033697023
-0.00015472624 0.0046541765 -0.0085985195 0.008040832 0.010078872 0.006798238 0.0027873951 0.011574959
-0.00403417 -0.001395407 -0.0021249526 0.013878082 -0.0003424412 0.0029851773 0.0028297892 0.0064794044
0.012452002 0.00833589 0.009034718 0.0011181288 -0.0054529062 -0.011086537 -0.004064106 -0.0056863124
-0.013024082 -0.0016732104 -0.010040817 -0.0041869055 0.0022947397 0.001334416 3.2181836e-06 0.0059573334
0.008755185 -0.0037950291 0.003237084 0.0004990788 0.010292781 -0.0020518543 0.009373902 0.011374692
0.007142211 -0.0040099756 -0.011625964 0.004393934 -0.0059678387 -0.0044763777 -0.0013623344 -0.00043173615
-0.0011951891 -0.0017740369 -0.002280886 2.4697467e-06 -0.00036270104 -0.0016764803 -0.0011361284 -0.00263124
-0.0005834212 -0.0003505657 -0.0015312493 0.00035406498 -0.001999262 0.012179811 -0.0010562886 -0.00042184908
-0.00014678802 -0.0017137199 0.0059553524 -0.0010386439 -0.0010159631 -0.001152984 -2.1093974e-05 0.012826031
-0.00034526858 -0.0027420414 -0.00026306725 -0.00030173612 -0.00060278364 1.763375e-05 -0.00046139848 -0.0012695084
-0.0011079331 9.3995855e-05 0.0067532314 -0.0020367263 0.00057817117 -0.00023912059 0.00032445593 -0.0004739696
-0.0015918635 -7.943947e-05 0.0013560242 0.00040902957 -0.00032009793 -8.12359e-05 -0.001225907 -0.000830805
00000000: ad8d aaba fb92 e1b9 5098 92ba 05d7 e9ba
00000010: 199d 17bb fb4a 0a38 5d37 9cb9 4781 cfba
00000020: c3ef 9dba 90a7 30bb 49dd 24ba 2174 c9b9
00000030: 4406 ebba 85a1 4238 33c9 05bb 8a72 1d3c
00000040: 2169 8bba c32c a4ba 1dd6 22b9 ffd5 ceba
00000050: ecd5 a33b 1d87 88ba efa1 a0ba 9f55 91ba
00000060: c61b 2fb8 9c34 2a3c 7875 9cb9 d68c 36bb
00000070: 2c14 53b9 f491 79b9 5e5b 24ba 9f49 db38
00000080: 1304 0bba 5bb9 9dba 4b1e 85ba 885d cd38
00000090: 544f b23b 9387 07bb 5cf8 8739 cb45 99b9
000000a0: 03aa 5a39 99d7 fdb9 e962 d1ba fb46 a7b8
000000b0: d368 613a f794 bb39 6a36 a1b9 597e 00b9
000000c0: bc10 cdba b38e 58ba 87ab 7dba c608 b7b9
000000d0: 4702 62ba 5b3d ceba 444d f0ba 90aa 9b38
000000e0: 9fdb a4b9 c937 8bba 0817 86ba 7ed6 29bb
000000f0: db46 11ba 9e24 6ab9 1ec6 6cba 47cf fa38
00000100: 4f38 efba 6aa4 fe3b f915 72ba d4d0 16ba
00000110: 7775 d4b8 4f80 a6ba e311 823b 4bd6 25ba
00000120: 10d3 b0ba c9fa a2ba c861 8838 74d5 0e3c
00000130: 8a94 f1b9 a989 26bb 1467 b7b8 7197 2eb9
00000140: c3f7 25ba 0950 3939 d1a9 81b9 e477 a5ba
00000150: cd22 87ba daf0 f538 8483 8c3b f922 c5ba
00000160: db6a c9b8 9eb0 92b9 2e4c 7539 b851 25ba
00000170: d926 b0ba 6b7b 4bb9 9a1e c039 f878 1439
00000180: b077 8fb9 0e5a 93b8 d882 eeba 413e 20ba
00000190: 3129 18bc a96d 743b b82e bb3b 39d6 5c3b
000001a0: 023e 22b9 1082 983b cee0 0cbc b2bd 033c
000001b0: da21 253c c1c3 de3b bbac 363b e6a4 3d3c
000001c0: 1231 84bb 17e6 b6ba ca42 0bbb e560 633c
000001d0: ae89 b3b9 f7a2 433b fc73 393b 2f51 d43b
000001e0: 7b03 4c3c 4293 083c 5b06 143c 2d8e 923a
000001f0: 4bae b2bb 4ea4 35bc 312c 85bb 3f54 babb
00000200: f662 55bc a04f dbba 3d82 24bc 4f32 89bb
00000210: 5863 163b 92e7 ae3a f9f7 5736 bc35 c33b
00000220: e871 0f3c 06b6 78bb 4225 543b 9cd4 023a
00000230: 0da3 283c 6778 06bb ff94 193c eb5c 3a3c
00000240: 3509 ea3b 1d66 83bb d47a 3ebc fdfa 8f3b
00000250: dc8d c3bb 94ae 92bb 5b90 b2ba a55a e2b9
00000260: e4a7 9cba cd86 e8ba eb7a 15bb edbd 2536
00000270: e928 beb9 58bd dbba 25ea 94ba e270 2cbb
00000280: bcf0 18ba 22cc b7b9 33b4 c8ba cca1 b939
00000290: 0d06 03bb d48d 473c 2a73 8aba a02b ddb9
000002a0: 1ceb 19b9 e69e e0ba 1e25 c33b 1b23 88ba
000002b0: 112a 85ba b91f 97ba f7f2 b0b7 4624 523c
000002c0: 2a05 b5b9 d2b3 33bb 4aec 89b9 5632 9eb9
000002d0: 2004 1eba 31ec 9337 dbe7 f1b9 a265 a6ba
000002e0: 1138 91ba a41f c538 364a dd3b 997a 05bb
000002f0: 6990 173a 72bc 7ab9 bd1b aa39 1f7f f8b9
00000300: 13a6 d0ba be98 a6b8 9fbc b13a 0573 d639
00000310: d1d2 a7b9 315d aab8 9dae a0ba 61ca 59ba

gbrbm.W f4 [50, 100]
0.00135927 -0.0017871571 0.0007090886 -0.00039758114 -0.0012258079 -0.00022460899 -0.0013466015 0.00016697195
-0.0019354954 0.00085853814 -0.0032868506 -0.0025184718 -0.002820708 -0.002911745 -0.002573719 0.0020218615
0.0020347831 -0.001285511 0.0005259628 -0.0023269192 0.00017189558 0.0021717956 -0.001386337 0.00025785132
-0.0019357792 0.0011202224 -0.00020175302 -0.00011273227 -0.00012220033 0.0028380132 0.003286449 0.0034658213
0.0014355608 0.0025890365 0.0020168198 0.0034723675 0.0028774044 -0.0027950983 -5.0802184e-05 0.0004948109
-0.0036937606 0.004107383 0.0010439738 0.0015513554 -0.0017761386 0.0010910286 0.0027244966 0.00024332493
-0.0012862046 -0.0022655244 0.0028376463 -0.00094868673 0.0038754982 -0.00096264196 0.0015746546 -0.00075759465
0.003097821 0.0010261555 0.0006717141 -0.0011071371 -0.0056235185 0.0030958746 -0.00123315 0.0005428206
0.0012354974 -0.0022131582 -0.00080001797 -0.0011505933 0.0046039196 -0.00025141644 0.00091486675 0.0011538819
-0.0032927569 0.002530466 -0.0021573196 0.0019344173 -0.003119831 0.0014438244 -0.0023267157 -0.0031128665
0.0040772473 -0.00029784074 0.0031589556 0.0013816487 -0.0011364631 0.0002946093 0.0038314785 2.3407081e-05
-0.0016586072 0.00071819115 1.2603898e-05 0.0010719891 0.0020909603 -6.829238e-05 -0.002028281 -0.0023225383
0.003130752 0.0015854974 0.001282806 0.0044738688 0.0020835216 -0.0005195297 -0.00012693233 -0.0010193567
-0.0010800941 -0.0023014506 -0.0025399032 -0.0007138426 0.0009588735 0.0018769569 -0.0008367712 0.0008779199
-0.00091981364 0.0010494436 0.00025102714 -0.00012498876 8.022196e-06 -0.0006707001 0.002541209 -0.0009293762
0.0018763824 0.0027230054 0.00066265225 0.0035553768 -0.0013243186 0.00020212583 0.00094977365 0.0038001118
-0.0003091398 0.0012300261 0.00159447 0.0040923194 0.00022114547 0.0014293661 0.0012242928 -0.00036326994
-0.0008220985 -0.00020597763 0.0010638228 0.0025712457 -0.0014990268 -8.973625e-05 0.00088899955 0.0007960174
-0.0010397326 -0.0004272535 -0.0014987139 0.0012796866 -0.00046504114 -0.0007206453 0.0011469714 0.00017020105
0.00012060974 -0.00017902443 -0.00069727516 -8.7802575e-05 0.0016665045 0.00087625615 0.0033271885 -4.402581e-05
0.0011754294 0.0009965448 0.00042357238 -0.00034923194 -0.0013361424 0.0005000474 -0.0014781704 0.00037547477
0.0006447923 0.0026875902 -4.074898e-05 -0.001373468 0.00016270063 0.0005060406 2.870243e-05 0.00091482804
-0.00024083733 -0.002430465 0.00024893833 0.0011451382 -0.001156554 0.0012303527 0.0008483106 -0.00049153273
0.0015525158 0.00011788112 0.0004899397 -0.0013361342 -0.0015033643 -0.0010575156 0.0009761624 -0.0020769518
-0.00032043643 -0.0003166592 -0.0009336102 0.0016057646 -0.0006797624 -0.0005023458 -0.001500756 0.0017801197
-0.0013200343 -0.0018373035 -0.0024263533 -0.0011341793 -0.00053027895 0.00029654568 -0.0011092974 0.0021643399
-0.0021325247 -0.00037624504 -0.00018761671 5.9518436e-05 -0.0010667378 0.00012356104 0.000576309 0.00013556775
0.0004669932 -0.0011274181 -0.0009352024 -0.0032505244 -0.0019060378 -0.000968665 -0.00074209285 -0.0019277906
-0.00041412344 0.0009647397 -0.0017335723 0.00018218545 -0.0013597886 0.00054538605 0.0032719828 0.0037396883
0.0018688508 5.4834105e-05 -0.0009263263 -0.00019184976 -0.002145967 -0.0035115134 -0.00017551647 -0.0012224272
-0.00022587604 -0.002059704 -0.0005695349 0.0019122848 -0.002344244 -0.001906688 0.0011523928 0.0001885389
-0.0016771725 -0.0018067262 -0.0009853863 -0.0014157783 -0.0014408479 -0.00085911615 -0.00311465 -0.0006110162
00000000: 8829 b23a 0b3f eaba 21e2 393a 7072 d0b9
00000010: 4aab a0ba 0485 6bb9 7380 b0ba 3115 2f39
00000020: 73b0 fdba 850f 613a 3468 57bb f20c 25bb
00000030: a1db 38bb fad2 3ebb d7ab 28bb 3581 043b
00000040: ff59 053b 977e a8ba c4e0 093a 3a7f 18bb
00000050: de3e 3439 af54 0e3b c0b5 b5ba 3830 8739
00000060: f9b9 fdba 6dd4 923a aa8d 53b9 ad6a ecb8
00000070: e722 00b9 f6fd 393b 7761 573b d522 633b
00000080: 6d29 bc3a d3ac 293b 9f2c 043b a990 633b
00000090: d692 3c3b f82d 37bb 6e14 55b8 33b6 013a
000000a0: 0513 72bb 3a97 863b f3d5 883a d956 cb3a
000000b0: 52cd e8ba d800 8f3a 788d 323b 0a25 7f39
000000c0: dd95 a8ba 3179 14bb cef7 393b 4ab1 78ba
000000d0: 12fc 7d3b cf59 7cba a464 ce3a 5199 46ba
000000e0: d004 4b3b 1180 863a f815 303a 5b1d 91ba
000000f0: 7e45 b8bb 28e4 4a3b a6a1 a1ba 134c 0e3a
00000100: 6af0 a13a a20a 11bb 4cb8 51ba 81cf 96ba
00000110: 7adc 963b 8bd0 83b9 abd3 6f3a da3d 973a
00000120: 4bcb 57bb 2dd6 253b d161 0dbb 468c fd3a
00000130: 1476 4cbb b53e bd3a d07b 18bb 3c01 4cbb
00000140: 6e9a 853b 8227 9cb9 7b06 4f3b 7018 b53a
00000150: 60f5 94ba ca75 9a39 8b19 7b3b 535a c437
00000160: 9f65 d9ba fe44 3c3a 5475 5337 fc81 8c3a
00000170: 7e08 093b 3138 8fb8 e9ec 04bb ba35 18bb
00000180: 4d2d 4d3b 77d0 cf3a d423 a83a 8899 923b
00000190: b18b 083b 0c31 08ba 2319 05b9 ef9b 85ba
000001a0: f291 8dba efd3 16bb 8174 26bb 2a21 3bba
000001b0: e95c 7b3a 3904 f63a c45a 5bba 3524 663a
000001c0: a61f 71ba 7c8d 893a 4b9c 8339 6a0f 03b9
000001d0: 1297 0637 ecd1 2fba 6a8a 263b 62a1 73ba
000001e0: f2f0 f53a 7374 323b d7b5 2d3a 5301 693b
000001f0: c294 adba bdf1 5339 3bfa 783a 4c0b 793b
00000200: 0b14 a2b9 d438 a13a 89fd d03a dd18 863b
00000210: 49e3 6739 9159 bb3a 7378 a03a 4475 beb9
00000220: 1982 57ba b3fb 57b9 f86f 8b3a 5882 283b
00000230: fe7a c4ba c830 bcb8 c00b 693a d3ab 503a
00000240: a347 88ba fe00 e0b9 7e70 c4ba 28bb a73a
00000250: c4d0 f3b9 b0e9 3cba f955 963a ff77 3239
00000260: dcef fc38 81b8 3bb9 58c9 36ba a622 b8b8
00000270: 9d6e da3a 8eb4 653a f60c 5a3b 5ba8 38b8
00000280: de10 9a3a 7f9e 823a ec12 de39 1e19 b7b9
00000290: 8021 afba 9d15 033a 2bbf c1ba 5fdb c439
000002a0: 4707 293a 4822 303b e2e9 2ab8 f005 b4ba
000002b0: 9e9a 2a39 cfa7 043a 00c6 f037 12d1 6f3a
000002c0: 4789 7cb9 7048 1fbb f083 8239 7618 963a
000002d0: 8397 97ba c943 a13a 2961 5e3a 34da 00ba
000002e0: c97d cb3a f236 f738 4c6f 003a 3921 afba
000002f0: 890c c5ba 569c 8aba 26e5 7f3a 781d 08bb
00000300: 4000 a8b9 4705 a6b9 85bd 74ba 8578 d23a
00000310: 1532 32ba dbaf 03ba 04b5 c4ba e852 e93a
00000320: 0005 adba add1 f0ba 7403 1fbb bea8 94ba
00000330: 6b02 0bba b079 9b39 d865 91ba 99d7 0d3b
00000340: d4c1 0bbb c142 c5b9 faba 44b9 6fa3 7938
00000350: c8d1 8bba 2a90 0139 7113 173a 3127 0e39
00000360: c4d6 f439 e0c5 93ba 5f28 75ba c006 55bb
00000370: 04d4 f9ba 02ee 7dba 0289 42ba ebad fcba
00000380: b51e d9b9 96e6 7c3a 0939 e3ba 0909 3f39
00000390: ef3a b2ba 3df8 0e3a c36e 563b 8f15 753b
000003a0: 3af4 f43a acfd 6538 b5d4 72ba 472b 49b9
000003b0: 5aa3 0cbb 6b21 66bb d80a 38b9 da39 a0ba
000003c0: 23d9 6cb9 19fc 06bb d74c 15ba a1a5 fa3a
000003d0: e3a1 19bb d5e9 f9ba e30b 973a 87b2 4539
000003e0: 92d4 dbba accf ecba 1428 81ba a391 b9ba
000003f0: d5da bcba 4f36 61ba 281f 4cbb 9a2c 20ba

gbrbm.b f4 [100]
-0.41697255 -0.10295378 -0.16529174 -0.5785016 -0.5431336 -0.28993148 -0.5220985 -0.5789187
-0.43088397 -0.40187177 -0.24939738 -0.4733627 -0.21644442 -0.4360162 -0.2971248 -0.19689234
-0.4228567 -0.6338714 -0.4412788 -0.45823154 -0.22620721 -0.6750206 -0.5771274 -0.09031177
-0.6281074 -0.65381634 -0.28066385 -0.39486316 -0.08390141 -0.49951077 -0.42692584 1.9696777
-0.34634298 -0.045681413 -0.40231222 -0.39699835 -0.81491214 -0.51466155 -0.27068636 -0.51299375
-0.6822344 -0.42578143 -0.35921118 -0.284972 -0.5331055 -1.171423 -0.59718287 -0.26585862
-0.5923307 -0.9061389 -0.4273745 -0.38186738 -0.4038359 -0.6759168 -0.28403947 -0.5102143
-0.28623533 -0.54319215 -0.55808127 -0.4217089 -0.63227665 -0.3748787 -0.37091535 -0.38076302
-0.2962047 -0.39762068 -0.37409037 -0.54880023 -0.7546008 -0.46345702 -0.381957 -0.42391074
-0.47672686 -0.56752026 -0.35798642 -0.8242066 -0.84813076 -0.5816067 -0.56604147 -0.5745717
-0.38732615 -0.53524077 -0.18693627 -0.44795692 -0.36449814 -0.4066586 -0.58474725 -0.27506143
-0.2860602 -0.56638044 -0.49711698 -0.3105833 -0.23412876 -0.6556477 -0.69483435 -0.56528217
-0.8276625 -0.42893732 -0.7642363 -0.40049085
00000000: 6d7d d5be 6ed9 d2bd 3d42 29be ae18 14bf
00000010: ce0a 0bbf e671 94be 3fa8 05bf 0434 14bf
00000020: d39c dcbe 23c2 cdbe 0762 7fbe 995c f2be
00000030: 9ba3 5dbe 843d dfbe be20 98be 259e 49be
00000040: ac80 d8be 6545 22bf 4bef e1be 539d eabe
00000050: dda2 67be 26ce 2cbf 9fbe 13bf 61f5 b8bd
00000060: a6cb 20bf 8260 27bf 2cb3 8fbe 812b cabe
00000070: 81d4 abbd e0bf ffbe 0696 dabe 661e fc3f
00000080: de53 b1be 6f1c 3bbd defb cdbe 5e43 cbbe
00000090: 159e 50bf dcc0 03bf 6797 8abe 8f53 03bf
000000a0: eaa6 2ebf 0600 dabe 87ea b7be dae7 91be
000000b0: 9a79 08bf 30f1 95bf fae0 18bf 9f1e 88be
000000c0: fca2 17bf b8f8 67bf d5d0 dabe 1f84 c3be
000000d0: 94c3 cebe e208 2dbf 9f6d 91be 689d 02bf
000000e0: 708d 92be a40e 0bbf 6ade 0ebf 3bea d7be
000000f0: e2dc 21bf 1af0 bfbe 9ee8 bdbe 5ff3 c2be
00000100: 24a8 97be f094 cbbe c688 bfbe 2c7e 0cbf
00000110: 852d 41bf 3d4a edbe de8f c3be d40a d9be
00000120: 8b15 f4be 0249 11bf ff49 b7be 34ff 52bf
00000130: 191f 59bf 2de4 14bf 18e8 10bf 2217 13bf
00000140: 9d4f c6be 8a05 09bf 396c 3fbe 9c5a e5be
00000150: 809f babe 8e35 d0be ffb1 15bf dad4 8cbe
00000160: 7c76 92be 4ffe 10bf 1e86 febe c604 9fbe
00000170: 73bf 6fbe 87d8 27bf aae0 31bf 55b6 10bf
00000180: b1e1 53bf ac9d dbbe fda4 43bf 230d cdbe

gbrbm.mu f4 [50]
-0.021152418 0.003204613 0.01522832 0.013082591 0.010294957 0.009336432 -0.0231094 0.009326994
0.024761897 0.046293307 0.004566002 0.016526164 -0.002243767 -0.0047259587 -0.0045289104 0.07280107
0.00066890236 0.010046222 0.0069895764 0.023110673 0.072043434 0.02004177 0.065222986 0.0036677744
-0.004663165 -0.07707606 -0.011311917 -0.048877914 -0.04549251 0.0011619464 -0.029943155 -0.010566776
0.010692524 -0.0005483488 0.008074513 0.016121192 0.06634956 -0.0004483708 0.007889445 0.00011458821
0.028080693 -0.011796474 0.033521168 0.018334048 0.053976752 -0.011510753 -0.029458918 0.0052864477
-0.025950965 -0.029281775
00000000: d647 adbc 7c04 523b 3480 793c 5d58 563c
00000010: 2eac 283c d6f7 183c ed4f bdbc 40d0 183c
00000020: 76d9 ca3c 0d9e 3d3d 679e 953b e161 873c
00000030: 2a0c 13bb 37dc 9abb 4167 94bb ba18 953d
00000040: 4759 2f3a e998 243c d108 e53b 9852 bd3c
00000050: 828b 933d a32e a43c a193 853d 0b5f 703b
00000060: 77cd 98bb 0eda 9dbd 9e55 39bc 3534 48bd
00000070: 5b56 3abd 744c 983a 594b f5bc 4520 2dbc
00000080: b22f 2f3c 11bf 0fba f64a 043c 9710 843c
00000090: 47e2 873d 4f13 ebb9 bb42 013c 144f f038
000000a0: 7b09 e63c 0046 41bc 7e4d 093d 4931 963c
000000b0: ba16 5d3d 9997 3cbc d453 f1bc f039 ad3b
000000c0: 1e97 d4bc 55e0 efbc

gbrbm.log_var f4 [50]
-6.9811273 -7.114607 -7.0812263 -7.0937834 -7.0722237 -7.062979 -7.0199895 -7.095325
-7.0277724 -6.129121 -7.0775614 -7.0203977 -7.0425215 -7.099049 -7.0818334 -5.4522142
-7.0945773 -7.103675 -7.1256514 -7.120384 -5.783872 -7.10418 -5.9831944 -7.1278768
-7.070123 -5.4769597 -7.048444 -6.2438183 -7.025609 -7.0923843 -6.7729473 -7.1058445
-7.1106524 -7.1121016 -7.116133 -6.733733 -5.629272 -7.052258 -7.0089 -7.09866
-7.09938 -7.0757437 -7.0229764 -6.9544287 -5.8385487 -6.9260154 -7.082607 -7.082761
-7.0623927 -6.9436393
00000000: 6565 dfc0 dcaa e3c0 6899 e2c0 4600 e3c0
00000010: a84f e2c0 ed03 e2c0 c1a3 e0c0 e70c e3c0
00000020: 83e3 e0c0 c221 c4c0 627b e2c0 19a7 e0c0
00000030: 565c e1c0 692b e3c0 619e e2c0 8a78 aec0
00000040: c706 e3c0 4e51 e3c0 5605 e4c0 30da e3c0
00000050: 7b15 b9c0 7155 e3c0 5476 bfc0 9117 e4c0
00000060: 733e e2c0 4143 afc0 da8c e1c0 5ccd c7c0
00000070: cad1 e0c0 d0f4 e2c0 fcbb d8c0 1463 e3c0
00000080: 778a e3c0 5696 e3c0 5db7 e3c0 be7a d7c0
00000090: ff22 b4c0 19ac e1c0 e948 e0c0 3928 e3c0
000000a0: 1f2e e3c0 7e6c e2c0 39bc e0c0 ae8a dec0
000000b0: 64d5 bac0 eba1 ddc0 b7a4 e2c0 faa5 e2c0
000000c0: 1fff e1c0 4b32 dec0

gbrbm.linear_layer.weight f4 [1, 100]
0.02524597 -0.19065267 -0.14803316 0.122330405 0.08527343 -0.0376061 0.01364591 0.13094954
-0.1012552 -0.041730247 -0.108105846 -0.059469588 -0.1548149 -0.024550142 -0.021717349 -0.17230053
-0.0067461696 0.02841283 -0.0062496145 -0.041940674 -0.03303067 0.11318233 0.15929955 -0.13347687
0.1716158 0.19871946 -0.13500902 -0.032303512 -0.0765485 0.008506525 0.0076011363 -0.22713861
-0.0008586287 -0.18451467 -0.05191494 -0.089775905 0.2912778 0.034385584 -0.07302688 0.056173794
0.18163072 -0.13828023 -0.018107427 -0.17527708 0.07927603 0.569468 0.21497193 0.018769061
0.15787685 0.33819717 -0.033545386 -0.0783464 0.040122934 0.11010458 -0.13025072 0.11203116
-0.1466451 0.14655642 -0.01960536 -0.07722982 0.07901727 -0.19025002 0.07407179 0.052868526
-0.08101841 0.0719116 0.03512969 -0.005946404 0.27476606 -0.02146496 0.00084044604 0.016110847
0.1327892 -0.039170623 0.07363533 0.26830772 0.37027505 0.21808302 0.09433125 0.06535549
-0.0011339997 -0.01679136 -0.15227692 0.01648038 -0.13112289 -0.0717349 0.24435791 -0.06407682
-0.08185582 -0.04548201 -0.000364971 -0.17106928 -0.18513952 0.15599838 0.06125646 -0.022879977
0.26106182 0.20890655 0.2511831 0.012089352
00000000: a3d0 ce3c 743a 43be 0196 17be 5d88 fa3d
00000010: d6a3 ae3d db08 1abd 1893 5f3c a317 063e
00000020: e35e cfbd 56ed 2abd 9966 ddbd 6296 73bd
00000030: cc87 1ebe 611d c9bc 95e8 b1bc 8d6f 30be
00000040: f90e ddbb 06c2 e83c 91c9 ccbb fcc9 2bbd
00000050: 2b4b 07bd 23cc e73d 6c1f 233e 29ae 08be
00000060: 0dbc 2f3e 1d7d 4b3e ce3f 0abe b050 04bd
00000070: 76c5 9cbd f45e 0b3c f412 f93b 0697 68be
00000080: 9915 61ba 6af1 3cbe c3a4 54bd 6edc b7bd
00000090: 5d22 953e e6d7 0c3d 1e8f 95bd 7e16 663d
000000a0: 67fd 393e 5599 0dbe 0756 94bc d67b 33be
000000b0: 795b a23d a8c8 113f 9a21 5c3e 93c1 993c
000000c0: 78aa 213e 2e28 ad3e e366 09bd 1474 a0bd
000000d0: f257 243d 837e e13d 7260 05be 9870 e53d
000000e0: 222a 16be e312 163e 6c9b a0bc ab2a 9ebd
000000f0: ced3 a13d e7d0 42be f3b2 973d ab8c 583d
00000100: fbec a5bd 6446 933d 26e4 0f3d 0dda c2bb
00000110: 23ae 8c3e 49d7 afbc 6151 5c3a e5fa 833c
00000120: e4f9 073e 6071 20bd 1fce 963d a15f 893e
00000130: b194 bd3e 2851 5f3e be30 c13d 19d9 853d
00000140: b7a2 94ba 098e 89bc 7bee 1bbe dd01 873c
00000150: 1445 06be bfe9 92bd f638 7a3e b53a 83bd
00000160: 06a4 a7bd 584b 3abd 9459 bfb9 c92c 2fbe
00000170: 3795 3dbe 0abe 1f3e 0ee8 7a3d ca6e bbbc
00000180: e5a9 853e 99eb 553e 129b 803e 6b12 463c
